pre_trained_models/meld_senti_aligned_L_TRANSLATOR.pt (torch, 336429 bytes, 35 tensors)

multi f4 [1, 32]
0	0xbecfe94b	-0.40607676
1	0xbd79c307	-0.06097701
2	0xbe8e420a	-0.2778476
3	0x3ebb3301	0.3656235
4	0xbe09fc22	-0.13475087
5	0x3e9c2c77	0.30502674
6	0x3db54a2b	0.08852037
7	0x3da0ede6	0.078578755
8	0xbccb08c3	-0.024784451
9	0x3e92d46c	0.2867769
10	0xbdd3d0f6	-0.103425905
11	0x3e3cf103	0.18451314
12	0x3da1e5a6	0.0790513
13	0x3ed9997a	0.42499906
14	0xbe74b082	-0.23895457
15	0xbed40aae	-0.41414398
16	0xbdb59fce	-0.08868371
17	0x3ca267e1	0.019824924
18	0xbe4aed98	-0.19817197
19	0x3e540fdb	0.20709173
20	0x3eda44fc	0.42630756
21	0x3e9388f9	0.2881544
22	0xbdb799b8	-0.089648664
23	0x3ed2b872	0.41156346
24	0x3e68d183	0.22736172
25	0xbebfee0a	-0.37486297
26	0xbe28ba87	-0.16477405
27	0x3ec1d221	0.37855628
28	0x3e851112	0.25989586
29	0x3eae9e24	0.34105027
30	0x3e700037	0.23437582
31	0xbd9a5340	-0.0753541

weight f4 [33, 32]
0	0xbf8f2da2	-1.1185801
1	0x3e27f90a	0.16403595
2	0xbf3358ab	-0.7005717
3	0x3f754c4f	0.9581956
4	0x3fdc11f2	1.7192976
5	0xbe6daee5	-0.23211248
6	0xbf5ff9d5	-0.8749059
7	0xc003687d	-2.0532525
8	0xbdac18d9	-0.08403177
9	0xbec5d2ef	-0.38637492
10	0x3fd2f60b	1.6481336
11	0xbe1a51ed	-0.15070315
12	0xbfe01d96	-1.7509029
13	0xbfa96ce5	-1.3236357
14	0x3f3187b6	0.69347703
15	0x3fa72afc	1.3059993
16	0xbf67d0cf	-0.9055299
17	0x3c14a146	0.009071654
18	0xbf0798db	-0.52967614
19	0xbdbc6690	-0.0919925
20	0xbf4bc248	-0.79593325
21	0xbd1111e1	-0.03541744
22	0xbf271574	-0.6526711
23	0x3d878014	0.06616226
24	0x3fd6eb46	1.679055
25	0xbfd0881e	-1.629154
26	0xbfdc98a9	-1.7234088
27	0xbf518674	-0.81845784
28	0x3f0a84fa	0.54109156
29	0x3dd299dd	0.10283253
30	0x3f15f80b	0.5858161
31	0x3f16d686	0.58921087
32	0xbf14a6c4	-0.58066964
33	0x3fae5a34	1.3621278
34	0x3f2f9070	0.6857977
35	0xbceffec0	-0.029296279
36	0xbf96917a	-1.1763146
37	0x3ef7083c	0.4824847
38	0x3dc5b2af	0.09653222
39	0x3e9e72d8	0.30946994
40	0xbf081c58	-0.5316825
41	0x3f2747f8	0.6534419
42	0x3f9a293a	1.2043831
43	0xbf3b2a54	-0.7311146
44	0x3f88d6a1	1.06905
45	0xbeeedbf2	-0.4665218
46	0x3c2d569f	0.010579734
47	0x3dd43170	0.10360992
48	0x3d55ec8d	0.052227546
49	0x3f1afcf6	0.6054224
50	0x3fbaa474	1.4581437
51	0x3d8fbcc3	0.07018425
52	0xbfc31706	-1.5241401
53	0x3f7ddc1f	0.99164003
54	0x3d8edd5d	0.069758154
55	0x3e952cbd	0.29135695
56	0x3e496e02	0.19670871
57	0x3feb047d	1.8360745
58	0x400ea3ad	2.22874
59	0x40340153	2.8125808
60	0xbf9f8d34	-1.2464967
61	0xbdff0424	-0.12451962
62	0x3f3e3811	0.743043
63	0xbf012d9d	-0.50460225
64	0xbd6f75b0	-0.058461845
65	0x3f4fee8d	0.81223375
66	0x3f00cee4	0.5031569
67	0x3f9a73ae	1.2066553
68	0xbf4f998c	-0.8109367
69	0xbe98cdc9	-0.29844502
70	0x3d849d82	0.06475355
71	0xc01ef880	-2.4839172
72	0xbeaf71a3	-0.34266385
73	0x3fd45a19	1.6589996
74	0xbfcf4ecd	-1.6195923
75	0x3ec0ce9e	0.37657636
76	0x3f05e2c6	0.52299154
77	0xbf257a12	-0.6463939
78	0xbe8b6d52	-0.27231842
79	0xbec4f852	-0.38470703
80	0xbf7ec617	-0.9952101
81	0xbf8a6c5b	-1.0814317
82	0x3c6984fb	0.014252896
83	0xbd2d590b	-0.042321246
84	0xbee1037f	-0.4394798
85	0x3e760f23	0.24029212
86	0xc001b00e	-2.0263705
87	0x3fad9893	1.3562187
88	0xbcdc0598	-0.026858136
89	0xbecc73b3	-0.39932021
90	0x3f594023	0.8486349
91	0xbf59e1ed	-0.8511036
92	0xbf896017	-1.0732449
93	0x3e72c675	0.23708518
94	0xbeeb646a	-0.45975047
95	0xbf4d4a79	-0.8019176
96	0xbf659790	-0.8968439
97	0xc003aca1	-2.0574114
98	0x3f0bcee5	0.5461257
99	0x3f147101	0.5798493
100	0xbf1248cc	-0.5714233
101	0x3f8dbacd	1.1072632
102	0x3f93a590	1.1534901
103	0x3f4bee27	0.79660267
104	0xbe962c39	-0.29330614
105	0xbff369e5	-1.9016691
106	0xbe50c7ad	-0.2038867
107	0xbee3751b	-0.44425282
108	0xbf3fdd4e	-0.7494706
109	0x3e51934a	0.20466343
110	0xbfaedf90	-1.3661976
111	0xbee9158c	-0.4552425
112	0xbee3745e	-0.4442472
113	0x3f44e215	0.76907474
114	0xbf997083	-1.1987461
115	0xbed6b996	-0.41938466
116	0x3e614a6e	0.22001049
117	0x3ea3e956	0.3201396
118	0x3e8fe731	0.28106073
119	0xbec5898a	-0.38581496
120	0xbfa8a1cb	-1.3174375
121	0xbf955652	-1.1666968
122	0x3e99a9ba	0.30012304
123	0xbe0b8a9d	-0.13627096
124	0xbf6523c2	-0.8950769
125	0x3faba25a	1.3408921
126	0xbf49eb00	-0.78874207
127	0xbf9665be	-1.1749799
128	0xbe77c6c9	-0.24196924
129	0xbf031ff9	-0.5122066
130	0x3f6402eb	0.8906695
131	0xbfc2e49e	-1.5226018
132	0x3fb54e3a	1.4164498
133	0xbfd5ec72	-1.6712782
134	0xbeafd7ce	-0.34344333
135	0xbd8e8475	-0.06958858
136	0xbfd13cbf	-1.6346663
137	0xbedb8300	-0.42873383
138	0xbfabe8ee	-1.343046
139	0xbf2073e6	-0.62676847
140	0xbf83550e	-1.0260332
141	0x3f8b7035	1.0893618
142	0xc04272d0	-3.0382576
143	0x3ee85082	0.45373923
144	0xbfc54da8	-1.5414324
145	0xbfdaef55	-1.7104288
146	0xbf4246dd	-0.7588938
147	0x3ef14fe8	0.47131276
148	0x3f8e460a	1.1115124
149	0x3cc491c7	0.023995293
150	0xbf99c20c	-1.2012343
151	0x3ea03fab	0.31298575
152	0xbd5da035	-0.054107863
153	0xbf6fc022	-0.93652546
154	0xbf4060e0	-0.7514782
155	0xbdef5492	-0.116860524
156	0x3fa6d112	1.3032553
157	0xbfa47e58	-1.2851057
158	0x40105f4e	2.255817
159	0x3f1c224d	0.6098984
160	0x3f1cb75c	0.61217284
161	0xbfc997f7	-1.5749501
162	0xbee5bc3a	-0.44870168
163	0x3f14c43b	0.58111924
164	0xbf6e33fb	-0.93048066
165	0xbfb36fa2	-1.4018443
166	0x3f8830d0	1.0639896
167	0x3f3cd0e2	0.7375623
168	0x3fc5412a	1.5410511
169	0xbeab8a4e	-0.33503956
170	0xbf70c02f	-0.9404325
171	0x3eb42b54	0.35189307
172	0x3fd35256	1.6509502
173	0x3e637d40	0.22215748
174	0xbf5e11e5	-0.86746055
175	0xbf2d7fe4	-0.6777327
176	0xc00dca2e	-2.215465
177	0x3e01b1cf	0.12665485
178	0xbf855637	-1.0416936
179	0xbd7d3e14	-0.06182678
180	0x3fdf3ade	1.743984
181	0x3e12d406	0.14338693
182	0xbe53a46e	-0.20668194
183	0x3e687210	0.22699761
184	0x3f8bd312	1.0923789
185	0xbf77e943	-0.96840304
186	0x3f96e39b	1.178821
187	0x3ee00e5b	0.43760952
188	0xbf738981	-0.9513169
189	0xc006e674	-2.1078157
190	0x3f238adc	0.6388376
191	0xbd0004ee	-0.0312547
192	0x3f94e0d0	1.1631107
193	0xbf56b68e	-0.83872306
194	0xbdf2fa23	-0.11864116
195	0xbfa2e226	-1.2725265
196	0x3ebc4d0e	0.36777538
197	0x3fccc7e3	1.59985
198	0x3f2486c8	0.6426816
199	0xbf041b08	-0.51603746
200	0xbf7363d2	-0.9507419
201	0xbef755b1	-0.48307565
202	0xbfed01dd	-1.8516194
203	0xbfb3bfaf	-1.4042872
204	0x3f5e2a56	0.8678335
205	0xbf5883a6	-0.8457588
206	0xbd98f341	-0.07468272
207	0x3fc4e64f	1.5382785
208	0x3f4c0d56	0.7970785
209	0x3e7b99fd	0.2457046
210	0x3f2a0c54	0.6642506
211	0xbd34191d	-0.043969262
212	0xc01b943e	-2.430923
213	0xbf10b487	-0.5652546
214	0xbe504c71	-0.2034166
215	0xbeb66b96	-0.35628957
216	0xc022bed7	-2.542898
217	0xbd113f38	-0.03546068
218	0x3f0d4f1c	0.55198836
219	0xbdee3c4b	-0.11632594
220	0xbed77706	-0.42082995
221	0xbee927ef	-0.4553828
222	0xbf891cd0	-1.0711918
223	0xbeabd4c2	-0.3356076
224	0xbc0625ea	-0.00818775
225	0x3f052ae3	0.52018565
226	0xbf1199c1	-0.56875235
227	0xbfc61ae1	-1.5476953
228	0xbe052e45	-0.13005932
229	0xbedda7f6	-0.43292207
230	0xbf481744	-0.781605
231	0x3d884980	0.06654644
232	0xbea19b6a	-0.31563884
233	0x3f528c46	0.8224529
234	0x3fc38dd9	1.5277663
235	0xbf01247f	-0.50446314
236	0x3ecf52fd	0.40493003
237	0x3ee28deb	0.442489
238	0xbfc15d07	-1.5106515
239	0x3f6d5b14	0.927171
240	0xbecf37a1	-0.4047213
241	0x3fa4ff09	1.289033
242	0x3eb6b090	0.35681581
243	0xbec649a5	-0.3872806
244	0x3eb09fe4	0.34496987
245	0x3fa7093d	1.3049694
246	0x3f3746b0	0.71592236
247	0x3f5cf295	0.8630765
248	0xbeffda9e	-0.4997148
249	0x3fcef3f5	1.61682
250	0xbfefb88d	-1.8728195
251	0x3d634771	0.055488054
252	0xbf9f82f2	-1.2461836
253	0xbf16fa50	-0.58975697
254	0x3e1e8dae	0.15483734
255	0xbefe9e98	-0.49730372

weight f4 [4, 32]
0	0x3f6538e4	0.89539933
1	0x3f9d40c2	1.2285388
2	0x3e86f4eb	0.26358733
3	0xbfbc8ef7	-1.473113
4	0x3fb3b5c1	1.4039842
5	0xbf1902ad	-0.5976971
6	0xbd610487	-0.05493596
7	0xbf98fef0	-1.1952801
8	0xbf7ab8cd	-0.97938234
9	0x3f5ae653	0.85507697
10	0xbffdf4b8	-1.9840307
11	0x3daccd37	0.08437579
12	0xbf937be0	-1.1522179
13	0xbf1dd668	-0.6165528
14	0x3ea49e69	0.32152107
15	0x3f9751b3	1.1821808
16	0x3c874ab2	0.01651511
17	0xbf860b4f	-1.0472201
18	0x3e1210ad	0.14264174
19	0x3e731013	0.237366
20	0x3eb9d1c9	0.36292866
21	0x3e24a847	0.16079818
22	0x3f174a50	0.59097767
23	0x3f2d83eb	0.67779416
24	0x3fc35995	1.5261713
25	0x3ead8720	0.33892155
26	0xbd5b5d78	-0.053555936
27	0xbffc0239	-1.9688178
28	0x3d8caede	0.06869291
29	0x3eca9cd0	0.39572763
30	0x3f58f32a	0.8474604
31	0x3f4ad9d0	0.79238605
32	0xbeb51794	-0.3536955
33	0x3f103d58	0.56343603
34	0x3ee54001	0.44775394
35	0x3f5e36fa	0.8680264
36	0x3cc14b2d	0.023595417
37	0x3e523daa	0.20531335
38	0x3e3ddbe6	0.18540916
39	0x3f968aea	1.1761143
40	0x3fb18437	1.3868474
41	0xbee488b6	-0.44635552
42	0xbfc8ddf6	-1.5692737
43	0xbf8937c8	-1.0720148
44	0xbf0235ad	-0.5086315
45	0x3f1458f9	0.5794826
46	0xbf830497	-1.0235776
47	0xbf124879	-0.57141834
48	0xbf68067f	-0.9063491
49	0xbddc8c8f	-0.10768997
50	0xbf3452f5	-0.7043908
51	0xbf6efeb3	-0.9335739
52	0xbf84b6fa	-1.036834
53	0x3ee86a51	0.45393613
54	0x3d707152	0.05870182
55	0xbec7b987	-0.39008734
56	0x3deed324	0.11661366
57	0x3ddf8365	0.109137334
58	0x3f2c293c	0.6725042
59	0x3da5e78e	0.08100806
60	0xbec25f3a	-0.37963277
61	0xbefb79a2	-0.49116236
62	0x3ef2698f	0.4734616
63	0xbfbfedb9	-1.4994422
64	0xbf88cb74	-1.0687089
65	0x3f136024	0.57568574
66	0x3fb79f10	1.4345417
67	0x3f6f7d68	0.9355073
68	0xbf678bc6	-0.9044765
69	0xbe82f8d9	-0.2558048
70	0x3d137bea	0.036006846
71	0x3f9658ab	1.1745809
72	0xbfb7193c	-1.4304576
73	0x3f6c5c07	0.9232792
74	0xbd0d7242	-0.034532793
75	0x3ed9f385	0.42568603
76	0xbeb055a6	-0.34440345
77	0xbf865fa3	-1.0497936
78	0x3e787bf0	0.24266028
79	0xbe9ec3fc	-0.310089
80	0xbfe296e2	-1.7702296
81	0xbef9740a	-0.48721343
82	0x3f6752a2	0.9036046
83	0xbf317d17	-0.69331497
84	0x3f51d38f	0.8196344
85	0xbd86068d	-0.06544218
86	0x3eb6dd89	0.35715893
87	0x3fa18eed	1.2621742
88	0x3ee8dadf	0.45479485
89	0x3f398e65	0.724829
90	0x3fb598ce	1.4187257
91	0x3fbbe867	1.4680299
92	0xbf68bc9c	-0.90912795
93	0x3f0f6e9a	0.5602814
94	0xbfc39af0	-1.5281658
95	0x3f25f8c5	0.6483272
96	0x3f9b00ff	1.2109679
97	0x3f59e9d8	0.8512244
98	0xbc4eb207	-0.012615687
99	0x3f95da8c	1.170732
100	0xbf7cc990	-0.9874506
101	0xbed8642b	-0.42263922
102	0x3ed6c7c0	0.41949272
103	0x401b1075	2.4228795
104	0x3f6b4c79	0.91913563
105	0x3faaa87d	1.3332669
106	0x3ec4f664	0.3846923
107	0xbe82d8e9	-0.25556114
108	0x3f97c1ce	1.185602
109	0x3e346d13	0.17619734
110	0xbdbc678b	-0.09199437
111	0xbfe83297	-1.8140439
112	0x3e155972	0.14584902
113	0xbf46947d	-0.77570325
114	0xc00140c9	-2.0195792
115	0x3fc57152	1.5425208
116	0x3f99b8ef	1.2009562
117	0xbec53fbf	-0.38525197
118	0xbfe147a7	-1.7599992
119	0xbe885683	-0.26628503
120	0x3e50a585	0.2037564
121	0x3ef8cb79	0.48592737
122	0xbec1ba9e	-0.3783769
123	0xbfb98615	-1.4494044
124	0xbf4bbbec	-0.7958362
125	0x3f6ef581	0.9334336
126	0xbfbce782	-1.475815
127	0xbe7afdab	-0.24510829

in_proj_weight f4 [96, 32]
0	0xbd1f6544	-0.038914934
1	0x3dff7489	0.12473399
2	0xbe2bf639	-0.16793145
3	0x3e1c9a32	0.15293196
4	0x3cadf944	0.021237023
5	0xbe1a4930	-0.15066981
6	0xbbb6d033	-0.0055790185
7	0xbe320433	-0.17384414
8	0xbe2047ca	-0.15652385
9	0x3d029e6a	0.031889357
10	0x3dc68f7b	0.096953355
11	0xbe2b08cd	-0.16702576
12	0x3d81e2d9	0.06342096
13	0x3cf67828	0.030086592
14	0xbe1a3da8	-0.15062582
15	0x3d86cb67	0.06581765
16	0x3d5b9013	0.053604197
17	0xbdfb78b1	-0.122788794
18	0x3d878bcd	0.06618462
19	0xbe1d0114	-0.15332443
20	0xba6ce373	-0.0009036578
21	0x3dac2cca	0.0840698
22	0xbd22e25e	-0.03976666
23	0x3e4852fe	0.19562909
24	0xbd82891c	-0.06373808
25	0xbe4f46eb	-0.20241897
26	0xbe570db6	-0.21001324
27	0x3c9ca8f9	0.019123541
28	0x3b956882	0.0045595774
29	0x3db4a106	0.08819775
30	0x3e24845d	0.16066118
31	0x3e588e4e	0.21148035
32	0x3e0693bd	0.13142295
33	0x3e113582	0.14180568
34	0x3e2f0e47	0.1709529
35	0x3dc51b6c	0.09624371
36	0xbe3443b3	-0.1760395
37	0xbe579903	-0.21054463
38	0x3e1a27c0	0.15054226
39	0xbcc24d4a	-0.023718495
40	0xbd84871c	-0.064710826
41	0x3d87c50c	0.066293806
42	0x3e514ae4	0.20438725
43	0x3c5a6d3c	0.013331708
44	0x3e02a400	0.12757874
45	0xbe6588bd	-0.22415443
46	0x3e29be9d	0.1657662
47	0x3e53f0a7	0.2069727
48	0x3e70184b	0.23446767
49	0xbdb6d81f	-0.089279406
50	0x3e6461db	0.22302954
51	0x3e6c3226	0.23066005
52	0x3e2b3339	0.16718759
53	0x3cc78917	0.024357362
54	0xbd6429ea	-0.055704035
55	0x3bfd640a	0.007732873
56	0xbe14a317	-0.14515339
57	0x3e564d80	0.20928001
58	0x3d9fa69d	0.07795451
59	0xbdf7c7eb	-0.12098678
60	0xbe154c96	-0.14579996
61	0xbe2f7038	-0.17132652
62	0x3df2cb11	0.11855138
63	0xbd9136e9	-0.070905514
64	0x3c1781ee	0.009247286
65	0x3dd7690c	0.10518083
66	0x3e42b43d	0.19014068
67	0xbe2b5209	-0.16730513
68	0xbe5011b2	-0.2031925
69	0xbd5d0bb9	-0.053966258
70	0xbcfc58bf	-0.030804036
71	0xbddc3dc0	-0.107539654
72	0x3c847d2c	0.016172968
73	0xbe2424c4	-0.1602965
74	0x3da815f3	0.082073115
75	0xbde6b802	-0.112655655
76	0xbc3140e4	-0.010818694
77	0x3d6afb2a	0.057368435
78	0x3d97a4d2	0.07404484
79	0x3b4e0f71	0.003144231
80	0xbd524f9f	-0.051345464
81	0x3e24b020	0.16082811
82	0xbd3fd994	-0.046838358
83	0x3e159677	0.14608179
84	0xbe4aef5b	-0.1981787
85	0x3e0f249b	0.13978808
86	0x3e39c568	0.18141711
87	0xbe354d74	-0.17705327
88	0x3e150704	0.14553457
89	0xbde9a355	-0.11408106
90	0xbd2f1475	-0.04274412
91	0xbe46656e	-0.1937463
92	0xbd636950	-0.055520356
93	0x3d8ccd61	0.068751104
94	0x3dbf7350	0.09348166
95	0x3df06ee3	0.117399
96	0x3d8ec1a6	0.06970529
97	0x3c775988	0.0150970295
98	0xbdbc0a56	-0.09181659
99	0x3d4568ca	0.048195638
100	0x3d3dd61f	0.04634678
101	0xbe3f86fb	-0.18703835
102	0xbc5c1f3f	-0.013435184
103	0x3e458bac	0.19291562
104	0x3de68b10	0.11256993
105	0xbe20ed59	-0.15715541
106	0x3d37d0c0	0.044876814
107	0xbe39c20c	-0.1814043
108	0xbc563eb7	-0.013076476
109	0xbe721049	-0.23639025
110	0xbe0f4d27	-0.13994275
111	0xbe3f88ae	-0.18704483
112	0xbd2b0e59	-0.04176173
113	0x3dc2bf02	0.09509088
114	0x3e1ae02c	0.15124577
115	0x3d8c4848	0.06849724
116	0x3d506791	0.05088002
117	0xbe4063d3	-0.1878808
118	0xbcd90a4a	-0.026494164
119	0x3e3b6fb9	0.18304338
120	0xbde1dcf7	-0.11028474
121	0xbe2d5df2	-0.16930369
122	0x3e2db3cf	0.16963123
123	0xbe3e8484	-0.18605238
124	0xbe008691	-0.12551333
125	0x3e64d78c	0.2234785
126	0x3e2b9efd	0.16759868
127	0x3e4c4069	0.19946446
128	0xbdfa97e8	-0.12236005
129	0xbe50882b	-0.20364444
130	0xbcf586fb	-0.02997159
131	0x3de3217a	0.110903695
132	0x3c36fef6	0.011169186
133	0xbd28aa66	-0.04117813
134	0x3e10badf	0.14133786
135	0xbde6bd62	-0.11266591
136	0x3dd31aed	0.1030787
137	0xbd7c331f	-0.06157219
138	0xbdae466b	-0.08509525
139	0x3e42cec8	0.19024193
140	0x3d57dfe5	0.052703757
141	0xbe5e345b	-0.2169966
142	0xbd7d8a15	-0.061899263
143	0xbe23f887	-0.16012774
144	0x3dea1fef	0.11431872
145	0xbe453a40	-0.19260502
146	0x3dc814a4	0.09769562
147	0xbce960d1	-0.028488548
148	0xbd23b708	-0.039969474
149	0xbe3c7aea	-0.18406263
150	0xbdfe9c65	-0.12432174
151	0xbdc04eb0	-0.093900084
152	0xbe2a241b	-0.16615336
153	0xbd2de04c	-0.042450234
154	0xbd3931b6	-0.045213424
155	0xbe5472b2	-0.20746878
156	0x3d01063f	0.031500097
157	0x3e4b4c52	0.19853333
158	0xbd5bf0ef	-0.05369657
159	0xbde6e977	-0.11274999
160	0xbe231fed	-0.15930147
161	0x3de385e7	0.11109524
162	0x3e17b57d	0.14815326
163	0x3daa8d95	0.08327786
164	0x3e498a4e	0.19681665
165	0xbe0d3ea4	-0.13793427
166	0xbd17aa6b	-0.037027758
167	0xbdee554a	-0.11637361
168	0xbe1c898e	-0.15286848
169	0x3db330e8	0.087495625
170	0xbd4deefc	-0.05027674
171	0x3e311eee	0.17296955
172	0xbd8bd917	-0.06828516
173	0x3e350925	0.1767927
174	0xbe1bfede	-0.15233943
175	0x3caec01f	0.021331845
176	0x3e49f384	0.197218
177	0xbe051480	-0.12996101
178	0xbd181fbb	-0.037139636
179	0xbdd888b6	-0.105729505
180	0xbc7b6421	-0.015343697
181	0x3bf04e71	0.0073335697
182	0x3c18e2b3	0.009331393
183	0x3e61e62e	0.22060463
184	0x3e699a1c	0.22812694
185	0xbe3a98d1	-0.18222357
186	0x3b324d19	0.0027206598
187	0xbe13fee9	-0.1445271
188	0xbe0a2349	-0.13490023
189	0x3da8a111	0.08233846
190	0xbbd6b0fe	-0.006551861
191	0x3d402764	0.046912566
192	0x3e415d00	0.18883133
193	0xbd59ed7d	-0.053205002
194	0xbc8c9bd7	-0.017164154
195	0xbdf5dd1f	-0.12005066
196	0xbe215bed	-0.15757723
197	0xbba0df2f	-0.004909418
198	0x3d081903	0.033226978
199	0xbe2206ef	-0.15822957
200	0x3e4beafa	0.19913855
201	0xbe085ffc	-0.13317865
202	0x3e3075bd	0.17232414
203	0xbacdcacb	-0.0015700696
204	0x3df809fd	0.1211128
205	0xbe321c8a	-0.173937
206	0x3e349a87	0.17637073
207	0x3dda748e	0.10666762
208	0xbdd47e0c	-0.10375604
209	0xbd2d36da	-0.04228864
210	0x3e0a73dd	0.13520761
211	0x3dd5eafe	0.10445212
212	0xbd3d6375	-0.046237428
213	0xbe478f62	-0.1948829
214	0xbe47bb9a	-0.19505158
215	0x3e0463be	0.12928674
216	0x3dc7c46b	0.09754261
217	0x3e5c76e4	0.21529728
218	0x3bb4f85e	0.0055227717
219	0xbe0bdb52	-0.13657883
220	0xbe1e5cc5	-0.15465076
221	0xbdc1abf5	-0.09456626
222	0xbda2de28	-0.07952529
223	0xbdd20423	-0.10254695
224	0xbe3d2056	-0.18469366
225	0x3e27c23b	0.16382687
226	0x3e23d90c	0.16000766
227	0x3e613c91	0.2199576
228	0x3e2c964d	0.1685421
229	0x3e3de56c	0.18544549
230	0x3e2a5dd3	0.16637354
231	0x3d3bf89a	0.04589138
232	0xbdb31c32	-0.08745612
233	0x3df2923d	0.11844299
234	0xbcf080a6	-0.02935822
235	0xbd3eee40	-0.04661393
236	0x3e0efa60	0.13962698
237	0xbd2e1fed	-0.042510916
238	0xbcff7cc3	-0.03118742
239	0xbe28f06a	-0.1649796
240	0x3d2b7c1c	0.041866407
241	0xbdac9fd0	-0.08428919
242	0xbd0ff800	-0.03514862
243	0x3e01fa5c	0.12693161
244	0x3ded4eeb	0.11587318
245	0xbe08e61f	-0.13369034
246	0xbe516ecc	-0.20452422
247	0x3e3a6c5b	0.18205397
248	0xbe3311c4	-0.17487246
249	0x3e4316af	0.19051622
250	0xbe31a924	-0.17349678
251	0xbd26e3c5	-0.04074456
252	0x3e08d898	0.13363874
253	0x3c67a938	0.014139466
254	0x3e417ca3	0.18895201
255	0xbd406f61	-0.04698122

in_proj_bias f4 [96]
0	0xbd0043b6	-0.031314574
1	0xbcfe5d97	-0.031050486
2	0xbbb0c130	-0.0053941235
3	0xbd02fa07	-0.031976726
4	0xbd1301c8	-0.03589037
5	0x3caef799	0.021358298
6	0x3a2984f8	0.0006466652
7	0x3ce24c95	0.027624408
8	0xbcb8632d	-0.022508228
9	0x3d0ff89b	0.035149198
10	0xbcab4540	-0.020907044
11	0xbcf98958	-0.030460998
12	0x3d06700b	0.032821696
13	0x3d1a3936	0.037652217
14	0x3ce89f0f	0.028396158
15	0x3cc74360	0.02432412
16	0x3cf2bfea	0.029632527
17	0x3cf97ec5	0.030455956
18	0x3c830637	0.015994174
19	0xbcbf9483	-0.023386246
20	0x3b9e63f8	0.0048336945
21	0x3c0f8488	0.008759625
22	0x3cd15b6f	0.025556294
23	0xba0f7f0c	-0.00054739485
24	0xbd1f811a	-0.03894148
25	0x3cf70c0c	0.030157112
26	0xbd3948b2	-0.045235343
27	0xbd112f90	-0.03544575
28	0x3bcb2fab	0.006200751
29	0x3c3afaab	0.011412303
30	0xbce8ad16	-0.028402846
31	0xbd0a5e27	-0.033781197
32	0x36c9cd84	6.014192e-06
33	0xb736b545	-1.089025e-05
34	0x36210ab4	2.39971e-06
35	0x379171a1	1.733826e-05
36	0xb65016bb	-3.1007646e-06
37	0x375aaf5e	1.3034643e-05
38	0x35d7318a	1.6033166e-06
39	0x379362bb	1.756974e-05
40	0xb7b0560d	-2.1020905e-05
41	0x34052a9e	1.2402094e-07
42	0xb6e41791	-6.797673e-06
43	0x3774e2c9	1.4596336e-05
44	0x368db43e	4.2231104e-06
45	0x373da16f	1.1302865e-05
46	0x371e07a2	9.419311e-06
47	0x37839c73	1.568927e-05
48	0xb6f3215b	-7.2458474e-06
49	0xb7986afc	-1.816963e-05
50	0xb68fd8c7	-4.2869683e-06
51	0x37507a6c	1.242627e-05
52	0xb4f62339	-4.5846699e-07
53	0x376f64d1	1.4268983e-05
54	0x369fec35	4.7660674e-06
55	0x373b5039	1.1164747e-05
56	0xb6a0103e	-4.7702624e-06
57	0xb6558ae7	-3.1820325e-06
58	0xb5e517df	-1.7068777e-06
59	0x3724006c	9.77526e-06
60	0xb5ba1521	-1.3864229e-06
61	0xb77656c1	-1.4682942e-05
62	0x36e9307c	6.9495854e-06
63	0x37a36f5a	1.9482966e-05
64	0xbc6b7ad4	-0.014372546
65	0xbcf7049d	-0.030153567
66	0xbd0a8101	-0.033814434
67	0x3bb9d7e0	0.0056714863
68	0x3cdc1e9b	0.026870063
69	0xbcb3926d	-0.021920407
70	0xbc462c58	-0.012095533
71	0xbcc73c43	-0.024320727
72	0xbd177e8b	-0.036985915
73	0x3c795d6b	0.0152200265
74	0x3ca08e1b	0.019599011
75	0x3cf0d178	0.029396757
76	0x3b60f6ea	0.003432686
77	0xbd081b4e	-0.033229165
78	0xbbbdf302	-0.005796791
79	0x3d214612	0.039373465
80	0x394b1b36	0.00019369725
81	0x3ccb6b6f	0.024831502
82	0xbd0c800c	-0.034301803
83	0x3d1d49ae	0.038400345
84	0x3c1411c9	0.009037443
85	0xbc88e5d7	-0.016711159
86	0x3cd876fe	0.026423927
87	0xba214e15	-0.0006153298
88	0xbc4fc135	-0.0126803415
89	0xbd24e88b	-0.040260833
90	0xbaed35de	-0.0018097719
91	0x3d0e5996	0.034753405
92	0x3d177665	0.036978144
93	0x3cca7edb	0.024718693
94	0x3c0368c1	0.008020581
95	0x3ce8f733	0.028438186

weight f4 [32, 32]
0	0xbbe1759f	-0.0068804766
1	0xbe0c2998	-0.13687742
2	0x3ded3bb8	0.11583656
3	0x3e0b3d3f	0.13597582
4	0xbe92a043	-0.28637895
5	0x3e0e1b43	0.13877587
6	0xbddcd650	-0.10783064
7	0xbe0cf3f7	-0.1376494
8	0xbe29c333	-0.16578369
9	0x3e418778	0.18899333
10	0x3e134dd9	0.14385165
11	0x3e56ab45	0.20963772
12	0xbe2922de	-0.16517207
13	0x3ac1f7fc	0.0014798637
14	0x3e6c8c0c	0.23100299
15	0xbe8d10ff	-0.2755203
16	0xbe6e5532	-0.23274687
17	0x3e778481	0.2417164
18	0xbe7a3610	-0.24434686
19	0xbdd5ece3	-0.10445573
20	0xbe71a293	-0.23597173
21	0xbda8d291	-0.08243287
22	0xbe1ed956	-0.15512595
23	0xbe3e2a0e	-0.1857073
24	0x3d1b6e51	0.037947003
25	0x3e7688c1	0.24075605
26	0x3df7f45b	0.12107154
27	0x3e80afa6	0.2513401
28	0xbc756563	-0.014977786
29	0xbe94a144	-0.29029286
30	0xbe94e2e7	-0.29079363
31	0xbe295368	-0.16535723
32	0x3e70b8cc	0.23507994
33	0x3e612314	0.21986037
34	0xbe494480	-0.19655037
35	0xbe0277a7	-0.12740956
36	0xbb35e452	-0.0027754498
37	0xbd9f5771	-0.0778035
38	0x3e887177	0.26649067
39	0x3e5d292d	0.21597739
40	0x3e8b5f8a	0.27221328
41	0x3e0caf4e	0.13738748
42	0xbd22fe47	-0.03979328
43	0x3e116cfd	0.14201732
44	0xbe938a53	-0.2881647
45	0x3dfc478e	0.123183355
46	0x3def862f	0.11695515
47	0x3df24d3d	0.11831138
48	0x3daffadc	0.085927695
49	0xbda74330	-0.08167112
50	0xbe8e08fc	-0.2774123
51	0x3cddc4fd	0.02707147
52	0xbdc6e47b	-0.09711548
53	0x3c2ff8d6	0.010740479
54	0xbe28177a	-0.16415206
55	0xbe286cdd	-0.16447778
56	0xbe6e318d	-0.2326109
57	0x3e044675	0.12917502
58	0x3d34cef6	0.044142686
59	0xbd262190	-0.04055935
60	0xbd2b9ff3	-0.041900586
61	0xbe4cff37	-0.20019232
62	0x3d8ab5f5	0.06772987
63	0x3dbca772	0.09211625
64	0xbe07d590	-0.13265061
65	0xbd22f20f	-0.039781626
66	0xbe1a7862	-0.15084985
67	0x3e8653ad	0.26235715
68	0xbe65f7b0	-0.22457767
69	0x3db2abd4	0.0872418
70	0x3e6564cf	0.22401737
71	0xbe2383a1	-0.15968181
72	0xbe226ec7	-0.1586257
73	0x3e5fafdc	0.21844429
74	0xbc8dac13	-0.017293965
75	0x3e159dc2	0.14610961
76	0x3e253aaa	0.1613566
77	0x3df9a97a	0.12190528
78	0x3c22dbcd	0.0099401
79	0x3d871db5	0.06597463
80	0xbe581ead	-0.21105452
81	0x3d9e4349	0.077276774
82	0xbe9615f6	-0.2931363
83	0xbe10c0b7	-0.14136015
84	0x3e3dff81	0.18554498
85	0x3e12e18a	0.14343849
86	0x3d315dd4	0.043302372
87	0xba1bdfcb	-0.00059461285
88	0x3d5ac98d	0.05341487
89	0xbe22335b	-0.15839903
90	0xba21e9db	-0.000617651
91	0x3e025101	0.12726213
92	0x3e3d866a	0.18508306
93	0x3e6e341a	0.23262063
94	0xbe0cab1f	-0.13737153
95	0xbe4afde4	-0.19823414
96	0xbdc00294	-0.09375492
97	0xbe162729	-0.14663376
98	0x3dbff438	0.09372753
99	0xbd3476fa	-0.044058777
100	0xbe550db0	-0.20806003
101	0x3e5b7331	0.21430661
102	0x3e08ede0	0.13371992
103	0x3daa6d94	0.083216816
104	0x3e836a61	0.25667098
105	0x3e3e3c5b	0.18577711
106	0xbe753331	-0.23945309
107	0xbd0127c8	-0.03153208
108	0x3e82b872	0.25531346
109	0x3e323cf9	0.17406072
110	0xbc906a72	-0.017628882
111	0x3d51a1ba	0.051179625
112	0xbe65070c	-0.2236597
113	0xbe28f231	-0.16498639
114	0xbe8763d5	-0.26443353
115	0xbd75bb89	-0.0599933
116	0xbe8125e5	-0.25224224
117	0xbe08eafd	-0.13370891
118	0xbe5b2018	-0.21398962
119	0x3d8db9da	0.06920214
120	0x3e9bdb31	0.30440667
121	0x3e782be6	0.24235496
122	0x3e85e41d	0.261506
123	0x3e984610	0.29740953
124	0x3e4134c5	0.18867786
125	0xbe91b9c5	-0.28462043
126	0xbded76d2	-0.11594929
127	0xba3b0641	-0.0007134416
128	0xbe36749d	-0.17817922
129	0x3d85af8a	0.06527622
130	0x3bdf085c	0.0068064164
131	0x3bf798b1	0.007556044
132	0xbe21495f	-0.15750645
133	0xbe8eb90b	-0.27875552
134	0xbd8d485d	-0.06898568
135	0xbe32d2cb	-0.17463224
136	0xbd11db1e	-0.035609357
137	0x3c70ad02	0.014689686
138	0x3e2be90f	0.16788124
139	0xbd8457ea	-0.06462081
140	0xbe27b853	-0.16378908
141	0xbaf62078	-0.0018777987
142	0xbe845410	-0.25845385
143	0xbdea8739	-0.11451573
144	0xbd915d20	-0.0709784
145	0x3e344ee8	0.17608225
146	0x3e1260bb	0.14294712
147	0x3e91b7a5	0.28460422
148	0xbe2970de	-0.16546962
149	0xbe8415ac	-0.25797784
150	0x3e8e9024	0.27844346
151	0x3e58fb81	0.21189691
152	0x3e9c8e90	0.30577517
153	0x3e37b6d0	0.17940831
154	0x3e2f0e83	0.1709538
155	0x3e0425de	0.1290507
156	0xbe89d6c3	-0.26921663
157	0xbd055b3b	-0.032557707
158	0xbda5c6f9	-0.08094592
159	0xbe63d160	-0.22247839
160	0xbdad5c3a	-0.084648564
161	0x3db75aff	0.08952903
162	0xbe8a0a4d	-0.26960984
163	0xbe75473e	-0.23952958
164	0x3e0e04eb	0.13869064
165	0x3dd2b878	0.10289091
166	0xbe72985a	-0.2369093
167	0x3e11f2ab	0.14252727
168	0x3e594317	0.21216999
169	0x3d0c4d0d	0.03425317
170	0xbe5f7e3f	-0.21825503
171	0xbe0a522a	-0.13507906
172	0xbd0a70b1	-0.033798877
173	0x3d3ba033	0.045807075
174	0xbd7dc59f	-0.061956044
175	0xbd0af413	-0.033924174
176	0xbd82f682	-0.06394674
177	0x3daa1b2b	0.08305963
178	0x3dc85a9d	0.09782908
179	0x3e37812b	0.17920367
180	0xbe1815ce	-0.14852068
181	0xbe3a4858	-0.1819166
182	0xbe59d102	-0.21271136
183	0x3e961011	0.29309133
184	0xbea0e7d7	-0.3142688
185	0x3d8bfe81	0.06835652
186	0xbd865d2a	-0.065607384
187	0x3ea4d405	0.32193008
188	0x3e8a0282	0.26955038
189	0x3e8b017f	0.2714958
190	0xbe3dbee6	-0.18529853
191	0x3e8893bc	0.26675212
192	0xbd513135	-0.051072318
193	0x3c71bdcb	0.014754723
194	0x3e0707fc	0.1318664
195	0x3e199763	0.14999156
196	0xbe80986b	-0.25116286
197	0xbcc01af8	-0.02345036
198	0x3e9775bb	0.2958201
199	0xbcf64f86	-0.030067217
200	0x3ea138c9	0.31488636
201	0xbe6f8325	-0.23389871
202	0x3dfc449e	0.12317775
203	0xbe7c5196	-0.24640498
204	0xbe35e688	-0.17763722
205	0xbe6110c6	-0.21979055
206	0xbe333842	-0.1750193
207	0xbd72b770	-0.05925697
208	0x3e8cab63	0.27474508
209	0xbea53f38	-0.32274795
210	0xbd1388fa	-0.036019303
211	0xbe5da0b1	-0.2164333
212	0x3e06fed5	0.13183148
213	0x3daa83f1	0.08325947
214	0x3dbaafde	0.09115575
215	0x3e168e9f	0.14702843
216	0x3e4c6ad5	0.19962628
217	0xbde916a7	-0.11381274
218	0x3e48aba2	0.19596723
219	0xbe999471	-0.29996064
220	0x3d936575	0.07197086
221	0x3e530f54	0.20611316
222	0x3de6780e	0.11253367
223	0x3e376d05	0.17912681
224	0xbe885e63	-0.2663451
225	0xbe82e96e	-0.25568718
226	0xbe8f4b1a	-0.27986985
227	0x3e61664d	0.22011681
228	0xbd067912	-0.032830305
229	0xbd0bf2ad	-0.03416698
230	0x3d6f29f0	0.058389604
231	0xbe78c95c	-0.24295563
232	0x3e81698c	0.25275838
233	0x3d164d1d	0.036694635
234	0xbe96d060	-0.29455853
235	0xbe7cc78a	-0.24685493
236	0xbea05990	-0.3131833
237	0xbdf07046	-0.117401645
238	0xbe851747	-0.25994322
239	0xbe740524	-0.23830086
240	0xbd0e6829	-0.034767304
241	0x3b81cefc	0.003961442
242	0xbe8bbe1c	-0.2729348
243	0x3e3a48dc	0.18191856
244	0xbe40825a	-0.18799725
245	0x3e1b18b3	0.15146141
246	0xbe716dab	-0.23576991
247	0x3d9e5c48	0.07732445
248	0x3e893495	0.2679793
249	0x3dd9eff1	0.10641468
250	0x3dfbad78	0.12288946
251	0x3dd8ec04	0.105918914
252	0xbe08277e	-0.13296315
253	0xbdd42e68	-0.10360414
254	0x3e752d78	0.23943126
255	0x3d704ebc	0.058668837

bias f4 [32]
0	0xbc8df292	-0.01732758
1	0x3bee8134	0.007278586
2	0x3c548da9	0.012973228
3	0x3b0b6c5c	0.0021274304
4	0xbc5bbbc7	-0.013411469
5	0x3c73907f	0.0148659935
6	0xbc8a6962	-0.016895954
7	0x3c58fb45	0.013243501
8	0x3d2078de	0.039177768
9	0x3c4a8f12	0.012363212
10	0xbc855acf	-0.016278652
11	0xb9695bd0	-0.00022254814
12	0xbce136ec	-0.02749201
13	0x3a68b4d4	0.0008877043
14	0xbc8d0b4d	-0.017217303
15	0xb9a42905	-0.0003131108
16	0x3d098b75	0.033580262
17	0x3cd978ad	0.0265468
18	0xbd0c007e	-0.034180157
19	0xbd0b0eb8	-0.033949584
20	0xbca7ddee	-0.020491567
21	0x3ce05292	0.027383123
22	0xbbdaf05b	-0.0066814846
23	0x3ad4df11	0.0016240795
24	0x3cf4bf50	0.029876381
25	0xbd2876a2	-0.041128762
26	0xbcef8b39	-0.029241191
27	0x3ca7bc5e	0.020475563
28	0xbca83d39	-0.020537006
29	0xbc0ad9be	-0.008474765
30	0x3c987a98	0.018613145
31	0xbc1ef9a3	-0.009703073

weight f4 [128, 32]
0	0x3e238742	0.15969566
1	0xbde379fe	-0.111072525
2	0x3e1f482f	0.1555488
3	0xbe3a95ba	-0.18221179
4	0x3d1f1250	0.038835824
5	0xbd13b79e	-0.036063783
6	0xbc9b7e3c	-0.018981092
7	0x3ddcc1d3	0.107791565
8	0xbcf0799c	-0.029354863
9	0x3d60723d	0.054796446
10	0x3e382f3b	0.17986767
11	0xbdeb9933	-0.1150383
12	0xbe104308	-0.1408807
13	0xbddee608	-0.10883719
14	0xbdfa311d	-0.12216399
15	0xbce8d423	-0.028421467
16	0xbd7c657a	-0.061620213
17	0xbe1de155	-0.15417989
18	0x3d4a4ad7	0.04938778
19	0xbdc95779	-0.09831137
20	0x3e10ef4c	0.14153785
21	0xbe0954c8	-0.13411248
22	0x3cbe10f6	0.023201447
23	0x3d4f3abc	0.050593123
24	0x3ddb010f	0.10693561
25	0xbc9a9180	-0.018868208
26	0xbe351ab8	-0.17685974
27	0x3c3bde78	0.011466615
28	0x3e160d7d	0.14653583
29	0xbd125250	-0.03572303
30	0xbd99adb0	-0.075038314
31	0x3ad4bdbc	0.0016230862
32	0x3dc2c70d	0.09510622
33	0x3c2fd2e6	0.010731434
34	0x3e437597	0.19087826
35	0x3da68c54	0.08132234
36	0x3e0df3fe	0.13862607
37	0x3e23ab95	0.15983422
38	0x3d8b618e	0.068057165
39	0xbb83029f	-0.003998115
40	0x3e0344f7	0.12819277
41	0x3d5ef227	0.054430153
42	0xbd62210c	-0.055207297
43	0x3ded2cde	0.11580823
44	0xbd05ab51	-0.032634083
45	0xbc75483f	-0.014970838
46	0x3dc89916	0.09794824
47	0x3e0e085c	0.13870376
48	0xbe4e2ff9	-0.20135488
49	0xbd770021	-0.060302857
50	0xbe12274d	-0.14272805
51	0xbdc0f603	-0.09421923
52	0xbb796ae9	-0.0038058108
53	0x3def9f91	0.11700357
54	0xbd5027dc	-0.050819263
55	0x3c5bcfdf	0.01341626
56	0x3e346218	0.17615545
57	0x3df493d1	0.11942256
58	0x3d63a6b1	0.05557889
59	0x3e0568cb	0.13028257
60	0xbc95288c	-0.01820781
61	0x3d85d224	0.06534222
62	0x3da93a15	0.082630314
63	0xbe375c5c	-0.17906326
64	0xbe0fc044	-0.14038187
65	0xbbfa1244	-0.007631572
66	0xbe22c545	-0.15895565
67	0x3bba7a44	0.0056908447
68	0x3e0bf7a7	0.1366869
69	0x3e43646d	0.19081278
70	0xbc011edc	-0.007880893
71	0x3deec73f	0.11659097
72	0x3d258ec7	0.040419366
73	0xbdb8ebd4	-0.09029356
74	0xbdbf6d0a	-0.093469694
75	0xbd90eb86	-0.070761725
76	0xbdfa1b6f	-0.12212264
77	0x3e01fa22	0.12693074
78	0xbe24fd4d	-0.16112252
79	0xbd2d1b37	-0.042262282
80	0x3d9bfb52	0.07616295
81	0xbcf8cf18	-0.030372187
82	0xbdd200ff	-0.10254096
83	0x3dfd4070	0.12365806
84	0x3e168848	0.14700425
85	0x3e3bbae2	0.18333009
86	0x3dce7099	0.1008007
87	0x3c8912d0	0.016732603
88	0xbd1c3b08	-0.038142234
89	0xbca738fe	-0.020412918
90	0x3e251f00	0.16125107
91	0x3d575fc9	0.052581582
92	0xbe1f35e3	-0.155479
93	0x3dde4b64	0.10854223
94	0xbdb7992c	-0.08964762
95	0x3db58deb	0.08864959
96	0x3ccdafb8	0.025108203
97	0xbd9857b9	-0.07438607
98	0xbdc083cd	-0.09400139
99	0xbd44555b	-0.047932964
100	0xbceb2b25	-0.028707096
101	0x3d988b21	0.07448412
102	0x3d2bde0a	0.0419598
103	0xbd960850	-0.07325804
104	0x3d77ec4e	0.060528092
105	0xbde71236	-0.1128277
106	0xbd196d91	-0.037458006
107	0x3da02edd	0.078214385
108	0xbe366c50	-0.17814755
109	0xbe0f05ec	-0.13967103
110	0xbd466280	-0.04843378
111	0x3bff3cda	0.0077892365
112	0x3e4dc9cd	0.20096512
113	0xbe21ef91	-0.15814044
114	0xbe2b6f80	-0.16741753
115	0x3cf550da	0.02994578
116	0x3d1be3bb	0.038058978
117	0xbda0a179	-0.078432985
118	0x3dd59f5f	0.10430788
119	0x3ddb88de	0.10719465
120	0xbc97eed8	-0.018546507
121	0xbe42e5e9	-0.19033016
122	0xbe3e8e71	-0.18609025
123	0xbe2b2cee	-0.16716358
124	0xbd4718c0	-0.048607588
125	0x3d0e935c	0.0348085
126	0xbe2cb467	-0.16865693
127	0xbe077a81	-0.13230325
128	0xbe24585f	-0.16049336
129	0x3d87e4f5	0.06635467
130	0xbd2b5c9a	-0.04183636
131	0xbd6ea34f	-0.058261212
132	0x3e29486c	0.16531533
133	0x3dd22b87	0.102622084
134	0xbe232aa6	-0.15934238
135	0xbe39d619	-0.18148078
136	0x3d08cb06	0.033396743
137	0x3de309fd	0.110858895
138	0x3d914a7e	0.070942864
139	0xbd0e4a92	-0.034739085
140	0xbd1743e7	-0.03692999
141	0x3e24acb6	0.16081509
142	0xbca12d69	-0.019674974
143	0x3e3e06fb	0.1855735
144	0xbdb43a29	-0.08800156
145	0x3dba6fc6	0.0910335
146	0x3daa6041	0.0831914
147	0xbe327712	-0.17428234
148	0x3ce02008	0.027359024
149	0xbcab44af	-0.020906774
150	0xbe045b02	-0.12925342
151	0xbe17feac	-0.14843243
152	0x3d85ab33	0.06526794
153	0x3e01c3ea	0.12672392
154	0x3d8d53eb	0.06900772
155	0x3dab3d89	0.08361346
156	0xbd8b2de1	-0.0679586
157	0xbd8db678	-0.06919569
158	0x3ca93792	0.02065638
159	0xbdbb7cbc	-0.091546506
160	0x3e26f097	0.16302715
161	0xbe001c13	-0.1251071
162	0xbe2c9d2a	-0.16856828
163	0x3c9a18be	0.018810626
164	0xbd8dfcda	-0.06932993
165	0x3e521a5b	0.20517866
166	0x3e00e4fe	0.12587354
167	0x3e0a51ac	0.13507718
168	0xbe12704b	-0.14300649
169	0xbcc6c308	-0.02426292
170	0xbc831db5	-0.016005376
171	0xbdd45ed6	-0.10369651
172	0x3e33ce09	0.17559065
173	0xbdd87cec	-0.10570702
174	0x3d932dc2	0.07186462
175	0xbd231fd1	-0.039825264
176	0xbe014dff	-0.1262741
177	0xbe2a1c09	-0.16612257
178	0xbd0e3448	-0.034717828
179	0xbe1be679	-0.15224637
180	0xbdd97bb8	-0.106193006
181	0xbdb8de41	-0.090267666
182	0xbdc7a8ac	-0.097489685
183	0x3bd5ea67	0.006528187
184	0x3e123709	0.14278807
185	0x3df6cd76	0.12050907
186	0xbd8ea1d0	-0.06964457
187	0xbb122cd4	-0.0022304552
188	0x3c87de4d	0.016585493
189	0x3e3c4572	0.18385866
190	0x3d713b76	0.058894597
191	0x3db3c167	0.08777123
192	0x3e392d70	0.1808374
193	0x3c214fa2	0.009845646
194	0xbb809974	-0.003924543
195	0xbdd3a4a7	-0.10334139
196	0xbd325ab4	-0.043543532
197	0xbd0357c7	-0.032066133
198	0xbe1e9a66	-0.15488586
199	0xbe0a730e	-0.13520452
200	0x3de19444	0.110146075
201	0x3db18f3c	0.08669898
202	0x3c8c6d7e	0.017142054
203	0x3cb2d1e9	0.021828609
204	0x3da8964e	0.08231793
205	0x3e2088c1	0.15677167
206	0x3e2b39fb	0.16721337
207	0x3d1eb188	0.038743526
208	0x3e4d5aaf	0.20054124
209	0x3d3f7056	0.04673799
210	0x3dbfa2fa	0.09357257
211	0xbc696e2f	-0.014247461
212	0x3e2b21d0	0.16712117
213	0x3e3a0e94	0.18169624
214	0xbe449d2d	-0.19200583
215	0xbe47015d	-0.19434114
216	0xbdcc785e	-0.09983896
217	0x3c836d12	0.01604322
218	0x3e3470a2	0.17621091
219	0xbda68ac2	-0.08131935
220	0xbe000842	-0.1250315
221	0xbe0827a3	-0.1329637
222	0xbdcd2032	-0.100159064
223	0xbe3a02ca	-0.18165126
224	0x3ad1ae1d	0.0015997324
225	0x3e3a5c39	0.18199243
226	0x3d7bc1b5	0.06146403
227	0xbe0ed9bf	-0.13950251
228	0x3d1c4e5d	0.03816067
229	0x3e50dcda	0.20396748
230	0x3df58764	0.11988714
231	0x3cd58414	0.026063956
232	0x3d591b2f	0.05300444
233	0xbe12b69a	-0.1432747
234	0xbe427f6d	-0.18993922
235	0xbdf98757	-0.12184017
236	0xbdba42ae	-0.090947494
237	0x3b5e6796	0.0033936254
238	0xbe3b0045	-0.18261822
239	0xbd24d716	-0.040244184
240	0x3dae6354	0.08515039
241	0x3ca3a1a5	0.019974539
242	0xbdf2f98e	-0.11864005
243	0x3db203e9	0.08692152
244	0xbe4f9d25	-0.2027479
245	0x3e28c7ae	0.16482422
246	0xbd2ecb72	-0.04267449
247	0x3e294823	0.16531424
248	0x3e239d69	0.15978016
249	0x3de5ec90	0.11226761
250	0x3e28fde0	0.16503096
251	0x3e12cd90	0.14336228
252	0xbce2c0e5	-0.02767987
253	0xbdb6916f	-0.08914458
254	0xbd12f40b	-0.03587727
255	0xbe016ebf	-0.12639903

bias f4 [128]
0	0xbce2a8ff	-0.027668474
1	0x3cb339db	0.021878174
2	0xbbd98268	-0.00663786
3	0x3cc66847	0.024219645
4	0xbc779cea	-0.015113095
5	0x3c8bf516	0.01708464
6	0xbc54c469	-0.012986281
7	0x3c19e1dd	0.009392229
8	0x3c3960b6	0.011314562
9	0x3bcdf0ba	0.0062848004
10	0x3cbc7c81	0.023008587
11	0x3cc7d3ad	0.024392927
12	0xbc5262ab	-0.012840907
13	0x3c82c830	0.015964597
14	0x3d17cb47	0.037059095
15	0xbce9cdf2	-0.028540585
16	0xbcafcc4f	-0.021459727
17	0x3d0ebd1c	0.034848318
18	0x3d045a34	0.032312587
19	0xbb25c62f	-0.0025295129
20	0x3c80c665	0.015719602
21	0xbbc9a5ff	-0.0061538215
22	0xbc257e5c	-0.010100927
23	0x3cbae648	0.022814885
24	0xbc374ec1	-0.01118821
25	0xbc6d9e92	-0.014503138
26	0x3c7d9db5	0.015479495
27	0x3d1812ef	0.03712743
28	0x3cda0a49	0.026616232
29	0x3aaac604	0.0013028984
30	0x3d0fdc94	0.03512247
31	0xbcc44536	-0.023958784
32	0x3bfa09e9	0.007630576
33	0xbca81ff6	-0.020523053
34	0xbcab931d	-0.020944173
35	0x3c06dd47	0.008231468
36	0xb9d2779b	-0.00040143434
37	0x3cd4ec72	0.025991652
38	0x3c2c4149	0.010513612
39	0xbc21d2c0	-0.009876907
40	0x3cf071d7	0.029351158
41	0x3d0bc201	0.034120563
42	0x3c9ae893	0.018909728
43	0xbbd0c482	-0.006371082
44	0xbb8505f0	-0.0040595457
45	0xbcc81239	-0.024422752
46	0x3c90851b	0.017641595
47	0xbc3f0024	-0.011657748
48	0x3cf4a189	0.029862182
49	0x3c0a73f3	0.008450496
50	0x3aa39d0e	0.0012482719
51	0xbcd773e6	-0.026300382
52	0x3cf2bd89	0.029631393
53	0xbbc74a7e	-0.006081878
54	0x3d08aff6	0.033370934
55	0x3cdf32df	0.027245937
56	0xbbf2bc91	-0.007407733
57	0xbaf11c71	-0.0018395317
58	0x3cb65620	0.022257864
59	0x3cabfb7d	0.020993942
60	0x3c14a1a0	0.0090717375
61	0xbc9ba8ea	-0.019001443
62	0xbce0f385	-0.02745987
63	0x3c9e5c67	0.01933117
64	0x3cb298f0	0.021801442
65	0x3c766e66	0.0150409695
66	0x3c2065d8	0.009789906
67	0xbd0e8d87	-0.03480294
68	0xbceaefd4	-0.028678812
69	0xbcd8d743	-0.026469832
70	0x3c114711	0.008867041
71	0x3d11218d	0.035432387
72	0xbba77987	-0.0051109227
73	0x3c58bec0	0.013229072
74	0x3d17b49b	0.037037473
75	0x3cd124da	0.025530268
76	0x3cb327b1	0.021869512
77	0xbb150f0f	-0.0022744571
78	0x3c20d829	0.009817162
79	0x3c941765	0.018077562
80	0x3bae02f6	0.0053104116
81	0x3c823b62	0.015897457
82	0xbc83c2f5	-0.016084174
83	0x3a93eb00	0.0011285245
84	0x3d08f569	0.033437166
85	0xbcbd1a25	-0.023083756
86	0xbccf3b8b	-0.025296947
87	0x3c9562bd	0.018235559
88	0x3d178bf2	0.036998697
89	0x3cc5ca88	0.024144426
90	0xbc18b7a5	-0.009321128
91	0xbc05c3b2	-0.008164333
92	0x3ccefa87	0.025265945
93	0xbbca65e7	-0.0061766985
94	0x3c8df334	0.017327882
95	0xbc430ef3	-0.01190542
96	0x3c9017a5	0.0175894
97	0xbcb0287a	-0.021503676
98	0x3cc711dd	0.02430051
99	0x3cb582d0	0.022157103
100	0xbcfdf1f5	-0.030999163
101	0x3c399980	0.011328101
102	0x3c446547	0.011987037
103	0x3d080e97	0.03321704
104	0x3ce17589	0.027521865
105	0xbcaabb5c	-0.020841293
106	0x3d1b447b	0.037907105
107	0x3cf3b7db	0.029750755
108	0x3d2168cd	0.039406586
109	0xbc8e2789	-0.017352836
110	0xb9362f1d	-0.00017374424
111	0xbc20346c	-0.009778123
112	0x3ce236f9	0.027614104
113	0x3b9f206d	0.0048561604
114	0xbbb49480	-0.0055108666
115	0xbc0a88a7	-0.008455432
116	0x3cf8f239	0.030388938
117	0x3b1b95d6	0.0023740432
118	0x3b710daa	0.0036781826
119	0xbb0109cb	-0.0019689675
120	0x3c80e775	0.015735367
121	0x3c9916a2	0.01868755
122	0xbcbac140	-0.022797227
123	0x3c8b055f	0.016970335
124	0x3ca5db2c	0.02024611
125	0x3acc0e6a	0.001556826
126	0x3bb26c13	0.0054450124
127	0xbca57312	-0.020196471

weight f4 [32, 128]
0	0x3d83e21a	0.0643961
1	0xbe347a43	-0.17624764
2	0xbdd27fc2	-0.10278274
3	0xbd81cf09	-0.06338317
4	0xbe128ba9	-0.14311089
5	0xbdf5c6fa	-0.120008424
6	0x3e2bf33d	0.16792007
7	0xbe4ca5d1	-0.19985129
8	0x3e29ef17	0.16595112
9	0xbde173e3	-0.11008432
10	0x3ce8d83e	0.028423425
11	0x3ba049be	0.0048916033
12	0x3e19798e	0.14987776
13	0x3e1f1399	0.1553482
14	0xbdc88060	-0.097901106
15	0x3d1f1ed3	0.038847756
16	0xbcdd1bc8	-0.026990786
17	0x3d736e49	0.059431348
18	0x3defb4a5	0.11704377
19	0xbdd65637	-0.10465663
20	0xbd013bec	-0.031551287
21	0x3e1f4aaa	0.15555826
22	0xbdc89c11	-0.09795392
23	0x3e0cbb30	0.13743281
24	0x3e078834	0.13235551
25	0x3df82df5	0.121181406
26	0x3d27b00d	0.04093938
27	0x3d759968	0.059960753
28	0xbdb68e4a	-0.08913858
29	0x3d1f578b	0.038901847
30	0xbdd9c582	-0.10633375
31	0x3e28ab17	0.16471516
32	0xbdaa7494	-0.08323017
33	0x3dac579a	0.08415146
34	0x3df24888	0.118302405
35	0xbd8cb818	-0.068710506
36	0x3c16f278	0.0092130825
37	0x3d068922	0.032845624
38	0xbda4c4ca	-0.08045347
39	0xbd02b58e	-0.031911425
40	0xbe1104e8	-0.14162028
41	0xbe16006e	-0.14648601
42	0xbe11293d	-0.14175887
43	0x3d5f6c36	0.054546557
44	0xbe230f41	-0.15923788
45	0x3d9ebc8d	0.07750807
46	0x3d44a533	0.04800911
47	0xbda0ee97	-0.078580074
48	0xbc0c338a	-0.00855721
49	0xbe3a3e11	-0.18187739
50	0xbe2affbe	-0.1669912
51	0x3d5ec6d1	0.054388825
52	0xbde35238	-0.11099666
53	0x3d66a356	0.056308113
54	0xbc666c38	-0.014063887
55	0xbdbed8c7	-0.09318691
56	0xbcc12c50	-0.0235807
57	0xbda9cbe2	-0.08290841
58	0x3cec37ff	0.028835295
59	0xbe3f5871	-0.18686081
60	0x3e195dd8	0.14977205
61	0xbe41d1ee	-0.18927738
62	0xbe22060f	-0.15822624
63	0x3e140e7d	0.14458652
64	0x3cbd698c	0.023121618
65	0x3d96a701	0.07356072
66	0x3dcdc266	0.10046844
67	0x3e2730d2	0.16327217
68	0x3e167f52	0.14697006
69	0xbddd5aad	-0.10808311
70	0xbe441ae2	-0.1915088
71	0xbdb7a572	-0.08967103
72	0x3e0bdf6e	0.1365945
73	0xbd282de0	-0.041059375
74	0x3e0fd76e	0.14047024
75	0xbe3c2001	-0.18371584
76	0xbd4a34ce	-0.049366765
77	0xbdb506aa	-0.08839162
78	0x3e091a76	0.13389
79	0xbdf75167	-0.12076073
80	0x3db5a6d6	0.08869712
81	0x3dba544e	0.09098111
82	0x3db817bf	0.08988904
83	0xbe1767b5	-0.14785655
84	0xbdd4d070	-0.10391319
85	0x3cb11168	0.021614745
86	0xbca75d59	-0.020430254
87	0xbe3263fd	-0.17420955
88	0x3d10caca	0.035349645
89	0x3d8e4a92	0.06947817
90	0x3dea40b3	0.11438122
91	0x3e2a5cb3	0.16636924
92	0xbe06698c	-0.131262
93	0xbe4d841b	-0.20069925
94	0xbd2bd132	-0.04194755
95	0x3e23abbc	0.1598348
96	0x3c7ac348	0.015305348
97	0xbdfe08b4	-0.12404004
98	0xbd314b20	-0.043284535
99	0x3deb6119	0.11493129
100	0xbdc823d5	-0.097724594
101	0xbd0b8916	-0.034066282
102	0xbdb9305b	-0.09042426
103	0xbdfe104e	-0.124054536
104	0xbda30738	-0.07960361
105	0x3e1cbed7	0.15307175
106	0xbda25d65	-0.0792797
107	0x3d68ad12	0.056805678
108	0x3d4b8664	0.04968871
109	0x3cbc4aae	0.022984829
110	0xbe3e3e08	-0.1857835
111	0xbe4946fa	-0.19655982
112	0xbe419683	-0.18905072
113	0x3e34af68	0.17645037
114	0x3caa02cf	0.020753292
115	0xbd4fac61	-0.050701503
116	0xbe43f64b	-0.19136922
117	0xbdf70140	-0.12060785
118	0x3cb32abf	0.021870969
119	0x3e28c189	0.16480078
120	0x38a76776	7.982452e-05
121	0x3e05da5e	0.13071582
122	0x3d89c038	0.06726116
123	0x3e2451f7	0.16046892
124	0x3d77e4b2	0.060520835
125	0xbdad034d	-0.08447895
126	0xbd9eb682	-0.07749654
127	0x3aa7d1de	0.0012803634
128	0x3e313ec9	0.17309107
129	0xbdbb7028	-0.091522515
130	0x3e24a167	0.16077195
131	0x3e2a9661	0.16658928
132	0xbd191d48	-0.03738144
133	0x3e2b8858	0.1675123
134	0x3e2cd722	0.16878942
135	0x3ba5079b	0.005036307
136	0xbe150767	-0.14553605
137	0xbdf1a71f	-0.11799454
138	0x3e33dd3a	0.1756486
139	0xbe252de5	-0.16130789
140	0xbe1e72c5	-0.15473469
141	0x3e401676	0.18758568
142	0x3db81ee8	0.0899027
143	0x3dee0cb7	0.11623519
144	0xbdf3d8e6	-0.119066045
145	0x3bcce5c0	0.0062529743
146	0x3ce4c10e	0.027924087
147	0x3e194b9d	0.1497025
148	0xbcad8508	-0.021181598
149	0x3d1e344e	0.0386241
150	0x3d206418	0.039157957
151	0x3e1304ca	0.14357296
152	0xbd5937ea	-0.05303184
153	0xbe43faf1	-0.19138695
154	0x3e2a5f5f	0.16637944
155	0x3d71a6f4	0.05899711
156	0xbe3e481a	-0.18582192
157	0xbdf6c2ce	-0.12048875
158	0x3e48cb2a	0.19608751
159	0x3d96270b	0.073316656
160	0xbd08249a	-0.03323803
161	0x3da25937	0.07927173
162	0x3e2e2bb5	0.1700886
163	0x3d189950	0.037255585
164	0x3dc11918	0.094286144
165	0x3dcad54f	0.09903967
166	0x3d8b8607	0.06812673
167	0x3e4173f5	0.1889189
168	0x3dea941c	0.11454031
169	0x3e1e1f2f	0.15441583
170	0x3e38e45c	0.18055862
171	0xbe24843d	-0.1606607
172	0x3caebf43	0.021331435
173	0xbd18e744	-0.037329927
174	0x3c3d7930	0.011564538
175	0xbcf44833	-0.029819584
176	0xbe0b0a73	-0.13578205
177	0x3d8bf0fa	0.06833072
178	0x3c9d17fa	0.019176472
179	0xbd08e2cd	-0.03341942
180	0x3d8af556	0.06785075
181	0xbde455eb	-0.111492
182	0x3dbd982c	0.0925754
183	0xbd955bc4	-0.072928935
184	0xbd21c20b	-0.039491694
185	0xbda3fe49	-0.080074854
186	0x3c1dfaf2	0.00964235
187	0xbe2212bd	-0.1582746
188	0xbd80e015	-0.0629274
189	0x3e2833d8	0.16426027
190	0xbe10bfbe	-0.14135644
191	0x3e2f4888	0.17117512
192	0xbca4e7a0	-0.020129979
193	0x3de262c6	0.11053996
194	0x3e0f86c5	0.14016254
195	0x3b4fc987	0.0031705813
196	0xbccc7700	-0.024959087
197	0xbdf78510	-0.120859265
198	0x3c780ce5	0.015139793
199	0x3e44025b	0.19141524
200	0xbe197a70	-0.14988112
201	0xbdd8e204	-0.10589984
202	0x3e0279b8	0.12741745
203	0xbdb36211	-0.08758939
204	0xbe5b6f2a	-0.21429124
205	0x3daf338f	0.08554756
206	0xbdde7ce1	-0.108636625
207	0x3da79e9f	0.081845514
208	0x3ddf473b	0.10902258
209	0x3bbf3746	0.0058354465
210	0x3daa06bd	0.083020665
211	0x3dd013d7	0.10160034
212	0x3e3d1937	0.1846665
213	0x3da81ebd	0.08208988
214	0xbda0ee2e	-0.07857929
215	0x3e18f6c9	0.14937891
216	0x3e3befc3	0.1835318
217	0x3cd8444e	0.026399758
218	0xbb398ce3	-0.0028312735
219	0xbe0f2394	-0.13978416
220	0xbe042d4f	-0.12907909
221	0x3e1357e6	0.14389
222	0xbe108836	-0.1411446
223	0xbe37fe77	-0.17968164
224	0x3de3883d	0.1110997
225	0xbd9624fd	-0.07331274
226	0x3d04e0c0	0.0324409
227	0xbdeb8e53	-0.115017556
228	0x3d96349d	0.07334254
229	0xbd276f0c	-0.040877387
230	0xbd7c9a13	-0.061670374
231	0x3cc049ad	0.023472631
232	0xbd4a709c	-0.0494238
233	0xbd26aad9	-0.040690277
234	0xbb8e4679	-0.004341897
235	0x3d1bf448	0.03807476
236	0x3e0d3581	0.13789941
237	0xbe2ba784	-0.16763121
238	0xbe3cae15	-0.18425782
239	0xbdbc5fb2	-0.0919794
240	0x3e1c1eb2	0.15246084
241	0xbdd3c697	-0.103406124
242	0x3bdaf2eb	0.00668179
243	0x3e5d89c1	0.2163458
244	0xbce7e29e	-0.028306302
245	0xbe236ccc	-0.15959471
246	0x3b3c5397	0.0028736347
247	0xbd08a9ab	-0.033364933
248	0xbd02e8d3	-0.03196032
249	0xbddf0ad2	-0.10890736
250	0x3b9c9f49	0.0047797305
251	0x3df4425b	0.11926719
252	0xbdbdb1ec	-0.092624515
253	0xbdba0c3b	-0.09084364
254	0xbd2b0000	-0.041748047
255	0x3d2d4ebe	0.042311423

bias f4 [32]
0	0xbcaf2c49	-0.021383421
1	0x3c563d2f	0.013076111
2	0x3bcdc117	0.0062791216
3	0xbbfd2f23	-0.0077265664
4	0xb9a930ab	-0.00032270452
5	0x3c30ee1b	0.010798956
6	0xbc8c6db1	-0.017142149
7	0xb9ba469c	-0.00035529293
8	0x3d19c2ef	0.03753942
9	0x3bfb74cf	0.007673837
10	0xbc87571f	-0.016521035
11	0x3c139016	0.009006521
12	0xbce4c1bb	-0.02792441
13	0x3c3e90aa	0.01163117
14	0xbcbe4755	-0.023227373
15	0x3c50034d	0.0126960995
16	0x3d0db7ee	0.034599237
17	0x3cd330d6	0.025780123
18	0xbcf0d6bc	-0.029399268
19	0xbd081c3b	-0.033230048
20	0xbc827373	-0.015924191
21	0x3cb4952a	0.022043783
22	0xbc075cfa	-0.008261913
23	0xbc827be9	-0.015928226
24	0x3cda41fc	0.026642792
25	0xbd20fa7d	-0.039301384
26	0xbca3ac97	-0.019979758
27	0x3c04e93a	0.008112246
28	0xbc9b0148	-0.01892151
29	0xba7c21e9	-0.000961809
30	0xbbac62d8	-0.0052608065
31	0x3cab3918	0.020901248

weight f4 [32]
0	0x3f8041b5	1.0020052
1	0x3f848c82	1.035538
2	0x3f816fad	1.0112206
3	0x3f7f95d6	0.99838006
4	0x3f842471	1.0323621
5	0x3f7b27e4	0.98107743
6	0x3f83f918	1.0310392
7	0x3f81caaa	1.0139973
8	0x3f83a563	1.0284847
9	0x3f84b47c	1.036758
10	0x3f7db641	0.9910622
11	0x3f83d672	1.0299819
12	0x3f84432e	1.0333002
13	0x3f84e80e	1.0383317
14	0x3f79e921	0.9762135
15	0x3f80d52c	1.0065055
16	0x3f80c922	1.0061381
17	0x3f831bb4	1.0242829
18	0x3f84f6f6	1.0387866
19	0x3f8336e2	1.0251124
20	0x3f845ea6	1.0341384
21	0x3f804d10	1.0023518
22	0x3f83c254	1.0293679
23	0x3f81e382	1.0147555
24	0x3f81f3df	1.0152549
25	0x3f7cad77	0.98702186
26	0x3f79c7c3	0.9757044
27	0x3f7a9907	0.9788975
28	0x3f7958d2	0.97401154
29	0x3f7f8e5b	0.9982659
30	0x3f792867	0.97327274
31	0x3f7ddbab	0.9916331

bias f4 [32]
0	0xbc5cbf56	-0.013473352
1	0x3d0aa597	0.033849325
2	0x3c0c54e3	0.00856516
3	0xbc6a0736	-0.014283946
4	0x3cc26ec2	0.023734454
5	0xbc3f082e	-0.011659665
6	0x3d183e30	0.03716868
7	0x3b80948e	0.003923959
8	0x3ce0609e	0.02738982
9	0xbcf043dc	-0.029329233
10	0x3c3d49dc	0.011553254
11	0xbcf0b491	-0.029382976
12	0xbd152140	-0.036408663
13	0x3d1f77e4	0.038932696
14	0x3c8a35b7	0.016871316
15	0x3b80e5eb	0.0039336584
16	0xbc4922d9	-0.012276375
17	0x3cfb8e50	0.030707508
18	0xbd26a5db	-0.040685516
19	0xbcdf08d1	-0.027225884
20	0xbd0ae957	-0.033913936
21	0x3be5342f	0.006994746
22	0xbcb0db35	-0.021588901
23	0x3c731715	0.014837046
24	0xbbe18d81	-0.0068833237
25	0x3cc56343	0.024095183
26	0xbc9ed8ce	-0.01939049
27	0xbcd51617	-0.02601151
28	0x3cbb89aa	0.022892792
29	0x3bf206a0	0.0073860437
30	0xbcdc7653	-0.02691189
31	0x3bbaf7be	0.0057058027

weight f4 [32]
0	0x3f800e9a	1.0004456
1	0x3f7c232d	0.98491174
2	0x3f8444cd	1.0333496
3	0x3f8432d0	1.0328007
4	0x3f79dcfb	0.97602814
5	0x3f841849	1.0319911
6	0x3f7db8d8	0.99110174
7	0x3f843b8a	1.033067
8	0x3f85ccb1	1.0453092
9	0x3f7d660c	0.98983836
10	0x3f83e896	1.0305355
11	0x3f83c24d	1.0293671
12	0x3f7ba3b2	0.98296654
13	0x3f7b4b9f	0.98162264
14	0x3f80d54f	1.0065097
15	0x3f80bd13	1.0057701
16	0x3f81cb0a	1.0140088
17	0x3f82af4e	1.0209749
18	0x3f846ee6	1.0346344
19	0x3f834ca1	1.025776
20	0x3f857eeb	1.0429357
21	0x3f82fa39	1.0232612
22	0x3f801f23	1.0009502
23	0x3f7a30d8	0.9773078
24	0x3f853b12	1.0408652
25	0x3f7f6d7c	0.99776435
26	0x3f7f973e	0.9984015
27	0x3f838473	1.0274795
28	0x3f843fc0	1.0331955
29	0x3f81fbd9	1.0154983
30	0x3f85b4c2	1.0445788
31	0x3f84d6ce	1.0378053

bias f4 [32]
0	0x3cd0d794	0.02549342
1	0xbcee0562	-0.029055301
2	0x3d1cb070	0.0382542
3	0x3ccd8bad	0.025091017
4	0xbc8c73bd	-0.017145032
5	0x3cd77ee5	0.026305625
6	0x3c18540a	0.00929738
7	0x3d08ac71	0.033367578
8	0x3d3c37b5	0.045951564
9	0x3c8096d6	0.015696924
10	0xbcf3df73	-0.029769635
11	0xbcadbace	-0.02120724
12	0xbb579d81	-0.0032900276
13	0xbc6bee5a	-0.014400089
14	0xbbaf0538	-0.0053411983
15	0xbc605814	-0.013692874
16	0xbd1b3d3b	-0.03790019
17	0x3cc6f090	0.024284631
18	0xbd12103e	-0.03566002
19	0xbd12eafd	-0.035868634
20	0xbd1c410f	-0.038147982
21	0x3cd48a4c	0.025944851
22	0x3cbf1a55	0.023327986
23	0x3d0fa0c9	0.035065446
24	0x3d151d6a	0.036405005
25	0x3c7ee166	0.015556669
26	0xbc0d443d	-0.008622226
27	0x3d2ee04e	0.042694382
28	0xbc0c6260	-0.008568376
29	0xbca1f54b	-0.019770285
30	0x3d23956a	0.039937414
31	0xbd250601	-0.04028893

att_src f4 [1, 1, 32]
0	0xbdc61f38	-0.09673923
1	0x3d7939e8	0.06084624
2	0xbec5f84e	-0.38666004
3	0xbe0e375e	-0.13888308
4	0xbe3caec1	-0.18426038
5	0x3e6d46cc	0.23171538
6	0xbdc550e0	-0.09634566
7	0xbe865060	-0.26233196
8	0xbed33e37	-0.41258404
9	0xbe2f87c8	-0.1714164
10	0xbe8b492e	-0.2720427
11	0xbecbedfb	-0.39830002
12	0x3eb29290	0.34877443
13	0xbda7ff68	-0.08203012
14	0x3e1a0c7c	0.15043825
15	0x3c0befc0	0.008541048
16	0x3de873b8	0.113501966
17	0xbcd15c30	-0.025556654
18	0xbe5d098d	-0.21585675
19	0xbe3ab63b	-0.18233578
20	0x3e8bacf6	0.27280396
21	0x3e88c578	0.26713157
22	0x3e7d863c	0.24758238
23	0x3eab9d3a	0.33518392
24	0x3d961acc	0.0732933
25	0xbe8de434	-0.27713168
26	0xbecfa6b0	-0.4055686
27	0xbda1a844	-0.07893422
28	0xbdf1a660	-0.11799312
29	0xbea4f766	-0.3222
30	0x3e90da40	0.28291512
31	0xbd78f040	-0.060775995

att_dst f4 [1, 1, 32]
0	0x3eb69ddc	0.35667312
1	0x3e896b60	0.26839733
2	0x3e60e73c	0.21963209
3	0x3db5dff8	0.08880609
4	0xbe0fe0a6	-0.1405054
5	0x3ea96888	0.33087564
6	0x3e7708d8	0.24124467
7	0x3ec7057e	0.38871378
8	0xbea3882e	-0.31939834
9	0xbe843220	-0.25819492
10	0x3e57d848	0.21078598
11	0xbe74d34f	-0.23908733
12	0x3e5c9920	0.21542788
13	0xbda02c2c	-0.07820925
14	0x3ea52e44	0.3226186
15	0x3e81b3ac	0.2533239
16	0xbe8ee4f0	-0.2790904
17	0x3ca91900	0.020641804
18	0x3d8b7ba0	0.06810689
19	0x3cd99b70	0.026563376
20	0x3e482940	0.19546986
21	0x3cd7a9d0	0.02632609
22	0xbe98e9fe	-0.29866022
23	0x3e69c2fc	0.22828287
24	0x3d9be7c8	0.07612568
25	0xbe88a245	-0.26686302
26	0x3eb84826	0.35992545
27	0xbe30b968	-0.17258227
28	0xbe70f823	-0.23532157
29	0xbed3d06d	-0.41369954
30	0x3c818c50	0.015813977
31	0x3e1145c8	0.14186776
