pre_trained_models/meld_emo_aligned_L_DISCRIMINATOR.pt (torch, 190871 bytes, 5 tensors)

weight f4 [128, 300]
000000 35 62 41 bd 28 fe 33 bd 2b 9b a9 bc 39 c7 9e 3b
       -0.0472128 -0.043943554 -0.020703873 0.0048455265
000010 09 79 3c bd 7f e8 33 bd 85 a8 21 3c 1d ff ef bc
       -0.046013866 -0.043922897 0.009866838 -0.029296452
000020 e4 b8 1b 3d 95 4c 48 bb a6 76 b2 bc 10 1b 2d bd
       0.038018122 -0.0030563225 -0.021785092 -0.042262137
000030 b8 27 8a bc bc 4f cb 3c 32 f6 39 bd e3 c7 32 3d
       -0.016864643 0.024818294 -0.045400806 0.043647658
000040 96 dd 67 ba 37 06 34 3c f0 83 74 3d ec d4 5f 3d
       -0.00088449696 0.01098781 0.059696138 0.054646417
000050 52 71 cd bc e9 0d 67 3d b1 34 4f 3d b6 6f 16 bd
       -0.02507845 0.05640975 0.05058736 -0.03672763
000060 78 7b 5d 3d 06 a8 1a bd 4b ac 2a 3d 89 45 35 3d
       0.054072827 -0.037757896 0.041668218 0.044255767
000070 61 87 62 3d db b9 da bb 85 7e 5d bd ed 96 13 3c
       0.05530489 -0.0066749877 -0.054075737 0.0090081515
000080 79 1e 5c bd 1f d0 4f 3d 0d 38 58 bd 78 8b ab 3c
       -0.05374 0.05073559 -0.05278783 0.020940527
000090 e5 14 12 3d cc 18 4c bd 33 ef e7 bc 24 7f 44 bd
       0.035664458 -0.049828336 -0.028312301 -0.047972813
0000a0 a1 5d 22 3d 82 04 3c ba c2 05 f7 3c 77 91 67 bb
       0.039640073 -0.00071723026 0.030154113 -0.0035334507
0000b0 d0 88 ab bb 8e 76 a4 3c a1 84 46 bd a7 77 b4 bc
       -0.005234815 0.020076063 -0.04846633 -0.022029711
0000c0 39 79 11 3d 6d d9 4a bd 31 d1 69 bd 11 6f df 3b
       0.035515998 -0.04952376 -0.057084266 0.00681866
0000d0 0b 2e 91 3c 5c f4 0f 3d d8 eb 3c 3d 8a 6b 25 3c
       0.01772215 0.03514515 0.046123356 0.01009644
0000e0 58 d6 0f bb 1d 7a 4b bd f7 ed b1 bc ac 61 4a ba
       -0.0021947827 -0.049677003 -0.021719916 -0.0007720243
0000f0 e0 c8 74 3d f0 28 0a bd cf eb fc 3c b9 93 c0 ba
       0.05976188 -0.033730447 0.030874161 -0.0014692462
000100 19 5a f5 bc 5d ef 9a bc b1 37 62 3b c7 13 39 3c
       -0.029950188 -0.018912965 0.0034518058 0.011296219
000110 84 3b 52 3d 63 1a 9e 3c 52 e1 5e 3c eb d3 15 bc
       0.05132629 0.019299692 0.013603525 -0.009144763
000120 00 46 12 bd 41 72 57 3d 69 e8 ca bc 1c e6 48 bd
       -0.03571129 0.052599195 -0.024769025 -0.049047574
000130 50 40 ca 3c b1 8c b5 3c ec 35 29 3d c6 f1 03 3d
       0.02468887 0.022161813 0.04131119 0.032212995
000140 4d 7d c5 3b cc 33 e6 bc f1 7f 5b 3d 2c 84 33 bd
       0.0060269 -0.02810087 0.05358881 -0.04382722
000150 7d d1 20 bb 0e 56 c3 bc a2 8b cd 3c 94 5b 03 3d
       -0.0024538927 -0.023844745 0.025090996 0.032069758
000160 b6 a1 a1 bb 22 79 09 bd 77 46 47 bc 3f 40 91 3c
       -0.0049326075 -0.033562787 -0.012162796 0.01773083
000170 ae b0 5a 3d fe 86 63 3d 98 d1 19 3c 87 f0 56 bc
       0.05339115 0.05554866 0.00938835 -0.01311887
000180 e6 a1 da 3c 54 7c 4c 3d 15 10 d9 3c 22 39 53 bc
       0.026688527 0.049923256 0.026496926 -0.0128920395
000190 78 d4 14 bd 71 7b 34 3c 98 25 14 bc e4 de 2b bc
       -0.03633544 0.011015759 -0.009042166 -0.010490153
0001a0 08 7d a5 3c 9f 7a 17 bd 2d d9 57 3d 91 b4 41 3d
       0.020201221 -0.036982175 0.05269735 0.047291342
0001b0 8c 0d 1b 3d 3a b8 e2 3c 75 06 fb 3c 63 cc 6a bd
       0.037854716 0.027675737 0.030642727 -0.057323825
0001c0 65 86 db 3c 76 ea 11 bd eb dc 7c bc 80 70 b6 bc
       0.026797483 -0.03562399 -0.01543353 -0.022270441
0001d0 bf f4 28 3d 8e 33 50 3c a1 14 5e 3d c3 77 d6 bc
       0.041249033 0.012707604 0.054218892 -0.026180154
0001e0 04 f4 4a bd 02 5b 6b 3c b2 4c 1b bb 1d 24 9c bc
       -0.049549118 0.01436496 -0.0023696837 -0.019060189
0001f0 f2 44 62 3d 64 aa c9 3c 52 21 27 3d 41 9b 0b bd
       0.055241533 0.024617381 0.04080326 -0.03408361
000200 de de c1 3c f9 37 31 3c 6c 1d 5e 3d 97 34 2c bd
       0.023665842 0.010816568 0.054227278 -0.04204234
000210 20 48 0b bd f6 34 1e 3d f3 a7 34 3d ee d4 b2 3c
       -0.03400433 0.038624726 0.04410548 0.021830048
000220 d2 1e 5d bd 9a c9 eb bc 00 14 a8 bc 83 73 04 3d
       -0.05398447 -0.028782655 -0.02051735 0.032336723
000230 c4 b0 0d bd 38 68 85 3c 62 9b 53 3c 2e dc 6d bd
       -0.034592405 0.016285047 0.012915464 -0.058071308
000240 27 03 1b 3d 57 2c 35 3d 2b f1 59 3d e9 3c 05 bd
       0.037844803 0.04423174 0.05320851 -0.03252879
000250 4b 22 c8 3c e5 fe a4 3c fb 5a 22 bd 3e 28 ea 3b
       0.024430415 0.020141074 -0.039637547 0.0071459105
000260 ef 46 0e bd bb 0f 1b bd 47 1b f1 3c 20 07 e4 3c
       -0.034735616 -0.0378568 0.029431952 0.027835429
000270 0c 92 20 3c a4 71 e7 3c c3 d3 c9 bc 6e 7f 43 bc
       0.009800445 0.02825243 -0.024637109 -0.011932237
000280 99 80 07 3d 16 c2 27 3d 7d 0d 14 bd 67 17 2e bb
       0.033081625 0.04095658 -0.036145676 -0.0026564242
000290 ff f6 91 bc 3b 8d 81 bc af 6a 3e bd 94 c2 2c 3d
       -0.017817972 -0.015814414 -0.04648846 0.04217775
0002a0 62 47 40 bd 7f 77 6e 3c e9 80 c7 bc 8d 0d 4b bd
       -0.046943076 0.014554857 -0.024353461 -0.04957347
0002b0 ab bd 2d 3c 82 4d 39 bc 48 11 29 3d 6d d4 fa 3b
       0.010604302 -0.011309983 0.041276246 0.0076547177
0002c0 ef 22 df 3c 18 9a bc 3c 2d 7a 5d 3b 65 81 2d 3c
       0.027238337 0.023022696 0.0033794746 0.010589932
0002d0 d1 5a 23 bd 41 ec 59 bd 51 19 47 bd dc 55 4e 3b
       -0.03988153 -0.053203825 -0.048608128 0.0031484282
0002e0 cf 4f 70 bd 27 0a 09 bd 02 90 54 bc fe fa dc 3c
       -0.05866986 -0.033456948 -0.012973787 0.026975151
0002f0 b2 66 c8 3c 7d f2 1b bd d9 e9 40 bd 0c cb 29 bd
       0.024463031 -0.03807305 -0.047098015 -0.041453406
000300 38 ca 50 bd 22 1d 6a bc 8a e1 09 3d 52 8e 0f bd
       -0.0509741 -0.014289172 0.033662356 -0.035047837
000310 0b 94 05 3d 5b f2 fd bc ec 41 93 3c 64 68 45 bc
       0.032611888 -0.030999353 0.01797577 -0.012048814
000320 73 2e 45 bd bc b9 64 3c 7e 9c 77 3d af e8 0a 3d
       -0.04814 0.013960298 0.060451977 0.03391331
000330 d5 7c d2 3c b1 af 5d bd b4 cb d4 ba a7 ac 77 3d
       0.02569429 -0.05412263 -0.0016235025 0.06046739
000340 45 42 10 bd b3 56 f0 3c ca 34 fc 3c 8c 08 4e bd
       -0.03521945 0.029338216 0.03078689 -0.05030112
000350 07 24 f6 bc f4 01 1b bd ab 0d d7 bc 42 0a 44 3c
       -0.030046476 -0.03784366 -0.026251635 0.011965336
000360 6b 0e fe 3c e7 b3 c0 bc a9 5b be 3c 45 76 55 bd
       0.031012734 -0.023523284 0.023237066 -0.052114744
000370 41 43 55 bc f9 80 61 bd da bd 31 3d a3 99 3e bd
       -0.013016523 -0.05505464 0.043393947 -0.04653324
000380 18 d3 65 bd 56 1a 29 3d 5d f1 65 bd c7 28 29 bb
       -0.056109518 0.04128488 -0.056138385 -0.0025811659
000390 c1 1b 2b 3d 87 41 4c bd 9a b3 d6 bc 30 1b 66 3c
       0.041774515 -0.04986718 -0.026208688 0.014044568
0003a0 ff 03 ee 3b b9 0f 52 3d b9 f0 b0 bc 03 6f ed bc
       0.00726366 0.051284526 -0.02159916 -0.028983599
0003b0 4f f4 03 bd 5a 0a e0 3c 30 d3 3a 3c 76 74 e4 3c
       -0.032215413 0.027348686 0.01140289 0.027887564
0003c0 c6 58 14 bc c9 cc 83 3c 32 30 cb bc 6b 4b d7 3b
       -0.009054368 0.01608886 -0.024803255 0.00657027
0003d0 fd 22 6a bd ec 0f 4b 3d 7e 5f 10 bb 8d f0 57 bd
       -0.057162274 0.04957573 -0.0022029574 -0.05271964
0003e0 89 0c 65 bd 72 de 91 3c 92 d4 3e 3d 6e 90 04 bd
       -0.055920158 0.017806266 0.04658944 -0.0323643
0003f0 bb 06 0b bd 2e 1c 3f 3d c5 89 f3 3a e7 4a a7 bc
       -0.033941966 0.046657734 0.0018580487 -0.020421458

bias f4 [128]
000000 1a 7a 03 3c b0 0c 3a 3d 9a a6 94 35 da 3c 01 bc
       0.008024717 0.045422256 1.1075347e-06 -0.007888043
000010 6a e8 22 bc 1d 83 ed bc ae 29 eb 3c b3 6c a4 3c
       -0.009943107 -0.028993184 0.028706398 0.020071363
000020 19 45 1b bd 41 0e dd bc 35 d3 30 bd 1c 79 4b 3d
       -0.037907694 -0.026984336 -0.043170173 0.049676046
000030 d8 77 63 3c c8 39 b5 b9 d9 c3 73 3c 76 8b 0c 3a
       0.013883553 -0.0003456606 0.014878237 0.00053613575
000040 57 62 e6 3b 2a 30 b4 bc 8b f8 22 bd b0 6a e0 3b
       0.007030766 -0.021995623 -0.03978781 0.0068486556
000050 e9 5c 28 bc 40 c9 cf bc 62 8f 2d 3c d1 29 be 3b
       -0.010276058 -0.025364518 0.010593267 0.0058033247
000060 c8 9c 31 3b ef 9d 00 bc 7c b0 4d 3d e9 b1 8a 3b
       0.0027101506 -0.007850154 0.050217137 0.0042326343
000070 d2 3d db bc a3 d0 5b bd d7 14 8c bc 70 35 01 bc
       -0.026762877 -0.05366577 -0.017099781 -0.007886276
000080 11 4a c4 3c e9 cd 62 3d 91 46 01 bd 64 c1 31 bd
       0.023961099 0.055372152 -0.031561438 -0.043397322
000090 7c 5c c6 3b 9b 8d 1a 3d f9 d1 54 bd a0 f6 d1 3c
       0.0060535055 0.0377327 -0.051958058 0.025630295
0000a0 ec fb d5 3c 73 ae 0d bd b4 60 a2 bb 00 fb 04 bd
       0.026121102 -0.034590196 -0.0049553756 -0.032465935
0000b0 c7 9b 7c 3c 31 70 3b 3d 2c fa 3d bd 64 7f 19 3d
       0.015418 0.04576129 -0.04638116 0.037475005
0000c0 98 46 c7 3c 8b 95 18 bd 36 73 73 3d ec 54 61 3d
       0.024325654 -0.03725199 0.059436046 0.05501263
0000d0 c7 26 25 3d f4 48 05 3d 78 2c 3b bd 3d 09 a7 bc
       0.040320184 0.032540277 -0.045696706 -0.020390147
0000e0 eb 18 b7 b7 d0 43 2b 3d 23 a8 56 bd 8e 3a 65 bd
       -2.1826903e-05 0.041812718 -0.05240644 -0.055964045
0000f0 52 94 9b bc 1c 07 61 3d f8 de 8e 3b d5 6c 97 3a
       -0.018991623 0.05493842 0.004360076 0.001155282
000100 54 fb b7 bc 47 26 01 bc ea e4 30 3d 62 d2 ec 3c
       -0.02245871 -0.007882661 0.04318706 0.028908912
000110 92 c5 45 3d 1a 96 39 bb 22 17 22 3c b3 90 19 bd
       0.04828412 -0.0028318227 0.009893211 -0.03749151
000120 ea 71 51 3d 8a 42 3d 3c f3 2f 1d 3d ba b3 b8 bb
       0.051134028 0.011551509 0.038375806 -0.0056366595
000130 d4 69 42 bd e8 54 cd b9 00 0a 60 bc 29 42 11 bd
       -0.047464207 -0.00039163907 -0.013674259 -0.035463486
000140 79 f2 34 bd 68 b6 57 bc 79 40 79 b9 d2 b6 21 3c
       -0.044176552 -0.013166048 -0.00023770508 0.009870248
000150 c7 26 2b bc 03 df 9c bc 06 fd fd bc 78 3c 94 3c
       -0.010446257 -0.019149309 -0.03100444 0.01809524
000160 a4 6f 4b 3b b4 af 2b 3d 1e 0d 08 bd ec 04 09 bd
       0.0031041885 0.04191561 -0.033215635 -0.03345196
000170 46 fc 8e b9 3b f4 09 bc 9f 47 15 bd 8a f3 14 bd
       -0.0002727231 -0.0084200455 -0.036445256 -0.03636507
000180 3f a1 1e bd 0d 06 47 bd b8 fa 13 bd 22 e1 c7 3c
       -0.038727995 -0.048589755 -0.036127776 0.024399344
000190 50 0d 62 bd 9d 0b 49 3c 4f 0c 22 3d 08 00 ed bc
       -0.055188477 0.012270835 0.03956252 -0.028930679
0001a0 93 ce cf 3b b8 c2 31 3d 67 b0 c3 bc 63 85 78 3d
       0.0063417642 0.04339859 -0.023887826 0.060674082
0001b0 05 7f 3b 3d 7e 14 05 bd fd a4 36 3d e2 72 3a 3d
       0.045775432 -0.032490246 0.04459094 0.045519717
0001c0 8d 45 3a bb 21 d4 15 3d d6 b6 1b bd 5d 00 5d 3c
       -0.0028422803 0.036579255 -0.038016163 0.013488856
0001d0 75 cf f4 3c 4b a5 28 3d 33 b6 25 3d 1b f8 f0 bc
       0.02988408 0.04117326 0.04045696 -0.02941518
0001e0 65 71 8f b8 c5 16 47 3d 8b 45 1f 3d 07 a3 7b bc
       -6.839893e-05 0.0486057 0.03888468 -0.015358693
0001f0 d4 a1 c5 3c 18 ce 1f 3d 72 45 b5 3a 37 f4 42 bd
       0.024125017 0.039014906 0.00138299 -0.047596183

weight f4 [64, 128]
000000 70 24 62 bd 54 1a b4 bd 81 63 cb bc df 60 66 3c
       -0.05521053 -0.08794084 -0.02482772 0.014061182
000010 1d 50 83 3c 59 76 26 3c f3 8b a3 bd b0 83 2e bc
       0.016029412 0.010160052 -0.079856776 -0.010651514
000020 7b 04 82 bd 25 25 b1 3d 61 b2 8d 3c 51 57 09 3d
       -0.06348511 0.08649663 0.017296972 0.033530537
000030 5d d3 6f bd ff f9 18 3c 66 e1 93 bd da f8 e7 bc
       -0.05855118 0.009336947 -0.07220726 -0.028316904
000040 97 c5 aa 3d 74 2c 89 3a cf 7a ae bb f9 fd 65 3d
       0.083384685 0.0010465519 -0.0053246985 0.05615041
000050 74 7e f0 3c 8f de a2 3d 85 ae 4e bd 4d d1 1f 3d
       0.029357173 0.07952606 -0.050459404 0.039017964
000060 a5 9b 6a 3d 54 8f a9 bd 4e 50 6a 3d 0f 69 d4 3b
       0.05727734 -0.08279291 0.05720549 0.0064822505
000070 57 e5 84 3d f4 05 dd 3c f8 28 1d 3d a1 c2 04 3d
       0.064890556 0.026980378 0.03836915 0.032412175
000080 5d f2 90 bd 92 39 b5 3d 64 c7 a8 bd 8b 79 a5 bd
       -0.07077477 0.08848871 -0.08241156 -0.08079823
000090 8e 94 91 3d bf 18 39 3d 5d 1e 46 3d 75 4d a7 3d
       0.07108413 0.045189615 0.0483688 0.08169071
0000a0 e2 aa 9a bc 92 13 73 bd 60 cf 86 bd e5 3b 96 3d
       -0.018880311 -0.059344836 -0.065825224 0.07335643
0000b0 9d 42 a1 3d 73 f0 1d 3d 1f 08 0a bd 31 66 03 3d
       0.078740336 0.03855939 -0.03369915 0.03207988
0000c0 92 18 24 3d ad 87 31 bd f9 30 34 3d 8a 14 86 bd
       0.040062495 -0.04334228 0.043992016 -0.06546886
0000d0 ad 36 a7 3d 89 1f 54 3c b3 c5 a3 bd 34 f3 08 bd
       0.081647255 0.012946972 -0.079966925 -0.03343506
0000e0 91 34 a9 bd 67 67 a8 bd b4 68 16 bd c4 b0 33 bd
       -0.08261979 -0.082228474 -0.036720946 -0.04386975
0000f0 b8 72 8c bd 6d 05 35 bb d4 ca f0 bc fa ff 96 bd
       -0.06857818 -0.0027621642 -0.029393591 -0.073730424
000100 d0 c9 3e 3d 7b 2b 55 bd 46 91 75 3d b8 51 97 bd
       0.046579182 -0.05204342 0.059952997 -0.073886335
000110 bc b1 78 bc 8f f8 46 bd 09 7b 26 bd 26 85 8b 3d
       -0.015179094 -0.048576888 -0.04064468 0.068125054
000120 20 d3 8c bd ae 06 6a bd 4d 60 41 bd 0f ec 5c bd
       -0.068762064 -0.057135276 -0.04721098 -0.05393606
000130 18 1f d4 bc 97 43 8f bd 58 60 b6 bc f0 5b c6 bc
       -0.025893733 -0.069953136 -0.022262737 -0.024213761
000140 6b 3b db bc f7 26 9c bd d4 63 23 bb 07 94 69 3d
       -0.026761731 -0.076246195 -0.0024931328 0.057025936
000150 ba 85 67 bd 0d fb 6f bd 01 92 37 3d 65 84 e9 3a
       -0.056524016 -0.05858903 0.044816975 0.0017815946
000160 4b 82 a5 bd 0c 40 a7 bd 41 5f 70 3c 32 42 3a bd
       -0.08081492 -0.08166513 0.014671148 -0.045473285
000170 79 3a b7 3a e8 8a 8a bc 55 2f 84 bd 02 5d 8b bd
       0.0013979218 -0.016911939 -0.0645434 -0.06804849
000180 65 e7 36 3a 4a ab 78 3d 94 c1 a8 3d f8 fe 4e bd
       0.00069772295 0.06071023 0.08240047 -0.050536126
000190 e6 8b 19 bd da f0 83 3d ea 9b b0 bd d4 01 b0 3d
       -0.037486933 0.06442423 -0.08623488 0.08594099
0001a0 86 cd e5 bc b4 2f 49 bd 1a 09 0c 3c 9d 75 e2 3c
       -0.028052103 -0.04911776 0.008547092 0.027643973
0001b0 92 41 5a 3c 80 62 60 3c 73 4b 69 bd a3 38 a5 bd
       0.013321297 0.013695359 -0.05695672 -0.08067443
0001c0 d1 91 89 bc d1 02 69 bd 6b b1 83 3d 1f 8e c6 bc
       -0.016793163 -0.05688745 0.06430324 -0.02423769
0001d0 72 3f 56 3d 3e 90 8c bd da e7 12 3c 4e d4 3f 3d
       0.0523066 -0.068634495 0.0089664105 0.04683333
0001e0 66 fb ab 3c 91 aa ae 3c 16 21 72 bd 44 c3 05 bd
       0.0209939 0.021321567 -0.059113584 -0.032656923
0001f0 5d 99 53 bd 38 7e 79 bd ee ef ef bc ae 60 7a bd
       -0.05165993 -0.060911387 -0.029289212 -0.061127357
000200 bc 41 8e 3d 5e 5e aa bd a8 ac 91 bd 2c fe ac 3d
       0.069461316 -0.0831878 -0.0711301 0.08446917
000210 90 16 ab 3c bc 47 17 bc 4a 2b ac bd 58 7a a3 bd
       0.020884782 -0.009233411 -0.08406694 -0.079823196
000220 1c eb 3b 3d b7 80 85 bd 3b 5a 76 3d d6 fc 97 bd
       0.045878515 -0.06518691 0.060144644 -0.074212715
000230 1b f4 ab 3d 0e f1 06 3d 3b 6d c4 3c 46 ed 5b 3b
       0.08396169 0.03294473 0.023977866 0.0033558174
000240 66 b4 47 3b 93 cd 9c 3d 0c 33 81 3d ed 48 a1 bd
       0.0030472516 0.07656398 0.063085645 -0.078752376
000250 38 33 a9 3d db 3f 88 3d e4 e4 8d 3b 09 26 a3 bc
       0.08261722 0.066528045 0.0043302644 -0.019915598
000260 cf 52 49 bd bc d3 50 bd fc 7c b8 3c 49 45 89 3d
       -0.049151238 -0.050983176 0.022520535 0.06702668
000270 17 67 57 3d 8f 0b b0 bd 50 84 8b bd 51 40 92 3d
       0.05258855 -0.085959546 -0.06812346 0.07141174
000280 27 73 1e 3d d2 ac 9e 3c cd 20 73 3d 12 53 a8 bd
       0.038684037 0.019369517 0.059357453 -0.082189694
000290 0e 25 95 3d 00 79 4e 3d 10 fe 93 bd b8 42 09 3d
       0.07282458 0.050408363 -0.07226193 0.033510894
0002a0 be 55 aa 3d 56 37 6a bd 68 c7 79 3d 35 b5 72 bd
       0.08317135 -0.05718168 0.060981184 -0.059254844
0002b0 31 be 77 bc 1d d9 82 3d a8 e2 91 3c 5c 44 9d bd
       -0.015121029 0.06389067 0.017808273 -0.07679054
0002c0 62 b7 c2 3b de ad 7b 3c b3 d8 e2 bc 31 ff b3 3c
       0.005942271 0.015361277 -0.02769122 0.02197227
0002d0 d7 31 2d 3d c7 cc 5e bd e3 9d 92 bd e0 f0 c1 bc
       0.04228386 -0.05439451 -0.07159021 -0.023674428
0002e0 7a 76 cf bc 67 4a 96 3d 0c 83 74 3d 3f 3a 51 bd
       -0.025325049 0.0733841 0.05969529 -0.05108094
0002f0 e2 8a a7 bd 76 ea d8 3c d8 71 00 bd 83 bd af bd
       -0.08180787 0.026478987 -0.03135857 -0.08581068
000300 11 6f a6 3d 11 ba a3 3d 5c d9 dc 3c c4 cf 6c bd
       0.08126653 0.07994474 0.026959114 -0.05781533
000310 c9 6b ca 3c 27 4b 7a bd c1 9c e2 bc 9d d6 d7 3b
       0.0247096 -0.061106827 -0.027662637 0.006586863
000320 60 2e 8b bb 19 33 37 bd 9f c8 94 3d 90 86 e4 bc
       -0.0042474717 -0.044726465 0.07264828 -0.027896196
000330 a2 ef 2d 3c f7 01 92 3d 2b 37 b1 bc f7 49 1d 3d
       0.010616215 0.07129281 -0.021632751 0.038400616
000340 f1 ab ff bc 0f 1c 3f bd 4e 43 8a bd 6d dd 66 3d
       -0.031209918 -0.046657618 -0.067511186 0.05636351
000350 df 68 ba 3d b3 98 cc 3c 47 71 84 3d b0 8b 1d 3d
       0.09102034 0.024975156 0.064669184 0.038463295
000360 97 e9 9c bd 22 fe 6f bd bf b3 b1 3d 5f 2b b2 3c
       -0.07661741 -0.05859197 0.08676862 0.021749197
000370 f3 6f 31 3c 25 2f 90 3d 76 c2 47 bd 9c b1 99 3d
       0.010829913 0.07040242 -0.048769437 0.075045794
000380 90 05 0a bc 89 8e 55 bd 18 5e 80 bc 95 ba a9 bd
       -0.008424178 -0.052137885 -0.015669867 -0.08287541
000390 ec 77 6a 3c 22 f5 8c bc b8 09 64 bd 31 f2 d3 3b
       0.014310818 -0.017206732 -0.05567333 0.0064680804
0003a0 c4 40 8a 3c 73 42 22 bd a3 60 8e 3c f7 78 a9 bb
       0.016876586 -0.039614152 0.017380064 -0.005171891
0003b0 aa c9 7e bd 5c 98 2a bd 41 7b 57 3d 28 de a3 bd
       -0.06220404 -0.041649207 0.05260778 -0.08001357
0003c0 52 9c a7 bd dc 59 59 bd bc 55 01 bd 44 4f 2a 3d
       -0.081841126 -0.053064212 -0.031575903 0.0415795
0003d0 e3 40 4b bc e5 31 f3 bb bc 9f 79 bc b9 04 38 bd
       -0.012405607 -0.0074217194 -0.015235838 -0.04492638
0003e0 9e ca 58 3d d6 d7 85 3d 3e 54 8a 3d 78 c3 90 bd
       0.052927606 0.06535308 0.06754349 -0.07068533
0003f0 65 96 80 bd 19 59 82 bd 32 a8 d0 bc 6a 59 83 3d
       -0.062786855 -0.0636465 -0.025470827 0.06413539

bias f4 [64]
000000 02 df ab bd c7 0c 7d bc 14 75 20 bc b1 b1 98 3c
       -0.08392145 -0.015444941 -0.009793539 0.018639417
000010 d4 d9 79 bb 6b a2 b7 bd bd 37 71 bc af 6a fe 3c
       -0.003812422 -0.08966526 -0.014722762 0.03105673
000020 c5 d8 8e 3c 20 5d 1d 3c ec 8a 9f 3d 98 9a 9c 3d
       0.017437348 0.009604722 0.07790169 0.07646674
000030 c9 b8 88 bc 07 ba 16 bd 54 96 bd 3c 0c 33 a7 3d
       -0.016689675 -0.036798503 0.023142971 0.08164033
000040 e6 64 22 3d 66 fd f4 3c 37 96 9b bd 60 3e 77 bd
       0.039647005 0.029905986 -0.075970106 -0.06036222
000050 16 cd 7c 3d a7 ba fb 3c b2 e5 12 3b d6 84 41 3b
       0.061719023 0.030728651 0.002241474 0.002952864
000060 ff 11 24 38 82 46 9c bd f4 d4 88 3c 80 f5 6c 3d
       3.9117407e-05 -0.07630636 0.016703106 0.057851315
000070 67 0b 6b bd 7c 2e 84 3d 53 99 8c 3d d0 26 aa bc
       -0.05738392 0.06454179 0.06865182 -0.02077046
000080 e7 fe 84 3d 0b 40 90 3d ad 1c c3 3b 85 93 a3 3d
       0.06493931 0.07043465 0.005954346 0.079871215
000090 69 18 37 bd 91 15 70 3c 7f 93 f9 bc 93 0d 81 3d
       -0.044701014 0.014653579 -0.03046584 0.06301417
0000a0 d6 ee 4f bd e8 1b ee 39 c8 e4 e7 bb 07 14 04 bd
       -0.05076488 0.0004541569 -0.0070768334 -0.032245662
0000b0 ed 0b cc 3c 9e 90 79 3d 66 ad 24 3d 5b ef ca b9
       0.02490803 0.060928933 0.040204428 -0.00038706776
0000c0 fe 10 a6 3c 44 03 0e bb 57 36 58 bd 18 1b ae bc
       0.020271774 -0.0021669427 -0.052786198 -0.021253154
0000d0 fe 19 b0 3c 6c 47 40 bd f5 fb b9 3d 62 79 2e 3c
       0.021496769 -0.046943113 0.0908126 0.010649057
0000e0 24 ab 8b bd d8 09 85 3d d2 c2 ca bc b5 c2 64 3d
       -0.06819752 0.06496018 -0.0247511 0.05584975
0000f0 9f 9c 01 bd f9 e8 05 3d 0a ab d6 3a 71 35 f0 3c
       -0.031643506 0.032692883 0.0016377878 0.029322358

weight f4 [1, 64]
000000 d8 16 11 bd 73 87 6a ba 5c 2f 33 3d cb d4 63 bb
       -0.035422176 -0.0008946575 0.043746337 -0.0034764286
000010 e3 f8 40 bd d9 e7 9c 3d dc 60 a9 bb 53 cf da bd
       -0.047112357 0.07661409 -0.0051690172 -0.10684075
000020 6f dd 4b bd 61 65 ea bd 1e cd 60 3d 68 62 ef bd
       -0.049771722 -0.11445118 0.054883115 -0.116886914
000030 8c e0 ba bd 59 33 18 3d 22 e6 08 bd 28 92 2f 3c
       -0.0912486 0.037158344 -0.033422597 0.010715999
000040 df 85 6f 3d 6f 94 d3 3c 77 4f db 3d f0 6e 89 bd
       0.05847728 0.025827615 0.10708516 -0.06710613
000050 69 fd 94 3c ef 30 71 bd 86 db 1d 3d f1 6e 97 bd
       0.018187242 -0.058884557 0.038539432 -0.07394207
000060 f9 57 d2 bd 1d 3a ba 3d f2 b7 ae 3c 84 3b de 3b
       -0.10270686 0.090931155 0.021327946 0.006781997
000070 39 67 2a bb 72 6a ea bd 1b d9 d1 bd 82 37 9c 3d
       -0.0026001467 -0.11446084 -0.10246488 0.07627775
000080 bb 1b ea 3d ae 91 a8 3d c9 cf fd 3c fd db cd bc
       0.114310704 0.08230911 0.030982869 -0.025129313
000090 4e 56 df bd e3 95 97 3c c8 25 ef bd 6e 34 ba bc
       -0.10905133 0.018504089 -0.11677128 -0.022730079
0000a0 a0 a8 68 3d cf b0 f9 bd 01 ec 97 bd 54 62 37 3d
       0.05680144 -0.12191927 -0.07418061 0.044771507
0000b0 ba 1d c3 bd 7c a6 01 3e 54 3f 08 bd b9 a2 af 3d
       -0.09527154 0.12661165 -0.03326352 0.08575959
0000c0 e9 9f a2 bd 1c aa c2 bc 7d c9 8f bc 73 ce c8 bd
       -0.07940657 -0.023762755 -0.017552132 -0.09805002
0000d0 f5 94 88 bd 45 e6 94 3d 8a 90 ba 3d 13 0b b2 3d
       -0.06669036 0.07270483 0.091096 0.086935185
0000e0 61 ea 8a 3d 9c d0 da 3b d7 f4 bd 3c c4 64 e8 3d
       0.067829855 0.0066777 0.023188038 0.113473445
0000f0 a9 4d f8 bd 0f 8c e5 bd 31 ec fe 3c b5 49 ad bd
       -0.121241875 -0.11208355 0.031118484 -0.08461324
