pre_trained_models/meld_senti_aligned_L_GENERATOR_A.pt (torch, 356025 bytes, 35 tensors)

multi f4 [1, 32]
-0.39413568 -0.06413556 -0.26337686 0.4028492 -0.099034876 0.2724489 0.060528014 0.10851202
-0.04252011 0.28487712 -0.088622384 0.18149775 0.06739865 0.42305803 -0.22765315 -0.41873175
-0.07481553 -0.0094381645 -0.17008847 0.2247276 0.42022625 0.26464388 -0.056185067 0.38988596
0.2432798 -0.4084707 -0.20164958 0.3405618 0.29620188 0.3106964 0.23062235 -0.059052903
00000000: 27cc c9be 8159 83bd 55d9 86be 4042 ce3e
00000010: ccd2 cabd 6c7e 8b3e 39ec 773d 8d3b de3d
00000020: 9129 2ebd 6adb 913e a77f b5bd 8cda 393e
00000030: 4e08 8a3d 109b d83e e81d 69be 0264 d6be
00000040: e238 99bd 88a2 1abc ac2b 2ebe fe1e 663e
00000050: e527 d73e 677f 873e 5022 66bd 229f c73e
00000060: 571e 793e 1223 d1be 3a7d 4ebe 1e5e ae3e
00000070: c6a7 973e 9913 9f3e 4428 6c3e 75e1 71bd

weight f4 [33, 32]
-1.1067005 0.16062786 -0.68585664 0.99554694 1.7550594 -0.26500368 -0.90307283 -2.0235386
-0.10196623 -0.3880645 1.6617996 -0.15313902 -1.762379 -1.3252628 0.70510125 1.3016604
-0.89114374 -0.02029214 -0.50143653 -0.074219234 -0.80100304 -0.059260104 -0.6190681 0.044083066
1.6948861 -1.662895 -1.7603288 -0.8564586 0.5774513 0.07235996 0.58131546 0.60572886
-0.56656903 1.3881726 0.69392985 -0.012218546 -1.2013026 0.5060663 0.05914657 0.31350377
-0.5398444 0.6564629 1.2246153 -0.7356798 1.0758542 -0.49712175 0.03442099 0.08918373
0.07523416 0.5800841 1.4742018 0.08230841 -1.5340183 0.96679693 0.10409903 0.27275744
0.20815659 1.8748254 2.244385 2.7961407 -1.2716737 -0.15125212 0.7342345 -0.5108562
-0.048363842 0.8187241 0.50761265 1.2349312 -0.8268899 -0.2952014 0.049576756 -2.5014656
-0.3556965 1.6749841 -1.6215044 0.39111805 0.5441211 -0.6680278 -0.2693777 -0.39591098
-0.9864539 -1.1139805 0.016282072 -0.025584478 -0.43665272 0.21369644 -2.012908 1.3508036
-0.02401276 -0.40591797 0.8593725 -0.8629677 -1.0920202 0.2306781 -0.4549657 -0.8322756
-0.8524592 -2.0432825 0.5496564 0.5761997 -0.5323699 1.128489 1.1337358 0.82630765
-0.31493896 -1.9081583 -0.24026644 -0.44371092 -0.74651116 0.17544918 -1.3805951 -0.47381237
-0.4223906 0.74838763 -1.2012699 -0.3955958 0.20924158 0.2937624 0.31405288 -0.39201036
-1.2819192 -1.1649464 0.28474456 -0.17408536 -0.8931314 1.3106207 -0.78696173 -1.1685989
-0.22443 -0.5186119 0.89685863 -1.5216519 1.4101762 -1.7105509 -0.36252618 -0.05668205
-1.656193 -0.41722497 -1.3293484 -0.6221512 -1.029207 1.0728232 -3.0581386 0.45948133
-1.5394658 -1.7544308 -0.77342296 0.4974021 1.1121559 0.03141802 -1.1909102 0.30186522
-0.05480517 -0.9386996 -0.76567364 -0.13299808 1.34125 -1.290248 2.2697158 0.6282175
0.628985 -1.580177 -0.47207674 0.5938474 -0.934848 -1.4091784 1.0843561 0.7404671
1.5202894 -0.3263988 -0.94906247 0.33215928 1.6677792 0.18549399 -0.87952733 -0.67673564
-2.2153428 0.09769783 -1.0435923 -0.0376482 1.7664298 0.1587824 -0.21994562 0.21403189
1.0986474 -0.9827155 1.2021149 0.44377145 -0.94342613 -2.1226206 0.65583754 -0.03928872
1.1646494 -0.8743051 -0.13481274 -1.2823515 0.3269481 1.6265179 0.6522518 -0.52086544
-0.97058153 -0.44319695 -1.8724875 -1.4092927 0.8821139 -0.8902283 -0.08910026 1.5584912
0.79391325 0.23487546 0.6708035 -0.012642577 -2.4166503 -0.581746 -0.23136674 -0.37579948
-2.5490568 -0.039079472 0.5818818 -0.0778094 -0.4534451 -0.44538337 -1.0900874 -0.36254218
-0.00921248 0.49531952 -0.59010637 -1.5400265 -0.15516865 -0.43937314 -0.7653666 0.041191127
-0.353343 0.845736 1.5610905 -0.52899534 0.4228119 0.41897774 -1.5414876 0.9251599
-0.436089 1.2846978 0.37978864 -0.3707509 0.38562858 1.3419473 0.7134593 0.8528118
-0.524024 1.6332744 -1.8373013 0.06943734 -1.2621605 -0.5931534 0.18246204 -0.53695357
00000000: 5da8 8dbf a17b 243e 4d94 2fbf 2adc 7e3f
00000010: c9a5 e03f 90ae 87be c82f 67bf a881 01c0
00000020: acd3 d0bd 64b0 c6be d9b5 d43f 7ad0 1cbe
00000030: a395 e1bf 36a2 a9bf 8481 343f cf9c a63f
00000040: ff21 64bf b43b a6bc 255e 00bf 4100 98bd
00000050: 890e 4dbf b9ba 72bd 3f7b 1ebf 7290 343d
00000060: 07f2 d83f bed9 d4bf 7452 e1bf df40 5bbf
00000070: d9d3 133f 7531 943d 17d1 143f 0c11 1b3f
00000080: ab0a 11bf a4af b13f 63a5 313f 4c30 48bc
00000090: 49c4 99bf 908d 013f ac43 723d 9183 a03e
000000a0: 3e33 0abf f40d 283f 32c0 9c3f 8355 3cbf
000000b0: 97b5 893f be86 febe 06fd 0c3d f6a5 b63d
000000c0: 5e14 9a3d 6480 143f a5b2 bc3f 5091 a83d
000000d0: b65a c4bf 0180 773f df31 d53d dda6 8b3e
000000e0: 0027 553e 47fa ef3f 01a4 0f40 f8f3 3240
000000f0: 34c6 a2bf d6e1 1abe cbf6 3b3f 79c7 02bf
00000100: 2a19 46bd e797 513f e7f2 013f 3a12 9e3f
00000110: 0eaf 53bf a324 97be ff10 4b3d 0318 20c0
00000120: da1d b6be e165 d63f 758d cfbf a040 c83e
00000130: 854b 0b3f df03 2bbf e0eb 89be d8b4 cabe
00000140: 3e88 7cbf ea96 8ebf fb61 853c 8a96 d1bc
00000150: f290 dfbe 3dd3 5a3e 7cd3 00c0 22e7 ac3f
00000160: 68b6 c4bc 7bd4 cfbe d6ff 5b3f 74eb 5cbf
00000170: 51c7 8bbf e136 6c3e 44f1 e8be 0410 55bf
00000180: c43a 5abf 24c5 02c0 48b6 0c3f d381 133f
00000190: 6549 08bf 5472 903f 411e 913f e688 533f
000001a0: ae3f a1be 883e f4bf 6808 76be 142e e3be
000001b0: 5b1b 3fbf f3a8 333e 57b7 b0bf 8997 f2be
000001c0: 9543 d8be 5596 3f3f 36c3 99bf 888b cabe
000001d0: 6d43 563e 0668 963e 8acb a03e 95b5 c8be
000001e0: ee15 a4bf f71c 95bf 0aca 913e 6f43 32be
000001f0: 42a4 64bf 6bc2 a73f 5376 49bf a694 95bf
00000200: fad0 65be c0c3 04bf 8798 653f 7dc5 c2bf
00000210: a780 b43f 55f3 dabf 089d b9be 702b 68bd
00000220: 22fe d3bf 839e d5be 1728 aabf 4d45 1fbf
00000230: 0ebd 83bf 4552 893f 8bb8 43c0 2341 eb3e
00000240: 370d c5bf 3091 e0bf 0cff 45bf 7dab fe3e
00000250: 205b 8e3f 2fb0 003d bf6f 98bf 148e 9a3e
00000260: 637b 60bd 9e4e 70bf 3003 44bf a630 08be
00000270: 14ae ab3f d926 a5bf 0643 1140 ddd2 203f
00000280: 2905 213f 3d43 cabf 0bb4 f1be 6206 183f
00000290: 3352 6fbf f55f b4bf 2ecc 8a3f 408f 3d3f
000002a0: d898 c23f be1d a7be c2f5 72bf c810 aa3e
000002b0: ca79 d53f 23f2 3d3e b428 61bf 8c3e 2dbf
000002c0: 2dc8 0dc0 cd15 c83d 6f94 85bf 0035 1abd
000002d0: 5f1a e23f da97 223e 6d39 61be 2d2b 5b3e
000002e0: 7aa0 8c3f 3e93 7bbf e7de 993f 0336 e33e
000002f0: 6084 71bf 04d9 07c0 f8e4 273f 35ed 20bd
00000300: 3b13 953f 76d2 5fbf 5a0c 0abe 1824 a4bf
00000310: be65 a73e bd31 d03f f9f9 263f 7057 05bf
00000320: 0878 78bf b6ea e2be acad efbf b463 b4bf
00000330: 37d2 613f 00e6 63bf 327a b6bd a47c c73f
00000340: e63d 4b3f 3183 703e c7b9 2b3f d022 4fbc
00000350: 66aa 1ac0 4eed 14bf 67eb 6cbe ca68 c0be
00000360: bf23 23c0 cc11 20bd 35f6 143f 895a 9fbd
00000370: f529 e8be 4a09 e4be fc87 8bbf 219f b9be
00000380: f1ef 16bc 859a fd3e 3611 17bf 971f c5bf
00000390: 88e4 1ebe 84f5 e0be 11ef 43bf 07b8 283d
000003a0: 60e9 b4be 2882 583f d0d1 c73f 3d6c 07bf
000003b0: cd7a d83e 4084 d63e 774f c5bf 47d7 6c3f
000003c0: 0f47 dfbe fa70 a43f a873 c23e 10d3 bdbe
000003d0: 1c71 c53e eec4 ab3f 45a5 363f e051 5a3f
000003e0: 7026 06bf 230f d13f b02c ebbf 2a35 8e3d
000003f0: 7a8e a1bf e7d8 17bf 54d7 3a3e ca75 09bf

weight f4 [4, 32]
0.8958338 1.1934396 0.2925235 -1.4409769 1.405168 -0.6315295 -0.04193154 -1.1660213
-0.98494804 0.86582094 -2.0187922 0.08621687 -1.1081821 -0.60373545 0.33753297 1.1459779
0.05511113 -1.0486133 0.1872943 0.25452268 0.40618023 0.12351876 0.63004154 0.638536
1.5260813 0.29458803 -0.07658708 -1.9905654 0.038797878 0.36138758 0.8134427 0.8020782
-0.32603213 0.5419635 0.43698165 0.89358044 0.011032585 0.19395812 0.18976088 1.1678269
1.3527445 -0.4384825 -1.5579506 -1.0826311 -0.47864112 0.5592157 -1.0210794 -0.57415587
-0.93933266 -0.13502423 -0.66110057 -0.90097183 -0.9983804 0.420599 0.07511516 -0.42114606
0.077473685 0.13300791 0.7051456 0.072786145 -0.364718 -0.48986217 0.46996507 -1.5125647
-1.0687089 0.57568574 1.4345417 0.9355073 -0.9044765 -0.2558048 0.036006846 1.1745809
-1.4304576 0.9232792 -0.034532793 0.42568603 -0.34440345 -1.0497936 0.24266028 -0.310089
-1.7702296 -0.48721343 0.9036046 -0.69331497 0.8196344 -0.06544218 0.35715893 1.2621742
0.45479485 0.724829 1.4187257 1.4680299 -0.90912795 0.5602814 -1.5281658 0.6483272
1.2109679 0.8512244 -0.012615687 1.170732 -0.9874506 -0.42263922 0.41949272 2.4228795
0.91913563 1.3332669 0.3846923 -0.25556114 1.185602 0.17619734 -0.09199437 -1.8140439
0.14584902 -0.77570325 -2.0195792 1.5425208 1.2009562 -0.38525197 -1.7599992 -0.26628503
0.2037564 0.48592737 -0.3783769 -1.4494044 -0.7958362 0.9334336 -1.475815 -0.24510829
00000000: 5d55 653f a1c2 983f a4c5 953e ee71 b8bf
00000010: 8cdc b33f ebab 21bf 68c0 2bbd 3040 95bf
00000020: 8e25 7cbf 71a6 5d3f e433 01c0 7892 b03d
00000030: e9d8 8dbf 688e 1abf 1fd1 ac3e 67af 923f
00000040: 35bc 613d f638 86bf 14ca 3f3e cc50 823e
00000050: dbf6 cf3e 67f7 fc3d 674a 213f 1877 233f
00000060: a256 c33f 3ed4 963e b0d9 9cbd d9ca febf
00000070: 86ea 1e3d cb07 b93e c83d 503f ff54 4d3f
00000080: afed a6be 1fbe 0a3f 0fbc df3e b0c1 643f
00000090: 04c2 343c f59c 463e ad50 423e 5a7b 953f
000000a0: bb26 ad3f c780 e0be ed6a c7bf a893 8abf
000000b0: 7310 f5be c328 0f3f bbb2 82bf e1fb 12bf
000000c0: 1b78 70bf cb43 0abe e33d 29bf 17a6 66bf
000000d0: dc95 7fbf c158 d73e fad5 993d 75a0 d7be
000000e0: 86aa 9e3d 3a33 083e 6c84 343f e710 953d
000000f0: 51bc babe 37cf fabe 439f f03e b89b c1bf
00000100: 74cb 88bf 2460 133f 109f b73f 687d 6f3f
00000110: c68b 67bf d9f8 82be ea7b 133d ab58 963f
00000120: 3c19 b7bf 075c 6c3f 4272 0dbd 85f3 d93e
00000130: a655 b0be a35f 86bf f07b 783e fcc3 9ebe
00000140: e296 e2bf 0a74 f9be a252 673f 177d 31bf
00000150: 8fd3 513f 8d06 86bd 89dd b63e ed8e a13f
00000160: dfda e83e 658e 393f ce98 b53f 67e8 bb3f
00000170: 9cbc 68bf 9a6e 0f3f f09a c3bf c5f8 253f
00000180: ff00 9b3f d8e9 593f 07b2 4ebc 8cda 953f
00000190: 90c9 7cbf 2b64 d8be c0c7 d63e 7510 1b40
000001a0: 794c 6b3f 7da8 aa3f 64f6 c43e e9d8 82be
000001b0: cec1 973f 136d 343e 8b67 bcbd 9732 e8bf
000001c0: 7259 153e 7d94 46bf c940 01c0 5271 c53f
000001d0: efb8 993f bf3f c5be a747 e1bf 8356 88be
000001e0: 85a5 503e 79cb f83e 9eba c1be 1586 b9bf
000001f0: ecbb 4bbf 81f5 6e3f 82e7 bcbf abfd 7abe

in_proj_weight f4 [96, 32]
0.2098005 -0.116490126 0.21370089 -0.16277559 -0.17281961 -0.028107384 -0.18856844 0.1827407
0.16096868 0.13764167 -0.18403108 -0.1727455 0.11305249 0.20908028 0.15914148 0.17901653
-0.19772863 -0.11258515 -0.16887248 0.014947523 -0.024821294 -0.17284742 0.07448315 -0.15706398
-0.15358521 0.18437573 -0.1143116 0.16559671 -0.02966044 0.17779233 -0.15969853 -0.12798253
0.041223828 -0.013291367 0.19335335 -0.06910897 -0.063358404 -0.1331342 0.19047625 -0.0010407807
0.020572977 -0.0890727 -0.19931588 0.20340976 0.1928761 0.081246994 -0.075583614 0.14307304
-0.026951656 -0.1541673 0.058654465 -0.04481214 -0.1456897 0.15052451 -0.21671699 -0.118146576
-0.13618231 0.14773542 0.117846 0.14771107 -0.051277947 -0.12922691 0.18201391 -0.031262778
0.013819881 0.15692222 0.13292857 -0.07124124 0.14671987 0.124886096 -0.07392433 -0.16543436
-0.022368485 0.19618846 0.024802098 0.06369796 0.09292349 0.13588059 0.029577307 0.11372647
0.06956637 0.10884447 0.16223106 -0.032886423 0.04437571 -0.02075281 0.21560921 -0.18841694
0.17539056 -0.00935868 -0.051802933 0.11107787 0.0054612495 -0.14704853 0.03787967 -0.19021367
-0.14269151 -0.055053692 0.048648804 -0.060998976 0.15769747 -0.021861143 -0.09135384 0.17844842
0.062041264 -0.1589012 -0.21399888 0.17302078 -0.06647984 0.030559791 0.03177645 0.03393606
0.013621818 0.1866674 0.1478756 0.15778463 -0.013991861 0.06430334 0.011667408 -0.18387568
0.113588646 -0.1238036 -0.15831633 -0.04096245 -0.040606096 0.21382263 0.12201197 -0.061939552
0.18502766 -0.054523427 0.06303771 -0.06160603 0.038095344 -0.07610374 0.018182926 -0.1913418
0.022756724 -0.19722651 0.051104993 0.1501646 0.19251218 0.007075893 -0.19916207 0.18948865
-0.15701222 0.011041777 0.20808372 0.0009526217 0.16538097 0.04404807 0.18007436 0.08650793
-0.16772597 -0.21324728 -0.13833828 0.027301537 0.10051459 0.14842226 0.040763497 -0.07228427
-0.19612025 -0.13981302 0.1690946 -0.029516865 -0.2102174 0.12808451 0.15565889 0.084612384
-0.007994308 0.16667543 -0.18676597 -0.07869727 0.014914718 -0.15139163 0.010020301 0.2095265
-0.051780213 0.09408067 0.14501826 0.14510043 -0.20961614 -0.07735574 0.20581892 -0.003988191
0.15018259 -0.07543105 -0.12575935 0.010460457 -0.048410874 0.16017936 0.046554126 0.026479222
-0.16927 0.12242798 0.12726212 0.21422687 -0.08715371 -0.053023435 0.035819903 -0.083956026
-0.025593111 -0.06206978 -0.11157084 -0.15772897 -0.20211014 -0.007218899 0.16805023 -0.18742742
0.16518548 -0.21588428 0.21019652 -0.022527711 0.13863058 -0.07910943 -0.15130629 -0.10566444
-0.06250323 -0.10612359 0.11182445 0.18754655 -0.18627419 -0.12744628 0.1719432 0.15391971
-0.17961895 0.05859337 0.0021743844 0.16720846 0.17854694 0.19429828 0.02222117 0.21125175
0.1887713 -0.21510561 -0.13350058 -0.0662933 -0.18491039 0.033292677 -0.08918025 0.16581815
0.0905897 -0.035959497 -0.120742366 -0.13614067 -0.013339477 -0.014160079 -0.07489036 -0.07807036
-0.17555818 0.053295217 -0.18949513 0.02068362 0.118096255 0.11788692 0.029577376 -0.10006037
00000000: f1d5 563e 6092 eebd 68d4 5a3e a5ae 26be
00000010: a0f7 30be 7541 e6bc 1618 41be 6120 3b3e
00000020: f9d4 243e f0f1 0c3e a572 3cbe 32e4 30be
00000030: 1088 e73d 2419 563e fcf5 223e 1c50 373e
00000040: 6079 4abe 0b93 e6bd e8ec 2cbe 75e6 743c
00000050: 0756 cbbc eafe 30be 9f8a 983d 61d5 20be
00000060: 7145 1dbe fecc 3c3e 331c eabd 2f92 293e
00000070: 73fa f2bc 310f 363e 0388 23be da0d 03be
00000080: 51da 283d 09c4 59bc 6cfe 453e 0189 8dbd
00000090: 0dc2 81bd 5554 08be 350c 433e ce6a 88ba
000000a0: a988 a83c bf6b b6bd 7619 4cbe a64a 503e
000000b0: 5081 453e d364 a63d 95cb 9abd bd81 123e
000000c0: b8c9 dcbc 08de 1dbe aa3f 703d ef8c 37bd
000000d0: ae2f 15be 1923 1a3e 0feb 5dbe d5f6 f1bd
000000e0: 6073 0bbe f447 173e 3e59 f13d 9241 173e
000000f0: d308 52bd 0f54 04be db61 3a3e 660d 00bd
00000100: c86c 623c 38b0 203e 6d1e 083e ede6 91bd
00000110: bc3d 163e 48c4 ff3d a465 97bd a067 29be
00000120: 1d3e b7bc a1e5 483e c52d cb3c 1374 823d
00000130: ac4e be3d 4824 0b3e 1c4c f23c 6ce9 e83d
00000140: d078 8e3d d9e9 de3d e61f 263e eab3 06bd
00000150: 4ec3 353d cc01 aabc a9c8 5c3e 5ff0 40be
00000160: 9599 333e 2655 19bc 502f 54bd cb7c e33d
00000170: 48f4 b23b e493 16be b627 1b3d 5fc7 42be
00000180: b91d 12be fb7f 61bd f843 473d 10da 79bd
00000190: 727b 213e 2416 b3bc b917 bbbd 2fbb 363e
000001a0: fb1e 7e3d ffb6 22be 8622 5bbe 5c2c 313e
000001b0: 9526 88bd 8758 fa3c 0628 023d 8a00 0b3d
000001c0: 0c2e 5f3c bd25 3f3e b46c 173e 4b92 213e
000001d0: 1e3e 65bc 78b1 833d a828 3f3c e849 3cbe
000001e0: 2aa1 e83d be8c fdbd ad1d 22be 3ec8 27bd
000001f0: 9452 26bd 52f4 5a3e 69e1 f93d 54b4 7dbd
00000200: e477 3d3e f553 5fbd ea19 813d 9b56 7cbd
00000210: dd09 1c3d 47dc 9bbd 5cf4 943c 1bef 43be
00000220: 4f6c ba3c bff5 49be 7853 513d c0c4 193e
00000230: ea21 453e e5dc e73b 24f1 4bbe 5009 423e
00000240: d0c7 20be 92e8 343c e613 553e 5cb9 793a
00000250: a159 293e c06b 343d 6a65 383e 122b b13d
00000260: 5bc0 2bbe 7f5d 5abe 8da8 0dbe 79a7 df3c
00000270: 98da cd3d 01fc 173e a0f7 263d c609 94bd
00000280: bfd3 48be 252b 0fbe 2327 2d3e 5acd f1bc
00000290: 3b43 57be 9628 033e 0b65 1f3e 4249 ad3d
000002a0: 8ffa 02bc f7ac 2a3e 943f 3fbe 092c a1bd
000002b0: dd5c 743c 6806 1bbe 302c 243c 1d8e 563e
000002c0: 7d17 54bd 5ead c03d ab7f 143e 3595 143e
000002d0: 9da5 56be b06c 9ebd 32c2 523e 5faf 82bb
000002e0: 77c9 193e 987b 9abd 0fc7 00be 5662 2b3c
000002f0: 7b4a 46bd 0f06 243e 8aaf 3e3d f4ea d83c
00000300: 1d55 2dbe 85bb fa3d 0051 023e 4a5e 5b3e
00000310: a57d b2bd 1a2f 59bd e4b7 123d 23f1 abbd
00000320: a5a8 d1bc e23c 7ebd 417f e4bd b483 21be
00000330: f6f5 4ebe 848c ecbb 5c15 2c3e f9ec 3fbe
00000340: 6226 293e c510 5dbe c23d 573e 098c b8bc
00000350: 2df5 0d3e 2004 a2bd 09f0 1abe 9966 d8bd
00000360: b201 80bd 5357 d9bd 3804 e53d 340c 403e
00000370: a9be 3ebe 4781 02be e111 303e 219d 1d3e
00000380: 08ee 37be 9aff 6f3d 1e80 0e3b b238 2b3e
00000390: 02d5 363e 21f6 463e 2c09 b63c 6152 583e
000003a0: 434d 413e a544 5cbe 60b4 08be c8c4 87bd
000003b0: 2659 3dbe e75d 083d 23a4 b6bd 3ccc 293e
000003c0: 1887 b93d 444a 13bd c647 f7bd 7668 0bbe
000003d0: d28d 5abc adff 67bc 1e60 99bd 5ae3 9fbd
000003e0: 86c5 33be 164c 5a3d 030b 42be b270 a93c
000003f0: 73dc f13d b36e f13d 414c f23c 74ec ccbd

in_proj_bias f4 [96]
0.0010439445 -0.0004587023 0.00047003405 -0.00043081588 0.0003659279 0.00038378796 -0.00032147722 0.00046723662
0.00059635175 -0.00055157667 -0.0008979351 0.0003986756 -0.00012011049 -0.0009551715 -0.00045505218 0.00096865953
0.00056291453 -0.0008359589 -0.0004724207 0.00060554093 -0.0007369426 0.00049359596 0.00079898216 -0.00063630694
5.8856458e-05 0.000102125145 -0.00080091174 0.00096948474 -7.414421e-05 0.0002950322 1.2736523e-05 -0.00013203516
-1.4027852e-06 -8.828849e-08 -5.3429073e-07 6.7254416e-07 1.014082e-07 3.4928476e-07 -1.6048067e-07 6.502559e-07
-6.43901e-07 -3.895514e-07 -7.823992e-08 4.2659224e-07 -6.679236e-07 -4.247252e-07 2.836979e-07 -9.0571994e-08
-3.3057765e-07 -1.3887265e-07 1.2455089e-06 -4.97984e-07 8.021485e-07 -5.852593e-07 1.8399027e-07 9.096815e-08
1.9165943e-06 2.6729353e-07 -2.1312506e-07 1.0160983e-06 -1.5864985e-07 -9.255452e-07 6.7221424e-07 -2.3990302e-07
-0.00030271016 0.00045291556 -0.00034986917 -0.00028935427 0.0002716619 -5.7957586e-05 -0.00065903855 -0.0005858137
0.00024214199 -0.00017303815 0.00022319512 0.00038574086 -0.000592109 0.0004073152 -0.0007946149 -0.00056615233
-0.0008871075 -0.00013017615 -8.401326e-05 0.00073807436 -0.00071249664 0.0004404254 1.0966988e-05 -0.00021030703
0.0002683909 -0.00022394459 0.0005490372 -0.00026177196 -0.00011441534 0.00010898114 9.243054e-05 0.00025702978
00000000: f7d4 883a fb7d f0b9 e76e f639 21df e1b9
00000010: 03da bf39 2637 c939 f18b a8b9 70f7 f439
00000020: 7d54 1c3a af97 10ba 6863 6bba 5505 d139
00000030: d4e3 fbb8 7964 7aba 1294 eeb9 a4ed 7d3a
00000040: 8e90 133a 4124 5bba 3caf f7b9 2abd 1e3a
00000050: 612f 41ba aa64 013a c972 513a d6cd 26ba
00000060: a4dc 7638 052c d638 47f4 51ba 0525 7e3a
00000070: df7d 9bb8 8dae 9a39 f3ae 5537 eb72 0ab9
00000080: 5547 bcb5 1c99 bdb3 2e6c 0fb5 e288 3435
00000090: bfc5 d933 5585 bb34 9750 2cb4 3f8d 2e35
000000a0: 8ad8 2cb5 8923 d1b4 da04 a8b3 6406 e534
000000b0: 5c4b 33b5 c905 e4b4 244f 9834 7b80 c2b3
000000c0: 3f7a b1b4 061d 15b4 5c2b a735 33ad 05b5
000000d0: 3a53 5735 b61a 1db5 dc8e 4534 455a c333
000000e0: d79e 0036 8b80 8f34 5fd7 64b4 df60 8835
000000f0: 5759 2ab4 fb72 78b5 3672 3435 05cc 80b4
00000100: 12b5 9eb9 4c75 ed39 a56e b7b9 79b4 97b9
00000110: d86d 8e39 7c17 73b8 54c3 2cba 4b91 19ba
00000120: 7fe7 7d39 9371 35b9 7c09 6a39 433d ca39
00000130: c337 1bba ec8c d539 b44d 50ba d769 14ba
00000140: c78c 68ba e57f 08b9 4730 b0b8 557b 413a
00000150: d7c6 3aba e6e8 e639 dbfe 3737 dd85 5cb9
00000160: d1b6 8c39 abd2 6ab9 43ed 0f3a 703e 89b9
00000170: 45f2 efb8 ce8c e438 45d7 c138 f4c1 8639

weight f4 [32, 32]
0.29470953 0.2824467 0.29707426 -0.24871369 0.013733032 -0.00112159 0.171429 0.028443549
0.20852938 0.19240315 0.19529118 -0.06113691 0.07433329 0.14862257 -0.14981242 0.28119424
0.039896343 0.21152826 -0.19454183 0.0210095 -0.0833726 0.10278521 -0.06069362 -0.038872574
0.27931884 -0.23196153 -0.04234168 -0.11979206 -0.24932997 0.27884609 -0.17875424 -0.041796323
0.1255134 -0.1776083 0.23368582 0.27379754 0.07957296 0.3044004 0.039487984 0.24731943
-0.23020524 -0.30134958 0.20767945 -0.009656261 0.22715144 -0.016091583 -0.27703634 0.07684271
0.2777275 -0.1637527 -0.16087236 -0.21245591 -0.06366471 -0.069072664 -0.049004905 0.30227613
0.031543516 0.10886318 0.11348526 0.060992636 0.13453092 -0.14016469 -0.026426325 -0.021070028
-0.07248464 0.13018557 -0.20179328 -0.22267574 0.07184508 0.2794036 -0.14623329 -0.30428416
0.110388696 0.18869509 0.053458665 -0.21060005 0.06959031 0.091862634 0.21163116 -0.04974767
0.15839167 0.22367644 0.031991858 0.016382663 0.25311452 0.27209502 -0.2869319 0.27275163
-0.079241864 0.087630026 0.22484757 -0.055949494 0.29887635 0.08419086 0.17572327 0.094825044
-0.1640707 -0.1382418 -0.18881339 -0.18729918 -0.22007757 0.1977886 -0.26043403 -0.24957429
0.2513118 0.14252384 0.20318119 0.27840227 0.06760624 -0.2664909 0.06282635 -0.022118514
0.057907213 -0.07427706 -0.027596591 -0.23820238 0.09496676 -0.29235312 0.063879274 0.26697055
-0.13650273 0.11936943 0.005457948 0.13169743 -0.2860785 -0.022472816 -0.08010865 0.058776915
0.06710651 0.043244112 -0.014574101 -0.22174835 -0.018250972 -0.25032443 -0.2701453 0.15267724
-0.2580195 0.07590753 0.17483443 0.22153623 0.078512274 0.28739223 0.0062287454 -0.12771656
-0.15048589 0.12792774 -0.09583342 -0.013959673 -0.1800109 0.029203363 -0.301054 -0.08933167
0.27922228 0.023260955 0.107441105 -0.21998015 0.24414025 0.047325533 -0.1356338 -0.1960749
0.12881055 -0.29692647 0.08905408 0.05861642 -0.26684323 0.12718745 -0.010756515 0.010086069
0.0607339 -0.23458242 -0.121816106 0.2946696 0.0050091706 -0.008863071 0.30402756 0.1952913
-0.037809152 0.26974127 -0.16609618 -0.12323964 0.23787542 0.252257 0.2527942 -0.27655524
0.1468513 0.0655362 0.18251629 -0.30443177 0.09190315 -0.25299874 -0.09504206 -0.22808474
-0.26660562 -0.11948697 -0.16300206 -0.2925883 -0.22249033 0.093552284 -0.14665067 0.15294498
0.25686118 0.067849 0.08779555 0.24692856 0.058964025 -0.22781505 0.21511182 -0.007974923
0.25352964 -0.13282114 0.2508572 -0.06928537 0.20573421 0.03845689 0.16691357 -0.04999318
0.105590865 0.22221293 -0.1389274 0.2325871 -0.29969046 -0.01812694 -0.12283642 -0.043054853
-0.18360677 -0.080268495 0.22057141 -0.17292127 -0.02707018 0.16208403 0.23304944 -0.10859762
-0.15416223 0.2115708 -0.2836256 -0.22776163 0.2899817 0.09197368 0.16755775 0.25539654
0.2530145 -0.17891948 -0.025470862 -0.22595386 0.22880566 -0.18051267 0.29697537 -0.18388934
0.1245513 -0.16799505 -0.12142876 -0.0153883165 -0.034861464 -0.2583213 -0.23392914 -0.036294676
00000000: 2be4 963e db9c 903e 1e1a 983e cdae 7ebe
00000010: 8300 613c 5102 93ba 158b 2f3e 7202 e93c
00000020: ba88 553e 5505 453e 69fa 473e b26a 7abd
00000030: 0d3c 983d 8430 183e 6d68 19be b1f8 8f3e
00000040: 596a 233d dd9a 583e f935 47be 1d1c ac3c
00000050: 41bf aabd 0d81 d23d e099 78bd d938 1fbd
00000060: e102 8f3e 5387 6dbe 786e 2dbd 8a55 f5bd
00000070: 5b50 7fbe eac4 8e3e 5a0b 37be 9f32 2bbd
00000080: 9686 003e f3de 35be 564b 6f3e 312f 8c3e
00000090: 26f7 a23d 5fda 9b3e 27be 213d 4e41 7d3e
000000a0: ecba 6bbe 7e4a 9abe eca9 543e 4b35 1ebc
000000b0: 639a 683e 7fd2 83bc b5d7 8dbe b65f 9d3d
000000c0: 4d32 8e3e caae 27be b9bb 24be 0b8e 59be
000000d0: a562 82bd f875 8dbd 5eb9 48bd f0c3 9a3e
000000e0: c633 013d a9f3 de3d f66a e83d 6ad3 793d
000000f0: 79c2 093e 5587 0fbe 057c d8bc 0d9b acbc
00000100: d472 94bd 5e4f 053e e6a2 4ebe 1c05 64be
00000110: 8323 933d fd0d 8f3e 2ebe 15be 22cb 9bbe
00000120: 7813 e23d 4939 413e 79f7 5a3d 8aa7 57be
00000130: 5d85 8e3d 7a22 bc3d d7b5 583e 36c4 4bbd
00000140: 6d31 223e 700b 653e e509 033d ef34 863c
00000150: 3a98 813e 0a50 8b3e bde8 92be 1aa6 8b3e
00000160: 8f49 a2bd 5f77 b33d 713e 663e 4c2b 65bd
00000170: 5206 993e 426c ac3d cdf0 333e a233 c23d
00000180: 2602 28be 428f 0dbe 4c58 41be 5bcb 3fbe
00000190: 045c 61be 1889 4a3e 9c57 85be 6790 7fbe
000001a0: f1ab 803e c5f1 113e bb0e 503e be8a 8e3e
000001b0: 2475 8a3d 7f71 88be 1aab 803d e331 b5bc
000001c0: 1d30 6d3d 921e 98bd 3f12 e2bc 53eb 73be
000001d0: ef7d c23d 4faf 95be 23d3 823d 5db0 883e
000001e0: 5fc7 0bbe f677 f43d 96d8 b23b b1db 063e
000001f0: e278 92be e918 b8bc 0110 a4bd 10c0 703d
00000200: 236f 893d bd20 313d 36c8 6ebc 0012 63be
00000210: 1083 95bc 862a 80be 7c50 8abe 6c57 1c3e
00000220: 221b 84be 6875 9b3d cc07 333e 65da 623e
00000230: 0bcb a03d 1325 933e 811a cc3b 21c8 02be
00000240: f918 1abe 7dff 023e 5044 c4bd 1db7 64bc
00000250: c754 38be e43b ef3c c023 9abe 86f3 b6bd
00000260: 39f6 8e3e c28d be3c 150a dc3d 7a42 61be
00000270: e7ff 793e 6bd8 413d 96e3 0abe dcc7 48be
00000280: eae6 033e bf06 98be fc61 b63d c517 703d
00000290: ad9f 88be 6d3d 023e 183c 30bc 0a40 253c
000002a0: 1cc4 783d 6036 70be b97a f9bd efde 963e
000002b0: f823 a43b 6a36 11bc 80a9 9b3e 71fa 473e
000002c0: c5dd 1abd 871b 8a3e 1e15 2abe 1065 fcbd
000002d0: 9d95 733e d427 813e 3e6e 813e a698 8dbe
000002e0: 3060 163e d837 863d 8de5 3a3e 7bde 9bbe
000002f0: b837 bc3d 0d89 81be 69a5 c2bd 0c8f 69be
00000300: 8880 88be 96b5 f4bd 03ea 26be 22ce 95be
00000310: 81d4 63be 5798 bf3d 982b 16be 9c9d 1c3e
00000320: 4f83 833e 6bf4 8a3d 27ce b33d d7da 7c3e
00000330: 4384 713d 5948 69be 4646 5c3e 40a9 02bc
00000340: a3ce 813e 4402 08be 5b70 803e 7de5 8dbd
00000350: fdab 523e f984 1d3d 64eb 2a3e a6c5 4cbd
00000360: 0640 d83d c98b 633e fc42 0ebe 502b 6e3e
00000370: 0771 99be f37e 94bc a991 fbbd 495a 30bd
00000380: 6a03 3cbe cf63 a4bd 79dd 613e 4612 31be
00000390: 48c2 ddbc 5bf9 253e 83a4 6e3e 6e68 debd
000003a0: b4dc 1dbe 04a6 583e 6037 91be 583a 69be
000003b0: 7b78 943e b25c bc3d 4294 2b3e 56c3 823e
000003c0: 1e8b 813e ab36 37be 45a8 d0bc 7360 67be
000003d0: 084c 6a3e 50d8 38be 280d 983e 7d4d 3cbe
000003e0: c114 ff3d e506 2cbe a4af f8bd 471f 7cbc
000003f0: e5ca 0ebd b042 84be 1f8b 6fbe baa9 14bd

bias f4 [32]
0.00026126188 -0.0009521011 0.00012663152 5.1796e-05 0.00034976366 -0.0006324449 -0.00016488259 -0.0007814609
-0.00026769677 -0.00042545842 0.00022995223 0.00012150829 -0.00091631943 0.00026274825 0.00041144883 -0.00053802715
-4.6526955e-05 -6.5151744e-06 0.0004301264 0.00091617275 -0.00034358425 -0.00015409286 0.0005123661 0.00048555655
-0.000933306 0.0007374653 -6.9550833e-06 -0.00143177 6.747669e-05 0.0005079954 -0.0003608099 -0.00013254296
00000000: faf9 8839 6c96 79ba 64c8 0439 883f 5938
00000010: 7c60 b739 a9ca 25ba 55e4 2cb9 f4da 4cba
00000020: a759 8cb9 1010 dfb9 551f 7139 44d2 fe38
00000030: 2835 70ba 79c1 8939 bab7 d739 640a 0dba
00000040: f025 43b8 ec9c dab6 9782 e139 502b 703a
00000050: 1923 b4b9 fd93 21b9 4f50 063a 4c92 fe39
00000060: 1ba9 74ba 7552 413a b65f e9b6 3baa bbba
00000070: 4682 8d38 ff2a 053a 162b bdb9 3bfb 0ab9

in_proj_weight f4 [96, 32]
-0.15447746 0.08385076 0.15008281 0.066296235 -0.0055751055 0.0949292 0.1952592 -0.014329493
-0.11574584 0.17698152 -0.17236096 -0.2014071 -0.17796631 -0.023522168 0.06897502 -0.1315739
0.13636653 -0.07530555 0.17767532 0.19335328 0.073317304 -0.024990395 0.039241776 0.02226831
0.1070012 -0.19969508 0.20084779 -0.0140711665 0.103159204 0.16984056 0.17928602 -0.17270714
0.14760987 0.012860656 -0.111688115 0.08818875 -0.19755395 0.015261173 -0.117551945 -0.015622124
0.21310891 0.18418525 -0.002001822 -0.1965538 0.007552013 -0.16920567 0.13506566 -0.10981594
0.06881 0.20957316 0.120309815 0.17459334 -0.01464203 -0.07438083 -0.049859747 -0.01444456
-0.12299999 0.13508238 0.084959045 -0.20621577 -0.14180969 0.17580448 -0.10885172 0.062699184
-0.16110212 -0.1866081 0.1817889 -0.013902739 0.19121619 -0.09541263 -0.18402095 -0.18974161
-0.08432084 0.09826161 0.015060499 -0.027347773 0.11489807 -0.17419672 -0.18484603 -0.074256524
0.187676 -0.16717592 -0.16928408 0.11471023 -0.09185313 0.11726569 0.14135884 -0.016688034
-0.056812078 0.2064953 0.10878654 0.10751195 -0.014521033 -0.13285421 -0.069990516 -0.0127875805
0.08826424 0.1826606 0.08365758 0.0912437 -0.1625303 0.06311174 0.009594008 0.1571274
-0.13318385 -0.037557304 0.19759233 0.028992563 0.013364017 0.017480299 -0.078396305 0.124692395
-0.058300152 0.057814196 0.09852852 -0.13550979 -0.100708574 -0.03317903 0.0036316067 0.15917943
-0.19727743 0.10710366 -0.049041614 -0.18053862 -0.21370521 0.18046044 0.14371397 0.08488892
0.09487237 -0.01116924 -0.1734754 0.10464539 0.0995131 -0.09963345 -0.14611575 -0.06738055
-0.08068487 0.10152735 0.15391575 -0.16941625 -0.12660143 -0.07228294 -0.04533884 0.1885735
0.0017134696 0.13342978 0.022039816 0.13624178 -0.00040015578 -0.037410066 -0.0908902 0.14378615
-0.0018934608 -0.055046827 0.13677256 0.2013881 0.13245846 -0.061401665 0.19621588 -0.1381037
0.11447604 0.15406959 0.08516632 -0.07036699 -0.07621795 0.09538992 -0.20596676 0.037130907
-0.1315291 0.14317359 0.12933226 -0.07427299 0.15992431 -0.044759363 0.16516785 0.0059257746
-0.013323054 -0.14517093 -0.027318135 0.013468698 -0.1231343 0.061440542 0.1221381 0.21124355
-0.03544219 -0.023247764 -0.095456146 -0.04858236 0.19642095 0.0043008775 -0.15297857 -0.17841886
0.15904416 -0.05608417 0.093308225 0.16800864 -0.1543749 0.18537502 -0.14572334 0.03622155
0.11826198 0.17520873 -0.19640332 0.21186848 -0.11046196 -0.14568427 0.023481086 -0.1304858
0.1972578 -0.06202215 0.16292842 0.056085303 0.071526155 -0.11257256 0.16284452 0.09263863
0.11671521 -0.13847005 -0.100098796 -0.04278098 0.2136795 0.19686626 -0.13689297 0.08860369
0.16840504 0.0650474 0.062248036 -0.19592774 0.036190614 -0.03540151 -0.16808115 -0.061599776
-0.026190445 0.092599764 0.093733 -0.1013407 -0.05081199 0.078046456 0.038184956 0.16057663
-0.18056193 -0.170654 0.10566382 -0.12536034 -0.11474988 -0.114098705 -0.108215414 0.11201428
0.11095138 0.21055715 0.006369412 -0.21417484 -0.07800901 -0.037632436 -0.10346635 0.060553208
00000000: 572f 1ebe f2b9 ab3d 4faf 193e 52c6 873d
00000010: 60af b6bb 3e6a c23d 07f2 473e 40c6 6abc
00000020: 280c edbd a53a 353e 647f 30be aa3d 4ebe
00000030: cd3c 36be 90b1 c0bc c642 8d3d 4fbb 06be
00000040: aba3 0b3e cc39 9abd 85f0 353e 67fe 453e
00000050: 6227 963d a8b8 ccbc fcbb 203d 086c b63c
00000060: 7223 db3d de7c 4cbe 0bab 4d3e c08a 66bc
00000070: 2245 d33d afea 2d3e c196 373e 24da 30be
00000080: 0b27 173e 80b5 523c bdbc e4bd 4e9c b43d
00000090: 954b 4abe 000a 7a3c 13bf f0bd f0f3 7fbc
000000a0: 3939 5a3e 0f9b 3c3e 0031 03bb 6645 49be
000000b0: e076 f73b 4044 2dbe a74e 0a3e 2ee7 e0bd
000000c0: 42ec 8c3d 599a 563e fe64 f63d 99c8 323e
000000d0: 20e5 6fbc fa54 98bd bc39 4cbd e0a8 6cbc
000000e0: 6be7 fbbd 0953 0a3e 02ff ad3d 3a2a 53be
000000f0: 8f36 11be 1706 343e a7ed debd 6e68 803d
00000100: f4f7 24be 3216 3fbe df26 3a3e 50c8 63bc
00000110: 2dce 433e b267 c3bd fd6f 3cbe a04b 42be
00000120: 68b0 acbd 623d c93d 50c0 763c 7008 e0bc
00000130: ae4f eb3d a060 32be 4748 3dbe ce13 98bd
00000140: 232e 403e 2a30 2bbe ce58 2dbe 32ed ea3d
00000150: 7e1d bcbd fe28 f03d 5fc0 103e 58b5 88bc
00000160: c8b3 68bd 8173 533e 7acb de3d 3a2f dc3d
00000170: a0e9 6dbc ef0a 08be 3057 8fbd 0083 51bc
00000180: e2c3 b43d 610b 3b3e aa54 ab3d fadd ba3d
00000190: 586e 26be ba40 813d 3030 1d3c 01e6 203e
000001a0: 5961 08be b0d5 19bd a555 4a3e d081 ed3c
000001b0: c0f4 5a3c d832 8f3c 3e8e a0bd ba5e ff3d
000001c0: 24cc 6ebd 94ce 6c3d 52c9 c93d 14c3 0abe
000001d0: 4c40 cebd bce6 07bd 4000 6e3b efff 223e
000001e0: 1803 4abe 2a59 db3d dcdf 48bd 1edf 38be
000001f0: 8ad5 5abe 9fca 383e c129 133e 3eda ad3d
00000200: 724c c23d 30ff 36bc 89a3 31be 5250 d63d
00000210: 86cd cb3d 9f0c ccbd 5e9f 15be d0fe 89bd
00000220: 1c3e a5bd 92ed cf3d 179c 1d3e 747b 2dbe
00000230: cea3 01be 1409 94bd 38b5 39bd 6919 413e
00000240: 8096 e03a d1a1 083e d88c b43c f782 0b3e
00000250: 00cc d1b9 4c3b 19bd a424 babd ad3c 133e
00000260: 002e f8ba c878 61bd 1b0e 0c3e af38 4e3e
00000270: 31a3 073e 5080 7bbd d1ec 483e 0e6b 0dbe
00000280: 6a72 ea3d 6bc4 1d3e ae6b ae3d 921c 90bd
00000290: 2818 9cbd ca5b c33d f3e8 52be 9416 183d
000002a0: 90af 06be 199c 123e ad6f 043e 701c 98bd
000002b0: 33c3 233e 9855 37bd c321 293e 002d c23b
000002c0: f048 5abc b0a7 14be 48ca dfbc d0ab 5c3c
000002d0: d62d fcbd 14a9 7b3d 8a23 fa3d 3b50 583e
000002e0: d42b 11bd 1872 bebc 837e c3bd 4cfe 46bd
000002f0: 9322 493e 60ee 8c3b 6aa6 1cbe 6fb3 36be
00000300: 79dc 223e 84b8 65bd 6218 bf3d 750a 2c3e
00000310: 7414 1ebe f3d2 3d3e 8038 15be 0c5d 143d
00000320: 5633 f23d eb69 333e f41d 49be 0df4 583e
00000330: e139 e2bd 422e 15be 685b c03c 129e 05be
00000340: f3fd 493e f00a 7ebd b5d6 263e b4b9 653d
00000350: 4e7c 923d 718c e6bd b7c0 263e 52b9 bd3d
00000360: 6208 ef3d 18cb 0dbe 9900 cdbd 1c3b 2fbd
00000370: cdce 5a3e 4f97 493e ac2d 0cbe da75 b53d
00000380: 5f72 2c3e 9237 853d ccf7 7e3d 48a1 48be
00000390: 9c3c 143d 2c01 11bd 771d 2cbe 0c50 7cbd
000003a0: 588d d6bc f2a4 bd3d 16f7 bf3d b78b cfbd
000003b0: 3c20 50bd d2d6 9f3d d467 1c3d 336e 243e
000003c0: 3ae5 38be ecbf 2ebe 4666 d83d 765e 00be
000003d0: fc01 ebbd 95ac e9bd 0ba0 ddbd be67 e53d
000003e0: 7a3a e33d 4b9c 573e 80b6 d03b a650 5bbe
000003f0: 30c3 9fbd 7824 1abd 2ae6 d3bd a406 783d

in_proj_bias f4 [96]
0.0 0.0 0.0 0.0 0.0 0.0 0.0 0.0
0.0 0.0 0.0 0.0 0.0 0.0 0.0 0.0
0.0 0.0 0.0 0.0 0.0 0.0 0.0 0.0
0.0 0.0 0.0 0.0 0.0 0.0 0.0 0.0
0.0 0.0 0.0 0.0 0.0 0.0 0.0 0.0
0.0 0.0 0.0 0.0 0.0 0.0 0.0 0.0
0.0 0.0 0.0 0.0 0.0 0.0 0.0 0.0
0.0 0.0 0.0 0.0 0.0 0.0 0.0 0.0
0.0 0.0 0.0 0.0 0.0 0.0 0.0 0.0
0.0 0.0 0.0 0.0 0.0 0.0 0.0 0.0
0.0 0.0 0.0 0.0 0.0 0.0 0.0 0.0
0.0 0.0 0.0 0.0 0.0 0.0 0.0 0.0
00000000: 0000 0000 0000 0000 0000 0000 0000 0000
00000010: 0000 0000 0000 0000 0000 0000 0000 0000
00000020: 0000 0000 0000 0000 0000 0000 0000 0000
00000030: 0000 0000 0000 0000 0000 0000 0000 0000
00000040: 0000 0000 0000 0000 0000 0000 0000 0000
00000050: 0000 0000 0000 0000 0000 0000 0000 0000
00000060: 0000 0000 0000 0000 0000 0000 0000 0000
00000070: 0000 0000 0000 0000 0000 0000 0000 0000
00000080: 0000 0000 0000 0000 0000 0000 0000 0000
00000090: 0000 0000 0000 0000 0000 0000 0000 0000
000000a0: 0000 0000 0000 0000 0000 0000 0000 0000
000000b0: 0000 0000 0000 0000 0000 0000 0000 0000
000000c0: 0000 0000 0000 0000 0000 0000 0000 0000
000000d0: 0000 0000 0000 0000 0000 0000 0000 0000
000000e0: 0000 0000 0000 0000 0000 0000 0000 0000
000000f0: 0000 0000 0000 0000 0000 0000 0000 0000
00000100: 0000 0000 0000 0000 0000 0000 0000 0000
00000110: 0000 0000 0000 0000 0000 0000 0000 0000
00000120: 0000 0000 0000 0000 0000 0000 0000 0000
00000130: 0000 0000 0000 0000 0000 0000 0000 0000
00000140: 0000 0000 0000 0000 0000 0000 0000 0000
00000150: 0000 0000 0000 0000 0000 0000 0000 0000
00000160: 0000 0000 0000 0000 0000 0000 0000 0000
00000170: 0000 0000 0000 0000 0000 0000 0000 0000

weight f4 [32, 32]
0.03913626 0.021387279 -0.25900477 0.20314327 -0.26525962 0.13645166 -0.107041895 -0.17085552
-0.055990487 -0.29712197 -0.14413348 0.015951484 -0.238552 -0.050539345 -0.027377248 -0.0010947585
-0.18064426 -0.10444841 0.077781945 -0.21997046 0.23234734 0.15350586 0.2146394 0.09886521
0.20702133 0.011521608 -0.20359021 0.18928623 0.106474906 -0.11654067 0.009630859 -0.11728087
-0.15942372 0.26560345 0.13179979 -0.06759326 -0.2662865 -0.20674953 0.13552326 -0.13267955
0.25508985 -0.008499652 0.19222629 0.2724069 0.29196277 -0.16841277 -0.06225273 0.058165252
-0.16144857 -0.10069829 -0.020024866 -0.2012291 0.23799762 0.28129837 -0.03575474 -0.15211064
-0.08671622 0.057847768 -0.11854924 0.13313258 -0.12283631 0.1971313 0.12695736 -0.13361615
0.20826092 -0.18199182 -0.034732014 -0.110067874 -0.20317087 0.079521805 0.05972773 -0.17176813
0.024085343 -0.2447784 -0.04589191 0.04235071 0.079508126 -0.02440679 0.026267678 0.03184125
0.29761633 0.086985886 0.053729415 -0.27592432 -0.10004775 -0.18254918 -0.16380984 0.292255
0.11593792 0.10623944 0.2769676 -0.29463077 -0.30049255 0.21307978 -0.18285581 0.053015202
-0.26684695 -0.2770156 -0.09461951 -0.19977042 0.17674637 -0.21647067 0.25449654 0.25472495
0.19700548 0.15204483 0.025689065 0.25852796 -0.13869187 -0.15425433 -0.118214935 0.22297487
0.095372885 -0.15071607 -0.23823565 -0.026210904 -0.2943552 -0.19798931 0.024077535 -0.22622508
-0.24217594 -0.20834342 0.18867132 0.087735355 0.1436432 0.019177526 0.22355202 -0.23699307
-0.19544362 -0.15148863 0.21572182 -0.21665072 0.2629228 -0.14156061 -0.104877025 0.04272765
0.28354505 0.20750657 0.0370467 -0.15383798 0.10518703 0.13536397 -0.2798179 -0.25524563
-0.20573187 -0.0921987 0.2928153 0.088911116 -0.07779756 0.13159585 0.0107186735 0.17367324
-0.14796804 0.28461447 -0.29261342 0.0444116 -0.29134026 0.29705217 -0.01126042 0.03642732
0.21539631 0.07539505 0.1920014 0.0060801804 -0.22170481 -0.17464307 0.012198716 0.11193478
-0.13319935 0.1999242 -0.13805637 0.083337754 -0.18864135 -0.24606752 0.18906888 -0.029908508
0.01911062 0.18595615 0.27911285 -0.30315506 0.16185975 -0.075302914 -0.29206964 0.09143323
-0.16860649 0.100351274 -0.12545265 -0.07067433 0.04009828 0.1947594 -0.29265213 0.16600412
-0.012617588 -0.19548932 -0.24321732 0.0023951232 0.15386993 -0.12038182 -0.22139362 -0.011234432
-0.22586516 -0.15720086 -0.18551049 0.05828944 -0.06361346 -0.15473676 -0.060318917 -0.2932835
-0.1436613 0.056187153 -0.048422962 -0.19428192 -0.023532629 -0.1383142 -0.2125575 -0.083427876
0.064260215 0.24529585 -0.22145003 -0.3055524 -0.24240538 -0.15392849 0.017190665 0.21037778
-0.15971531 0.023906052 -0.12988243 0.21758237 -0.28346246 0.119164824 -0.044168383 -0.29470462
0.11234859 0.2867737 0.051101357 0.20925525 -0.036836505 0.24357638 -0.16361949 0.055783063
-0.23663896 0.26459607 -0.18172804 0.2535403 0.058154166 0.098650694 -0.054122984 -0.22892451
0.22441646 0.1132175 -0.15623762 -0.27089292 -0.24402785 -0.26638314 0.058849365 -0.013692051
00000000: 584d 203d 6034 af3c 469c 84be ca04 503e
00000010: 1cd0 87be fcb9 0b3e c838 dbbd c0f4 2ebe
00000020: 4856 65bd 5f20 98be ba97 13be b0ac 823c
00000030: fa46 74be 5802 4fbd 4046 e0bc 007e 8fba
00000040: cffa 38be 0ce9 d5bd 244c 9f3d f03f 61be
00000050: 76ec 6d3e a430 1d3e 6eca 5b3e d879 ca3d
00000060: 66fd 533e 20c5 3c3c f479 50be 40d4 413e
00000070: 840f da3d e0ac eebd c0ca 1d3c f430 f0bd
00000080: f93f 23be 2dfd 873e 86f6 063e 566e 8abd
00000090: b456 88be 26b6 53be 9cc6 0a3e 26dd 07be
000000a0: 239b 823e 2042 0bbc f8d6 443e eb78 8b3e
000000b0: 257c 953e 6674 2cbe b8fc 7ebd b03e 6e3d
000000c0: c652 25be e83a cebd 300b a4bc 000f 4ebe
000000d0: a6b5 733e 5706 903e 9073 12bd e4c2 1bbe
000000e0: 4698 b1bd c8f1 6c3d f2c9 f2bd e853 083e
000000f0: 9a91 fbbd cadc 493e 1c01 023e acd2 08be
00000100: 5a42 553e 105c 3abe 2843 0ebd 446b e1bd
00000110: 060c 50be 54dc a23d 10a5 743d fce3 2fbe
00000120: a04e c53c 30a7 7abe 28f9 3bbd f077 2d3d
00000130: 28d5 a23d c0f0 c7bc 502f d73c f86b 023d
00000140: 2b61 983e a825 b23d 6013 5c3d f445 8dbe
00000150: d6e5 ccbd 2cee 3abe c4bd 27be 73a2 953e
00000160: dc70 ed3d 1094 d93d b3ce 8d3e d8d9 96be
00000170: 29da 99be 9631 5a3e 8e3e 3bbe 7826 593d
00000180: 2aa0 88be fdd4 8dbe e0c7 c1bd 9e90 4cbe
00000190: 00fd 343e 7daa 5dbe 5f4d 823e 4f6b 823e
000001a0: cebb 493e a4b1 1b3e e071 d23c c75d 843e
000001b0: 3e05 0ebe d9f4 1dbe ac1a f2bd 8653 643e
000001c0: dc52 c33d 5055 1abe 0cf4 73be 40b8 d6bc
000001d0: bab5 96be b6bd 4abe 403e c53c 8ca7 67be
000001e0: f8fc 77be fa57 55be 0e33 413e 98ae b33d
000001f0: 3417 133e 301a 9d3c d2ea 643e 50ae 72be
00000200: 5f22 48be d61f 1bbe 2ee6 5c3e b0d9 5dbe
00000210: d19d 863e 44f5 10be c4c9 d6bd 3003 2f3d
00000220: d12c 913e 9a7c 543e 48be 173d b487 1dbe
00000230: 4c6c d73d da9c 0a3e 4b44 8fbe 8eaf 82be
00000240: 60ab 52be acd2 bcbd e3eb 953e 0817 b63d
00000250: 5454 9fbd 10c1 063e 609d 2f3c 66d7 313e
00000260: ef84 17be fdb8 913e 6dd1 95be f0e8 353d
00000270: 8d2a 95be 3917 983e a07d 38bc d034 153d
00000280: da90 5c3e b868 9a3d 049c 443e 403c c73b
00000290: 9606 63be a2d5 32be 20dd 473c 103e e53d
000002a0: 6965 08be eeb8 4c3e a65e 0dbe fcac aa3d
000002b0: 332b 41be 20f9 7bbe 469b 413e b002 f5bc
000002c0: e08d 9c3c 4a6b 3e3e e1e7 8e3e 2437 9bbe
000002d0: 90be 253e 6a38 9abd 278a 95be 5841 bb3d
000002e0: 2ea7 2cbe f884 cd3d a976 00be b4bd 90bd
000002f0: 183e 243d 026f 473e 80d6 95be fcfc 293e
00000300: 00ba 4ebc 5a2e 48be f60d 79be 80f7 1c3b
00000310: 1490 1d3e be8a f6bd 02b5 62be a010 38bc
00000320: 3249 67be 43f9 20be 76f6 3dbe e8c0 6e3d
00000330: c647 82bd 5073 1ebe f810 77bd 4129 96be
00000340: f31b 13be 8024 663d 2857 46bd d7f1 46be
00000350: 80c7 c0bc 3da2 0dbe aca8 59be 3cdc aabd
00000360: dc9a 833d d62e 7b3e ccc3 62be 5d71 9cbe
00000370: 1e39 78be 6e9f 1dbe 70d3 8c3c 466d 573e
00000380: 698c 23be a0d6 c33c e6ff 04be eacd 5e3e
00000390: fe21 91be b00c f43d e8e9 34bd 86e3 96be
000003a0: 0417 e63d 01d4 923e a84f 513d 0247 563e
000003b0: e0e1 16bd 166c 793e de8b 27be c87c 643d
000003c0: 7c51 72be 2379 873e ea16 3abe 09d0 813e
000003d0: 1033 6e3d 6009 ca3d 10b0 5dbd 306b 6abe
000003e0: 6ecd 653e 94de e73d c1fc 1fbe 7ab2 8abe
000003f0: 70e2 79be 5f63 88be 080c 713d a054 60bc

bias f4 [32]
0.0 0.0 0.0 0.0 0.0 0.0 0.0 0.0
0.0 0.0 0.0 0.0 0.0 0.0 0.0 0.0
0.0 0.0 0.0 0.0 0.0 0.0 0.0 0.0
0.0 0.0 0.0 0.0 0.0 0.0 0.0 0.0
00000000: 0000 0000 0000 0000 0000 0000 0000 0000
00000010: 0000 0000 0000 0000 0000 0000 0000 0000
00000020: 0000 0000 0000 0000 0000 0000 0000 0000
00000030: 0000 0000 0000 0000 0000 0000 0000 0000
00000040: 0000 0000 0000 0000 0000 0000 0000 0000
00000050: 0000 0000 0000 0000 0000 0000 0000 0000
00000060: 0000 0000 0000 0000 0000 0000 0000 0000
00000070: 0000 0000 0000 0000 0000 0000 0000 0000

in_proj_weight f4 [96, 32]
0.21644367 -0.05335924 -0.048727944 0.097983465 -0.09848583 0.10475807 0.1410592 0.12842946
0.093860105 -0.15539771 0.010577425 0.19620432 -0.20338994 -0.07447952 -0.044863656 0.051852927
0.16892697 -0.11619756 0.038656726 -0.09099318 0.1723227 0.050375745 0.12568586 0.108968005
0.11374636 0.07391293 -0.110245876 -0.055205166 -0.18631855 -0.104236506 -0.21583553 0.04257287
0.15700988 -0.124437734 -0.0011164248 -0.17081152 0.022681758 -0.2048565 -0.060119808 0.024994135
0.17842029 -0.13280398 0.01427269 -0.1011038 0.06468828 0.08578782 0.15652682 0.07341801
-0.20268868 -0.1302173 0.090179846 -0.10867586 -0.099308535 -0.19170967 0.05984004 0.15625416
-0.02694872 -0.0737081 0.12441675 -0.10833437 -0.020803154 0.06929861 -0.14942616 0.1365415
0.20368724 0.18262024 0.0586413 0.21347417 0.05660592 0.062784865 -0.18470305 -0.17592852
-0.1646199 -0.0928277 -0.06901406 0.06921403 -0.13563792 0.016554281 0.089950934 0.030661479
-0.20253901 -0.18575713 0.1939211 0.09363313 0.037048385 -0.05122383 -0.12535265 0.12845083
-0.07547167 -0.12980977 -0.20252132 0.064607665 0.14587756 -0.0022943467 -0.120388344 -0.07301906
-0.089462176 0.21240197 -0.19455913 0.15934075 0.035641745 0.11797844 -0.060173795 -0.18330812
0.1350549 0.10686274 0.16671206 -0.0017040223 0.09447257 0.1412469 0.0943539 0.035875812
0.1771396 -0.076399595 0.13857631 0.17931475 0.15728639 -0.12326185 0.21138479 -0.10620836
-0.17218268 -0.15863386 -0.16332808 -0.05209501 -0.00025595725 -0.17245917 -0.18768832 0.18498306
-0.20638558 -0.03323336 -0.20073177 0.080470935 0.048109666 0.045138076 -0.07794833 0.0041894913
-0.0049836487 0.075091526 0.14672478 0.204596 -0.08867355 -0.086577654 -0.18718395 0.021451876
0.010649204 0.04800026 -0.16936205 0.17745022 0.18196176 0.023950398 -0.17420506 0.14109518
-0.017373756 0.12366508 -0.16858606 -0.032336622 -0.18741706 0.18407117 -0.16616851 -0.21000692
0.059833005 -0.08463861 -0.04389392 0.015553027 0.14388798 -0.15389974 0.026081577 -0.11265936
0.13753964 0.06337996 0.15292801 0.09087099 -0.024191663 0.1902978 0.09667997 0.113590136
0.10534547 0.11102761 -0.067253545 0.065396294 0.044049457 -0.063495204 0.16799878 -0.12671055
0.047426954 0.10027684 0.15815414 0.029792681 0.064845845 -0.07890235 -0.18642813 -0.04137118
-0.14189017 -0.13284928 0.1433085 -0.13644052 0.18357567 0.19445394 0.0054645836 -0.036987692
-0.013486743 -0.1105757 -0.17495224 0.14309715 -0.053744793 0.19657998 -0.12032945 -0.14094368
0.0031596124 0.0823745 -0.16921106 0.21207996 0.10269676 -0.1320944 -0.0040816218 -0.14824337
0.10814528 -0.007936731 0.100543275 0.017060667 0.016887307 -0.09812372 -0.14796127 0.05864589
-0.13877508 -0.075592294 -0.1805387 -0.0059200376 0.06367348 -0.18232903 -0.14333281 0.027137294
0.2005681 0.035204336 0.034781322 0.10001792 -0.041197598 -0.11025401 -0.18204193 -0.07663377
0.20894425 -0.16680124 -0.16383539 0.16576715 -0.0691334 0.10438861 -0.1629087 -0.14017442
0.07706757 0.11525299 -0.05319971 -0.19198878 -0.105364956 0.033235475 -0.20258358 0.089383885
00000000: 69a3 5d3e 388f 5abd f496 47bd 8eab c83d
00000010: f0b2 c9bd 668b d63d d371 103e 0383 033e
00000020: ba39 c03d 9420 1fbe f04c 2d3c c9e9 483e
00000030: 7445 50be b888 98bd f4c2 37bd bc63 543d
00000040: 31fb 2c3e fdf8 edbd 8456 1e3d a25a babd
00000050: 5d75 303e cc56 4e3d cbb3 003e 9e2a df3d
00000060: daf3 e83d aa5f 973d 97c8 e1bd d01e 62bd
00000070: 4aca 3ebe f379 d5bd fd03 5dbe e460 2e3d
00000080: 33c7 203e 36d9 febd 0055 92ba 37e9 2ebe
00000090: 18cf b93c e7c5 51be 3040 76bd 80c0 cc3c
000000a0: cfb3 363e c4fd 07be 00d8 693c 820f cfbd
000000b0: 4a7b 843d 86b1 af3d 9148 203e 2e5c 963d
000000c0: 9f8d 4fbe af57 05be 36b0 b83d 7391 debd
000000d0: 4662 cbbd 8a4f 44be d41a 753d 1701 203e
000000e0: 90c3 dcbc 46f4 96bd 36ce fe3d 69de ddbd
000000f0: 606b aabc 6eec 8d3d 2c03 19be 89d1 0b3e
00000100: 6393 503e cd00 3b3e dc31 703d f998 5a3e
00000110: 9cdb 673d 5a95 803d cc22 3dbe 9b26 34be
00000120: 1e92 28be 731c bebd 3e57 8dbd 16c0 8d3d
00000130: abe4 0abe d89c 873c 3238 b83d c82d fb3c
00000140: 6366 4fbe 1e37 3ebe 4193 463e bac2 bf3d
00000150: 0cc0 173d 14d0 51bd 725c 00be 9d88 033e
00000160: e490 9abd daec 04be c061 4fbe 0651 843d
00000170: ed60 153e c05c 16bb 2a8e f6bd 048b 95bd
00000180: f237 b7bd e77f 593e 823a 47be 392a 233e
00000190: 14fd 113d ae9e f13d cc78 76bd 20b5 3bbe
000001a0: d54b 0a3e dada da3d 91b6 2a3e 8059 dfba
000001b0: d67a c13d 07a3 103e 9e3c c13d 84f2 123d
000001c0: 1564 353e 6477 9cbd f3e6 0d3e 499e 373e
000001d0: af0f 213e b570 fcbd 4175 583e c583 d9bd
000001e0: a850 30be ea70 22be 7a3f 27be 9461 55bd
000001f0: 0032 86b9 2399 30be 5e31 40be 336c 3d3e
00000200: be56 53be b41f 08bd a18c 4dbe f2cd a43d
00000210: a40e 453d b4e2 383d 60a3 9fbd 0048 893b
00000220: e04d a3bb 96c9 993d 053f 163e 9d81 513e
00000230: 7a9a b5bd a04f b1bd 26ad 3fbe d8bb af3c
00000240: 007a 2e3c ec9b 443d 3f6d 2dbe 83b5 353e
00000250: 2f54 3a3e a033 c43c d062 32be 417b 103e
00000260: 6853 8ebc 1e44 fd3d d3a1 2cbe 6873 04bd
00000270: 42ea 3fbe 277d 3c3e 1428 2abe 0e0c 57be
00000280: 7413 753d 0257 adbd 1cca 33bd 20d2 7e3c
00000290: 5f57 133e e597 1dbe 08a9 d53c f3b9 e6bd
000002a0: 31d7 0c3e 5acd 813d 2999 1c3e 921a ba3d
000002b0: 982d c6bc 6ddd 423e 2600 c63d f2a1 e83d
000002c0: 5ebf d73d 7262 e33d 3abc 89bd 7eee 853d
000002d0: 346d 343d c609 82bd df07 2c3e 69c0 01be
000002e0: c442 423d f25d cd3d 29f3 213e c80f f43c
000002f0: e6cd 843d 8e97 a1bd 04e7 3ebe d474 29bd
00000300: a84b 11be a409 08be 77bf 123e 10b7 0bbe
00000310: 43fb 3b3e ef1e 473e 4010 b33b 6880 17bd
00000320: 80f7 5cbc 8375 e2bd ae26 33be 0f88 123e
00000330: 8023 5cbd 434c 493e 496f f6bd 8a53 10be
00000340: 8011 4f3b f6b3 a83d aa45 2dbe 7d2b 593e
00000350: ae52 d23d c143 07be 20bf 85bb 1ccd 17be
00000360: 467b dd3d 1009 02bc a2e9 cd3d d0c2 8b3c
00000370: 4057 8a3c 17f5 c8bd 2983 17be ac36 703d
00000380: 0e1b 0ebe 22d0 9abd 23df 38be e0fc c1bb
00000390: 3e67 823d 76b4 3abe d6c5 12be 084f de3c
000003a0: b961 4d3e 6c32 103d dc76 0e3d 32d6 cc3d
000003b0: d0be 28bd dbcc e1bd 3369 3abe 2af2 9cbd
000003c0: 7bf5 553e f2cd 2abe 77c4 27be ddbe 293e
000003d0: d095 8dbd b2c9 d53d 8ad1 26be e289 0fbe
000003e0: 9ad5 9d3d c209 ec3d f0e7 59bd b598 44be
000003f0: 95c9 d7bd ec21 083d 1272 4fbe e60e b73d

in_proj_bias f4 [96]
0.0 0.0 0.0 0.0 0.0 0.0 0.0 0.0
0.0 0.0 0.0 0.0 0.0 0.0 0.0 0.0
0.0 0.0 0.0 0.0 0.0 0.0 0.0 0.0
0.0 0.0 0.0 0.0 0.0 0.0 0.0 0.0
0.0 0.0 0.0 0.0 0.0 0.0 0.0 0.0
0.0 0.0 0.0 0.0 0.0 0.0 0.0 0.0
0.0 0.0 0.0 0.0 0.0 0.0 0.0 0.0
0.0 0.0 0.0 0.0 0.0 0.0 0.0 0.0
0.0 0.0 0.0 0.0 0.0 0.0 0.0 0.0
0.0 0.0 0.0 0.0 0.0 0.0 0.0 0.0
0.0 0.0 0.0 0.0 0.0 0.0 0.0 0.0
0.0 0.0 0.0 0.0 0.0 0.0 0.0 0.0
00000000: 0000 0000 0000 0000 0000 0000 0000 0000
00000010: 0000 0000 0000 0000 0000 0000 0000 0000
00000020: 0000 0000 0000 0000 0000 0000 0000 0000
00000030: 0000 0000 0000 0000 0000 0000 0000 0000
00000040: 0000 0000 0000 0000 0000 0000 0000 0000
00000050: 0000 0000 0000 0000 0000 0000 0000 0000
00000060: 0000 0000 0000 0000 0000 0000 0000 0000
00000070: 0000 0000 0000 0000 0000 0000 0000 0000
00000080: 0000 0000 0000 0000 0000 0000 0000 0000
00000090: 0000 0000 0000 0000 0000 0000 0000 0000
000000a0: 0000 0000 0000 0000 0000 0000 0000 0000
000000b0: 0000 0000 0000 0000 0000 0000 0000 0000
000000c0: 0000 0000 0000 0000 0000 0000 0000 0000
000000d0: 0000 0000 0000 0000 0000 0000 0000 0000
000000e0: 0000 0000 0000 0000 0000 0000 0000 0000
000000f0: 0000 0000 0000 0000 0000 0000 0000 0000
00000100: 0000 0000 0000 0000 0000 0000 0000 0000
00000110: 0000 0000 0000 0000 0000 0000 0000 0000
00000120: 0000 0000 0000 0000 0000 0000 0000 0000
00000130: 0000 0000 0000 0000 0000 0000 0000 0000
00000140: 0000 0000 0000 0000 0000 0000 0000 0000
00000150: 0000 0000 0000 0000 0000 0000 0000 0000
00000160: 0000 0000 0000 0000 0000 0000 0000 0000
00000170: 0000 0000 0000 0000 0000 0000 0000 0000
