pre_trained_models/meld_senti_aligned_LA_UniMF.pt (torch, 499553 bytes, 49 tensors)

cls f4 [33, 32]
-0.023943692 -0.25218457 0.18286881 -0.062480435 0.2763542 0.0596613 -0.010878712 0.27015173
0.008823007 0.18991718 -0.11408576 0.28899652 0.22767192 0.13282838 -0.0641287 -0.055279747
0.2064941 0.15157095 0.19012535 -0.11645134 -0.06950459 -0.3011771 -0.12017596 -0.20177369
-0.105140656 0.1507785 0.12506694 0.1434994 -0.060308963 -0.08483514 -0.07297309 -0.15884596
-0.14400163 0.116843075 0.078255534 -0.15956022 0.13811097 -0.16899873 -0.30239412 -0.27231336
0.07362431 -0.26114956 -0.20180604 0.15031332 -0.07059637 0.22879237 -0.25232401 -0.2772203
-0.28925112 0.21528089 0.2872827 0.29168594 0.22035456 -0.07248616 -0.15756282 -0.2099534
-0.18585587 -0.18098868 -0.2080862 -0.15472493 0.066969484 0.28881395 -0.16549718 0.19936544
-0.26602256 0.19686025 0.16042438 0.040997654 -0.068818 -0.16185795 -0.28149617 0.27918398
0.13887376 -0.19589907 0.1812684 -0.27417347 -0.056251198 0.11155766 0.1694524 0.015173733
-0.06973831 0.002812177 -0.11601411 -0.11508471 -0.00021922588 -0.27443492 0.23156667 0.13102138
0.0024732351 0.033873856 -0.1536718 0.14900568 0.1151301 -0.22451091 0.021443963 0.25036842
-0.098777995 0.29161662 -0.20341355 -0.16291183 -0.095409036 -0.012812614 0.1802893 -0.08194402
0.034130394 0.07270488 0.26387322 0.24026287 0.09212637 -0.28877708 0.21839666 0.25345266
0.059362948 0.071303636 0.01994583 -0.24967311 -0.09489079 0.057002455 -0.1200539 0.019777268
0.12120476 0.20715058 -0.022451848 0.040061325 0.17413887 -0.173203 0.18869737 0.12058714
0.15331084 -0.18302137 0.13610038 0.14662808 0.1717605 0.22468048 0.29850745 -0.24203327
0.13891119 0.065683275 0.20933038 0.037540555 0.24283707 -0.054231554 0.1404872 -0.14009067
0.11816579 0.21984136 -0.032339394 -0.22853461 0.17046121 0.039658308 0.28104562 -0.17299673
0.0034898221 0.047572583 0.07548979 0.27857834 -0.21885869 0.15424973 -0.10519534 -0.19528422
0.14711818 0.13843599 -0.042476624 -0.1786241 0.20604348 0.0824112 0.07399133 -0.0636507
-0.18985926 0.01979205 0.10742059 -0.25443256 -0.102570236 -0.012740165 0.23791486 0.23215252
0.27518725 -0.06925245 0.13233879 -0.24627373 0.22221899 0.24070138 -0.17502591 -0.28954256
-0.044563264 0.16153869 -0.08276494 -0.14359501 0.25632846 0.15913394 -0.12072836 0.2858349
0.1112684 -0.07199642 0.19964945 0.2050026 -0.08686255 0.19479299 -0.18576506 0.14641502
0.23669934 0.04551965 0.144992 0.080448 -0.1864202 0.25543475 0.29085195 -0.12069309
0.28661168 -0.2867559 -0.10587546 -0.30192444 0.2742257 -0.16052566 -0.022346854 -0.22623022
0.18115577 0.28757238 -0.23485063 0.13670403 0.01799199 0.06309804 0.1317957 0.074263334
-0.266997 -0.071964905 0.15273046 0.14241701 -0.24521698 -0.2014767 0.16566542 -0.091925144
0.14938486 -0.20316885 -0.11695556 0.031983256 -0.11782813 -0.073789045 0.107313365 -0.1561461
-0.17802083 0.2335267 0.19917554 -0.26196373 0.049469918 0.09675059 -0.15949018 -0.061729774
0.08475992 -0.21637563 0.17162615 -0.017944366 0.18053958 0.2636022 -0.27959862 0.24950773
00000000: 9025 c4bc 561e 81be f641 3b3e 7ceb 7fbd
00000010: 4c7e 8d3e 685f 743d a03c 32bc 5451 8a3e
00000020: 608e 103c a679 423e cca5 e9bd 5af7 933e
00000030: d422 693e 2a04 083e e855 83bd 046d 62bd
00000040: 3073 533e 6a35 1b3e 38b0 423e 0a7e eebd
00000050: 6c58 8ebd e333 9abe d01e f6bd c39d 4ebe
00000060: fc53 d7bd ae65 1a3e 8c11 003e 82f1 123e
00000070: 8806 77bd 0cbe adbd ea72 95bd 84a8 22be
00000080: 2a75 13be 6c4b ef3d 7044 a03d c163 23be
00000090: f66c 0d3e 010e 2dbe 67d3 9abe a86c 8bbe
000000a0: 58c8 963d 65b5 85be 3ea6 4ebe bceb 193e
000000b0: d494 90bd 8c48 6a3e 9d30 81be d2ef 8dbe
000000c0: b918 94be 9872 5c3e b816 933e dc57 953e
000000d0: a0a4 613e a073 94bd 2658 21be 06fe 56be
000000e0: 0051 3ebe 1955 39be 8c14 55be 3670 1ebe
000000f0: 4c27 893d 6cdf 933e 1878 29be 7426 4c3e
00000100: 1c34 88be bc95 493e 4a46 243e 28ed 273d
00000110: 74f0 8cbd 17be 25be 4420 90be 34f1 8e3e
00000120: ec34 0e3e c499 48be 6c9e 393e 7760 8cbe
00000130: a867 66bd 5878 e43d ee84 2d3e 409b 783c
00000140: f6d2 8ebd 804c 383b ce98 edbd 88b1 ebbd
00000150: 00e0 65b9 bc82 8cbe d01f 6d3e 782a 063e
00000160: 0016 223b 50bf 0a3d 245c 1dbe f294 183e
00000170: 54c9 eb3d 30e6 65be 40ab af3c 4a30 803e
00000180: 1e4c cabd c64e 953e a44b 50be 5cd2 26be
00000190: d065 c3bd 00ec 51bc c29d 383e 44d2 a7bd
000001a0: 50cc 0b3d 4ce6 943d 641a 873e 7807 763e
000001b0: c0ac bc3d 97da 93be 60a3 5f3e 8cc4 813e
000001c0: 9026 733d a407 923d 7065 a33c 4faa 7fbe
000001d0: 1a56 c2bd 687b 693d d2de f5bd f003 a23c
000001e0: 343a f83d 481f 543e f0ec b7bc 5817 243d
000001f0: 7651 323e 215c 31be e239 413e 64f6 f63d
00000200: 84fd 1c3e f469 3bbe e65d 0b3e ac25 163e
00000210: fce1 2f3e a412 663e f8d5 983e 92d7 77be
00000220: bc3e 0e3e f484 863d b45a 563e 20c4 193d
00000230: 48aa 783e e821 5ebd e0db 0f3e ee73 0fbe
00000240: e800 f23d 181e 613e 5076 04bd fa04 6abe
00000250: 628d 2e3e c070 223d 36e5 8f3e 0e26 31be
00000260: 80b5 643b 78db 423d 649a 9a3d d2a1 8e3e
00000270: 7e1c 60be a4f3 1d3e a870 d7bd 96f8 47be
00000280: 26a6 163e 2ac2 0d3e f8fb 2dbd 3ce9 36be
00000290: 10fd 523e 34c7 a83d c488 973d 4c5b 82bd
000002a0: 776a 42be f022 a23c 54ff db3d fc44 82be
000002b0: 5810 d2bd 20bc 50bc f49f 733e 64b9 6d3e
000002c0: 58e5 8c3e 3ad4 8dbd d283 073e 2e2f 7cbe
000002d0: 608d 633e 6c7a 763e fe39 33be ec3e 94be
000002e0: f887 36bd 666a 253e aa80 a9bd 920a 13be
000002f0: 7c3d 833e 02f4 223e 6e40 f7bd f458 923e
00000300: b0e0 e33d dc72 93bd e870 4c3e 34ec 513e
00000310: fee4 b1bd d077 473e 3239 3ebe d2ed 153e
00000320: 5061 723e d072 3a3d c878 143e ecc1 a43d
00000330: f0e4 3ebe 58c8 823e 8cea 943e f02d f7bd
00000340: c4be 923e abd1 92be 3cd5 d8bd d795 9abe
00000350: 5067 8c3e d760 24be c010 b7bc e5a8 67be
00000360: e680 393e b03c 933e af7c 70be 24fc 0b3e
00000370: f063 933c 8c39 813d 74f5 063e 6017 983d
00000380: d5b3 88be 5662 93bd 6065 1c3e c4d5 113e
00000390: 291a 7bbe e84f 4ebe 32a4 293e 4043 bcbd
000003a0: 58f8 183e 7f0b 50be 6686 efbd e000 033d
000003b0: e04f f1bd b61e 97bd 1cc7 db3d c3e4 1fbe
000003c0: 184b 36be a021 6f3e acf4 4b3e 1c20 86be
000003d0: f8a0 4a3d 2c25 c63d 6551 23be 5cd8 7cbd
000003e0: 9c96 ad3d 9391 5dbe c4be 2f3e 1000 93bc
000003f0: 5edf 383e def6 863e 8d27 8fbe f47e 7f3e

weight f4 [32, 600, 1]
0.0058091334 0.04246644 0.047595914 0.022575691 0.030038359 -0.01858432 -0.01597579 0.04124608
0.046603754 -0.029814351 0.03611223 -0.007476114 0.02203368 0.009514807 -0.008066819 0.003324119
0.041820135 0.0009920347 -0.041925997 0.031564683 -0.03401696 -0.03511691 0.007139758 0.028932758
-0.010603788 0.0060768863 0.051075667 0.024717608 -0.039619695 -0.040698726 -0.030640118 -0.012133849
0.014546338 -0.026065536 0.02170966 0.010518308 -0.024052026 -0.027698306 0.0060612694 0.034560777
-0.0021960526 0.054330505 0.046524793 0.026814785 0.032393377 -0.004880308 0.021669516 0.04384932
-0.011525609 -0.014731131 0.007636807 0.021831518 -0.0055638887 0.0015879471 -0.00250009 0.04250187
0.0038181278 -0.0052222735 0.027391667 -0.02232931 0.0023592806 0.05013241 -0.028206434 0.015118553
0.04001793 -0.0001723892 0.011662245 -0.0013188894 -0.003882008 0.013291576 -0.0249732 0.030355666
0.03421695 -0.014617712 0.046272725 -0.014490652 0.01985225 0.017802859 -0.0120151015 0.058510777
0.02580389 5.624605e-05 0.037993524 0.031294826 0.032021 -0.016302584 0.031678475 0.02604255
-0.009885084 -0.0022111796 -0.017853659 0.0018498563 0.030108616 -0.011989066 0.038361248 -0.034658533
0.0073710172 0.017457336 -0.0208164 0.011033626 0.015994094 -0.01924552 -0.025462642 0.03998798
-0.021130843 -0.027796313 -0.005802249 0.06349016 -0.011397923 0.014870553 0.058571972 0.021599105
-0.032171424 -0.002333159 0.031091042 0.03830207 0.03007403 0.011034558 0.042108238 -0.03483686
-0.026468238 0.011585018 -0.005074508 0.047853716 0.02923843 -0.00936704 0.020521251 0.023484787
-0.0415286 0.013645187 -0.020903518 0.05291028 -0.0060255583 0.040581938 0.02642268 0.013188795
0.008882603 0.0362201 -0.0042653223 0.03478845 0.026687784 0.06667074 -0.0006370312 -0.042292707
-0.02263975 7.3338626e-05 -0.0036992063 0.023636105 0.058452453 0.048126325 -0.005286228 0.033740625
0.018765815 -0.015715597 2.4132305e-05 0.031586617 0.031718396 0.036993455 0.030956255 0.01408621
-0.027802866 -0.0020494799 -0.032519925 -0.016945383 0.013143267 -0.007948775 0.00453591 -0.013883959
0.01793571 -0.017152328 0.009664858 0.006131793 -0.0039210026 0.026372215 -0.045357365 0.03268671
-0.022945672 0.033429377 -0.04141395 0.010956533 0.010806861 -0.026523279 0.020792 0.035695393
-0.013594044 0.0038406614 0.013241583 0.022949558 0.022049014 -0.0013866479 0.0069480096 0.0130165005
0.023553953 0.013308735 0.03248283 -0.0025963893 -0.018481188 0.025513522 0.033318937 -0.004757903
0.023413256 0.018237494 0.0083943205 0.045853086 0.0014321655 -0.026009452 0.054263413 -0.01221174
-0.0041175764 -0.0018080985 0.031613417 0.024162868 0.0291116 -0.0037672296 -0.039284088 0.01116116
0.06076561 0.005246709 -0.013236953 0.07120046 0.048403226 -0.010025933 -0.002944791 -0.008868263
0.033821624 0.035202228 -0.042475484 0.022421952 0.046990663 0.017053464 -0.0134104835 0.0055335956
0.02733299 0.030372428 -0.020756602 -0.037530906 -0.028304515 -0.0036673541 0.051611975 0.008467222
-0.004679341 -0.023823718 -0.017243207 0.0011269307 0.034193728 0.014478104 -0.010658305 0.010005197
0.020816619 0.04628525 0.015152377 0.011632712 0.036329824 0.056748673 -0.033192705 0.0049307304
00000000: 8b5a be3b 4af1 2d3d eff3 423d a8f0 b83c
00000010: 0113 f63c 253e 98bc a9df 82bc a6f1 283d
00000020: 94e3 3e3d 3a3d f4bc 6bea 133d 31fa f4bb
00000030: fa7f b43c fee3 1b3c b12a 04bc 76d9 593b
00000040: 974b 2b3d 2907 823a 98ba 2bbd f849 013d
00000050: 5e55 0bbd c0d6 0fbd a2f4 e93b 6404 ed3c
00000060: 83bb 2dbc 9e20 c73b b834 513d 957c ca3c
00000070: 4348 22bd b5b3 26bd fc00 fbbc 0dcd 46bc
00000080: c353 6e3c 6487 d5bc 75d8 b13c fb54 2c3c
00000090: c108 c5bc 8fe7 e2bc 9d9d c63b 9a8f 0d3d
000000a0: a6eb 0fbb aa89 5e3d c890 3e3d aeaa db3c
000000b0: ebae 043d feea 9fbb 4584 b13c 589b 333d
000000c0: e8d5 3cbc d75a 71bc 2e3e fa3b 03d8 b23c
000000d0: 4851 b6bb aa22 d03a 8dd8 23bb 7116 2e3d
000000e0: 8e39 7a3b 9b1f abbb 7d64 e03c f5eb b6bc
000000f0: 299e 1a3b a457 4d3d 2e11 e7bc cfb3 773c
00000100: d7e9 233d 60c3 34b9 0013 3f3c 96de acba
00000110: 4969 7ebb e9c4 593c 9994 ccbc 72ac f83c
00000120: 1327 0c3d 217f 6fbc 7888 3d3d 336a 6dbc
00000130: 30a1 a23c 4dd7 913c fdda 44bc ffa8 6f3d
00000140: ae62 d33c bce9 6b38 199f 1b3d 012f 003d
00000150: 7428 033d ff8c 85bc 4ac1 013d 3057 d53c
00000160: 0cf5 21bc 70e9 10bb d641 92bc e176 f23a
00000170: 58a6 f63c ca6d 44bc af20 1d3d 1bf6 0dbd
00000180: 9388 f13b b002 8f3c 2887 aabc 62c6 343c
00000190: 0c06 833c c8a8 9dbc 0897 d0bc 70ca 233d
000001a0: 971a adbc 18b5 e3bc cb20 bebb 2107 823d
000001b0: 5bbe 3abc 9fa3 733c 2ae9 6f3d 9bf0 b03c
000001c0: 2fc6 03bd eae7 18bb a4b2 fe3c a2e2 1c3d
000001d0: d05d f63c 4aca 343c b079 2c3d 18b1 0ebd
000001e0: ebd3 d8bc 16cf 3d3c 0f48 a6bb 4202 443d
000001f0: 6f85 ef3c 3778 19bc 2f1c a83c 2b63 c03c
00000200: e519 2abd 1090 5f3c db3d abbc 73b8 583d
00000210: 0c72 c5bb 3f39 263d 6074 d83c d115 583c
00000220: 5688 113c 875b 143d 1ec4 8bbb 557e 0e3d
00000230: 57a0 da3c ab8a 883d 71fe 26ba 1e3b 2dbd
00000240: ff76 b9bc 60cd 9938 626e 72bb 81a0 c13c
00000250: d76b 6f3d 1c20 453d 1838 adbb 9c33 0a3d
00000260: c4ba 993c ffbd 80bc bb6f ca37 f860 013d
00000270: 26eb 013d 7386 173d f997 fd3c d9c9 663c
00000280: d6c2 e3bc 9150 06bb 9d33 05bd 0bd1 8abc
00000290: db56 573c 943b 02bc f9a1 943b 8b79 63bc
000002a0: e9ed 923c 0a83 8cbc 5a59 1e3c 35ed c83b
000002b0: c17b 80bb 8b0a d83c a5c8 39bd 80e2 053d
000002c0: 90f8 bbbc 3eed 083d ada1 29bd 0883 333c
000002d0: 430f 313c 5947 d9bc fc53 aa3c 5535 123d
000002e0: 8eb9 5ebc 9bb3 7b3b 39f3 583c b600 bc3c
000002f0: 22a0 b43c 2fc0 b5ba 21ac e33b 2943 553c
00000300: 38f4 c03c e10c 5a3c b70c 053d 2f28 2abb
00000310: dc65 97bc bc01 d13c 7079 083d 2fe8 9bbb
00000320: 28cd bf3c cc66 953c 5588 093c 72d0 3b3d
00000330: 80b7 bb3a c611 d5bc 5043 5e3d c013 48bc
00000340: bcec 86bb b8fd ecba 127d 013d 35f1 c53c
00000350: 737b ee3c a0e3 76bb 5ae8 20bd 4cdd 363c
00000360: 5ce5 783d 96ec ab3b cedf 58bc 8cd1 913d
00000370: 7642 463d d043 24bc 65fd 40bb 314c 11bc
00000380: 8b88 0a3d 3630 103d c6fa 2dbd 3eae b73c
00000390: 4879 403d b5b3 8b3c a5b7 5bbc 2a53 b53b
000003a0: 6fe9 df3c 99cf f83c c009 aabc 02ba 19bd
000003b0: dfde e7bc fe57 70bb 1467 533d 1aba 0a3c
000003c0: 2855 99bb f529 c3bc a041 8dbc 85b5 933a
000003d0: b90e 0c3d 9235 6d3c 2ca0 2ebc d6ec 233c
000003e0: 9d87 aa3c 9a95 3d3d ad41 783c 2197 3e3c
000003f0: 95ce 143d 4c71 683d 13f5 07bd f791 a13b

bias f4 [32]
-0.006063085 -0.049058292 -0.031718712 0.017688094 -0.03926847 -0.021593234 -0.009892127 -0.0034729037
-0.026745055 0.009378959 -0.014344545 0.016161878 -0.020835206 0.03470056 0.022279244 0.0026722238
0.013954591 -0.0042774878 0.02020833 -0.01983732 0.0052407603 0.027004568 -0.059142876 0.015365215
-0.036904044 -0.016699327 -0.02486624 -0.0014422173 -0.039454553 -0.033743236 0.020395685 -0.04411875
00000000: d8ac c6bb 59f1 48bd 7beb 01bd 9fe6 903c
00000010: fad7 20bd 4be4 b0bc 9612 22bc a899 63bb
00000020: 7218 dbbc 35aa 193c 6205 6bbc ea65 843c
00000030: 98ae aabc 2d22 0e3d f682 b63c 7a20 2f3b
00000040: cca1 643c 2b2a 8cbb f18b a53c e081 a2bc
00000050: afba ab3b af38 dd3c cd3f 72bd 62be 7b3c
00000060: b228 17bd 07cd 88bc 49b4 cbbc c808 bdba
00000070: 199b 21bd 5936 0abd da14 a73c ddb5 34bd

weight f4 [32, 600, 1]
0.048718527 0.02256261 -0.036500286 -0.0066767307 -0.062067706 -0.058895357 0.042259403 0.000274369
-0.0128403995 0.029035622 0.0122149885 -0.038391925 -0.017135747 0.0008068739 -0.036965173 -0.028314693
0.020839958 -0.0134444535 0.044898428 -0.001966782 0.009198942 0.009133732 0.056418635 0.051579576
0.053320993 0.022928128 0.011606631 -0.027035 0.057467755 -0.00034040862 0.025660347 -0.03161721
-0.04090238 -0.018489003 -0.047394827 -0.0042888573 0.0427764 0.00074298825 -0.013861777 -0.012866442
-0.0072685005 -0.043757454 -0.01723696 -0.016629104 -0.045133483 0.0029129116 -0.0016622838 0.024137786
0.0034601942 0.01915257 -0.020602275 0.05052313 0.040319026 0.01443832 0.05007889 0.05795848
-0.053955425 -0.019631814 0.006266943 0.043493412 0.021720137 -0.017200451 0.021131912 0.0050667287
-0.027278665 -0.032163028 -0.038569435 -0.0069643147 0.005157424 0.026318831 0.010562934 -0.0021087672
0.0015259933 -0.026848236 0.0033003904 -0.03491306 -0.00881044 -0.051817063 0.049237054 0.021517532
-0.023859754 -0.02457781 0.05099506 -0.011824307 -0.042122066 0.012195523 0.035564184 0.052905817
0.014279009 -0.0022066059 -0.038393196 -0.034586858 0.0032632716 -0.02494173 -0.048061263 -0.01940521
0.012045422 -0.016462862 0.041840475 -0.0040650913 0.037398983 -0.013114568 -0.0144842295 0.020403575
0.01715367 -0.040858112 -0.021400189 0.026044045 -0.015181577 -0.033006407 0.01646488 0.030961178
-0.048053037 0.013172476 -0.01170697 -0.010229435 -0.021481646 0.023742331 0.050099283 -0.05195861
0.0072743925 0.0025359995 -0.027976317 -0.033178553 0.0072232583 0.016178917 0.016876772 0.03729955
0.002667014 0.021131843 -0.011270967 0.033358634 0.05072549 -0.028388677 0.05143202 -0.024687316
-0.0041236845 0.006486302 -0.02594378 0.0021513577 -0.007059621 0.03656758 -0.005381411 0.008300941
-0.017293137 0.0052443356 0.054340243 -0.013286671 -0.04109072 -0.0026258626 -0.01714469 0.034457896
-0.023144616 -0.02314496 -0.051329684 0.034020294 -0.055739798 0.037570816 0.013409189 0.041767996
0.046145406 -0.009866843 -0.0404942 0.02255233 0.04062862 -0.034407184 0.0029884903 0.041255563
0.0011445548 0.022046067 -0.0035662465 0.010136384 0.002247298 0.030027134 0.04370354 0.02791571
-0.040824745 -0.014279547 0.015902584 -0.00057200016 -0.03520101 0.028577993 0.0024609366 -0.0014439618
0.040619113 -0.006986328 0.0495917 0.009163873 0.012610003 -0.05595975 0.028868992 -0.03819854
-0.019885292 -0.007565272 0.020416245 -0.0046468056 -0.034470256 0.0037231522 -0.0042093443 -0.0042578382
0.017864129 -0.04299746 0.020130055 0.016501242 0.00032530192 -0.01859131 -0.03993454 -0.03172182
-0.049729194 0.03276973 -0.024828596 0.0071274773 0.001371683 0.02575514 -0.0031735222 0.0037972345
0.04966783 -0.03751113 0.019622508 0.030116675 0.019291673 0.027467504 0.04807674 0.02464299
0.025761731 -0.034927752 0.031032097 0.011993418 0.010830761 -0.02847271 -0.011709753 0.039741054
0.02938532 0.023432953 0.058864053 0.04276588 -0.008738614 -0.029152144 0.02412619 0.003244978
0.018167123 0.014754128 -0.016317777 -0.046537083 0.04534507 0.047731053 0.01694281 -0.003395804
0.003839265 0.01422041 -0.0044167754 0.014359616 0.020768344 -0.0022185976 0.013477561 0.045307238
00000000: 148d 473d 39d5 b83c 5381 15bd 7ac8 dabb
00000010: b53a 7ebd 423c 71bd 3218 2d3d 2fd9 8f39
00000020: 8a60 52bc 1ddc ed3c 6021 483c da40 1dbd
00000030: 4460 8cbc 6484 533a cb68 17bd 37f4 e7bc
00000040: 8fb8 aa3c 2046 5cbc 6ae7 373d 20e5 00bb
00000050: 29b7 163c a6a5 153c 3a17 673d 1b45 533d
00000060: 1d67 5a3d c5d3 bb3c bd29 3e3c 8178 ddbc
00000070: 4f63 6b3d df78 b2b9 a635 d23c 0c81 01bd
00000080: 4189 27bd 4076 97bc 1421 42bd 8b89 8cbb
00000090: 4e36 2f3d 19c5 423a 821c 63bc c5cd 52bc
000000a0: 9a2c eebb 043b 33bd 8634 8dbc c239 88bc
000000b0: e3dd 38bd 8ce6 3e3b fde0 d9ba 9bbc c53c
000000c0: 6dc4 623b dae5 9c3c 1ac6 a8bc 57f1 4e3d
000000d0: 9025 253d b48e 6c3c 861f 4d3d df65 6d3d
000000e0: 5d00 5dbd e6d2 a0bc ee5a cd3b 2626 323d
000000f0: 6eee b13c f6e7 8cbc d51c ad3c cd06 a63b
00000100: 8277 dfbc 61bd 03bd fcfa 1dbd e834 e4bb
00000110: 9cff a83b 979a d73c 2810 2d3c 3e33 0abb
00000120: d703 c83a d5f0 dbbc 5d4b 583b ff00 0fbd
00000130: aa59 10bc 213e 54bd cbac 493d 8945 b03c
00000140: 8875 c3bc 6757 c9bc 32e0 503d bdba 41bc
00000150: 3088 2cbd bbcf 473c c0ab 113d c5b3 583d
00000160: 81f2 693c b49c 10bb 2f42 1dbd f3aa 0dbd
00000170: 9ddc 553b 9952 ccbc e3db 44bd adf7 9ebc
00000180: 295a 453c 20dd 86bc eb60 2b3d 7534 85bb
00000190: ad2f 193d 7cde 56bc 434f 6dbc 6625 a73c
000001a0: da85 8c3c d65a 27bd 734f afbc 525a d53c
000001b0: 26bc 78bc ba31 07bd 5be1 863c 4ca2 fd3c
000001c0: 43d3 44bd 5ed1 573c 97ce 3fbc 5c99 27bc
000001d0: 47fa afbc 477f c23c e834 4d3d 8dd2 54bd
000001e0: 075e ee3b 0333 263b 972e e5bc 3ce6 07bd
000001f0: 15b1 ec3b a689 843c 2841 8a3c 6ac7 183d
00000200: 12c9 2e3b b01c ad3c dda9 38bc 10a3 083d
00000210: 88c5 4f3d 5f8f e8bc 62aa 523d 0e3d cabc
00000220: f91f 87bb 0b8b d43b 0d88 d4bc cbfd 0c3b
00000230: 6554 e7bb e3c7 153d 8c56 b0bb ac00 083c
00000240: 56aa 8dbc add8 ab3b e093 5e3d 56b0 59bc
00000250: be4e 28bd aa16 2cbb 0573 8cbc b923 0d3d
00000260: c799 bdbc 809a bdbc 133f 52bd dd58 0b3d
00000270: 6a4f 64bd dbe3 193d 37b2 5b3c eb14 2b3d
00000280: f702 3d3d 8aa8 21bc 3fdd 25bd aabf b83c
00000290: 326a 263d 8cee 0cbd 8cda 433b 98fb 283d
000002a0: e304 963a f499 b43c b0b7 69bb 1313 263c
000002b0: 6747 133b 77fb f53c 7c02 333d 7daf e43c
000002c0: d937 27bd c3f4 69bc 2346 823c 48f2 15ba
000002d0: ef2e 10bd 651c ea3c aa47 213b 5143 bdba
000002e0: 3a60 263d 91ed e4bb ab20 4b3d 1224 163c
000002f0: 309a 4e3c 0d36 65bd aa7e ec3c 1376 1cbd
00000300: 7be6 a2bc 1ae6 f7bb f83f a73c 3b44 98bb
00000310: af30 0dbd 2100 743b 8aee 89bb 5685 8bbb
00000320: cb57 923c 1b1e 30bd c9e7 a43c 9d2d 873c
00000330: 498d aa39 ce4c 98bc 6692 23bd bdee 01bd
00000340: d7b0 4bbd 8d39 063d 5765 cbbc 9d8d e93b
00000350: 0bca b33a 72fc d23c defa 4fbb 06db 783b
00000360: 7f70 4b3d 45a5 19bd 62bf a03c 3fb7 f63c
00000370: 9209 9e3c 8803 e13c 1eec 443d 19e0 c93c
00000380: 440a d33c 6710 0fbd 0637 fe3c 0b80 443c
00000390: 8173 313c 9a3f e9bc 44da 3fbc 84c7 223d
000003a0: 7cb9 f03c 77f6 bf3c 6f1b 713d 462b 2f3d
000003b0: 672c 0fbc 7ad0 eebc 4aa4 c53c b2a9 543b
000003c0: 38d3 943c 4cbb 713c dcac 85bc ab9d 3ebd
000003d0: c1bb 393d a381 433d a6cb 8a3c 238c 5ebb
000003e0: 2e9c 7b3b b9fc 683c 99ba 90bb 9844 6b3c
000003f0: 6022 aa3c e465 11bb fdd0 5c3c 1594 393d

bias f4 [32]
0.028630164 -0.023785431 0.02006046 0.054449867 0.030582624 -0.021639941 0.015682047 -0.0059874426
-0.0100041935 0.007867584 0.008870755 -0.019605815 -0.023867834 0.022412132 -0.04989428 0.0013482602
-0.036703326 -0.028835235 -0.015270412 -0.042172335 0.008013802 0.03228711 0.0095344735 -0.0020942383
0.04800424 0.031577967 0.001864923 -0.023871675 0.039923538 -0.010616492 -0.0322724 0.034933735
00000000: ce89 ea3c aad9 c2bc d555 a43c d306 5f3d
00000010: 6988 fa3c 3f46 b1bc a377 803c 4f32 c4bb
00000020: a1e8 23bc 0ae7 003c a556 113c 609c a0bc
00000030: 7a86 c3bc a699 b73c f25d 4cbd 1bb8 b03a
00000040: 3a56 16bd df37 ecbc c030 7abc e6bc 2cbd
00000050: 524c 033c 7d3f 043d 7b36 1c3c 7d3f 09bb
00000060: 18a0 443d e657 013d 6f70 f43a 888e c3bc
00000070: dd86 233d cbf0 2dbc 1030 04bd ad16 0f3d

weight f4 [32, 1200, 1]
-0.012241202 -0.019860035 -0.056311406 -0.05098718 0.01493488 -0.059587896 -0.06998342 -0.03811382
-0.044028178 -0.024552586 -0.06551659 -0.031582065 -0.09194824 -0.01844845 -0.046622314 -0.051781997
-0.06111949 -0.046978403 -0.05367687 -0.021203894 -0.060260635 -0.005065609 -0.047822706 -0.049926184
-0.039948385 -0.035707504 -0.018205857 -0.030571332 -0.020989262 0.02985711 -0.03810709 -0.034542777
-0.011859093 -0.03150313 0.0021640374 0.0100848125 -0.03692975 0.01440119 -0.026658405 -0.04371342
-0.05183693 -0.040918704 -0.019776648 -0.0151370345 -0.07363322 -0.037006952 0.012379725 -0.063698776
-0.026206074 -0.040060606 -0.017789394 -0.0393955 0.018669046 -0.04636997 -0.035101857 0.00728646
-0.037537545 -0.010708912 -0.042114988 -0.020037722 -0.004960386 -0.041530594 -0.0032233293 0.013836941
-0.027296087 -0.037936907 -0.025607582 -0.01015476 -0.041775174 -0.03152679 -0.044376116 -0.022239216
-0.05999885 -0.069949225 -0.047721274 -0.05746274 -0.051706232 -0.0048526935 -0.02259464 -0.043400187
-0.05607816 0.010668425 -0.0349643 -0.014525658 -0.022050463 -0.063331954 -0.0274997 -0.046300158
-0.04368736 -0.007844257 -0.035597272 -0.05985201 -0.03769192 -0.03242429 -0.04374488 0.01992762
0.01257567 -0.0012639109 -0.04416876 -0.027340652 -0.017785098 0.007326314 0.00078260765 -0.008441338
-0.035820108 -0.0083114095 -0.08216714 -0.02002026 0.002708638 -0.015903778 -0.022072796 -0.001964586
-0.058621373 -0.018977303 0.0024944441 -0.0399868 -0.020564837 -0.050206043 -0.031937018 -0.040328458
0.0058810436 -0.030345822 -0.03934846 -0.04355555 -0.033053346 -0.020244718 0.0071964967 -0.010173505
-0.025590444 -0.051397886 -0.016924977 -0.053132884 -0.0030585856 0.0043871365 -0.047897473 -0.0131489765
-0.03895224 -0.040038094 -0.032272466 -0.04239533 -0.0137289995 -0.04196446 -0.061000466 -0.04134414
-0.024497315 0.0011078273 -0.022894593 -0.024383869 -0.038230073 -0.057299078 0.017606422 0.026423818
-0.039706744 -0.048608523 -0.047057915 -0.023462418 -0.03186142 -0.039589968 -0.053300887 -0.03528908
-0.010800394 -0.031358365 -0.034930836 -0.043511864 -0.054864608 -0.003763672 -0.023481164 -0.012537428
-0.056953162 -0.060323004 -0.044060104 -0.0234113 -0.03481987 -0.009720493 0.01848819 -0.010525641
-0.025204388 -0.041292023 0.012977129 -0.0049402914 0.0076661394 -0.06443206 0.017916037 -0.053560898
-0.012436445 -0.06534781 -0.035418876 -0.023618368 -0.017054956 -0.0063371244 -0.058340527 -0.052580968
-0.030936064 -0.04120085 -0.057958186 -0.02776297 -0.016638884 0.0037248023 0.005100774 -0.0023239425
-0.009039539 -0.03263881 -0.027141362 -0.012699008 -0.043015752 -0.055214614 0.0041815075 -0.025167992
-0.032945167 -0.07361648 0.001817286 -0.009350487 -0.0207826 -0.0074017923 -0.0017925509 -0.0066752806
-0.055196773 -0.013799102 -0.05818054 -0.03245606 -0.042951383 -0.012720076 -0.048557732 -0.01149688
0.008845259 0.007870089 -0.016383251 -0.009722257 -0.025003523 -0.04408723 -0.026343754 -0.039347418
-0.059118636 -0.02165975 -0.053082995 -0.0164567 -0.061174586 -0.06714997 0.01598705 0.01365848
0.02347061 -0.06600347 -0.015754886 -0.048132308 -0.03495398 0.024917042 -0.058757413 -0.04715413
-0.0026205918 -0.040431213 0.0002442488 -0.0075147115 0.012892535 -0.0016509054 -0.019255586 -0.04268379
00000000: 538f 48bc 83b1 a2bc caa6 66bd efd7 50bd
00000010: 6db1 743c 7012 74bd 7853 8fbd 3d1d 1cbd
00000020: e456 34bd 8122 c9bc 902d 86bd 325c 01bd
00000030: 5c4f bcbd 3421 97bc 0af7 3ebd 5c19 54bd
00000040: 6e58 7abd 6d6c 40bd 47dc 5bbd cab3 adbc
00000050: dbd3 76bd 68fd a5bb bee1 43bd 667f 4cbd
00000060: eba0 23bd 0842 12bd 7324 95bc bb70 fabc
00000070: acf1 abbc e696 f43c 2e16 1cbd ba7c 0dbd
00000080: a44c 42bc 6d09 01bd 86d2 0d3b c53a 253c
00000090: a643 17bd f8f2 6b3c ba62 dabc d80c 33bd
000000a0: f652 54bd 5f9a 27bd a302 a2bc 5301 78bc
000000b0: 03cd 96bd 9a94 17bd 55d4 4a3c 8174 82bd
000000c0: 1fae d6bc 9716 24bd 10bb 91bc 2d5d 21bd
000000d0: d4ef 983c 70ee 3dbd f7c6 0fbd 42c3 ee3b
000000e0: f8c0 19bd 6f74 2fbc c480 2cbd 2626 a4bc
000000f0: bc8a a2bb fc1b 2abd 7e3e 53bb 56b4 623c
00000100: 0b9c dfbc bb63 1bbd fec6 d1bc 2760 26bc
00000110: 721c 2bbd 3c22 01bd bbc3 35bd 042f b6bc
00000120: 5bc1 75bd 8a41 8fbd 6277 43bd 0d5e 6bbd
00000130: eac9 53bd 5803 9fbb 6518 b9bc 65c4 31bd
00000140: 36b2 65bd 9eca 2e3c ba36 0fbd 07fd 6dbc
00000150: 2ca3 b4bc 2fb4 81bd 0d47 e1bc 3ca5 3dbd
00000160: 84f1 32bd 3385 00bc 72ce 11bd 6227 75bd
00000170: d862 1abd 55cf 04bd d52d 33bd 403f a33c
00000180: 2f0a 4e3c d0a9 a5ba 4dea 34bd 81f9 dfbc
00000190: 0eb2 91bc 9411 f03b e927 4d3a 8a4d 0abc
000001a0: 1bb8 12bd 942c 08bc 3f47 a8bd 8701 a4bc
000001b0: 6883 313b a448 82bc 02d2 b4bc 49c0 00bb
000001c0: f71c 70bd 4a76 9bbc d479 233b 33c9 23bd
000001d0: 9777 a8bc daa4 4dbd 64d0 02bd 742f 25bd
000001e0: c5b5 c03b cd97 f8bc da2b 21bd 4e67 32bd
000001f0: f262 07bd 40d8 a5bc 97d0 eb3b c6ae 26bc
00000200: 0da3 d1bc 9786 52bd 40a6 8abc dea1 59bd
00000210: 8d72 48bb f8c1 8f3b 2430 44bd ce6e 57bc
00000220: 628c 1fbd fcfe 23bd 2230 04bd baa6 2dbd
00000230: 99ef 60bc ede2 2bbd a0db 79bd 7958 29bd
00000240: 98ae c8bc 8434 913a 718d bbbc aec0 c7bc
00000250: 2397 1cbd 70b2 6abd 583b 903c c376 d83c
00000260: 8aa3 22bd bb19 47bd cdbf 40bd 4234 c0bc
00000270: 1f81 02bd 1729 22bd 0852 5abd 488b 10bd
00000280: 23f4 30bc a171 00bd a313 0fbd 7f39 32bd
00000290: b6b9 60bd f0a7 76bb 925b c0bc c969 4dbc
000002a0: b847 69bd 4115 77bd 5e78 34bd 0ec9 bfbc
000002b0: 489f 0ebd b442 1fbc 8b74 973c bd73 2cbc
000002c0: 6f79 cebc d321 29bd 069e 543c 2be2 a1bb
000002d0: 3d34 fb3b f5f4 83bd a7c4 923c ac62 5bbd
000002e0: 3bc2 4bbc 13d5 85bd 6213 11bd 4f7b c1bc
000002f0: d6b6 8bbc a7a7 cfbb 7af6 6ebd 245f 57bd
00000300: a16d fdbc 39c2 28bd 9065 6dbd 2b6f e3bc
00000310: 454e 88bc d01b 743b 6524 a73b 494d 18bb
00000320: 931a 14bc 46b0 05bd 9057 debc 800f 50bc
00000330: 4931 30bd b828 62bd 0705 893b 1b2d cebc
00000340: 83f1 06bd 3dc4 96bd 0032 ee3a c932 19bc
00000350: 4540 aabc bc8a f2bb 07f4 eaba 50bc dabb
00000360: 0316 62bd a115 62bc b84e 6ebd a5f0 04bd
00000370: caed 2fbd de67 50bc 79e4 46bd 695d 3cbc
00000380: b5eb 103c 8cf1 003c 2b36 86bc 1a4a 1fbc
00000390: 30d4 ccbc d094 34bd dbce d7bc c22a 21bd
000003a0: 6226 72bd ca6f b1bc 8e6d 59bd 34d0 86bc
000003b0: 3492 7abd ec85 89bd 46f7 823c d1c7 5f3c
000003c0: 7045 c03c d42c 87bd 6410 81bc 6226 45bd
000003d0: e82b 0fbd d31e cc3c 9dab 70bd b024 41bd
000003e0: 3cbe 2bbb 339b 25bd 850e 8039 f83d f6bb
000003f0: 363b 533c 3163 d8ba e4bd 9dbc 33d5 2ebd

bias f4 [32]
0.029084735 0.016175222 0.008990361 -0.033474214 -0.01642285 -0.01806602 -0.03963896 0.0047857356
0.0035532198 5.6671404e-05 0.006586092 0.018416964 -0.0023889323 0.032483153 -0.038995802 -0.029789617
-0.015155581 0.026617993 0.00084291986 -0.031956624 0.010532494 -0.025399588 -0.000120188495 -0.01678616
-0.005890839 0.003682637 -0.025491899 -0.027868109 0.032043677 0.0023619072 0.008698672 0.018776104
00000000: 1c43 ee3c e681 843c 4f4c 133c 421c 09bd
00000010: 3689 86bc 31ff 93bc 765c 22bd a9d1 9c3b
00000020: 23dd 683b 75b2 6d38 25d0 d73b 2cdf 963c
00000030: a28f 1cbb 0e0d 053d 10ba 1fbd 5b09 f4bc
00000040: 1d4f 78bc fa0d da3c 65f7 5c3a f3e4 02bd
00000050: 7b90 2c3c cc12 d0bc b50d fcb8 2183 89bc
00000060: f007 c1bb 6558 713b 63d4 d0bc a94b e4bc
00000070: 3b40 033d 3aca 1a3b e084 0e3c 58d0 993c

weight_ih_l0 f4 [96, 32]
-0.082084216 0.018010434 0.03524071 0.009928351 -0.023190457 -0.06047502 0.15589091 0.06656678
-0.023085518 0.10326354 -0.13642237 0.103171825 0.027180672 0.11145114 0.05838585 -0.017407916
0.16586865 0.14938185 0.011271633 0.049383596 -0.025657715 -0.025431093 0.14691037 -0.13068444
0.13393171 0.068009935 0.09102047 -0.06097654 -0.08084952 -0.087267414 -0.09432871 -0.086139746
0.18604147 -0.046501584 -0.12963201 0.14426652 0.057055 0.011130777 0.15179375 -0.013341325
0.05627841 -0.09138527 0.0335942 0.036569558 0.08380539 -0.03290388 0.061644133 0.00484342
0.1126161 0.10445905 -0.079601906 -0.05666509 -0.1429891 0.05283764 0.10672427 -0.054796822
0.031224774 0.10613244 -0.0066491 0.060121357 -0.06870292 -0.116635635 0.06460714 -0.0035813537
0.106737606 0.04100663 -0.006065988 0.050204337 0.021558512 -0.117450245 0.09346959 -0.06233129
-0.16651042 -0.051220424 0.068952166 0.0008894264 -0.040890906 0.06481348 0.1287791 -0.042548317
0.100221135 0.15509629 0.0758568 -0.04813541 0.0027040085 0.10426704 0.080259934 -0.15687153
0.087805524 -0.065418005 0.12945248 -0.06758037 -0.0581953 0.16033803 -0.10947329 0.059312202
0.031677023 0.00787637 -0.0062383683 -0.12816332 -0.10128552 0.12821953 -0.13262463 0.01997449
0.014698159 -0.07020109 -0.1253466 -0.14226669 -0.03254982 -0.07722905 0.00675159 -0.053702265
-0.13216576 0.13834694 0.04150375 -0.015327404 0.05211357 0.12161241 0.08824888 0.08181855
0.00503654 -0.117228255 0.14374137 0.09964301 -0.09312032 -0.15373439 0.026578056 0.13342558
0.05163359 0.0031447718 -0.13884255 0.029781258 -0.09852919 0.031894166 0.003749279 -0.03475967
-0.12513317 -0.14257501 0.048614148 -0.13093391 -0.121084265 -0.1022834 0.17177868 0.13365975
-0.0065077003 -0.14295967 0.03208501 -0.18848732 -0.12836054 0.1472013 0.166257 -0.17390633
0.16382849 0.051539127 -0.08416708 0.12729281 -0.12826025 -0.14828672 0.05055467 0.113186486
0.008464235 0.051679675 0.08972653 -0.0048632864 0.057787824 -0.13206927 0.13700777 0.11133812
-0.03251626 -0.08947165 0.12079301 0.105210625 0.03819482 0.11835556 -0.054941457 0.08693391
0.023994904 0.023379382 -0.007818166 0.13587017 -0.076432705 -0.113615036 0.06325801 -0.14712428
0.116156325 0.05511315 0.14210838 0.01234659 0.078796186 -0.029202344 -0.10118517 -0.10411039
0.017670142 -0.040863775 0.18877994 -0.06948465 0.111302204 0.097901165 -0.053514503 -0.093618624
-0.01868733 0.12917876 0.13399372 0.16044825 0.038254593 -0.17029807 0.0525516 0.09111973
0.13569686 0.030834295 -0.15905574 0.11372322 -0.0538135 0.20328921 0.0195839 0.061828524
-0.07787877 0.0016032766 -0.14400129 0.11594212 -0.041912194 0.17435123 -0.11534991 0.033672128
-0.042866852 0.0628967 -0.012638444 -0.015635699 -0.104868375 0.06891471 -0.14546321 0.024588859
0.015278387 -0.11411534 -0.13747457 -0.023416234 0.15329954 0.031154934 -0.107431285 -0.21764995
-0.048188396 0.04422556 -0.043042365 -0.15555675 0.012806414 0.16574833 -0.04474667 -0.061809987
0.06531616 0.054959584 0.11734873 -0.036260772 0.14933053 0.02619006 -0.1910871 0.08924839
00000000: c51b a8bd 9e8a 933c 9058 103d 86aa 223c
00000010: eaf9 bdbc a8b4 77bd dea1 1f3e 2a54 883d
00000020: d71d bdbc d67b d33d 4eb2 0bbe c04b d33d
00000030: 00aa de3c 7f40 e43d 0026 6f3d 0c9b 8ebc
00000040: 79d9 293e 8ef7 183e a8ac 383c 7446 4a3d
00000050: 2130 d2bc de54 d0bc ac6f 163e 24d2 05be
00000060: 6525 093e cb48 8b3d f168 ba3d 89c2 79bd
00000070: 6f94 a5bd 42b9 b2bd 692f c1bd 096a b0bd
00000080: a881 3e3e 7278 3ebd 41be 04be 9aba 133e
00000090: 81b2 693d dd5d 363c d26f 1b3e 9395 5abc
000000a0: 3184 663d 3328 bbbd 129a 093d f6c9 153d
000000b0: 29a2 ab3d 38c6 06bd 8f7e 7c3d 8db5 9e3b
000000c0: 45a3 e63d a0ee d53d 5306 a3bd a719 68bd
000000d0: bc6b 12be 486c 583d 4192 da3d a272 60bd
000000e0: 19cb ff3c f75b d93d b2e0 d9bb d041 763d
000000f0: 1eb4 8cbd aade eebd c050 843d 25b5 6abb
00000100: 3f99 da3d 91f6 273d 32c5 c6bb 10a3 4d3d
00000110: 7a9b b03c c189 f0bd fc6c bf3d 184f 7fbd
00000120: b581 2abe 82cc 51bd cb36 8d3d 6528 693a
00000130: 397d 27bd eebc 843d abde 033e 2547 2ebd
00000140: bd40 cd3d 90d1 1e3e cf5a 9b3d a329 45bd
00000150: bc35 313b f589 d53d 525f a43d eea2 20be
00000160: 62d3 b33d e0f9 85bd 318f 043e 9467 8abd
00000170: 325e 6ebd a72f 243e 8833 e0bd 5af1 723d
00000180: c4bf 013d e40b 013c 3a6b ccbb 3f3d 03be
00000190: c86e cfbd fb4b 033e c0ce 07be 8ba1 a33c
000001a0: 8cd0 703c 97c5 8fbd dc5a 00be 5cae 11be
000001b0: f652 05bd 442a 9ebd 713c dd3b e8f6 5bbd
000001c0: 7656 07be d2aa 0d3e d6ff 293d cb1f 7bbc
000001d0: 0a75 553d ed0f f93d d4bb b43d 7c90 a73d
000001e0: 8f09 a53b 5e15 f0bd f030 133e a211 cc3d
000001f0: deb5 bebd 8c6c 1dbe 39ba d93c b7a0 083e
00000200: be7d 533d 8418 4e3b be2c 0ebe d3f7 f33c
00000210: acc9 c9bd 75a3 023d 77b6 753b 2860 0ebd
00000220: e922 00be 2fff 11be a11f 473d 8a13 06be
00000230: 07fb f7bd f679 d1bd c0e6 2f3e 1ade 083e
00000240: 8c3e d5bb 0564 12be 926b 033d d202 41be
00000250: f270 03be f0bb 163e 463f 2a3e 8014 32be
00000260: a8c2 273e b11a 533d ca5f acbd 0c59 023e
00000270: a856 03be 79d8 17be 6a12 4f3d 51ce e73d
00000280: 93ad 0a3c 11ae 533d 8bc2 b73d 345c 9fbb
00000290: edb2 6c3d 2b3d 07be c44b 0c3e 3e05 e43d
000002a0: c52f 05bd ea3c b7bd 5362 f73d ab78 d73d
000002b0: 2c72 1c3d 6664 f23d 4b0a 61bd 680a b23d
000002c0: f690 c43c 1e86 bf3c c417 00bc 8d21 0b3e
000002d0: c088 9cbd 00af e8bd 6a8d 813d bfa7 16be
000002e0: 5ee3 ed3d 54be 613d dc84 113e 5a49 4a3c
000002f0: e55f a13d c139 efbc 2c3a cfbd d437 d5bd
00000300: f9c0 903c c660 27bd 874f 413e f84d 8ebd
00000310: 69f2 e33d 6880 c83d 0632 5bbd 1fbb bfbd
00000320: 2c16 99bc 7047 043e a635 093e 8c4c 243e
00000330: d9b0 1c3d 9e62 2ebe 5940 573d fb9c ba3d
00000340: 1ef4 0a3e 3498 fc3c 82df 22be b8e7 e83d
00000350: 8b6b 5cbd 0c2b 503e 6a6e a03c e83f 7d3d
00000360: e87e 9fbd 0925 d23a 1375 13be 1073 ed3d
00000370: 1fac 2bbd 2189 323e 933c ecbd c9eb 093d
00000380: 2795 2fbd fccf 803d 7a11 4fbc 7016 80bc
00000390: 3bc5 d6bd 2823 8d3d 4ff4 14be 936e c93c
000003a0: 3352 7a3c 4eb5 e9bd 22c6 0cbe 67d3 bfbc
000003b0: 8efa 1c3e a238 ff3c ef04 dcbd a1df 5ebe
000003c0: 3261 45bd dc25 353d 314d 30bd 454a 1fbe
000003d0: fed1 513c eeb9 293e 4948 37bd 782c 7dbd
000003e0: 7bc4 853d 4d1d 613d 8854 f03d 2d86 14bd
000003f0: 1aea 183e 898c d63c 56ac 43be dcc7 b63d

weight_hh_l0 f4 [96, 32]
-0.08258589 -0.0024759502 -0.07546241 0.16394566 -0.15215449 -0.025274124 0.12989831 -0.13993597
0.059518214 -0.01935573 -0.1301296 0.114578046 -0.16578396 -0.058071606 0.005908609 -0.028250085
-0.008481956 0.07789908 0.15749857 -0.15698253 0.008983515 0.16848525 0.09045049 0.19731109
-0.12512228 0.003314778 0.10501234 -0.19639027 -0.09580819 0.12336935 0.05193078 0.027471282
0.18296938 -0.0069552027 -0.026872989 0.16301952 -0.020761212 -0.08282733 0.16984756 0.11204017
0.038497467 -0.022080068 0.005237481 0.003146942 -0.000342554 -0.06919535 -0.07553939 0.04107405
0.10028501 -0.026800178 -0.12794405 -0.07071413 0.062777825 -0.14187485 -0.09359848 0.16347669
-0.012826025 0.022707755 0.020066312 -0.05747072 -0.045621157 -0.0038636012 0.06821773 -0.048883803
0.15050626 0.0026581283 -0.07362219 0.019552495 -0.05131915 -0.07630129 0.04782743 0.050217446
0.09276965 -0.076430574 -0.012525655 -0.0066506388 -0.102097325 0.03741491 0.034943234 0.000111904264
-0.12377935 0.08576853 0.03655334 -0.06739717 -0.007820192 -0.015343059 0.06281937 -0.064263016
0.04496637 -0.02422759 -0.16802552 -0.15127511 0.0074402285 0.13561109 -0.027368812 -0.1890947
0.07007744 -0.10869949 0.07929882 -0.011141726 0.10631952 -0.06244552 -0.036722504 -0.10945839
-0.12030667 -0.1371916 0.051639896 -0.058398407 -0.10443293 0.12269359 -0.10837562 0.022232937
-0.14381863 -0.07931735 -0.0048162867 -0.13366465 -0.18496871 -0.11904665 -0.14042191 -0.05799467
-0.15077798 0.12466308 -0.03657626 -0.10165524 0.11736097 0.0033664464 0.09418576 0.090504766
-0.036244094 0.099731326 -0.024294574 -0.1042866 0.05336967 -0.15671113 0.1503652 0.015990833
0.013609454 -0.060750555 -0.08896108 0.17626847 -0.18511215 0.004266578 -0.07586164 0.0063593322
-0.09728136 0.013022539 -0.122576885 -0.0481254 -0.11941152 -0.08891676 0.031843014 0.06567589
0.05877873 -0.18034805 0.1341229 0.1417257 0.081881896 -0.09710856 0.17012192 -0.110744126
-0.12950191 0.07202245 0.13732402 0.1279688 0.17424509 -0.016134793 -0.039671797 -0.038255025
0.023042597 0.034419503 -0.17837769 -0.07372241 -0.07287516 -0.09106923 0.028679483 -0.1027191
0.15801089 -0.07167436 -0.009613492 0.071602866 -0.030793965 -0.12475898 -0.042024788 0.009011683
-0.0011066083 0.079676755 -0.005659495 0.07472471 -0.045327865 0.060886465 -0.011008256 0.17165728
-0.13663489 -0.055841975 0.14457135 0.10481485 -0.15446371 -0.18540786 0.085365385 -0.14036842
0.0104444185 -0.15063103 0.1156507 0.044523425 -0.0033223785 -0.07382854 -0.018076494 -0.05687798
0.050571628 0.036923405 0.08609842 -0.06299605 0.04582596 0.08140518 0.14913943 -0.015740888
0.059070345 0.10834068 0.06513306 0.017160326 0.0075290394 0.034431424 -0.036374867 0.08828911
-0.119274765 0.21287036 -0.029758435 -0.123338096 -0.05457037 0.1941325 0.018676113 -0.1955726
0.06163924 -0.08067965 -0.03842173 0.091356464 -0.07393266 0.10341805 -0.19204359 0.1864211
-0.11907059 -0.15215304 0.20133042 0.122880004 0.040118635 0.1856075 -0.083945595 -0.11422269
0.017893495 -0.118872 -0.11152122 -0.18867166 -0.052817404 0.07602471 -0.010752069 -0.11259734
00000000: cb22 a9bd 8d43 22bb 098c 9abd 5fe1 273e
00000010: 63ce 1bbe ae0b cfbc 1004 053e 604b 0fbe
00000020: 5fc9 733d e88f 9ebc b240 05be e5a7 ea3d
00000030: 45c3 29be 7edc 6dbd 019d c13b b96c e7bc
00000040: e7f7 0abc 8e89 9f3d 4e47 213e 07c0 20be
00000050: 982f 133c 6687 2c3e 1b3e b93d eb0b 4a3e
00000060: 0e20 00be bf3c 593b b610 d73d 881a 49be
00000070: 1637 c4bd 12a9 fc3d 5fb5 543d 740b e13c
00000080: 535c 3b3e 78e8 e3bb be24 dcbc 97ee 263e
00000090: 6b13 aabc 60a1 a9bd 85ec 2d3e 5175 e53d
000000a0: 85af 1d3d 42e1 b4bc 2d9f ab3b ed3c 4e3b
000000b0: d298 b3b9 4bb6 8dbd 65b4 9abd 433d 283d
000000c0: 3a62 cd3d 0c8c dbbc c403 03be 92d2 90bd
000000d0: a991 803d a447 11be 8fb0 bfbd 6f66 273e
000000e0: 3f24 52bc 9d05 ba3c 1b62 a43c 6b66 6bbd
000000f0: 40dd 3abd 7934 7dbb bdb5 8b3d 623a 48bd
00000100: 501e 1a3e fe33 2e3b 3bc7 96bd 8e2c a03c
00000110: 0734 52bd da43 9cbd b2e6 433d cfb0 4d3d
00000120: 04fe bd3d a287 9cbd 6838 4dbc 9aed d9bb
00000130: 6718 d1bd 6040 193d a320 0f3d 25ae ea38
00000140: 0780 fdbd 69a7 af3d f4b8 153d 8707 8abd
00000150: 4320 00bc 7461 7bbc 71a7 803d 549c 83bd
00000160: a82e 383d f078 c6bc e20e 2cbe dde7 1abe
00000170: 29cd f33b a2dd 0a3e 8f34 e0bc 0ba2 41be
00000180: c384 8f3d d79d debd 6b67 a23d c98b 36bc
00000190: 0cbe d93d e0c6 7fbd 566a 16bd b82b e0bd
000001a0: 5863 f6bd f47b 0cbe 5b84 533d 2b33 6fbd
000001b0: efe0 d5bd c746 fb3d 09f4 ddbd d921 b63c
000001c0: 3145 13be 2371 a2bd f1d1 9dbb 63df 08be
000001d0: 7068 3dbe bbce f3bd c3ca 0fbe d28b 6dbd
000001e0: 8b65 1abe 5b4f ff3d fdd0 15bd 9f30 d0bd
000001f0: f35a f03d 999f 5c3b 77e4 c03d 905a b93d
00000200: b074 14bd f03f cc3d 6a05 c7bc 3794 d5bd
00000210: 289a 5a3d e278 20be 56f9 193e 35ff 823c
00000220: 30fa 5e3c 93d5 78bd 3a31 b6bd b97f 343e
00000230: 0a8e 3dbe a6ce 8b3b 595d 9bbd f261 d03b
00000240: 733b c7bd 7d5c 553c 9709 fbbd 241f 45bd
00000250: 078e f4bd fe19 b6bd d26d 023d 1581 863d
00000260: f7c1 703d 29ad 38be 8357 093e 8b20 113e
00000270: b2b1 a73d dae0 c6bd 7134 2e3e d1cd e2bd
00000280: 269c 04be 8280 933d ab9e 0c3e 410a 033e
00000290: 4e6d 323e 1d2d 84bc e57e 22bd 4db1 1cbd
000002a0: d4c3 bc3c 77fb 0c3d a4a8 36be c6fb 96bd
000002b0: 923f 95bd 8182 babd 3cf1 ea3c 645e d2bd
000002c0: 9bcd 213e 02ca 92bd e881 1dbc 86a4 923d
000002d0: a043 fcbc a381 ffbd 2f22 2cbd bda5 133c
000002e0: 9d0b 91ba 912d a33d 4973 b9bb 4509 993d
000002f0: b6a9 39bd 1664 793d f95b 34bc edc6 2f3e
00000300: 04ea 0bbe 8eba 64bd 830a 143e 2ba9 d63d
00000310: bc2b 1ebe 8fdb 3dbe 0cd4 ae3d bdbc 0fbe
00000320: 111f 2b3c 053f 1abe 46da ec3d 325e 363d
00000330: 43bc 59bb 6b33 97bd 2815 94bc e2f8 68bd
00000340: 3224 4f3d ff3c 173d 5e54 b03d 1304 81bd
00000350: 00b4 3b3d c2b7 a63d 02b8 183e 09f3 80bc
00000360: bff3 713d b8e1 dd3d 7b64 853d d093 8c3c
00000370: 29b6 f63b f707 0d3d d0fd 14bd ecd0 b43d
00000380: 5446 f4bd b0fa 593e f6c7 f3bc af98 fcbd
00000390: 2e85 5fbd acca 463e a6fe 983c 2f44 48be
000003a0: 6d79 7c3d 5f3b a5bd 1b60 1dbd 1919 bb3d
000003b0: 026a 97bd d8cc d33d 13a7 44be 2ce5 3e3e
000003c0: 48db f3bd 02ce 1bbe 9029 4e3e 83a8 fb3d
000003d0: 7053 243d e40f 3e3e abeb abbd 96ed e9bd
000003e0: 6195 923c 2a73 f3bd 3d65 e4bd 2533 41be
000003f0: 1057 58bd d8b2 9b3d 7229 30bc 6f99 e6bd

bias_ih_l0 f4 [96]
0.12910938 0.16359557 -0.08267556 0.09745677 0.15916766 0.05437071 -0.14995347 0.06335873
-0.1465133 0.13355644 0.13672219 0.14741449 -0.15194872 -0.14310905 0.08243853 0.06770597
0.028261028 0.16227008 0.13860135 -0.16267222 -0.1482464 0.07651157 0.1785208 0.12749489
0.08930644 -0.17253752 0.004975103 -0.0053781276 0.11614624 -0.16143702 0.07762714 -0.022051122
0.009463033 -0.047436584 0.09197998 0.14514592 0.13811092 0.053995624 -0.10988325 0.12998372
-0.1309162 -0.14909323 0.097918786 0.019681852 -0.002737958 -0.07829259 -0.0022012629 -0.16303343
-0.13431992 -0.12926428 0.1482724 0.06988813 0.054354377 0.10504195 -0.11665774 0.052015413
0.048457082 -0.08223856 -0.1565822 0.017119065 0.11860835 0.018916527 -0.13833727 -0.1387289
-0.07341054 -0.041591525 0.11280212 -0.07888865 0.11477647 0.07277176 -0.03637881 -0.099768296
-0.095993645 0.06870902 -0.08796547 -0.13980082 -0.017438801 0.17364527 -0.018317588 0.07807133
-0.04247866 0.06630343 0.14303298 0.15670261 0.117647834 0.08775009 -0.056455135 0.13939935
-0.021705648 0.12248285 -0.14185625 -0.045060173 -0.056574196 -0.07475063 -0.04242074 -0.0040408047
00000000: 4035 043e 9985 273e ce51 a9bd 6a97 c73d
00000010: d9fc 223e d2b3 5e3d 678d 19be 39c2 813d
00000020: 9507 16be 05c3 083e e700 0c3e d3f3 163e
00000030: 7298 1bbe 2e8b 12be 88d5 a83d 6da9 8a3d
00000040: ac83 e73c 212a 263e 83ed 0d3e 8c93 26be
00000050: e7cd 17be 19b2 9c3d 28ce 363e 058e 023e
00000060: 4be6 b63d adad 30be 3006 a33b 013b b0bb
00000070: 14de ed3d bf4f 25be fafa 9e3d 8ea4 b4bc
00000080: d60a 1b3c dd4c 42bd 0060 bc3d 22a1 143e
00000090: f36c 0d3e 842a 5d3d 780a e1bd 741a 053e
000000a0: e50e 06be e5ab 18be a589 c83d d63b a13c
000000b0: 506f 33bb de57 a0bd 1043 10bb 3cf2 26be
000000c0: 298b 09be db5d 04be b8d4 173e 8221 8f3d
000000d0: b2a2 5e3d 3c20 d73d 41ea eebd 1d0e 553d
000000e0: ef7a 463d b16c a8bd 1657 20be 483d 8c3c
000000f0: efe8 f23d d5f6 9a3c 49a8 0dbe f30e 0ebe
00000100: 4458 96bd e05b 2abd cc04 e73d 5f90 a1bd
00000110: ed0f eb3d 5c09 953d f201 15bd 5253 ccbd
00000120: 5198 c4bd 51b7 8c3d 3e27 b4bd f227 0fbe
00000130: d1db 8ebc 11d0 313e c40e 96bc dde3 9f3d
00000140: 1afe 2dbd 18ca 873d 3d77 123e a676 203e
00000150: 59f1 f03d 52b6 b33d 803d 67bd b4be 0e3e
00000160: 0bd0 b1bc 4ad8 fa3d c442 11be 0491 38bd
00000170: 58ba 67bd dc16 99bd 5fc1 2dbd ba68 84bb

bias_hh_l0 f4 [96]
0.0038428747 0.03256538 -0.13082832 0.0982555 -0.17828886 -0.15278992 -0.018746493 0.089677684
0.13405505 0.17036942 -0.0868911 0.12991868 -0.15735993 0.13353293 -0.07627857 0.097915
0.16842799 -0.08543167 -0.13250384 0.11021396 -0.03106189 -0.09849909 -0.025869403 -0.17713058
-0.14958495 -0.026057744 -0.09335035 -0.08670642 -0.16183314 0.090131864 -0.10069652 0.20270306
-0.10426854 -0.18158293 -0.037325148 0.053528078 -0.011844579 0.09369012 0.01812267 -0.11705552
-0.14333285 -0.15697816 -0.12995447 -0.05316833 -0.046004295 0.054375734 -0.009142851 -0.06422338
-0.06484216 -0.15387565 -0.09760975 -0.026020871 0.0462665 -0.13796043 -0.018043075 -0.03503905
-0.0073940386 -0.12466493 0.14821704 0.17827436 -0.09635463 0.040385123 -0.0955339 0.1460985
-0.054843158 0.12205875 0.15812929 0.015858563 0.05099674 0.03344795 -0.11094537 -0.09927355
-0.15276659 -0.0017296671 -0.104627475 0.10157146 0.16460639 -0.011466999 -0.15338859 0.059234545
0.13394114 0.094758354 -0.06808848 0.12120041 0.00021034622 -0.123768575 -0.10800532 0.07693722
-0.13920903 -0.06372811 -0.013899192 -0.12573318 0.040641386 0.019663913 0.10742119 -0.026868189
00000000: bdd8 7b3b 4763 053d dcf7 05be 2e3a c93d
00000010: 5b91 36be f674 1cbe 3f92 99bc efa8 b73d
00000020: ba45 093e 5275 2e3e f6f3 b1bd 6709 053e
00000030: f622 21be dbbc 083e f037 9cbd a987 c83d
00000040: 6378 2c3e cdf6 aebd 16af 07be dbb7 e13d
00000050: 8175 febc e4b9 c9bd 12ec d3bc b861 35be
00000060: cc2c 19be 0d77 d5bc 782e bfbd 2393 b1bd
00000070: 96b7 25be 0e97 b83d fa39 cebd 6491 4f3e
00000080: bf8a d5bd e0f0 39be 41e2 18bd 4240 5b3d
00000090: c40f 42bc 9be0 bf3d fe75 943c ceba efbd
000000a0: d9c5 12be e2be 20be c912 05be 09c7 59bd
000000b0: 006f 3cbd 17b9 5e3d e6cb 15bc 8c87 83bd
000000c0: f7cb 84bd 9491 1dbe 9fe7 c7bd b929 d5bc
000000d0: f181 3d3d 8045 0dbe 12cf 93bc 1b85 0fbd
000000e0: b149 f2bb 5450 ffbd 35c6 173e 8e8d 363e
000000f0: 9455 c5bd df6a 253d 47a7 c3bd d89a 153e
00000100: 38a3 60bd f0f9 f93d a5ec 213e d1e9 813c
00000110: f5e1 503d b800 093d 5337 e3bd ee4f cbbd
00000120: d86e 1cbe ffb5 e2ba ee46 d6bd b304 d03d
00000130: 948e 283e 14e0 3bbc e611 1dbe ec9f 723d
00000140: de27 093e ab10 c23d f971 8bbd ec37 f83d
00000150: 6290 5c39 617a fdbd e531 ddbd 4391 9d3d
00000160: d08c 0ebe e283 82bd 70b9 63bc 33c0 00be
00000170: 9577 263d 3716 a13c a4ff db3d ad1a dcbc
