pre_trained_models/meld_senti_aligned_L_DISCRIMINATOR.pt (torch, 344471 bytes, 5 tensors)

weight f4 [128, 600]
00000000: 1777 a2bc c561 30bc 44fb 343b 4398 60bc
00000010: 914e 043d a1bc 90bc 1c43 433a eb1b 4abc
00000020: fc48 3c3c f4c2 9a3c f206 2fbc 523a 1dbd
00000030: acb1 23bc 68b8 89bb 4871 25bc d256 193d
00000040: 41a7 14bd 9bef 37bd 151a a23c 6a41 cabc
00000050: f5ae 163d 0004 f2bc bf9e b7bc 70f7 b7bc
00000060: e7d6 fb3c 930e 1b3b 9a28 263c a13b 293c
00000070: 59f8 47bc 417b 333d 9228 633c 672c 9abc
00000080: 9ce6 ef3b 0f09 ef3c a1a2 c23c d78a bf3a
00000090: 0691 a23b fd4c 8d3c c093 e83c b99e 9eb9
000000a0: ced4 243d df38 e4bc ecce 9cbc bdb8 dabb
000000b0: dd3e 823c e0e8 4bbc c60d 59bb f023 08bd
000000c0: 7b72 ecbc b40a 8bbc e51e c3bc 9ef9 073c
000000d0: e04f 9f3c ddaa 4a3c 5791 14bd 2a38 cfbc
000000e0: 0fb5 b43c e8fd 0b3c 66f5 253c 8ed4 94bc
000000f0: 08ed 73bc de25 b93c 3615 cdbc 26ba b63c
00000100: 35b9 183d fd50 6b3b 3b8d 143c 88d7 61bb
00000110: ede1 983c 04f9 7ebc 1617 12bd af9f 85bc
00000120: 6903 c43c 2550 6bbc d62a 6abc 131f 48bc
00000130: f752 acbb da05 b23c 5e26 8ebc c5e5 033d
00000140: 60ce e03c c13b 59bb 876d ab3a 2c16 14bc
00000150: 5467 96bc 21d6 2cbd 29e6 7f3c 0a89 de3b
00000160: 2664 16bc 0790 f4ba 982b dbbc 852f f93c
00000170: a268 1b3c 52b7 79bc 922c af3c 770c f4bc
00000180: d581 373c 9280 fa3c 289f ea3c 309d eabb
00000190: b977 1abd 8c45 90bc b503 923c 6846 e3bc
000001a0: a0d1 db3c 5689 96bc 534b 51ba 2af4 72bc
000001b0: 2edb 06bd 6a1a 923b 1b98 bbbc cc3a 3bbd
000001c0: a1e9 153d 6ced 9cbc 9b65 be3c 48b3 10bc
000001d0: 48e8 2c3c 80a7 053d 0f33 2abc cce2 233d
000001e0: c6ac 8dbc 1f76 e2bc 3b38 56bc 06b2 86bc
000001f0: a8b7 893c 322e 293d c682 ee3b 4ffc f43b
00000200: be1d 0e3d 7f6d 153d 9684 253d 957f 1f3d
00000210: 0d78 f1bc 0f78 0cbd e8d9 0a3d 248a edbc
00000220: 34b3 6d3c 26d0 15bd 5790 3cbd 4a95 eabc
00000230: 6b5a 2b3c 7742 36bd 0d95 0abd c000 b23c
00000240: 36fb 073d 0296 57bb 1133 d7bc 4af0 f6bc
00000250: 6caf 063c 5da9 88bc a523 ebbc 88f8 283d
00000260: 5b1b d6bc cfa2 db3c e0bb 72bc 820f 063d
00000270: 1424 55bc 872a 18bd 5893 233d 9e84 943c
00000280: 40e6 f63a fafd 053d c578 2fbc c734 053d
00000290: a226 febc c487 1dbc 3156 b43c 161b a53c
000002a0: 803d 16bd ac74 a13c 96e4 7eba 9364 57bc
000002b0: f793 09bc b898 5cbc 1a76 d13b 94eb 1d3c
000002c0: 747d a13c 30be f03c 888c 373d f1e4 c9bc
000002d0: 4280 36bc 98da 1f3d b211 b7bc c213 14bc
000002e0: 8371 b7bc ea64 3cbc c0b2 343d 5820 27bc
000002f0: 4c2d 5d3c f0d1 c9b9 0a51 b63c c9b9 11bd
00000300: fa4f 37bd 607c a93c dfa3 ae3c acb9 d5bb
00000310: e73e 423c e060 0f3d 0eb7 10bd 2404 383a
00000320: 5dc2 83bc e781 233d 8d36 ce3a ce7a fb3b
00000330: f15a fdbb c817 fc3a b72c 1d3d 4f9c 9e3c
00000340: 18c9 3fbd 5db8 38bc c785 fcbc 6917 eb3c
00000350: 3280 d53b 538f 143d bb0e 06bb f372 25bd
00000360: dab1 dc3b 0cc8 39bc 081f 6f3c ab83 f9bb
00000370: ace7 163c 0e11 913c 7909 cf3c e25b 363c
00000380: 71c8 8cbb 02b0 e5bc 1327 8e3b ea4b 3c3d
00000390: e8de f9bc 1b55 f43c e34d d9bc 088c ef3b
000003a0: fbe7 0e3d e58f afbb 27e7 1d3d 9984 5cbc
000003b0: 0917 323c 914b 12bd 6011 2bbc 590f 9f3c
000003c0: e1b0 efb9 7f39 283b 2259 c03c 7868 353d
000003d0: 7aaf 17bd ed0e 133d b597 03b9 c808 153c
000003e0: c5ef c53c c5d0 0d3d 260e d33c 593c 8c3b
000003f0: f45f cd3c aaf5 233d c978 8f3c b1b1 4c3b
-0.019832177 -0.010765498 0.0027615586 -0.013708177 0.03230149 -0.01766807 0.000744866 -0.012335758
0.01149201 0.018891789 -0.010682808 -0.038385697 -0.009991091 -0.004202891 -0.010097809 0.037436314
-0.03629232 -0.04490624 0.019787828 -0.024689395 0.036787946 -0.029542923 -0.022414563 -0.022456855
0.030742122 0.002365981 0.010141516 0.010329158 -0.012205207 0.043818716 0.013864653 -0.01882
0.007321192 0.029179124 0.023759188 0.0014613521 0.004961136 0.017248625 0.028390765 -0.00030254366
0.04024201 -0.02785915 -0.019141637 -0.0066748546 0.015899116 -0.012445658 -0.0033119782 -0.033237398
-0.028863182 -0.016972877 -0.023818443 0.0082992595 0.019447267 0.012369839 -0.03627142 -0.025295336
0.022058992 0.008544423 0.010129308 -0.01816776 -0.014888056 0.022601064 -0.025034528 0.02230556
0.037286002 0.0035906427 0.009066875 -0.0034460742 0.018662417 -0.0155623 -0.035666548 -0.016311495
0.023927407 -0.01436237 -0.014292439 -0.01221444 -0.0052589136 0.021731306 -0.01735228 0.032201547
0.027442157 -0.0033147188 0.0013078906 -0.009038489 -0.018359818 -0.042196397 0.015618839 0.0067912387
-0.009179151 -0.0018658646 -0.026754186 0.030418167 0.009485396 -0.015241461 0.021383557 -0.0297911
0.011200388 0.030578885 0.028640345 -0.0071598515 -0.037711833 -0.017611288 0.017824033 -0.027743533
0.026833355 -0.018376034 -0.00079839415 -0.014828721 -0.03292387 0.004458715 -0.022899678 -0.04571037
0.03659976 -0.01915618 0.023241809 -0.0088318065 0.010553427 0.032630444 -0.01038815 0.040011212
-0.017294299 -0.027644215 -0.01307493 -0.01644231 0.016811207 0.04130382 0.007278773 0.0074763666
0.034696333 0.036481377 0.040409647 0.03894003 -0.02947619 -0.034294184 0.033899218 -0.028996535
0.014508057 -0.03657546 -0.04603609 -0.02863564 0.010458569 -0.04449698 -0.033833552 0.021728873
0.033198558 -0.0032895808 -0.026269468 -0.030143876 0.008220535 -0.016682321 -0.02870352 0.041252643
-0.026136091 0.026811032 -0.014815301 0.032729633 -0.01300909 -0.037149932 0.03993544 0.018129643
0.001883693 0.032712914 -0.010709946 0.032521036 -0.031024281 -0.009614889 0.022013756 0.020154517
-0.036679745 0.019708954 -0.0009723393 -0.013146537 -0.008397094 -0.013464145 0.0063922526 0.009638686
0.019713141 0.029387563 0.044811755 -0.0246453 -0.0111389775 0.039026827 -0.022347305 -0.009037914
-0.022392994 -0.011498669 0.04411578 -0.010200582 0.013499569 -0.00038494123 0.02225544 -0.03557757
-0.044754006 0.02068919 0.021318374 -0.006522378 0.011855817 0.035004497 -0.035330825 0.000701966
-0.01608389 0.039918806 0.001573281 0.0076745516 -0.0077317883 0.0019233162 0.03837272 0.019361643
-0.046822637 -0.011274424 -0.030825509 0.028697686 0.006515526 0.036269497 -0.0020455557 -0.040392827
0.0067350687 -0.011339199 0.014594801 -0.007614573 0.009210508 0.017708328 0.025273072 0.011130305
-0.0042963554 -0.028038029 0.004338154 0.045970835 -0.030501798 0.029825738 -0.026526397 0.007310394
0.034889203 -0.0053577297 0.038550522 -0.013459348 0.01086975 -0.035716597 -0.010441154 0.019416498
-0.00045717417 0.0025669036 0.023480002 0.044289082 -0.037032582 0.035902906 -0.00012549649 0.009096332
0.024162183 0.034622926 0.025763582 0.004279655 0.025070168 0.040029205 0.01751365 0.0031233842

bias f4 [128]
00000000: 7479 3d3d 2392 87bc ac2a 52bc 8d89 053d
00000010: ffc6 ab3c ba5c 553d db8d bb3c b22c 743b
00000020: 68a5 ca3c ac57 093c 196a 463c b047 b63c
00000030: e439 013d ec29 033d d30e d03b fbbc f2bc
00000040: 018c fa3b 3b63 1d3c ed27 2d3c 1dc6 143d
00000050: ed8b 0e3d ecb6 6a3c 8f5c 2bbc 60ac ae3c
00000060: 2b8c 26bd d3cb d6bc 5839 673a b54d 913b
00000070: 91ae 06bd 0bfc ac3c c11f 7ebc 8fe3 09bc
00000080: cb85 573c 22cc e13c e258 bb3c 6923 993c
00000090: 3b80 fd3c 4883 323d 1d8b 02bc 79f4 bbbc
000000a0: c6ce b2bb a6b0 0f3d 5377 b13b 7b6d 5bbc
000000b0: a390 983c 5b8c 83bb a715 eabc 2b3a 19bb
000000c0: 5aba 69ba 5315 d1bc ddfe 84bc e550 03bc
000000d0: e9ba 65ba 0dec 26bc 8261 40bc e892 d937
000000e0: 649b e3bc 4351 6e3c 4338 b3ba 6459 4ebc
000000f0: 6a1a f239 d92b 083d c88b 7bbc 1d01 a6bc
00000100: 84fa c13c c44d 86b8 5bd1 0ebd 1571 2bbb
00000110: a720 d9bc d8c1 3d3b 0182 5fbb f973 cdbc
00000120: 49c9 d4bb 93bf b33c 91de ebbc 21d2 ccbc
00000130: 6b76 ed3c 5020 a5bc 1a3a 52bc 1417 2cbc
00000140: 0feb 673c 3e09 09bd e74e 26bd 6513 e4bc
00000150: 1a65 933c 58a4 7dbb a898 833c 1541 a53c
00000160: 38d4 2cbc 3db4 433d 96f1 17bd 6a68 d8ba
00000170: 60d0 56bc 5a6a b83c 4cb8 253c afca 8b3c
00000180: 4aae 38bd eebc 11bd 533d 763b 682e 143d
00000190: 7f7b 0dbd 9f96 323c 8993 9e3c 4129 04b7
000001a0: 4556 cdbc f8b5 efbc 9ce4 eebb 577a b1bc
000001b0: 6abe dcbc c074 403d ca47 4ebc 073b c93b
000001c0: 2bd6 0abd 297b 813c ef33 473c c06e efbc
000001d0: dacd 183d fd53 353d 6a09 14bb 245b caba
000001e0: 7153 143d 3498 0ebd a94e fc3b 0f38 37bd
000001f0: d833 a73c b0a2 04bd fc8e f4bc 0725 b73c
0.046258405 -0.016549176 -0.012827557 0.03260188 0.020968912 0.052090384 0.02289479 0.0037258086
0.024737075 0.008382719 0.012110257 0.02225098 0.03154935 0.0320224 0.0063494234 -0.029631129
0.0076460843 0.009606178 0.010568601 0.036321748 0.034801412 0.014325839 -0.010459079 0.02132243
-0.04066102 -0.026220238 0.00088204956 0.004434312 -0.032881323 0.021116277 -0.0155105 -0.008416071
0.013154457 0.027563158 0.022869531 0.018693643 0.030944934 0.04358223 -0.0079677375 -0.022943722
-0.005456778 0.035080574 0.005415836 -0.013392801 0.018623656 -0.0040145344 -0.028574778 -0.0023380618
-0.0008916013 -0.025522863 -0.01623481 -0.008014892 -0.00087635085 -0.010188115 -0.011741998 2.5936824e-05
-0.027784057 0.0145457415 -0.0013673384 -0.012594555 0.00046177517 0.03324494 -0.015353151 -0.020264203
0.023679025 -6.404103e-05 -0.034867626 -0.0026159931 -0.026504828 0.0028954651 -0.0034104588 -0.025079714
-0.0064937216 0.021941936 -0.028792651 -0.025002541 0.02898713 -0.02015701 -0.012831235 -0.010503549
0.014155163 -0.03345608 -0.04060259 -0.02784128 0.017992545 -0.0038702693 0.016064003 0.020172635
-0.010548644 0.04777931 -0.03709563 -0.001651061 -0.013111204 0.02251165 0.010114741 0.01706442
-0.04508809 -0.035580568 0.0037573173 0.03617707 -0.034541603 0.010900169 0.01935746 -7.877418e-06
-0.02506555 -0.029261574 -0.007290436 -0.021664781 -0.026946265 0.04698634 -0.012590358 0.00614107
-0.033895653 0.015805798 0.012158378 -0.029227614 0.03730569 0.04426955 -0.002258862 -0.0015438539
0.03621239 -0.03481312 0.0076998067 -0.044731196 0.020410463 -0.032381713 -0.029853337 0.022356523

weight f4 [64, 128]
00000000: 3613 183d ea75 083d 00be 8d3b 029e 2a3d
00000010: f75a 94bd 0299 293d b699 da3c 3181 8a3d
00000020: 57da 45bd 4b14 843c 5f88 783c 7090 f4bc
00000030: 7104 6b3c 9453 163d 403d 713d cfc6 3a3d
00000040: 5795 9e3d 4d2c 4e3d 8026 9f3d 744c 223d
00000050: 5926 97bd 45d2 2a3c 8bf6 e33c f721 523d
00000060: 870c 19bc 0e8d 66bc 43b9 933d 3218 913d
00000070: b222 e03b 5bf2 013d 8433 bc3c 2267 94bd
00000080: 6c36 7d3c ba4d 8b3d 8ab3 df39 d232 123d
00000090: c149 8fbd b8e0 88bd 945e 07bd c73e 6a3d
000000a0: c1a8 a33d 78e3 5abc 54e7 ac3d ee5e 8c3d
000000b0: b67a 6cbb ddb7 b2bc 2ca3 a9bd 97bf 29bd
000000c0: 0b6a 633c 7d6c b63d 6056 fd3b a1ae 773d
000000d0: 1a8e 6cb9 5060 6e3c e176 a2bd 2e12 7ebd
000000e0: c813 c53c 96fb fdbc 0373 3c3d fefa a9bd
000000f0: 3a32 8e3c b87d 793c 039d adbc 749a b03d
00000100: 5c08 8abb a434 46bd b446 823d f75b e53c
00000110: a099 84bd 7d13 493d b10f 15bd 992d ae3d
00000120: f086 41bd 49f7 323d e124 50bd 7b39 083d
00000130: 5941 20bd 5aad 443d 17ed 10bd fb0e 8b3a
00000140: 4a0b 1e3d bd13 a13d 24d4 63bd bb15 8fbd
00000150: 2efb b2bc 490c 38bc c7a3 07bd 000b 993d
00000160: ddde d63c a6fc 76ba 8562 9fbc 2677 ea3c
00000170: 5f26 1f3d ff04 433b 8057 3dbd 18f0 23bd
00000180: 2955 18bd 340b 84bd f804 d0bc 94e8 84bd
00000190: cd38 a5bd e3ba 863d d6d4 debc 9696 0c3c
000001a0: 38ba 37bd eb21 873d 61d8 b73b d9be 833c
000001b0: 9ffd a2bd 966b 8fbd d0f1 cbbc 80a4 983d
000001c0: 0ebd 993d 04f3 d73c e6a0 5e3d 637a 5abd
000001d0: 48a4 a7bd 3cb9 83bd e158 443d a2c6 25bd
000001e0: d72e 9f3d 2b1a a83d debf 61bc f8dc 8bbd
000001f0: 42e9 99bd 9c96 3ebd 4818 2abc f7d5 a7bd
00000200: 32a1 11bc d6a6 67bd 46b2 973d b829 87bd
00000210: 8d0b f63c 9639 573c af6c 7fbd 07ea a6bd
00000220: 1ecc 1dbc 7b09 bb3d d221 403b 4f7b 90bb
00000230: f9a9 873c bb10 d3bb 52a2 00bd 6936 453d
00000240: f171 043d cc43 acbd 8ee8 8dbd 8f28 d13b
00000250: 63dd 9e3d a5ea 17bd 3b3a 30bd 3e19 49bc
00000260: c8a6 063c b6cc 293d a276 c23c 01b3 0bbd
00000270: 6db6 8ebd 0970 033d fb6d 8abd f206 043d
00000280: dcc4 9bbd aeb3 863d 6e82 543d 345c b8bd
00000290: 16cd 98bd d9bb 7cbd 01e3 0cbd 9ee3 353c
000002a0: 5f7e 2c3c ff57 19bd 65bb 9fbd 33c0 b2bc
000002b0: 2637 a63d 7572 be3d b380 9a3d abcd e3bb
000002c0: ebdf a33d 5a8b ce3c f00f 84bd fce7 9cbc
000002d0: 222b 69bd 777a 7b3d 1767 03bd af41 963d
000002e0: c5b7 cf3c 9bc6 5fbd 0dbc 3cbd 9ca0 a6bb
000002f0: 325d 053d f2ec 88bc d0bf 5e3b b82d d3bc
00000300: 3aeb 20bd 4c7e 92bd e27a 3bbc 09c3 3a3d
00000310: 0689 97bd f488 a43d ab51 c8bc 2713 ee3c
00000320: 1b0a 403d e07e 823c db64 24bd 0b1a 9dbd
00000330: 1061 a2bd aa09 8abc 512e 3c3d c509 533c
00000340: 9206 91bd 92ac 9ebd fd0b dabc 6102 e13c
00000350: 399e 08bd f994 33bc dc21 9d3a 8f30 823d
00000360: 34a0 8fbd 282e 7dbd 2e1d fbbc e31d 333d
00000370: f6ea b4bd 96d9 9f3d e91c 193d b2dd 023d
00000380: 1869 fdbb 59f3 263d 0ebe caba 10e7 433d
00000390: e810 98bc 9cf0 8abd 6351 343c ef9c b53c
000003a0: a2ff 383c 5eac 963d b828 403d 1a3e 903c
000003b0: 7497 893d 6236 5b3b 597e 72bd c1e7 d53c
000003c0: 2ed1 553d 5acc 583d aa52 9bbb 63ec 953c
000003d0: 88d5 a5bc 4f42 b23d af8e bf3c aa16 d8bb
000003e0: 1fb8 943d d619 8ebd a2d9 143d 21ee 02b9
000003f0: 520c 853c 04d5 7abd f4fe 973d e24c bc3d
0.037127696 0.033315577 0.0043256283 0.041654594 -0.07243913 0.041405685 0.026684623 0.067629226
-0.04830393 0.016122958 0.015169232 -0.02985403 0.014344321 0.0367008 0.058896303 0.045599755
0.07743328 0.050335217 0.07771015 0.039623693 -0.07380361 0.010426109 0.027827522 0.051301923
-0.009341366 -0.014071716 0.0721307 0.07084693 0.0068400735 0.03172527 0.022973783 -0.072462335
0.01545487 0.068019345 0.00042667642 0.035692997 -0.06996489 -0.06683487 -0.03304918 0.057188775
0.07991172 -0.013359897 0.0844256 0.06854044 -0.0036083884 -0.021816188 -0.08283076 -0.04144248
0.013880263 0.08907411 0.007731244 0.060469273 -0.00022559651 0.01454933 -0.079328306 -0.062029056
0.024057284 -0.031003755 0.04600812 -0.08299826 0.017357934 0.015227728 -0.021193033 0.086232096
-0.0042124223 -0.048390046 0.06361142 0.027997954 -0.06474614 0.04909085 -0.036391918 0.08504791
-0.047247827 0.04369286 -0.05081642 0.033257943 -0.03912482 0.048016883 -0.035382356 0.0010609323
0.038584985 0.07865093 -0.055622235 -0.06986567 -0.021848287 -0.011233398 -0.033115175 0.07472801
0.026229316 -0.0009421803 -0.019456157 0.028621268 0.038854953 0.0029757617 -0.046226025 -0.040023893
-0.03719059 -0.06447449 -0.025392994 -0.06489673 -0.080674745 0.065786146 -0.027201097 0.008580824
-0.044855326 0.06598266 0.005610511 0.016082214 -0.07958531 -0.07002942 -0.024895579 0.07453251
0.075067624 0.026360996 0.054352663 -0.053339373 -0.08185631 -0.06431815 0.047936324 -0.040472634
0.07772606 0.08208116 -0.013778655 -0.06829256 -0.075151935 -0.04653035 -0.010381766 -0.081951074
-0.00888853 -0.05655559 0.0740705 -0.06599754 0.030034805 0.013136288 -0.062359508 -0.08150106
-0.009631185 0.09132668 0.0029317033 -0.004409231 0.016560541 -0.0064412034 -0.0314048 0.048147593
0.032335225 -0.08411369 -0.06929122 0.006383009 0.0775707 -0.03708901 -0.043024283 -0.012274085
0.008218475 0.041454993 0.02373821 -0.03410626 -0.06968389 0.032089267 -0.06759258 0.032233186
-0.07605907 0.0657724 0.0518822 -0.09001961 -0.07460992 -0.061702583 -0.034396175 0.011101631
0.010528176 -0.037437435 -0.077994145 -0.021820163 0.081159875 0.09299175 0.07544079 -0.0069520078
0.08001693 0.025212932 -0.06448352 -0.019153588 -0.0569259 0.06139609 -0.032080736 0.07336747
0.025356183 -0.054632764 -0.046077777 -0.005085064 0.03255958 -0.016714547 0.003398884 -0.025778636
-0.03928683 -0.071529955 -0.011442872 0.045596156 -0.07399182 0.08033934 -0.024453005 0.029061867
0.046884637 0.01592964 -0.040135246 -0.07670983 -0.079286695 -0.016850311 0.04594261 0.012880747
-0.07081331 -0.07747759 -0.026617045 0.027466955 -0.033354018 -0.010960811 0.001198824 0.06356918
-0.07012978 -0.061811596 -0.030653562 0.043729674 -0.08833878 0.07805173 0.037381086 0.031949706
-0.0077334754 0.04075942 -0.0015468018 0.04782778 -0.018562749 -0.06784174 0.011005732 0.022169558
0.011291416 0.07357095 0.046913832 0.017607737 0.067183405 0.0033449163 -0.059202526 0.026111485
0.052201442 0.05292926 -0.004740079 0.018301195 -0.020243421 0.087040536 0.023383467 -0.0065944986
0.07261681 -0.069385216 0.036340363 -0.00012486476 0.016241226 -0.061238304 0.07421675 0.09194352

bias f4 [64]
00000000: 8fa4 cc3c 0ab4 a4bc cc59 7dbc 3159 8ebd
00000010: 96b1 a6bd 4bb7 57bc a93a 97bd d65d 01bc
00000020: 7564 d5bc 4f26 813c c680 25bd 53d0 b13d
00000030: ac87 103b c39f ba3d 5f26 59bd 6f7e 97bd
00000040: d798 54bd d2a6 8c3d f80e e7bc d016 c4bc
00000050: c2e5 423d 57d7 78bd 7a99 bb3d 4b6b b43c
00000060: e0fb 003d 424e 18bd 401d 0a3d c973 9ebc
00000070: 181c 2f3d 78bb 5d3c a52b a6bd 7909 5f3c
00000080: 19bc d63c 5cae 253c 6e24 763d 7356 8b3d
00000090: 638a 47bd 0030 d6bb f6b2 4c3d a0cd bbbc
000000a0: 948b c33b 6d97 02bd 8e99 22bd a48f 343d
000000b0: d323 a9bd da29 16bd 326e 80bd f02a d93a
000000c0: 4ec6 83b9 bdeb a3bd 74ec 92bd fbd1 ffbc
000000d0: 41af 763d 386e 7c3c da3b a2bd 19b3 153d
000000e0: ac43 aabc cebe 893d e30b 30bd b1ae 213d
000000f0: 44cd 59bd 4af6 85bd 8dc8 183c 1b4f 33bd
0.024980811 -0.02010538 -0.015463304 -0.06950606 -0.081393406 -0.013166259 -0.073842354 -0.007895907
-0.026048878 0.015765337 -0.04040601 0.08682313 0.0022053523 0.091125034 -0.05301511 -0.07397162
-0.051903572 0.06867756 -0.02820538 -0.02393666 0.047582395 -0.06075224 0.09160133 0.022023818
0.031490207 -0.037184007 0.0337193 -0.01934232 0.0427514 0.013533466 -0.08113793 0.013613098
0.026212739 0.010112371 0.060093336 0.06803598 -0.04871596 -0.0065364838 0.049975358 -0.022925198
0.0059675667 -0.031882692 -0.039697222 0.0440823 -0.08258786 -0.036661007 -0.06271018 0.0016568583
-0.00025134016 -0.08003948 -0.07174006 -0.031228056 0.06022573 0.015407138 -0.07921572 0.036547754
-0.020784222 0.06725846 -0.042980086 0.03947324 -0.053174272 -0.065411165 0.009325159 -0.043776613

weight f4 [1, 64]
00000000: 1d22 80bd 9ed7 b9bd d710 09be b2ff a13c
00000010: dba9 053d 9688 253d 07b6 af3c 6a76 ff3c
00000020: a8d5 ca3d c55e c4bd 7f6b 123d 6b34 663d
00000030: 554f a8bc a11b d13d 968b b03d 73fc d6bd
00000040: 5504 ba3d 9959 aabd dc98 483d 4f8e a93d
00000050: 72b6 fbbd caa6 f5bd b3d5 9c3c a158 8bbc
00000060: 245b f2bd a858 95bc a3bb a9bd d3b9 db3d
00000070: c132 ec3d 8ac7 bf3b 328d 233d e7da f0bd
00000080: f675 bb3d 9ef0 cdbd 27cc 4ebd 61a4 6fbd
00000090: e2e1 6cbd de74 83bd 65ee 3d3d 0b43 a2bd
000000a0: 1034 2dbd e653 a7bc 7986 a73c 65d8 9c3b
000000b0: 878d 443d 60fe 0dbd dce5 e03d cff4 99bd
000000c0: c7aa cc3d e65b 693d c6a4 4ebd 269d 933d
000000d0: 917e b6bc 89de 463d feda 2b3d 74c3 b6bd
000000e0: 84c1 9fbd 1396 c33b 0fe7 bbbd 204d 82bd
000000f0: 1ac6 d13d 9d95 a8bd 24dc cfbd 5caf b03a
-0.062565066 -0.09074329 -0.1338533 0.019775245 0.03263269 0.04041346 0.021449102 0.031184394
0.09904033 -0.09588388 0.035747048 0.056202333 -0.020545641 0.10210348 0.08620374 -0.104973696
0.090828575 -0.08317871 0.048973903 0.08279096 -0.12290658 -0.11994703 0.019144868 -0.017010035
-0.1183379 -0.018230751 -0.08287742 0.107288025 0.11533118 0.0058526443 0.039929576 -0.11760502
0.09153359 -0.1005566 -0.050487664 -0.058506373 -0.057832606 -0.06418775 0.04636993 -0.07922944
-0.04228598 -0.020425748 0.020449864 0.0047865384 0.047986533 -0.03466642 0.10981342 -0.07517397
0.09993511 0.056972407 -0.05045011 0.07207708 -0.022277148 0.04855207 0.041956894 -0.089239985
-0.07800582 0.005968818 -0.0917493 -0.06362367 0.10242863 -0.082316615 -0.1014941 0.0013479996
