pre_trained_models/meld_emo_aligned_L_TRANSLATOR.pt (torch, 222173 bytes, 23 tensors)

multi f4 [1, 32]
00000000: 0db5 b5be 2bf9 b5bc 530b 53be c730 b23e
00000010: 9ddb f8bd b7f1 853e 4101 bf3d b816 163e
00000020: 7e86 57bd 07dd a63e 9093 0abe 2975 033e
00000030: 5f35 603d df62 da3e d327 70be c354 f1be
00000040: bc31 ddbd b658 1dbd decc 45be 184f 5c3e
00000050: 06ca cd3e ba7c 863e 2a45 d7bd 22d4 ac3e
00000060: 7519 503e 44c9 dbbe f96c 2abe b21d a33e
00000070: e129 803e 76ea bc3e c8be 8b3e cecd c7bc
-0.35489693 -0.02221354 -0.20609789 0.3480284 -0.12151263 0.26160976 0.09326411 0.14657104
-0.052618496 0.32590505 -0.13532853 0.12837662 0.0547384 0.42653558 -0.23452692 -0.4713498
-0.10800502 -0.03841468 -0.19316432 0.21514547 0.40193194 0.26267034 -0.10511239 0.33755594
0.20322211 -0.4292699 -0.16643132 0.31858593 0.2503195 0.3689763 0.27293992 -0.024390128

weight f4 [33, 32]
00000000: 5eaf 88bf 0747 4f3e 0ced 20bf 6fca 703f
00000010: 80c0 dd3f 99e5 8dbe abcd 5ebf b21d febf
00000020: ebc4 e5bd 66ad b1be 3eb4 ce3f e551 53be
00000030: 324a e3bf e94d a9bf b2c9 323f 34e0 9f3f
00000040: 8fa7 6cbf 042e 49bd 1d4d 06bf 59a1 abbd
00000050: 35a5 51bf 3f9c 78bd cd0a 2bbf 3878 07bc
00000060: c8cf d33f d170 d7bf 28ca dcbf e5df 60bf
00000070: 3a07 083f b3e0 053e c0ad 1f3f 07ef 233f
00000080: 5a55 07bf 0fce b43f 338e 3d3f 0399 66bd
00000090: 95fa 93bf ce21 ef3e a383 b33d 4094 aa3e
000000a0: f6a8 0cbf 8c66 2f3f 1020 9a3f f6f6 49bf
000000b0: 0ef2 823f d826 e6be 3a82 ff3c 773d 363d
000000c0: 58f1 e53c 7b12 123f 6636 b63f 3b98 3c3d
000000d0: 5fae c4bf 8068 813f 947b 3b3d 61ce 863e
000000e0: 5dbd 493e 6f71 e83f 7ad7 0e40 77b6 2f40
000000f0: aff3 a1bf e936 c9bd 58ae 453f 3d79 efbe
00000100: ccc8 e6bb ae48 593f 96cf 0c3f a2f6 973f
00000110: 1381 56bf 8291 a0be b75b 283d 16e0 1cc0
00000120: 1457 aebe 858e d43f e4b3 cbbf c066 af3e
00000130: 04de fb3e 3df5 20bf f8fa 87be 8289 d9be
00000140: d398 7cbf c351 8abf 3682 88bc 5045 8abd
00000150: 60bc d8be 87a9 7e3e a023 03c0 fed3 a73f
00000160: 856d 05bd 503d e2be b8fa 523f 57dc 53bf
00000170: 6a07 8ebf 9c23 863e 82b5 dabe 0e84 4dbf
00000180: def3 58bf 4ab2 febf 4f1e 183f da47 0d3f
00000190: 6759 04bf 1e0e 8a3f f89a 8f3f e9d0 513f
000001a0: c425 9bbe 979b edbf 1afe 84be 4713 f0be
000001b0: cd15 4abf 9572 5d3e 60af acbf 4e18 06bf
000001c0: 71ce e7be 0794 353f 3718 95bf 3364 dcbe
000001d0: a652 2d3e 3567 913e 07b8 833e 2c4c dabe
000001e0: 6e00 a4bf 33b3 93bf 8860 8f3e 653e 32be
000001f0: 22a4 6abf f799 a93f 7551 40bf a12f 90bf
00000200: 767f 47be 4c76 f0be 410f 703f 866c bcbf
00000210: f1b2 b13f 4222 dbbf 1ad6 babe 4a40 83bd
00000220: 45be cebf 363b d7be 11b4 a9bf f034 2abf
00000230: cda8 80bf 5cdb 883f 0e77 40c0 6afe d13e
00000240: c1fc c4bf 959b ddbf 4481 3cbf 8fc4 e53e
00000250: 49cc 883f 18b1 243d f8a1 9ebf 78a1 823e
00000260: 2dab 9bbd 5742 78bf d074 38bf 4900 35be
00000270: 8f59 a53f 62be 9fbf 039b 1140 a41f 203f
00000280: dd5a 293f 44b6 c3bf 2827 d6be 6a5e 143f
00000290: 4acc 72bf a449 b4bf 2d60 863f aa16 3e3f
000002a0: fae5 c53f 383c b2be 0428 79bf aeb1 993e
000002b0: 3e4c cf3f b6b5 683e a94b 5cbf 7346 32bf
000002c0: 83ab 0bc0 eb76 9d3d 498b 83bf 30cc abbd
000002d0: fd0b de3f 9645 353e 97eb 8dbe 4727 473e
000002e0: 5b0b 893f 9a12 72bf b3db 923f aa15 d33e
000002f0: e78e 79bf 8229 04c0 6457 2c3f 4a7b 00bd
00000300: 01d3 943f aa03 53bf 360e b1bd 2216 9fbf
00000310: 9970 9f3e e741 c93f d154 1a3f 54cf f7be
00000320: 5145 6fbf 63aa d4be 378a ebbf acea b6bf
00000330: 5c1a 553f afe2 56bf 6799 acbd 6db9 c13f
00000340: 1008 403f babd 563e 36d6 203f 60a0 5dbd
00000350: 1c2b 18c0 2c4b 09bf 94d5 93be fa7a c0be
00000360: ddc4 21c0 569f 13bd 9cf5 0e3f 28f3 cbbd
00000370: bcea fbbe 552d d9be 0a6e 86bf f30d c2be
00000380: 57ad 8e3c 516a 083f 211f 0cbf 092c bfbf
00000390: c15b 06be b2ab efbe d73d 43bf 853c 893d
000003a0: 2514 a3be 94cc 513f 97ee c33f b1cf 10bf
000003b0: 71d6 df3e 4d61 d73e f934 bfbf bf58 623f
000003c0: 09e9 e3be 74f9 9e3f d6a7 b73e 0deb cdbe
000003d0: 1f9f b23e af53 a73f f2e3 263f 39f6 513f
000003e0: 542a 07bf c7e6 cc3f 3994 e4bf e2d9 1b3d
000003f0: 2c9b a3bf 05cc 0fbf e5d9 3b3e aff1 02bf
-1.0678518 0.20241939 -0.62861705 0.9405889 1.7324371 -0.27714232 -0.87032574 -1.9852812
-0.112192 -0.34702605 1.6148756 -0.20636709 -1.7757018 -1.3226901 0.6983901 1.2490296
-0.92443174 -0.04911615 -0.52461416 -0.08380384 -0.8189271 -0.060695883 -0.66813356 -0.0082684085
1.6547785 -1.6831304 -1.7249193 -0.87841636 0.53136027 0.13073997 0.62374496 0.640366
-0.5286461 1.4125384 0.74045104 -0.056298267 -1.1560847 0.46705478 0.08765342 0.3331623
-0.54945314 0.6851585 1.2041035 -0.7889246 1.0230119 -0.4495151 0.031190027 0.04449221
0.028069183 0.5705945 1.4235351 0.046043616 -1.5365714 1.0110016 0.04577215 0.2632933
0.19701143 1.8159617 2.2319016 2.7455118 -1.2652491 -0.098249264 0.7721915 -0.46772185
-0.00704298 0.84876525 0.5500425 1.1872141 -0.837907 -0.31361014 0.04110309 -2.4511771
-0.3405081 1.6605994 -1.5914273 0.3425808 0.49192822 -0.62874204 -0.2655866 -0.42487723
-0.9867069 -1.0806202 -0.016663652 -0.067515016 -0.4233122 0.24869357 -2.0490494 1.311157
-0.03257515 -0.44187403 0.82413816 -0.82758087 -1.1096013 0.26199043 -0.42716604 -0.80279624
-0.8474711 -1.989816 0.5942125 0.5518776 -0.5169892 1.0785558 1.1219168 0.81959397
-0.3030225 -1.8563107 -0.25975114 -0.46889707 -0.78939515 0.21625741 -1.349102 -0.52380836
-0.4527469 0.70928997 -1.1648015 -0.43045196 0.16926059 0.28399053 0.2572634 -0.4263624
-1.2812631 -1.1539062 0.28003335 -0.17406614 -0.91656697 1.3250111 -0.75124294 -1.1264535
-0.19482216 -0.46965253 0.93773276 -1.4720619 1.3882734 -1.711983 -0.36491472 -0.064087465
-1.6151816 -0.42037362 -1.3258077 -0.66487026 -1.0051514 1.0691943 -3.0072665 0.41014415
-1.5389634 -1.7313105 -0.73634744 0.44876525 1.0687343 0.040207952 -1.2393179 0.25513816
-0.076010086 -0.96976227 -0.7205324 -0.1767589 1.2917956 -1.2479975 2.2750862 0.6254828
0.6615427 -1.5289998 -0.4182675 0.57956564 -0.9484297 -1.4084973 1.04981 0.7425333
1.5460808 -0.34811568 -0.97326684 0.3001837 1.6195142 0.22725567 -0.8605295 -0.69638747
-2.1823432 0.076886974 -1.0276881 -0.08388555 1.7347409 0.17702326 -0.27718803 0.19448577
1.070659 -0.94559634 1.1473297 0.41227466 -0.97483677 -2.0650334 0.6732085 -0.031367578
1.1626893 -0.82427466 -0.08645289 -1.2428629 0.31140593 1.5723237 0.6028567 -0.48400366
-0.93465143 -0.41536245 -1.8401555 -1.4290366 0.83243346 -0.8393964 -0.08427697 1.5134712
0.750123 0.20970812 0.6282686 -0.054108024 -2.3776312 -0.5363033 -0.28873885 -0.37593824
-2.5276406 -0.036040626 0.5584352 -0.09958488 -0.49202526 -0.42417398 -1.0502331 -0.37901267
0.01741664 0.53287226 -0.54735 -1.4935313 -0.13120939 -0.4681068 -0.76266235 0.06700996
-0.31851307 0.81952786 1.5307187 -0.5656691 0.43718293 0.42066422 -1.4938041 0.88416666
-0.4451373 1.2419877 0.35870236 -0.40218392 0.34887025 1.3072413 0.65191567 0.8201633
-0.5279896 1.6007928 -1.7857734 0.038049586 -1.278173 -0.56170684 0.18344839 -0.5115003

weight f4 [4, 32]
00000000: 84f3 5e3f ef78 973f 7699 af3e 94c9 b2bf
00000010: d574 b53f 12cd 2cbf 47fe a1bd d199 90bf
00000020: 6344 80bf 7382 623f 8401 01c0 c9ee 033d
00000030: d1ca 95bf c5fd 20bf 362a b83e db46 8e3f
00000040: 2725 ef3c 53ad 83bf 14ae 073e 8381 783e
00000050: 96d3 dc3e d705 2b3e 511b 143f 5fd9 1e3f
00000060: 25f9 c33f 671f ad3e 8b62 97bd 0713 fabf
00000070: 4466 84ba f742 d73e 5a46 5b3f e885 423f
00000080: 0e3f 92be 0e72 143f 7b46 f63e 81d5 5a3f
00000090: db3f b03c ef13 2f3e 8403 203e 0236 9a3f
000000a0: f6e7 b03f 4d63 e9be b029 c9bf b6a1 8dbf
000000b0: 30b9 f6be 179f 143f 2d42 7fbf 13a3 1cbf
000000c0: 12da 6dbf c69c 1fbe 63c3 2bbf 0717 6fbf
000000d0: 2838 84bf 38ec da3e 83fd b53d 8432 f0be
000000e0: 7b10 a73d 0fc2 b73d 76fa 3e3f f32f e73c
000000f0: 2bea c6be 6087 02bf 4c76 003f 8fea c1bf
00000100: 74cb 88bf 2460 133f 109f b73f 687d 6f3f
00000110: c68b 67bf d9f8 82be ea7b 133d ab58 963f
00000120: 3c19 b7bf 075c 6c3f 4272 0dbd 85f3 d93e
00000130: a655 b0be a35f 86bf f07b 783e fcc3 9ebe
00000140: e296 e2bf 0a74 f9be a252 673f 177d 31bf
00000150: 8fd3 513f 8d06 86bd 89dd b63e ed8e a13f
00000160: dfda e83e 658e 393f ce98 b53f 67e8 bb3f
00000170: 9cbc 68bf 9a6e 0f3f f09a c3bf c5f8 253f
00000180: ff00 9b3f d8e9 593f 07b2 4ebc 8cda 953f
00000190: 90c9 7cbf 2b64 d8be c0c7 d63e 7510 1b40
000001a0: 794c 6b3f 7da8 aa3f 64f6 c43e e9d8 82be
000001b0: cec1 973f 136d 343e 8b67 bcbd 9732 e8bf
000001c0: 7259 153e 7d94 46bf c940 01c0 5271 c53f
000001d0: efb8 993f bf3f c5be a747 e1bf 8356 88be
000001e0: 85a5 503e 79cb f83e 9eba c1be 1586 b9bf
000001f0: ecbb 4bbf 81f5 6e3f 82e7 bcbf abfd 7abe
0.87090325 1.1833781 0.3429677 -1.3967767 1.4176279 -0.6750041 -0.07909828 -1.1296941
-1.002087 0.884803 -2.0157175 0.032210145 -1.170252 -0.6288722 0.35969704 1.1115373
0.02919252 -1.0287269 0.1325 0.24268155 0.43130177 0.16701446 0.5785418 0.6205043
1.5310408 0.3381302 -0.073918425 -1.9537057 -0.0010101278 0.42043278 0.8565422 0.75985575
-0.28563732 0.57986534 0.48100647 0.8548203 0.021514824 0.17097448 0.15626341 1.2047732
1.3820789 -0.45583573 -1.5715847 -1.1064975 -0.48188162 0.5805525 -0.9971035 -0.6118633
-0.92910874 -0.15587148 -0.6709501 -0.9339451 -1.0329638 0.42758346 0.08886244 -0.4691354
0.0815744 0.089725606 0.74600923 0.028221106 -0.3885053 -0.50987816 0.50180507 -1.5149707
-1.0687089 0.57568574 1.4345417 0.9355073 -0.9044765 -0.2558048 0.036006846 1.1745809
-1.4304576 0.9232792 -0.034532793 0.42568603 -0.34440345 -1.0497936 0.24266028 -0.310089
-1.7702296 -0.48721343 0.9036046 -0.69331497 0.8196344 -0.06544218 0.35715893 1.2621742
0.45479485 0.724829 1.4187257 1.4680299 -0.90912795 0.5602814 -1.5281658 0.6483272
1.2109679 0.8512244 -0.012615687 1.170732 -0.9874506 -0.42263922 0.41949272 2.4228795
0.91913563 1.3332669 0.3846923 -0.25556114 1.185602 0.17619734 -0.09199437 -1.8140439
0.14584902 -0.77570325 -2.0195792 1.5425208 1.2009562 -0.38525197 -1.7599992 -0.26628503
0.2037564 0.48592737 -0.3783769 -1.4494044 -0.7958362 0.9334336 -1.475815 -0.24510829

in_proj_weight f4 [96, 32]
00000000: 8e13 a1bd 062d 0d3e 0ad3 1cbe 6d1f 2b3e
00000010: c95c 7a3c f002 05be d1ea 2ebd 1c02 2bbe
00000020: 332c 15be c325 1e3d 356e bc3d be37 2ebe
00000030: 7ca2 003d ceff 073d 0623 24be ff93 813d
00000040: c72b 2e3d bf86 13be 38d4 8b3d fed0 1ebe
00000050: c03d 4ebc f7f9 ba3d 9188 78bd 2472 5b3e
00000060: c440 4abd 9f07 69be f767 49be 7c42 833d
00000070: b08c 14bc 3482 693d 762f 303e c054 4c3e
00000080: bde1 fe3d af95 193e 29d2 3d3e 08c8 cb3d
00000090: 4488 34be ed83 44be bf8d 083e 75d1 6bbc
000000a0: 24d6 6dbd b0eb 8b3d d354 463e 8316 233c
000000b0: 9051 f43d 38b6 5ebe 5422 1c3e 4a97 573e
000000c0: 5432 653e fd7c c1bd c932 663e f0e6 623e
000000d0: 72c1 203e 15d7 023d 9b2a 77bd 3229 24bb
000000e0: a0c7 13be 23c3 503e 2a12 ab3d 9005 d1bd
000000f0: d5de 16be 1357 50be 0ff0 073e 4775 97bd
00000100: 3a8e 243b af7e cb3d 3058 4d3e 83d9 2ebe
00000110: 3e47 60be 5f7e 8ebd e8ed ddbc 72fc e4bd
00000120: 9e5f 743b 6fd3 f2bd 91a8 b43d 636a f8bd
00000130: b2ce 603a f5b6 563d db76 933d 1146 15bc
00000140: ac82 2ebd d951 2c3e 1ca6 1abd 6d13 0e3e
00000150: a47f 3abe 0619 173e 9854 303e 183c 42be
00000160: 9ec4 163e 83b5 ccbd 2bce 32bd 3207 33be
00000170: c97b 8bbd fe6b 7f3d d1ed 9f3d bfdb f43d
00000180: 38d1 293d ef54 423d 5162 6bbd 6cb0 8d3d
00000190: 78c4 af3d e632 2abe 237b 85bc a0c1 583e
000001a0: e295 053e da61 20be 2c28 d43c 01ee 51be
000001b0: fed1 60bd b6ab 5fbe 52ad 34be 7278 4abe
000001c0: 99ea 9abd d861 ab3d 7f32 0f3e dd44 0b3d
000001d0: 04f3 8a3c 7199 10be 74cf 0ebd 8b18 2c3e
000001e0: a2df a5bd 7094 45be 4099 333e 9190 15be
000001f0: 374d 0bbe 24fd 463e 59e2 4d3e 442d 393e
00000200: 8f30 2abe 6f0d 0ebe 9878 df3c 8ef2 193e
00000210: 7528 f13c a9c9 16bd f793 143e a647 5fbd
00000220: ba9e 193e 9c82 82bd 5289 02be e618 0c3e
00000230: 9165 8e3c d42d 2bbe 537e ddbd e813 51be
00000240: 224b 823d 1f43 54be 50b9 4b3d 8f6e aebd
00000250: e545 cebd 86ba 0abe 0dbc dcbd cb49 d0bd
00000260: 3cb9 f8bd 7c98 8ebb 92f9 ddbb 8880 2ebe
00000270: 440b abbb 8911 233e 989e 3cb9 90ab 29be
00000280: 0dee 07be 1cbe 973d 06d2 143e 3a00 a03d
00000290: 0cf9 403e 0f28 29be d622 51bc 4264 eebd
000002a0: fa4b 26be a990 c23d cf16 33bd bf0f 4d3e
000002b0: 621c 3bbd e349 3c3e c29f 0dbe bef6 7f3b
000002c0: fca6 593e 2a15 21be d556 16bd 1b33 a5bd
000002d0: 876e 9d3c f736 7abc 30fb 583c c07e 483e
000002e0: 4500 513e 7441 27be a289 13bc 5c4f 2ebe
000002f0: 5be8 0abe ef13 4c3d cb90 eebc bb5d 803d
00000300: c589 143e d2b0 65bd bf20 3dbd 19a6 d6bd
00000310: d9f5 36be a48a 953c ffe5 3a3c 0a6f 31be
00000320: 5e99 5b3e 433b 11be bc3f 3d3e 6be8 78bb
00000330: 5dbd 853d 72fa 5dbe 9296 4d3e 0e88 f13d
00000340: 4c04 c9bd d18f 61bd b3ef 253e 80dd c93d
00000350: e444 50bd 80ac 57be e606 46be 2bc2 1a3e
00000360: ca60 d23d 8f98 473e 7ebc de3c bf96 b4bd
00000370: aaf2 19be 51f3 4cbd eaa6 88bd dabe c9bd
00000380: 58c6 10be 3626 d33d bd6d df3d e907 363e
00000390: da70 1f3e 3ddc 113e df95 4e3e 5d22 ecbb
000003a0: 9660 09be 228f 083e 33ac b03b 674a 583b
000003b0: d517 1f3e fc7e a2bd 3cef a03c 6620 e0bd
000003c0: e746 c23d 46ef 0abe 3fec 1a3c f9b5 373e
000003d0: 8417 2f3e 73a0 42be 6507 66be b6a5 433e
000003e0: fdcf 69be 53aa 203e ff0c 5bbe 070d a6bd
000003f0: 5293 373e 81f2 893d 9b87 f63d 9380 8f3c
-0.07865058 0.13786706 -0.1531488 0.16711207 0.015280911 -0.12989402 -0.042704407 -0.16700023
-0.14567642 0.03861023 0.09200708 -0.17013451 0.031404957 0.03320294 -0.16028985 0.06327056
0.042522218 -0.1440687 0.06827587 -0.15509412 -0.012587965 0.09129708 -0.060677115 0.2143026
-0.04937817 -0.22756813 -0.19668566 0.06409165 -0.009066746 0.057008937 0.17205605 0.19954205
0.124454 0.14998506 0.18537201 0.09950262 -0.17630106 -0.1919095 0.13335322 -0.0143932
-0.05806555 0.06832063 0.19368295 0.009954098 0.11929619 -0.21749198 0.1524747 0.21053806
0.2238248 -0.09447668 0.2248031 0.22158408 0.15698794 0.0319434 -0.060343366 -0.0025048968
-0.1443162 0.20386939 0.08353074 -0.10206139 -0.14733441 -0.20345716 0.13275169 -0.07395416
0.0025109188 0.09936272 0.20053172 -0.17075162 -0.21902177 -0.06957697 -0.027090982 -0.111809626
0.0037288438 -0.11856734 0.08821214 -0.12129667 0.0008575722 0.052420575 0.07200404 -0.009110943
-0.042605087 0.16828097 -0.03775607 0.13874598 -0.18212754 0.1475564 0.1721977 -0.18968236
0.14723441 -0.09995558 -0.04365365 -0.17483214 -0.068107195 0.06235885 0.07809032 0.11955976
0.041459292 0.04744428 -0.05746681 0.069184154 0.08582395 -0.16620979 -0.016294068 0.21167612
0.13045457 -0.15662327 0.025898062 -0.20500948 -0.054887764 -0.21842846 -0.17644241 -0.19772509
-0.07564277 0.083682716 0.13984106 0.03400122 0.016961582 -0.14121033 -0.03486581 0.16806237
-0.08099295 -0.19294906 0.17538929 -0.14605929 -0.13603674 0.19432503 0.20105876 0.18083674
-0.16620086 -0.13872312 0.027279183 0.15033934 0.029438237 -0.03681341 0.14509569 -0.05451169
0.15001956 -0.06372568 -0.12747696 0.13681373 0.017382415 -0.16716701 -0.1081511 -0.2041775
0.06361987 -0.2072873 0.049737275 -0.08517181 -0.10071925 -0.13547716 -0.10778055 -0.10170325
-0.12144706 -0.0043516736 -0.006774136 -0.17041218 -0.005219849 0.15924658 -0.00017988158 -0.16569352
-0.13274403 0.07409307 0.14533243 0.07812543 0.18845004 -0.16519187 -0.012764653 -0.116402164
-0.1623992 0.09500248 -0.043722924 0.20025538 -0.045681365 0.1838756 -0.13830474 0.0039056982
0.21255106 -0.1573073 -0.036703903 -0.08066388 0.019217743 -0.015271894 0.0132434815 0.19579601
0.20410259 -0.16333562 -0.009004982 -0.1702246 -0.13565199 0.049823698 -0.029121777 0.06267878
0.1450568 -0.056076832 -0.046173807 -0.10480899 -0.17867221 0.018254586 0.011407374 -0.17327514
0.21445224 -0.14182763 0.18481344 -0.0037980329 0.06530259 -0.21677569 0.2007697 0.117935285
-0.09815273 -0.055068795 0.16204719 0.09856701 -0.05084695 -0.21061897 -0.19338569 0.15113132
0.10272367 0.1949179 0.02718949 -0.08817815 -0.15033975 -0.050036732 -0.06672461 -0.09850855
-0.14138162 0.103100225 0.10909603 0.17776455 0.15570393 0.1424417 0.20174359 -0.007206245
-0.13415751 0.13335851 0.0053916215 0.0033003332 0.15536435 -0.079343766 0.019645326 -0.109436795
0.0948618 -0.13567838 0.0094557395 0.17940511 0.17098814 -0.19006519 -0.22463758 0.19106182
-0.22833247 0.15689974 -0.21391676 -0.081079535 0.17927292 0.06735707 0.120375834 0.017517364

in_proj_bias f4 [96]
00000000: d5ff a7bc 57ad b5bc cd55 0dbc 3f67 c4bb
00000010: 3df1 9f3c 9eaa 0e3c fef0 1bbc 7ce6 d5bc
00000020: 7ff2 f4bc a56c 193d 656b 31bc 24db c4bc
00000030: 0f5c babb 3514 0dbd db97 193c dcb5 0c3d
00000040: cdb6 273d bb2f 4e3d 5587 1bbb cc1e 14bd
00000050: 93e9 223c 17e7 623c cb50 38bb ecce 6d3a
00000060: 254a f23b d26d 78bc 8b21 2cbc 2e36 f4bc
00000070: 25a7 263d f885 ec3c c6b1 34bd 3dc7 e9bc
00000080: ab9f 47b6 11c9 1c37 5574 e336 ba9f 64b7
00000090: a87d bd36 2208 a7b5 b04a 1b37 8401 6836
000000a0: 30d5 9cb6 bfba dd35 9fbb 0b34 2bbc 19b7
000000b0: c856 c1b5 c7e6 1236 6b43 4d36 1d9f 8737
000000c0: cc39 b035 8e1a 3237 858f 0bb6 70d5 ec36
000000d0: 0f7f c2b6 63f1 0635 2cf1 aeb7 91f6 30b7
000000e0: 0e5c a836 163c 93b6 9b07 e536 ca67 b835
000000f0: d52a 8536 6cd9 72b4 be27 6236 9161 99b6
00000100: 9f70 c43c a0c0 91bc 7658 0cbd 5657 2a3c
00000110: c906 aa3b 7872 373b 201a fbbc 7168 e03c
00000120: 1646 b2bc b80b a0bc 11b1 dbbc 9ecc 193d
00000130: c082 c5bc 1932 aebc 1d4f 0c3d d385 de3b
00000140: e111 91bb db1e 433d 70df 22bd c42c 9e3c
00000150: fb0a c13b 4052 893b deca d63c 0ec6 edb9
00000160: 8daa 0bbd f8aa 053d 47d0 21bd 8e0a cb3c
00000170: a9fc 98bc f857 f33c 147f 2a3d 85fe fc3c
-0.020507732 -0.022177381 -0.0086264135 -0.005993753 0.019524211 0.0087076705 -0.009517906 -0.02611088
-0.029900787 0.037457127 -0.0108288275 -0.024030276 -0.005687244 -0.0344431 0.009374584 0.034353122
0.040945817 0.050338488 -0.0023731787 -0.036162183 0.009943384 0.013849041 -0.0028124328 0.0009071666
0.0073940926 -0.015162902 -0.010506044 -0.029810991 0.040686745 0.028872475 -0.04411485 -0.028537387
-2.974625e-06 9.345139e-06 6.77867e-06 -1.3627048e-05 5.6472672e-06 -1.2444837e-06 9.2561095e-06 3.4571576e-06
-4.6739806e-06 1.6520133e-06 1.301364e-07 -9.163322e-06 -1.4404877e-06 2.1890025e-06 3.0586623e-06 1.6167347e-05
1.3129843e-06 1.06158095e-05 -2.0796153e-06 7.0581955e-06 -5.796442e-06 5.0270154e-07 -2.085472e-05 -1.0547826e-05
5.0175067e-06 -4.3879363e-06 6.825617e-06 1.3739275e-06 3.968695e-06 -2.2617104e-07 3.3699757e-06 -4.5711135e-06
0.023979483 -0.017792046 -0.03426405 0.010396799 0.005188797 0.0027991813 -0.030652106 0.027393552
-0.021761935 -0.019536838 -0.02681783 0.037548654 -0.024110198 -0.021264123 0.034255136 0.0067908554
-0.00442718 0.047636848 -0.039763868 0.019308455 0.0058912016 0.004190713 0.026219781 -0.00045351725
-0.034098197 0.03263375 -0.03950527 0.024785306 -0.018675165 0.029705033 0.041625097 0.030883083

weight f4 [32, 32]
00000000: a009 1bbd 5548 49be f1f4 9d3d 7530 3d3e
00000010: ee0e 9fbe 02a6 2a3e 4e49 18be d338 bbbd
00000020: a3d5 67be 0e3c 0e3e a419 fa3d c1dc 8c3e
00000030: 148f 5bbe ea19 84bd c0ed 8d3e f880 6cbe
00000040: eea6 69be 7c54 9a3e 9047 9ebe 1599 ccbd
00000050: 1f07 38be be7f 05bd afa7 c0bd 0088 48be
00000060: 96d2 88bc 7b09 953e 3c17 8d3d 8ccd 9e3e
00000070: a56e 80bd 913d 67be 0bb1 65be dfce cdbd
00000080: 5dc3 873e bf80 593e 9e9d 5dbe 1792 d3bd
00000090: bcdb debc 3b88 66bd 1172 573e b7c9 803e
000000a0: 8e07 7f3e f06c d73d 242b 5bbd 593c 2b3e
000000b0: f044 9fbe 81b9 e03d 0dcb 203e d4a9 0b3e
000000c0: d60b 633d afde 69bd 4977 91be 1c5a 8bbb
000000d0: 6d14 68bd 12bd df3c d103 08be b244 51be
000000e0: 6afb 83be 5278 2c3e f00d 853c ad2e 88bc
000000f0: 4a2b 95bd c0c3 26be a64a e83d 06b0 fb3d
00000100: 8aea c0bd 0888 8bbd dc82 3dbe c41a 963e
00000110: d770 87be aedf f13d 85dc 423e 1e63 eabd
00000120: f52e 3ebe 9bac 3b3e ee36 8dbd 7ba4 393e
00000130: e277 033e 8f9f b83d 4cd1 843d b91f be3d
00000140: 19d7 52be 7e00 ec3d c418 a3be 4ba9 39be
00000150: 5d7f 673e 2b78 303e f7cd a43d 7213 26bd
00000160: fa48 ce3c 01de e9bd 2751 19bd 1002 1b3e
00000170: e568 123e 9144 883e f705 b9bd d99a 24be
00000180: f4c7 cdbd 8bf7 d2bd 389f 153e 2f30 9cbd
00000190: 2466 42be 6815 483e 0d50 2a3e 064d 543d
000001a0: e6c9 993e 9911 5b3e b37a 6cbe ac2e a4bd
000001b0: f27b 8e3e 57df 533e c16b 20bd 178c 313d
000001c0: 950b 48be 6828 4fbe 7368 56be 60e1 88bd
000001d0: 8a66 97be 4873 28be 5df0 80be ea60 7e3d
000001e0: afb8 ab3e 03f2 573e 3f02 963e ab8c 853e
000001f0: 61e5 5d3e dee7 a4be 6fa4 25be 17b8 34bd
00000200: 5a02 36be 1079 003c e436 3abd 2573 e93c
00000210: 0f09 2ebe 4216 8ebe f197 a2bd 94f8 12be
00000220: 9a1b 75bd 0e03 26bc 7b85 383e 9180 07bd
00000230: 8ee9 31be 4942 f7bc a4d4 67be ee0d d9bd
00000240: 348a 63bd 49f0 4a3e b49d dd3d bad3 9c3e
00000250: 6b72 03be ce7f 6bbe 7d2e a13e 0d7f 653e
00000260: ce95 923e f636 4a3e 2c5d 183e 9f0d 253e
00000270: 2d7e 97be ab20 01ba 3e52 11bd 5471 4abe
00000280: 2a8d 8dbd 7795 cd3d b71f 77be c17d 75be
00000290: 2aed 093e 529d cd3d 9ad6 7cbe c8b9 183e
000002a0: e7de 5e3e ad7e 0e3d bd81 58be 9d50 0ebe
000002b0: 49b6 00bd 1f90 ab3d 0b45 90bd 6459 3abd
000002c0: 9465 a5bd 549d a73d 3576 153e aaad 263e
000002d0: a6cc 18be 4cd3 3bbe 4486 57be 42cb 973e
000002e0: e210 9fbe 3871 963d 37ec 86bd 98a9 a03e
000002f0: 496f 893e 01a5 893e 03a2 36be 498c 863e
00000300: 2f4e 80bd a849 1b3d 2b6e 2d3e 03fd 043e
00000310: 2633 63be 9cd6 29bd 327e a13e 6d16 83bd
00000320: e182 aa3e 9001 58be 78ee 1a3e 5e1e 8cbe
00000330: 22e0 20be 5e74 3fbe be26 6bbe b10c 97bd
00000340: 7548 883e 8f41 b3be fbb6 043a 4238 3abe
00000350: 567b db3d 020e 7d3d fab0 823d 2556 343e
00000360: f1ba 5f3e c4cb 17be ff96 623e 1027 a2be
00000370: 2001 d23d 6e7d 393e 76cf 8e3d c174 1d3e
00000380: 2130 82be 68c6 91be dd86 a6be b537 733e
00000390: 8049 59bd 5d5a 9fbc a1a7 233d 78d6 55be
000003a0: 691d 743e d720 8f3c aa17 a7be d15d 60be
000003b0: c258 aabe e809 1dbe 952f 58be eb4f 68be
000003c0: 7fbc 80bc 3752 eb3c 228c 9bbe 6fd2 283e
000003d0: 0f46 2dbe ccf8 2f3e 035b 57be 4071 3a3d
000003e0: 0112 813e 42e9 0a3e f0bf cc3d 4d8c f23d
000003f0: d6bb 20be d264 a7bd 12d0 943e bd8f a43d
-0.037850976 -0.19656499 0.077127345 0.18475516 -0.31066078 0.1666489 -0.14871714 -0.09141698
-0.2264009 0.13890097 0.12211922 0.27512172 -0.21441299 -0.06450255 0.2772045 -0.23096073
-0.22817585 0.3014258 -0.30913973 -0.099901356 -0.17971466 -0.032592528 -0.09406983 -0.1958313
-0.016701978 0.29108796 0.06889197 0.31016195 -0.06271104 -0.2258208 -0.22430818 -0.10049223
0.26516238 0.21240519 -0.21642157 -0.10330599 -0.027204387 -0.056282263 0.21039607 0.25153896
0.24905226 0.10518825 -0.05350794 0.1672224 -0.31107283 0.10972882 0.15702458 0.13639003
0.05543121 -0.057097133 -0.2841132 -0.0042526852 -0.056660105 0.027311835 -0.13282706 -0.20436361
-0.2577775 0.16842774 0.016241997 -0.01662382 -0.07283647 -0.1628561 0.11342363 0.12289433
-0.09419735 -0.06813055 -0.1850695 0.29317296 -0.26453277 0.11810242 0.19029434 -0.11444686
-0.185726 0.18327563 -0.06895243 0.1812915 0.128387 0.090148084 0.06485233 0.09283394
-0.20589866 0.115235314 -0.31854832 -0.18130986 0.22607179 0.1723334 0.08047097 -0.04054589
0.025181282 -0.11419297 -0.03743091 0.15137506 0.14297827 0.26614812 -0.09034341 -0.16074695
-0.10047904 -0.10301121 0.14611518 -0.07626378 -0.18984276 0.19539416 0.166321 0.051831268
0.3003685 0.21393432 -0.23093681 -0.080167145 0.27828938 0.20690666 -0.039165262 0.04334649
-0.19535668 -0.20230258 -0.20938282 -0.06683612 -0.2957042 -0.16450226 -0.25183383 0.062104143
0.3353934 0.21088414 0.2929859 0.26083884 0.21669532 -0.3220815 -0.16176008 -0.044120874
-0.17774335 0.007841364 -0.045462504 0.028497288 -0.16995643 -0.27751356 -0.07939137 -0.14352638
-0.059840776 -0.010132564 0.18019669 -0.033081595 -0.1737425 -0.030182974 -0.2263971 -0.1059836
-0.055551723 0.19818224 0.10821095 0.30630285 -0.12836616 -0.22997972 0.3148078 0.22411747
0.28629917 0.19747528 0.14879292 0.16118477 -0.29588452 -0.00049258274 -0.035478823 -0.19769794
-0.069116905 0.10038274 -0.24133192 -0.23973753 0.13469377 0.10039772 -0.24691239 0.1491462
0.21764718 0.034788776 -0.21143241 -0.13897939 -0.03142384 0.08377098 -0.07044419 -0.045495406
-0.08076015 0.08184305 0.14595874 0.16277185 -0.14921817 -0.18342322 -0.21047312 0.2964726
-0.31067568 0.073458135 -0.06588023 0.3137939 0.26842716 0.268837 -0.1783524 0.26278904
-0.06264912 0.03791204 0.16936557 0.12987141 -0.2218748 -0.041464433 0.31541592 -0.06400762
0.33302978 -0.21094346 0.15130031 -0.27366918 -0.157105 -0.18696734 -0.22963998 -0.073754676
0.2661778 -0.35010955 0.00050626666 -0.18185523 0.10716884 0.061780937 0.06381412 0.17610987
0.21848656 -0.14823824 0.22127913 -0.31670427 0.10254121 0.18114254 0.06973164 0.1537657
-0.25427344 -0.28471684 -0.32524768 0.2375172 -0.05304861 -0.019452268 0.039954785 -0.20882595
0.23839344 0.017471714 -0.32635242 -0.21910788 -0.33270842 -0.1533581 -0.21111901 -0.22686736
-0.015714882 0.028725727 -0.3038035 0.16486524 -0.16921256 0.17184752 -0.21030812 0.04551816
0.25209048 0.13565543 0.09997547 0.118431665 -0.15696654 -0.08173527 0.29064995 0.080352284

bias f4 [32]
00000000: d869 0d3d d7ea 023d a77f 323d d6eb fcbc
00000010: 5d37 5f3c b78e 5b3c 4e73 14bd c1d9 fa3c
00000020: e3af eb3c 54c6 9bbc feed d3bc 84d3 f8bc
00000030: 03b9 123d a3fb 1c3c c5be 78bc 93ff 0abd
00000040: 5083 afb9 5380 7abc 2fbc d33b 1c19 05bc
00000050: ece4 12bd 3072 553c da59 b23c 4e8d 11bd
00000060: ad46 403c f8da 25bd e9aa 0f3d 63c2 27bd
00000070: 7178 ccbc 6c2f 22bd 7005 133d af06 79ba
0.03452477 0.031962242 0.04357877 -0.030874174 0.0136240395 0.013400725 -0.036242776 0.030621411
0.028770393 -0.019015469 -0.02587032 -0.030374296 0.035820972 0.009581479 -0.015182202 -0.03393514
-0.00033476437 -0.015289384 0.006461642 -0.008123662 -0.03586285 0.013027713 0.02177136 -0.03553515
0.0117356 -0.040492028 0.035075102 -0.040956866 -0.024959775 -0.039596006 0.035893857 -0.0009499592

weight f4 [128, 32]
00000000: 5e38 293e 07cc 00be b7b8 423e 2d7c 66be
00000010: da8a 7f3d 651e 9abb bcef 43bd bfcc 173e
00000020: b29d e13c 7a00 0b3d 7e96 df3d 1451 07be
00000030: da9e 0bbe 1cfa 6cbd b707 1cbe ecff 0cbd
00000040: 068c 83bd 4997 16be eefb 7e3d f583 ffbd
00000050: 862b 013e 3ab3 dcbd b087 1e3d 4102 33bb
00000060: 8b65 0b3e ee17 94bd 2aed 01be 394c 0abc
00000070: c077 ea3d ff3c d4bd 93c3 c5bb dda5 7cbc
00000080: 5b79 d13d b2c4 1fbd c3f2 2f3e 2fca 4f3c
00000090: e8da e73d 2278 093e 14aa 643d 447d 10bd
000000a0: 9511 a63d daa8 333d b5cf a2bc b6b1 283e
000000b0: 015a 1c3d 105a 6dbd 85fe e03d ab77 373e
000000c0: 2b1c 2bbe 6096 2abd 8271 1abe f124 27bd
000000d0: 4745 513d 3521 7f3d 49eb 09bd 93b3 c9bc
000000e0: e6b4 e33d 82fa 373e 9a8b 923c 32bd c33d
000000f0: 2092 a33a 53e8 c13d 2ac3 053d b60b 0ebe
00000100: 4df3 11be 20a3 c5bc bf15 2ebe 4236 963b
00000110: 1f0f f13d 3fed 573e 201b 90bc 70f9 be3d
00000120: 197d bd3c f0f2 9cbd 41fc 91bd 80ba 29bd
00000130: 17a8 e5bd 0bb9 f23d 9a21 12be 4b93 0dbd
00000140: c40d c23d 3cf8 b7bc 196e c6bd f853 1f3e
00000150: 0bf6 293e b37b 1c3e 9e1e 9a3d cd23 363d
00000160: 9fa7 35bd b3e1 3cbd 4f3f 183e 1afe 813d
00000170: 14ae 03be 5ae5 033e 895f 2fbd 1137 e73d
00000180: a814 2c3d 2bc0 25bd 4299 53bd bfc8 c3bd
00000190: d660 d1bc 54ba 893d d980 193d a85b 57bd
000001a0: 9dde 723d 60a1 fabd 53ba 3fbd f528 053d
000001b0: 7dbe 4ebe f03c f0bd 27b0 8bbd 8557 6abd
000001c0: 305d 323e 2a30 ecbd d677 47be 796c 7b3c
000001d0: 1df0 d93a cc36 28bc 3dc4 eb3d c36a 263e
000001e0: 080f e8bc 688f 5abe b64e 15be e1ec 41be
000001f0: 7891 1cbd 10a0 d03d 218d 0bbe 3501 13be
00000200: 8e7c 19be 06c3 4a3d a3f8 64bd dc56 18bd
00000210: 0055 1a3e b9ae b43d b243 0bbe 6ff0 39be
00000220: 6913 bf3c 31e8 9d3d 8a94 b43d ef70 91bc
00000230: b115 21bc ed29 2a3e 77c5 7d3b 4492 493e
00000240: 2926 43bd e63a b13d b8d9 b43d fe96 29be
00000250: 0111 253d 56f6 10bd a817 dcbd 940a 13be
00000260: 82ca 803d 71e5 133e 3b8c 6d3d 5c32 c43d
00000270: 3423 68bd 3658 dbbd 9a3d a9ba 25ad a4bd
00000280: acc4 593e 54d1 d4bd d41c 1fbe 3f2e a33c
00000290: 82bc cebd fb08 623e 59e7 a03d 9efe 333e
000002a0: 26af dabd 4a0a 82bd 7acd 31bd 8787 fcbd
000002b0: 7102 533e 157e 97bd 97eb ca3d 8ccf 9fbd
000002c0: 25c7 0bbe 9eb7 4abe b8c5 edbc c30b 2fbe
000002d0: f7fb 02be 8ff3 99bd ee07 bebd 31c2 24bd
000002e0: 3ea6 243e 59d5 c03d 4846 09bd 672d 9abd
000002f0: 9fae 3abc 3cc3 413e c174 b13d 6a2f 6a3d
00000300: 2025 703e 0858 9c3d c42c 343d ce60 eabd
00000310: fa8a 8dbd 51df 0bbd a29f 51be 0d7c babd
00000320: f544 283e 2e75 a93d c5b7 16bd 8ff0 22bd
00000330: 8de4 c33d 54ff 5c3e 89bc 143e 172f bfbc
00000340: a1fb 1c3e bc33 613b b73d 2e3d 894a 8bbd
00000350: 4660 e03d 74fd 703e 2643 17be cda7 6dbe
00000360: c7ba 27bd 6401 05bd 1867 703e 0a67 bcbd
00000370: 40a5 39be 0f0e 34be d3b4 f6bc 87a6 6bbe
00000380: e22a bb3c e32b 463e 1c1d 463d a233 37be
00000390: 00b9 443d aa89 5c3e 517d d93d 3bd4 ef3c
000003a0: 1a8c 503d be7c 24be c588 46be 5c1e f9bd
000003b0: 2285 55bd 25a3 363a 272b 35be 1679 60bd
000003c0: 5a53 a73d 8fd5 05bd 8f0f 99bd ab4a a33d
000003d0: f7ba 58be d7d4 2c3e c55f 11bd 426d 263e
000003e0: a730 233e 481c c13d c616 283e 77dd e83d
000003f0: b1aa 70bc e55f a3bd 398b c1bc b0a6 e8bd
0.16525409 -0.1257783 0.19015776 -0.22508307 0.06238828 -0.0047033303 -0.04783605 0.14824198
0.027541015 0.033936 0.10917376 -0.13214523 -0.13634816 -0.05785571 -0.15237318 -0.034423754
-0.06423192 -0.14706148 0.062251978 -0.12476341 0.12614259 -0.10776372 0.03870362 -0.0027314576
0.13612954 -0.07231127 -0.12688127 -0.008441024 0.11448622 -0.103631966 -0.006035277 -0.015420404
0.10228225 -0.039005943 0.1718245 0.012682482 0.1132105 0.13424733 0.05582626 -0.035275713
0.08108822 0.0438622 -0.019874433 0.16474041 0.038171772 -0.05794722 0.10986046 0.17916743
-0.16709964 -0.041647315 -0.15082362 -0.040806714 0.05109146 0.062287528 -0.03367165 -0.02462176
0.11118488 0.17966655 0.017888833 0.095575705 0.0012479462 0.094681405 0.032656826 -0.13871655
-0.14252968 -0.024125636 -0.17000483 0.0045841048 0.11770462 0.21086596 -0.01759106 0.0932492
0.02313094 -0.07663524 -0.07128192 -0.041437626 -0.11213701 0.118517004 -0.1427063 -0.034564298
0.09475282 -0.022457235 -0.09688968 0.15559375 0.16597764 0.15281563 0.07525371 0.044467736
-0.04434931 -0.04611368 0.148679 0.06347294 -0.12859374 0.1288046 -0.04281572 0.112898
0.042011887 -0.04046647 -0.05165983 -0.09559774 -0.02555887 0.067249924 0.037476394 -0.052577645
0.05929433 -0.12237811 -0.046808552 0.032509763 -0.20189853 -0.11730373 -0.06820708 -0.05721237
0.1741836 -0.11532624 -0.19479308 0.015345686 0.0016627345 -0.010266971 0.11512039 0.16251664
-0.02832748 -0.21343768 -0.14580807 -0.18938018 -0.038224667 0.101867795 -0.13628055 -0.14355929
-0.1498892 0.049502395 -0.05590118 -0.03719221 0.15071487 0.08822388 -0.13600042 -0.18158124
0.023324685 0.077103026 0.08817394 -0.017754046 -0.009831832 0.16617556 0.0038722435 0.19684702
-0.047643814 0.08653812 0.08830589 -0.16561505 0.04029942 -0.035391174 -0.107466996 -0.14359504
0.06288625 0.14442994 0.057995062 0.09579918 -0.056674197 -0.10710184 -0.0012912035 -0.08040837
0.2126643 -0.10391489 -0.15538341 0.019919513 -0.10094549 0.22073738 0.07856626 0.17577597
-0.10677938 -0.06349619 -0.04340885 -0.12330537 0.206064 -0.07397095 0.099082164 -0.07803258
-0.13650186 -0.19796607 -0.029024944 -0.1709433 -0.1279143 -0.07517158 -0.09278856 -0.040224258
0.16079041 0.09415693 -0.03351429 -0.07528191 -0.011394172 0.18922132 0.08664847 0.057174124
0.23451662 0.07633978 0.043988004 -0.11444245 -0.06911273 -0.034148518 -0.20471051 -0.09105692
0.16432555 0.082743034 -0.03679635 -0.039780196 0.09565077 0.21581775 0.14525045 -0.023337884
0.15330364 0.0034363111 0.042539325 -0.06801326 0.10955863 0.23534185 -0.14771709 -0.23208542
-0.04094961 -0.03247203 0.23476827 -0.09199341 -0.18129444 -0.17583488 -0.03011552 -0.23012744
0.022847597 0.19352679 0.048367605 -0.1789079 0.048027992 0.2153689 0.10619605 0.029276004
0.05091486 -0.1606321 -0.19388111 -0.12163994 -0.05212892 0.00069670595 -0.17692243 -0.054802977
0.08170195 -0.03267437 -0.07473671 0.07973226 -0.21165071 0.16878067 -0.035491724 0.16252616
0.15936528 0.09429222 0.16414937 0.11370366 -0.0146891335 -0.07977275 -0.023625957 -0.11359918

bias f4 [128]
00000000: b6f1 703c 2cae d7bc f6a8 dbbc b430 223d
00000010: 2f1d e6bc 146f 1e3d 0c4c 2f3d 8440 ff3b
00000020: 8274 0abc 0019 b7bc e3e2 c6bc 0fa5 a7bc
00000030: c43b 743c 125e 963c 05e6 fe3c 7a5b 953c
00000040: 4a43 0c3b b319 e23c c83d 123d 7ce8 753b
00000050: 553a 403d 2eb4 233d 567f 37bc dd5b 143d
00000060: e2dc 083d a0be 24bc f1ce 3a3d 1412 6abc
00000070: 2b59 e3bb c9b1 833c e031 ce3c 7e5d cd3c
00000080: 2498 dc3c d9ee 81bb de68 eab9 824d 223d
00000090: 98a4 07bc 766a b03b abaf 72bc f1a8 263d
000000a0: 7816 323d fc2e 1b3d 76d8 a73c f66f 72bb
000000b0: 91be 1abc 5810 9fbb 0bae 693b 1341 78bb
000000c0: a3e0 fe3c 6b2c 83bc 9516 73bc 9c5c c4bc
000000d0: a14f 8d3b 7ca4 b33c a356 ee3c 2938 d5bb
000000e0: 579b b1bb 4e85 6bbc 72e9 323d cc2c 003d
000000f0: aaae 56bc fe23 b33c a6b5 9dbc ac72 653d
00000100: 012f f93c f45c 203d 6358 093d 0739 f0bc
00000110: 976e 0d3d 8a30 afbc 96ff 35bc 619b 0f3d
00000120: 6b68 023d 9ac6 533d f04e c83c 502e 3f3d
00000130: 1bbb c0bc 8754 2dba 6ab3 993c 0cf9 fb3c
00000140: c218 d4bc 0185 803c abe1 aa3c 91df aaba
00000150: 0d19 963a ef55 393d 949e f6bc 5fcf fc3c
00000160: bc39 0e3d 4fdd 0f3d 88e3 e53c 66ab ce3c
00000170: 99cf a2ba c854 0a3d 5094 08bc 6577 293d
00000180: 03ac bf3c a8d5 5dbc b000 193d b649 cdbc
00000190: 9a20 80bc f118 bcbc 95d8 1f3d e645 3a3d
000001a0: 9526 063d 0710 c93c 0ad2 1f3d 9dfc af3b
000001b0: e888 ed3c 43dc 033d 55fd 98bc 35f5 043d
000001c0: 3e35 74bc 926f 923b 226f 0b3d 4aa9 a9bc
000001d0: 2a7c 5cbc d2a9 bebc 2c55 b33c 7dd8 1b3d
000001e0: b3f8 c13c f7e4 b2bc 6938 e7bc 2248 2d3d
000001f0: 04ed c23b fee4 d7bc d5d3 b43c d95f 22bc
0.014706066 -0.026328169 -0.026813965 0.03959723 -0.028090088 0.03868015 0.042797133 0.0077896733
-0.008450629 -0.022350788 -0.02427811 -0.020464448 0.014906827 0.018355403 0.031115541 0.018232096
0.0021402412 0.027600145 0.03570345 0.0037522605 0.04693063 0.039966755 -0.011199793 0.03622042
0.033413775 -0.010055214 0.04560751 -0.014286537 -0.00693812 0.016075986 0.025170267 0.025068995
0.026928015 -0.0039652404 -0.0004471009 0.0396247 -0.008278988 0.005383785 -0.01481239 0.04068846
0.04347846 0.037886605 0.020488959 -0.0036993003 -0.009444849 -0.0048542432 0.0035656716 -0.0037880584
0.031112975 -0.016012391 -0.014836927 -0.02396994 0.004312471 0.021929018 0.029094046 -0.006506939
-0.0054201293 -0.014375044 0.043679662 0.03129272 -0.013103167 0.021867748 -0.019251656 0.056017563
0.030417921 0.039151147 0.033531558 -0.029324068 0.034529295 -0.02138545 -0.0111083 0.03506029
0.031837862 0.051703073 0.024451703 0.046675026 -0.023526719 -0.0006612022 0.01876231 0.030758403
-0.025890712 0.015688421 0.02085956 -0.0013036599 0.0011451558 0.04524797 -0.030104913 0.030860601
0.03472303 0.035123166 0.028062597 0.025228214 -0.0012421488 0.03377226 -0.008336142 0.04137363
0.023397451 -0.013539709 0.03735417 -0.025059562 -0.015640546 -0.022961112 0.039024908 0.045476817
0.03275164 0.024543775 0.03901867 0.00537069 0.028995946 0.03219248 -0.018675486 0.03246041
-0.014905272 0.0044688666 0.03404153 -0.020710606 -0.013457337 -0.023274336 0.021891199 0.038048256
0.02367816 -0.021837695 -0.02822514 0.04230512 0.0059486646 -0.02635431 0.022073666 -0.009910547

weight f4 [32, 128]
00000000: c5a0 d13d 80bf 0abe 9fa0 78bd 3544 4fbc
00000010: 251d d1bd 8a7d b3bd 2a61 533e a44d 20be
00000020: 6e40 4e3e 5ae2 7cbd 3fe2 973d 2eb9 233d
00000030: 915f 433e 4850 453e 5175 3ebd 1606 983d
00000040: b6be a93c 08e6 ea3d de93 2a3e d147 85bd
00000050: aff7 0f3d e7ab 5a3e 1560 b2bd 6d66 403e
00000060: 5b3e 353e b1b5 1f3e 1e80 b43d 5bc3 d93d
00000070: cb7d 31bd a357 963d 2b0c 66bd 30dd 583e
00000080: 24fc 52bd 41a0 e53d 3bbc 163e b9d0 9ebc
00000090: 86ad 4d3d 7643 9e3d f4ba 38bd 83bc 6b3c
000000a0: a877 a8bd 7490 c9bd b64b c8bd acb8 9e3d
000000b0: aaa0 fdbd 1ad1 003e e651 c33d b565 2ebd
000000c0: 4cfa 1a3d 895c 15be 76f9 07be 504f 9b3d
000000d0: fbd9 8bbd e2c5 a43d 4208 0b3d 6f98 35bd
000000e0: f689 19bc 15d6 80bd 41c0 943d 7c40 33be
000000f0: 29f0 3d3e ff5d 15be 3b23 03be 8c8e 533e
00000100: aeb5 653d 52b0 f63d 9a2d 1c3e 4c1e 453e
00000110: cd21 3f3e 3a11 a7bd 6650 20be d079 0ebd
00000120: 09ef 363e 4bd8 7f3c 01a1 3a3e f798 f4bd
00000130: 7196 85bc b8ac 4ebd bd01 2a3e 84d0 8cbd
00000140: 3258 093e e2bc 0e3e 8e67 f53d 0fbc f3bd
00000150: 2457 8bbd ae50 a03d 1634 2d3c 7e14 e1bd
00000160: 7d6b be3d 264e e43d 6aa0 f63d 6c22 513e
00000170: 5db1 d1bd 8b84 18be 88bb 01bd 500d 3c3e
00000180: 4a48 f53c 1a41 bebd c124 443c cd13 1d3e
00000190: 34f9 a5bd 65cb f7ba fa05 0dbd a6df 97bd
000001a0: 6d00 f5bc bcec 533e 47fe dfbc 7e31 b13d
000001b0: e32a d03d 0b14 833d ed55 1bbe 14ce 05be
000001c0: 5711 1dbe 13c3 593e 1893 823d 86d1 13bd
000001d0: de5b 1abe ec25 9fbd fad0 8d3d 62f3 683e
000001e0: 3015 173d b2ec 223e c1c9 b63d 058f 5b3e
000001f0: d9f7 c53d 8af8 54bd 7718 6fbd 245d e53c
00000200: 6b7d 513e 6fed a0bd 7d6c 2e3e 67f9 4c3e
00000210: 23db bbbc fc7f 4c3e 4d7a 443e 303e a33c
00000220: 0c3d 11be 14c0 e9bd 65f2 393e 8de7 1fbe
00000230: 8c8a 07be c74a 493e 01dd 133e 0889 0e3e
00000240: 0087 a1bd 8559 7d3c 52db 533d 630b 243e
00000250: 036d ba3c e714 893d e774 5b3d 6d03 293e
00000260: 4c93 82ba bccb 29be f635 373e 783f 723d
00000270: 8ac5 26be 3157 08be 08e3 513e c440 d13d
00000280: c772 223a 98e9 f03d 9a73 553e d150 813d
00000290: 87f4 da3d 6d78 fb3d 3540 ae3d 1d3b 693e
000002a0: f633 093e 634a 333e 8b30 493e a607 20be
000002b0: 1109 373d 3be9 76bc 1769 073d f0bd 693c
000002c0: f9b3 f4bd 38fc 803d f817 e53c a690 8ebc
000002d0: 7781 ab3d 7cb0 bfbd a25e f43d 9914 46bd
000002e0: c694 efbc cd15 afbd 60ee 103d b4df 00be
000002f0: 43d0 45bd 88ba 363e 1e80 00be 1f6c 563e
00000300: 250d c4ba ced8 063e 12e6 423e d1ba 633c
00000310: 74db 18ba 89f4 c7bd adca 3f3d 1d48 5e3e
00000320: 86a1 00be 976d a4bd c086 0d3e 669e 6dbd
00000330: b133 3fbe bebb d13d 23a3 dcbd 8034 cb3d
00000340: 05dc f23d 3beb bb3c f6b0 e83d be46 fc3d
00000350: 601e 543e c905 e83d 3b12 86bd 3177 413e
00000360: 3280 523e 0c4f 323d 1c5c 1c3d 8c6d d8bd
00000370: 2503 03be e317 3b3e 06fe ebbd 10fe 0ebe
00000380: 3e11 ed3d 1c1a 70bd 4b0f 913d 3658 d1bd
00000390: 308d a13d 235a 0ebd 5e0d a1bc 2b77 4a3d
000003a0: a586 cbbc 4cbd 96bc 267f 773c 3531 323d
000003b0: 8c76 2b3e 2e2e 0bbe 9159 26be 496c 59bd
000003c0: 4999 243e 4e9b 99bd 9aee c73c 0bc1 4f3e
000003d0: d665 85bc ac88 1dbe 8b9a cb3c 9cff b23b
000003e0: 89cc 1bbd 1b1a a6bd 8e83 023c 0b3e 193e
000003f0: e006 a2bd ec0b a0bd bf40 dcbc f8f1 363d
0.102357425 -0.13549614 -0.060700055 -0.012650539 -0.10210637 -0.08764179 0.20642534 -0.15654618
0.20141765 -0.061739303 0.074162 0.039971523 0.19079424 0.19268906 -0.0464986 0.07423036
0.02072082 0.11469656 0.1665797 -0.065078385 0.03514832 0.21354638 -0.087097324 0.18789072
0.17699568 0.15596654 0.08813499 0.10632964 -0.043332856 0.07340934 -0.056163948 0.21178126
-0.05150999 0.11212207 0.14720242 -0.019386636 0.050214313 0.07727711 -0.045100167 0.014388206
-0.082259476 -0.09842005 -0.09780066 0.07750067 -0.1238416 0.12579766 0.09537105 -0.042577464
0.037836358 -0.1458608 -0.13278756 0.07583487 -0.06828686 0.08045556 0.033943422 -0.044334825
-0.009371271 -0.06290833 0.07263232 -0.17505068 0.18548645 -0.14586638 -0.12806408 0.20659846
0.056081466 0.12045349 0.1525177 0.19249839 0.18665238 -0.081575826 -0.1565567 -0.03478414
0.17864622 0.015615533 0.1822548 -0.11943238 -0.016307088 -0.050457686 0.16602226 -0.06875709
0.1341255 0.1393924 0.11982642 -0.11901104 -0.0680373 0.078278884 0.0105715 -0.10990237
0.092978455 0.11147718 0.12042315 0.20423287 -0.102389075 -0.14894311 -0.031672984 0.18364453
0.029941697 -0.09289761 0.011971653 0.15339585 -0.08104172 -0.0018905221 -0.034429528 -0.074157044
-0.02990743 0.20695776 -0.027342929 0.08652018 0.1016443 0.06400307 -0.15169497 -0.13066894
-0.15338646 0.21265821 0.06375712 -0.03608849 -0.15074107 -0.07770905 0.06924625 0.22749093
0.03688544 0.15910605 0.089252 0.21441276 0.09666414 -0.051994838 -0.05837294 0.027998514
0.20458 -0.07857787 0.17033572 0.20017014 -0.022931641 0.19970697 0.19187279 0.019927114
-0.14183444 -0.11413589 0.18158872 -0.15615673 -0.13236445 0.19657432 0.14439775 0.13919461
-0.07887077 0.015463238 0.051722832 0.16019969 0.022757059 0.0669344 0.053578284 0.16505213
-0.0009962111 -0.16581625 0.17891678 0.05914256 -0.16286293 -0.13314511 0.20496762 0.10217431
0.0006196913 0.117633045 0.2084488 0.06314243 0.10691171 0.12278829 0.0850834 0.22776456
0.13398728 0.17508845 0.19647424 -0.15627918 0.04468638 -0.015070255 0.033059206 0.014266476
-0.119483896 0.06298107 0.02796553 -0.017402958 0.08374303 -0.093598336 0.11932112 -0.048359487
-0.029245745 -0.0854908 0.035383582 -0.12585336 -0.048294317 0.17844594 -0.12548873 0.20939682
-0.0014957531 0.13168642 0.19033077 0.013899521 -0.0005831041 -0.09763438 0.046824146 0.21707197
-0.12561616 -0.08028715 0.13820934 -0.05801239 -0.18672062 0.10240887 -0.10773303 0.09922123
0.11858372 0.022939315 0.113618776 0.123181805 0.20714712 0.113292284 -0.06546446 0.18893124
0.20556715 0.043532416 0.03817378 -0.105677694 -0.12794168 0.18270831 -0.115230605 -0.13964105
0.11575554 -0.05861865 0.07082995 -0.10221903 0.078882575 -0.03475393 -0.019659694 0.049430054
-0.024844477 -0.01840081 0.015105998 0.04350396 0.16744441 -0.13591835 -0.16245104 -0.053081784
0.16074099 -0.07500325 0.024405766 0.20288484 -0.01628391 -0.15384167 0.024853965 0.0054626
-0.038036857 -0.08110448 0.007965935 0.14965074 -0.079114676 -0.07814774 -0.026886342 0.044664353

bias f4 [32]
00000000: a382 b43c 3434 f63c f8a8 183d ae65 d9bc
00000010: a013 be3c 25b2 26bc 4425 09bd f5a8 0a3d
00000020: 8753 873c f36f fcbc 5e9e cabc 89e1 b9bc
00000030: 19c4 013d 5283 f53b e46c 14bc 96a7 e3bc
00000040: 2fd9 283c 55f3 1bbc 0f0b 1e3c 5e1c 94bc
00000050: b12c 14bd 5d0b 933c 0850 2c3a 3e20 f4bc
00000060: fc11 6bbb 7639 1cbd 0f73 0a3d 98a3 f9bc
00000070: 4430 01bd 1a63 fabc 41d1 c73c 42fb 173c
0.022034949 0.03005419 0.037270516 -0.026537742 0.023202717 -0.010174309 -0.033482805 0.033852536
0.016519321 -0.0308151 -0.024733718 -0.022690551 0.031681154 0.0074924612 -0.009059165 -0.027789872
0.010305687 -0.009518464 0.009646191 -0.018079933 -0.036175434 0.017949754 0.0006573205 -0.02980053
-0.0035868874 -0.038140737 0.033801135 -0.030473515 -0.03154017 -0.030564833 0.024391772 0.009276213

weight f4 [32]
00000000: 0043 7a3f a176 833f 3e0d 863f a55e 853f
00000010: 85b2 803f c5a6 7a3f 31f3 823f df1d 843f
00000020: 74ab 843f 44e3 853f 1025 813f 8182 853f
00000030: 9abd 863f aa25 863f a4ec 783f cffc 7d3f
00000040: 70ec 813f e2c8 803f 6290 863f c1f6 853f
00000050: 8f06 833f d243 813f 80ed 853f 4c1e 873f
00000060: ea97 823f 6e93 823f 9f07 7e3f f4d3 793f
00000070: c24d 803f 1b6f 833f ce9c 833f 1ef5 843f
0.97758484 1.0270578 1.0472791 1.0419508 1.005448 0.9791072 1.0230466 1.0321616
1.0364823 1.0459981 1.0089436 1.0430452 1.0526612 1.0480244 0.97236085 0.9921388
1.015028 1.0061305 1.0512812 1.0465928 1.0236377 1.0098822 1.0463104 1.0556121
1.020261 1.0201242 0.9923038 0.9758904 1.002373 1.0268282 1.0282228 1.0387304

bias f4 [32]
00000000: 4256 2a3d 1da5 bd3c a186 373d 2edb 4b3d
00000010: 045f a93b 09c3 12bd 5e85 083d 84f9 fc3c
00000020: 7cce 093d 8080 97bc d198 bd3b 2eff 27bd
00000030: 71fe 3cbd a55d 2b3d 13ad dc3c f93f 12bb
00000040: b9d0 59bc 3682 c3bc a19f 42bd fa87 40bd
00000050: 8234 c0bc de36 2e3c 04ef cdbc adf3 55bd
00000060: 93b5 f3bb 92d1 2f3d a271 3d3c dffc 22bd
00000070: 29b3 c1bc ea7a 133d 631e f43c fa29 33bd
0.041586168 0.023150021 0.044806127 0.049769573 0.0051687974 -0.03583053 0.033330314 0.030880697
0.033644184 -0.01849389 0.0057860394 -0.041014843 -0.04614109 0.041837353 0.026937997 -0.0022315963
-0.013294392 -0.0238658 -0.047515515 -0.047004677 -0.023462538 0.010633199 -0.025138386 -0.05223434
-0.007437417 0.04292447 0.011562737 -0.039791938 -0.023645 0.03600589 0.029799646 -0.043741204

weight f4 [32]
00000000: 04db 843f f613 813f 8a4b 873f 084e 823f
00000010: b30c 803f 5d83 863f 05bc 813f 56ba 803f
00000020: 97e7 853f 984d 803f 3af5 853f 27cd 853f
00000030: fe97 7e3f 7dea 833f 9178 823f ef4d 873f
00000040: d782 833f e644 863f 6174 7b3f 24db 7d3f
00000050: 8336 863f 5529 813f 88a6 833f 72c8 853f
00000060: 8ba6 853f 7679 873f 1341 823f b8d3 863f
00000070: 4540 7b3f a203 843f ff75 853f 32c0 843f
1.0379338 1.0084217 1.0569928 1.0180063 1.0003875 1.0508839 1.0135504 1.0056865
1.0461301 1.002368 1.0465462 1.0453233 0.9945067 1.0305935 1.0193044 1.0570658
1.0274304 1.0489776 0.98224455 0.9916251 1.0485386 1.0090739 1.0285196 1.0451796
1.044145 1.0583942 1.0176109 1.0533361 0.9814494 1.0313609 1.0426635 1.0371153

bias f4 [32]
00000000: 80ae 693c d5c3 47ba 4e05 573d 2f3d 19bd
00000010: 1db3 0dbd b50d 1e3d 8a32 0fbd 26a2 a43a
00000020: a6c5 373d c442 d93c f211 4abd ff2a 43bd
00000030: 68c7 3dbc 1410 d53c 8a47 b1bc eb6f 4bbd
00000040: 003b 37bd fbd2 2ebd 06af d1bc fa90 3b3c
00000050: cfcc 28bd a7f4 883c a6c2 863c 65f9 1cbd
00000060: b74c 2a3d db16 4dbd 9ec7 cc3c 4303 fdbc
00000070: b705 f53c b005 18bd b73a 2c3d 5cc1 3abd
0.014262795 -0.0007620429 0.052495293 -0.037411865 -0.034594644 0.03858729 -0.034960307 0.0012560531
0.044866227 0.026521094 -0.04933352 -0.047648426 -0.011583187 0.026008643 -0.021640558 -0.04966728
-0.044734 -0.042681675 -0.025596153 0.011448139 -0.041210946 0.016718222 0.016450237 -0.03832378
0.041577067 -0.050070625 0.024997529 -0.030885344 0.029909952 -0.0371148 0.042048182 -0.045594558

weight f4 [32]
00000000: 442f 753f b5b2 743f 3a89 753f 43a6 743f
00000010: 4c65 763f a684 773f ca7a 733f 8fd8 753f
00000020: 8756 773f 03c8 743f 069b 763f 7e44 773f
00000030: f97b 743f 35c1 783f 7f1d 783f 2362 763f
00000040: 63d7 783f 0f79 763f d495 763f 409c 773f
00000050: 7176 743f caa1 763f a9e7 783f 8fbe 753f
00000060: 3d73 763f add6 733f 70ec 743f 5639 763f
00000070: e3c6 743f b9ca 763f b10d 753f a53a 783f
0.95775247 0.95585185 0.95912516 0.95566195 0.96248317 0.9668678 0.95109236 0.9603357
0.96616405 0.95617694 0.96330297 0.96588886 0.9550167 0.9716981 0.9692001 0.96243495
0.97203654 0.9627847 0.9632237 0.96722794 0.9549323 0.9634062 0.97228485 0.95993894
0.9626959 0.95249444 0.95673275 0.9618124 0.9561598 0.9640308 0.95724016 0.96964484

bias f4 [32]
00000000: dad5 a2bc fc63 8bbc ef28 fabc a5b4 013d
00000010: a7fb 59bc 9606 e83a 1472 af3c ea46 82b9
00000020: e046 f3bc 7282 053d c10a 0a3c 97ba a83c
00000030: 9058 3abd bffb 9fbc 988a 653c c457 683b
00000040: 5a9d 263b 462f 153c a026 8fbc a6f5 aa3c
00000050: 44f6 dc3c 7c24 fcbc 35ed a1bb 220d 0b3c
00000060: 0497 b5bc 80fd e53c db84 0bbd a1fc 25b9
00000070: 0eb8 173d fc8a de3c 9ee5 8fbc 3767 b43c
-0.019877363 -0.01701545 -0.030537097 0.031666417 -0.0133046275 0.0017702158 0.021416701 -0.00024848367
-0.029696882 0.032595105 0.0084254155 0.020596785 -0.045494616 -0.019529222 0.014010094 0.0035452703
0.0025423379 0.009105509 -0.017474473 0.020869087 0.026972897 -0.030779116 -0.0049416074 0.008487018
-0.022166736 0.02807498 -0.034062248 -0.00015829738 0.037040763 0.027165882 -0.017565545 0.022021873
