pre_trained_models/meld_emo_aligned_L_UniMF.pt (torch, 647057 bytes, 97 tensors)

cls f4 [33, 32]
0	0xbe918d07	-0.28427908
1	0xbe9580ae	-0.29199737
2	0x3cb8f6a0	0.022578537
3	0xbc56a1c0	-0.013100088
4	0x3dfeb708	0.12437254
5	0xbcd46170	-0.025925368
6	0x3e6ea86c	0.23306435
7	0x3d041c30	0.032253444
8	0xbe439424	-0.1909948
9	0xbe838d9a	-0.2569397
10	0xbe3b6a0f	-0.18302177
11	0xbdee8d88	-0.11648089
12	0xbe93d1cb	-0.28870997
13	0x3e61ca00	0.22049713
14	0xbdb7a00c	-0.089660734
15	0xbd78fac8	-0.06078604
16	0x3e857a72	0.2606998
17	0x3e700800	0.23440552
18	0xbe92e172	-0.28687626
19	0x3e7aff6c	0.24511498
20	0x3dd039dc	0.10167286
21	0xbe828c8d	-0.25497857
22	0xbdf39b5c	-0.11894867
23	0x3e37e12e	0.17956993
24	0xbdf0cae2	-0.11757447
25	0x3e6c1798	0.23055875
26	0x3d122990	0.03568417
27	0xbdb60e6a	-0.08889468
28	0xbb7ded00	-0.0038746
29	0xbe49811e	-0.1967816
30	0x3d817cd8	0.0632264
31	0xbe395fe4	-0.18102986
32	0x3e17fcca	0.14842525
33	0xbd122d30	-0.035687625
34	0xbd550df8	-0.052015275
35	0xbde276d2	-0.110578194
36	0xbe2eae14	-0.17058593
37	0xbd81983e	-0.06327866
38	0xbc0399c0	-0.008032262
39	0x3e08eba6	0.13371143
40	0xbe97d8c8	-0.29657578
41	0x3e8f8b70	0.2803607
42	0x3e46e3be	0.19422814
43	0x3dee2590	0.11628258
44	0xbab94000	-0.0014133453
45	0x3e36f2ac	0.1786601
46	0xbd826c9c	-0.06368372
47	0xbd985ec6	-0.074399516
48	0x3c61cec0	0.013782203
49	0x3df46ee8	0.11935216
50	0x3e2e3dea	0.17015806
51	0x3e04ed6e	0.12981197
52	0xbe2039b8	-0.15647018
53	0x3d80ebd8	0.062949836
54	0x3e98d2c4	0.298483
55	0x3cc03b50	0.023465782
56	0x3e2d893a	0.16946879
57	0xbd6f730c	-0.058459327
58	0xbe69283e	-0.22769257
59	0x3e4206d0	0.18947911
60	0x3c614220	0.013748676
61	0xbe06aead	-0.13152571
62	0xbe828fe1	-0.25500396
63	0xbe2f1e30	-0.1710136
64	0xbe6d308b	-0.23163049
65	0xbddb1a4a	-0.106983736
66	0x3e162c48	0.1466533
67	0xbdc1d37a	-0.09464164
68	0xbdd8941e	-0.10575126
69	0x3e8596c8	0.260916
70	0xbe93ffbf	-0.28906056
71	0x3e654dc0	0.2239294
72	0x3dc31a20	0.09526467
73	0x3e5c2244	0.21497446
74	0x3dd91ba8	0.10600978
75	0xbe661b84	-0.22471434
76	0xbd8d7f06	-0.069089934
77	0xbe6f531e	-0.2337155
78	0x3d1b5428	0.037922055
79	0xbd2d6f88	-0.042342693
80	0x3e908488	0.28226113
81	0x3e2a03fc	0.16603082
82	0x3dc1ebac	0.09468779
83	0xbd766050	-0.060150445
84	0xbd9d94cc	-0.076943964
85	0xbdf9bcc0	-0.12194204
86	0xbe7adf72	-0.244993
87	0xbdf4af18	-0.11947459
88	0xbe8fd1a7	-0.2808964
89	0xbc4b7800	-0.012418747
90	0x3e151576	0.14558968
91	0xbc4d3e80	-0.012527108
92	0xbd2c1f20	-0.04202187
93	0xbe2ac854	-0.16677982
94	0x3d7bd548	0.061482698
95	0x3c7bf740	0.015378773
96	0xbde7ddb0	-0.113215804
97	0x3e0dced2	0.13848427
98	0xbe309687	-0.17244922
99	0xbe6ee29c	-0.23328632
100	0x3e3a4e10	0.18193841
101	0xbc5f0180	-0.0136111975
102	0x3d8c186c	0.068405956
103	0x3dee48b8	0.11634964
104	0x3d842fb4	0.06454411
105	0x3e887194	0.26649153
106	0x3e37e9f2	0.17960337
107	0x3de85618	0.11344546
108	0x3e98bebe	0.29833025
109	0x3c824930	0.01590404
110	0x3e3a269e	0.18178794
111	0x3e18ff7c	0.1494121
112	0xbe758f4c	-0.23980445
113	0x3ddf1e90	0.10894501
114	0x3d7e3eb0	0.062071502
115	0x3e5409f0	0.20706916
116	0x3e97d1f0	0.29652357
117	0xbcb1dc90	-0.021711618
118	0x3e965dde	0.2936849
119	0xbe49185a	-0.19638196
120	0xbe88e2ca	-0.26735526
121	0xbe85b546	-0.26114863
122	0xbd6094d8	-0.05482945
123	0xbe425c7d	-0.18980594
124	0xbe4d7f66	-0.2006813
125	0xbdceadfa	-0.10091777
126	0x3e451f24	0.1925016
127	0x3dabeeb0	0.083951354
128	0x3e9779ae	0.29585022
129	0x3e9b72c6	0.30361003
130	0x3d2af638	0.04173872
131	0x3e2e372e	0.17013237
132	0xbde3c1ea	-0.111209705
133	0x3def1648	0.11674172
134	0xbe87b132	-0.26502377
135	0xbdab6432	-0.0836872
136	0x3dd3f02c	0.103485435
137	0x3e81c620	0.2534647
138	0xbdd95916	-0.10612695
139	0xbe974f82	-0.29552847
140	0x3bce67c0	0.006298989
141	0x3cda80e0	0.02667278
142	0x3e853446	0.26016444
143	0xbe7f99db	-0.24961035
144	0x3c45c940	0.0120719075
145	0x3ddfe19c	0.109317034
146	0x3d54d738	0.05196306
147	0xbe98ca8a	-0.29842025
148	0x3dd53e3c	0.10412261
149	0xbe4999f9	-0.19687642
150	0x3d8f4968	0.06996423
151	0x3d9e85d0	0.077403665
152	0x3d73f560	0.05956018
153	0x3e08ba46	0.13352308
154	0x3d41e1a8	0.047334343
155	0xbe7f3916	-0.2492412
156	0x3c989db0	0.018629879
157	0xbe6c247d	-0.23060794
158	0x3e8eebac	0.27914178
159	0x3ca8f6c0	0.020625472
160	0x3e8551d8	0.26039004
161	0x3e32db68	0.1746651
162	0xbe6b3b94	-0.22971946
163	0xbe2e9a15	-0.17050965
164	0xbd179078	-0.03700301
165	0x39f70c00	0.00047120452
166	0xbe523311	-0.20527293
167	0xbcca9a70	-0.024731845
168	0xbe019a1c	-0.12656444
169	0x3dad19b4	0.08452168
170	0x3e157ca4	0.14598328
171	0xbe6a5342	-0.22883323
172	0x3def5450	0.11686003
173	0x3e94a300	0.2903061
174	0x3e0f6106	0.14001855
175	0xbe98628c	-0.29762685
176	0x3cf0fef0	0.029418439
177	0x3e7b4bb4	0.24540597
178	0xbd564258	-0.052309364
179	0x3e2b9238	0.16754997
180	0xbe92d84b	-0.28680643
181	0x3e284a6c	0.1643464
182	0x3d5fb548	0.054616243
183	0x3afd3600	0.0019318461
184	0xbe823dd1	-0.25437787
185	0xbd97866e	-0.07398687
186	0xbdcefdc0	-0.10106993
187	0xbe01cf2d	-0.12676688
188	0x3c98ab80	0.018636465
189	0xbe99d9c7	-0.30048963
190	0x3b8ee100	0.004360318
191	0x3d9b37d0	0.07579005
192	0x3e330148	0.17480958
193	0x3d7291d8	0.05922112
194	0x3e13d1e4	0.14435536
195	0x3e514b64	0.20438915
196	0xbe994db9	-0.2994211
197	0x3e65b594	0.22432548
198	0xbd1d5950	-0.038415253
199	0xbc0b2180	-0.008491874
200	0xbe862673	-0.2620121
201	0xb982e400	-0.00024965405
202	0x3dc9e07c	0.0985727
203	0xbd41cd58	-0.04731497
204	0xbd11a7c8	-0.0355604
205	0xbe991505	-0.2989885
206	0x3e9169a0	0.28400898
207	0x3e386752	0.18008164
208	0x3ddac1cc	0.10681495
209	0xbdf08fe6	-0.117461964
210	0x3e6f5d88	0.23375523
211	0x3e9a7d46	0.301737
212	0x3da608b0	0.08107126
213	0x3d39b8c8	0.045342237
214	0xbe98058c	-0.29691732
215	0xbd44e600	-0.048070908
216	0xbd008178	-0.03137347
217	0x3d93b5e8	0.0721243
218	0xbd51d2f8	-0.051226586
219	0xbccdaa40	-0.025105596
220	0xbe92cf25	-0.28673664
221	0xbdec45bc	-0.11536738
222	0x3e5bce34	0.21465379
223	0xbdf849ee	-0.12123476
224	0xbd3239f0	-0.043512285
225	0xbdb46bd8	-0.08809632
226	0x3bb7b300	0.0056060553
227	0x3e25281e	0.16128585
228	0x3e407756	0.18795523
229	0xbc6ed2e0	-0.014576644
230	0xbe845c5d	-0.25851718
231	0xbde944a6	-0.11390047
232	0x3dc5e85c	0.0966346
233	0x3db3a560	0.08771777
234	0xbd82bd16	-0.063837215
235	0x3e883c00	0.26608276
236	0x3e2116c0	0.15731335
237	0xbddbe058	-0.107361495
238	0xbdcd27de	-0.1001737
239	0xbe866acf	-0.26253363
240	0xbe94408c	-0.28955495
241	0xbe0a0ca6	-0.13481387
242	0xbd291ac8	-0.041285306
243	0xbdc0da1c	-0.09416601
244	0x3e272f56	0.16326651
245	0x3d923fec	0.071410984
246	0xbc5a95c0	-0.013341367
247	0xbd403ff8	-0.046936005
248	0x3e799188	0.24371922
249	0xbdc967bc	-0.09834239
250	0xbe1b9951	-0.15195204
251	0x3e4611ee	0.19342777
252	0x3cce01f0	0.025147408
253	0xbe1765e0	-0.14784956
254	0xbd8d8bfe	-0.06911467
255	0xbdcc2286	-0.09967522

weight f4 [32, 600, 1]
0	0x3d2dc4bb	0.042423945
1	0x3cb237f9	0.021755205
2	0xbbdd2c87	-0.006749693
3	0x3ccc7eb0	0.024962753
4	0x3cd3db3d	0.025861377
5	0xbbdfedd6	-0.006833772
6	0x3c751008	0.014957435
7	0xbd2958ff	-0.04134464
8	0x3bcf6d17	0.006330143
9	0xba16aae1	-0.0005747509
10	0xbcbcf7de	-0.023067411
11	0xbd47a294	-0.04873903
12	0x3ca76dee	0.02043816
13	0xbcea6adc	-0.028615408
14	0x3c9e3695	0.019313136
15	0x3b81d21e	0.0039618155
16	0xbbff98e7	-0.00780021
17	0xbc9ec00e	-0.019378688
18	0xbc065c02	-0.008200647
19	0xbcdf1221	-0.027230324
20	0x3c435dbf	0.011924206
21	0x3d39a019	0.045318697
22	0xbd0dbf42	-0.034606226
23	0x3caa317f	0.020775555
24	0x3c11f15b	0.008907641
25	0xbc2ca3ff	-0.010537147
26	0x3d7f7c3c	0.06237434
27	0xbc94bcba	-0.018156398
28	0x3c943395	0.018091002
29	0xbd57ac55	-0.052654583
30	0x3cfa134b	0.030526778
31	0xbd796a14	-0.06089218
32	0x39129bae	0.0001398164
33	0xbc628c3a	-0.013827378
34	0xbce4f9fc	-0.027951233
35	0xbd143247	-0.03618076
36	0x3c88e0ea	0.01670881
37	0x3d531252	0.051531143
38	0xbbc27c47	-0.005935225
39	0xbd88e9e6	-0.066852376
40	0x3c6c294d	0.014414144
41	0x3c3d4a22	0.011553319
42	0x3acbb8d9	0.001554276
43	0x3d07da3e	0.033167116
44	0x3c1a31e5	0.00941131
45	0x3d1a0577	0.037602868
46	0xbcc072ae	-0.023492184
47	0x3aa432ab	0.0012527307
48	0x3cacda96	0.021100324
49	0x3cd91036	0.026496988
50	0xbc0cabbf	-0.008585869
51	0xbc6dd761	-0.014516682
52	0x3cfc15e4	0.030772157
53	0xbd2a8c3e	-0.04163765
54	0xbb9216c6	-0.004458281
55	0xbd5b1088	-0.053482562
56	0xbd590146	-0.05297973
57	0xbc6cabe6	-0.014445281
58	0xbaa43457	-0.0012527806
59	0xb9b8d091	-0.0003525061
60	0x3ce1e884	0.027576692
61	0x3d1926b0	0.03739041
62	0x3abb93a7	0.0014310972
63	0x3c204027	0.00978092
64	0x3cd8bd17	0.026457353
65	0xbd1c2de8	-0.038129717
66	0x3d013574	0.031545117
67	0xbc2f7b7e	-0.010710595
68	0x39e1ffe0	0.00043105986
69	0xbcc6a545	-0.024248729
70	0x3b8144ac	0.003944954
71	0xbb6aa391	-0.003580306
72	0xbb4682e1	-0.0030290412
73	0x3c26b826	0.01017574
74	0x3c964da9	0.018347578
75	0x3cade481	0.021227123
76	0x3d5760ef	0.052582677
77	0xbc89ad8c	-0.016806386
78	0xbd1463e8	-0.03622809
79	0xbbe735a6	-0.007055956
80	0xbcefc16c	-0.029267035
81	0xbbaaacb5	-0.0052085766
82	0x3dca6bed	0.098838665
83	0xbd064fb2	-0.032790847
84	0x3ae5f0f3	0.0017543122
85	0x3ceae61a	0.028674174
86	0x3d2a8811	0.04163367
87	0xbb54ef41	-0.003249124
88	0xbcb96e41	-0.022635581
89	0xbcef1081	-0.029182674
90	0xbbadab1c	-0.005299939
91	0xbc51f325	-0.012814318
92	0xbb55836c	-0.0032579554
93	0xbbb95a18	-0.005656492
94	0xbc59bcf6	-0.013289681
95	0x3d0cd359	0.034381244
96	0x3ca848b3	0.020542478
97	0x3cda0a30	0.026616186
98	0x3ce5d370	0.028054923
99	0x3d7487e8	0.059699923
100	0xbd10d374	-0.035357907
101	0xbd39df1c	-0.04537879
102	0x3c838234	0.016053297
103	0xbc88f1e7	-0.01671691
104	0xbd17fca0	-0.037106156
105	0xbcb2aa50	-0.021809727
106	0x3b617c1b	0.0034406248
107	0x3cc1c2ba	0.023652423
108	0xbcf06f79	-0.02935003
109	0x3d7c36aa	0.06157557
110	0xbc2b119f	-0.010441213
111	0x3b0699fd	0.0020538562
112	0xbce1f3c0	-0.02758205
113	0xbcba6c33	-0.022756672
114	0xbd5306ae	-0.051520042
115	0xbb04c7a8	-0.0020260606
116	0xbaaa3472	-0.0012985601
117	0x3d119322	0.035540707
118	0x3a948ba5	0.0011333121
119	0x3d27f62e	0.04100626
120	0x3b09974b	0.0020994719
121	0x3c25448f	0.010087146
122	0xbb84a3a0	-0.004047826
123	0x3d976033	0.073913954
124	0xbdb1965c	-0.08671257
125	0xbd556c7d	-0.052105416
126	0x3d46b1bd	0.04850935
127	0x3d0d023a	0.03442595
128	0x3d2d366c	0.04228823
129	0xbd10422e	-0.035219364
130	0x3d1618c8	0.036644727
131	0xbd3a444b	-0.045475286
132	0xbd3d7451	-0.046253506
133	0x3c895794	0.016765393
134	0xba9346b0	-0.0011236276
135	0x3d29a35c	0.041415557
136	0x3c6e963a	0.014562184
137	0x3d1045ac	0.035222694
138	0x3d190a09	0.037363086
139	0x3cf27387	0.029596103
140	0x3d9b6dfc	0.07589337
141	0xbd123b63	-0.035701167
142	0x3bfdb6c5	0.007742735
143	0x3d19e649	0.037573133
144	0xbca0c760	-0.01962632
145	0xbd48dbe5	-0.049037833
146	0xbd3f6ce8	-0.04673472
147	0xbc0174c7	-0.007901377
148	0xbba8d30e	-0.005152113
149	0x3c815d42	0.01579154
150	0xba18e49c	-0.00058324053
151	0x3b558332	0.003257942
152	0xbbcd7291	-0.006269761
153	0xbd41c4a7	-0.047306683
154	0x3c456131	0.012047098
155	0xbc9df13a	-0.019280065
156	0x3ba43dbe	0.005012243
157	0x3c68f71a	0.01421907
158	0x3c9309ac	0.017948948
159	0x3bf198fc	0.0073729735
160	0x3b2f5531	0.002675366
161	0x3d97ad8a	0.07406147
162	0xbc41f03a	-0.01183706
163	0x3c7b3030	0.015331313
164	0xbd33551e	-0.043782346
165	0xbb9fbae4	-0.004874574
166	0xbc995834	-0.018718816
167	0x3cc87537	0.024469955
168	0xbd2be1f7	-0.041963544
169	0xbdc50bd9	-0.096214004
170	0x3c1b047a	0.0094615165
171	0xbcbf98a8	-0.023388222
172	0x3d561487	0.05226567
173	0xbd04e309	-0.03244308
174	0xbce2cee9	-0.027686553
175	0xbc0c9928	-0.008581437
176	0xbcc142f1	-0.02359149
177	0x3c317831	0.0108318785
178	0xbc0edc89	-0.008719572
179	0xbb284d80	-0.002568096
180	0x3ab4d98a	0.0013797742
181	0xba1bda2a	-0.000594529
182	0x3cea528c	0.028603815
183	0x3cd9612c	0.026535593
184	0x3cf4c106	0.029877197
185	0x3d328e06	0.043592475
186	0xbc2a71ac	-0.010403078
187	0x3b8080c7	0.0039216015
188	0xbc3104bd	-0.010804352
189	0xbc5ecbca	-0.013598392
190	0xbd77ec02	-0.06052781
191	0xbd00832e	-0.031375103
192	0x3d00b586	0.031423114
193	0x3b66425a	0.0035134763
194	0xbc5aae65	-0.013347243
195	0xbd34db7f	-0.04415464
196	0x3d1872a6	0.037218712
197	0xbd30bbdc	-0.043147907
198	0xbc0ddada	-0.008658135
199	0x3c7a6896	0.015283724
200	0xbb139052	-0.0022516442
201	0xbdbe49f5	-0.0929145
202	0xbd5e63db	-0.05429445
203	0xbd0d29de	-0.034463756
204	0x3cb3e98e	0.021961953
205	0xbd285ac1	-0.041102175
206	0xbb3acc1b	-0.0028503004
207	0x3ca18456	0.019716423
208	0xbd0cf4a7	-0.034413006
209	0xbc2a155f	-0.010381072
210	0x3cbd73d1	0.023126515
211	0x3d0f642e	0.03500765
212	0x3bb46694	0.0055053923
213	0x3bf6a336	0.0075267805
214	0xbd3d0496	-0.04614695
215	0xbccc0bd0	-0.024907976
216	0xbc2d6d42	-0.010585131
217	0xbd10622a	-0.035249867
218	0x3bb45a2a	0.0055039125
219	0x3d1c5f3c	0.03817676
220	0xba919247	-0.0011106216
221	0x3d0014ba	0.031269766
222	0x3d0a3774	0.03374429
223	0x3d31e000	0.043426514
224	0x3d1ab738	0.037772387
225	0xbc93cdb1	-0.018042417
226	0x3bd59bfc	0.006518839
227	0x3ca9c5a7	0.02072413
228	0x3adb8efe	0.0016750989
229	0x3c128df4	0.008944977
230	0x3cd29714	0.025706805
231	0x3c48c603	0.012254241
232	0xbd18136e	-0.037127905
233	0x3d175b8c	0.03695254
234	0xbc4a74ef	-0.012356981
235	0xbaea356d	-0.0017868705
236	0x3cb13b00	0.021634579
237	0x3cdc3cde	0.026884492
238	0xbb9131bb	-0.004430977
239	0xbc9e0ba0	-0.019292653
240	0xbcd85b3a	-0.026410688
241	0xbbad2412	-0.005283841
242	0xbc9e448c	-0.019319795
243	0x3c162a61	0.009165377
244	0xbd251e27	-0.04031196
245	0x3c83c205	0.016083727
246	0x3d37a97c	0.044839367
247	0xbb8c9c6a	-0.004291107
248	0x3d1b5490	0.037922442
249	0xbd200377	-0.039065804
250	0x3c92a354	0.017900147
251	0x3d07dd05	0.033169765
252	0x3d0ec63c	0.03485702
253	0x3bac9619	0.0052669165
254	0x3ca0b9c1	0.019619824
255	0xbd35bef1	-0.04437155

bias f4 [32]
0	0xbcd45b62	-0.025922481
1	0x3cb0896e	0.021549907
2	0xbc84fc88	-0.016233698
3	0xbb4f056a	-0.003158892
4	0xbcdc4307	-0.02688743
5	0x3ce112cc	0.027474783
6	0x3d1ec2f0	0.038760126
7	0xbc6a39d3	-0.014296013
8	0x3c36e0bf	0.011161982
9	0x3d266755	0.04062589
10	0x3cf1ffe3	0.029540962
11	0xbb9cd40e	-0.004786021
12	0xbcfd528b	-0.030923149
13	0x3c761d4f	0.015021636
14	0x3cb8601c	0.022506766
15	0xbd4a5b48	-0.04940346
16	0xbd280635	-0.041021544
17	0x3cb8dc9a	0.022566129
18	0x3cae3354	0.02126471
19	0xbd02dd1d	-0.03194915
20	0xbd0d6753	-0.034522366
21	0xbd357b4c	-0.04430704
22	0x3ca94af2	0.02066562
23	0xba96cb37	-0.0011504655
24	0x3ce096c0	0.027415633
25	0x3d43db31	0.04781646
26	0x3c496ede	0.012294499
27	0xbc9d50f0	-0.019203633
28	0x3cb213f0	0.021738023
29	0xbcdc07dc	-0.026859216
30	0xbc63256f	-0.013863905
31	0x3d504224	0.050844327

weight f4 [32, 300, 1]
0	0xbd395844	-0.045250192
1	0xbb633651	-0.0034669826
2	0xbd3ba44b	-0.04581098
3	0x3cb6eb3f	0.022328971
4	0xbd18f293	-0.03734071
5	0x3d23e2d4	0.040011242
6	0x3cd7fae9	0.02636476
7	0xbd18a604	-0.0372677
8	0xbd2b6c72	-0.04185147
9	0xbca83933	-0.020535087
10	0x3d824bde	0.06362127
11	0xbcdaba7e	-0.026700255
12	0xb7e1e2f7	-2.6927779e-05
13	0xbd2c4da0	-0.042066216
14	0xbd1039a7	-0.03521123
15	0xbd1eae9d	-0.038740743
16	0xbc849e41	-0.016188743
17	0xbd055cce	-0.03255921
18	0xbbfb0dbb	-0.007661549
19	0xbd650a4f	-0.055918034
20	0x3d4bae89	0.049726997
21	0x3d28f072	0.04124493
22	0xbcc289eb	-0.023747405
23	0xbccd48fa	-0.025059212
24	0xbd379938	-0.044823855
25	0xbd1284af	-0.03577107
26	0xbafc7d2d	-0.001926338
27	0xbd6f9c97	-0.058498945
28	0x3ccbb6e3	0.02486748
29	0x3d2b176e	0.04177039
30	0xba7f6737	-0.0009742858
31	0x3d33a205	0.043855686
32	0x3d174e5f	0.036939975
33	0x3c60887f	0.013704418
34	0xbcf17713	-0.029475724
35	0xbc392a98	-0.011301659
36	0x3d6a80cd	0.05725174
37	0x3ce4e87c	0.027942888
38	0xbccb2dfb	-0.024802199
39	0x3a2b5678	0.0006536017
40	0x3d63a8c2	0.055580862
41	0xbc72be2a	-0.014815846
42	0x3c86391e	0.016384657
43	0xbc3642c3	-0.011124316
44	0x3cfc0aef	0.030766932
45	0x3d5dd440	0.054157495
46	0xbcd20ea7	-0.025641752
47	0xbc1e9b26	-0.009680545
48	0xbce3c001	-0.027801516
49	0xbca6ae3e	-0.020346757
50	0xbd1f5220	-0.03889668
51	0x3c694347	0.014237232
52	0xbd8a2c5f	-0.06746744
53	0x3d103546	0.035207056
54	0xbb351777	-0.0027632394
55	0xbd51ae75	-0.051191766
56	0xbd87295f	-0.06599688
57	0x3d321681	0.043478493
58	0xbca5fc23	-0.02026183
59	0x3c83538f	0.016031055
60	0x3bdef4ce	0.0068040853
61	0xbd223c40	-0.03960824
62	0xbd589f45	-0.052886266
63	0x3cf6dafa	0.030133713
64	0x3d4d391f	0.050103303
65	0xbcd0ae7f	-0.025473831
66	0xbd838729	-0.06422264
67	0xbc021548	-0.007939644
68	0x3cc3f50f	0.023920564
69	0x3c7cb68b	0.015424381
70	0x3cea3611	0.028590234
71	0x3c38b4c0	0.011273563
72	0x3c86c99e	0.01645356
73	0x3d21f6eb	0.03954212
74	0x3d82f806	0.06394963
75	0xbd446fb4	-0.04795809
76	0x3c2708a1	0.010194928
77	0x3aa10996	0.0012286182
78	0xbcb09aea	-0.021558244
79	0xbbd7ee90	-0.006589718
80	0xbd4fe955	-0.050759632
81	0xbc5ddbbb	-0.013541157
82	0xbcfbcacb	-0.030736348
83	0x3cb43ee6	0.022002649
84	0xbcc012f0	-0.02344653
85	0x3cd0e1d4	0.025498308
86	0xbc3d481b	-0.011552836
87	0x3d1ec77c	0.038764462
88	0xbc4a05b2	-0.012330459
89	0x3ade5e42	0.0016965347
90	0xbd3fa7b2	-0.046790786
91	0x3d38a7a5	0.045081753
92	0x3c96f63f	0.018427966
93	0x3cc2d9d9	0.023785518
94	0x3d5762e3	0.05258454
95	0x3c75acac	0.014994781
96	0xbcfcfeeb	-0.030883273
97	0x3b94ccff	0.004541039
98	0xbc13189a	-0.008978033
99	0xbd8ab9da	-0.067737296
100	0xbcffcc27	-0.031225277
101	0x3ba70a75	0.005097682
102	0x3d891dff	0.066951744
103	0x3d1c23a1	0.038119916
104	0xbd369adc	-0.04458128
105	0x3c7b2dcd	0.015330744
106	0x3c69542a	0.014241258
107	0xbc58f985	-0.013243084
108	0xbc06bc59	-0.0082236165
109	0xbd26294d	-0.04056673
110	0x3cb2c0c7	0.021820439
111	0x3d26fa22	0.04076589
112	0x3cbfbde0	0.02340597
113	0x3d32a71e	0.043616407
114	0x3d6400de	0.05566489
115	0x3d0a4e92	0.033766337
116	0x3d13b826	0.03606429
117	0xbd25063a	-0.04028914
118	0x3cb91cef	0.022596804
119	0xbd38621d	-0.045015443
120	0xbd4aeff2	-0.049545236
121	0x3d470911	0.04859263
122	0xbc35a5cd	-0.011086893
123	0xbd144633	-0.03619976
124	0xbd152816	-0.036415182
125	0xbd5b3afd	-0.053523052
126	0x3c93ad7e	0.018027063
127	0xbd06696a	-0.032815374
128	0x3d41f886	0.04735615
129	0xbae0f5e0	-0.001716312
130	0x3ceb1085	0.0286944
131	0xbd1c3c76	-0.038143598
132	0xbc3f4f56	-0.01167663
133	0xbbe678f2	-0.007033461
134	0xbca24e15	-0.019812623
135	0xbcb528a3	-0.022114104
136	0x3bda3ef9	0.006660339
137	0x3cbb51e2	0.022866193
138	0x3cd15387	0.025552524
139	0xbd768e68	-0.060194403
140	0xbc645dbe	-0.0139383655
141	0x3b46eaa6	0.0030352264
142	0xbd0db6d9	-0.034598205
143	0x3c2bf70c	0.010495912
144	0x3ca2e06e	0.019882407
145	0xbc308e0a	-0.010776052
146	0x3ca54524	0.02017457
147	0x3b938988	0.004502479
148	0xbc5a84b6	-0.013337305
149	0x3c5fe208	0.01366473
150	0xbcf615ac	-0.03003963
151	0x3d3188b5	0.043343265
152	0xbd620f5c	-0.05519043
153	0xbd3d1f51	-0.046172444
154	0x3d6aad02	0.0572939
155	0xbcb63a8b	-0.022244712
156	0xbd33d9cb	-0.043908875
157	0x3c7b6664	0.015344236
158	0xbd093b48	-0.0335038
159	0xbd180137	-0.037110534
160	0x3cad2e80	0.021140337
161	0x3d5ee0dc	0.05441366
162	0x3d763dcf	0.06011754
163	0xbc82521e	-0.015908297
164	0xbd2f6f61	-0.04283083
165	0xba57c6e7	-0.0008231238
166	0x3d4f8f5d	0.05067383
167	0xbd7767c1	-0.06040168
168	0x3d73bb58	0.059504837
169	0xbc37f42d	-0.01122765
170	0x3d7c61dd	0.061616767
171	0xbc6cebab	-0.0144604845
172	0xbd84cc1d	-0.06484244
173	0xbd0b1f6d	-0.033965517
174	0xbccb087b	-0.024784317
175	0xbd1b152e	-0.037861995
176	0xbc6d7604	-0.014493469
177	0x3b40001d	0.0029296943
178	0x3b837485	0.004011693
179	0x3d457443	0.04820658
180	0xbd04ec61	-0.03245199
181	0xbbb9acf3	-0.005666369
182	0x3c5db39f	0.013531595
183	0x3cec2216	0.028824847
184	0xbbd3607b	-0.0064507104
185	0xbc8f0bb9	-0.017461644
186	0xbce9e11f	-0.028549729
187	0x3d53b157	0.051682796
188	0x3d98a22c	0.07452807
189	0xbd7e01f1	-0.06201357
190	0xbaf0a88a	-0.0018360775
191	0xbc1e4c21	-0.009661705
192	0xbc27b096	-0.010234972
193	0x3ce8d323	0.02842099
194	0xbd095c3f	-0.03353524
195	0xbd862a82	-0.065510765
196	0xbc1180a6	-0.00888077
197	0xbd2a625a	-0.0415977
198	0xbd5e8f63	-0.054335963
199	0xbc360432	-0.011109399
200	0xbc8a7f4d	-0.016906405
201	0xbd7b36ce	-0.061331563
202	0x3d53af34	0.05168076
203	0xbc736704	-0.014856104
204	0x3ca02c7c	0.019552462
205	0xbd5e5b9c	-0.054286584
206	0x3bc1e7b8	0.0059175156
207	0x3d8babb1	0.06819857
208	0xbb6a9880	-0.0035796463
209	0x3d06a882	0.032875545
210	0xbbbec5e9	-0.0058219326
211	0xbd431ff3	-0.04763789
212	0xbcba74ef	-0.022760836
213	0x3d071968	0.032983214
214	0xbd223296	-0.039599024
215	0x3cca65b0	0.024706692
216	0xbc118323	-0.008881363
217	0x3bf5e484	0.007504048
218	0xbd35a21c	-0.044344053
219	0x3ce08a72	0.027409766
220	0xbd510d09	-0.051037822
221	0x3d269ea7	0.040678646
222	0x3be3f62b	0.0069568357
223	0x3cd4087a	0.025882948
224	0x3d082643	0.033239614
225	0x3c7a4c6b	0.0152770085
226	0x3c968ebc	0.018378608
227	0xbc6744e7	-0.014115549
228	0xbc096df7	-0.008388034
229	0xbd81b529	-0.06333382
230	0xbd4b04c2	-0.049565084
231	0xbd6ea293	-0.05826051
232	0xbbb185c2	-0.0054175565
233	0x3c830995	0.01599578
234	0xbd42dbf2	-0.047573037
235	0x3cfc61f8	0.030808434
236	0x3c143cfd	0.009047744
237	0x3d8e003b	0.06933638
238	0x3d16b353	0.03679211
239	0x3d88fb15	0.06688515
240	0xbd0a53d0	-0.033771336
241	0x3d134df5	0.035963017
242	0xbcba59b6	-0.022747856
243	0xbc078899	-0.0082723135
244	0xbbc18853	-0.0059061437
245	0xbc40fa73	-0.011778462
246	0x3cc929f2	0.024556134
247	0x3cb79f98	0.022414967
248	0x3d5653be	0.052325957
249	0xbcda81d7	-0.02667324
250	0xbbeee2a0	-0.0072901994
251	0xb9a319ef	-0.00031109105
252	0x3d1ff599	0.03905258
253	0xbcae9696	-0.02131204
254	0x3d2f2f44	0.042769685
255	0x3b47ead5	0.003050496

bias f4 [32]
0	0x3c443d44	0.0119774975
1	0xbd4f2b95	-0.050578672
2	0xbd190d6e	-0.037366323
3	0x3cb48451	0.02203575
4	0x3ce07891	0.02740124
5	0x3cf695f1	0.030100795
6	0xbc13cba7	-0.0090207225
7	0xbd8723a7	-0.06598597
8	0xbba824d7	-0.005131345
9	0xbd797110	-0.06089884
10	0xbd2a44ee	-0.041569643
11	0x3c58989e	0.0132199805
12	0x3a6f34e3	0.0009125007
13	0xbd7852c1	-0.060625795
14	0xbcbc4b68	-0.022985175
15	0xbc769f40	-0.015052617
16	0x3b55d13c	0.0032625934
17	0x3d565a25	0.052332062
18	0xbadcf764	-0.0016858396
19	0xbca32e6a	-0.019919593
20	0xbcebc7c7	-0.028781785
21	0x3d29d9d3	0.0414675
22	0xbb554ea4	-0.0032548094
23	0x3c95255b	0.018206289
24	0xbb7e34e1	-0.0038788843
25	0xbd7a2a45	-0.061075468
26	0x3cc7bdd8	0.024382517
27	0xbbfeeceb	-0.0077797077
28	0xbd2e6bbc	-0.042583212
29	0xbd600b6c	-0.054698393
30	0x3c905934	0.01762066
31	0xbcdafa9f	-0.026730834

weight f4 [32, 900, 1]
0	0x3b62971b	0.003457493
1	0x3d359370	0.04433006
2	0x3cdab31c	0.026696734
3	0xbd0b0be8	-0.0339469
4	0x3cfcc97b	0.030857792
5	0x3d212859	0.03934512
6	0x3c051d16	0.00812461
7	0xbce5bdcf	-0.02804461
8	0xbcba261e	-0.022723254
9	0xbd2af097	-0.04173335
10	0xbc00730e	-0.007839931
11	0xbc2fdb24	-0.0107334
12	0xbcfc721d	-0.030816132
13	0x3d1c0696	0.03809222
14	0x3c674245	0.014114921
15	0x3cbe401f	0.023223935
16	0x3cf20c53	0.029546892
17	0x3ce221e6	0.027604055
18	0x3c2f698f	0.0107063195
19	0x3d72ea70	0.05930561
20	0x3cb81eb1	0.022475572
21	0x3a27927a	0.0006392371
22	0x3d1d9fb7	0.038482394
23	0xbc13ed6b	-0.009028773
24	0x3d024442	0.031803377
25	0xbc6fa19c	-0.014625933
26	0xbc2deda4	-0.01061574
27	0xbb42d65d	-0.0029729821
28	0x3d44732c	0.0479614
29	0xbd00201f	-0.031280633
30	0x3ae9fd7e	0.0017852036
31	0xbd5355e9	-0.051595602
32	0x3d2a63f1	0.041599218
33	0xbb925289	-0.0044654054
34	0x3c0190e5	0.007908081
35	0x3c945d83	0.018110996
36	0x3c5434d5	0.012952049
37	0x3ce96c77	0.028494103
38	0xbbfee273	-0.0077784597
39	0xbd21b6e6	-0.039481066
40	0xbd7b0054	-0.06127961
41	0xbcd5dafc	-0.026105396
42	0xb8a44ef1	-7.8348334e-05
43	0x3d34f729	0.044181023
44	0xbd44ea2e	-0.048074894
45	0xbcf56b21	-0.02995831
46	0xbcddcb11	-0.027074369
47	0xbb954485	-0.0045552873
48	0x3c138127	0.00900296
49	0x3d20d2f7	0.03926369
50	0xbcb27377	-0.021783574
51	0xbd185ad8	-0.03719601
52	0xbceb7dcd	-0.02874651
53	0xbc6afa55	-0.01434191
54	0x3b57886d	0.0032887713
55	0xbd0137df	-0.031547423
56	0xbd709888	-0.058739215
57	0xbbd587eb	-0.006516447
58	0x3c97bb53	0.01852194
59	0xbbb70a13	-0.0055859177
60	0x3b0eae48	0.002177136
61	0xbd2bf7a5	-0.04198422
62	0x399a13dc	0.00029387965
63	0x3cfa7541	0.03057349
64	0xbd085e37	-0.033292975
65	0x3d1e94ca	0.038716115
66	0x3cfeb7bf	0.031093476
67	0x3ba88137	0.0051423567
68	0x3d37201c	0.044708356
69	0x3c40af93	0.01176061
70	0x3d124e33	0.035719108
71	0xbd0b96c4	-0.03407933
72	0x3cb379c7	0.021908654
73	0x3cdabb47	0.026700629
74	0xbb1ff910	-0.0024409927
75	0xbd0841d2	-0.033265896
76	0xbc00fa86	-0.007872229
77	0x3d6569ff	0.05600929
78	0xbd1817e2	-0.03713215
79	0xbcf32a6f	-0.02968332
80	0x3a344142	0.0006876179
81	0xbd23bc28	-0.03997436
82	0x3d882e36	0.06649439
83	0x3bd5eba8	0.0065283366
84	0x3cf1edb1	0.029532285
85	0x3bd0a554	0.006367365
86	0xbcb64db3	-0.022253847
87	0x3c414655	0.011796554
88	0x3ce62f37	0.028098686
89	0xbcd42722	-0.025897566
90	0x3cbdf8c8	0.023189917
91	0x3d543fe2	0.051818736
92	0xbc4e2114	-0.012581129
93	0xbaa1d9d5	-0.0012348244
94	0x3d2ea96e	0.04264205
95	0xbd20f73d	-0.039298285
96	0x3cbd4ea0	0.02310878
97	0xbc9deb81	-0.019277336
98	0x3cd1e9dc	0.025624208
99	0x3dad2405	0.08454136
100	0x3d0a9fc8	0.033843786
101	0xbba85b53	-0.00513784
102	0xbc323dba	-0.010878975
103	0x3cd83d08	0.02639629
104	0x3c4b01ae	0.012390537
105	0xbd07ee22	-0.033186086
106	0xbba5bd4f	-0.0050579677
107	0xbbd2667c	-0.0064209085
108	0xbbbfe66c	-0.005856326
109	0x3cd7beb2	0.026336048
110	0xbac7876f	-0.0015222857
111	0x3d30ff65	0.043212313
112	0xbd1efa4a	-0.038812913
113	0xbd4d32f6	-0.05009743
114	0xbccd253a	-0.025042165
115	0x3d2695e7	0.0406703
116	0x3d18f41f	0.037342187
117	0x3c9df8fe	0.019283768
118	0xbc5dd549	-0.013539621
119	0xbbf98dfa	-0.007615802
120	0x3d233d15	0.039853174
121	0xbd6d126a	-0.05787889
122	0xbce53581	-0.027979614
123	0x3d1bac49	0.0380061
124	0x3d0fdd52	0.035123177
125	0xbcd400fd	-0.025879377
126	0xbc8daba3	-0.017293757
127	0xbbb036a5	-0.005377608
128	0x3bd4d140	0.006494671
129	0x3d076008	0.033050567
130	0xbcf29eb0	-0.029616684
131	0xbbe8b49c	-0.0071016084
132	0xbb5929ad	-0.0033136413
133	0xbb96f5cb	-0.0046069375
134	0xbd63e861	-0.055641536
135	0x3c03534f	0.008015468
136	0x3d0a888b	0.033821624
137	0x3cf4624f	0.029832033
138	0xbcc90162	-0.024536792
139	0x3c899f23	0.016799515
140	0x3c0249ff	0.007952212
141	0x3c82eef5	0.015983084
142	0x3b3ae706	0.0028519048
143	0x3c7e5366	0.015522813
144	0xbd24bb27	-0.040217545
145	0x3c749ee8	0.014930464
146	0xbd0b1845	-0.033958692
147	0x3cac5d54	0.021040596
148	0x3d3ce873	0.04612012
149	0x3c817799	0.015804099
150	0xbd3eba34	-0.046564296
151	0x3d42e769	0.04758397
152	0x3cb07dce	0.021544363
153	0xbcee3cae	-0.029081669
154	0x3cd93c68	0.026518062
155	0x3d6b55e9	0.057454977
156	0x3ba345a1	0.0049826656
157	0xbbae1f0e	-0.0053137606
158	0x3c5ec4ee	0.013596756
159	0xbc4bdf94	-0.012443442
160	0xbd776ea4	-0.06040825
161	0x3cd5e79e	0.02611142
162	0xbc7f21cc	-0.015572023
163	0xbb6c5287	-0.0036059932
164	0x3c804a44	0.015660413
165	0x3c8f9ddc	0.017531328
166	0xbb172e3d	-0.0023068332
167	0x3b11d529	0.0022252297
168	0xbd3e2ccc	-0.04642944
169	0xbdb221a2	-0.08697821
170	0x3d3b9091	0.045792166
171	0x3d491e41	0.049101118
172	0x3a24dbc2	0.000628885
173	0xbd586de9	-0.052839193
174	0xbc94e3c9	-0.018175023
175	0xbd4a53ed	-0.049396444
176	0x3b6daae6	0.0036265193
177	0x3bec1c7b	0.0072055436
178	0x3d2bf515	0.041981775
179	0xba88f531	-0.0010449049
180	0xbc4693c7	-0.012120194
181	0xbd6fa33e	-0.05850529
182	0x397bcc5a	0.00024013352
183	0xbb8d9541	-0.004320771
184	0x3bb50eaa	0.0055254297
185	0x3d206aa8	0.039164215
186	0x3c4c1303	0.012455705
187	0x3cad1a05	0.021130571
188	0xbc7fba82	-0.015608432
189	0xbd06f0a2	-0.03294433
190	0xbc385f0d	-0.011253131
191	0x3ca30946	0.019901883
192	0x3d4b638e	0.04965549
193	0x3d370797	0.044684973
194	0x3cc9ecb3	0.024649
195	0x3b350e8a	0.0027627074
196	0x3d0d74ed	0.034535337
197	0x3d0ad1d5	0.033891518
198	0x3d9084e5	0.070565976
199	0x3ad59669	0.0016295436
200	0xbcaa68b8	-0.020801887
201	0xbd46ac82	-0.04850436
202	0xbd4a4e93	-0.04939134
203	0xbca64b55	-0.020299593
204	0x3cf24ba5	0.029577086
205	0xbca4e1e7	-0.02012725
206	0xbd7a3900	-0.061089516
207	0xbd6980a0	-0.057007432
208	0xbbae1aa4	-0.0053132344
209	0xbc50440d	-0.012711537
210	0x3cce7f74	0.025207259
211	0xbcd0c964	-0.025486656
212	0x3c97e041	0.01853955
213	0x3ca96773	0.020679211
214	0xbd26ca93	-0.040720534
215	0xbbbf06e8	-0.0058296807
216	0xbb6cf4ac	-0.0036156578
217	0x3baf9c46	0.0053592054
218	0xbd3710c2	-0.044693716
219	0x3d38994b	0.045068067
220	0x3c8effe3	0.017456
221	0xbd06f73f	-0.032950636
222	0x3c32f365	0.010922288
223	0xbd4d7507	-0.050160434
224	0xbcca8c30	-0.02472505
225	0xbd3999a1	-0.045312528
226	0xbb9c6967	-0.004773307
227	0x3d454f7d	0.04817151
228	0x3d17b2e4	0.037035838
229	0x3ca92404	0.020647056
230	0xbbe24081	-0.006904662
231	0xbbd4f2fa	-0.0064986916
232	0x3d27d58c	0.04097514
233	0xbca90367	-0.020631505
234	0xbd2f69de	-0.042825572
235	0xbd55d896	-0.052208506
236	0x3aa5dc97	0.0012654242
237	0xbc8d587d	-0.017254109
238	0xbd04c57a	-0.03241489
239	0x3c1e2f6f	0.009654864
240	0x3ca15b81	0.019696953
241	0xbcb1dd40	-0.021711946
242	0x3c43e82f	0.011957212
243	0xbd2380f7	-0.039917912
244	0x3d1b1456	0.03786119
245	0x3bab49aa	0.0052272873
246	0x3d69835b	0.057010036
247	0xbb5c9e3f	-0.0033663658
248	0x3bfb6e39	0.0076730517
249	0xbb87cb94	-0.0041441415
250	0x3d2a69a3	0.04160465
251	0xbd20dc24	-0.039272442
252	0xbb42970a	-0.0029692077
253	0x3c9318fb	0.017956248
254	0x3cc4b7b4	0.024013378
255	0xba89cd9d	-0.0010513548

bias f4 [32]
0	0x3c3c51f8	0.011494152
1	0x3cfc7770	0.030818671
2	0xbc02fc7c	-0.007994767
3	0x3d04f7f5	0.032463033
4	0x3c3e9f8a	0.011634717
5	0xbc11732e	-0.008877559
6	0xbbaf2c73	-0.005345875
7	0xbccd8920	-0.0250898
8	0xbbb2602e	-0.0054435944
9	0xbca36119	-0.01994376
10	0xbb3870b8	-0.0028143357
11	0xbae51341	-0.0017477052
12	0x3d161280	0.036638737
13	0x3c934881	0.017978908
14	0xbc622deb	-0.013804893
15	0xbcf6882f	-0.030094234
16	0xbca73ab8	-0.020413741
17	0xbbab0b6b	-0.005219867
18	0xba109b0b	-0.0005516267
19	0xbc419743	-0.011815849
20	0xbcc86792	-0.024463449
21	0xbcf58446	-0.0299703
22	0x3ce4079d	0.027835662
23	0x3c388ac4	0.011263553
24	0x3cb3e75c	0.021960907
25	0xbc3729b0	-0.011179373
26	0x3ca9c6cb	0.020724675
27	0x3d0f6985	0.03501274
28	0xbcb0e617	-0.02159409
29	0xbc740ddc	-0.014895882
30	0x3cf8f08d	0.030388141
31	0xbc2ff60b	-0.010739814

weight_ih_l0 f4 [96, 32]
0	0xbb23f6d5	-0.002501895
1	0x3c355bd6	0.011069259
2	0x3d9fd717	0.07804697
3	0x3d55f1b5	0.052232463
4	0x3d9a5409	0.0753556
5	0xbe30ff46	-0.17284879
6	0x3dc6845b	0.096932136
7	0x3dc0abfb	0.09407803
8	0x3ab05b4b	0.0013454942
9	0xbdc42374	-0.09577075
10	0x3d806777	0.06269734
11	0x3dfbfbe2	0.12303902
12	0x3de2c501	0.11072732
13	0x3da84919	0.08217067
14	0x3ddb2360	0.107001066
15	0xbe30218e	-0.172003
16	0x3ca77c82	0.020445112
17	0x3dda096f	0.106463306
18	0x3e1a4f9a	0.15069428
19	0x3e3089a6	0.17240009
20	0x3cbd04be	0.02307355
21	0x3e16d9f5	0.14731582
22	0xbd0a6b8e	-0.03379398
23	0x3e3a49f1	0.18192269
24	0x3dbee0ac	0.093201965
25	0x3dd767ae	0.10517822
26	0x3e2eb03b	0.17059414
27	0x3e0bfbea	0.13670316
28	0xbd744f55	-0.05964597
29	0xbd8d88f4	-0.06910887
30	0x3d1e8f5d	0.03871094
31	0x3e15f335	0.14643557
32	0xbdfd507f	-0.12368869
33	0x3cc8f81e	0.024532374
34	0x3dce70e6	0.100801274
35	0xbca85dde	-0.020552572
36	0x3e14487d	0.14480777
37	0x3daa0c0a	0.083030775
38	0x3dd04071	0.10168541
39	0xbd6838d1	-0.05669481
40	0x3e0734d5	0.13203748
41	0x3e140a73	0.14457111
42	0xbdf6a9d6	-0.120441124
43	0xbc82a486	-0.015947592
44	0xbd90c100	-0.07068062
45	0x3ddb5087	0.10708719
46	0x3da5a32e	0.08087765
47	0x3da2724c	0.07931957
48	0x3d896310	0.06708348
49	0x3ad70ed0	0.0016407613
50	0xbe361899	-0.17782821
51	0xbda37fd7	-0.07983368
52	0xbe00b907	-0.12570582
53	0x3e0affda	0.13574162
54	0x3e20a6ca	0.15688625
55	0xbe34f399	-0.1767105
56	0xbbf05098	-0.0073338263
57	0xbc3ed1bc	-0.011646684
58	0xbddcfba5	-0.10790185
59	0x3dfd1dcc	0.12359199
60	0xbd2f9417	-0.04286584
61	0xbe18303c	-0.1486215
62	0xbe057c54	-0.13035709
63	0x3cfae4a9	0.030626612
64	0xbdb38960	-0.087664366
65	0xbe119bb5	-0.14219554
66	0xbe2140d2	-0.15747383
67	0xbdb36945	-0.08760313
68	0x3d17a4cc	0.037022397
69	0x3e2a1c29	0.16612305
70	0x3d8504c8	0.064950526
71	0xbcd99dda	-0.026564527
72	0x3cf017fb	0.02930831
73	0xbdce4630	-0.10071981
74	0x3ddae131	0.10687483
75	0xbe1f983d	-0.15585418
76	0xbdf25cd5	-0.118341126
77	0x3df89b54	0.121390015
78	0x3dcc6261	0.09979702
79	0xbc998db1	-0.018744322
80	0x3dddfb18	0.10838908
81	0x3daaaf3a	0.08334203
82	0xbe2090c3	-0.15680222
83	0x3e373d89	0.17894568
84	0xbbee9f2a	-0.0072821574
85	0xbd471ed7	-0.048613396
86	0x3def584e	0.11686765
87	0x3d33a778	0.043860883
88	0x3e0b2a2c	0.13590306
89	0xbc609fda	-0.013709987
90	0xbe290cb2	-0.16508749
91	0xbe0113e8	-0.1260525
92	0x3e0a29b5	0.13492472
93	0xbdc7e77f	-0.09760951
94	0x3dbd1a45	0.09233526
95	0xbd87756b	-0.066141926
96	0x3d765f0b	0.060149234
97	0x3de5e9f7	0.11226266
98	0x3c09895c	0.008394565
99	0xbe325f07	-0.17419063
100	0xbde6b630	-0.11265218
101	0x3dcbc2ab	0.09949239
102	0xbdbe5c02	-0.09294893
103	0xbca45c70	-0.020063609
104	0x3d204e3a	0.039137103
105	0x3e31b4b1	0.17354085
106	0xbd81f4b4	-0.063455015
107	0xbc69f625	-0.014279877
108	0x3cde349a	0.027124692
109	0x3d9010f9	0.07034487
110	0x3ded0b73	0.115744494
111	0xbd291309	-0.04127792
112	0x3e250bb6	0.16117749
113	0x3dd58230	0.10425222
114	0x3d8c6f0f	0.0685712
115	0xbe195e85	-0.14977463
116	0x3e0d48b5	0.13797267
117	0xbd954a6b	-0.07289585
118	0x3e075168	0.13214648
119	0x3de6ac5a	0.11263342
120	0x3c2cd198	0.010548018
121	0xbd72bc9b	-0.0592619
122	0x3dd58e25	0.104275025
123	0x3cb59410	0.022165328
124	0x3e00fa3c	0.12595457
125	0x3e1744a2	0.14772275
126	0x3e023ad7	0.12717758
127	0x3e27cba0	0.1638627
128	0xbdd26649	-0.102734156
129	0xbde05f5e	-0.1095569
130	0x3ce46882	0.027881864
131	0xbc33595a	-0.010946596
132	0xbe160cf5	-0.1465338
133	0xbd032527	-0.032017853
134	0x3df729dc	0.12068531
135	0x3e09b01c	0.13446087
136	0x3d4990cd	0.04921036
137	0xbde74575	-0.11292545
138	0x3d10a4f1	0.03531355
139	0xbce24b82	-0.027623896
140	0xbc38d0e0	-0.011280268
141	0x3e278f42	0.16363242
142	0xbdba0c37	-0.09084361
143	0xbe2c0600	-0.16799164
144	0x3de6637a	0.112494424
145	0xbdadc204	-0.08484271
146	0xbdb95c66	-0.09050827
147	0x3e321e62	0.17394403
148	0xbda7188d	-0.081589796
149	0x3e253744	0.16134363
150	0xbcfef2c3	-0.031121617
151	0xbe09e50d	-0.13466282
152	0x3da7116d	0.081576206
153	0x3ca0dc73	0.019636368
154	0x3de3620b	0.111026846
155	0x3e0ff8f3	0.1405981
156	0x3d16790f	0.036736544
157	0x3dff9409	0.12479407
158	0x3d888d45	0.0666757
159	0x3e1f3442	0.15547279
160	0xbe20a35b	-0.15687315
161	0x3cc568cc	0.024097823
162	0x3db5245f	0.08844828
163	0x3df30c45	0.118675746
164	0x3d6c5c6f	0.05770534
165	0xbe4a6dd0	-0.19768453
166	0xbc4208b1	-0.0118428925
167	0x3e2168d7	0.1576265
168	0xbe09c7dd	-0.13455148
169	0x3d8b6d0b	0.06807908
170	0xbcc3fcd9	-0.023924278
171	0xbd21c973	-0.039498758
172	0x3de40899	0.111344524
173	0x3e25cddb	0.16191809
174	0x3e202eaa	0.15642801
175	0x3db96f95	0.09054486
176	0x3d25c6f1	0.04047293
177	0x3e0adb48	0.13560212
178	0x3e0a1c56	0.13487372
179	0xbe2f792a	-0.17136064
180	0xbcdb8354	-0.02679602
181	0x3de2c4ee	0.110727176
182	0x3e249dde	0.16075847
183	0x3dd56379	0.104193635
184	0xbd98d455	-0.07462374
185	0x3e0bb91c	0.13644832
186	0xbcbaee54	-0.022818722
187	0x3d02e293	0.03195436
188	0xbd5d38fa	-0.054009415
189	0xbb50ebce	-0.0031878832
190	0xbcdeb4be	-0.027185794
191	0x3db357d1	0.08756984
192	0xbe024ae2	-0.12723878
193	0x3e0e4c54	0.13896304
194	0x3e0d0dff	0.1377487
195	0x3d99b1cb	0.075046144
196	0xbe2be58d	-0.16786785
197	0xbdf9b05c	-0.12191841
198	0xbe2eb849	-0.17062487
199	0x3e1bea03	0.15225987
200	0xbe12d1ea	-0.14337888
201	0xbdbeaf40	-0.0931077
202	0x3e0ebe59	0.139398
203	0x3dcb7d95	0.09936062
204	0xbe394f25	-0.18096597
205	0xbd886ac4	-0.06660989
206	0xbe0bd105	-0.13653953
207	0x3e3a5c71	0.18199326
208	0x3cdae5ad	0.026720846
209	0xbbb85223	-0.005625026
210	0x3df9096b	0.121599995
211	0x3e1cc0a9	0.15307869
212	0xbd079c6e	-0.033108167
213	0xbc8f136a	-0.017465312
214	0xbb3d8985	-0.002892108
215	0xbdecc04f	-0.115601175
216	0xbd3f8f06	-0.046767257
217	0x3bf63543	0.0075136735
218	0x3d1ea3fe	0.038730614
219	0x3d58e4fd	0.052952755
220	0x3d1253ca	0.03572444
221	0x3cd03190	0.025414258
222	0xbdac700e	-0.0841981
223	0x3d892cea	0.0669802
224	0xbe18bf37	-0.14916693
225	0x3de2c615	0.110729374
226	0x3e2404e6	0.16017494
227	0xbcb26e9e	-0.021781262
228	0xbddb30ca	-0.10702665
229	0xbdf9b300	-0.12192345
230	0x3bac6240	0.0052607358
231	0xbce00ec0	-0.027350783
232	0x3e153ecc	0.14574736
233	0xbd7fef66	-0.062484168
234	0xbe2a5a61	-0.1663604
235	0x3d4abc2d	0.049495865
236	0xbdf49710	-0.119428754
237	0x3d9cbae3	0.07652833
238	0x3da5f46f	0.08103263
239	0xbd2e2712	-0.04251773
240	0x3e0ef48c	0.13960475
241	0xbe465730	-0.19369197
242	0xbdc1e987	-0.0946837
243	0x3e12a331	0.14320065
244	0xbdf3ce46	-0.11904578
245	0xbe00cf92	-0.12579182
246	0x3d806e49	0.06271035
247	0x3d41e709	0.047339473
248	0xbe24a8d8	-0.16080034
249	0xbe0999e6	-0.13437614
250	0xbd91953c	-0.07108542
251	0xbd844ee4	-0.0646036
252	0xbd94f8f5	-0.07274047
253	0xbe19d7be	-0.15023705
254	0xbdad862a	-0.084728554
255	0x3e24c164	0.16089398

weight_hh_l0 f4 [96, 32]
0	0x3e3769c9	0.17911448
1	0x3da7aa49	0.08186776
2	0x3d0205b0	0.031743705
3	0x3e2a445c	0.1662764
4	0xbd7f790c	-0.0623713
5	0x3deb86f5	0.115003504
6	0x3d8b467f	0.068005554
7	0x3e10afa9	0.14129509
8	0xbd70387d	-0.05864762
9	0xbd4b22e5	-0.049593825
10	0xbdcb5dc6	-0.09929995
11	0xbcc96b5a	-0.024587322
12	0xbde34ebd	-0.110990025
13	0xbd96b4b7	-0.07358687
14	0x3e087245	0.1332484
15	0x3e05d859	0.13070811
16	0xbc0fa01d	-0.008766201
17	0x3e16794d	0.1469471
18	0xbe03ed89	-0.12883581
19	0xbe05d495	-0.13069375
20	0x3de6e7df	0.11274695
21	0x3e02abb7	0.12760817
22	0xbd938af0	-0.072042346
23	0xbd7a2093	-0.06106622
24	0xbbffcb1f	-0.0078061963
25	0x3dc7e479	0.097603746
26	0x3dddae51	0.10824264
27	0x3e323643	0.17403512
28	0x3cc288c6	0.02374686
29	0x3e1e6eb1	0.15471913
30	0xbe1f9624	-0.15584618
31	0x3bb707d3	0.0055856495
32	0xbdf1b6f5	-0.118024744
33	0xbdf49a6c	-0.11943516
34	0x3d24be36	0.04022046
35	0xbc4bfe4e	-0.012450768
36	0x3cbd5fbc	0.023116939
37	0x3cd144f6	0.025545578
38	0x3e0c6573	0.13710575
39	0xbdd20405	-0.10254673
40	0x3e02f894	0.12790138
41	0xbe0aca3d	-0.1355371
42	0x3ceab3f4	0.028650261
43	0xbc8845e9	-0.016634898
44	0xbd66f52b	-0.056386154
45	0xbe13921e	-0.14411208
46	0x3d2ebb9f	0.0426594
47	0x3d7283cc	0.059207723
48	0x3db3b795	0.0877525
49	0x3e22672e	0.15859672
50	0xbe2fe791	-0.1717818
51	0xbbefa467	-0.0073132995
52	0xbdaebd12	-0.08532156
53	0xbcaff755	-0.021480242
54	0x3df74d6a	0.120753124
55	0xbd913f1f	-0.070921175
56	0xbdbe38af	-0.09288155
57	0x3da8a402	0.08234407
58	0x3d1979ba	0.037469603
59	0x3d8caa4e	0.068684205
60	0x3e01e38e	0.12684461
61	0x3d7acd05	0.061230678
62	0x3c12093e	0.008913336
63	0x3d70825e	0.058718078
64	0xbe04a037	-0.12951742
65	0x3de877bc	0.113509625
66	0x3d2e5144	0.04255797
67	0x3d105442	0.035236605
68	0x3e2016c8	0.1563369
69	0xbd1b986f	-0.03798717
70	0x3dbe859b	0.09302827
71	0x3db7b9cd	0.089709856
72	0xbd8ed3d5	-0.069739975
73	0x3b26cf40	0.002545312
74	0x3d1eb022	0.038742192
75	0x3e245780	0.16049004
76	0x3db84b72	0.08998765
77	0xbe0d0848	-0.1377269
78	0xbcf299f3	-0.029614424
79	0x3d335781	0.043784622
80	0x3d0a3109	0.03373817
81	0x3d7d766d	0.061880518
82	0xbd9b26ce	-0.07575761
83	0xbe393fd3	-0.18090753
84	0x3c77f587	0.015134222
85	0xbde75103	-0.11294749
86	0xbdd579d4	-0.104236275
87	0x3d6677da	0.056266643
88	0xbe03f51a	-0.12886468
89	0xbd6faaee	-0.05851262
90	0x3d311625	0.04323401
91	0xbe0a123f	-0.13483523
92	0xbdde5304	-0.10855678
93	0x3de1d937	0.110277586
94	0xbda7e20d	-0.08197413
95	0xbdcefea1	-0.1010716
96	0x3bb07a5b	0.0053856797
97	0xbcec5404	-0.028848656
98	0xbd4bc5a2	-0.049749024
99	0x3deada5f	0.11467432
100	0xbdb1bf4d	-0.08679066
101	0xbd0e0b22	-0.034678586
102	0xbd9ebfa2	-0.07751395
103	0x3de512df	0.1118524
104	0x3e06b4d4	0.13154918
105	0x3dacb3c0	0.08432722
106	0xbdca7e02	-0.09887315
107	0x3df04ef7	0.11733811
108	0xbe25fcc2	-0.162097
109	0x3cfb4171	0.030670853
110	0xbe22d8ed	-0.15903063
111	0x3decc160	0.11560321
112	0x3e073e23	0.13207297
113	0x3e36bb4e	0.17844889
114	0xbd336454	-0.043796852
115	0x3e1b06e1	0.15139343
116	0xbbc8eea0	-0.006131962
117	0xbe1059cd	-0.14096756
118	0x3d61925b	0.055071216
119	0x3e1a09b3	0.15042762
120	0x3e0bf7c2	0.13668731
121	0xbdb8dca6	-0.0902646
122	0x3e066be2	0.13127092
123	0xbc15fa83	-0.009153965
124	0x3e104ab6	0.14091
125	0x3e217d88	0.15770543
126	0xbe24afc6	-0.16082677
127	0x3cc53cd1	0.024076851
128	0xbd5979fc	-0.05309485
129	0x3e127c0e	0.14305136
130	0x3d9c3a18	0.07628268
131	0x3cbcbaf2	0.023038361
132	0x3d1f8123	0.038941514
133	0xbd9016bb	-0.070355855
134	0xbd487cab	-0.048947018
135	0xbdadbd3a	-0.08483358
136	0xbc4df6c5	-0.0125710415
137	0xbc1ba8a8	-0.00950066
138	0x3da6bf28	0.08141929
139	0xbd7980ee	-0.060913973
140	0x3df6646a	0.12030871
141	0x3d00551b	0.031331163
142	0xbe02946b	-0.1275193
143	0x3cb81d74	0.022474982
144	0xbe334546	-0.17506894
145	0x3df0275a	0.11726256
146	0x3ba8f6cb	0.005156373
147	0x3e024384	0.12721068
148	0x3e2e4160	0.17017126
149	0xbdc15ba5	-0.09441308
150	0x3e1672b2	0.1469219
151	0xbdaf0a17	-0.08546846
152	0x3d1b2560	0.03787744
153	0xbe06629f	-0.13123558
154	0x3e2edfed	0.17077608
155	0xbdd0a762	-0.10188176
156	0x3c4453bd	0.011982855
157	0xbd3afe83	-0.045652878
158	0x3d3a5a1e	0.0454961
159	0x3db19eeb	0.08672889
160	0x3de8e62f	0.11372029
161	0xbe2d7004	-0.16937262
162	0x3dd9959f	0.10624241
163	0xbcbfdf2a	-0.023421843
164	0xbdebbe93	-0.115109585
165	0x3df841b2	0.121219054
166	0xbd87df90	-0.06634438
167	0xbd70cc43	-0.05878855
168	0x3da984aa	0.08277257
169	0xbdb9b11f	-0.09066986
170	0xbde43ccd	-0.11144409
171	0xbd9a7fa0	-0.07543874
172	0xbd8f8b9e	-0.07009052
173	0xbc93f9bf	-0.018063424
174	0x3d3cf397	0.046130743
175	0xbe3c1eab	-0.18371074
176	0xbdaac649	-0.08338601
177	0xbdbbb773	-0.091658495
178	0x3cc61bd2	0.024183188
179	0x3e0c56fb	0.13705055
180	0x3d3691dd	0.0445727
181	0xbe241dc5	-0.16026981
182	0xbe324147	-0.17407714
183	0xbe2346ca	-0.15944973
184	0x3d655ec6	0.055998586
185	0xbdd171ae	-0.10226761
186	0x3d43b6f8	0.047781914
187	0x3e103cb2	0.14085653
188	0xbe3e170e	-0.18563482
189	0xbe0dc6ca	-0.13845363
190	0xbd351ef8	-0.044218987
191	0x3e231c3b	0.15928738
192	0x3d1f21cd	0.038850594
193	0xbddd199f	-0.107959025
194	0xbcd74d59	-0.026282
195	0x3d5c9125	0.053849358
196	0x3d10bc8b	0.03533606
197	0xbce61aab	-0.028088888
198	0x3e11f35b	0.14252989
199	0x3d279ce6	0.040921114
200	0xbdc145d3	-0.09437146
201	0xbe0c152f	-0.13679956
202	0xbe107d8e	-0.14110395
203	0xbe363bac	-0.177962
204	0x3dd3ebe5	0.10347728
205	0x3dbbfac8	0.09178692
206	0xbdf1d670	-0.11808479
207	0x3e0f57ac	0.13998288
208	0xbaed1cec	-0.0018090284
209	0xbda69b8b	-0.08135136
210	0x3d1588d3	0.03650744
211	0xbdeca281	-0.11554433
212	0xbe0aa825	-0.13540705
213	0xbdeb9b2d	-0.11504207
214	0xbdd5023f	-0.10400819
215	0xbd4def93	-0.050277304
216	0xbdb54f90	-0.08853066
217	0xbe0a8b02	-0.1352959
218	0xbdb1df71	-0.08685196
219	0xbdba3d86	-0.09093766
220	0xbd25c07e	-0.040466778
221	0xbd5eaee7	-0.05436602
222	0xbcaaef1f	-0.020865975
223	0xbddf022c	-0.10889086
224	0x3e03070c	0.12795657
225	0xbdbad920	-0.091234446
226	0xb9e11c4a	-0.0004293642
227	0x3d059b2a	0.03261868
228	0xbdca569e	-0.09879802
229	0x3e2a8c23	0.1665502
230	0x3d07c23a	0.033144213
231	0x3d48d350	0.04902965
232	0x3cdf7a4e	0.02728
233	0xbdb20f3f	-0.08694314
234	0xbd19c779	-0.037543748
235	0xbd8d0f33	-0.06887665
236	0x3d50c413	0.05096824
237	0xbdd86dc9	-0.10567815
238	0xbe319ba8	-0.17344534
239	0xbda3171d	-0.07963393
240	0x3e28ea58	0.16495645
241	0x3d6c0e0a	0.057630576
242	0xbd569236	-0.05238553
243	0xbd3c2032	-0.04592914
244	0xbc89ff42	-0.01684535
245	0xbd12eac3	-0.035868417
246	0x3de926c0	0.11384344
247	0x3e029075	0.12750418
248	0xbdce5e78	-0.10076612
249	0x3d492ce9	0.049115095
250	0xbcb3ee4c	-0.021964215
251	0xbd59a36e	-0.053134374
252	0xbdadb652	-0.084820405
253	0xbde130a2	-0.10995604
254	0x3e296c68	0.1654526
255	0xbd9f8a36	-0.077900335

bias_ih_l0 f4 [96]
0	0x3d86e2d8	0.06586236
1	0xbd4fd5aa	-0.050740875
2	0x3e0378e0	0.12839079
3	0xbe2082ae	-0.1567485
4	0xbdf019af	-0.11723649
5	0x3e06a4d0	0.13148808
6	0x3d09aee2	0.033614047
7	0x3e072c00	0.13200378
8	0x3d7f1dc1	0.062284235
9	0x3d12333d	0.035693396
10	0x3df77522	0.12082888
11	0xbe2fa427	-0.17152463
12	0x3c441d2c	0.011969846
13	0x3be2980a	0.006915097
14	0xbda99044	-0.082794696
15	0xbc9f4cd0	-0.019445807
16	0x3cd3f7e9	0.025875049
17	0xbd8e52e0	-0.06949401
18	0xbe445bc6	-0.19175634
19	0xbe1f77b9	-0.15573014
20	0xbe2824af	-0.16420244
21	0x3e082c21	0.13298084
22	0xbe258b42	-0.16166404
23	0xbcff5cb8	-0.031172141
24	0x3daeed1d	0.085413195
25	0xbdaf759b	-0.08567353
26	0xbe0a67e4	-0.13516194
27	0xbdf3b2c7	-0.118993334
28	0xbe0fa0fd	-0.14026256
29	0x3d773a8f	0.06035858
30	0x3d0f5bbf	0.034999605
31	0x3d6e0175	0.05810686
32	0xbd9305e3	-0.07178857
33	0x3db41d8a	0.08794697
34	0x3e05e2ed	0.13074847
35	0xbdfaea24	-0.1225169
36	0x3e20ff9c	0.15722507
37	0x3d50b85e	0.050957076
38	0xbe1c47fc	-0.15261835
39	0xbd703ab0	-0.05864972
40	0xbc4bc153	-0.012436229
41	0x3c787f2c	0.015167039
42	0xbe2f7d64	-0.17137676
43	0x3d4a7c12	0.04943473
44	0x3db5a68c	0.08869657
45	0xbc32aaa6	-0.010904944
46	0x3e1a4938	0.15066993
47	0xbc674180	-0.0141147375
48	0xbdee2853	-0.11628785
49	0xbe2670b1	-0.16253926
50	0x3d21cfa2	0.039504655
51	0xbdf2bcf5	-0.11852447
52	0xbd87e211	-0.066349156
53	0x3d9cab49	0.076498576
54	0x3e20f93d	0.15720077
55	0xbdb16f50	-0.08663809
56	0xbdf30c48	-0.11867577
57	0x3c5fa93b	0.0136511875
58	0x3e0c0ee0	0.1367755
59	0xbda71c9d	-0.081597544
60	0xbd283099	-0.04106197
61	0xbdebc630	-0.11512411
62	0x3d63a7e5	0.05558004
63	0x3e4588c8	0.19290459
64	0x3c2e5570	0.010640487
65	0x3df65686	0.12028222
66	0xbcde177c	-0.027110808
67	0x3cc39bd6	0.02387802
68	0xbe325dd4	-0.17418605
69	0xbcbe6b71	-0.023244591
70	0xbcfda070	-0.030960292
71	0x3de8f54e	0.11374913
72	0x3ce4816b	0.027893743
73	0x3ddd73f6	0.108131334
74	0x3c06e688	0.008233674
75	0xbe0bdd82	-0.13658717
76	0xbd1be27a	-0.03805778
77	0xbd4b94ca	-0.049702443
78	0x3deb4c89	0.11489207
79	0xbbdb9efc	-0.006702302
80	0xbd5b50db	-0.053543907
81	0x3e39b885	0.18136795
82	0x3b5fbd81	0.0034140053
83	0x3c609639	0.013707691
84	0x3dca50fd	0.098787285
85	0x3d39a13f	0.045319792
86	0x3dbea7c3	0.09309342
87	0x3dbc2b3c	0.09187934
88	0x3d0dbcc8	0.034603864
89	0xbd4eac95	-0.050457556
90	0x3daad5d9	0.083415695
91	0x3d601041	0.054703
92	0xbdc78b30	-0.09743345
93	0x3e20f7ec	0.15719575
94	0xbe234acf	-0.15946506
95	0x3e1694b4	0.14705163

bias_hh_l0 f4 [96]
0	0xbd8b81ab	-0.068118416
1	0xbbfcc4c7	-0.0077138874
2	0xbcb0ba35	-0.021573165
3	0xbe2146ad	-0.15749617
4	0x3de93a75	0.11388103
5	0x3dd2942a	0.10282166
6	0xbcd2379a	-0.025661279
7	0xbd422861	-0.04740179
8	0xbdc4886d	-0.09596334
9	0x3dbdb81e	0.09263633
10	0xbd62246a	-0.05521051
11	0x3e2472a7	0.16059361
12	0xbe08838a	-0.13331428
13	0x3d80570f	0.06266605
14	0x3d6b74ea	0.057484545
15	0x3e269966	0.16269454
16	0x3e1725f1	0.14760567
17	0xbc736b21	-0.0148570845
18	0xbe3d33b4	-0.18476754
19	0xbdb9e352	-0.09076561
20	0x3d40a4e1	0.04703224
21	0xbcb9051c	-0.022585444
22	0xbce1a6f1	-0.027545424
23	0xbde8a0fc	-0.1135883
24	0xbd47831d	-0.048709024
25	0xbdf9dc53	-0.12200227
26	0x3d9d26e3	0.07673433
27	0xbe1aa67a	-0.15102568
28	0x3df8375c	0.12119934
29	0xbe131629	-0.14363922
30	0x3e108719	0.14114036
31	0xbde6cf0d	-0.112699606
32	0x3dbdb0da	0.092622474
33	0xbe1b9eb8	-0.15197265
34	0xbd867433	-0.06565132
35	0xbd9d6ef8	-0.07687181
36	0xbdb8a3bb	-0.09015604
37	0x3d81c10d	0.0633565
38	0x3e3650ef	0.17804311
39	0xbdb8f83a	-0.090317205
40	0x3ce7de36	0.0283042
41	0xba2589d9	-0.00063147914
42	0x3dcb7a35	0.099354185
43	0x3e0bd4bb	0.13655369
44	0x3dc5dc10	0.09661114
45	0xbd0b5ed0	-0.034025967
46	0x3d9525e1	0.072826155
47	0xbd23a085	-0.039948005
48	0xbdcf325a	-0.10117026
49	0xbde10f6b	-0.10989269
50	0xbe3a087f	-0.18167304
51	0xbe0989ea	-0.13431516
52	0x3c008b74	0.007845748
53	0xbcd455f4	-0.025919892
54	0x3d5bc98c	0.053659007
55	0x3d02629c	0.031832322
56	0xbd41be11	-0.047300402
57	0x3dbfe329	0.09369499
58	0x3e157cb2	0.14598349
59	0xbd7f8bfe	-0.062389366
60	0xbdfbbd0f	-0.122919194
61	0x3e0880cd	0.13330384
62	0x3e2b5a10	0.16733575
63	0xbc22992c	-0.009924214
64	0xbbc4bb59	-0.006003779
65	0xbd20c0d1	-0.039246384
66	0x3d7beb7a	0.061503865
67	0xbdea2f8c	-0.1143485
68	0x3e20f882	0.15719798
69	0x3cd9a30c	0.026567005
70	0x3c26fc31	0.010191963
71	0xbdb1a677	-0.08674329
72	0xbd8fba21	-0.07017923
73	0x3d3675b0	0.04454583
74	0x3e22baf3	0.15891628
75	0xbde7287a	-0.11287017
76	0xbdbad2d2	-0.09122242
77	0xbcc97e66	-0.024596404
78	0xbe2284f8	-0.15871036
79	0x398fafaf	0.0002740598
80	0x3e2acd03	0.16679768
81	0x3e03187d	0.1280231
82	0x3d85866e	0.06519781
83	0x3de2e9f7	0.110797815
84	0x3d6e1214	0.05812271
85	0x3e3dd9ca	0.18540111
86	0x3d8b88fb	0.06813236
87	0xbe193f16	-0.14965472
88	0xbe04ab9f	-0.12956093
89	0xbe247893	-0.1606162
90	0x3dcda96d	0.10042081
91	0xbcc95319	-0.024575757
92	0xbd934f10	-0.07192814
93	0xbd1a6a69	-0.037699137
94	0xbe13e402	-0.14442447
95	0xbd93b8c3	-0.07212975
