pre_trained_models/meld_senti_aligned_L_UniMF.pt (torch, 749737 bytes, 109 tensors)

cls f4 [33, 32]
000000 64 69 0f 3e 90 83 dd bc 4c 39 62 be 2c b4 ab 3d
       0.14005047 -0.027040273 -0.2209217 0.083839744
000010 c0 54 64 3e e2 1c bd bd ec 16 97 be 30 6a 59 3d
       0.22297955 -0.092340246 -0.29509676 0.053079784
000020 64 e7 4a be 70 a8 e9 3d b6 57 86 3e d8 46 d0 bd
       -0.19814831 0.1140908 0.26238793 -0.101697624
000030 11 be 94 be 2c b5 42 3e 98 22 63 be 58 18 a7 3d
       -0.2905126 0.19014424 -0.22181165 0.0815894
000040 76 ef d2 bd 64 76 8a be 98 03 1e bd 58 30 46 bd
       -0.1029958 -0.2704345 -0.038577646 -0.048385948
000050 5e c0 48 be d0 22 fd 3d d0 74 3e 3e 30 76 0b bd
       -0.19604632 0.123601556 0.18599248 -0.03404826
000060 34 4f a4 3d 52 a7 28 be 84 22 b5 bd c0 c4 86 bd
       0.08022919 -0.16470078 -0.08844474 -0.06580496
000070 ce ca 8a bd 8e 85 3c be c0 33 6f be e4 cc c4 3d
       -0.06776963 -0.18410322 -0.23359585 0.09609392
000080 7e c4 2f be 43 25 2f be bc 32 93 be e2 55 53 be
       -0.171648 -0.17104058 -0.28749645 -0.2063823
000090 22 e3 8b be 10 18 94 3d ca 4e 19 3e aa 02 2a be
       -0.27321726 0.07231152 0.14971462 -0.16602579
0000a0 84 5f 8e 3e d1 e6 73 be ea a7 5f be 10 21 63 3e
       0.27807248 -0.23818518 -0.21841398 0.22180581
0000b0 70 af 9f bc 7c fe ae bd d4 6d 1d be 86 f7 20 be
       -0.019492835 -0.08544633 -0.15373927 -0.15719423
0000c0 88 a7 ad bd 99 09 78 be 9f 86 05 be 88 dd 0b be
       -0.0847922 -0.24222411 -0.13039635 -0.13658726
0000d0 77 c1 84 be 10 67 7b 3e 60 8d ce bd 94 a4 e1 bd
       -0.25928852 0.24551034 -0.10085559 -0.11017719
0000e0 ee 84 61 be c2 39 3a 3e 64 d4 a2 bd ca 52 86 3e
       -0.22023365 0.18186095 -0.079506665 0.26235038
0000f0 23 ae 2e be 73 db 0d be 93 7c 6d be 90 ca 95 3e
       -0.17058615 -0.13853244 -0.23192053 0.29256105
000100 26 53 96 bd 1c f3 59 3e 7c 85 5d 3e 57 7a 9a be
       -0.07340078 0.21284145 0.21632951 -0.30171463
000110 80 90 8a bb 28 71 78 3e 4a 05 04 be 72 1e 81 3e
       -0.0042286515 0.24261916 -0.12892643 0.2521854
000120 9e 45 87 be 7e 83 d7 bd 42 04 83 be 8e c9 88 3e
       -0.264203 -0.10523127 -0.25589186 0.26716274
000130 6e 19 6e be c8 fb 83 3e 88 42 5e be 98 f3 aa bd
       -0.23251888 0.2577803 -0.21705067 -0.08347243
000140 12 12 8b 3e c0 e3 34 3e 08 06 0d 3e c8 f2 4d 3d
       0.27162224 0.17665005 0.13771832 0.050280362
000150 02 21 da bd 6a e5 16 be 00 c3 09 3e 90 c9 4f 3d
       -0.10650827 -0.14735952 0.13453293 0.050729334
000160 c0 7c 84 3d c8 c8 01 bd 8f 65 68 be c2 93 18 3e
       0.06469107 -0.03168562 -0.22694992 0.14900115
000170 d8 3e b7 3d fe b1 99 3e 00 38 98 ba 20 00 d2 3d
       0.08947533 0.3001861 -0.0011613369 0.1025393
000180 48 58 8b 3e 88 bf 48 bd b6 e0 8c bd a1 95 1d be
       0.2721579 -0.049010783 -0.06878798 -0.1538911
000190 00 1c f5 39 ea 86 94 3e b5 fc 42 be e0 78 51 3e
       0.00046750903 0.2900918 -0.19041713 0.20456266
0001a0 5d cc 24 be 90 19 51 3e a1 2b 26 be 30 42 25 3d
       -0.16093583 0.20419908 -0.1622758 0.040346324
0001b0 3e 8f 9a 3e e6 34 18 be c8 94 8f 3d 74 d4 10 3e
       0.3018741 -0.14863929 0.070108 0.14143544
0001c0 e0 bb 97 be 28 f0 9b 3d 6c 1d 11 3e ac c3 a8 bd
       -0.29635525 0.076141655 0.1417138 -0.082404464
0001d0 c6 5a 22 be b0 30 04 bd 78 65 22 bd 46 8c 9b 3e
       -0.1585494 -0.032272995 -0.03964755 0.30380458
0001e0 88 d1 14 bd a8 05 0b bd 1a 47 cf bd 7e 73 8e be
       -0.036332637 -0.03394094 -0.101209834 -0.2782249
0001f0 d8 82 82 be 54 b2 7f bd c6 08 42 3e 00 bb a9 3c
       -0.2549045 -0.062425926 0.1894866 0.020719051
000200 f0 d6 14 be 80 4a f2 3b 3d e1 76 be 91 bf 40 be
       -0.14535117 0.007394135 -0.24109359 -0.18823077
000210 1e 82 05 3e 18 fb 73 3e 24 12 50 3e b8 0d e3 3d
       0.13037917 0.23826253 0.2031942 0.11086601
000220 4d 26 0b be 8a 3a a4 bd 42 61 2a be 00 e1 c0 3d
       -0.1358883 -0.08018978 -0.16638663 0.09417915
000230 00 b2 f5 3c 9e f2 80 be c0 c5 fa bb 1c f0 70 3e
       0.029992104 -0.25185102 -0.007652968 0.23529094
000240 c0 ec 15 3c c8 68 9d 3d 80 a3 97 be 60 80 fb bc
       0.009150684 0.07686001 -0.29616928 -0.030700862
000250 8c 13 7a bd 84 7c 94 be 79 c8 95 be 50 fd 10 be
       -0.061053798 -0.29001248 -0.2925451 -0.14159131
000260 fc 2d 9c 3d 9a 9f 80 bd c0 cb b1 3b e0 2a 63 3e
       0.07625958 -0.062804416 0.0054259 0.22184324
000270 40 0a 56 3e 28 9a 5a 3d 78 28 65 3e 9c 80 46 3e
       0.20902348 0.05336967 0.22378719 0.19384998
000280 7c d6 52 3e 6c e9 a8 bd 08 6a 8e 3e 58 62 54 3d
       0.20589632 -0.08247647 0.2781527 0.0518516
000290 85 46 9a be da f3 0c be 20 e3 21 bd e8 cf 4d bd
       -0.30131927 -0.13764897 -0.039523244 -0.050247103
0002a0 c6 1c 97 bd cc 15 60 3e 7e e5 89 3e 06 fa 51 be
       -0.07378535 0.21883315 0.269329 -0.20505533
0002b0 00 66 0b 3c f3 2c 97 be aa 8c 8d be e6 31 ed bd
       0.008508205 -0.2952648 -0.2764638 -0.11581783
0002c0 7c a0 36 3e 5a 40 62 be a8 de 57 3e c0 79 bb 3c
       0.17834657 -0.2209486 0.2108103 0.022885203
0002d0 08 9f 43 3d 00 d7 7c 3e 48 ef 58 3e 00 23 cb bc
       0.047759086 0.24691391 0.21185029 -0.024796963
0002e0 20 6b 75 3c 1a bc 80 3e f8 28 0f be 56 c6 3f 3e
       0.014979154 0.2514351 -0.13980472 0.18728003
0002f0 f3 45 03 be a0 03 22 be 9c 34 06 3e ec d0 c7 3d
       -0.12819652 -0.15821695 0.13106006 0.097566456
000300 e0 28 b5 bc f0 b7 bc 3c f4 14 e2 3d 76 49 47 be
       -0.022114217 0.023036927 0.11039153 -0.19461617
000310 e8 13 88 bd 68 d9 72 3e ea 23 07 3e c4 0d 57 3e
       -0.06644422 0.23715746 0.13197294 0.21001345
000320 99 5c 99 be 00 13 e0 3b 62 6c 5e be 6e d1 e6 bd
       -0.2995346 0.0068382025 -0.21721032 -0.11270414
000330 7c a3 92 3e 06 ae 98 3e 48 43 72 3d 86 56 00 3e
       0.28640354 0.2982027 0.059146196 0.12533006
000340 5c 1b 97 3e e0 c2 70 3e 00 90 d6 bb fe da 14 be
       0.2951306 0.23511839 -0.006547928 -0.14536664
000350 52 94 10 be 3c 1e 0f 3e a0 69 e9 bd 08 ff ea 3d
       -0.1411908 0.13976377 -0.113970995 0.114744246
000360 0c 99 6e 3e f1 0f 5b be 00 97 d7 3d cc 2b e8 3d
       0.2330057 -0.213928 0.10526848 0.113364786
000370 d0 ae 7c bd 38 fc 78 be fc d9 52 3e 34 38 24 3e
       -0.06169015 -0.24314964 0.20590967 0.16037065
000380 02 83 1f be 0e e6 94 bd 42 a6 6c be 9a 6f 8a 3e
       -0.1557732 -0.07270442 -0.23110297 0.2703827
000390 00 36 91 ba bd 8b 67 be ed 97 01 be f8 56 91 bd
       -0.0011078715 -0.226119 -0.12655611 -0.07096666
0003a0 1a dc 2d 3e 14 65 2e 3e 48 d6 66 3d 4c 64 e6 3d
       0.16978493 0.17030746 0.0563567 0.11249599
0003b0 b8 f2 81 be 56 06 08 3e e8 a6 74 3e 86 38 6b be
       -0.25380492 0.13283667 0.23891795 -0.2297078
0003c0 c0 e6 88 bb c0 7f cb bb c4 d8 81 bd a8 b5 44 bd
       -0.004177898 -0.0062102973 -0.06340173 -0.048024803
0003d0 d0 06 ba 3d 98 1d 11 be 10 af d4 3c 24 aa e3 3d
       0.09083331 -0.14171445 0.025962383 0.11116436
0003e0 4e 0a 07 3e 30 28 89 3e ee b6 3d be 64 e1 0f 3e
       0.13187525 0.26788473 -0.18526813 0.14050823
0003f0 40 2a 5e bc c0 97 0c 3c a5 41 8f be 42 8b 92 be
       -0.013559878 0.008581102 -0.2797977 -0.2862187

weight f4 [32, 600, 1]
000000 64 f9 9a bc 2b 2f 30 3d ea 90 1e 3d 56 28 b5 bb
       -0.018917747 0.043013733 0.03871242 -0.00552849
000010 f3 92 0d bd f7 a0 db 3c 1c af 0b 3d 34 c9 07 3d
       -0.03456397 0.026810152 0.034102544 0.033150867
000020 ac c4 75 3c 0c 0d 9a 3c 94 b0 63 bd 75 7c 40 3d
       0.0150005035 0.01880505 -0.05558832 0.04699369
000030 3c 5a d2 3c ac a7 ed bc 50 1b 38 bd 53 6f 1f bd
       0.025677793 -0.029010616 -0.044947922 -0.038924526
000040 93 e7 43 bd b8 35 a0 39 52 63 28 bd 93 b8 89 3d
       -0.04782827 0.00030557602 -0.041110344 0.06724658
000050 bc 4e ac 3b d8 70 df 3b 4d 69 e9 3c aa 88 05 3c
       0.0052584093 0.006818872 0.028492594 0.008150259
000060 67 b5 4b 3d 33 a7 42 bb af 99 1c 3d ea 5a 68 3d
       0.049733546 -0.002970171 0.0382325 0.056727327
000070 1a d1 1e bc bd 14 d9 3c 8a 74 b5 3c fc ab 81 3d
       -0.009693408 0.026499147 0.022150297 0.063316315
000080 36 b8 04 3d d7 d5 56 3c bc 8c 97 3b 14 75 19 bd
       0.03240224 0.013112507 0.004624931 -0.03746517
000090 78 df 7c bc dc 5e f1 3c ee f6 9a 3d 23 17 e3 3c
       -0.0154341385 0.029464178 0.07566629 0.027720993
0000a0 a6 2c 02 3c ab a9 7e 3d 11 ed e3 bb 43 12 89 3d
       0.007945215 0.062173527 -0.0069557508 0.06692936
0000b0 32 ee 43 bd e9 1e 88 3d 56 bf 4c 3d a1 66 98 3c
       -0.047834583 0.06646521 0.04998716 0.018603625
0000c0 94 db a4 bc 80 f4 71 bc 59 94 86 3c dd 97 4c bd
       -0.020124234 -0.014767766 0.01642816 -0.049949516
0000d0 30 c5 ff bc 06 36 9b 3c fb c7 b1 3c 7e 52 86 3b
       -0.031221956 0.018946659 0.021701803 0.0040991893
0000e0 4a 26 df bc 98 f3 84 bb 09 98 cf 3c 10 0d 0e 3d
       -0.027239937 -0.004057359 0.02534105 0.034680426
0000f0 2a 6a 80 bc 1d 13 34 3d 3c 51 bc 3c 99 df 15 bb
       -0.015675623 0.04396354 0.022987954 -0.002286887
000100 59 3e 48 bd 37 17 c5 bc 4e 2e f4 bc e7 d6 07 bd
       -0.048887584 -0.024058921 -0.029807236 -0.03316393
000110 af 40 c8 3c d2 ea 20 3d 71 79 9b bc 4d 27 82 3d
       0.024444906 0.039286442 -0.018978806 0.06355152
000120 d4 1a 54 bd e7 02 c5 3b 74 f2 2f 3d 22 12 26 3d
       -0.051783398 0.006012309 0.04295583 0.040544637
000130 94 04 6f 3d b9 2e 19 3c 12 e9 df bc c2 cc 8d 3d
       0.058353975 0.009349518 -0.027332816 0.0692382
000140 62 22 09 3d 56 c2 03 3d 90 45 b4 3c f9 81 f9 3c
       0.033480056 0.032167755 0.022005826 0.030457484
000150 59 6b 7c 3d ab dc 6a bd a0 b4 e5 3b 0a 5a 3b 3d
       0.061625812 -0.05733935 0.0070100576 0.045740165
000160 d3 ac 88 bc e9 9b 0e 3d 4f 3c 3a 3d d5 c6 94 3c
       -0.016683972 0.034816656 0.04546767 0.018161217
000170 06 5f 10 3d 6f a9 b5 bc 57 93 4c bd c0 2c bd bc
       0.03524687 -0.022175519 -0.0499452 -0.023092628
000180 4a 27 db 3c 84 5a fe 3c 39 c8 92 3c 74 49 d1 3c
       0.026752133 0.03104902 0.01791774 0.02554772
000190 78 37 b2 3c 0e e8 0c 3d 2f 77 8b 3c 60 de 6e bb
       0.021754965 0.034400992 0.017024605 -0.0036448464
0001a0 bf 74 54 bb cc ba f3 3c 5d 0d 85 bc 40 8b 8d bc
       -0.003241822 0.029752158 -0.016241724 -0.017278314
0001b0 e1 ac 19 bc ea 54 4e 3d c3 6b 89 3c c8 0f 22 bd
       -0.009379596 0.05037395 0.016775018 -0.03956583
0001c0 55 42 cb ba 79 36 e9 3c 32 ba f1 bb 8f 05 32 bd
       -0.0015507439 0.028468357 -0.0073769325 -0.043462332
0001d0 51 97 2c 3c 3b 04 1a bd 69 6d 5e bc 0a 23 4f 3d
       0.0105341235 -0.03760169 -0.01357589 0.050570525
0001e0 97 25 33 3d e0 29 ad bc fd de 3d 3c 31 20 63 3d
       0.04373702 -0.021138132 0.011588809 0.055450622
0001f0 89 84 31 3d de a7 b5 bb 45 b8 94 3d bf 61 7f 3c
       0.043339286 -0.005543693 0.07261709 0.015587269
000200 11 14 f0 bb 88 54 0d 3c 56 9a 73 3c 54 7e 9e 3c
       -0.007326611 0.008626111 0.0148683395 0.019347347
000210 a9 fe 03 bc 0e 96 62 3d 4a 53 86 ba 4f 96 ab bc
       -0.008056321 0.055318885 -0.0010248211 -0.020945696
000220 2e 14 4e 3d ae 30 e9 3b bd 78 2a 3d 37 3a 30 3d
       0.050312214 0.007116399 0.04161905 0.043024268
000230 2d 8f 74 3d ec 3f 90 3b 6f 96 d3 3c 70 6c 77 3c
       0.059706856 0.0044021513 0.025828568 0.015101537
000240 b0 3b c4 3c 41 92 3c 3d 1d cd 53 bd 25 0f 0e 3d
       0.023954242 0.046037916 -0.051709283 0.03468241
000250 99 a9 5e 3d 06 4a 5e 3d 38 16 cb bc 17 7f 6c 3c
       0.05436096 0.054269813 -0.024790868 0.014434597
000260 2a 29 9a 3c 02 7e 9d 3d 89 39 57 ba e5 2e 4d bc
       0.018818457 0.0769005 -0.00082101725 -0.012523388
000270 64 e0 a8 3c ef 07 b3 bc 28 0f 25 3d 0e 82 62 3d
       0.02061481 -0.021854369 0.040297657 0.05529981
000280 50 ae 8a 3a 70 3f 63 bd 4f 99 b0 bc 72 1d 36 3d
       0.0010580514 -0.05548042 -0.021557478 0.044461675
000290 03 88 13 3d 38 41 85 bb f9 f6 79 bc 59 ae 06 3d
       0.036018383 -0.0040666126 -0.015256637 0.032881115
0002a0 c0 01 25 3d 52 ab f1 3c 17 27 71 3d ff e0 7a 3c
       0.040284872 0.029500637 0.05887517 0.015312432
0002b0 fd 90 09 bc 3a d7 ea bc 20 82 9f 3c 3a fc bc 3c
       -0.008396384 -0.028667081 0.019471228 0.02306949
0002c0 30 47 a0 3b d9 02 2c 3b 4f 39 a2 bc 31 93 6c 3c
       0.0048912987 0.0026246815 -0.019802717 0.01443939
0002d0 1a 76 87 3d 62 bf 11 bd e8 4a 8f bc f3 57 b6 bc
       0.06614323 -0.035582907 -0.017491773 -0.022258734
0002e0 00 54 8b 3d 4f ed 85 3b 3d 03 33 3d c1 c0 dc 3c
       0.06803131 0.0040871273 0.04370426 0.026947381
0002f0 c0 df 00 3b d7 d7 06 bc 5d a2 98 3c cc d0 f0 bc
       0.0019664615 -0.008230171 0.018632108 -0.029396437
000300 f7 94 01 bd d5 cc 2a bd 50 88 4e 3c 2c 95 d2 3b
       -0.031636205 -0.04169925 0.012605742 0.006426474
000310 30 2b b8 bc 08 26 a9 bc 2f 8a 24 bd 83 38 04 3d
       -0.02248153 -0.020648018 -0.040170845 0.032280456
000320 71 9b 83 3d 36 89 45 3d 98 95 e8 3c d7 e0 79 3d
       0.064261325 0.048226558 0.028391644 0.06100544
000330 b6 67 91 3d 2b b9 5d 3b 56 2f bd 3b 3f 2d cf 3c
       0.070998594 0.0033832293 0.005773465 0.02529013
000340 f3 a2 14 3c c5 c6 0b 3d aa 0a 81 3c 55 4e df 3c
       0.009072053 0.03412511 0.015752155 0.027259031
000350 8d 1f 07 bb 50 84 52 3b 40 10 f6 3c 18 37 22 3c
       -0.002061817 0.0032122321 0.030037045 0.009900831
000360 95 0a b6 3b d9 26 53 3c 5f 34 0b bd b1 6a b1 bb
       0.0055554607 0.01288768 -0.03398549 -0.00541433
000370 cb b1 a5 3c b6 cf 7b 3c 63 e9 bc 3a 64 0e dc bb
       0.02022638 0.015369346 0.0014412816 -0.0067155827
000380 85 87 8f bc 34 38 1b 3d 46 34 92 3c 7d 6c f0 3b
       -0.017520675 0.037895396 0.017847192 0.0073371516
000390 ea ff 15 3d 69 e2 b7 3b e5 e9 75 bb 0b f3 82 3c
       0.03662101 0.005611707 -0.0037523445 0.015985033
0003a0 8d 93 10 bc 07 85 12 3d 36 1a 8a 3d ab 5a 38 3d
       -0.008824241 0.035771396 0.067432806 0.045008343
0003b0 ca 2a 5b 3d cb 24 5c bc 61 81 a2 bc 94 44 15 3d
       0.053507604 -0.0134365065 -0.019837083 0.036442354
0003c0 42 ce 0b 3d ad f1 90 3c 16 70 26 3d a0 21 3a bc
       0.03413225 0.017693365 0.040634237 -0.011360556
0003d0 fc 42 56 bd 13 20 29 3d 5b 8a d9 bc 4e b4 b9 bb
       -0.052309975 0.041290354 -0.02655523 -0.005667246
0003e0 5d 18 3c 3d c6 26 4f 3d 4f 95 e6 3c 10 6e 33 bc
       0.045921672 0.050574087 0.028147368 -0.010951534
0003f0 92 4a 4a bc cc 18 1b bd 6e b6 3d 3d 7d 3c 35 3d
       -0.0123468805 -0.037865445 0.046316557 0.04424714

bias f4 [32]
000000 14 c9 53 3d bf 3d a5 bc 8f cd e7 3b 87 00 a3 bb
       0.051705435 -0.020171044 0.007074065 -0.004974428
000010 3e 45 42 3c 45 fd 93 bc a0 4f 4c 3b b0 20 4e bb
       0.011857329 -0.018065104 0.003117539 -0.0031452589
000020 1a c8 d8 bc 4c b8 cc 3c b7 c3 8a 3c 0e df 39 3d
       -0.026462603 0.024990223 0.016939027 0.045378737
000030 62 6c a7 bb 10 cb d5 3a 25 e2 d2 bc 77 e9 54 ba
       -0.005109356 0.0016311128 -0.0257426 -0.0008121947
000040 6c b3 16 3d 8f 6f a0 bb a5 c0 8e 3b 09 28 db b9
       0.036792204 -0.0048961113 0.004356461 -0.00041800764
000050 55 91 a6 3c bc 5d e9 bb 12 df df bc d8 d8 80 3c
       0.020332972 -0.0071217697 -0.027328048 0.0157284
000060 fa d2 bd bc cf d1 3c bd 26 a7 9d bb 00 d2 97 bc
       -0.02317189 -0.046098527 -0.0048111854 -0.018532753
000070 09 1d 4d 3c 50 44 5a bc b9 81 bb bc 9f eb 52 bd
       0.01251913 -0.013321951 -0.022889005 -0.051494237

weight f4 [32, 600, 1]
000000 da 1e 8f bc 7c 6e 4d 3d 14 f3 d1 bc 5d ee df 3b
       -0.017470766 0.050154194 -0.025628604 0.006833835
000010 d7 24 39 bd c0 f0 88 3c 78 61 16 bd fd d4 ef 3c
       -0.04520115 0.016716361 -0.036714047 0.029276365
000020 35 a7 69 3c d6 46 4b 3c d0 9d c8 3b 7d 62 56 bc
       0.014261057 0.012407025 0.0061223283 -0.013085005
000030 e9 e3 f8 bc 71 79 fa bb d8 12 90 bc db 1f 1c bd
       -0.030382114 -0.0076438715 -0.01758711 -0.038116317
000040 84 14 14 bd d3 e2 e9 bc 23 87 6e 3c 55 0c 6e 3c
       -0.036152378 -0.028550541 0.014558586 0.014529307
000050 62 a4 b6 3c c3 ca bd bc 29 54 5f bd 34 aa ca 3b
       0.02229518 -0.023167973 -0.05452362 0.0061848406
000060 5f e6 b0 bc 4c 0f ee bb 16 c7 04 bc 83 36 11 3d
       -0.021594224 -0.007265007 -0.008104106 0.035452377
000070 30 e8 f3 3c 17 3b c0 3c 47 88 17 bd a4 3c ae bb
       0.029773802 0.023465676 -0.0369952 -0.0053172875
000080 4e 29 1c bd 3e 80 c0 bc 39 a7 17 3d 01 4b 2c 3d
       -0.03812533 -0.02349865 0.03702471 0.042063717
000090 7e b4 a0 3c db 95 31 3d be a0 91 bc df b4 3e 3d
       0.019617315 0.043355804 -0.017776843 0.04655921
0000a0 76 ea 11 bd 54 85 2b bc fd 81 09 bd ef 06 c1 3b
       -0.03562399 -0.0104688 -0.033571232 0.005890719
0000b0 7d ab 7f 3c 83 18 3e bd 23 e1 a9 3b 29 68 4c 3c
       0.015604851 -0.046410095 0.005184309 0.012476006
0000c0 1f c9 4f bb d4 a0 61 3c 7f 5a 43 bc 69 83 51 bd
       -0.003170557 0.013771255 -0.011923431 -0.051150713
0000d0 c8 c0 29 3c 0c 32 49 bd 4d d4 f9 bb 49 85 df 3c
       0.010360904 -0.049119994 -0.007624185 0.027285235
0000e0 3d fa 64 bc 98 ba 1a 3d 5d cb be bc 52 ad 1c bd
       -0.013975677 0.037775606 -0.02329033 -0.03825123
0000f0 71 e3 16 bc c3 1a 21 3d f9 57 df bc 1e 5d 69 bc
       -0.0092095 0.039332163 -0.027263628 -0.014243392
000100 8f 11 46 3c a3 cb 19 3a 28 de 0f bd 9f f4 98 ba
       0.012089147 0.0005866831 -0.035123974 -0.0011669582
000110 6b 4d a7 bc 68 e8 bf 3c f6 29 2b 3d 9e d0 01 3d
       -0.020422658 0.02342625 0.041788064 0.031693093
000120 4d 3d 2c 3d 32 00 00 3d cb 32 e5 3c fe 61 f0 ba
       0.04205065 0.031250186 0.027978322 -0.0018339751
000130 6a 3f 9d bc e0 87 62 3c f7 f4 11 3d 23 37 3f bd
       -0.019195277 0.01382634 0.035634007 -0.04668344
000140 77 2d f3 3b 49 24 68 3b ee 6c 30 bb 1b 28 4f bd
       0.0074211913 0.0035422018 -0.0026920396 -0.050575357
000150 58 e4 03 bb c3 d0 43 3d d6 68 bf 3c 81 24 a3 3c
       -0.0020125117 0.047806513 0.02336542 0.019914867
000160 fd 95 88 3b ce 85 33 ba 33 e6 09 bd fd 1b 2f 3d
       0.0041682706 -0.00068482466 -0.0336668 0.0427513
000170 d2 a1 cf bc 78 5b a8 38 ac 2e b1 ba ee 72 da 3c
       -0.025345717 8.027902e-05 -0.0013517938 0.02666613
000180 dc a1 fe 3b 23 26 a6 3c d7 c0 bd bc 0b bb 46 3b
       0.00777076 0.020281857 -0.023163242 0.0030323889
000190 26 29 80 bc e9 06 58 3c 2c 08 75 3b 44 f6 89 bc
       -0.015644621 0.013185241 0.0037388904 -0.016841061
0001a0 fa e8 84 bc 51 6b 43 bc 4f 16 a5 bc 5c 9b 0e bd
       -0.016224373 -0.011927442 -0.02015224 -0.03481613
0001b0 9d 5e 9d bb 93 a0 87 3c 98 0a cc bc 8e 15 5b 3c
       -0.0048025385 0.01655606 -0.024907395 0.013371838
0001c0 19 4e d9 3c 96 6d 65 bc e5 9f fd bc 55 15 7d 3c
       0.026526498 -0.014003178 -0.030960033 0.0154469805
0001d0 c2 e0 bb bb 76 5f 00 bd 0c 4c 0f 3d 61 f3 9d bc
       -0.0057335803 -0.03134104 0.034984633 -0.019281091
0001e0 87 c5 bb 3c a9 92 2a 3b c9 79 17 bd 0a 41 d8 bc
       0.022921337 0.0026027358 -0.036981378 -0.0263982
0001f0 e1 d1 2e bc c3 1e 38 bd 97 0b 7e 3c 0e ad 1d bc
       -0.010670156 -0.04495121 0.015505693 -0.009623779
000200 22 23 97 3c 9b 75 b0 3b 51 f6 34 b9 8c 58 c9 3c
       0.01844937 0.0053851134 -0.00017257898 0.024578355
000210 ee 3b c4 b9 92 99 cf 3b 14 09 a6 bc 55 c2 42 3d
       -0.00037428684 0.0063354457 -0.020268 0.04754861
000220 7a 05 40 3d ca 29 05 3d 67 15 51 bd aa 8f f1 3a
       0.046880223 0.032510556 -0.0510458 0.0018429656
000230 8b 05 89 bc 17 94 22 3c aa 1e a0 ba d1 3b 79 bc
       -0.016726276 0.009923003 -0.001221617 -0.015212015
000240 ed d6 1f bc 27 0a bf 3c b6 20 0b 3d 7c 89 19 3d
       -0.009755832 0.02332027 0.033966742 0.03748463
000250 35 77 91 3c 39 96 b7 bb a2 ec 2d 3c e7 4f 8e bc
       0.017757038 -0.0056026247 0.0106155 -0.017372085
000260 a3 15 06 3d eb 28 6f 3c 26 33 48 3c e6 bb 0e 3d
       0.032735478 0.014597158 0.012219226 0.034847163
000270 49 86 c0 3c aa 56 82 3c 7f 22 e9 bc ad ee 1c bd
       0.023501532 0.015910465 -0.028458832 -0.038313556
000280 20 eb 5e bc 46 8a 33 bc db 99 b3 3b b9 d6 d3 3b
       -0.013605863 -0.01095826 0.0054809875 0.006464806
000290 7e 4e 5c 3c e3 43 65 bc c4 04 c5 bc 9a 6c 23 bd
       0.013446448 -0.013993236 -0.024050124 -0.039898492
0002a0 d3 fe 02 3d 83 e1 9f 3c ad 6e 93 3c 47 51 8c 38
       0.0319813 0.019516712 0.01799711 6.690859e-05
0002b0 dc ca 04 bd e5 cf be 3c 47 30 de bc a1 b3 f2 3c
       -0.032420024 0.023292491 -0.02712263 0.02962667
0002c0 b5 2f 93 3c b1 79 ff 3c 11 17 e2 3c 2f 8c 29 3d
       0.017967084 0.031185957 0.02759889 0.041393455
0002d0 1a 97 cd bc 43 ee 83 bc d2 f3 0b bd 6d 57 49 bc
       -0.025096465 -0.016104823 -0.034168072 -0.01228891
0002e0 45 c8 4e bc 5a 43 b7 3c db 04 42 3b dc 7e 0e 3c
       -0.01262099 0.022370983 0.0029604945 0.008697238
0002f0 23 55 08 bd fe 7c 02 3d 2d d3 bf 3b b8 da 12 bd
       -0.033284318 0.031857483 0.0058540315 -0.035853118
000300 35 a9 73 bc bb 0d b6 3c 2d 50 8e bc 17 d6 5c bc
       -0.014871885 0.022223344 -0.017372215 -0.013478777
000310 90 7d a3 3b 19 f5 ef bc cd d8 6a bc e5 78 31 3d
       0.0049893335 -0.029291676 -0.014333916 0.043328185
000320 e9 fd 93 3c 72 7e d4 bc 4a 3e ac 3b f6 2a 23 bd
       0.01806541 -0.0259392 0.005256449 -0.039835893
000330 7b 99 88 3c 1a 2f 13 3d 3d c7 e2 3b bd 01 00 bb
       0.016674748 0.03593359 0.0069207237 -0.0019532286
000340 38 02 dc bc 0a bb 95 3c 8b a5 ab 3c 5c 0b d7 bc
       -0.026856527 0.018277664 0.02095296 -0.026250534
000350 aa 57 d2 3b a9 b1 d6 bc 04 0f 28 3d c1 62 e1 3c
       0.006419142 -0.026207762 0.041029945 0.02751291
000360 6b ac d5 bc f4 60 09 bb ce 14 b0 bb 47 49 8c bc
       -0.026083192 -0.002096233 -0.005373574 -0.017124785
000370 6e cb d0 bc 55 a4 f9 3c a2 3a 58 3b c3 70 94 3a
       -0.025487628 0.030473867 0.0032993932 0.001132511
000380 99 94 23 3c 8d a8 cb bc c3 a0 93 3c dc 86 18 bd
       0.009984159 -0.024860645 0.018020993 -0.037237987
000390 9b c5 1c bc e7 82 af ba a7 2c 85 3c d1 43 ed 3c
       -0.009568597 -0.0013390452 0.016256643 0.028963001
0003a0 3c f9 0c 3d 23 60 f0 3c 07 89 d6 3c 63 30 69 bd
       0.034417376 0.029342717 0.026188387 -0.05693091
0003b0 71 7f a3 3b a8 84 4e 3d cc 9c 1d 3d ee 9e bf 3c
       0.0049895574 0.05041948 0.03847961 0.023391213
0003c0 84 ef 91 bc 33 7c a0 bc 24 63 54 3c 74 82 50 bd
       -0.017814405 -0.019590473 0.01296309 -0.05090566
0003d0 1f 3b 23 3c 00 d3 29 3d f8 47 9e 3c ad da 10 bd
       0.009962826 0.04146099 0.019321427 -0.035364795
0003e0 97 13 42 ba 4b 27 80 3c 69 66 38 3d 91 72 1f 3b
       -0.0007403432 0.015643736 0.04501954 0.0024329762
0003f0 83 2e 32 3c 77 13 fe 3c e3 40 40 bd 25 ef 8a 3c
       0.010875347 0.031015141 -0.04693688 0.016959736

bias f4 [32]
000000 96 35 35 3d 2c 4e 0c bc 43 e2 e1 3c d8 61 00 3d
       0.044240557 -0.0085635595 0.02757371 0.03134331
000010 ab ea 37 bc 1c 23 8c 3c 27 25 97 3c 75 b3 c7 bb
       -0.011225383 0.017106585 0.018450333 -0.006094391
000020 a1 0c 4f bc 14 04 cd bc d0 e4 c8 bc e3 2a 3c bc
       -0.012637288 -0.025026359 -0.024523169 -0.011484834
000030 6e 73 30 bd 0f 34 df 38 49 fb 6d 3c 20 d9 54 3c
       -0.043078832 0.00010643165 0.014525243 0.01299122
000040 b3 76 03 3c b9 bf 10 3d 6d 85 d7 bc af a5 40 3d
       0.008023906 0.03533909 -0.02630874 0.04703301
000050 3c df 18 bd 65 01 25 3d da ae ba 3b 73 fb b5 bc
       -0.037322268 0.040284533 0.0056971135 -0.022214627
000060 99 b1 84 bc e9 0e 0a bd 82 b9 d2 bc e7 8c cf 3c
       -0.016197966 -0.033705626 -0.025723223 0.025335742
000070 c2 9e 2c 3d 69 5c 32 bc d0 2e 0f bc 91 a9 26 bd
       0.04214359 -0.01088629 -0.008739188 -0.040689055

weight f4 [32, 1200, 1]
000000 bf 60 0e ba ef a7 5c 3d d2 63 6f 3d 00 97 63 bd
       -0.00054312864 0.05387109 0.058444805 -0.055563927
000010 7c 5a 48 3d 46 00 9c 3d ba 84 48 3d 54 e0 33 3d
       0.048914418 0.0761724 0.048954703 0.043915108
000020 46 7a 0a 3d ff a2 03 3d eb ed 40 bd 9a 06 20 3d
       0.033808015 0.032137867 -0.047101896 0.039068796
000030 02 76 23 3d 77 82 87 3c 13 f2 6d bd 24 2f 3d bd
       0.039907463 0.016541703 -0.058092188 -0.046187535
000040 90 c8 47 bd 65 5b c6 3c 83 66 13 3d 5e 2b 6d 3d
       -0.048775256 0.024213502 0.035986435 0.057902686
000050 b5 af 47 bd 20 46 18 bb 18 cd 3e 3d 93 7a 99 3d
       -0.04875155 -0.0023235157 0.04658231 0.07494082
000060 d5 38 ae 3c 97 a3 9b 3c 1d 9a 19 3d a2 44 de 3a
       0.021267334 0.018998904 0.03750049 0.001695771
000070 72 f3 a9 3c 8c fb 97 3a 56 19 ca 3c bf d9 f5 3c
       0.020745967 0.0011595353 0.024670284 0.030011056
000080 71 c8 47 3d a7 2f ea ba d3 df 45 3c ec 9c b8 ba
       0.04877514 -0.0017866985 0.01207729 -0.0014084852
000090 75 cb 14 3c 1c d0 da bb 5c af 16 3d 04 51 cc 3c
       0.009081711 -0.0066776406 0.03678833 0.024940975
0000a0 66 0a 0f bc d8 1c ef 3c ae 73 55 3d a7 7b 6b 3d
       -0.0087305065 0.029188558 0.052112274 0.05749097
0000b0 5f 55 51 bd a7 45 dd 3c eb 05 1f 3d fa 59 b3 bc
       -0.051106807 0.027010752 0.038824003 -0.02189349
0000c0 8c d1 b5 bc e4 63 36 bd 18 9d 34 3d 20 e7 82 bb
       -0.022194646 -0.044528857 0.04409513 -0.0039948374
0000d0 d8 a0 b4 3b 90 dc a8 bb 4e eb 84 3d 5d ac 98 3d
       0.005512338 -0.005153246 0.06490193 0.07454751
0000e0 96 e6 8d 3c 54 12 13 3d 1d 2c 18 3d 61 45 3a 3d
       0.017321866 0.03590615 0.037151445 0.04547632
0000f0 ae 60 8f 3d d8 56 1d 3d d8 c5 ae 3b dc fb c7 bb
       0.07000862 0.0384129 0.0053336434 -0.006103022
000100 18 d6 8b bc 71 66 33 bd 16 17 cf bc 82 f2 a3 bc
       -0.017069861 -0.043798868 -0.025279563 -0.020013098
000110 c8 7f c5 bc 77 b2 c9 3c fd 7c b1 bc 5a 73 46 3d
       -0.024108782 0.024621231 -0.021666044 0.04844985
000120 0d 3c 3f bd f7 41 33 bd e7 c0 29 3c 4a ab 18 3d
       -0.04668813 -0.04376408 0.010360933 0.03727273
000130 4e dd 78 3d e7 47 3a 3c 25 56 60 bd 9d 95 44 3d
       0.060757928 0.011369682 -0.054769654 0.047994245
000140 a7 ed a5 3c db 87 27 3d b5 2e 65 bd f7 a3 44 3d
       0.020254923 0.040901046 -0.055952746 0.04800793
000150 df e5 f2 3c 1b f1 22 bd 25 78 ad bc 2f 9e 75 3d
       0.029650627 -0.039780717 -0.021175453 0.05996531
000160 ac ad 03 bc 05 a8 76 3d d8 fe 55 3d d0 17 69 3d
       -0.008037012 0.06021883 0.05224499 0.056907475
000170 8d 63 1a 3d 0a 20 14 bd 42 6c 9b bc 18 95 8e 3b
       0.037692595 -0.036163367 -0.01897252 0.0043512695
000180 05 75 02 3d 90 82 27 3b 75 5c 1a bd 70 08 87 3d
       0.03184988 0.002556 -0.03768583 0.06593406
000190 60 ba 68 bb d7 f7 11 bd a3 04 1f 3c 1a f8 ab 3c
       -0.0035511479 -0.03563675 0.009705695 0.020992327
0001a0 a4 7f 18 3d 16 da 0f bc 71 e7 c6 bc 29 50 c0 bc
       0.037231103 -0.008780023 -0.024280282 -0.023475723
0001b0 bf a4 5a bc 11 eb 01 3d 03 b6 03 bc 60 1d ab bb
       -0.013344943 0.031718317 -0.008039 -0.0052220076
0001c0 4f 2a ff 3c f8 27 64 3d d3 35 04 3d d6 86 7d bc
       0.031148104 0.05570218 0.032277893 -0.015474042
0001d0 2c 6c 8e 3d 4e 5e e6 bb ac b8 33 3d e3 59 61 3d
       0.06954226 -0.007030285 0.04387729 0.055017363
0001e0 26 23 64 3d 8e 57 f8 ba 19 f6 61 3d eb bd c1 3c
       0.055697583 -0.0018946992 0.055166338 0.02365013
0001f0 4a 0c fb 3c 66 61 32 3d f3 93 55 3d 1c 2a 8b 3d
       0.030645508 0.043549918 0.05214305 0.06795141
000200 0a 0a 87 3b 21 b6 5a 3d b9 b8 99 3c 8c 6d c1 3c
       0.00412107 0.053396348 0.01876484 0.023611806
000210 94 88 e6 bb c7 7a a1 3c 89 91 84 3d f3 20 92 bc
       -0.0070353243 0.019711865 0.06473071 -0.017837977
000220 83 f0 6d 3d d2 7e 39 3d 62 be 65 3d 85 7c b0 3c
       0.058090698 0.04528696 0.056089766 0.02154375
000230 04 45 94 3d d5 62 73 bc 68 87 ab 3b a9 c6 28 3d
       0.07239726 -0.014855106 0.0052346475 0.041205082
000240 c0 11 08 3d 8c 6e 40 3d 60 bc fd bc 6d 45 d5 3c
       0.033220053 0.046980426 -0.030973613 0.026034081
000250 38 84 2e 3c a8 58 5a 3c 21 da 77 bc 3a 88 21 3c
       0.010651641 0.013326801 -0.01512769 0.009859139
000260 c1 b9 98 3c 79 ff 32 3d ca 44 6b 3c c9 f9 04 bc
       0.018643262 0.04370067 0.014359662 -0.008116194
000270 04 7d 01 bd 7a 1d 4f bd 53 c0 90 3d d0 fa 06 3d
       -0.031613365 -0.05056522 0.07067933 0.032954037
000280 51 a0 54 bd 29 41 56 3b 80 eb a4 bb 5b 67 e1 3c
       -0.051910702 0.0032692647 -0.0050329566 0.027515104
000290 94 4e b1 3c fa a6 d6 3c 46 a7 f8 3c 1c f5 80 3d
       0.021643914 0.026202668 0.0303532 0.06296751
0002a0 ac 3d 2d 3d 10 71 4f 3c 76 73 9c 3d 6a 93 13 3d
       0.042295143 0.012661234 0.0763921 0.036029257
0002b0 36 f9 f6 3c 1d 86 44 bd d2 e6 a9 3c 46 f9 8e bc
       0.03014813 -0.047979463 0.020739947 -0.017452847
0002c0 fc 5d 06 3d ad cb f4 3c a2 f5 2f bc 82 6c 6d bc
       0.032804474 0.029882276 -0.010739716 -0.014491202
0002d0 00 74 02 3c 33 6e 50 bd ff 68 b5 bb e6 1a b3 bc
       0.007962227 -0.050886344 -0.005536198 -0.021863412
0002e0 50 4c 54 3d a5 86 6d bc 99 c8 38 3d b6 e9 76 bc
       0.05183059 -0.014497434 0.04511318 -0.0150703695
0002f0 d3 fb d3 3c b3 95 c2 3c a7 2a d0 bc 93 77 3e bd
       0.025876915 0.023753023 -0.025410963 -0.046500754
000300 16 62 eb bc 2a ab f6 bc fe 6a 15 3d 40 59 84 3c
       -0.028733294 -0.030110914 0.03647899 0.016155839
000310 40 db c1 3b 78 34 ca 3b 6b c9 43 bc 4d fd ea 3c
       0.005916029 0.0061708055 -0.011949877 0.028685236
000320 45 3d 75 3d 26 b4 52 3d 36 5f 29 bd ab 67 c6 3c
       0.059872884 0.051441334 -0.041350566 0.024219355
000330 a6 b2 79 3d 9d 36 aa 3c 78 94 59 3c 01 b1 89 ba
       0.060961388 0.020777995 0.013280027 -0.0010505022
000340 56 97 01 bc 80 af 20 3d 66 1f 8c bc 3a b4 51 3c
       -0.007909616 0.03922987 -0.017104816 0.012799317
000350 32 99 c5 3c c6 04 d1 bc 44 df 17 3d 34 a3 39 3c
       0.0241209 -0.025514971 0.037078157 0.011330415
000360 1e f1 9a 3d 92 af 2b 3d c5 86 29 bc 1f 3d 58 3d
       0.07565521 0.041915484 -0.010347073 0.052792665
000370 27 82 9d bc 86 40 07 bd 49 42 a4 3c 85 1a 30 3d
       -0.0192271 -0.03302052 0.020051138 0.04299404
000380 60 b0 6a bc b0 01 46 3b 80 5d a7 3c 50 a2 21 3c
       -0.014324278 0.0030213408 0.020430326 0.0098653585
000390 63 88 bc bb b4 d8 6b 3d 66 da 8a 3c b3 6e 1a 3d
       -0.0057535633 0.05757971 0.016949844 0.037703227
0003a0 4c 75 86 3d 72 49 96 3c dd e4 a9 3c 57 5d df 3c
       0.06565341 0.018345568 0.020739013 0.027266188
0003b0 aa 02 99 3d 1a f3 47 bc 24 a2 b8 3c 45 69 6a 3c
       0.07471211 -0.012203956 0.022538252 0.014307325
0003c0 70 4b 03 3b db f8 f0 bc 4c 03 70 3c ff 7d 3b 3d
       0.0020033978 -0.029415539 0.014649224 0.045774456
0003d0 6d 0a 14 bd fc fc 6c 3b ea fc cd bb 38 06 85 3d
       -0.036142755 0.0036161533 -0.006286253 0.06495327
0003e0 cc 1f 38 3d 8b da 7a 3d c2 63 3d 3d 04 1b 79 3d
       0.0449522 0.061243575 0.046237715 0.06081678
0003f0 3c 38 7d 3b 8b 46 90 bd b3 27 2b 3d 66 2d 41 3d
       0.0038638255 -0.07044705 0.041785907 0.047162436

bias f4 [32]
000000 c6 ce 85 bb a7 72 fa 3c fe 86 d3 bb 7f ad 35 3c
       -0.004083487 0.030572249 -0.0064553013 0.011088728
000010 6c 98 18 3c 8e b6 3a bd 4b ed a4 bc e8 24 a7 bc
       0.009313684 -0.045584254 -0.020132681 -0.02040334
000020 dd a4 41 3c 29 4a df bc 8c ce 46 3b d6 3f e8 bb
       0.011819092 -0.027257042 0.0030335514 -0.007087688
000030 dd bd b8 bc de da 72 3c 4e 29 44 3d fd dc 84 bc
       -0.022551471 0.01482269 0.047890954 -0.016218657
000040 f2 7f 8f 3c 54 87 39 3c 3e c1 3a 3c 94 f4 26 bc
       0.017517064 0.011323769 0.011398612 -0.010190148
000050 a4 a5 c7 bc aa 6b 33 bc f1 cd 04 3c 6a 75 94 3c
       -0.024370976 -0.010950962 0.008105741 0.018122394
000060 a9 5b 68 3b 16 7b 80 bc a4 f4 36 bb 07 e6 02 bb
       0.0035455024 -0.015683692 -0.0027916813 -0.0019973533
000070 1a bf 63 bc 9b 71 96 3c f7 17 d8 bc 6a cb b5 3c
       -0.013900543 0.018364718 -0.026378615 0.022191722

weight_ih_l0 f4 [96, 32]
000000 f6 25 a5 bd 9b 62 b0 bd 06 9e 25 bb 7c b0 cc 3d
       -0.08063881 -0.086125575 -0.0025271191 0.09994599
000010 85 89 b5 3d 96 d8 dd 3d 6a 20 4a be 93 dd 05 bd
       0.088641204 0.10832326 -0.19738927 -0.032682013
000020 04 6f df 3d 1d 96 d9 3a 4a 27 a9 3d c9 13 b9 bd
       0.109098464 0.0016600523 0.08259447 -0.09036977
000030 4c 2c 24 be bd be cf 3c c8 6d fc bd 4b ab f1 3c
       -0.16032523 0.025359506 -0.123256266 0.029500624
000040 39 b4 d6 bd 95 d2 4a be 7e 4e 44 3e 12 67 88 3d
       -0.104835935 -0.19806893 0.19170567 0.06660284
000050 fc 8b 4a bd 4f 3f 18 3a c3 a7 39 3e 58 57 3f bd
       -0.049449906 0.00058077736 0.18130402 -0.046714157
000060 77 05 da bd c6 74 a5 bd 6f ed 2f be 46 e6 a6 3b
       -0.106455736 -0.080789134 -0.17180417 0.0050933687
000070 50 0f e6 3d 23 80 3f 3d 57 0a 0f 3d 90 d2 01 bd
       0.112333894 0.04675306 0.03492197 -0.03169495
000080 c6 e2 2c 3e e4 17 78 bd e7 58 2a 3e d7 1e 2f be
       0.16883382 -0.06056966 0.16635476 -0.17101608
000090 d2 93 1c 3d ba e9 5b 3c 8d 27 f9 3c 22 a6 8e 3b
       0.03822691 0.013422424 0.030414367 0.0043533007
0000a0 2a 4a 02 be bf bf 13 3d f3 58 85 bd 94 cb da bd
       -0.12723604 0.036071535 -0.06511106 -0.10683361
0000b0 a9 6b d7 bd df 3d a9 bd fb a1 bc bd c3 64 08 3d
       -0.105185814 -0.08263754 -0.09210583 0.03329922
0000c0 0d 9c aa 3d e9 b8 54 3d f4 e4 00 be 0c 25 17 3e
       0.083305456 0.051934157 -0.12587339 0.14760226
0000d0 48 ae 88 3d a7 1c ad 3d 75 41 04 3e f3 ff 9a bd
       0.066738665 0.084527306 0.12915595 -0.0756835
0000e0 3c 6e 24 3e bb 55 2b 3e bb ab 66 bd f1 09 fd 3c
       0.16057676 0.16731922 -0.05631612 0.03088853
0000f0 50 d7 a3 3d 38 b3 8a bd 67 bd aa bb 98 3d 38 bd
       0.08000052 -0.067724645 -0.005210567 -0.044980615
000100 73 55 75 3c 01 d1 b2 3d bb 18 33 3e af f4 10 3c
       0.014973986 0.087312706 0.17489903 0.0088474
000110 a0 14 40 be ed 37 41 3e 07 c6 49 bd 5e 91 96 3c
       -0.18757868 0.1886899 -0.04926112 0.018379863
000120 30 7d e0 bd 20 9c 72 3d 41 6f 00 3e 92 97 2d be
       -0.109613776 0.059230924 0.1254244 -0.1695235
000130 ff 65 0f 3e d9 8e c4 3d 39 35 f8 bd 16 5b 25 3e
       0.14003752 0.095975585 -0.121195264 0.16148028
000140 e5 44 73 bd ed cb 18 3d f0 30 34 bd 70 15 11 be
       -0.059391875 0.037303854 -0.043991983 -0.14168334
000150 eb f5 28 3e 0e d7 e6 bd 8d bc 45 3d 2c 4a b9 3d
       0.1650006 -0.11271487 0.04827552 0.0904735
000160 39 b2 04 be cd 18 35 be 2d e8 0a be 22 e8 57 3d
       -0.12958612 -0.17685242 -0.1356513 0.052711613
000170 4d 01 15 3e e4 b2 3d 3d bd b6 0e bc 50 8b 21 bb
       0.14551277 0.04631318 -0.00871056 -0.0024649687
000180 d6 b0 23 3e b9 c3 d1 bc 88 83 bb bd a8 76 b5 bd
       0.15985426 -0.025606023 -0.09155947 -0.088605225
000190 4e 07 a6 3d cc 5f 7d bc 87 8a 98 bd e0 b6 ec 3d
       0.08106862 -0.015464734 -0.07448297 0.11558318
0001a0 13 09 33 3d 10 38 f5 bc 33 8b a3 3c 17 72 18 3e
       0.043709826 -0.02993396 0.019963836 0.14887272
0001b0 e6 06 d0 bd d5 6c 31 3c fd d4 60 3d 4c 99 90 3d
       -0.10157566 0.01082917 0.05489062 0.07060489
0001c0 31 18 0f be 37 14 04 3c 9e 92 22 3e 77 eb 47 3c
       -0.13974072 0.00806146 0.15876243 0.012202135
0001d0 e4 d9 9a bd d6 18 52 bd aa f9 33 3d b7 8c ec bd
       -0.075610906 -0.051293217 0.04393927 -0.11550277
0001e0 08 15 fe 3d 7e 60 4a 3e 11 54 54 3d e8 87 e3 3c
       0.12406355 0.19763371 0.051837984 0.027774766
0001f0 f1 d9 65 bc 42 aa 18 3e 44 b8 d9 3b 99 78 4e be
       -0.014029012 0.14908698 0.0066442806 -0.20163192
000200 c5 17 9c bd fe fb 10 3e fd 99 2f be b4 10 a8 bd
       -0.07621721 0.14158627 -0.17148586 -0.08206311
000210 1e 1b e0 bd b0 44 9e 3d 69 4c 18 be a7 eb 86 3d
       -0.10942672 0.07727945 -0.14872898 0.06587916
000220 85 5f 00 be 5c 6c 11 be 7f d8 23 3d b1 be 8f 3d
       -0.12536438 -0.14201492 0.04000139 0.070187934
000230 26 6b 19 bd 78 8a 9c 3c 90 19 04 be f3 b9 b3 3c
       -0.0374557 0.019108996 -0.12900376 0.021939253
000240 2e 0c cb b9 fc 6b 2e be f5 08 e9 bd 2b f1 31 3e
       -0.00038728252 -0.1703338 -0.113786615 0.17377155
000250 a4 eb ee bd 34 74 d4 3c 14 39 03 3e ca cc 8b 3b
       -0.11666039 0.025934316 0.12814742 0.004266356
000260 ef 96 c9 bd 3e 06 aa 3b 05 de 7a bd 1b 59 b0 3d
       -0.098432414 0.0051887324 -0.06124689 0.086107455
000270 60 f5 7c 3d ae 26 a6 bd 02 71 b6 3d c1 2c a1 3d
       0.061757445 -0.08112846 0.08908273 0.07869864
000280 36 10 22 bc f0 32 e4 bd 0a c0 9c 3d 7c 1f a6 3d
       -0.00989156 -0.11142528 0.07653816 0.08111474
000290 19 c0 07 3e eb 7b c0 bc f3 47 f8 3d 6f f9 bd 3d
       0.13256873 -0.023496589 0.12123098 0.09276091
0002a0 bf 6d 9c bd a7 aa a9 3d 87 68 2f 3e a8 e8 02 be
       -0.0763812 0.082845025 0.17129718 -0.12784064
0002b0 7e cc f4 3d 97 4a 11 3e 27 57 97 bc 26 01 04 bd
       0.11953066 0.1418861 -0.018474175 -0.032227658
0002c0 a4 e6 92 3c 54 32 44 3d 7c 65 07 be 79 41 a5 bd
       0.017932244 0.04789956 -0.13222307 -0.080691285
0002d0 71 45 f3 bd 1b 98 9b 3c 8e ff b1 3d 44 48 19 3e
       -0.11878479 0.018993428 0.08691321 0.14968973
0002e0 56 28 8d bd 01 1c 45 bd 89 7d 3c 3e 9a 7e 93 bd
       -0.06892459 -0.04812241 0.18407263 -0.07201882
0002f0 4a bb 72 bd 0f 08 39 bd 4e 14 a3 3b 0a 52 19 3e
       -0.059260644 -0.0451737 0.0049767857 0.14972702
000300 16 3f 8f 3d 8b 7f 49 3e 99 c3 1f 3e 61 f3 c0 b7
       0.069944546 0.1967756 0.15601958 -2.3001516e-05
000310 b1 ca 05 3e f5 15 0c 3d ac 67 16 3e be 12 ae 3d
       0.13065602 0.034200627 0.14687985 0.084996685
000320 90 41 b7 bd 2e a9 2c be 97 5c 82 bd 76 90 f1 bd
       -0.08948052 -0.16861412 -0.06365316 -0.11795132
000330 90 18 39 3e ec 35 18 bd aa 1a 68 bd 65 9e 08 be
       0.18075776 -0.0371608 -0.056666054 -0.13341673
000340 5b 8b 8c bd c9 ca 83 bd 27 69 43 be 47 b0 e9 bd
       -0.068625174 -0.064351626 -0.19083081 -0.11410575
000350 2e 98 c8 bd 68 ad ab bd f3 35 51 3d d4 49 35 be
       -0.09794651 -0.08382684 0.05107684 -0.17703944
000360 30 4a 12 be 06 55 f3 bd d4 72 49 3d b2 73 94 3b
       -0.14286113 -0.11881451 0.049181774 0.0045303935
000370 cf e6 bf 3d 90 34 0d 3d 35 4d fa bc 4b 35 71 bd
       0.09370195 0.034473956 -0.030554393 -0.058888715
000380 68 f0 2d bd 16 e4 25 3d 4a d8 97 3b 71 19 44 be
       -0.042465597 0.040500723 0.004633938 -0.1915033
000390 d5 22 e7 bc 0b 9a c4 3d a5 01 06 be a7 17 50 be
       -0.028214851 0.09599694 -0.13086565 -0.20321523
0003a0 1c 08 17 3d c4 77 e1 3c b3 3e 0c be de 24 ba bd
       0.036872968 0.027522929 -0.13695793 -0.09089063
0003b0 fc 48 8c 3d 2f d9 01 be 67 43 09 3e ae 21 42 bd
       0.06849858 -0.12680505 0.13404618 -0.0473954
0003c0 c6 48 03 be 85 0c 08 be 01 08 1f be eb 01 c4 bc
       -0.1282073 -0.13286026 -0.15530397 -0.023926696
0003d0 5e 5e 19 be 3e a1 0a be dd aa c0 bd 1d 61 c0 bd
       -0.14977404 -0.13538072 -0.094075896 -0.09393523
0003e0 8b c7 0e be 66 b1 07 3e b6 45 23 bd c4 39 d1 3c
       -0.13943307 0.13251266 -0.039861403 0.02554024
0003f0 cd 1a 43 be 7e 71 cd bc c2 e4 27 bd ff 28 b5 3d
       -0.19053192 -0.025078531 -0.040989645 0.0884571

weight_hh_l0 f4 [96, 32]
000000 a7 6c 67 3c 88 e5 8e 3d d9 af bc bd 29 81 b4 3d
       0.014125026 0.06977373 -0.09213228 0.08813698
000010 b8 cf a2 bd e0 e3 5e 3c 4b 1c 3f 3e 9d d8 13 be
       -0.079497755 0.013604134 0.18663137 -0.144381
000020 93 c3 a4 bd c3 f3 41 bd 1a 15 b9 bd 39 a5 39 bd
       -0.08045115 -0.04735161 -0.09037228 -0.045323584
000030 4f 8e f5 bd ed f1 21 be 02 9f 2c 3b 93 ef 47 3e
       -0.11990034 -0.15814944 0.0026339893 0.19524984
000040 0d 63 41 be b4 fb 8a 3d 29 99 19 3e ce 5c fe 3d
       -0.18885441 0.0678629 0.14999832 0.12420045
000050 6b c3 ad bd 6a 6c f2 3d 0a 68 60 bc f6 12 d6 3d
       -0.08484539 0.118370846 -0.01369668 0.10452835
000060 28 48 da bd 97 e1 76 3d 4d 8d ac bc 5f 1c 23 be
       -0.10658294 0.060273733 -0.021063471 -0.15928791
000070 e3 e5 40 3d de c1 b6 3d ae 8e 84 bd 16 cf 09 3e
       0.047094237 0.08923696 -0.064725265 0.13457903
000080 54 79 2a 3e e1 96 fb 3d 9a 1b ff bd c1 4c 02 be
       0.16647846 0.12284637 -0.124564365 -0.12724592
000090 b5 3a 13 bc 53 b0 f2 bd f0 03 61 3d 75 b5 97 3d
       -0.008986165 -0.118500374 0.054935396 0.07407657
0000a0 00 1c 2f bd 92 70 6d bd ad 44 12 3e 48 13 ef bd
       -0.042751312 -0.057968684 0.1428401 -0.116735995
0000b0 db d6 09 3e d7 c8 01 bc dd 60 58 bc 22 70 7d 3c
       0.13460867 -0.007921419 -0.013206688 0.015468629
0000c0 22 31 65 bd 2a 32 69 3d e1 d0 21 be d4 ff b2 bd
       -0.05595506 0.056932606 -0.15802337 -0.087402016
0000d0 fb 5a ad 3c 37 d6 57 bd 8f d1 15 bb 3b b1 22 be
       0.021161547 -0.052694526 -0.0022860502 -0.1588792
0000e0 23 6e 68 3d 86 16 b6 3d b8 af 1f 3e 7d 8c 3a bd
       0.05674566 0.08891015 0.15594375 -0.045544136
0000f0 75 10 ca bd 6c bf 17 3e a3 e5 70 3d c0 e8 7b 3d
       -0.0986642 0.14819115 0.05881275 0.061501265
000100 b0 45 fc 3d 19 f6 f8 3b d4 ef 47 be 2a 2c c1 bd
       0.12317979 0.0075976965 -0.19525081 -0.09432252
000110 b8 a5 b5 bc ca ca 9f 3d f7 57 0e 3d b8 58 b7 3d
       -0.022173747 0.07802351 0.03475186 0.08952469
000120 ce a2 a4 3c b0 e0 1a bd 2f 28 e0 bd 89 15 c3 3b
       0.020097163 -0.037811935 -0.109451644 0.005953495
000130 35 20 13 3e b8 56 dd bd b4 02 17 be 8b 65 10 3e
       0.14367755 -0.10807556 -0.14747125 0.14101236
000140 28 04 f6 bd bd 8c 55 ba 5c 6d 77 bd fe 07 75 bc
       -0.120125115 -0.0008146277 -0.060407028 -0.014955519
000150 02 7e 61 3d 4e 32 1a be 9b 82 1c 3e 76 86 de 3d
       0.05505181 -0.15058252 0.15284197 0.1086549
000160 a9 9a 94 bd 0b 9f 17 bd 80 67 98 bd 3a 7e a2 bd
       -0.072560616 -0.03701691 -0.07441616 -0.07934232
000170 78 af 35 be 05 01 a3 3d a2 3b 2e bd d8 ae 98 bd
       -0.17742717 0.07959179 -0.04253734 -0.07455224
000180 db 3d d3 bc 91 67 48 3e f3 40 27 3e fc d9 c8 bd
       -0.02578633 0.19570757 0.1633337 -0.09807202
000190 cd 21 5b bd 38 4a 4a bd 8a c6 18 3d 0c 1e 0b 3d
       -0.05349903 -0.049387187 0.037298717 0.0339642
0001a0 34 8e c4 bd 4e 8f 3e 3e 91 1d cf 3d aa b4 d1 3b
       -0.095974356 0.18609354 0.10113061 0.0063997107
0001b0 dc 6f 41 3d 99 39 11 be 39 62 2b 3e 39 b7 0a be
       0.047225818 -0.14182128 0.16736688 -0.13546456
0001c0 21 84 3c 3e 1b 6c 7e 3c 2b 98 ce 3d 01 59 f0 3d
       0.18409778 0.015528704 0.100876175 0.11735726
0001d0 4e 60 0f be 8b b8 b4 3d 08 eb 03 be ff 6f 14 3e
       -0.14001581 0.08824261 -0.12882626 0.14495848
0001e0 fb f9 6a bc 92 e8 13 be fc 5b 32 be 3b f6 4d bb
       -0.014341827 -0.14444187 -0.17417902 -0.0031427282
0001f0 36 9f 13 be ca 08 99 3d 5a 6c 17 3e 96 1a 8e bd
       -0.14416203 0.074723795 0.14787427 -0.069386646
000200 ba d7 59 bd a1 33 2c 38 94 9f 44 3d d0 ae e2 3b
       -0.05318425 4.105608e-05 0.048003748 0.006917812
000210 a3 83 a0 bc 0c 85 85 bd 24 b0 0f be e1 b0 bd 3d
       -0.01959402 -0.06519517 -0.14032036 0.092622526
000220 bd c9 0a be 0a 8e ee bc 5c d7 06 3e 88 23 10 be
       -0.1355352 -0.029120464 0.1316809 -0.14076054
000230 02 0e 1e 3d 83 89 e5 bd fc 46 11 bd f4 f3 ff 3d
       0.038587578 -0.11207869 -0.035468087 0.12497702
000240 fa 07 d0 3d 30 7e 03 be 9f 70 e4 bd e8 87 f0 bc
       0.101577714 -0.12841105 -0.11154293 -0.02936168
000250 e3 79 67 3d ef 78 f3 3d 6c d2 87 bd ea 47 75 3d
       0.056512725 0.118883006 -0.06631932 0.059883036
000260 a8 3a 8f 3d 14 a2 e0 bd f7 10 30 be 57 84 e1 3c
       0.0699361 -0.10968414 -0.17193972 0.027528925
000270 6d 8f 1a 3e ab ba a8 bc 1c 61 15 bd 5a 94 2c 3e
       0.15093775 -0.020596823 -0.036469564 0.16853467
000280 5c e0 61 3d a7 c0 36 3e 42 2e 77 bc fd 0d 13 be
       0.055145606 0.17846929 -0.015086712 -0.14360805
000290 c8 ce 8b bc 07 3c bd 3d f3 bc 1d 3e 93 a5 04 3e
       -0.017066374 0.09239965 0.1540411 0.12953787
0002a0 5f 0c de bd e0 a6 6b 3c 0e 01 cd 3d c1 66 72 3d
       -0.10842203 0.014383048 0.10009967 0.059180025
0002b0 73 e1 b9 bd 38 98 30 3e bf 86 cb 3b 14 4b 3f 3e
       -0.09076204 0.17245567 0.0062111313 0.18680984
0002c0 3e d2 ce bd 1d a1 06 3e 02 b6 64 3b 2d ef f3 bb
       -0.10098694 0.13147397 0.0034898524 -0.0074442835
0002d0 fb 6f 80 3d fa 41 f8 bd 12 e7 07 3e 1f 6f c2 bd
       0.062713586 -0.12121959 0.1327174 -0.09493851
0002e0 81 84 14 3e cf c4 24 3d 6a d1 56 3c 86 cd d3 3d
       0.14503671 0.040226754 0.013111452 0.10341935
0002f0 d3 7c 81 bd 2a dd 8d bd ab 06 7e bc b8 8f b3 3d
       -0.063226365 -0.06926949 -0.015504519 0.087676466
000300 fa 0c e0 bd 6f c9 db bc f2 d7 93 bc 7f a2 37 bd
       -0.10939975 -0.02682945 -0.018047307 -0.044832703
000310 3a 40 4d be c4 aa be 3c f9 89 96 bd d6 c1 f8 3d
       -0.20044032 0.023274787 -0.07350535 0.12146346
000320 27 26 c6 3d 1a 6d 1b bd 8e 61 46 bd b3 2c 96 bd
       0.09675246 -0.037945844 -0.04843288 -0.073327444
000330 80 e3 1a 3e b9 95 f9 bd 77 53 e8 3d 85 0f e5 3d
       0.15125847 -0.121867605 0.11344045 0.11184601
000340 d8 4b 3b 3e 7b bf 0b 3e e5 8c 5f bd 1b f3 3f bd
       0.18290651 0.13647263 -0.054577727 -0.046862703
000350 9a 86 31 bd b4 01 1d 3d b4 8c d7 bd 52 90 a1 bd
       -0.043341257 0.038331702 -0.10524884 -0.07888855
000360 41 f9 3f bd cc 89 96 3d 07 a9 b6 bd 56 c6 5f 3d
       -0.046868566 0.073505014 -0.08918958 0.054632507
000370 65 47 28 bd 45 ca bb bc 50 b2 f2 bc 26 b4 74 bd
       -0.041083712 -0.022923598 -0.029626042 -0.059742115
000380 1e 70 d3 bd 7f 62 2c 3d b8 29 ed bd dd f8 13 3e
       -0.10324119 0.04208612 -0.11580223 0.14450403
000390 4c 09 bc bd bd ce 0f 3e bd c0 84 bc c8 9a 1a bd
       -0.09181461 0.14043708 -0.016205186 -0.037745267
0003a0 55 bb ad 3d eb 4e 46 bd b3 2f 12 be 47 73 19 be
       0.084829964 -0.048415106 -0.14276008 -0.14985381
0003b0 9a e9 b4 3d 83 28 b7 3d 41 3f 2f be 3e bb a6 bd
       0.088336185 0.08943274 -0.17113973 -0.08141182
0003c0 41 ad 2c 3d 96 a9 26 be 79 47 d1 bc 9b ef 03 be
       0.042157415 -0.1627563 -0.025546776 -0.12884371
0003d0 6f 54 a9 3c ba d4 7a bd ac 4b a7 3d a9 5d e1 3d
       0.020670144 -0.061238028 0.0816873 0.110041924
0003e0 0a 02 bf 3d 45 01 2b 3e 6f 13 05 3e f5 d2 78 3d
       0.09326561 0.16699703 0.12995695 0.06074806
0003f0 78 e8 cb bd 3f be 13 3b 8d 51 c6 bd 74 91 18 ba
       -0.09956449 0.0022543815 -0.09683523 -0.0005820014

bias_ih_l0 f4 [96]
000000 85 e6 d8 3c 88 5f 6d bd c8 5e 91 3d fa a4 42 3d
       0.026477108 -0.057952434 0.07098156 0.047520615
000010 f8 00 a2 3c de ae 28 bc 41 c8 d2 3b 5e 61 e7 3d
       0.019775853 -0.010295598 0.0064325635 0.11297868
000020 97 10 95 bd 68 65 9b 3d 6d 24 b8 bd f5 40 50 bd
       -0.07278555 0.07587701 -0.08991323 -0.050843198
000030 a0 36 b6 3a 68 b8 2f 3c 66 5c 37 3e 2f ad 32 be
       0.0013901778 0.010725118 0.17906341 -0.17448877
000040 de 3b c8 bd 59 e4 17 be ea 13 15 bd 2a a7 c5 bd
       -0.09777044 -0.14833201 -0.036395945 -0.09651025
000050 e1 05 1b be 40 5b 46 3e ee 84 a9 3d 60 6c f8 bd
       -0.15138961 0.19370747 0.082773075 -0.12130046
000060 08 22 9a bc f1 2d e2 3d 5b ca 8f 3d fe b2 0f 3e
       -0.018815055 0.11043919 0.07021018 0.14033124
000070 5c 25 26 3e e3 54 18 3e fd 95 76 bd e2 7c e1 3d
       0.16225189 0.14876132 -0.060201634 0.11010148
000080 c9 60 e8 bd 99 55 fd 3c 27 45 32 be ef bb d0 3d
       -0.11346585 0.030924605 -0.17409192 0.101920955
000090 53 05 f3 bd 9d 11 f3 bd fd 9c 15 3e 23 e9 30 bd
       -0.1186625 -0.11868594 0.14610668 -0.043191087
0000a0 26 5a 0c 3e 36 79 14 3e 55 97 33 be 09 84 2c be
       0.13706264 0.14499363 -0.17538197 -0.16847242
0000b0 ea d2 c5 3a dc 1b 80 bb c3 40 2d be 6c 29 b2 3d
       0.0015092765 -0.003909571 -0.16919236 0.08699307
0000c0 06 e4 c5 3c 6b 06 30 3e 75 93 3d 3d f1 73 ef bd
       0.024156582 0.17189948 0.046283204 -0.11692036
0000d0 62 6b 87 bd a3 d2 9b bd 96 7b 63 3c 10 a3 35 3d
       -0.066122785 -0.07608535 0.013884446 0.04434496
0000e0 09 36 16 be b8 7c 12 3e 1e 76 ff bd b9 77 14 be
       -0.1466905 0.14305389 -0.12473701 -0.14498796
0000f0 16 c4 e7 3d a0 c3 a5 bd 42 97 f5 bd 15 82 be 3d
       0.11316697 -0.08093953 -0.11991741 0.09302155
000100 17 f8 2b be 2a 86 9c 3d bf 8b 03 3e 38 f9 ae 3d
       -0.16793858 0.07642777 0.12846278 0.085436285
000110 03 6f 8b bb 99 e4 28 be 9b b3 3e be 98 d8 12 be
       -0.004255177 -0.16493453 -0.18623202 -0.14340436
000120 0a 94 ba bd fb 74 f7 3d a5 f3 e2 3d ee e3 ae bd
       -0.091102675 0.12082859 0.11081628 -0.08539568
000130 b3 5f 02 3e a3 61 b3 bd f2 2e 8d 3d 18 89 0b bd
       0.12731819 -0.08758857 0.0689372 -0.03406629
000140 39 37 26 3d af db f5 bb 6c 48 bf 3d 58 92 1c 3d
       0.04058001 -0.007502995 0.09339985 0.0382255
000150 1c 29 32 3e 2d fc 96 bd a6 91 ef bd a0 0b b1 3d
       0.17398494 -0.073723175 -0.11697702 0.086447954
000160 ec f3 a1 bd ec 4b 07 3e 13 25 e9 bd 9d ac 6d 3d
       -0.079078525 0.13212556 -0.113840245 0.058025945
000170 81 64 03 3e df 4f 22 be a8 7b c3 3b 92 27 27 be
       0.12831308 -0.15850781 0.0059656687 -0.16323689
