pre_trained_models/meld_senti_aligned_A_TRANSLATOR.pt (torch, 300189 bytes, 23 tensors)

multi f4 [1, 32]
000000 93 04 c8 be bb 6a 43 bd c8 f6 85 be bf 98 d3 3e
       -0.3906599 -0.047709208 -0.26164842 0.41327474
000010 cb 4b e2 bd 8f 61 86 3e 9f 53 9b 3d d7 07 fc 3d
       -0.110496126 0.26246306 0.07584309 0.12306183
000020 23 77 55 bd 75 e9 99 3e 25 20 c2 bd aa a3 29 3e
       -0.05211557 0.30060926 -0.09478787 0.16566339
000030 94 81 57 3d b1 00 db 3e d0 f4 68 be 26 1e df be
       0.05261381 0.42773965 -0.22749639 -0.4357769
000040 b6 e9 ab bd 3a 2d 32 bc 9d 8d 31 be 72 4e 59 3e
       -0.08394186 -0.010875041 -0.17339177 0.21221331
000050 47 88 d1 3e 2a f1 8c 3e 85 57 61 bd b3 66 bf 3e
       0.40924284 0.27527744 -0.055015106 0.3738304
000060 41 99 81 3e 55 ac d6 be d6 0d 41 be b8 03 af 3e
       0.25312236 -0.41928354 -0.18852934 0.34182525
000070 89 43 8f 3e d1 f3 a3 3e df 34 6e 3e 60 96 8d bd
       0.27981213 0.32021955 0.23262356 -0.069134474

weight f4 [33, 32]
000000 12 37 8d bf 1a 4f 35 3e 80 f2 2e bf df c6 80 3f
       -1.1032431 0.17705956 -0.68338776 1.0060691
000010 26 36 df 3f 2b 00 8d be b1 43 63 bf d4 91 00 c0
       1.74384 -0.2753919 -0.88775164 -2.0089006
000020 69 7c e4 bd fd a3 be be 2a eb d3 3f fb 06 2d be
       -0.11156542 -0.37234488 1.6556141 -0.16897194
000030 2d 7b e3 bf 58 10 a9 bf 0a 90 34 3f 73 6c a4 3f
       -1.7771965 -1.3208113 0.70532286 1.2845596
000040 c5 6d 66 bf be 1f b0 bc 2b 43 01 bf 62 b7 b1 bd
       -0.90011245 -0.02149951 -0.50493115 -0.086775556
000050 33 da 4f bf d0 f6 46 bd 58 3a 1e bf 0e 6a e5 3c
       -0.8119232 -0.048575222 -0.61807775 0.028004672
000060 bb 34 da 3f c1 29 d6 bf 7a a3 df bf 45 fa 5a bf
       1.7047342 -1.6731492 -1.7471764 -0.8553813
000070 e1 96 0f 3f 67 ab a7 3d 61 52 15 3f 44 8e 18 3f
       0.560896 0.08186989 0.58328825 0.5959208
000080 34 a2 0d bf 6b dd b1 3f 8d 71 33 3f d0 e2 01 bc
       -0.5532563 1.3895696 0.7009514 -0.0079276115
000090 1a 52 9a bf f9 03 fc 3e bf 18 82 3d 6c 55 a4 3e
       -1.2056305 0.4922178 0.06352376 0.32096422
0000a0 91 fe 0c bf 14 f5 29 3f 57 b7 9c 3f 8f 33 3f bf
       -0.5507594 0.66389585 1.2243451 -0.7468805
0000b0 c9 80 88 3f 36 ef fe be 80 58 fa 3c e4 a3 9f 3d
       1.0664302 -0.49791878 0.030559778 0.077949315
0000c0 53 cb 96 3d b8 c6 14 3f e6 18 bb 3f 19 19 91 3d
       0.07363 0.5811572 1.4616973 0.07084865
0000d0 ec 21 c4 bf ff 02 7b 3f 93 8d c2 3d 1f f7 86 3e
       -1.5322852 0.98051447 0.094996594 0.26360413
0000e0 c3 87 52 3e 73 a8 ef 3f e7 12 10 40 e4 2c 33 40
       0.20559601 1.8723282 2.2511537 2.799615
0000f0 7b fb a1 bf 5f 1e 16 be 16 2e 3e 3f 28 c1 ff be
       -1.2654871 -0.14660023 0.7428907 -0.49952054
000100 c5 3d 21 bd 57 b2 53 3f 79 76 03 3f 9c 2e 9d 3f
       -0.03936555 0.82694 0.5135265 1.2279849
000110 b0 8f 56 bf 3b 73 9e be b7 29 68 3d 04 52 1f c0
       -0.83813 -0.3094729 0.056680407 -2.4893808
000120 4d ae bb be 7c 98 d6 3f f2 7c d0 bf 6d 42 c0 3e
       -0.36656418 1.6765285 -1.628813 0.3755068
000130 7b 8d 08 3f 0b 94 28 bf c1 7a 8d be 0d 32 ce be
       0.5334088 -0.65850896 -0.27632716 -0.4027256
000140 2f e9 7b bf 2e 3d 90 bf 7a 44 92 3c f5 a7 02 bd
       -0.98402685 -1.126867 0.017854918 -0.031898458
000150 dc 62 e1 be 62 9d 69 3e b3 0b 01 c0 32 ba aa 3f
       -0.44020736 0.22813943 -2.016339 1.3338072
000160 84 83 c9 bc d8 8f d1 be 8c 56 5e 3f df bd 5a bf
       -0.024598844 -0.40930057 0.8685081 -0.8544597
000170 ee c1 8c bf 8b 68 72 3e 76 30 e4 be f6 9e 55 bf
       -1.0996683 0.23672692 -0.44568223 -0.8344568
000180 3b 5c 56 bf db c6 02 c0 5b 1d 0d 3f c8 b8 13 3f
       -0.8373448 -2.0433872 0.5512292 0.5770383
000190 40 b0 09 bf 89 e3 8f 3f d4 ae 91 3f 36 bf 53 3f
       -0.5378456 1.1241313 1.1381478 0.8271364
0001a0 de 69 a5 be 8b 07 f3 bf 9e a6 78 be b1 5b ea be
       -0.32307333 -1.8986677 -0.2428231 -0.4577308
0001b0 27 d4 3f bf 78 df 42 3e ab d5 b0 bf fd 8d f9 be
       -0.74933094 0.19030559 -1.3815206 -0.4874114
0001c0 25 cb db be 3b 8d 3c 3f 3d 00 98 bf f4 f0 cc be
       -0.42928424 0.73653 -1.1875073 -0.40027583
0001d0 78 72 5a 3e 7f 42 98 3e 99 36 a2 3e b5 23 cb be
       0.21332729 0.29738232 0.3168228 -0.3967568
0001e0 f5 ab a4 bf 6d 7c 94 bf b6 c2 96 3e 05 c9 2b be
       -1.2864977 -1.1600472 0.29445428 -0.16775902
0001f0 9a 9e 62 bf 66 b2 a8 3f 62 47 4c bf 70 c8 96 bf
       -0.88523257 1.3179443 -0.7979642 -1.1779919
000200 f1 f2 57 be f0 5c 01 bf 3f 3f 64 3f 9f 04 c1 bf
       -0.21088769 -0.50532436 0.89159006 -1.5079535
000210 fa 22 b3 3f 4b 1b dc bf cf 99 b2 be ae 8f 52 bd
       1.3995049 -1.7195829 -0.34882972 -0.051406555
000220 e2 c3 d5 bf 05 48 ce be a1 f9 ab bf d1 3b 23 bf
       -1.6700404 -0.40289322 -1.3435556 -0.6376315
000230 6e 1c 84 bf 5b bd 8a 3f d7 c1 43 c0 ce ea e4 3e
       -1.0321176 1.0839037 -3.058706 0.44710392
000240 01 ff c5 bf b3 63 e2 bf de 19 43 bf 60 7b f8 3e
       -1.5468446 -1.7686676 -0.76211345 0.48531628
000250 bc fa 8c 3f 47 12 3a 3d c5 64 99 bf 7c 83 93 3e
       1.1014018 0.045427587 -1.1983877 0.28811252
000260 c6 e6 7e bd a5 05 6f bf 2d 59 40 bf 71 3a 05 be
       -0.0622318 -0.9336799 -0.7513607 -0.13010575
000270 ec 1f aa 3f d4 be a3 bf ba bc 10 40 82 27 1e 3f
       1.3290992 -1.2792611 2.261519 0.61779034
000280 13 ec 23 3f 49 6c cb bf ba 00 f3 be 32 27 18 3f
       0.64032096 -1.5892421 -0.47461492 0.5943481
000290 47 ea 71 bf ba de b5 bf 0d 97 8b 3f 9d a9 3c 3f
       -0.94498104 -1.4208596 1.0905472 0.7369631
0002a0 18 62 c1 3f 52 fb a0 be f8 e9 73 bf 45 fa a3 3e
       1.5108061 -0.31441742 -0.95278883 0.32026878
0002b0 77 d2 d5 3f a1 a7 4c 3e 33 88 61 bf 04 df 2e bf
       1.6704854 0.1998582 -0.8809845 -0.68309045
0002c0 3a 03 0e c0 90 d5 a6 3d 59 63 84 bf 03 ba 3a bd
       -2.218947 0.081462026 -1.0342818 -0.04558755
0002d0 44 dd e2 3f 9d 2b 2d 3e be f4 59 be fd 32 4d 3e
       1.7723775 0.16911168 -0.21284768 0.20038982
0002e0 63 0b 8c 3f 55 d0 7d bf f2 04 9b 3f 55 c0 e6 3e
       1.0940975 -0.99146014 1.2110884 0.45068613
0002f0 61 73 73 bf 3c 77 07 c0 8e 1a 25 3f 44 97 1b bd
       -0.9509793 -2.1166525 0.64493644 -0.037986055
000300 c5 0e 96 3f a1 7e 5d bf 06 6e fd bd 7b af a5 bf
       1.1723257 -0.86521345 -0.12374501 -1.2944177
000310 fd 3b a1 3e b2 00 cf 3f f7 fd 27 3f 9a e7 02 bf
       0.3149108 1.6172087 0.65621895 -0.51134646
000320 a0 76 7b bf fb dd e0 be 5e 3f f1 bf 3c 56 b5 bf
       -0.9822788 -0.43919358 -1.8847463 -1.4166942
000330 73 e0 5d 3f 8d c8 60 bf d1 ce af bd e9 d8 c5 3f
       0.8667061 -0.87806016 -0.08584369 1.5456821
000340 fd 6d 4c 3f 86 08 69 3e 63 a3 2a 3f bf 29 c7 bc
       0.7985533 0.22757158 0.6665556 -0.024311898
000350 8d dd 1a c0 46 f3 11 bf 6a f1 7c be 3e 8d c3 be
       -2.4197724 -0.5701183 -0.24701467 -0.38193697
000360 af b9 22 c0 ee f4 06 bd f7 4b 16 3f c7 ed 98 bd
       -2.5425832 -0.032948427 0.58709663 -0.074672274
000370 74 34 e5 be 05 07 e1 be b5 bc 8b bf bb dc bb be
       -0.4476658 -0.43950668 -1.0916964 -0.3669184
000380 fc a2 53 3a e2 e7 01 3f 5e 8e 19 bf 63 7e c3 bf
       0.0008073298 0.5074445 -0.5998286 -1.5272945
000390 a1 ad 23 be 23 95 e5 be cb 4e 42 bf f6 91 41 3d
       -0.15984203 -0.44840345 -0.7590148 0.04725834
0003a0 6b 5f b8 be 83 1f 5a 3f 95 73 c6 3f c1 c5 0a bf
       -0.36010298 0.85204333 1.5504023 -0.54208
0003b0 a2 33 d5 3e f1 25 de 3e fb 62 c4 bf ca c0 68 3f
       0.41640955 0.43388322 -1.5342706 0.9091917
0003c0 09 44 db be cb 51 a2 3f 27 fc c8 3e cc 2f c1 be
       -0.42825344 1.2681211 0.39254877 -0.3773178
0003d0 30 1a bd 3e a6 1b ad 3f c3 48 35 3f 9e 30 59 3f
       0.36934042 1.3524063 0.7081415 0.8483981
0003e0 d0 51 06 bf c7 a0 d1 3f 3b 7c ea bf 41 7b 8e 3d
       -0.52468586 1.637719 -1.8319162 0.069571026
0003f0 65 49 a0 bf 76 79 17 bf 3a 3e 2f 3e 6d 96 0b bf
       -1.2522398 -0.5916971 0.17113581 -0.54526407

weight f4 [4, 32]
000000 f0 d8 68 3f f0 fa 9a 3f 82 7d 92 3e 37 e9 b7 bf
       0.9095602 1.210783 0.2861138 -1.4368047
000010 a4 27 b2 3f 35 d7 20 bf 75 e3 19 bd 3a 82 94 bf
       1.3918347 -0.6282838 -0.037570436 -1.1602242
000020 3f 0e 7f bf eb f2 5d 3f 1f 33 02 c0 c0 53 92 3d
       -0.9963111 0.8669879 -2.0343702 0.0714488
000030 80 0f 90 bf c9 64 16 bf d2 18 b1 3e 5b 43 91 3f
       -1.125473 -0.58747536 0.3458925 1.134868
000040 e5 b9 95 3d 71 df 87 bf 29 63 4e 3e 17 ea 80 3e
       0.07310847 -1.0615064 0.20155014 0.25178596
000050 1f 92 cc 3e 36 af 0a 3e d9 c2 1d 3f d6 48 22 3f
       0.39955232 0.135434 0.6162544 0.6339239
000060 a7 53 c4 3f 77 71 9c 3e e7 72 a5 bd f8 55 fe bf
       1.5338029 0.30555317 -0.080785565 -1.9869986
000070 bc f0 e9 3c e2 19 b8 3e dc 21 4f 3f fe 1c 4c 3f
       0.028557174 0.35957247 0.8091104 0.7973174
000080 5d d7 a8 be d3 e1 0a 3f f2 0b e8 3e 41 2c 66 3f
       -0.3297681 0.5425083 0.45321614 0.89911276
000090 83 66 c7 3c eb a1 36 3e ea e5 3a 3e 74 6d 97 3f
       0.024340874 0.17835204 0.18251768 1.1830277
0000a0 7a 69 ab 3f 35 c7 e6 be a0 26 c8 bf 62 86 8c bf
       1.3391564 -0.45073858 -1.5636787 -1.097851
0000b0 80 59 fd be d2 51 0c 3f 75 39 83 bf 0d a6 16 bf
       -0.49482346 0.5481235 -1.025191 -0.58847123
0000c0 79 56 6d bf f6 10 fe bd 22 51 2d bf 49 38 68 bf
       -0.9271007 -0.12405579 -0.67701924 -0.90710884
0000d0 73 00 7d bf af c5 df 3e 96 0c 84 3d 78 c1 df be
       -0.9882881 0.43705508 0.06447713 -0.43702292
0000e0 95 35 9f 3d 92 e8 17 3e 3c 6f 36 3f 75 37 93 3d
       0.07773892 0.14834812 0.7126348 0.07188312
0000f0 fe 8a b9 be f9 4f f3 be e5 0f f6 3e 60 df bf bf
       -0.36238855 -0.47521952 0.48059002 -1.4990044
000100 74 cb 88 bf 24 60 13 3f 10 9f b7 3f 68 7d 6f 3f
       -1.0687089 0.57568574 1.4345417 0.9355073
000110 c6 8b 67 bf d9 f8 82 be ea 7b 13 3d ab 58 96 3f
       -0.9044765 -0.2558048 0.036006846 1.1745809
000120 3c 19 b7 bf 07 5c 6c 3f 42 72 0d bd 85 f3 d9 3e
       -1.4304576 0.9232792 -0.034532793 0.42568603
000130 a6 55 b0 be a3 5f 86 bf f0 7b 78 3e fc c3 9e be
       -0.34440345 -1.0497936 0.24266028 -0.310089
000140 e2 96 e2 bf 0a 74 f9 be a2 52 67 3f 17 7d 31 bf
       -1.7702296 -0.48721343 0.9036046 -0.69331497
000150 8f d3 51 3f 8d 06 86 bd 89 dd b6 3e ed 8e a1 3f
       0.8196344 -0.06544218 0.35715893 1.2621742
000160 df da e8 3e 65 8e 39 3f ce 98 b5 3f 67 e8 bb 3f
       0.45479485 0.724829 1.4187257 1.4680299
000170 9c bc 68 bf 9a 6e 0f 3f f0 9a c3 bf c5 f8 25 3f
       -0.90912795 0.5602814 -1.5281658 0.6483272
000180 ff 00 9b 3f d8 e9 59 3f 07 b2 4e bc 8c da 95 3f
       1.2109679 0.8512244 -0.012615687 1.170732
000190 90 c9 7c bf 2b 64 d8 be c0 c7 d6 3e 75 10 1b 40
       -0.9874506 -0.42263922 0.41949272 2.4228795
0001a0 79 4c 6b 3f 7d a8 aa 3f 64 f6 c4 3e e9 d8 82 be
       0.91913563 1.3332669 0.3846923 -0.25556114
0001b0 ce c1 97 3f 13 6d 34 3e 8b 67 bc bd 97 32 e8 bf
       1.185602 0.17619734 -0.09199437 -1.8140439
0001c0 72 59 15 3e 7d 94 46 bf c9 40 01 c0 52 71 c5 3f
       0.14584902 -0.77570325 -2.0195792 1.5425208
0001d0 ef b8 99 3f bf 3f c5 be a7 47 e1 bf 83 56 88 be
       1.2009562 -0.38525197 -1.7599992 -0.26628503
0001e0 85 a5 50 3e 79 cb f8 3e 9e ba c1 be 15 86 b9 bf
       0.2037564 0.48592737 -0.3783769 -1.4494044
0001f0 ec bb 4b bf 81 f5 6e 3f 82 e7 bc bf ab fd 7a be
       -0.7958362 0.9334336 -1.475815 -0.24510829

in_proj_weight f4 [96, 32]
000000 b3 bd 81 bd d7 15 21 3e 36 e8 0e be 17 dc 46 3e
       -0.063350104 0.15730987 -0.13955769 0.19419895
000010 e9 81 0f 3d c9 f5 f0 bd ab 46 a1 3a be b2 15 be
       0.035036 -0.1176563 0.0012304386 -0.14618966
000020 a5 f0 f5 bd d4 7e 85 3b eb 71 96 3d 2a 29 39 be
       -0.1200879 0.004073957 0.07345947 -0.18082109
000030 5e 06 84 3d a9 15 90 3d a1 64 43 be 68 63 13 3d
       0.06446527 0.07035381 -0.19081356 0.035983473
000040 b5 fc ad 3c ad 92 f1 bd 51 ff 08 3d 4d 82 32 be
       0.021238664 -0.11795554 0.033446614 -0.17432518
000050 2d 0e fe bc e1 43 cc 3d 48 b7 31 bd f8 ec 4f 3e
       -0.031012619 0.099738844 -0.04338768 0.2030524
000060 86 be ff bc 47 c5 61 be c1 3b 2e be ca 31 1d 3d
       -0.031218778 -0.22047912 -0.17014982 0.03837756
000070 ee 60 cc bc 43 4a 33 3d 3e 64 43 3e 3e 7d 33 3e
       -0.024948563 0.043771993 0.19081208 0.17528245
000080 69 39 c8 3d 6b 34 2d 3e 64 20 43 3e c7 c3 0c 3e
       0.09776575 0.16914527 0.19055325 0.13746558
000090 cc ae 1b be cb 92 35 be e0 31 18 3e cc f7 cc 3b
       -0.15203398 -0.17731778 0.14862776 0.0062551256
0000a0 fd 0b 04 bd 82 f8 07 3d bd cc 36 3e 5a ef 67 bc
       -0.032237995 0.03319598 0.17851539 -0.014156187
0000b0 76 c6 f2 3d fb c1 37 be ae ac fc 3d 06 68 38 3e
       0.1185426 -0.17945091 0.123376235 0.18008432
0000c0 e6 8f 4b 3e aa bc 94 bd f5 af 44 3e 81 6e 4d 3e
       0.19879112 -0.07262547 0.19207747 0.20061685
0000d0 21 36 08 3e c2 37 7a 3d d9 21 21 bd be cb aa 3c
       0.13301899 0.06108833 -0.03933892 0.020849105
0000e0 5f b8 f7 bd f4 d1 3c 3e c4 4f fa 3d d5 ad 02 be
       -0.12095713 0.18439466 0.12222245 -0.12761624
0000f0 9a b7 2c be 85 ba 58 be 94 d5 16 3e f2 68 dc bd
       -0.16866913 -0.21164902 0.14729911 -0.10762204
000100 f8 cb 25 3c 91 4b d7 3d f4 13 3e 3e 33 fb 18 be
       0.010119431 0.1051246 0.18562299 -0.14939575
000110 de d4 47 be 48 a3 4d bd 4f 82 a3 bc c6 0f e2 bd
       -0.19514796 -0.050204545 -0.019959597 -0.11038165
000120 f0 55 f7 3c c3 f2 14 be a8 10 a1 3d 1b 14 ee bd
       0.030192345 -0.14545731 0.07864505 -0.116249286
000130 6d ee fe bb 80 65 6d 3d 52 db 92 3d 95 f0 19 bc
       -0.0077798874 0.057958126 0.07170738 -0.009395738
000140 51 8a 73 bd 02 83 3d 3e 47 a9 70 bd 06 54 0c 3e
       -0.05945808 0.18507007 -0.058755185 0.13703927
000150 07 72 31 be 53 c4 10 3e 43 64 27 3e 4d 05 1f be
       -0.17328654 0.14137392 0.1634684 -0.15529366
000160 ec 9b 0e 3e 4a da 05 be 5f 89 5c bd a9 e8 40 be
       0.13926667 -0.13071552 -0.053841945 -0.18838753
000170 50 a5 8e bd 56 fe 82 3d fc 76 cd 3d 5b e7 ee 3d
       -0.069651246 0.06396167 0.1003246 0.11665221
000180 61 7d 09 3d 40 7a 3e 3d 17 59 96 bd 3f 51 b1 3d
       0.033566836 0.046503305 -0.07341211 0.086580746
000190 5b aa 86 3d f1 71 1b be 66 b0 ea bc e1 d3 67 3e
       0.065754615 -0.15180184 -0.028648566 0.22639419
0001a0 e0 5c 19 3e 5b 0c 45 be 99 5f a8 3c 7a 6d 54 be
       0.14976835 -0.19242994 0.020553397 -0.20744887
0001b0 09 24 c6 bc aa 16 44 be a7 a4 3b be 32 77 65 be
       -0.024187105 -0.1914927 -0.18324529 -0.2240875
0001c0 5d 9b 86 bd 02 68 ec 3d 1b 6f ea 3d 5a f5 25 3d
       -0.06572602 0.115432754 0.11446973 0.04051719
0001d0 74 48 e2 3b e0 c6 1a be 44 a8 3e bc f3 09 50 3e
       0.0069056097 -0.15114927 -0.011636797 0.20316295
0001e0 af a5 b5 bd fa 69 42 be 4d 01 59 3e 5b db 25 be
       -0.08869492 -0.1898574 0.21191902 -0.16196959
0001f0 fe e9 1a be 3b 28 41 3e 06 46 44 3e ec 68 20 3e
       -0.15128323 0.18863003 0.19167337 0.15665025
000200 dd e2 f7 bd 81 d8 1f be a3 7a 34 3c e4 52 0d 3e
       -0.121038176 -0.15609933 0.011015567 0.13801152
000210 5e 4b 07 3d 32 bd 14 bd ce 9e 0d 3e e2 d5 b8 bd
       0.03303086 -0.036313243 0.1383011 -0.0902517
000220 2c a5 03 3e 74 4f 8d bd b2 c6 03 be 37 41 18 3e
       0.12855977 -0.0689992 -0.12868765 0.14868627
000230 c0 cc 0d 3d 49 cd 3a be ca 78 c4 bd c0 26 37 be
       0.034619093 -0.18242373 -0.09593351 -0.17885876
000240 d2 d1 99 3d 33 93 59 be a3 16 6e 3d b0 6e 65 bd
       0.07510723 -0.21247558 0.058127057 -0.056013763
000250 9e 19 7c bd b3 b1 20 be 49 2f f8 bd e8 29 78 bd
       -0.061547868 -0.15692787 -0.12118394 -0.06058684
000260 2a 76 f9 bd ad 00 16 bd 54 88 77 bc 41 65 60 be
       -0.12180741 -0.03662174 -0.015108187 -0.21913625
000270 bb ee 7b 3a 0c e6 42 3e 1f 0c 3c bc e6 3c 0c be
       0.0009610464 0.19033068 -0.011477499 -0.13695106
000280 e4 a7 05 be b7 99 9c 3d 64 1a 06 3e 81 b6 5b 3d
       -0.13052326 0.07646506 0.13096005 0.053640846
000290 01 c4 3c 3e 5d 0a 11 be 3a f6 03 bd a3 09 0b be
       0.18434145 -0.1416411 -0.03221724 -0.13577895
0002a0 9f 63 2a be 11 09 c4 3d 61 1e 1d bd de 2b 47 3e
       -0.16639565 0.09572042 -0.03835905 0.19450328
0002b0 a7 3a 48 bd 31 59 13 3e c0 a5 fc bd 26 1d fd 3c
       -0.04888406 0.14389493 -0.12336302 0.030897688
0002c0 9d bd 66 3e cc 7f f3 bd f2 80 bf bc 30 5b bd bd
       0.22533269 -0.1188961 -0.023376916 -0.09245908
0002d0 a2 e1 09 3c 41 85 e9 bc 3b 58 97 3c f1 1d 4d 3e
       0.008415611 -0.028505923 0.018474689 0.20030953
0002e0 e9 ea 4d 3e 21 a3 1e be 5e 5c 86 bc fd a4 fa bd
       0.20109142 -0.15491916 -0.016401466 -0.122385
0002f0 90 9d 09 be 12 22 da 3d 7a ae c7 bc 1c 5b 9a 3d
       -0.13439012 0.1065103 -0.02437519 0.07536909
000300 c1 6b 30 3e 8c ae 00 bd e5 47 13 3c f0 11 f9 bd
       0.17228605 -0.03141646 0.008989309 -0.121616244
000310 b6 8e 01 be 45 96 1d ba 6b a5 2d 3c 1f 11 3e be
       -0.12652096 -0.00060114666 0.010598521 -0.18561219
000320 3d d1 4b 3e 24 7b 06 be 04 33 2b 3e ed 87 08 3c
       0.19904037 -0.13132912 0.1671868 0.0083331885
000330 70 54 98 3d 89 52 4e be 82 40 34 3e 29 76 f4 3d
       0.0743798 -0.20148672 0.17602733 0.119366
000340 bf a0 f4 bd 21 75 68 bd 2b 88 0d 3e bd e8 f6 3d
       -0.119447224 -0.056752328 0.13821475 0.1205611
000350 05 11 e2 bc a0 c3 56 be f6 c3 35 be 3b d2 28 3e
       -0.027596006 -0.20973063 -0.17750534 0.16486447
000360 89 4b fa 3d eb b0 39 3e 55 67 a3 3a e9 29 15 be
       0.122214384 0.18133895 0.0012466708 -0.14566769
000370 35 4b 36 be 2a dc ba bd e6 c0 80 bd 19 9a c2 bd
       -0.17802127 -0.09124024 -0.062867925 -0.09502048
000380 0f 7a 52 be 9d ba 00 3e b0 80 0a 3e 48 fb 4e 3e
       -0.20554374 0.12571187 0.13525653 0.20213044
000390 64 32 1a 3e c6 7f 37 3e 1a 8d 1a 3e d0 c6 db 3c
       0.15058285 0.17919835 0.15092888 0.0268282
0003a0 1f cf d7 bd df 74 01 3e 75 31 dc 3b 66 0e e3 bb
       -0.10537552 0.12642239 0.006719763 -0.0069292067
0003b0 f0 2f 17 3e dc e4 91 bd 9b 5d 99 3b 22 8f 0f be
       0.1476438 -0.071237296 0.004680348 -0.14019445
0003c0 7f 30 95 3d 6c e8 b0 bd 43 d5 80 bb 6a 6d 1a 3e
       0.072846405 -0.08638081 -0.003931673 0.150808
0003d0 7a e9 06 3e 10 f0 26 be 21 f5 62 be 47 a2 20 3e
       0.13175002 -0.16302514 -0.22163822 0.15686904
0003e0 5b 51 48 be 71 fa 37 3e 85 9e 50 be 79 0b 11 bd
       -0.19562285 0.1796663 -0.2037297 -0.03541133
0003f0 36 67 1a 3e b2 f4 e2 3c 1f dd 20 3e 7e b5 c8 bc
       0.15078434 0.02770457 0.15709351 -0.024500605

in_proj_bias f4 [96]
000000 bd 41 e8 bb 70 76 d7 bb 30 ed b4 b9 c0 a5 0b bc
       -0.0070879147 -0.006575398 -0.00034508994 -0.008523405
000010 17 8d da 3b a1 a1 04 3b f1 16 61 3c 51 d6 f1 bb
       0.0066696513 0.002023794 0.01373838 -0.007380285
000020 98 b9 67 bb 4a ca 6d 3b 49 8e 1c bb 75 e5 08 bb
       -0.0035358425 0.0036283904 -0.002388852 -0.002088872
000030 35 23 23 b9 1d 85 0f bc 6e 6b 9d bb b8 69 bc 3b
       -0.00015558007 -0.008759764 -0.0048040664 0.0057499073
000040 49 0c 99 39 9b 61 b4 3b 1b a3 f2 ba 9d d2 a0 b9
       0.00029191587 0.0055047995 -0.0018511744 -0.00030674497
000050 8f d3 25 bb 14 e5 31 bb 15 3e f3 3b 73 3b 85 3b
       -0.00253031 -0.0027144598 0.0074231722 0.004065925
000060 13 c0 04 bc a2 e1 07 3c 13 cc 3e bc 9f 94 61 bc
       -0.008102435 0.008293541 -0.011645335 -0.013768344
000070 d3 4f 6c 3b 03 c0 29 bc f6 91 45 bc ed f4 85 3c
       0.003605832 -0.010360721 -0.012058726 0.016352141
000080 a8 c3 30 36 39 ae 18 36 69 0e 81 36 4f c2 8e b6
       2.633993e-06 2.2751176e-06 3.846177e-06 -4.2545503e-06
000090 57 c4 5e 36 a5 4f ba b6 0e 05 c4 35 f3 b4 1a b6
       3.3194863e-06 -5.552504e-06 1.4604609e-06 -2.3053115e-06
0000a0 df d5 84 37 8c 82 dc 36 e9 6a 0c 37 a5 0d 75 b6
       1.5835218e-05 6.5717086e-06 8.369542e-06 -3.6515787e-06
0000b0 71 96 11 b6 e6 fc af b5 22 17 11 b6 d0 b8 68 36
       -2.1694252e-06 -1.3112119e-06 -2.1620149e-06 3.467827e-06
0000c0 ca bc 2c 35 77 38 90 36 7a 08 9a 35 c1 03 fc b5
       6.434972e-07 4.298108e-06 1.1476361e-06 -1.8776556e-06
0000d0 45 b1 5a 35 70 06 32 b6 1e 85 e4 b5 c4 4b a4 35
       8.146929e-07 -2.6527814e-06 -1.7026066e-06 1.2241003e-06
0000e0 a3 5f fa 35 91 3d c0 34 39 e4 d7 b5 88 09 00 b5
       1.8654285e-06 3.5807582e-07 -1.608517e-06 -4.7697586e-07
0000f0 2d 77 1a b6 07 e0 76 34 c7 9c c9 36 a6 6d 95 b5
       -2.3017158e-06 2.2992036e-07 6.008518e-06 -1.1133277e-06
000100 08 94 01 3c 80 22 e9 ba da 5f 3b bc 12 53 87 bb
       0.007908829 -0.0017786771 -0.011436427 -0.004129776
000110 04 db 6f bc 92 44 ac bb 48 24 92 3a 48 88 ce 3b
       -0.01463962 -0.0052571977 0.0011149729 0.006302867
000120 bd de 54 ba 6e 1c ab 3b b3 0c 65 3b e2 76 52 3c
       -0.0008120349 0.005221895 0.0034950196 0.012845727
000130 ba 08 e3 3b a0 e8 96 bb c9 65 d0 3b 70 b7 ca 3b
       0.0069285305 -0.004605368 0.00635979 0.0061864182
000140 f4 1d dd 3b 98 be cd 3a f6 2f c8 ba 70 a5 ff 3b
       0.0067479555 0.001569706 -0.0015273083 0.007801704
000150 7c 6b c6 3b e2 e9 24 3c 1b ea ba b9 8c 28 20 bb
       0.0060552936 0.010065528 -0.00035651107 -0.002443823
000160 28 b5 6f bc 8e fa b7 3b a3 4b e5 3b fd 21 58 3c
       -0.014630593 0.0056145852 0.006997542 0.013191697
000170 e3 56 7e bc 8b ad 5b bc 52 de 57 3c e9 82 f7 3a
       -0.015523645 -0.013408075 0.013175564 0.0018883619

weight f4 [32, 32]
000000 87 12 fe bb dc b4 27 be 15 f9 d7 3d 7f 65 27 3e
       -0.0077536735 -0.16377586 0.105455555 0.16347311
000010 b0 42 97 be f8 b1 f7 3d 52 74 e4 bd fd b0 f5 bd
       -0.29543066 0.12094492 -0.11154999 -0.119966485
000020 32 0d 4c be 81 af 25 3e 23 50 3a 3e 99 6a 5a 3e
       -0.19926909 0.1618023 0.18194632 0.21329726
000030 d7 45 25 be b3 6e 04 bc 81 ef 56 3e 26 46 8f be
       -0.16139923 -0.008083033 0.20989801 -0.27983207
000040 a7 f6 73 be 94 87 76 3e 05 78 75 be ce b5 a9 bd
       -0.23824559 0.24075156 -0.23971565 -0.082866296
000050 a9 28 51 be ae 81 61 bd ba ad f7 bd 50 e1 23 be
       -0.20425667 -0.055055313 -0.120936826 -0.16003919
000060 7c 81 f2 3c be e7 82 3e 59 0c d5 3d 00 96 93 3e
       0.029602759 0.2556743 0.10402746 0.28825378
000070 0d b6 de bc c3 3e 8b be 5c 33 82 be 77 8e 24 be
       -0.027186418 -0.2719632 -0.2542981 -0.16069971
000080 63 80 88 3e e8 ac 67 3e b5 7c 3d be 11 67 f2 bd
       0.2666045 0.22624552 -0.18504603 -0.118360646
000090 ef 90 6d bc 9b ee d8 bd 27 c9 8d 3e 8c 77 6d 3e
       -0.014499887 -0.105923854 0.2769253 0.23190135
0000a0 92 d4 89 3e a8 cb fc 3d 1d 94 5d ba 29 d2 df 3d
       0.2691999 0.12343532 -0.00084525516 0.10928757
0000b0 2f b5 85 be 0d bb 11 3e a1 4d cd 3d c1 33 b4 3d
       -0.26114795 0.1423151 0.10024572 0.08798934
0000c0 1c e5 9c 3d 1b 79 e6 bd ee 22 6f be 01 5c 1f 3c
       0.07660887 -0.11253568 -0.23353168 0.009726525
0000d0 ba 79 aa bd 58 9f 88 3c 7f 50 1d be a6 5c 18 be
       -0.08323999 0.016677544 -0.15362738 -0.14879093
0000e0 78 6d 59 be cf bf 12 3e 63 e2 18 3d 2d 83 f9 bc
       -0.21233165 0.14330982 0.037325274 -0.030458057
0000f0 f9 de 4e bd 6f cc 4c be 4d 6f b7 3d 4e aa 86 3d
       -0.050505612 -0.1999986 0.08956776 0.06575452
000100 62 6a f9 bd 2b 21 67 bc 4b 6d 04 be c1 1c 77 3e
       -0.12178494 -0.014107029 -0.12932317 0.24132062
000110 db 72 5d be 34 1f ac 3d 37 80 6f 3e 37 41 30 be
       -0.21625845 0.08404389 0.23388754 -0.17212377
000120 1b dc 04 be 9d 60 73 3e 21 a1 7d bc 69 4f 06 3e
       -0.12974589 0.23767324 -0.015480311 0.1311623
000130 fc 87 2e 3e cb 79 14 3e 09 64 b4 3c 8c fb 53 3d
       0.17044061 0.14499585 0.022020357 0.051753566
000140 da fa 62 be 46 e5 89 3d 67 47 90 be c7 1f 15 be
       -0.22166005 0.067331836 -0.28179476 -0.14562903
000150 25 c5 28 3e f7 65 01 3e 89 6b aa 3c ec e8 01 bb
       0.16481455 0.12636553 0.02080323 -0.001982267
000160 42 90 7c 3d 3f da 28 be 25 2c c7 3c 87 e8 cb 3d
       0.061661012 -0.16489504 0.024313042 0.099564604
000170 78 a5 4a 3e 51 f6 4b 3e bf f2 18 be cc 8a 59 be
       0.19789684 0.19918181 -0.1493635 -0.21244353
000180 36 5e b4 bd 87 c0 13 be 36 d4 d9 3d 38 3f 33 bd
       -0.08807032 -0.14428912 0.10636179 -0.043761462
000190 72 61 61 be 11 19 5c 3e ff 77 0c 3e 3f f0 b5 3d
       -0.22009829 0.21493937 0.1371765 0.08883714
0001a0 c9 94 82 3e bb 15 3c 3e e2 c4 72 be 2b 5b 2c bd
       0.2550414 0.18367665 -0.23707917 -0.042079132
0001b0 97 bd 83 3e fe 94 3d 3e 77 02 a0 ba 01 89 3f 3d
       0.25730583 0.18513867 -0.0012207766 0.046761516
0001c0 c8 5c 5f be f1 11 2d be cf ee 79 be b3 f1 ad bd
       -0.21812737 -0.16901375 -0.24407504 -0.08493366
0001d0 f4 93 80 be 82 51 07 be e7 ad 58 be f6 c5 94 3d
       -0.2511288 -0.13214687 -0.21160088 0.072643206
0001e0 0c 54 a0 3e 73 95 77 3e 97 58 82 3e a8 4e 98 3e
       0.31314123 0.24178104 0.25458214 0.2974751
0001f0 ed 08 42 3e 93 94 8b be 06 c0 f0 bd 14 62 84 bb
       0.18948717 -0.2726179 -0.117553756 -0.004040012
000200 28 32 48 be b3 40 51 3d d3 8f 91 bb bc eb ca 3b
       -0.19550383 0.051087093 -0.004442194 0.0061926525
000210 96 fd 17 be 51 11 93 be ec a0 8d bd 96 7d 32 be
       -0.14842829 -0.2872415 -0.06915459 -0.1743072
000220 2a fc 29 bd 35 cf 80 3c 65 fd 3d 3e 5e bd 32 bd
       -0.041500248 0.015723804 0.18553694 -0.043637626
000230 9f 07 2b be 17 64 a1 bc b0 84 7d be d7 60 e1 bd
       -0.16702126 -0.019701047 -0.24757648 -0.11004799
000240 0f 7f 48 bd ac f2 3e 3e c5 66 fb 3d f8 ad 9d 3e
       -0.048949298 0.1864726 0.12275461 0.3079679
000250 4f 76 25 be 85 40 80 be de 33 94 3e 5f a3 64 3e
       -0.16158412 -0.25049224 0.28945822 0.22327946
000260 36 12 97 3e 85 1b 2e 3e b2 a0 36 3e d0 e7 08 3e
       0.2950608 0.17002685 0.17834738 0.1336968
000270 de c0 89 be c1 ff 1c bd f5 39 6b bd 9e b9 5b be
       -0.26904958 -0.038329843 -0.05742832 -0.21457526
000280 f2 d9 88 bd ec 81 dc 3d e1 ab 71 be af 89 7f be
       -0.06682195 0.10766968 -0.23600723 -0.24954866
000290 93 0d 13 3e 10 2b b6 3d f3 14 62 be cb cb 0b 3e
       0.14360647 0.08894932 -0.22078304 0.1365196
0002a0 7c 77 69 3e 7d bf 2e 3d 55 ea 51 be 3f 99 23 be
       0.22799486 0.042663086 -0.20499547 -0.15976427
0002b0 59 46 63 bc 74 e0 93 3d 39 9f 90 bd 57 3e 6f bd
       -0.013871753 0.072205454 -0.07061619 -0.05840906
0002c0 e5 b9 a8 bd b0 9e 84 3d cb b9 0d 3e 0c 03 2b 3e
       -0.082385816 0.0647558 0.13840406 0.16700381
0002d0 1c 35 26 be 40 42 43 be 76 8e 66 be 4e 6e 9f 3e
       -0.16231197 -0.19068241 -0.22515282 0.31138843
0002e0 23 79 94 be 8b df 6f 3d c7 c2 64 bd 35 b7 9b 3e
       -0.2899867 0.058562797 -0.055849817 0.30413213
0002f0 6c c0 94 3e 63 b7 84 3e 26 8c 4a be eb 62 7a 3e
       0.29053056 0.25921163 -0.19780025 0.24451797
000300 4c ba 91 bd e7 4c 4e bb 5b 8a 03 3e 70 45 2e 3e
       -0.071156114 -0.0031478943 0.12845747 0.17018676
000310 3a a7 83 be c3 ae 34 bb 8f 0c 8d 3e ed 99 a1 bc
       -0.2571352 -0.0027569986 0.27548644 -0.019726718
000320 92 33 95 3e 78 8b 81 be 00 5d d5 3d b5 55 65 be
       0.29140908 -0.2530172 0.10418129 -0.22395976
000330 3f 4a 50 be d9 57 71 be dc 66 38 be cc 3a fd bc
       -0.20340823 -0.23568667 -0.18007988 -0.030911826
000340 03 89 91 3e 59 da 99 be 4a de 4b bd cb 05 55 be
       0.28424844 -0.300494 -0.04977254 -0.20802991
000350 26 e9 17 3e 82 10 c8 3d 8a 7a e0 3d 60 65 05 3e
       0.14835033 0.097687736 0.109608725 0.13026953
000360 55 40 32 3e 4c 69 c7 bd 33 01 2c 3e 46 26 8e be
       0.17407353 -0.09736881 0.16797332 -0.27763575
000370 99 08 46 3d f7 06 74 3e 61 14 f0 3d e8 00 53 3e
       0.048348043 0.23830782 0.11722637 0.20605814
000380 dc d2 7c be ed ad 7a be 78 0a 93 be 2e 56 57 3e
       -0.24689811 -0.2448041 -0.28718925 0.21028969
000390 d8 1e d1 bc c7 1e 55 bd 1a 2a 9e 3d 74 f3 7a be
       -0.025527403 -0.052031305 0.07722874 -0.24506932
0003a0 09 9c 8a 3e b9 8b 33 3d ff d8 8b be 96 c6 8c be
       0.2707217 0.04383442 -0.27313992 -0.2749526
0003b0 7d ee 95 be df 72 c3 bd be 50 8b be a7 19 87 be
       -0.29283515 -0.09543394 -0.2721004 -0.2638676
0003c0 ae eb 68 bc f6 3e a6 bc c7 9b 7b be 59 af 2c 3e
       -0.014216347 -0.020293694 -0.24571143 0.16863765
0003d0 31 57 4f be fc d2 14 3e 83 61 7b be a0 bb b0 3d
       -0.20248105 0.14533609 -0.24548917 0.08629537
0003e0 4a b5 95 3e 68 11 cf 3d 64 d7 06 3e ee 21 b2 3d
       0.29239875 0.10110742 0.13168103 0.08697878
0003f0 0a d6 ee bd c0 93 e4 bd d4 94 81 3e ef 5e 03 3d
       -0.116619185 -0.111609936 0.2530886 0.032072958

bias f4 [32]
000000 4b df 62 3c 09 9f 8c 3c 9d 5f f9 bb 14 2f 56 3b
       0.0138471825 0.017165678 -0.007610275 0.003268187
000010 e3 3c 10 bc 94 9f 8c 3b af 05 ae 3a 44 3f 8b 3b
       -0.008803579 0.004291484 0.001327684 0.004249485
000020 71 8d 79 bc 6b d0 14 3a c6 49 88 bc 11 6a 80 bc
       -0.015231476 0.00056768087 -0.01663674 -0.015675576
000030 a9 44 1f bc 00 32 77 3c 06 06 1b 3c 6f 27 24 bb
       -0.00972096 0.0150876045 0.009461885 -0.0025047918
000040 10 d0 53 3c a7 67 4f bc 33 99 84 3c d9 a6 ce ba
       0.012928024 -0.01265899 0.016186332 -0.0015766277
000050 d9 2d 3a bc b1 0e 1b 3c 9d 97 8b bc b9 4c 4d bb
       -0.01136347 0.009463952 -0.017040068 -0.0031326248
000060 f7 8e 39 3c 03 1d 0f 3c 10 dc 01 bc 68 67 a1 3b
       0.011325589 0.008734944 -0.007926002 0.004925657
000070 ae 52 5b bc 2e 29 07 ba 46 eb 3e ba cc d1 30 3b
       -0.013386412 -0.00051559776 -0.0007282983 0.0026980517

weight f4 [128, 32]
000000 be 00 0c 3e 84 88 c4 bd ae 36 2f 3e 98 20 2f be
       0.13672158 -0.09596351 0.17110702 -0.17102277
000010 34 fe 6c 3d 69 2b 19 bd 27 7d 90 bc cb e4 ef 3d
       0.057859614 -0.037394915 -0.017637802 0.11713561
000020 39 98 ed bb 52 67 74 3d 92 34 24 3e 81 1d 05 be
       -0.0072508124 0.059668846 0.16035679 -0.12999536
000030 c4 4b 25 be 84 cf cb bd 31 87 12 be a1 49 4a ba
       -0.16142184 -0.0995169 -0.14309384 -0.000771666
000040 d5 77 9f bd 5e 2d 35 be 11 08 21 3d 44 36 07 be
       -0.07786528 -0.17693087 0.039314333 -0.13204294
000050 6e 8b 02 3e d0 37 dc bd 34 8d 94 3c da 80 c2 3c
       0.127485 -0.10752833 0.018133737 0.023743082
000060 e8 c8 0c 3e c0 f1 4c bd 09 7f 25 be 05 0f d4 3c
       0.13748515 -0.05003524 -0.16161741 0.025886068
000070 ab 76 18 3e 5e c4 4b bd 74 70 35 bd cd 52 f0 bc
       0.14889018 -0.049747817 -0.044296697 -0.029336357
000080 ab 78 04 3e 37 29 10 bb 6e 68 3b 3e e9 a2 29 3d
       0.12936656 -0.0021997222 0.18301556 0.04141513
000090 3f f1 1b 3e 30 b2 23 3e 89 cc b1 3d 08 60 da bc
       0.15228747 0.15985942 0.0868159 -0.02665712
0000a0 9f 21 c6 3d aa e9 90 3d ae 80 74 bd c3 15 ff 3d
       0.096743815 0.07075818 -0.05969303 0.124553226
0000b0 bc 54 1f bc 7e 6c a9 bc 32 64 d5 3d 0a aa 29 3e
       -0.009724792 -0.020681616 0.10419501 0.16568771
0000c0 3a 86 37 be 71 8f a4 bd e9 b6 d3 bd d4 55 60 bd
       -0.17922297 -0.08035172 -0.10337622 -0.054769352
0000d0 b3 28 b8 3c 0c 9a d3 3d 19 86 8d bd e7 96 99 3c
       0.022480344 0.103321165 -0.06910343 0.018748714
0000e0 8b 3e 1e 3e 6e 88 21 3e da af 67 3d b7 b6 e1 3d
       0.15453546 0.157747 0.05656419 0.11021178
0000f0 b4 10 b8 bc 0f df cb 3d bb 1a 84 3d 8f 22 21 be
       -0.022468902 0.099546544 0.06450411 -0.1573584
000100 c5 e1 37 be 9c 29 21 3c 4c 36 0b be 94 54 31 3d
       -0.17957218 0.009836581 -0.13594931 0.04329355
000110 14 56 0e 3e 68 87 40 3e f6 a3 fb bc a7 4c ff 3d
       0.13900024 0.18801653 -0.030717831 0.12465792
000120 98 0a 60 3d 1b 47 ed bd 72 9a b5 bd ac 01 75 bd
       0.054697603 -0.11585828 -0.08867349 -0.059816048
000130 55 af 15 be 7a 9a 09 3e ff d4 30 be 86 91 82 bd
       -0.14617665 0.13437834 -0.17268752 -0.06375413
000140 d6 d2 76 3d d4 05 20 bd f9 88 04 be c8 e3 fc 3d
       0.060259663 -0.039068058 -0.12942876 0.12348133
000150 71 97 09 3e db 9b 2f 3e c6 9d d5 3d 56 19 3d 3c
       0.13436677 0.17149298 0.104304835 0.011541685
000160 41 b6 d6 bc fe 67 7d bd 42 84 28 3e 23 e0 33 3d
       -0.026209952 -0.061866753 0.16456702 0.043914925
000170 17 12 26 be aa e4 e8 3d a0 df 9d bd c0 98 9f 3d
       -0.16217838 0.11371739 -0.07708669 0.077928066
000180 ba e0 23 3d b2 fb 87 bd 56 9b c7 bd 42 20 96 bd
       0.040009238 -0.06639804 -0.09746425 -0.073303714
000190 1d c4 70 bd 77 e7 17 3d e5 d7 70 3d e1 d1 af bd
       -0.05878078 0.037085976 0.058799643 -0.08584953
0001a0 06 86 a8 3c a0 ca c0 bd 1e 54 bf bc 7e 0b 59 3d
       0.02057172 -0.09413648 -0.02335554 0.052989475
0001b0 85 df 18 be c6 83 1f be 10 06 88 bb 55 cb f6 39
       -0.14929016 -0.15577611 -0.0041511133 0.0004707227
0001c0 d3 1d 3b 3e 8c c9 21 be 55 13 0e be f2 96 23 3d
       0.18273096 -0.1579954 -0.13874562 0.039938875
0001d0 3c ee 7d 3d fc 07 75 bd 8a 92 11 3e ba 2b 05 3e
       0.061994776 -0.059822068 0.14216056 0.13004962
0001e0 a3 85 07 bd a3 ca 25 be 15 1d 30 be f1 a7 29 be
       -0.03308643 -0.16190581 -0.17198594 -0.16567971
0001f0 83 60 47 bc e1 74 9d 3d 01 47 35 be 94 f6 e9 bd
       -0.012169006 0.076883085 -0.17702867 -0.11423984
000200 ab dc 39 be 10 9d 93 3d 99 8f 0b bd 52 55 0d bd
       -0.18150584 0.07207692 -0.034072492 -0.034505196
000210 e4 f9 26 3e b9 8a e1 3d 03 e5 37 be 94 0a 1d be
       0.16306263 0.11012787 -0.17958455 -0.15336066
000220 5f 9f 80 3d 64 fa c5 3d 85 78 97 3d b0 bf e3 bc
       0.062803976 0.09666899 0.07396034 -0.027801365
000230 79 b5 1c bd 3d 78 26 3e b2 6b 1c bd 0e 87 35 3e
       -0.038259003 0.16256805 -0.038188644 0.177273
000240 06 d4 c8 bd e7 5c 94 3d 26 0f 3d 3d 5b 3e 4d be
       -0.09806065 0.07244282 0.046157025 -0.20043318
000250 d1 6b b5 3c 80 bd cc bc 25 e7 09 be 48 dc 30 be
       0.022146137 -0.024992704 -0.13467081 -0.1727153
000260 66 46 99 3d 61 91 da 3d 38 bd 95 3d 3b b5 b9 3d
       0.074841306 0.1067226 0.07311481 0.0906777
000270 4d 38 86 bd 6e 3c 83 bd 6f 3f a3 3c fe 02 f6 bd
       -0.06553707 -0.064080104 0.019927708 -0.120122895
000280 ff 7f 0d 3e 53 db 0b be c1 09 45 be 11 ca 69 3c
       0.13818358 -0.13657884 -0.19242002 0.014269368
000290 e8 26 a5 bd 34 dd 39 3e cb d7 dd 3d c4 98 08 3e
       -0.080640614 0.18150789 0.10832175 0.13339525
0002a0 69 f6 1f be e8 99 21 bd 1e f3 22 3c 1d 3b 95 bd
       -0.15621342 -0.039453417 0.009945659 -0.072866656
0002b0 24 b1 3e 3e 10 50 f1 bd 06 fb 8f 3d 2e c1 5c bd
       0.18622261 -0.11782849 0.07030301 -0.053895168
0002c0 19 3c 13 be 71 e7 1f be 8c c2 28 bd 97 bc 00 be
       -0.14378394 -0.15615632 -0.04120116 -0.12571941
0002d0 24 e9 a0 bd ea fd f5 bd 39 19 99 bd b1 82 31 bb
       -0.07856968 -0.12011321 -0.07475514 -0.0027085955
0002e0 29 56 ea 3d 7e f1 13 3e 15 fd bd bd 6e fa a6 bc
       0.11442215 0.1444759 -0.09276787 -0.020383086
0002f0 9f d4 05 3d fe 9b 3c 3e e3 d1 d6 3c 77 a6 c2 3d
       0.032673474 0.18418881 0.026223129 0.09504407
000300 9f 8a 53 3e 43 bf 3b 3d ab c4 85 3c bc fd a7 bd
       0.20658349 0.0458367 0.01632913 -0.08202693
000310 14 ee 80 bd 8e 03 4f bd f2 19 1d be dd 5c 16 be
       -0.0629541 -0.0505405 -0.15341929 -0.14683862
000320 ed b6 dc 3d db aa bd 3d 61 4a f4 bb 6c 38 62 bc
       0.10777078 0.09261104 -0.0074551557 -0.013807397
000330 d4 38 52 3d d6 14 41 3e f8 c6 45 3e aa 3a db 3c
       0.051323727 0.18855605 0.19314182 0.026761372
000340 fd 44 52 3e 1e 4c e7 3c 15 d8 b5 3d a5 92 a0 bc
       0.2053413 0.028234538 0.08879105 -0.019601176
000350 dd 51 23 3e f6 65 53 3e 7b 69 4a be b6 f0 33 be
       0.15949197 0.20644364 -0.197668 -0.17572293
000360 74 a3 82 bd 27 04 11 3c 43 35 50 3e f5 32 c3 bd
       -0.063788325 0.008851088 0.20332818 -0.09531204
000370 49 8a 19 be 40 80 10 be da b7 84 bd 58 47 36 be
       -0.14994158 -0.14111423 -0.064803794 -0.17800653
000380 2a 97 fc bc e1 31 2f 3e 78 9b 24 3d 03 ae 06 be
       -0.0308338 0.17108871 0.04018733 -0.13152318
000390 9b 4c a9 3c 48 83 3b 3e 1e c6 de 3d 76 5e f7 3c
       0.020666411 0.18311799 0.108776316 0.03019641
0003a0 74 16 56 3d 3c 6b 2c be 59 ed 25 be 3c 54 d4 bd
       0.052267507 -0.16837782 -0.16203822 -0.10367629
0003b0 c4 39 9d bd ff 47 35 bc 11 ec 3d be 4f 08 73 bd
       -0.076770335 -0.0110645285 -0.18547083 -0.059334096
0003c0 98 3a 80 3d 47 42 97 3b 2a 33 fb bd e2 ff a8 3d
       0.06261176 0.004616055 -0.12265618 0.08251931
0003d0 04 6c 31 be ba 84 14 3e 24 55 26 bc 92 31 23 3e
       -0.17326361 0.14503756 -0.010152135 0.15936878
0003e0 09 57 0d 3e 30 d1 f1 3d f5 b9 12 3e 74 5b f5 3d
       0.13802733 0.118074775 0.1432875 0.11980334
0003f0 02 0b 58 3a 19 64 c7 bd 81 92 5e bd a0 2a 05 be
       0.00082413864 -0.09735889 -0.054338936 -0.13004541

bias f4 [128]
000000 d0 9f f9 bb cb c9 3b 3c 8a 27 f3 bb 66 be 34 3c
       -0.007617928 0.011461685 -0.007420485 0.011031723
000010 e7 54 5d bc 62 64 40 bc 53 40 5d 3c 24 9a 51 bc
       -0.013509012 -0.011742683 0.013504106 -0.012793098
000020 40 33 13 bc 53 3e c3 bb 64 9f 5b 3c 9f 05 a1 bb
       -0.008984387 -0.0059583574 0.013404701 -0.004914
000030 7b 09 18 bc 5a d6 68 3b 9e c2 2b bc 5c 55 c3 bb
       -0.009279604 0.0035528154 -0.010483412 -0.0059611034
000040 43 28 a4 3b e9 f1 27 3c 5c a5 02 bb 25 7b b4 bb
       0.0050096824 0.010250547 -0.0019934988 -0.005507844
000050 4b 5d 79 3c 59 c8 4e 3a 44 c7 c7 bb ce 71 71 3c
       0.015219997 0.00078881305 -0.0060967524 0.014736606
000060 22 e5 86 3c ac 08 52 bc bd 32 5e 3b b1 8f 88 3c
       0.01646668 -0.01281945 0.0033904754 0.01667008
000070 ab f8 16 bc 2d b2 1f bc 18 26 a5 bb ca f7 25 bb
       -0.0092145605 -0.00974707 -0.0050399415 -0.0025324696
000080 56 3a d7 3b bc ea ef 3b fd 7f 58 3c 08 27 67 3c
       0.0065682335 0.0073216837 0.0132141085 0.014108427
000090 e6 5b 8f 3c b1 8a 82 3c 8b 0a 53 bc fe ea 77 3b
       0.017499875 0.015935274 -0.012880932 0.0037829275
0000a0 31 d9 8a 3c 3b c2 18 bb 66 cd 89 3c ce b5 76 3c
       0.016949268 -0.002330913 0.016821574 0.015057994
0000b0 74 5a 4a bc 51 5a 3b bc 04 d2 8a bc 65 33 3e bc
       -0.012350667 -0.011435107 -0.016945846 -0.011608933
0000c0 59 bc 6d bc 59 e8 31 bc 60 48 71 bc ec 3c a3 bb
       -0.014510238 -0.010858619 -0.014726728 -0.0049816277
0000d0 ab 85 02 3c a8 86 cb 3b bb 90 e8 3b 5a 40 35 bc
       0.007966439 0.0062111206 0.0070973313 -0.011062706
0000e0 a2 97 12 bb 9c ea e7 ba 36 e1 4e 3c 76 a8 16 3c
       -0.0022368212 -0.001769382 0.012626937 0.009195438
0000f0 a1 d6 60 3c b7 f7 12 3c 31 b6 ce bb 12 b3 80 3c
       0.0137230465 0.008970193 -0.00630834 0.015710387
000100 50 75 42 bc ab dd 60 bb 43 62 00 bc 7c 48 39 3c
       -0.01186879 -0.0034311812 -0.007835927 0.0113087855
000110 d5 e7 b7 3b c0 00 70 3c 37 60 a6 bb 42 47 5f 3c
       0.0056123533 0.014648616 -0.0050773877 0.013627829
000120 e9 fb 80 3c a7 9d c0 bb d8 6e 4e bc de 9c 45 3c
       0.01574512 -0.0058781686 -0.012599669 0.012061326
000130 be 63 a8 3b ca 27 df 3b 23 66 83 3c 2e 85 ed 3b
       0.0051388433 0.006810163 0.016039914 0.0072485423
000140 dc 69 84 3b 7e 78 98 39 05 0f 83 bc 0f 07 f9 bb
       0.0040409397 0.00029081473 -0.015998373 -0.0075997184
000150 6d a6 ec 3b e8 f9 72 3b 37 a5 78 bc 1c 06 8b bb
       0.007221988 0.0037075225 -0.015176109 -0.0042426717
000160 df 42 17 3c 03 e7 0c bc 7c 6b f2 bb f8 d4 02 3c
       0.009232252 -0.008599999 -0.007398067 0.007985346
000170 fb b5 41 bc 9b d6 1d bc 78 4c 9d 3a d6 cd 82 3c
       -0.011823173 -0.009633685 0.0012000939 0.01596729
000180 ce 37 90 3c cc e1 11 bc ff 84 66 3c a8 ae fd 3a
       0.017604735 -0.008903932 0.014069795 0.001935442
000190 5f 0d 49 bc 35 cf 8d 3c 45 62 f7 ba 02 68 1c 3c
       -0.012271254 0.017310718 -0.0018873891 0.009546282
0001a0 19 fe 58 3c 7f 8c 21 3b dd cb 8a 3c 54 a6 b3 3b
       0.013244175 0.0024650393 0.016942913 0.0054824743
0001b0 57 59 84 3c e9 93 81 bc 1b 18 15 bc 3b c4 49 bc
       0.016155882 -0.0158176 -0.0090999855 -0.012314851
0001c0 08 fe 5e bc 32 0f c0 3a 8e a8 2c 3c 8c 0d bd bb
       -0.01361037 0.0014652966 0.010538233 -0.005769437
0001d0 61 08 4c 3c 27 00 33 bc 59 fa d4 bb 88 56 59 3c
       0.01245317 -0.010925329 -0.0064995703 0.01326526
0001e0 3a aa 89 3c 42 5e c9 bb e7 ce 8f 3a 23 13 25 bc
       0.016804803 -0.0061452696 0.0010971696 -0.010075363
0001f0 b2 ef 78 ba 0e 06 60 3b 3e d6 75 bc 7a a2 49 bc
       -0.00094961666 0.0034183296 -0.015004693 -0.012306804

weight f4 [32, 128]
000000 b8 50 cf 3d 42 6f 0f be 56 ef 7c bd 0c ae b4 bc
       0.10122818 -0.14007285 -0.061751686 -0.022055648
000010 92 7e e2 bd 93 43 bb bd 4b 83 45 3e 74 b8 29 be
       -0.110592976 -0.09143748 0.19288366 -0.1657427
000020 c3 b4 47 3e b8 f2 8c bd c6 29 82 3d ad 5d 1f 3d
       0.19502549 -0.068822324 0.06355624 0.038907696
000030 44 54 27 3e 06 91 39 3e b1 8d 82 bd 41 e9 5b 3d
       0.16340739 0.18121728 -0.06374682 0.053689245
000040 54 d0 4a 3c 6c b6 d9 3d a0 7f 15 3e 66 fd 95 bd
       0.012378771 0.10630497 0.14599466 -0.073237225
000050 74 d4 e9 3b 7d 83 42 3e 85 88 a9 bd fc d2 3b 3e
       0.007135922 0.18995471 -0.08277992 0.18342203
000060 1f ed 26 3e d7 9c 19 3e 7f b3 9a 3d c5 d4 dd 3d
       0.16301392 0.15001236 0.075537674 0.10831598
000070 d8 b8 52 bd 70 4c 87 3d 4f 22 83 bd 81 a1 4f 3e
       -0.051445812 0.06606376 -0.06403028 0.20276453
000080 ab d1 47 bd c4 d4 e0 3d 58 1b 16 3e cf 42 35 bd
       -0.04878394 0.10978082 0.14658868 -0.044253167
000090 ad 27 58 3d 34 85 8d 3d ea bb 36 bd 78 22 f9 3b
       0.052772213 0.06910172 -0.044612803 0.007602986
0000a0 6e 76 d0 bd 37 02 e1 bd 99 71 e1 bd f5 0d 92 3d
       -0.10178839 -0.109867506 -0.11007995 0.07131568
0000b0 8d 28 1e be ac 78 f1 3d de 75 b1 3d 8d 63 2b bd
       -0.15445156 0.117905945 0.086650595 -0.041842986
0000c0 e7 e5 ec 3c 5b d2 12 be 6d 6d 0d be 18 82 99 3d
       0.02891822 -0.14338057 -0.13811274 0.074955165
0000d0 52 0e 95 bd 1c 0c 9d 3d e4 4e e0 3c bd 0d 71 bd
       -0.07278122 0.07668325 0.027381368 -0.058850992
0000e0 cd 86 36 bc 84 38 88 bd ef 32 81 3d cb 8c 36 be
       -0.011140537 -0.066514045 0.06308543 -0.17827146
0000f0 49 e2 38 3e bb 4d 1e be 68 9a 0a be 51 43 36 3e
       0.18055071 -0.1545934 -0.13535464 0.17799117
000100 a4 23 48 3d db 46 d8 3d fd 53 0a 3e 95 23 43 3e
       0.048862115 0.105603896 0.13508601 0.19056542
000110 d6 a3 2d 3e 64 b4 a4 bd 97 3c 1f be 6f 52 64 bd
       0.1695703 -0.08042219 -0.15550457 -0.055742677
000120 19 4a 2d 3e 27 53 90 bb 08 40 34 3e 47 36 12 be
       0.16922797 -0.004404444 0.17602551 -0.14278518
000130 e4 b8 75 bb 27 bd 5d bd 07 39 1e 3e a7 ac b3 bd
       -0.0037494237 -0.054135468 0.15451442 -0.08773165
000140 53 9a 01 3e da 9f 05 3e f0 8e b0 3d 8b 55 f4 bd
       0.12656526 0.1304926 0.08621013 -0.119303785
000150 67 ac 85 bd 86 86 67 3d f7 0a f3 3b 36 7f 05 be
       -0.06527024 0.056524776 0.0074170786 -0.13036808
000160 79 1c 9b 3d e3 f4 c1 3d f2 2f 03 3e a5 ba 48 3e
       0.0757379 0.094705366 0.12811258 0.19602449
000170 d1 4b d9 bd b2 86 28 be 47 e3 61 bb 3e fc 38 3e
       -0.10610164 -0.16457632 -0.0034467743 0.18064973
000180 3b 6b 10 3d 39 4c d2 bd 0a d9 55 bb 10 4f 1f 3e
       0.035258513 -0.102684446 -0.0032630586 0.15557504
000190 98 d2 af bd 90 80 4a bc 1c 62 27 bd 5c 8b bd bd
       -0.085850894 -0.012359753 -0.04086505 -0.09255096
0001a0 0c dc 2f bd b8 75 47 3e 89 56 39 bd fe 81 ab 3d
       -0.042934462 0.194785 -0.045248542 0.083744034
0001b0 e9 e0 bc 3d 3b fb 49 3d 95 38 21 be d5 de 29 be
       0.09222586 0.049311858 -0.1574424 -0.1658891
0001c0 cd 47 2b be d8 b9 51 3e 5e 0a 7d 3d cb 83 2c bd
       -0.16726609 0.2048105 0.061777465 -0.042117875
0001d0 ec 04 21 be ed d1 9d bd 75 cc 75 3d 36 60 3d 3e
       -0.15724534 -0.07706056 0.06000944 0.18493733
0001e0 71 ce 02 3d a8 df 29 3e 28 8c b9 3d e7 83 46 3e
       0.03193516 0.16589224 0.09059936 0.19386254
0001f0 1f ec c3 3d 66 25 69 bd 04 77 84 bd 11 56 b3 3c
       0.09566521 -0.05692043 -0.06468013 0.021891626
000200 12 6c 3d 3e 85 8f b4 bd 1b a2 28 3e 83 e9 3a 3e
       0.18498257 -0.08816437 0.16468088 0.1825314
000210 00 54 ff bc 92 03 29 3e 3a 62 33 3e f1 a0 08 3c
       -0.031167984 0.16505268 0.17517939 0.008339153
000220 34 71 17 be 5f 09 fc bd 81 8e 30 3e ea ee 23 be
       -0.14789277 -0.12306475 0.17241861 -0.16009107
000230 4f a2 1f be bb 2b 43 3e a4 16 f9 3d 64 cd ee 3d
       -0.1558926 0.1905965 0.121625215 0.11660269
000240 31 79 c6 bd b3 24 a8 3b e4 a7 09 3d 88 4a 18 3e
       -0.09691084 0.005131328 0.03360738 0.14872181
000250 dd 7a 59 bc 18 20 34 3d d1 ad 36 3d 5b 5d 1c 3e
       -0.013273922 0.04397592 0.044599358 0.15269987
000260 54 d0 06 bd 67 53 35 be 26 f9 26 3e 98 34 7b 3d
       -0.03291352 -0.17707597 0.1630598 0.061329454
000270 04 0e 34 be fd 8c 05 be e6 8e 44 3e 7b 21 ad 3d
       -0.17583472 -0.13042064 0.19195136 0.084536515
000280 ea 07 a4 bc b8 ec c9 3d 2b 8a 45 3e db fa 30 3d
       -0.020023305 0.09859604 0.19290988 0.043207984
000290 78 ec c9 3d ae da df 3d 8f a0 96 3d 9e 02 4e 3e
       0.09859556 0.10930382 0.07354843 0.20118186
0002a0 e9 4b eb 3d 05 05 1e 3e a8 4f 38 3e 2a a8 26 be
       0.11489088 0.15431602 0.17999136 -0.16275087
0002b0 ab d5 06 3d 1b 08 f4 bc 08 5b 40 3c 35 e3 a5 bb
       0.032918613 -0.029789021 0.011740454 -0.0050624856
0002c0 41 f0 0d be bf 63 98 3d ea 11 ae 3c 6f 10 ca bc
       -0.13861181 0.074409 0.021248776 -0.02466604
0002d0 ae 96 a0 3d d3 1e e7 bd b5 b7 dd 3d e7 25 89 bd
       0.0784124 -0.11285176 0.10826055 -0.066966824
0002e0 d4 d5 16 bd b1 b3 a5 bd 91 25 c7 3c 16 b0 24 be
       -0.036825016 -0.08090914 0.024309905 -0.16082796
0002f0 a9 f1 82 bd 5b a5 28 3e f0 2e 08 be 29 cc 43 3e
       -0.06393749 0.16469328 -0.13299155 0.1912085
000300 c7 a5 b8 bc cc 07 e7 3d 4a 07 2c 3e f1 ad 23 3c
       -0.022539986 0.11280784 0.16799656 0.009990201
000310 bc df 82 bc e1 93 f2 bd 1d 35 fe 3c 7c 5a 4c 3e
       -0.015975825 -0.11844612 0.031031186 0.19956392
000320 25 c7 10 be 8f 8d d4 bd a4 4b 04 3e 38 c7 8f bd
       -0.14138468 -0.10378563 0.1291948 -0.0702042
000330 c1 dc 36 be eb 1a b1 3d 17 c4 df bd 78 7f ab 3d
       -0.17857648 0.08647712 -0.10926073 0.08373922
000340 aa b5 dd 3d f8 ec 10 3c 84 da d1 3d 03 e8 d6 3d
       0.10825665 0.00884556 0.10246757 0.104934715
000350 7d a6 42 3e eb 3e d2 3d d2 2a 9b bd da a3 24 3e
       0.19008823 0.10265907 -0.07576527 0.1607813
000360 45 d8 35 3e 69 69 c3 3c e2 fa d5 3b 49 2f fd bd
       0.17758282 0.023853974 0.0065301517 -0.123625346
000370 eb b0 02 be 08 0d 27 3e db 1c de bd 54 e8 24 be
       -0.12762801 0.16313565 -0.108453475 -0.16104251
000380 80 e4 e8 3d 69 32 8c bd 42 c8 40 3d 44 15 e1 bd
       0.11371708 -0.068455525 0.04706598 -0.10990384
000390 f0 5f 94 3d 71 5b 12 bd c3 14 42 bd d8 f0 c2 3c
       0.07244861 -0.035731737 -0.04738308 0.023796484
0003a0 16 3b 30 bd a2 f4 19 bd 41 ca ee bb 5d cd 05 3d
       -0.0430251 -0.037586816 -0.007287294 0.032666553
0003b0 39 84 1e 3e b2 10 20 be 97 89 2d be e9 c6 9b bd
       0.15480126 -0.15631369 -0.16947018 -0.076062985
0003c0 c9 a4 16 3e 02 87 ca bd ad 72 bd 3b 16 94 54 3e
       0.14711298 -0.09889032 0.0057814927 0.20759615
0003d0 2a b8 d7 bc ef 5a 23 be da df 26 3c bb 71 74 bc
       -0.026332933 -0.15952657 0.010185206 -0.014919694
0003e0 d1 7d 1c bd df c2 b9 bd 1d 21 a6 3b f6 7c 03 3e
       -0.038205925 -0.09070372 0.0050698654 0.12840638
0003f0 37 aa c2 bd a0 a8 b5 bd a3 bd 36 bd 7a 91 45 3d
       -0.09505122 -0.08870053 -0.044614445 0.04823444

bias f4 [32]
000000 cd f0 6c 3c 7e ed 87 3c 86 1d cb bb 4f a0 88 3b
       0.014461708 0.016592737 -0.006198588 0.004169501
000010 25 2d 1a bc 07 75 0d 3c 3d 52 75 3b a6 62 94 3b
       -0.009410177 0.0086338585 0.003743305 0.0045283614
000020 5b ff 80 bc ec f1 33 bb 21 99 88 bc ec 7d 83 bc
       -0.015746763 -0.002745743 -0.01667458 -0.016051255
000030 3b 11 92 b9 1a 82 6c 3c 51 5e 17 bc ad f7 82 3b
       -0.00027860128 0.0144353155 -0.009238795 0.0039968104
000040 65 d7 49 3c ae fc 20 bc f2 50 85 3c 10 ca a6 ba
       0.01231942 -0.0098258685 0.01627395 -0.0012725014
000050 ea e3 51 bc bf ed 21 3c aa 95 8b bc a2 b1 5e 3b
       -0.012810687 0.009883343 -0.017039139 0.003398039
000060 39 99 66 3c 17 f1 e5 3b 7d 2c 8f 3b cb fe 84 3b
       0.014074617 0.0070172655 0.004369317 0.004058694
000070 1c 1d 81 bc d2 f0 f0 3a d7 bd 69 bb c8 b3 a5 3b
       -0.01576095 0.0018382317 -0.0035666132 0.005056832

weight f4 [32]
000000 25 99 81 3f e5 8b 80 3f d3 39 81 3f e1 d3 7e 3f
       1.0124861 1.0042692 1.0095772 0.9954205
000010 69 51 80 3f 72 c6 80 3f c1 1f 7c 3f c4 9e 7e 3f
       1.0024844 1.0060561 0.9848595 0.9946101
000020 1b 30 80 3f a0 9e 80 3f a8 82 80 3f 36 65 81 3f
       1.0014681 1.0048409 1.0039873 1.0109012
000030 c7 10 82 3f 75 21 7f 3f 8b 77 81 3f 7b 91 7c 3f
       1.016137 0.99660426 1.0114607 0.98659486
000040 5b 5b 80 3f c8 b5 7f 3f 36 d8 7b 3f 5c 4a 7c 3f
       1.002788 0.9988675 0.98376787 0.98550963
000050 1f a4 80 3f 86 44 81 3f 40 95 7f 3f 02 32 80 3f
       1.0050086 1.0099037 0.9983711 1.0015261
000060 f5 d7 80 3f bb 21 7d 3f 77 19 80 3f 2c 81 81 3f
       1.0065905 0.98879594 1.0007771 1.0117545
000070 2f 66 7d 3f 77 ca 80 3f 26 04 80 3f 77 72 80 3f
       0.98984045 1.0061787 1.0001266 1.0034932

bias f4 [32]
000000 5b 48 66 3c 28 00 83 3b 2b d9 38 3c af b5 76 3b
       0.014055337 0.0039978214 0.011282246 0.0037644913
000010 09 c6 43 3b b1 d6 e7 bb 9e 07 5a 3c 0d 88 c1 3b
       0.0029872677 -0.0070751538 0.01330748 0.005906111
000020 b9 57 5c bb 46 b8 82 3b f1 a4 be bb d7 d2 b3 bb
       -0.0033621623 0.0039892523 -0.0058180024 -0.0054877806
000030 83 20 64 bc d1 21 01 3c 0c 55 d9 3b 8b 02 5a bc
       -0.013923767 0.007881598 0.006632453 -0.01330627
000040 a4 9e a2 bb f1 04 cd 3a a5 27 17 bc cd 77 55 bc
       -0.004962759 0.0015641731 -0.009225761 -0.013029051
000050 22 87 10 3c e8 20 ba 3b 63 2c 2e bb a7 fb 9f ba
       0.008821281 0.0056801923 -0.002657675 -0.0012205736
000060 38 3e d8 3b e2 4c 2c 3b ee 85 f2 3b 05 54 2f bc
       0.006599214 0.0026290943 0.0074012196 -0.010701184
000070 3d 2d 0f 3c 53 4c 6f 3b 05 4a 77 bb bc d0 c0 3b
       0.008738813 0.0036513999 -0.0037733328 0.005884258

weight f4 [32]
000000 a7 51 80 3f ad 32 81 3f c5 03 7c 3f ed 57 80 3f
       1.0024918 1.009359 0.9844325 1.0026833
000010 06 81 7f 3f 84 ee 81 3f 35 dc 7b 3f ee e4 80 3f
       0.9980625 1.0150914 0.98382884 1.0069864
000020 c3 bb 80 3f 45 0e 82 3f 76 c8 7d 3f 1b e0 7d 3f
       1.00573 1.0160605 0.99134004 0.9917008
000030 ce 30 82 3f 45 08 82 3f 8d c3 81 3f dc 15 7d 3f
       1.0171144 1.0158774 1.0137802 0.9886148
000040 10 f6 81 3f c5 70 81 3f f3 c8 81 3f 81 62 7c 3f
       1.0153217 1.011254 1.013945 0.98587805
000050 1d 6d 81 3f 85 35 7e 3f 6a 05 80 3f 65 3e 7c 3f
       1.0111424 0.99300414 1.0001652 0.98532706
000060 61 6b 7d 3f 27 ff 80 3f 59 97 7c 3f 6f 0b 7e 3f
       0.9899197 1.0077866 0.9866844 0.99236196
000070 29 1b 80 3f b8 b9 80 3f 05 10 80 3f 1b af 7d 3f
       1.0008289 1.0056677 1.0004889 0.99095315
