pre_trained_models/mosei_senti_aligned_L_UniMF.pt (torch, 424141 bytes, 78 tensors)

cls f4 [1, 32]
000000 dd 63 0e 3e 3c 20 3c be d0 1d 90 3e 0c ab a7 be
       0.13905282 -0.18371671 0.28147745 -0.32747686
000010 71 5d aa 3e fd 7c 18 be 2f 10 a4 3e dc a3 94 3e
       0.33274415 -0.14891429 0.32043597 0.29031265
000020 de 1d 90 be 31 88 a6 3e b7 39 ac 3e 5a 4f 00 3e
       -0.28147787 0.3252578 0.33637783 0.1253027
000030 f9 02 d7 3e 1b 53 96 3e a6 af 71 be 28 e4 9a bd
       0.41994455 0.2936028 -0.23602161 -0.075630486
000040 64 36 9f be f9 9d de 3e 2c 66 7e be 15 0c 5f 3e
       -0.31096184 0.434799 -0.24843663 0.21781953
000050 d0 5f c7 3e 7f 5e 3b 3e 44 8b 35 3d c9 0e d7 3e
       0.38940287 0.18297766 0.044322267 0.42003468
000060 d4 b0 c0 be 2b 1a de 3c 55 e0 98 be 12 eb a9 3e
       -0.3763491 0.027112087 -0.29858652 0.33187157
000070 8c cb 8f be 1c c5 17 bc 0d 24 46 3e 90 99 78 be
       -0.2808498 -0.009263303 0.1934969 -0.2427733

weight f4 [32, 300, 1]
000000 02 74 e3 bd f2 71 20 bc fa 9b 69 bc 9b a5 64 3a
       -0.11106111 -0.009792792 -0.014258379 0.0008722187
000010 ea d4 9e bb 56 e1 bd bd f0 50 00 3d 34 2e 07 bd
       -0.0048471587 -0.09271495 0.031327188 -0.033003047
000020 3a dc 3f 3c 91 24 3e 3d c1 8c 8e bd 2f 1c 00 bd
       0.011710221 0.04642159 -0.069604404 -0.031276878
000030 67 9d 78 3c 5d 9d 87 bd f5 79 c0 bc bd 76 23 3d
       0.015174246 -0.066218115 -0.023495654 0.03990816
000040 48 3f 99 bc a7 b0 2c 3d bc 47 0a bd d4 c6 78 3d
       -0.018706933 0.042160656 -0.033759817 0.060736492
000050 f3 18 48 bd f2 bc 51 3c b0 31 ab 3c c7 6a 7c bd
       -0.04885192 0.012801396 0.020897716 -0.06162527
000060 84 31 38 bc 59 b2 f0 bd dd 09 00 bd c9 bf 92 bc
       -0.011242274 -0.11752767 -0.031259406 -0.017913716
000070 6e ab 6a bd fb cc 6d 3d 88 e1 60 bd 99 16 89 bd
       -0.057292394 0.058056813 -0.054902583 -0.06693763
000080 12 e5 0f 3d e9 71 38 3d 61 fc e2 bc 6f cf 8c bd
       0.035130568 0.04503051 -0.027708234 -0.06875502
000090 4f dd ac 3c 32 5d 3c 3d 03 0e 2c bd e6 67 07 bd
       0.021101622 0.045987315 -0.04200555 -0.03305807
0000a0 3f 48 c0 3c 45 24 10 3d 77 52 45 3d 4d 52 2b bd
       0.02347195 0.03519084 0.048174348 -0.041826535
0000b0 e7 03 ed 3a f0 eb 61 bb a3 7f 6c 3d 35 d3 93 3c
       0.0018082828 -0.0034472905 0.05773891 0.018045047
0000c0 90 be ef 3c 81 68 1c bd e6 34 54 bd dd 6b 29 bc
       0.029265672 -0.0381856 -0.05180826 -0.010340658
0000d0 66 5d 45 bc f3 1b f8 3d f3 4c 29 bd fe fc c6 bc
       -0.012046194 0.12114706 -0.04133315 -0.024290558
0000e0 83 cd 80 3a 79 ca 57 3c e4 7b 00 bd 7c 10 4c 3d
       0.0009826872 0.013170832 -0.03136815 0.04982041
0000f0 8e ff 6d bd b7 63 17 3d 10 7f 82 bd 4a bf 22 3d
       -0.058105044 0.03696033 -0.063718915 0.03973321
000100 38 ba bf bc a3 f4 9d 3c 91 c4 a4 bc 9d ac 54 3d
       -0.023404226 0.019281691 -0.020113261 0.05192243
000110 ed d9 5b 3c 3f a3 42 bb 4e 46 00 bd 9c 59 40 bd
       0.013418657 -0.0029699353 -0.031317048 -0.04696046
000120 bc 17 6c 3b b7 f6 f2 3c 58 3c 17 3c e5 d3 a6 3d
       0.003602489 0.029658658 0.009230696 0.081458844
000130 d3 35 38 bc f6 ec a9 bd e8 b0 4f 3b ba 96 88 bd
       -0.011243301 -0.0829715 0.0031691138 -0.06669374
000140 bb 20 02 bd 1b 57 0f 3d f8 70 59 bc aa ce 4c 3d
       -0.031769495 0.03499518 -0.013271563 0.050001778
000150 03 7c ab bc 25 e5 84 bd 7e bd 83 bc 86 78 4b 3d
       -0.020933157 -0.06489018 -0.016081568 0.049675487
000160 61 a2 15 3d f5 9c 11 bd cc 93 a6 3d ab 52 0c bd
       0.03653181 -0.035550077 0.08133659 -0.034258526
000170 a1 0c a6 3c b3 51 7d bc 7d ff 99 bd 09 41 c8 3b
       0.020269694 -0.015461373 -0.07519434 0.0061112684
000180 0b 7c cf bc 99 9f 1d bd af f2 2f bc 7b c5 05 3d
       -0.025327703 -0.038482282 -0.010739013 0.032659035
000190 18 a8 0b bd e9 03 4a bd 32 c1 bb 3b bd 3e 8e bb
       -0.034095854 -0.049320135 0.005729818 -0.004340975
0001a0 3f 1d 8a 3d c2 dd 28 bd 4c a8 f7 3a 46 88 24 3c
       0.067438595 -0.04122711 0.0018894761 0.010042256
0001b0 93 cc 9c bb 15 75 0f bd 58 01 53 3d ff 7a c2 3d
       -0.0047851293 -0.035023768 0.051514953 0.09496116
0001c0 c6 4c 1a 3c ce f9 8d 3b f9 0f a3 bd bf 88 9f bb
       0.009417718 0.0043327576 -0.07962031 -0.0048685963
0001d0 5c c0 b8 bd 09 b0 4c 3c 1a 9c fb 3c cc d2 e7 bc
       -0.09021065 0.012493142 0.030714083 -0.028298758
0001e0 b4 6b 91 bc 2e 68 84 bc 17 20 da bb 77 5e a2 bd
       -0.017751552 -0.016162958 -0.0066566574 -0.07928174
0001f0 ad a2 81 3d 98 4d d9 bc b7 86 36 3d 16 0e 29 3c
       0.06329856 -0.026526257 0.044562068 0.0103183
000200 ab f5 17 3d 23 23 97 bc 9a 7a d1 bc 1a 51 a0 bc
       0.03709952 -0.018449372 -0.025571156 -0.019569922
000210 16 d7 a1 bc 08 ec 97 bc 84 d9 06 bd d6 01 92 3b
       -0.019755881 -0.018545166 -0.032922283 0.0044557853
000220 a6 36 60 bd 62 aa 2e bc e3 c7 b5 3c 2d 79 72 bd
       -0.054739617 -0.01066074 0.02219004 -0.059197593
000230 5b b8 5b bc a1 69 11 3c 33 1f 66 bc 7b 0b 80 3c
       -0.013410653 0.008875282 -0.014045524 0.015630474
000240 31 e2 16 3d 4f 86 28 bd d8 f8 9d bd 3d 5a 36 3c
       0.036836807 -0.04114371 -0.07713479 0.011129913
000250 d6 44 89 bc a3 c3 66 bd 5d 47 1d 3d c3 8b 3f bc
       -0.016756456 -0.056338917 0.038398135 -0.011691037
000260 f7 3a da 3b 63 b5 02 3d 50 6e b7 bb 3b 70 d0 3c
       0.006659861 0.031911265 -0.005597867 0.02544414
000270 a1 60 8a bc 34 a1 88 bb 59 b6 a3 bd 3a cf b9 bc
       -0.01689178 -0.0041696075 -0.079937644 -0.022681821
000280 7c b8 36 3d db 90 29 3d 63 89 b5 bb b1 83 e7 3d
       0.04460953 0.04139791 -0.0055400594 0.11304415
000290 a0 06 7a bd 8b fc 58 3d 5d a4 c0 bc 80 03 17 3d
       -0.061041474 0.05297522 -0.023515875 0.036868572
0002a0 59 8f 44 3c 44 f9 07 3d b0 18 e9 bd 04 c7 05 bd
       0.011997067 0.033196703 -0.11381662 -0.0326605
0002b0 c0 f1 bd 3c 3d 64 13 3d cb 28 80 3c ff 6b 2a 3d
       0.023186564 0.035984267 0.015644452 0.0416069
0002c0 e9 f5 00 be de e2 f5 bc 00 da 62 bb 81 1d 6f bd
       -0.12593807 -0.030015405 -0.0034614801 -0.058377746
0002d0 cc 74 dc bb 31 ad ab 3c 02 8c 32 bb c1 57 9e bc
       -0.0067277905 0.020956608 -0.0027244096 -0.019328954
0002e0 3a b1 0c bd 8b fe 02 bc 9f bf fe 3a 4a a9 b1 3d
       -0.034348704 -0.007995258 0.001943577 0.086748675
0002f0 c0 c3 1c bc 73 d0 79 3d 83 ed 23 3c 3f 94 4d bb
       -0.009568155 0.06098981 0.010005358 -0.003136888
000300 af c2 3f bc 9d 26 1e 3d d8 f6 fb bc 93 8a d1 3d
       -0.011704131 0.038611043 -0.030757353 0.10231509
000310 44 a2 55 3b 56 da 75 bc 5a 16 ad bd 54 8c 11 3d
       0.0032597939 -0.015005669 -0.08451529 0.035534218
000320 b8 b8 23 3d fd 46 2f 3d f0 dd cc 3d f9 bd f0 bb
       0.039971083 0.04279231 0.10003269 -0.0073468653
000330 f7 13 c1 bb a5 0a ee 3c 04 c5 bf 3b ba fc b7 bc
       -0.0058922726 0.02905781 0.0058523435 -0.022459377
000340 d4 50 18 3d 40 99 67 bc 73 0a 3c 3d 31 28 44 bd
       0.03718646 -0.014135659 0.045908403 -0.047889892
000350 46 e1 62 3d dc 0a 25 bc 14 1c 80 3d eb 67 1c 3d
       0.05539062 -0.01007339 0.062553555 0.03818504
000360 c2 bd fd bc 94 60 80 bd cd e7 86 bd 4a 86 9a bd
       -0.030974273 -0.06268421 -0.06587181 -0.07545145
000370 ba b7 7f 3d 2c 06 bc 3c e3 39 1c 3c bc 9c fa 3c
       0.062431075 0.022952162 0.009535286 0.030592315
000380 00 2c 1d 3d 6e 45 92 3d 15 56 d9 3c 5e a9 a3 3d
       0.03837204 0.07142149 0.026530305 0.079912886
000390 a1 28 76 bd b5 f1 e9 bb f3 ee 18 3d e2 0e 9a 3b
       -0.06009734 -0.0071394094 0.037337255 0.004701481
0003a0 85 f2 06 bd 19 c3 13 bd a8 2c 09 3d c3 0f 0c bd
       -0.03294613 -0.03607473 0.033489853 -0.03419472
0003b0 a2 a5 0f bd 3c 84 90 bc 5f d4 14 3d 80 c2 b8 bc
       -0.03507007 -0.01764118 0.036335345 -0.022553682
0003c0 4f 79 36 bd a7 e7 76 ba 28 32 8f bc c5 10 1c 3b
       -0.044549283 -0.0009418674 -0.017479971 0.0023813706
0003d0 aa 8f 1d 3d 35 b3 57 bd 14 38 96 bc cb 21 17 bd
       0.038467087 -0.05266114 -0.018337287 -0.03689746
0003e0 4b 93 1c 3d c1 5d b3 bc 0c 4f bd bc 02 30 e9 3b
       0.038226407 -0.021895291 -0.023108982 0.0071163187
0003f0 1a 0c 91 3c 14 c6 70 bd 0e 5c 90 3a d0 8e 1d 3d
       0.017705966 -0.058782652 0.0011013763 0.038466275

bias f4 [32]
000000 af 47 27 3d 31 d2 ea b9 04 38 16 3c 17 9a 20 bc
       0.040839847 -0.00044788563 0.009168629 -0.009802363
000010 61 f1 43 3b 62 71 39 3d 17 9b 8c bb fb ca 9d bb
       0.0029898512 0.045274146 -0.004290949 -0.004815457
000020 df 0b 97 bc c2 0b 74 bd aa 81 eb bb a9 c0 aa bc
       -0.018438278 -0.059581526 -0.007187088 -0.02084382
000030 be ca e4 3b 74 8e 37 3b be cf 6d 3d a9 f2 ab bc
       0.0069821766 0.0028008493 0.058059447 -0.020989733
000040 fa 0d 8d bd 55 41 09 3d 49 a9 d3 bc fd c5 06 3d
       -0.068874314 0.03350957 -0.025837557 0.03290366
000050 11 d5 5f bd d4 56 e4 3c ba c6 f3 ba 01 26 6c bd
       -0.054646555 0.027873434 -0.0018598654 -0.05765343
000060 4e 6d a2 bc 7a b0 d4 bc 2c ea 37 bd d5 cf b1 3c
       -0.019827511 -0.025963057 -0.044901058 0.021705547
000070 60 19 70 bc 70 89 8f 3c b7 48 84 bc b3 79 bc 3c
       -0.014654487 0.01752159 -0.016147954 0.02300725

weight f4 [32, 74, 5]
000000 53 fd 57 3c ef fb 6d bc 1d f9 c3 ba 2d 4e 00 bd
       0.013182956 -0.014525398 -0.0014951561 -0.031324554
000010 d1 b5 82 bc f8 a2 16 3d 33 ac be 3c fb 22 f7 bc
       -0.015955837 0.036776513 0.02327547 -0.030168047
000020 00 d4 49 3d 1d 5f 64 3d 20 23 49 3c bf 04 11 3d
       0.049274445 0.05575477 0.012276441 0.035404917
000030 aa db 31 3b 8e de 5e 3d d8 67 fe 3c 12 c6 c4 bc
       0.0027138987 0.054411463 0.031055376 -0.024020229
000040 0a 63 fe bc 88 8a 35 3d e5 dd 48 bc 96 b2 c6 bc
       -0.031053085 0.044321567 -0.012259935 -0.024255078
000050 cc 0d e8 3c 73 ef 2e 3d e2 f5 36 3d d8 ec 38 3d
       0.028326891 0.042708825 0.044668086 0.045147747
000060 65 61 09 bd 82 9e 86 3c ce 2d bc 3c 36 3c 5d bd
       -0.03354015 0.016433004 0.02297106 -0.0540125
000070 05 ab d0 bb 3c 98 31 bb 43 b3 26 3d 3e 21 3e 3c
       -0.0063680434 -0.0027098795 0.0406983 0.011604605
000080 8e 41 40 bd c3 87 61 bd c7 80 97 bc 1d 44 41 bd
       -0.046937518 -0.055061113 -0.018494023 -0.0471841
000090 7c df 15 3d 73 ff 10 3d 0a 1e 27 3b bb 46 e0 3c
       0.036590084 0.035399865 0.0025500082 0.027377477
0000a0 05 6e 19 3d 03 24 28 bd d9 a4 0c 3d 90 e4 14 bd
       0.03745844 -0.04104997 0.0343369 -0.036350787
0000b0 51 6b 71 3a 66 ab a7 3c 73 27 5b bc 7f 6a 5b 3c
       0.0009209412 0.020467471 -0.013376105 0.01339209
0000c0 39 1b 16 3d 4e c6 28 bb ff 02 e6 bc af 45 51 3d
       0.036647055 -0.0025752964 -0.0280776 0.051091846
0000d0 49 c8 01 bc f6 b1 bc 3c 42 9e 03 3c b1 1f 82 3b
       -0.007921287 0.023034077 0.008033337 0.003971063
0000e0 5b ff 33 3d b0 aa ea bc c0 5b 81 3c 64 7d b2 3c
       0.043944698 -0.028645843 0.01579082 0.021788307
0000f0 03 00 4f bd cf 17 c2 3b 2c d4 95 bc d9 46 e1 3c
       -0.05053712 0.0059232484 -0.018289648 0.027499603
000100 3b 1a ec bc 57 8b a0 3c bb 0d ab 3c 35 f5 07 3c
       -0.028821101 0.019597692 0.02088057 0.008298208
000110 13 5f 42 bb 65 0a 3c bc 1d a4 88 3c c0 43 2e bc
       -0.002965872 -0.011477088 0.016679818 -0.01063627
000120 27 3a 63 3d 3b cd f7 bb 1c 7a df 3c ab c1 30 bc
       0.05547538 -0.007562307 0.027279906 -0.010788362
000130 3a 3e 94 bc f4 4f f3 3c 40 55 d0 3a ac 38 4a bd
       -0.018096078 0.02970121 0.0015894547 -0.049370453
000140 38 f5 96 3c 51 18 e9 bb e4 df de bc a5 0a ba 3c
       0.018427476 -0.0071134944 -0.027206369 0.022710154
000150 df bc ca ba 54 fe 03 bd 70 01 cc 3c a6 6f 28 3d
       -0.0015467665 -0.032224968 0.02490303 0.0411221
000160 98 c9 f6 3b c2 bc cf 3c 25 85 d0 3c 7e 5f 99 bc
       0.007531356 0.025358561 0.025454113 -0.018722292
000170 35 03 d1 3c cd c5 8a 3b b8 65 c5 3c d5 4f 10 bd
       0.025514225 0.0042350055 0.024096355 -0.035232384
000180 23 d1 f3 bc 4b af 4e bd f6 dd d0 3c 20 43 49 bd
       -0.02976281 -0.05046014 0.025496464 -0.04913628
000190 59 aa 52 bd 5e d9 49 bc b1 fb 2c 3d 3a a7 b7 bc
       -0.051431987 -0.012319891 0.04223222 -0.022418607
0001a0 2c 3a fd bc b8 db 3e 3d 3c 9e 10 3d db d8 2b bd
       -0.030911528 0.04659626 0.035307154 -0.041954856
0001b0 fe 43 19 3d cc b4 1d 3c 03 ad 27 3c 56 3b 44 3d
       0.037418358 0.009625625 0.01023412 0.04790815
0001c0 1b 33 d4 3c db 24 8a bc 56 57 5e 3d 48 2b 69 bc
       0.025903275 -0.016863277 0.05428251 -0.01423151
0001d0 08 40 19 bd 9d 57 33 bc 53 3a 01 3d 79 8d 38 bd
       -0.03741458 -0.010946182 0.031549763 -0.045056794
0001e0 43 b7 23 3d ef 87 a4 ba cd bb 7e 3c c4 bb e2 bc
       0.039969694 -0.0012552718 0.015547705 -0.027677424
0001f0 ce ce ec bc a4 25 c2 3c 83 81 9b 3a a0 bc 4b bc
       -0.028907206 0.02369959 0.0011864159 -0.012435108
000200 b3 fe 49 bb 9c 22 b6 bc 5e 92 18 3d b1 9d 28 3c
       -0.0030821979 -0.0222333 0.03724896 0.010291503
000210 d3 8e 2e 3c b6 f8 a7 bc 47 65 25 3d a7 88 11 3d
       0.010654169 -0.020504337 0.04037979 0.035530712
000220 9d 18 ab bc d6 32 0f bd 5f 62 9f bc 27 bc 49 bd
       -0.02088576 -0.03496059 -0.019456087 -0.0492517
000230 f0 df 26 bd d0 bd a8 3c 40 a5 05 bd a6 c6 fc 3c
       -0.040740907 0.020598322 -0.032628298 0.030856442
000240 19 fe c1 bc 23 fb 82 bc f3 fd 35 bc d1 e1 c5 3c
       -0.023680734 -0.015988892 -0.0111079095 0.02415553
000250 98 c9 dd bc 47 b7 96 3c 46 02 64 bb b1 67 35 bd
       -0.027073666 0.01839794 -0.0034791394 -0.04428834
000260 12 7b e1 3b a1 a9 17 bd a8 f9 11 bd 53 62 e4 3c
       0.006881126 -0.037027005 -0.03563848 0.027878916
000270 fd 29 17 3d 90 44 e3 bb 05 bc 46 bc 9b 80 61 bc
       0.036905278 -0.0069356635 -0.012129788 -0.013763572
000280 84 06 0b bc 63 8a f4 bb 99 7f 35 bd 69 33 68 bc
       -0.00848544 -0.007462786 -0.04431114 -0.014172413
000290 93 eb 9f bc 92 fd 4e bd 1e 3d a8 bc a3 8c 5b bc
       -0.01952151 -0.050534792 -0.020536955 -0.01340023
0002a0 2c 70 fc 3c 36 3d 01 3c d2 17 d9 bb 5b 30 6f bc
       0.030815206 0.007888129 -0.006625154 -0.014598931
0002b0 1b c4 4a bd 78 37 bd bc 85 1a 3c bd dc 6b d3 3c
       -0.049503427 -0.023097739 -0.04592373 0.025808267
0002c0 fe 83 d2 bc e0 fc 20 3d 9c 47 e2 bc 93 cf 3c 3c
       -0.025697704 0.03930366 -0.027622037 0.011524099
0002d0 19 5a 26 bd 6f 70 d5 3c 11 65 4d bd e5 47 ae bc
       -0.040613268 0.02605459 -0.050145213 -0.021274516
0002e0 7d fb 49 3d bc 81 aa bc 2b 9e 1e 3d 75 2e 3c bd
       0.049312104 -0.020813815 0.03872506 -0.045942742
0002f0 05 00 3f 3c 0b 0a b3 3c 67 0e 23 bd 91 8f 36 bb
       0.0116577195 0.021855375 -0.039808657 -0.0027856568
000300 b3 ed d5 3a e9 32 b7 3c 17 3a ee bc 48 bf 82 b9
       0.001632145 0.022363143 -0.029080434 -0.00024938048
000310 19 96 b4 3c 2d 2b 1c 3c f2 74 40 bd 28 99 13 3c
       0.022044228 0.009531778 -0.046986528 0.009008683
000320 66 f8 b1 bc de ec 2e 3d 6b a6 3a 3d 32 73 c4 bc
       -0.02172489 0.042706363 0.045568865 -0.02398071
000330 7a 6d 06 3d ed 1e 3e 3b 4c a4 32 3d 6b 99 72 3c
       0.03281925 0.0029010132 0.043613717 0.0148070855
000340 aa df 49 3c 10 f7 05 bb 36 dd 35 bd 82 1d dc bb
       0.012321392 -0.002044145 -0.044400416 -0.006717385
000350 27 e2 32 bd 7d 07 4e bd 1b 08 83 bd be ca c1 bc
       -0.043672707 -0.05030011 -0.0639803 -0.023656245
000360 20 95 28 bd c8 de 9d bc fe 5b ef 3c dd 14 5b bd
       -0.04115784 -0.01927127 0.02921867 -0.053486694
000370 bf 79 9a 3c 70 43 18 bd 4f 10 57 bd b4 67 19 bd
       0.018856881 -0.03717369 -0.052505787 -0.037452415
000380 cd 42 20 bd 34 1f 25 3c 57 52 ac 3b 54 0e 36 bd
       -0.039126206 0.01007824 0.005258839 -0.044447258
000390 38 8c c7 3c 33 b9 0d 3d eb e1 4f 3d ff de 4e 3c
       0.024358854 0.034600448 0.05075256 0.012626409
0003a0 8f a5 ee 3c 0b da 3e bd fb a8 a6 b9 23 26 93 bc
       0.029131679 -0.04659466 -0.00031787888 -0.017962521
0003b0 7f 2c 1b 3d ed 10 eb 3c 24 00 03 3d f6 6b 18 bd
       0.03788423 0.028694594 0.031982556 -0.037212335
0003c0 cd b9 05 3d 5a 6f b8 bc 95 8c 4b 3b 4a 16 4e 3c
       0.032647897 -0.022514034 0.0031059135 0.012578556
0003d0 84 b7 38 bd ff c5 59 3b 8b 5b 2a bd cb 2c 56 bd
       -0.04509689 0.0033229587 -0.04159121 -0.05228881
0003e0 55 12 0f bd 6f e1 37 bd 7a 57 3e bc 4f e6 31 3d
       -0.034929592 -0.044892725 -0.011617536 0.04343253
0003f0 6d 69 9b b9 62 01 0c bd f7 f3 fd bc 37 00 0d bd
       -0.00029642452 -0.034181006 -0.03100012 -0.034424033

bias f4 [32]
000000 75 c2 86 3c df 0b a8 bc 6e c5 fb 3c f7 a9 30 bd
       0.016450146 -0.020513473 0.03073379 -0.04313084
000010 e4 55 fe 3c 6a 13 44 bd 0b 00 a7 3c 34 9b c0 bc
       0.031046815 -0.047870077 0.020385763 -0.023511507
000020 9c a9 40 bd be db 33 bc 9e 55 1c bd 25 ae d6 bc
       -0.047036752 -0.010977684 -0.03816759 -0.026206085
000030 1d ad 0c 3d 46 96 6c 3c 54 46 f0 3c 11 13 e1 bc
       0.03434478 0.014440125 0.02933041 -0.027474912
000040 77 15 75 bc 39 f5 dc bc a4 19 1d bd 8e f3 aa 3c
       -0.014958731 -0.0269724 -0.03835453 0.020868089
000050 f3 9b 30 3d e7 c1 32 bc e0 c8 ac bb 46 b4 1e bd
       0.043117475 -0.010910488 -0.0052729696 -0.03874614
000060 cb d5 6f ba d6 5c 3c 3c bf 7d 1b 3d 0e e3 7a 3c
       -0.0009148984 0.011496743 0.037961718 0.015312923
000070 66 91 38 bb 37 a8 39 bc d0 49 38 ba 25 08 04 3d
       -0.0028162836 -0.011331609 -0.0007030042 0.03223433

weight f4 [32, 35, 1]
000000 00 27 e7 bc 86 95 1f be 37 c9 17 ba ec cd 57 3d
       -0.028216839 -0.15584382 -0.0005790176 0.052686617
000010 1a fc f8 bb 02 99 1a 3d b3 3b fc 3d fc f1 cc bd
       -0.007598412 0.037743576 0.12316074 -0.10007092
000020 43 2a 0b 3d b2 c5 ac 3d 91 f6 97 bd 96 a0 1e 3e
       0.03397585 0.08436145 -0.07420076 0.15490946
000030 6c 15 23 be 33 ce 04 3e d6 3b 79 3d 4c 64 b1 3d
       -0.1592614 0.12969284 0.06084808 0.08661708
000040 c3 3d bf bb 9d 25 c4 bc 26 46 b9 3d b9 e0 fc bc
       -0.00583622 -0.023943717 0.09046583 -0.030868875
000050 ed cb e2 bd 0b 5a bf 3c 2e 54 ac bd a5 7f 1d 3e
       -0.11074052 0.023358366 -0.084144935 0.15380724
000060 8b 87 1b bc 90 06 22 be 5a a8 57 3d d3 df ab bd
       -0.009492765 -0.15822816 0.052650787 -0.083923005
000070 e0 be d7 bd ed a8 99 3d 06 83 10 bd d0 6b 30 3e
       -0.105344534 0.07502923 -0.035281204 0.17228627
000080 33 51 6b bd fd 45 1e bd f6 6e 94 3c cb 63 74 3d
       -0.057450484 -0.038640965 0.018119317 0.059665482
000090 d7 66 97 3c 57 31 b6 3d 2a f6 6f bd c7 df c2 bd
       0.018481655 0.088961296 -0.05858437 -0.095153384
0000a0 c3 46 46 3d b5 b8 c6 3d da 32 bb bd 7a b5 e6 bd
       0.048407327 0.09703199 -0.091405585 -0.11265083
0000b0 bd 1e 2c be 8d bc e6 3d 7b 58 1c 3c 45 45 97 bb
       -0.168086 0.11266432 0.00954258 -0.004616412
0000c0 76 59 08 3e 9f 55 1a be df d9 ba 3c 9c 4d f6 bd
       0.13315377 -0.15071724 0.022808967 -0.120265216
0000d0 09 1d 9b 3d e1 f1 96 3d db 78 90 bd cf bf a1 3c
       0.075738974 0.073703535 -0.07054301 0.019744782
0000e0 cf de 7d 3d 50 ac cd 3d 85 de ed bd 0e 11 79 bd
       0.061980065 0.100426316 -0.11614708 -0.06080728
0000f0 4f 6e 06 be 29 2b 80 bd e0 43 ba bc ae 4c 10 3e
       -0.13128017 -0.06258232 -0.022737443 0.14091751
000100 77 ff 75 bd 8a e5 1c bd d4 fc 77 bd 6a 52 3a be
       -0.060058083 -0.038304843 -0.06054385 -0.18195501
000110 d0 8b 12 3e 5a ba 60 bd d1 f9 a5 3d b6 7c 21 be
       0.14311147 -0.05486522 0.08104289 -0.1577023
000120 32 c1 70 bd fa bd fe 3c fb 0c ee bd 63 6b 78 3d
       -0.058777995 0.031096447 -0.116235696 0.060649287
000130 af 73 b4 bd cc 99 2e be a2 b7 74 3d 71 40 2f be
       -0.088111274 -0.17050856 0.05974544 -0.17114426
000140 d2 55 28 bd 5d 52 1e 3e f6 93 2d be 35 72 55 bd
       -0.04109747 0.15461107 -0.16950974 -0.05211087
000150 79 75 4c 3d 2c 11 22 3e 6c df 13 be ec 3b a7 bd
       0.04991672 0.15826863 -0.14440697 -0.08165726
000160 59 24 bc bd 0b 1b fa bd 43 1a 82 bd 80 62 07 be
       -0.0918662 -0.12212189 -0.06352665 -0.13221169
000170 4b 15 bc 3d a4 73 ce bd a7 29 65 3c 6f 03 08 3e
       0.09183749 -0.100806504 0.0139869815 0.1328256
000180 f0 f9 27 bd 10 41 f9 bd 1b d0 96 3d 01 77 54 bc
       -0.041009843 -0.12170613 0.07363912 -0.012967826
000190 0c 7a bf 3d 86 2b 29 be 2f 68 46 3d 72 0f 88 3d
       0.093494505 -0.16520509 0.0484392 0.06643571
0001a0 e3 cd cd 3d f3 fd c3 bd 3e b6 db bd f8 e5 16 3d
       0.100490354 -0.09569921 -0.10728119 0.03684041
0001b0 cc f2 c1 3d ee fd 0e 3e e0 6f 39 3e b6 a9 41 bd
       0.09470138 0.13964054 0.18109083 -0.04728099
0001c0 dd 3a 0c be 91 ec 2a b9 41 a0 82 bd 22 76 d8 bc
       -0.1369433 -0.00016300591 -0.06378222 -0.026423518
0001d0 6f 5a 56 bc bb e6 b5 bd 21 19 13 3e 8f f7 1b be
       -0.0130830845 -0.08881899 0.14365055 -0.15231155
0001e0 aa a2 9d 3c 9e c3 6c 3d c7 c3 eb 3d 7a ba 0c be
       0.019242603 0.057803743 0.11511951 -0.1374301
0001f0 c8 17 a1 3d ae ba 06 3e 6e 74 27 3e 35 da 0b 3e
       0.07865864 0.1315715 0.16353008 0.13657458
000200 db 30 93 bc e6 0f c3 3d 02 f9 47 bd e5 fc 3f 3d
       -0.017967632 0.09524517 -0.048821457 0.04687204
000210 d3 ba dd bc 66 7c 25 3e f9 ff 26 be 01 5b ae 3d
       -0.027066624 0.16160735 -0.16308583 0.08513451
000220 73 9e 21 be c5 98 27 3e 20 76 14 3e 70 2a d0 bc
       -0.157831 0.1636687 0.14498186 -0.02541086
000230 36 91 f5 bd 4c 13 bb bc e8 4f ac bd c9 93 75 3d
       -0.119905874 -0.02283635 -0.084136784 0.059955392
000240 64 6d c6 3c 0d 0d 13 3e 27 34 ff 3d 39 3b 01 be
       0.024222083 0.14360447 0.12461119 -0.12620248
000250 84 47 0d 3e 2a ce fd 3d 5b 45 4e bc a6 0f fb 3c
       0.13796812 0.12392838 -0.012589778 0.03064711
000260 e7 3f e1 3d 32 84 f1 ba e5 0a 06 be d3 5c 8e 3c
       0.109985165 -0.0018426238 -0.13090093 0.017378246
000270 8b 4e 1d 3a 03 6e 6a bd e6 15 e7 bd 2d e6 0e 3e
       0.00060007785 -0.05723382 -0.11283474 0.13954993
000280 fc 7c ac 3c 1e cb 6e bd 84 fc 38 3e f9 40 9d 3d
       0.021055691 -0.058299176 0.18065077 0.07678408
000290 f2 94 1b 3e d3 54 6a bd bd 59 9b 3d 40 d6 ef 3c
       0.15193537 -0.0572098 0.075854756 0.029276967
0002a0 7f 63 ca bd f0 c0 a9 bd 29 58 8f 3d 18 b2 0f be
       -0.098822586 -0.08288753 0.06999237 -0.14032781
0002b0 89 5a 45 3c 6e 5c 90 bc b7 d4 38 be 87 d8 a8 3d
       0.012045511 -0.017622199 -0.18049894 0.08244424
0002c0 28 53 d2 3d b1 7c 9c 3d 32 71 e1 bc 67 2e 24 bd
       0.10269767 0.076409705 -0.027519796 -0.040083315
0002d0 43 da fc 3d 29 c0 dd bd 69 d6 2d be 77 fa bb bd
       0.123463176 -0.10827667 -0.16976322 -0.09178632
0002e0 68 c1 3d 3d 4a ee 94 3d 9d 3d 0d 3e 1d 67 fc 3d
       0.046327025 0.072720125 0.13793035 0.12324355
0002f0 a2 89 0e bc 09 cb 24 3e 31 bf ba bd 0d a2 16 3e
       -0.008699806 0.16093077 -0.09118498 0.14710255
000300 66 af 8f 3d d5 67 df 3d ff c8 16 3b 79 63 fd 3b
       0.070158765 0.10908476 0.0023007987 0.0077328053
000310 a9 73 c6 bd 71 32 1b 3e d4 16 3e ba 47 32 d6 3d
       -0.09690029 0.1515596 -0.00072513265 0.104588084
000320 66 ed de bd 7f a3 8a 3d b3 1d c8 bc dd 10 2a be
       -0.10885124 0.06769466 -0.024428224 -0.16607995
000330 34 2f 25 bd db ef f8 bd eb d1 44 bd 77 fa 12 be
       -0.04032822 -0.12155124 -0.048051756 -0.14353357
000340 f5 b2 3e 3e b0 9d da bd 25 4a 89 3d f4 87 df bd
       0.18622954 -0.10674608 0.06703595 -0.10914603
000350 21 5e 36 bd e2 c4 12 3d b4 e6 b7 3c 4d 20 10 be
       -0.044523362 0.035832293 0.022448875 -0.14074822
000360 0e c1 44 bd 02 90 cd bd 1c a5 01 3e 43 99 f2 bc
       -0.048035674 -0.10037233 0.1266064 -0.029614097
000370 a7 eb b7 3d db 65 27 3e 58 ac 11 be e4 dc d5 3c
       0.08980494 0.16347449 -0.142259 0.026106305
000380 b5 c8 98 bd f4 f2 0e 3e 39 b1 ad 3c 44 ac 02 be
       -0.07460157 0.13959867 0.02120267 -0.12761027
000390 2e 5b eb bd 18 b2 13 be 17 ff 6d bd a5 df 06 be
       -0.114920005 -0.14423406 -0.0581046 -0.13171251
0003a0 db 91 dc bd d3 bc 39 bd 80 88 2d 3e 2f e3 0d 3d
       -0.10770007 -0.045346092 0.16946602 0.034640487
0003b0 7a 11 4c bd 57 a5 49 3d 35 06 c1 3c 02 ac 09 be
       -0.049821354 0.049229946 0.02356253 -0.13444522
0003c0 84 bb e0 bd 4c 30 0c 3d 04 1c d4 bd 0e 2b fa 3d
       -0.10973266 0.034225747 -0.10356906 0.12215243
0003d0 85 f3 00 be a0 b7 5a 3d ba e8 a2 bd 65 f1 21 be
       -0.12592895 0.053397775 -0.07954545 -0.15814741
0003e0 d2 57 1f be ea 5d 1b 3c d9 e9 e9 bd 15 ed f0 bd
       -0.15560845 0.00948284 -0.11421556 -0.1176397
0003f0 cf f6 79 bd 22 69 4f bd aa 41 cd 3d 36 43 d7 bc
       -0.06102639 -0.05063737 0.1002229 -0.026277166

bias f4 [32]
000000 71 37 24 be d2 b1 f9 3d 81 8e 56 bd 51 bb a5 3d
       -0.16036774 0.1219212 -0.052381996 0.080923684
000010 b6 32 8c 3c 22 95 de bd 35 cd 70 3d f9 11 e6 3d
       0.017114025 -0.108682886 0.05878945 0.11233897
000020 1c f9 24 be 6d d5 b1 3d b9 19 0d be c8 53 01 bd
       -0.16110653 0.08683286 -0.13779344 -0.03157404
000030 f7 1c 8b 3d 05 8b f2 bd d0 28 57 3d 67 a5 d9 bc
       0.06792634 -0.11842922 0.052529156 -0.026568128
000040 fc b4 0d be 0e a4 ec 3d 35 c6 7a 3d 8c 33 34 bd
       -0.13838571 0.115547284 0.06122418 -0.04399447
000050 57 ad ec bd 09 96 19 be 6a 8c 83 bd 88 a3 b6 3d
       -0.115564995 -0.1499864 -0.06423266 0.0891791
000060 b4 2e 1d bd f2 aa 19 bd 5f 43 e9 bc 68 fb 34 bd
       -0.038374618 -0.03751654 -0.028474508 -0.044185072
000070 8f 4b 1f bd 5a 07 07 be 9d ee dd 3d 22 0b 1c 3e
       -0.038890418 -0.13186398 0.108365275 0.15238622

weight_ih_l0 f4 [96, 32]
000000 25 2d 37 bc d0 b3 67 be 4c 96 09 bd 44 86 dd 3c
       -0.011180197 -0.22627187 -0.0335906 0.027041562
000010 1d ee cc 3d 42 19 74 bc f3 cc cf bd f3 13 13 be
       0.10006354 -0.0148986 -0.10146513 -0.14363079
000020 41 b0 d4 3d 57 dd 25 bd 1b 43 15 3d 82 e2 d4 ba
       0.1038518 -0.04049429 0.03644095 -0.0016241821
000030 94 8c e0 bd 47 c0 0b bd 1b 22 41 be f0 48 e9 bd
       -0.10964313 -0.034118917 -0.18860666 -0.11390865
000040 5c 31 f3 bc dd 81 1d be bd c9 ad bd b0 27 ea bd
       -0.029686622 -0.1538157 -0.08485744 -0.11433351
000050 1e 78 1f be 60 7c 35 be 8c d3 27 3c c6 9d 8b 3d
       -0.15573165 -0.17723227 0.010243308 0.06817202
000060 39 1b 15 be eb 93 12 be 56 f6 df 3d a2 08 08 be
       -0.14561166 -0.14314239 0.10935657 -0.13284543
000070 21 f9 3b be 33 23 57 be e9 b5 f5 3d 87 7e e0 bd
       -0.18356754 -0.21009521 0.11997587 -0.10961633
000080 1b 42 9f bd f6 25 2d 3e 17 31 83 3d b8 a0 fd 3d
       -0.077762805 0.16909012 0.064058475 0.1238417
000090 b6 32 53 3d cc 5f 18 ba f1 7e a1 bc c6 ea 91 bd
       0.051562034 -0.00058126147 -0.01971385 -0.071248576
0000a0 f7 03 be bd fa a8 76 be 67 28 70 be 93 0e 2d 3e
       -0.092781 -0.24087897 -0.23452912 0.16900091
0000b0 0f 54 83 3e 91 e0 44 3c 01 53 09 3e 23 43 8e 3c
       0.2565007 0.012016431 0.1341057 0.017365998
0000c0 35 b5 7c 3d ba 6e 29 3e e1 dc 61 3d f2 4e 31 3d
       0.06169625 0.16546145 0.055142287 0.04328818
0000d0 fc 07 e9 3c 41 79 46 3e e4 6e a4 bd 20 1b 1e be
       0.02844619 0.19382192 -0.08028963 -0.15440035
0000e0 48 16 a7 3d e5 65 17 3e a3 f4 66 3c b3 7d 39 be
       0.08158547 0.14784963 0.014096412 -0.18114357
0000f0 3c dd 90 bc fe 18 30 3d da 25 6c 3d 1c 46 00 3e
       -0.017683618 0.042992584 0.057653286 0.12526745
000100 dd 30 55 3d 81 c1 29 3e 88 73 19 bd 6f 4d fa 3c
       0.052048553 0.16577722 -0.037463695 0.030554501
000110 59 af a4 3d 6a 7c 04 3e 40 53 33 3e 80 17 f3 3b
       0.080412574 0.12938085 0.17512226 0.007418573
000120 19 b4 5b be f8 84 80 be d8 f6 39 be 75 0f ce 3d
       -0.2145542 -0.25101447 -0.1816057 0.10061542
000130 b7 5a 75 3e 92 b3 12 3e f0 d2 15 be 9c 45 23 ba
       0.23960386 0.14326313 -0.14631248 -0.0006228329
000140 a0 59 50 3e 05 7e dc bd 22 6a ab bd 9d 45 59 3e
       0.20346689 -0.10766224 -0.083698526 0.21217962
000150 db 46 a8 3c 07 4f f1 3d 5e 01 62 3e b4 91 52 be
       0.020541599 0.117826514 0.22070834 -0.20563394
000160 6f 3b bd bd 21 e2 99 bd 83 0c bb bd e4 92 39 be
       -0.09239852 -0.07513834 -0.09133246 -0.1812244
000170 71 55 84 3c e8 4f 02 3e 6d 5a 51 be bd ef 44 3d
       0.016154023 0.12725794 -0.20444651 0.048080195
000180 6a 3e 6e 3d 5f d1 74 3c ec 44 1e 3e 75 d2 68 3e
       0.05816499 0.014942496 0.15455979 0.22736533
000190 d9 7f f9 bd e1 31 75 3e 80 67 33 3e fa d4 15 3e
       -0.12182588 0.23944809 0.17519951 0.14632025
0001a0 ee 28 c5 bd 2c e1 1c be c0 fb b9 bc 19 a2 f6 3d
       -0.09626947 -0.15320271 -0.022703052 0.120426364
0001b0 c1 15 17 3e 48 c7 33 3e c7 4c 0d 3e 2a d4 19 3e
       0.14754392 0.17556489 0.1379882 0.1502234
0001c0 23 28 88 3d b7 52 43 3e 53 48 f7 3d 6a 4d 4e 3d
       0.066482805 0.19074522 0.120743416 0.050366797
0001d0 7f ee 88 bc 73 86 15 3e db 66 d1 3c 01 d2 60 3d
       -0.016715286 0.1460207 0.02556174 0.054887775
0001e0 cb c8 05 3e ff f4 ac bd a3 95 02 be 61 fc 1b 3d
       0.13064878 -0.08445167 -0.12752394 0.038082484
0001f0 ad 6a da bd 0c 18 1b bd 63 f8 12 be 9f 76 46 3e
       -0.10664878 -0.03786473 -0.14352565 0.19381188
000200 70 4c 91 bd 05 9d 85 bc 9b ad 91 3c 20 47 69 3e
       -0.070946574 -0.016310224 0.017782977 0.22781038
000210 d3 46 1a 3e be 9c 9d bd 8b e2 53 bd d2 2d 99 3d
       0.1506608 -0.07695912 -0.05172972 0.07479443
000220 39 31 7e be 08 c3 26 bd 90 69 63 bd a3 d6 13 be
       -0.24823464 -0.04071334 -0.055520594 -0.14437346
000230 66 58 11 3e 68 17 5b be df 93 53 bd 11 c6 99 bd
       0.14193878 -0.21395648 -0.051654693 -0.07508481
000240 6e 6a 62 bd ed 10 2e 3e 29 4c 2e bd 7d bc 35 3e
       -0.05527728 0.16998644 -0.0425531 0.17747684
000250 93 36 08 3e dc 5d f6 3d f4 d1 24 3e 03 4d 3e bd
       0.13302068 0.12029621 0.16095716 -0.046460163
000260 e5 76 ef 3a 9c b1 f4 3d 98 c9 fb bc d8 74 21 be
       0.0018269686 0.11947939 -0.030735776 -0.15767229
000270 93 c4 15 3d 92 c2 b2 3c 68 f8 54 be ef c5 3b 3d
       0.03656442 0.021821294 -0.20797884 0.04584306
000280 64 12 ea bc 2b be 51 3e 4a ee 3d 3e f9 f1 cc 3d
       -0.028573222 0.204827 0.18547931 0.1000709
000290 6f 40 02 3e 7c db 99 3d 84 1a 49 3e 10 52 e7 3c
       0.12719892 0.075125664 0.19639021 0.028237373
0002a0 8d 22 0b be 0f 86 27 be ff d2 54 be 7e e0 8a bd
       -0.13587399 -0.16359733 -0.20783614 -0.067811
0002b0 93 75 ec 3b 38 50 23 bc 6d af 0f 3d 70 41 82 3c
       0.0072161644 -0.009967856 0.03507941 0.015900344
0002c0 55 c2 93 bd 40 24 51 3d 25 39 9f 3d aa 27 5e 3d
       -0.072148 0.05105996 0.07774571 0.054237045
0002d0 e2 df 92 3e aa 56 63 3e c3 ef 9e 3d 61 67 6e be
       0.28686434 0.22201028 0.07760575 -0.23281623
0002e0 72 72 96 3d 19 3c 3a 3e 78 2e f0 bc 3f 3d ad bc
       0.073460475 0.18186988 -0.029319033 -0.021147368
0002f0 31 39 13 be e9 d0 28 be a1 fa 04 be 39 41 01 3e
       -0.14377286 -0.16485943 -0.12986232 0.12622537
000300 02 10 65 bd 73 5f 45 3e 36 5b 23 bd cb e4 19 3e
       -0.05592347 0.19274692 -0.039881907 0.15028684
000310 20 0c 2a be 53 76 09 3e 63 f4 e2 bc ca 54 88 bd
       -0.16606188 0.13424043 -0.027704423 -0.06656797
000320 3c a5 9c bd 0c 93 14 bb 63 b7 02 be 4b 7c e5 3d
       -0.076487035 -0.0022670655 -0.12765269 0.112053476
000330 83 1a 8d bb f1 45 07 be 45 2c e8 3d 21 1a e5 bd
       -0.004306139 -0.13210274 0.11336569 -0.11186624
000340 39 98 87 3c 77 4b 41 3c f0 ce e2 3d e1 a2 5a bd
       0.016552078 0.011797777 0.110746264 -0.05337799
000350 e7 62 7b 3d 20 cd df bb c2 4d aa bc 95 54 ec 3d
       0.061373618 -0.0068298727 -0.020789031 0.1153957
000360 9f 1b ee 3d 2d d6 4f 3d 8a b8 96 bd d3 50 18 3e
       0.11626362 0.050741363 -0.07359417 0.14874582
000370 b5 ec 26 3d 77 7b e1 3d 33 e9 8a bc c5 07 d8 bc
       0.040753085 0.11009877 -0.016956901 -0.026370892
000380 c1 cf 85 bd ba 4e 29 be bd 87 26 bd ed dc 1c 3d
       -0.065337665 -0.16533938 -0.040656794 0.03829663
000390 4d cb 3f bd 91 7a 98 3d d8 6f 58 3e ea dd 25 3e
       -0.046824742 0.07445253 0.21136415 0.16197935
0003a0 5b 8c ea bd e7 cf 97 3d d6 a9 9c 3d 56 ca 8a bd
       -0.11452552 0.07412701 0.07649581 -0.06776874
0003b0 46 94 33 3e 93 1b 84 3c c0 11 30 3d a4 10 ca bd
       0.1753703 0.01612643 0.042985678 -0.09866455
0003c0 48 e9 c0 bc a6 a2 2f 3d 67 9f 27 be e3 8b 95 bd
       -0.023548737 0.042879723 -0.16369401 -0.07302072
0003d0 12 fe be 3c cb 41 a8 bc 55 f3 6e 3e cf 9c e1 3d
       0.02331451 -0.020539185 0.23335011 0.11016237
0003e0 9f 2a c2 3d 53 a8 44 be d5 4a 8d 3c 96 7c a2 3b
       0.094807856 -0.19204836 0.017247597 0.0049586995
0003f0 0c e4 e8 bd 71 13 17 be 02 f0 2b 3d e0 1b 05 3e
       -0.113716215 -0.1475351 0.041976936 0.12998915

weight_hh_l0 f4 [96, 32]
000000 a9 77 0e 3e 82 45 17 be ed eb e8 bc e7 58 0d be
       0.13912834 -0.14772609 -0.02843281 -0.13803445
000010 96 69 f9 bd 6f f4 c0 3d f2 70 b4 bd 0d 98 02 be
       -0.12178342 0.09421622 -0.08810605 -0.12753315
000020 4e da 01 be 97 59 20 be 92 34 72 3d 19 ab 2a 3e
       -0.12680933 -0.15659176 0.059132166 0.16666831
000030 08 12 28 3e 7f 2b 02 3e 7d 2f 52 bd b1 ab 29 bd
       0.16413128 0.12711905 -0.05131482 -0.041423503
000040 85 c1 43 3d 0f 2e 0c 3e 9d 75 29 3e 86 ba 1c bd
       0.047791976 0.13689445 0.16548772 -0.03826382
000050 ee 2d 06 3d 0d 2b 58 bd 1e 43 00 3c 61 19 39 bd
       0.032758646 -0.05277543 0.007828502 -0.04519022
000060 f4 85 62 3d 7c 6d d2 bc 6e 66 bf 3d 4a 01 d3 bd
       0.05530353 -0.025686972 0.09345709 -0.1030298
000070 5d c1 49 be 61 23 80 ba 3f 7f 56 be 51 f9 21 be
       -0.19702668 -0.0009776169 -0.20946978 -0.15817763
000080 59 dd e0 bd 63 46 80 bd b3 e4 03 3d c4 b3 ff bd
       -0.10979719 -0.06263425 0.032200526 -0.124854594
000090 55 8a c3 3d cf 78 12 bd b2 c9 22 3e 8e 86 08 3e
       0.09547869 -0.035759743 0.15897253 0.13332579
0000a0 99 a5 72 3d 4d e9 df bd c7 7d 58 bd c1 a6 48 3d
       0.059239957 -0.109331705 -0.052854326 0.048987154
0000b0 0b fd 6e bd a7 0f 0e be 27 91 37 3d 4a 7d 00 3c
       -0.05834679 -0.13873158 0.044816162 0.007842371
0000c0 55 62 2d 3e 5c 45 dc bd 79 94 32 bd 28 0a 8d bc
       0.16932042 -0.10755417 -0.043598626 -0.017216757
0000d0 59 0c 1b 3e 27 0a 41 3d 7f ac ba 3d 5d db 19 3e
       0.15141429 0.047128823 0.09114932 0.15025087
0000e0 a0 ac da 3d 29 65 90 3d fb cc 46 3e b5 51 a8 3c
       0.10677457 0.07050545 0.19414131 0.020546773
0000f0 7b b0 81 bd bf 8f db 3d da d3 02 3d 8d e2 f8 bd
       -0.06332489 0.10720777 0.03194032 -0.12152586
000100 0c 15 01 3d 19 df 59 be 6d 31 2e bd 65 cc ba 3d
       0.031514212 -0.21276511 -0.042527605 0.091210164
000110 3a 6d 08 be 27 2c 6c 3c 4f f2 a4 3d b6 03 14 3e
       -0.13322917 0.014414824 0.08054029 0.1445454
000120 38 d0 82 bc b5 d1 e4 3c 72 32 6e 3d 94 c1 4a be
       -0.015968427 0.027932027 0.058153577 -0.19800407
000130 2e 9c a6 bd 04 4e ef bd 8a ba 20 be 64 ba d2 ba
       -0.08135258 -0.11684802 -0.15696159 -0.0016077277
000140 1d ac f7 bd 08 1e 21 3e 2a 8c c2 3c 40 5c dd 3c
       -0.12093375 0.15734112 0.023748476 0.027021527
000150 f1 94 ef 3c c4 fd fc 3c ed 43 38 3e d6 a1 d9 bd
       0.029245825 0.030882724 0.17994662 -0.10626571
000160 c4 d3 85 bd f5 de 9f bc 78 51 13 3d f4 07 12 3e
       -0.06534532 -0.019515494 0.035966367 0.14260846
000170 d0 e5 a1 3d 2c a1 16 3e 84 e4 5c 3e cc f5 a2 3c
       0.079051614 0.1470992 0.21571547 0.019892596
000180 0f 9f 96 bd bc f0 de bd c7 38 f9 bd 46 7a e8 bc
       -0.07354557 -0.1088576 -0.121690325 -0.028378617
000190 42 fb 32 3d 14 ab 50 bb 61 ff 1a bd 05 ca b1 3d
       0.04369665 -0.0031840252 -0.037841205 0.0868111
0001a0 cb ce 2c 3e 11 c9 ce bd 2a ea 36 3e ad d2 f5 bd
       0.1687576 -0.10096944 0.17862764 -0.12003074
0001b0 df 92 82 bd 30 d0 9b bd f5 fc 86 bd 76 bd 55 bc
       -0.0637567 -0.07608068 -0.065912165 -0.013045659
0001c0 0c ac 01 bc d7 87 a1 bd 0c b9 09 be e8 81 90 bd
       -0.007914554 -0.078872375 -0.13449496 -0.07056028
0001d0 42 3e 9e 3d 80 48 8e 3d dc bd 7a 3e 07 45 93 bd
       0.077267185 0.06947422 0.24486488 -0.071909
0001e0 ea 07 bc 3b 42 6a 5e 3e 34 10 07 be 03 89 db 3d
       0.005738248 0.21720222 -0.13189775 0.10719492
0001f0 97 a7 67 bd 39 0a 88 3d da c0 54 3d 46 70 1a 3d
       -0.05655631 0.06642575 0.05194173 0.03770473
000200 f6 85 45 be 72 e2 65 be 0a 01 03 3d b5 ea 31 bd
       -0.19289383 -0.22449663 0.031983413 -0.043436725
000210 05 6a 94 bd bd 40 dc bd ae 39 e9 bc ff 2b d2 3d
       -0.07246784 -0.10754535 -0.028469887 0.10262298
000220 08 a6 4d 3e 4e aa b9 bd 22 b3 12 3e 28 ad 68 be
       0.20082867 -0.09065686 0.14326146 -0.22722304
000230 ae 89 8b 3c 0d 88 d8 3d 3d 46 1e 3d 9a 78 d7 3d
       0.017033424 0.105728246 0.038641203 0.1052105
000240 24 0b 67 3c af cd 7b 3d d7 82 8b 3d ca f7 f4 bd
       0.014101777 0.061475452 0.06812065 -0.119613245
000250 cd 6e a4 3d d4 b2 70 bc 96 d6 0c 3d c2 aa 1b bd
       0.08028946 -0.014691073 0.034384333 -0.038004644
000260 44 01 18 3e 0e 54 26 3e bf ba 0f be f5 67 e5 bd
       0.14844233 0.16243002 -0.14036082 -0.11201469
000270 5a 19 3c bc b5 ec 7e 3d 2e 5e b5 3d 02 f0 75 3d
       -0.011480654 0.06223746 0.08855854 0.060043342
000280 c5 fb 38 bc 0d 5b 4d be 68 db ab 3d 72 1e 02 bb
       -0.011290495 -0.20054264 0.08391458 -0.0019854573
000290 15 26 01 3e f6 aa bb bc 32 02 01 be ab 4a be 3d
       0.12612183 -0.022908669 -0.12598494 0.092915855
0002a0 22 0c 21 3e cd 61 02 3e da fc 57 3e 81 12 78 3c
       0.15727285 0.1273262 0.21092549 0.01514113
0002b0 dc 86 9f bd 13 bb 3c 3e 19 82 10 be eb 8a a5 bd
       -0.07789394 0.18430738 -0.14112128 -0.08083137
0002c0 b5 cf 3c 3d 88 30 1d 3e 96 e4 0e be af 04 3d 3d
       0.046096522 0.15350544 -0.13954386 0.046147045
0002d0 f0 8b 6b bd f9 43 1f 3e 29 e3 11 3e 8c 0a 20 3e
       -0.0575065 0.15553273 0.14246811 0.15629023
0002e0 ff dc b1 bc 46 23 bf 3d 42 54 bf bd e6 96 dd 3d
       -0.021711824 0.093329 -0.09342243 0.10819797
0002f0 ae 58 93 3d a2 ec 34 3e fa 92 04 be f3 3c 10 be
       0.07194649 0.17668393 -0.12946692 -0.1408575
000300 72 e2 df 3d fa 2e eb 3d 69 b0 c4 3d 42 9b 4d 3e
       0.10931863 0.114835694 0.0960396 0.20078757
000310 10 7c 6f 3d 5b ec 76 bd fa e8 ec 3d 1a a8 da bd
       0.058467925 -0.060284 0.11567874 -0.10676594
000320 ef 23 54 3d c7 42 4f 3e 4d 13 a2 3d 14 fd d1 3d
       0.05179208 0.20240317 0.079138376 0.10253349
000330 8c ee 54 be 09 8c 0c 3e d7 dd 50 bd ed a9 81 3d
       -0.20794123 0.13725294 -0.050992813 0.06331239
000340 6d d5 96 bc 48 2b 10 3e 6e c7 4d be e2 60 cc 3d
       -0.018412316 0.1407901 -0.20095608 0.099794164
000350 43 99 12 3e c5 bf 06 be 09 2a af 3d fc f9 d8 3d
       0.14316277 -0.13159092 0.085529394 0.10594556
000360 4d ab 89 3d c1 a0 9e 3c e4 d3 94 bd 2d a3 90 bd
       0.06722126 0.019363763 -0.072669774 -0.07062373
000370 89 25 8b bd 70 5f 59 3e 92 d5 56 3d 63 97 9e bd
       -0.06794269 0.21227813 0.05244977 -0.077437185
000380 d3 7d a9 3d 98 81 ee 3d d9 cd 8a 3d c9 f3 0b 3d
       0.08275952 0.11645812 0.067775436 0.03416804
000390 f9 88 f6 bd 66 21 05 3e 8b 38 0f 3e 0f 20 36 3e
       -0.12037844 0.13001022 0.13986413 0.17785667
0003a0 41 e0 7b bd 34 b3 3e be c1 45 13 be 76 a4 c8 3d
       -0.061493162 -0.18623048 -0.14382078 0.097969934
0003b0 c5 14 29 bd d8 ea f5 3c 2f ce 4f bd 8f b9 0c be
       -0.041279573 0.030019209 -0.05073374 -0.1374266
0003c0 ed 68 6d 3c 53 a4 e0 3b a3 4c ca bc 96 a6 62 3c
       0.014490348 0.0068555265 -0.024694746 0.0138336625
0003d0 49 17 87 3d 41 ff 8c 3d 05 8f a1 3c 84 2d 18 3e
       0.06596238 0.06884623 0.019721517 0.14861113
0003e0 ea 93 00 3e 22 6e 2e 3e b2 f1 3c bd bf fa d2 3d
       0.12556425 0.170342 -0.046128936 0.10301732
0003f0 ce cf 41 bc 73 de 43 3e 5c 62 b0 ba 77 78 e1 3d
       -0.01182933 0.19127826 -0.0013457048 0.11009305

bias_ih_l0 f4 [96]
000000 e4 a8 97 3d 18 38 fc bd 61 4f ca 3c ac 4a 11 3d
       0.0740526 -0.123153865 0.024696054 0.035471603
000010 f2 ed 20 be e9 2c 82 3d 04 ea ba 3d 3b 09 ed bb
       -0.15715769 0.06356222 0.09126666 -0.0072337664
000020 b9 e7 31 3e 0a 65 ef bd dc b7 2d be 36 53 94 3d
       0.17373551 -0.116891935 -0.16964668 0.07242434
000030 b9 95 f6 3d a8 b8 c9 bc a8 aa fc 3d 06 09 c9 bd
       0.12040276 -0.024624184 0.123372376 -0.09816174
000040 76 0b 3c 3d 73 e1 d7 3d 9f 73 e9 3d af 6e f7 bd
       0.045909368 0.10541048 0.11399006 -0.12081658
000050 b1 a8 01 bb 8d e5 30 bc 0d b3 2f 3e 49 3b d6 bd
       -0.0019784386 -0.010796917 0.17158146 -0.104605265
000060 c4 24 47 3e 0d 79 81 bd 2b 67 11 bc ef 9d d5 bc
       0.19447619 -0.06321917 -0.008874695 -0.026076285
000070 68 30 29 3d 21 58 10 3d 31 b4 63 bd 09 ac 09 be
       0.04130593 0.035240296 -0.055591766 -0.13444532
000080 a7 b7 cd 3d 79 92 43 be f6 0a 56 be e7 d0 0f be
       0.100447945 -0.19098844 -0.20902619 -0.14044534
000090 d5 fc 4d 3d e0 fe f1 bb f9 e3 34 be 5c 05 a5 3d
       0.050289948 -0.00738512 -0.1766509 0.08057663
0000a0 ad 80 ce 3d bd 17 fa 3d 96 e8 97 bc ea c2 d5 3d
       0.10083137 0.12211559 -0.018543523 0.104375675
0000b0 21 73 13 3e 08 12 0a be 40 9f 26 be 51 f5 21 bd
       0.14399387 -0.13483441 -0.16271687 -0.039540593
0000c0 fa b3 64 bd 8a 64 60 bc a3 91 2d 3e 20 1d 07 3c
       -0.0558357 -0.013695845 0.16950087 0.00824669
0000d0 d1 7f 36 bd c4 d7 73 3d 3b 6b 07 3d dd 2e 12 3e
       -0.04455549 0.059531942 0.033061247 0.1427569
0000e0 1c 09 b8 bd 89 0f 9c bc d9 a4 32 bc f5 a2 e3 3d
       -0.089861125 -0.019050376 -0.010903561 0.11115066
0000f0 21 c3 e8 3d 77 48 18 3e 1f 12 23 3d 47 43 fd 3c
       0.11365343 0.14871393 0.039812203 0.03091587
000100 f6 4d 9d bd 7e 21 9c 3d 49 9c a1 bc 0b ce 50 bd
       -0.076808855 0.07623576 -0.019727843 -0.050977748
000110 25 f5 a9 3d ac 67 a8 bd 41 9f bc bd 25 55 d4 bd
       0.08298711 -0.08222899 -0.09210063 -0.103678025
000120 e9 fd ef bd 5c 0d b1 bd 9b 80 b3 bc b5 a3 a1 bd
       -0.117183514 -0.08645126 -0.02191191 -0.07892553
000130 6a d8 19 be 58 69 12 3c 14 1f 37 be a4 1b 8d bd
       -0.15023962 0.008936249 -0.17882949 -0.06890038
000140 85 38 f8 3d cf 7f 1b be be 99 2f be 74 5a ee 3d
       0.12120155 -0.15185474 -0.17148492 0.11638346
000150 61 44 d7 bd 84 e5 01 be 1b ee 8c bd 1b 15 d2 bc
       -0.10511089 -0.1268521 -0.068813525 -0.02564483
000160 ce fd 17 be 2a ad 80 bd d3 63 15 be 11 a1 05 be
       -0.14842913 -0.062830284 -0.14588861 -0.13049723
000170 28 33 b3 3d e9 1f b4 bc 78 4d 6d bc 16 ea 59 3d
       0.08749992 -0.021987872 -0.014483802 0.053201757

bias_hh_l0 f4 [96]
000000 f6 8d 0b 3e 11 7f 5e 3e 1f 59 25 3e 3d 78 8f bd
       0.13628373 0.2172816 0.16147278 -0.070053555
000010 af f0 ed 3d 95 51 25 3e a6 ee c8 bd d1 81 e5 bc
       0.116181724 0.16144402 -0.098111436 -0.028016003
000020 fa 90 18 be 74 d4 ee 3d c5 ed 2c 3d 46 ab d8 bd
       -0.14899054 0.11661616 0.042218942 -0.10579543
000030 b9 20 22 3e d3 3b 04 3e 7e 04 be 3c 70 5b bf 3c
       0.15832795 0.12913446 0.023195501 0.02335903
000040 7e 17 a1 bd 34 3b 12 be a5 27 84 bc 1e df 12 be
       -0.07865809 -0.14280397 -0.016132185 -0.14342925
000050 ef 2a 09 3e a0 38 6b 3d 50 c8 f4 bd 66 52 00 be
       0.13395284 0.05742705 -0.11952269 -0.12531433
000060 4d f0 f8 3d 74 ee 11 3e 4e 4f 96 bd 08 a1 e9 bd
       0.12155209 0.14251119 -0.07339345 -0.114076674
000070 ed 1d 60 3d 1a 5d 2c be 47 ad 07 be ea 5e 65 bb
       0.05471604 -0.1683239 -0.13249694 -0.00349992
000080 fc 10 82 bd 1d 9b 58 bd cc 2e 0a be 6b 50 4c 3c
       -0.06350896 -0.052882303 -0.13494414 0.012470345
000090 7e 35 28 bd d1 50 89 be 65 30 a8 bc 79 83 df 3d
       -0.04106664 -0.2681947 -0.020530889 0.10913748
0000a0 74 b8 07 be 7b 87 f7 bd fc c8 82 ba 61 d8 2e 3d
       -0.13253957 -0.12086388 -0.0009978111 0.042686824
0000b0 04 ee 6d bd 8e cb 22 be f1 16 bf bd e3 71 fd bd
       -0.058088318 -0.15897962 -0.093305476 -0.12375238
0000c0 ea 60 35 be 13 3c 1b be 9d 81 c1 bd e2 f7 bc bd
       -0.17712751 -0.15159635 -0.0944855 -0.092269674
0000d0 01 b1 ea 3c 2c 25 8b bc ee e0 2c 3c eb 82 6f 3c
       0.028648855 -0.016985498 0.010551674 0.014618616
0000e0 16 02 e4 bd cd 81 1e be ac 73 08 3d 89 42 35 be
       -0.1113321 -0.15479203 0.03331344 -0.17701162
0000f0 1c 27 43 3d 07 94 35 be 8d 11 30 be 94 84 5b 3d
       0.04764472 -0.17732249 -0.17194195 0.053593233
000100 f1 0b 84 3d 63 eb 98 3d 17 d9 be bd d4 fa 6f 3c
       0.0644759 0.074667715 -0.0931875 0.014647204
000110 5c 95 1c be 8d 12 35 be e8 e9 49 bd a9 77 f4 bd
       -0.15291351 -0.17682858 -0.049295336 -0.11936886
000120 8e 6d 0b bd 77 58 e7 bd 64 c8 e3 bd e4 05 71 bd
       -0.034040026 -0.1129617 -0.11122206 -0.05884351
000130 d5 34 85 3c 42 25 b8 bd 99 22 82 bd b7 3a 29 3e
       0.016260544 -0.08991481 -0.06354255 0.16526304
000140 20 5f cb bd c9 62 2c be e9 65 1e be 7b db 29 3e
       -0.09930253 -0.16834559 -0.15468563 0.16587631
000150 bc 20 82 3d 52 ef ae bc 86 04 29 be e2 34 1a 3e
       0.063539 -0.021354351 -0.16505632 0.15059236
000160 ab ba 0b 3e c6 bf d1 3d 8f 95 1d 3e e4 fc 29 be
       0.13645427 0.10241656 0.15389083 -0.16600376
000170 0e d5 a7 bd 93 a8 1a be 64 17 1c be 2c 59 2a be
       -0.08194934 -0.15103368 -0.15243298 -0.16635579
