pre_trained_models/mosei_senti_aligned_L_TRANSLATOR_1.pt (torch, 471307 bytes, 28 tensors)

multi f4 [1, 32]
0	0xbe9bfa0d	-0.3046421
1	0x3d58d2ec	0.052935526
2	0x3e8503d1	0.25979474
3	0xbed110fa	-0.40833265
4	0x3e07f547	0.1327716
5	0xbe848527	-0.25882837
6	0xbe786854	-0.24258548
7	0x3e871019	0.2637947
8	0x3e0c6ebc	0.13714117
9	0xbe3b9576	-0.18318734
10	0xbead35d9	-0.33830145
11	0xbea6e69c	-0.32597816
12	0x3e426426	0.18983516
13	0x3d450221	0.048097733
14	0x3e9fd586	0.31217593
15	0xbe2c72a2	-0.16840604
16	0xbe3ec66b	-0.18630378
17	0xbe9bf8d0	-0.30463266
18	0x3ea991ee	0.33119148
19	0x3e1711aa	0.14752832
20	0x3eb16772	0.34649235
21	0xbd134ed3	-0.035963845
22	0x3e9443f7	0.28958103
23	0x3eb25611	0.34831288
24	0xbe4bb265	-0.19892271
25	0x3eae5cd1	0.34055188
26	0xbe74bded	-0.23900576
27	0x3ef5b734	0.47991335
28	0xbd384594	-0.04498823
29	0x3e9382c7	0.28810713
30	0xbe621c11	-0.22081019
31	0xbe13a75d	-0.14419313

weight f4 [50, 32]
0	0xbf803eaf	-1.001913
1	0x3db1c7b4	0.086806685
2	0xbf319f71	-0.69383913
3	0x3f62f1ab	0.88650006
4	0x3ff07f21	1.8788797
5	0xbe527707	-0.20553218
6	0xbf7ef9ed	-0.99600106
7	0xbff92c51	-1.9466649
8	0xbdabf227	-0.08395796
9	0xbf0b86f1	-0.5450278
10	0x3fd9a849	1.7004482
11	0xbe26855f	-0.16261815
12	0xbfd4f3eb	-1.6636938
13	0xbf99bd51	-1.20109
14	0x3f18a6be	0.5962943
15	0x3f9c7f63	1.2226375
16	0xbf8a4bca	-1.0804379
17	0xbdcef305	-0.10104946
18	0xbed19417	-0.40933296
19	0x3d3c5dd9	0.045987938
20	0xbf4cf58e	-0.80062187
21	0xbe1b7890	-0.1518271
22	0xbf0b88f2	-0.54505837
23	0x3e38ac54	0.18034488
24	0x3fcdf12d	1.6089226
25	0xbfcc2414	-1.594851
26	0xbfd68202	-1.6758425
27	0xbf2a4c6a	-0.6652285
28	0x3f2c46ef	0.67295736
29	0xba164e15	-0.0005733681
30	0x3f099219	0.5373855
31	0x3f02fb72	0.51164925
32	0xbf123a15	-0.57119876
33	0x3fa5640f	1.292116
34	0x3f413b13	0.75480765
35	0xbd081460	-0.033222556
36	0xbf8d8530	-1.1056271
37	0x3ef050c5	0.46936622
38	0xbd3c38d7	-0.045952644
39	0x3e8cf8b5	0.27533498
40	0xbeebea06	-0.46076983
41	0x3f05a7c1	0.522091
42	0x3fa485c6	1.2853324
43	0xbf37dd49	-0.7182203
44	0x3f75ae7c	0.9596937
45	0xbeec802b	-0.46191534
46	0xbd52b836	-0.05144521
47	0xbc5a4a7a	-0.013323421
48	0xbcaf97ca	-0.021434683
49	0x3f00e7f9	0.5035396
50	0x3fc10f7d	1.5082852
51	0x3e3bd2bf	0.18342112
52	0xbfb996fe	-1.4499204
53	0x3f5d7c6f	0.86517996
54	0x3e2e712a	0.17035356
55	0x3ec61181	0.3868523
56	0x3ea1d932	0.3161102
57	0x3fe2a818	1.7707548
58	0x4007ab3a	2.1198258
59	0x402dc9ab	2.7154338
60	0xbf9d1374	-1.2271562
61	0xbd987b6e	-0.07445417
62	0x3f2c6e8d	0.6735619
63	0xbec8c48d	-0.39212456
64	0x3ce9e48b	0.02855136
65	0x3f3bfbfc	0.7343137
66	0x3f0743e6	0.5283798
67	0x3f95ec06	1.1712654
68	0xbf3e5143	-0.74342746
69	0xbe74e222	-0.23914388
70	0xbd0122bc	-0.031527266
71	0xc019fbfb	-2.4060047
72	0xbea269a5	-0.31721225
73	0x3fcbd78c	1.5925155
74	0xbfc45d46	-1.5340965
75	0x3eb5a6ce	0.35478824
76	0x3ed8fb98	0.4237945
77	0xbf2fc719	-0.68663174
78	0xbeb57a30	-0.35444784
79	0xbec0b839	-0.3764055
80	0xbf8d5381	-1.1041108
81	0xbf941911	-1.157015
82	0x3d5bf5d4	0.053701237
83	0x3d522f31	0.051314536
84	0xbebc235b	-0.36745724
85	0x3e181f18	0.14855611
86	0xbff7c0db	-1.935573
87	0x3fb4eef1	1.4135419
88	0xbe0de6b5	-0.13857539
89	0xbefa03ce	-0.48831028
90	0x3f3fd95f	0.74941057
91	0xbf42cefa	-0.7609707
92	0xbf7df415	-0.99200565
93	0x3e9f96e8	0.3116982
94	0xbf00b563	-0.50276774
95	0xbf5c6b4e	-0.86101234
96	0xbf48be3c	-0.78415275
97	0xbffd9005	-1.9809576
98	0x3ef7937a	0.48354703
99	0x3f02ebcb	0.5114104
100	0xbef1f490	-0.472569
101	0x3f886ef5	1.0658861
102	0x3f87975d	1.0593067
103	0x3f412da6	0.7546028
104	0xbe8f0694	-0.27934706
105	0xbff0d50e	-1.8815019
106	0xbe3d7e0f	-0.18505119
107	0xbee6aa8e	-0.45051998
108	0xbf48cde7	-0.7843918
109	0x3e276772	0.16348055
110	0xbfb66df2	-1.4252303
111	0xbed3039f	-0.412137
112	0xbf0c9fae	-0.5493115
113	0x3f304b70	0.6886511
114	0xbf93f513	-1.1559166
115	0xbeacd05b	-0.33752713
116	0x3df5e098	0.120057285
117	0x3e6680c0	0.22510052
118	0x3eb72a7c	0.357746
119	0xbe9e3bdd	-0.30905047
120	0xbf9d3d22	-1.2284281
121	0xbf9a8819	-1.2072784
122	0x3e43e2db	0.19129507
123	0xbdb877f6	-0.09007256
124	0xbf4ecd39	-0.80781895
125	0x3fa0eaa9	1.2571613
126	0xbf4fc77a	-0.8116375
127	0xbf8d2d13	-1.102938
128	0xbe643097	-0.2228416
129	0xbf0bf9e6	-0.5467819
130	0x3f49357d	0.7859724
131	0xbfc722db	-1.5557512
132	0x3fc11069	1.5083133
133	0xbfca55e5	-1.5807463
134	0xbeebd92b	-0.46064124
135	0xbe4a682f	-0.19766305
136	0xbfc71b01	-1.5555116
137	0xbf0f962b	-0.56088513
138	0xbf9ec8be	-1.2405012
139	0xbf14c575	-0.58113796
140	0xbf6b33a8	-0.91875696
141	0x3f809569	1.0045596
142	0xc037c7fc	-2.871581
143	0x3f142a82	0.5787736
144	0xbfd92485	-1.696427
145	0xbfda6c24	-1.7064252
146	0xbf318a5b	-0.6935174
147	0x3f0e3c39	0.5556064
148	0x3f772b86	0.96550786
149	0xbd7ad896	-0.06124171
150	0xbf8b0629	-1.0861255
151	0x3ed4aee9	0.41539696
152	0xbdfd63a7	-0.12372523
153	0xbf898577	-1.0743855
154	0xbf64fda1	-0.89449507
155	0xbda180cd	-0.07885895
156	0x3fa6edd9	1.3041335
157	0xbf97e133	-1.18656
158	0x400c1789	2.1889365
159	0x3f0d605b	0.5522515
160	0x3f2d2a12	0.6764232
161	0xbfc55a3c	-1.5418162
162	0xbedff082	-0.4373818
163	0x3f099c71	0.53754336
164	0xbf5b9103	-0.85768145
165	0xbfa97494	-1.3238702
166	0x3f816871	1.0109998
167	0x3f25f6b2	0.6482955
168	0x3fbcf8e6	1.4763458
169	0xbed836eb	-0.422294
170	0xbf60c077	-0.8779368
171	0x3e9d85e3	0.3076621
172	0x3fc9d58b	1.5768293
173	0x3e3a9fed	0.1822507
174	0xbf721d86	-0.945763
175	0xbf1936c1	-0.5984917
176	0xc00a411e	-2.1602244
177	0x3c9627e9	0.018329578
178	0xbf7c72f6	-0.98612916
179	0x3cc14f13	0.023597276
180	0x3fd69a0f	1.6765765
181	0x3ddd294d	0.10798893
182	0xbe154fbc	-0.14581198
183	0x3e8e3563	0.27775106
184	0x3f82c1b7	1.0215367
185	0xbf85a7d0	-1.0441837
186	0x3f8d327d	1.1031033
187	0x3efe3be6	0.49655074
188	0xbf5cd392	-0.8626033
189	0xc00204fb	-2.031554
190	0x3f1928f9	0.59828144
191	0xbd90dd9d	-0.070735194
192	0x3f93fbd8	1.1561232
193	0xbf4eccaa	-0.8078104
194	0xbe5befaf	-0.21478151
195	0xbfac74ad	-1.3473107
196	0x3ecfb024	0.40564072
197	0x3fc69473	1.5514053
198	0x3f103357	0.5632834
199	0xbee9ad9e	-0.45640272
200	0xbf610ad7	-0.87907165
201	0xbf086972	-0.53285897
202	0xbfe57f52	-1.792948
203	0xbfb085d1	-1.3790838
204	0x3f4c1061	0.7971249
205	0xbf4cbc68	-0.79974985
206	0xbe214cd6	-0.15751967
207	0x3fbb24b1	1.4620572
208	0x3f2c9ec6	0.6742977
209	0x3e315d72	0.17320803
210	0x3f342cc8	0.7038083
211	0x3d364aa2	0.04450477
212	0xc0152958	-2.3306484
213	0xbf25a757	-0.64708465
214	0xbe320f15	-0.17388566
215	0xbe8f82d2	-0.28029495
216	0xc02352ee	-2.5519366
217	0xbe0be067	-0.13659821
218	0x3ef3d711	0.4762502
219	0x3d815228	0.06314498
220	0xbeb20637	-0.34770367
221	0xbeb9e2b6	-0.3630578
222	0xbf8659cd	-1.0496155
223	0xbe9a7c05	-0.30172744
224	0x3d67864e	0.056524567
225	0x3eec2fb1	0.46130136
226	0xbf1201bf	-0.57033914
227	0xbfca3f03	-1.580048
228	0xbd6f3159	-0.05839667
229	0xbea059c4	-0.31318486
230	0xbf5ed58e	-0.8704461
231	0x3dc398b2	0.09550609
232	0xbe6df5ed	-0.23238344
233	0x3f32591c	0.6966722
234	0x3fc9691b	1.5735201
235	0xbef1b4d6	-0.4720828
236	0x3e96fb31	0.2948852
237	0x3ef576e0	0.47942257
238	0xbfb111b4	-1.3833528
239	0x3f5999f6	0.8500055
240	0xbf172efc	-0.5905607
241	0x3f9692df	1.1763572
242	0x3ee69b0c	0.45040166
243	0xbe861173	-0.26185188
244	0x3e67523d	0.22589965
245	0x3f9bff83	1.2187351
246	0x3f19694d	0.599263
247	0x3f79fb3c	0.9764898
248	0xbf229113	-0.63502616
249	0x3fbf46af	1.4943446
250	0xbfe2d824	-1.7722211
251	0x3e434c4f	0.19072078
252	0xbf8f0cf4	-1.1175828
253	0xbefc671e	-0.49297422
254	0x3dde3f49	0.108519144
255	0xbedfa28b	-0.43678698

weight f4 [4, 32]
0	0x3dae0b3c	0.084982365
1	0xbf65db24	-0.8978751
2	0x3d4e16ce	0.050314717
3	0x3f5c2e57	0.8600821
4	0xbf6e23af	-0.930232
5	0x3f73b0fe	0.95191944
6	0x3e73a33e	0.2379274
7	0xbf55a848	-0.834599
8	0x3f94b6eb	1.1618322
9	0x401890e2	2.383843
10	0xbf5f8a4a	-0.8732039
11	0x3e0e8d51	0.13921095
12	0xbe8b8ed3	-0.27257404
13	0xbd19d099	-0.03755245
14	0x3e2d002a	0.16894594
15	0xbfa665cb	-1.2999815
16	0x3f539861	0.82654387
17	0x3fe89d87	1.8173074
18	0xbf0d7b29	-0.5526605
19	0xbe9df296	-0.3084914
20	0xbf8d0a34	-1.1018739
21	0xbefe9c9f	-0.49728867
22	0xbec73f0f	-0.38915297
23	0xbf6bd87f	-0.9212722
24	0x3f569c51	0.8383227
25	0x3f98e770	1.1945629
26	0xbf892ae3	-1.0716213
27	0xc01c7f9f	-2.4452894
28	0xbf1db5e8	-0.6160569
29	0x3f07118d	0.52761155
30	0xbf445f06	-0.76707494
31	0x3dc21ccb	0.09478148
32	0x3f13e3d2	0.577695
33	0xbf02deeb	-0.51121396
34	0xbed641ab	-0.41846976
35	0x3ebd1431	0.36929467
36	0x3f0dbe59	0.5536857
37	0xbf90d419	-1.1314727
38	0xbfa2b52b	-1.2711538
39	0xbfd8b54d	-1.6930329
40	0xbd05d89b	-0.032677274
41	0xbfd13223	-1.6343426
42	0xbf02e060	-0.5112362
43	0x3f094620	0.5362263
44	0xbf8f26c8	-1.118371
45	0xbfbe5d4b	-1.4872221
46	0xbfa6c9e8	-1.3030367
47	0x3fa49646	1.285836
48	0xbf91b67f	-1.1383818
49	0xbed7ed0b	-0.42173037
50	0xbef162df	-0.47145745
51	0x3f368ae9	0.7130571
52	0xbf4e5b20	-0.80607796
53	0xc0022464	-2.033471
54	0x3fb62ddc	1.4232745
55	0xbe9bc88c	-0.30426443
56	0xbed6c999	-0.41950682
57	0xbfcda7a2	-1.6066782
58	0xbf8e6c32	-1.1126769
59	0xbe29cca6	-0.16581973
60	0x3fc93a28	1.5720873
61	0x3fbf5930	1.4949093
62	0x3ca4be03	0.020110136
63	0xbff395f5	-1.9030138
64	0x3de5c1cf	0.11218607
65	0x3f2b3763	0.6688139
66	0x3eee173b	0.46502098
67	0xc0051279	-2.0792525
68	0x3f97be3f	1.1854934
69	0x3f96a794	1.1769891
70	0xbf6afc4c	-0.91791224
71	0xbf90ada2	-1.1302989
72	0x3e86a864	0.26300347
73	0x3eded3ca	0.43520957
74	0xbf938803	-1.1525882
75	0xbf810182	-1.0078585
76	0x3f7f0dd9	0.99630505
77	0xbe1b9fdc	-0.151977
78	0x3fa915e6	1.3209808
79	0x3daaf19d	0.08346865
80	0x3ec2d6e3	0.3805457
81	0xbee12a2c	-0.43977487
82	0xbff89e1c	-1.9423251
83	0x3e531940	0.20615101
84	0x3f2cc68a	0.67490447
85	0xbf461477	-0.77374977
86	0x3fcb476e	1.5881174
87	0x3f1295c5	0.5725978
88	0xbf26494c	-0.6495559
89	0xbf2e0d72	-0.67989266
90	0xbe50c1e8	-0.2038647
91	0xbd0adcb2	-0.033901878
92	0x3e903bc4	0.28170598
93	0x3ea4b962	0.32172686
94	0xbeab7341	-0.3348637
95	0xc0173aaa	-2.3629556
96	0x3fc63f9d	1.5488163
97	0xbd64f744	-0.055899873
98	0x3f51596c	0.8177707
99	0x3ff57ff6	1.9179676
100	0xbf295088	-0.66138506
101	0xbe0f660e	-0.14003775
102	0x3fa7a048	1.3095789
103	0xbf027c37	-0.50970787
104	0xbf18359f	-0.5945682
105	0x3e77584c	0.24154776
106	0xbc686547	-0.014184303
107	0x3faaca98	1.3343077
108	0xbf45a68a	-0.77207243
109	0xbed939a1	-0.4242678
110	0xbfcdf2d2	-1.6089728
111	0x3ed2c50b	0.41165957
112	0xc01d0c5a	-2.4538789
113	0x3eb7761c	0.35832298
114	0xbf9e62d5	-1.2373911
115	0xbe9579e9	-0.29194573
116	0xbf960f43	-1.1723408
117	0x3f076c8f	0.5290002
118	0x3f203b08	0.62590075
119	0xbfa6826b	-1.300855
120	0x3e08f9e2	0.13376573
121	0x3ee76d7e	0.45200723
122	0x3fa301a3	1.2734874
123	0x3de3a27d	0.111149766
124	0x3f838134	1.0273805
125	0x3d353a70	0.044245183
126	0x3e3a5a41	0.18198492
127	0xbe7cf788	-0.247038

in_proj_weight f4 [96, 32]
0	0xbc87f9d6	-0.016598623
1	0x3d95b518	0.073099315
2	0xbe89d14f	-0.26917502
3	0x3de4cf9a	0.11172409
4	0x3dc794fc	0.097452134
5	0x3e3a5a71	0.18198563
6	0x3e3923a9	0.1808001
7	0xbc8c214c	-0.017105721
8	0xbd911789	-0.07084567
9	0x3cb15d70	0.021651
10	0xbd21920b	-0.039445918
11	0x3d947398	0.0724861
12	0xbd18f593	-0.037343573
13	0x3df6147d	0.120156266
14	0x3e1b4455	0.15162785
15	0x3e300ec5	0.17193134
16	0xbe4c87b3	-0.1997364
17	0x3dbfdb8c	0.09368047
18	0xbd87f08d	-0.06637678
19	0xbd4507db	-0.048103195
20	0xbdd5d38a	-0.104407385
21	0x3e40d049	0.18829454
22	0x3c62c554	0.013840992
23	0x3e2d9c18	0.16954076
24	0xbdc1ee2f	-0.09469258
25	0xbdac3edc	-0.08410427
26	0xba2fa523	-0.00067003275
27	0xbd8f3ec7	-0.06994396
28	0xbe18394f	-0.14865611
29	0xbd8e781a	-0.06956501
30	0x3e8765a2	0.26444727
31	0xbdb4ce3d	-0.08828399
32	0x3dc36a0a	0.0954171
33	0xbc09e6e9	-0.00841687
34	0x3e7917ab	0.24325435
35	0x3da2e017	0.07952898
36	0xbe50c382	-0.2038708
37	0xbe92df4d	-0.2868599
38	0xbe7937ed	-0.2433774
39	0xbe97c8f6	-0.2964551
40	0xbe536cdd	-0.20646997
41	0xbe599d8d	-0.21251507
42	0x3e58be43	0.21166329
43	0x3d97667f	0.073925965
44	0xbe064eb2	-0.13115957
45	0xbe566c74	-0.20939809
46	0xbda2e253	-0.07953324
47	0x3e3585fe	0.17726895
48	0x3e77addf	0.2418742
49	0x3cf1f99f	0.029537974
50	0x3cd0b445	0.025476584
51	0xbd85900f	-0.065216176
52	0xbe113579	-0.14180554
53	0xbd75dc1a	-0.06002436
54	0x3d5381ad	0.05163734
55	0xbe4edcd4	-0.20201427
56	0xbe7b9411	-0.24568202
57	0xbd891b5e	-0.06694673
58	0xbd8226ca	-0.06355055
59	0x3d086047	0.033294942
60	0xbb5232ac	-0.003207366
61	0x3e04a27d	0.1295261
62	0x3dff32bc	0.12460849
63	0xbe637f5e	-0.22216555
64	0x3e49ff1c	0.19726223
65	0xbd6e680f	-0.058204707
66	0x3e748476	0.23878655
67	0x3e67e8a5	0.2264734
68	0x3dc753c3	0.09732773
69	0xbd04b7aa	-0.03240172
70	0xbe97f10b	-0.2967609
71	0x3e75e33d	0.24012466
72	0x3e991dd1	0.2990556
73	0x3e0cb24e	0.13739893
74	0x3d5b677b	0.053565484
75	0x3e2be77d	0.16787525
76	0xbe455e53	-0.19274263
77	0xbdeeb74d	-0.116560556
78	0xbe6bc69b	-0.2302498
79	0xbd119253	-0.035539936
80	0x3e5afd0a	0.21385589
81	0x3d92978d	0.07157812
82	0x3d890e1a	0.06692143
83	0x3dd375ae	0.1032518
84	0x3e42ce6b	0.19024055
85	0xbd7f30ef	-0.062302526
86	0x3c66bd34	0.0140831955
87	0x3d24e3ea	0.04025642
88	0xbe16ff18	-0.14745748
89	0xbe879448	-0.26480317
90	0xbde39aa3	-0.11113479
91	0xbe6fd95a	-0.23422757
92	0xbe3f2a7a	-0.18668547
93	0x3e235208	0.15949261
94	0xbe9913b3	-0.29897842
95	0x3b8edbc3	0.0043596937
96	0x3e894549	0.26810673
97	0xbd5475f3	-0.051870298
98	0xbdebcb17	-0.11513346
99	0x3dedc9e8	0.11610776
100	0x3e133557	0.14375816
101	0xbe78287a	-0.2423419
102	0xbd105067	-0.035232928
103	0x3ce33d92	0.02773932
104	0x3d2c4aed	0.042063642
105	0x3e44ea94	0.1923011
106	0x3e075d55	0.13219197
107	0xbdab1cdb	-0.08355113
108	0xbe763720	-0.24044466
109	0xbdea8154	-0.11450449
110	0xbdd0b71c	-0.10191175
111	0xbe3be67a	-0.18349639
112	0x3e2f2cdc	0.17106956
113	0x3d5d25fb	0.0539913
114	0xbd430970	-0.047616422
115	0x3d22dddd	0.039762367
116	0x3e18e3ee	0.14930698
117	0xbcc553b3	-0.024087762
118	0x3e71c354	0.23609668
119	0xbe76bca8	-0.24095404
120	0xbd6e58a0	-0.058189988
121	0x3e29ef04	0.16595083
122	0xbe7f1289	-0.24909414
123	0x3d2f2216	0.042757116
124	0x3d9889c3	0.07448151
125	0xbd5b2cb7	-0.05350944
126	0xbdaa714f	-0.08322393
127	0xbe29b332	-0.16572264
128	0x3d047987	0.03234246
129	0x3e7944f1	0.24342705
130	0xbdf3ce10	-0.11904538
131	0xbd05b5ef	-0.03264421
132	0xbcd9b067	-0.026573373
133	0x3e1dd278	0.15412319
134	0x3d3ca1b2	0.046052642
135	0xbe4e5dc4	-0.20152956
136	0x3e026eb4	0.12737542
137	0x3ca00042	0.019531373
138	0x3d72861c	0.059209928
139	0x3da12e48	0.078701556
140	0xbda26a55	-0.079304375
141	0x3e678954	0.2261098
142	0xbd69020a	-0.05688671
143	0x3df69b90	0.1204139
144	0xbe257e50	-0.16161466
145	0xbc9e777d	-0.019344086
146	0xbd258352	-0.04040844
147	0xbde03401	-0.10947419
148	0xbe6a1f55	-0.22863515
149	0xbda33a85	-0.07970146
150	0x3b81c096	0.0039597256
151	0x3e19be87	0.15014087
152	0x3dc1037b	0.09424492
153	0x3c9e48b5	0.019321779
154	0x3e459ddc	0.192985
155	0xbdaad253	-0.083408974
156	0x3e32b84c	0.17453116
157	0xbe129379	-0.14314069
158	0x3e8dcd68	0.27695775
159	0x3d26a821	0.040687684
160	0x3d954d54	0.0729014
161	0xbe27aaaa	-0.16373697
162	0x3d815fc7	0.06317096
163	0x3dd73ce4	0.10509661
164	0xbe79562d	-0.2434928
165	0xbe8e5a2b	-0.27803168
166	0x3c139d09	0.009009608
167	0x3e049a16	0.12949404
168	0xbd80062f	-0.062511794
169	0x3c113aba	0.008864099
170	0x3e642368	0.22279131
171	0x3e8c23d3	0.27371082
172	0xbe1af2f6	-0.15131745
173	0xbe95cbb6	-0.29256982
174	0xbe39712b	-0.18109576
175	0xbe03dd4f	-0.12877391
176	0x3e8cbeac	0.2748922
177	0xbd9741aa	-0.07385571
178	0x3dfac248	0.122440875
179	0x3a961bf7	0.0011452426
180	0x3e24ba2a	0.16086641
181	0xbe869ba0	-0.26290607
182	0x3de7757a	0.11301704
183	0xbe1a4aa6	-0.15067539
184	0x3cdad001	0.026710512
185	0x3d91c18c	0.07116994
186	0x3d79e904	0.061013237
187	0xbc5fb894	-0.013654847
188	0x3d9b4f87	0.07583528
189	0x3deac4f4	0.11463347
190	0x3d8d6aa0	0.06905103
191	0xbd81e9b6	-0.06343405
192	0xbd8468b7	-0.06465285
193	0x3df7c598	0.12098235
194	0xbe4b55c3	-0.19856934
195	0x3dd5142a	0.104042366
196	0x3e00f869	0.12594761
197	0xbd7c32fd	-0.061572064
198	0xbdef9473	-0.11698236
199	0x3d9cd9c3	0.07658722
200	0xbe1f8834	-0.15579301
201	0x3d875c2a	0.06609376
202	0x3db69ad5	0.089162506
203	0xbe821d34	-0.25412905
204	0x3b314262	0.0027047624
205	0x3e905bc8	0.28195024
206	0x3e53d5e9	0.20687069
207	0x3d793734	0.06084366
208	0x3de36011	0.111023076
209	0xbd413e83	-0.047178756
210	0x3da47ebb	0.080319844
211	0x3ddbb22d	0.10727344
212	0xbdc57c99	-0.09642906
213	0x3e804d8a	0.25059158
214	0xbe40bba3	-0.18821578
215	0xbddeaf37	-0.10873263
216	0x3d4b9660	0.049703956
217	0x3d406992	0.04697568
218	0x3e4ad089	0.19806112
219	0x3c737806	0.014860159
220	0xbe76f64f	-0.24117397
221	0xbe8ad933	-0.27118835
222	0x3e78bca3	0.24290709
223	0x3dc78fc4	0.09744218
224	0x3d9fb2b1	0.077977546
225	0xbd0bb054	-0.034103706
226	0xbcb7b533	-0.02242527
227	0x3d9eb649	0.07749612
228	0x3d164dfe	0.036695473
229	0x3e3b35d0	0.18282247
230	0x3e4dc0ed	0.20093127
231	0x3bd08aa1	0.006364182
232	0xbe1fb3fa	-0.15596
233	0xbe391ea4	-0.18078095
234	0xbcac7908	-0.021053806
235	0x3e10d057	0.14141975
236	0x3e6a4d31	0.22881009
237	0xbce8332f	-0.028344719
238	0x3e1ade07	0.15123759
239	0x3dd951c5	0.106112994
240	0xbd4528eb	-0.048134726
241	0x3d211707	0.0393286
242	0x3e448dda	0.19194737
243	0x3e8e90cb	0.27844843
244	0xbde0292c	-0.10945353
245	0x3e3ef377	0.18647562
246	0xbd1aa4a9	-0.03775469
247	0x3d87088e	0.065934286
248	0xbc0c1448	-0.008549757
249	0x3ea8fae5	0.33003917
250	0x3e7d723d	0.2475061
251	0x3e38f1cf	0.18060993
252	0xbe1b2427	-0.1515051
253	0xbd2e74eb	-0.04259197
254	0x3df93f46	0.121702716
255	0x3e224aaa	0.15848795

in_proj_bias f4 [96]
0	0xbdb4c6f4	-0.0882701
1	0x3dd1df82	0.10247709
2	0x3dc749fd	0.09730909
3	0x3db02eb1	0.08602656
4	0xbd987826	-0.074447915
5	0x3dc70e0d	0.09719477
6	0xbda222f0	-0.0791682
7	0xbd313b26	-0.0432693
8	0xbbd70da9	-0.0065629077
9	0x3dac9ea5	0.084286965
10	0x3dbdf25a	0.092747405
11	0xbde8e424	-0.11371639
12	0xbd850227	-0.06494551
13	0x3d82b2e4	0.06381777
14	0xbd8814a9	-0.066445656
15	0xbd94bfb3	-0.07263126
16	0xbd627931	-0.05529136
17	0x3dafc877	0.085831575
18	0x3dc0551b	0.093912326
19	0x3db53855	0.08848635
20	0xbdae18a5	-0.08500794
21	0xbdc4a89d	-0.09602473
22	0x3db7eb26	0.08980398
23	0x3db005ce	0.08594857
24	0x3dbc0145	0.0917993
25	0xbda5178b	-0.08061131
26	0xbda7607d	-0.081727006
27	0xbdba847e	-0.09107302
28	0x3dc78506	0.09742169
29	0x3dc8bb65	0.09801368
30	0xbdbb8eda	-0.09158106
31	0xbcb15ecc	-0.021651648
32	0x36cd122b	6.111591e-06
33	0xb6c7095f	-5.931753e-06
34	0xb6e77bee	-6.898764e-06
35	0xb6743e29	-3.6395015e-06
36	0xb54c0752	-7.6006575e-07
37	0xb6615515	-3.3577137e-06
38	0x373f9a9d	1.1420486e-05
39	0xb57b09ea	-9.3519213e-07
40	0xb5f87576	-1.8511626e-06
41	0xb60f170d	-2.1322078e-06
42	0xb6933a4c	-4.387728e-06
43	0x35d0d716	1.5559806e-06
44	0x3740e3fc	1.1497174e-05
45	0xb6e02f04	-6.6811936e-06
46	0x379b50fb	1.851515e-05
47	0x371ba54f	9.277209e-06
48	0x3577c75e	9.230479e-07
49	0xb6cbc9a0	-6.0733437e-06
50	0x35827d19	9.722163e-07
51	0xb6a99738	-5.0541967e-06
52	0x35a5790d	1.2328688e-06
53	0x36c551c0	5.8805745e-06
54	0xb68502bd	-3.9640277e-06
55	0xb6fb34ab	-7.4865143e-06
56	0xb5cb72d8	-1.5158103e-06
57	0x35c8b783	1.495457e-06
58	0x3642ba31	2.901663e-06
59	0x3688d2a4	4.0776376e-06
60	0xb69cee22	-4.6768846e-06
61	0xb62ec729	-2.6043947e-06
62	0x36bf5694	5.7023226e-06
63	0xb612c31f	-2.186927e-06
64	0xbda428fd	-0.080156304
65	0x3db47187	0.08810716
66	0x3d8d152b	0.06888803
67	0x3de474b5	0.111550726
68	0xbd9ad3b8	-0.075599134
69	0xbdbb06f2	-0.09132184
70	0xbd968843	-0.073502086
71	0xbda0e4d9	-0.07856149
72	0xbdcddac2	-0.1005149
73	0xbdb435e5	-0.08799342
74	0x3dde48b6	0.10853712
75	0x3d9109d0	0.0708195
76	0x3db3eedd	0.08785794
77	0xbd8bab0d	-0.06819735
78	0xbdb9052d	-0.0903419
79	0xbd9cd70e	-0.07658206
80	0xbda5fd37	-0.081049375
81	0xbde634ca	-0.112405375
82	0x3c836c20	0.016042769
83	0x3d96d541	0.07364894
84	0x3d9043f3	0.0704421
85	0xbdc97ce5	-0.09838275
86	0xbd9ed22c	-0.07754931
87	0xbce9d75f	-0.02854508
88	0xbd9ad614	-0.075603634
89	0xbdc5b6bb	-0.09653994
90	0xbd91e5f9	-0.07123942
91	0xbda39cc6	-0.079888865
92	0xbdc4d726	-0.09611349
93	0xbdcc5961	-0.09977985
94	0xbdc0553c	-0.09391257
95	0x3d92a984	0.07161239

weight f4 [32, 32]
0	0xbea3c022	-0.31982523
1	0x3e3c5b4b	0.183942
2	0x3cee78d5	0.029110352
3	0xbbf2f8e4	-0.007414924
4	0xbeade3cf	-0.33962867
5	0x3dcac357	0.09900539
6	0xbe973a66	-0.29536742
7	0xbe640853	-0.222688
8	0x3d2cc4a5	0.042179722
9	0xbda0efc3	-0.07858231
10	0x3d756260	0.05990827
11	0x3eaa6675	0.33281294
12	0x3e067876	0.1313189
13	0x3e1a8168	0.15088427
14	0xbe4a3d04	-0.19749838
15	0xbe41fd07	-0.18944179
16	0x3dd31685	0.1030703
17	0xbcab0ffa	-0.020881642
18	0xbdda34f5	-0.10654632
19	0x3e335e49	0.17516436
20	0x3e7110de	0.2354159
21	0xbe34683b	-0.17617886
22	0x3d5481d1	0.051881615
23	0x3dd28f81	0.102812774
24	0xbd159ef7	-0.036528554
25	0xbe9dee62	-0.30845934
26	0x3e7663f1	0.24061562
27	0xbdcf590c	-0.10124406
28	0x3de445cf	0.111461274
29	0xbe0d8323	-0.13819556
30	0xbdfef8b9	-0.12449784
31	0x3e97b3b0	0.29629278
32	0xbdfe1091	-0.124055035
33	0xbc46d9bc	-0.012136873
34	0xbea83e87	-0.32860205
35	0xbd7b5011	-0.061355654
36	0xbe0276f3	-0.12740688
37	0x3dd736e7	0.10508519
38	0x3c195fe0	0.009361237
39	0x3eb86b56	0.3601939
40	0x3d34528f	0.044024047
41	0xbd0f8db0	-0.035047233
42	0xbeaf792d	-0.34272137
43	0x3d99b292	0.07504763
44	0x3dc1b0ed	0.09457574
45	0x3eb803af	0.3594031
46	0x3d00dbd9	0.031459663
47	0xbd072e32	-0.03300304
48	0x3d3e66a2	0.046484597
49	0x3ea59968	0.32343602
50	0x3ea35530	0.3190093
51	0xbebd7b10	-0.37007952
52	0x3dab0cdd	0.08352063
53	0x3cd56afc	0.02605199
54	0x3ea07e5f	0.31346413
55	0x3ba107d8	0.004914265
56	0x3e19fd94	0.15038139
57	0x3d162865	0.036659617
58	0x3e8c9b34	0.2746216
59	0x3ea0e95f	0.31428048
60	0xbe2d576b	-0.16927879
61	0x3e1e65a7	0.15468465
62	0x3d860414	0.065437466
63	0xbea61d71	-0.32444337
64	0xbecaa587	-0.39579412
65	0x3ed7d7a2	0.42156702
66	0x3e48f2f8	0.19623935
67	0xbd940f32	-0.07229461
68	0xbeaa6184	-0.33277524
69	0xbd6cdd5e	-0.0578283
70	0xbd8d94d4	-0.06913152
71	0xbd65dd23	-0.056119096
72	0xbd09e475	-0.03366514
73	0xbe4f0e7c	-0.20220369
74	0x3eb734cc	0.35782468
75	0x3dea2980	0.11433697
76	0x3e996a5a	0.29963952
77	0x3d9d5007	0.0768128
78	0x3e0ccfce	0.13751146
79	0xbe51c7cd	-0.20486374
80	0x3e0f762c	0.14009923
81	0xbe78ef25	-0.24309976
82	0x3e60abfd	0.21940608
83	0x3dab9f84	0.083800346
84	0x3e4e8442	0.2016764
85	0x3d43a44b	0.047764104
86	0xbe4ae173	-0.19812565
87	0xbc219a45	-0.009863441
88	0x3df382a8	0.11890155
89	0xbc253e7b	-0.010085697
90	0xbe242779	-0.16030683
91	0xbebc91f8	-0.36830115
92	0xbdd70f46	-0.1050096
93	0xbedd8e71	-0.43272737
94	0xbe92d772	-0.28679997
95	0xbd9b8da9	-0.07595379
96	0xbe2fff28	-0.17187178
97	0x3d5e0847	0.054207113
98	0x3ed536ab	0.4164327
99	0xbde21ada	-0.11040278
100	0xbe0fbe8f	-0.14037536
101	0xbda430be	-0.08017109
102	0xbe3e63df	-0.18592785
103	0xbe89719c	-0.2684449
104	0xbe3081da	-0.17237034
105	0xbebfe7cb	-0.37481532
106	0x3e276080	0.16345406
107	0xbe3a1e03	-0.18175511
108	0xbd96a838	-0.07356304
109	0x3e113ef0	0.14184165
110	0xbe45121d	-0.19245191
111	0xbd9d4da3	-0.07680824
112	0xbe5896c2	-0.2115126
113	0xbedbb1ac	-0.4290899
114	0x3e3678bd	0.17819495
115	0xbe1ceee1	-0.153255
116	0xbd3ce1c9	-0.046113763
117	0xbeb7f78a	-0.35931045
118	0xbe980d53	-0.29697666
119	0xbe1a82ac	-0.1508891
120	0xbe70e325	-0.23524149
121	0xbedbd1bd	-0.42933455
122	0xbeb089aa	-0.3448003
123	0xbdbd28a9	-0.09236271
124	0xbe65caac	-0.22440594
125	0x3d21c142	0.039490946
126	0xbe84e505	-0.25955978
127	0xbe4e1f26	-0.2012907
128	0xba0969f7	-0.0005241925
129	0xbeaf427e	-0.34230417
130	0xbeaadcc6	-0.33371562
131	0x3d58b96b	0.052911203
132	0x3e685f06	0.22692499
133	0x3da4eb61	0.080527075
134	0xbd82e3e6	-0.063911244
135	0xbe198792	-0.14993122
136	0xbd3450f9	-0.044022534
137	0x3eb31f19	0.34984663
138	0x3ddf9b74	0.10918322
139	0x3e4b8e36	0.19878468
140	0xbe855749	-0.26043156
141	0x3ea82ee3	0.32848272
142	0x3c98b4ee	0.018640961
143	0x3e255936	0.16147313
144	0x3eadb36e	0.33925956
145	0x3eb5caa7	0.35506174
146	0x3d56edf5	0.052473027
147	0xbe3f1cf4	-0.18663388
148	0x3e16e0c0	0.14734173
149	0x3e4cba90	0.19993043
150	0x3eb82e43	0.35972795
151	0xbe8018fe	-0.25019068
152	0x3dedb0c3	0.1160598
153	0x3c849371	0.016183587
154	0xbd0165af	-0.031591114
155	0x3e511647	0.20418654
156	0x3e5111b0	0.20416903
157	0x3e873937	0.2641084
158	0xbddcb3c7	-0.10776477
159	0xbdf84073	-0.12121668
160	0x3d7842ad	0.060610462
161	0x3e338b4c	0.17533606
162	0x3e544cd0	0.20732427
163	0xbe118a86	-0.14212999
164	0x3e6741c0	0.22583675
165	0x3d5c4151	0.053773228
166	0x3e5de05b	0.21667616
167	0x3ec479d5	0.383742
168	0x3d38d3aa	0.045123734
169	0xbd73fa18	-0.05956468
170	0xbeaca5fb	-0.33720383
171	0xbe68e508	-0.22743618
172	0xbecc211a	-0.39869004
173	0x3ea0ac82	0.31381613
174	0x3d62b69b	0.055349927
175	0x3e652bc8	0.22379982
176	0xbdb4b7cb	-0.08824118
177	0x3e989ebb	0.29808602
178	0xbdd46039	-0.103699155
179	0xbeb516b9	-0.353689
180	0xbe6d933c	-0.23200697
181	0x3d2c3280	0.042040348
182	0xbe2b94b1	-0.1675594
183	0x3d8ef29b	0.06979867
184	0x3de79dd6	0.11309402
185	0x3dee9193	0.1164886
186	0xbbd3b1b0	-0.006460391
187	0xbc88d181	-0.016701462
188	0x3e8ce5ce	0.27519077
189	0x3bd53c3a	0.0065074237
190	0xbd878049	-0.06616265
191	0x3d707ee6	0.05871477
192	0x3e7202ef	0.23633932
193	0xbdc73092	-0.09726061
194	0x3d01102a	0.031509556
195	0x3d78dde5	0.06075849
196	0xbe26cae6	-0.16288337
197	0x3ecea9a7	0.4036381
198	0xbd823b9f	-0.06359028
199	0x3e858ed5	0.26085535
200	0xbd24410f	-0.040101107
201	0x3e72e05f	0.23718403
202	0x3e051044	0.12994486
203	0xbed05550	-0.40690088
204	0xbdb1fc59	-0.086907096
205	0xbc0bef93	-0.008541006
206	0xbe01ab6a	-0.12663046
207	0x3cb31378	0.02185987
208	0x3d07ea21	0.033182267
209	0xbd12a7be	-0.035804503
210	0xbd97731e	-0.07395004
211	0xbe38c743	-0.18044762
212	0xbdf68e1c	-0.12038824
213	0x3d5cb45f	0.053882953
214	0xbd0d4799	-0.03449211
215	0xbe8afc88	-0.2714579
216	0x3e0cbbc6	0.13743505
217	0x3e6bf96d	0.23044367
218	0x3ebaabbd	0.3645915
219	0xbd3329f6	-0.04374119
220	0x3e70adf4	0.23503858
221	0xbda5ee84	-0.08102134
222	0x3ec6fa4e	0.38862842
223	0xbe7d2b16	-0.24723467
224	0xbe4dc1da	-0.2009348
225	0xbc9d9253	-0.019234812
226	0x3e6f9041	0.23394872
227	0x3e5718ef	0.21005605
228	0xbe3076f6	-0.1723288
229	0xbeb1fc9a	-0.34763032
230	0xbe2557ab	-0.16146724
231	0xbe82cea9	-0.25548294
232	0xbe83a70a	-0.25713378
233	0x3debd06e	0.11514364
234	0x3eb0bb10	0.34517717
235	0x3ead9ee8	0.33910298
236	0x3ed63dab	0.41843924
237	0xbe6ddd68	-0.23228991
238	0x3d821292	0.06351198
239	0x3e446d27	0.19182263
240	0xbe1d5ce9	-0.15367474
241	0x3e10d4ee	0.14143726
242	0xbeb015f6	-0.34391755
243	0xbdc43f54	-0.095823914
244	0x3e8b2afd	0.27181235
245	0xbe9401f4	-0.2890774
246	0xbdcb456a	-0.09925349
247	0x3dcfd2fc	0.10147664
248	0x3d18be2f	0.03729075
249	0xbdd07cb5	-0.10180036
250	0xbd58bd22	-0.052914746
251	0x3e2d9cac	0.16954297
252	0xbe83886d	-0.25690022
253	0x3da4e956	0.08052318
254	0xbe9c3640	-0.3051014
255	0x3eaa3a05	0.3324739

bias f4 [32]
0	0x3d78b88c	0.060722873
1	0xbd92053c	-0.07129905
2	0x3d9a871f	0.075453036
3	0x3d339831	0.043846313
4	0xbd61f074	-0.055160955
5	0xbd892b87	-0.06697755
6	0xbd8b2b6b	-0.06795391
7	0x3d8f64c1	0.07001639
8	0x3d7e489f	0.062080976
9	0xbcb504d2	-0.022097025
10	0x3d71b8c5	0.0590141
11	0xbd5459be	-0.051843397
12	0xbd44ee27	-0.048078682
13	0x3d7873be	0.060657255
14	0x3d43cb2b	0.047801178
15	0xbd66138c	-0.056170985
16	0x3d9c8cf2	0.07644071
17	0x3d6ab0ae	0.0572974
18	0xbd952ef1	-0.07284344
19	0xbd6aee65	-0.057356257
20	0x3d975ef3	0.07391157
21	0x3d7a92c6	0.06117513
22	0x3d7d13aa	0.06178633
23	0xbd93f0c9	-0.072236605
24	0xbd8ef2dd	-0.06979916
25	0xbd13bac7	-0.036066797
26	0xbd919929	-0.07109291
27	0xbd4c1bd7	-0.049831238
28	0x3d89a5dd	0.06721089
29	0xbd944d4d	-0.072413065
30	0xbd579dc6	-0.0526407
31	0x3d5ce1dc	0.053926334

weight f4 [128, 32]
0	0x3dc4abac	0.09603056
1	0xbc3a61fe	-0.011375902
2	0xbce9b368	-0.02852793
3	0x3e010850	0.12600827
4	0x3ca3d78c	0.020000242
5	0xbd2c75a7	-0.04210439
6	0xbd8aa178	-0.06769079
7	0xbba696c6	-0.0050838916
8	0xbd40e2c5	-0.047091264
9	0x3de466fc	0.11152455
10	0xbd3d2c20	-0.04618466
11	0xbd4d790d	-0.05016427
12	0xbe2c0f4b	-0.16802709
13	0xbe70f823	-0.23532157
14	0x3caa7cb1	0.02081141
15	0xbdccc8d4	-0.099992424
16	0x3ced881a	0.028995562
17	0x3dd2a883	0.10286047
18	0xbe78a022	-0.24279836
19	0x3d39a08f	0.045319136
20	0x3dec0432	0.11524238
21	0xbbafb2a2	-0.005361871
22	0x3e6afea9	0.22948708
23	0xbe28e5c2	-0.16493896
24	0xbe770d27	-0.24126111
25	0xbe413633	-0.18868332
26	0xbe669112	-0.22516277
27	0x3ddb109d	0.10696528
28	0xbe444c47	-0.19169722
29	0xbdf85dd0	-0.12127268
30	0xbe232538	-0.15932167
31	0xbe51798d	-0.20456524
32	0xbd75fd36	-0.060055934
33	0xbd8b5b0d	-0.06804476
34	0x3d33bf5e	0.043883674
35	0x3e1f6b80	0.15568352
36	0xbd554e71	-0.05207676
37	0x3d80bbc8	0.062858164
38	0xbb5300b4	-0.0032196464
39	0x3e3a6a1d	0.18204542
40	0x3e2369b6	0.15958294
41	0x3dc6f6d1	0.09715045
42	0xbc176522	-0.009240421
43	0xbe2c6292	-0.16834477
44	0x3e47534e	0.19465372
45	0xbe36e31f	-0.17860077
46	0xbe0b0702	-0.13576892
47	0xbe773c5f	-0.24144123
48	0xbd1425d7	-0.0361689
49	0x3ca2962e	0.019847002
50	0xbe0035e2	-0.12520555
51	0x3dd99e72	0.10625924
52	0xbe88465e	-0.26616186
53	0x3db86c51	0.09005035
54	0x3e94777f	0.28997418
55	0x3e192dcf	0.14958881
56	0xbd8d4cdb	-0.06899425
57	0x3caec501	0.021334173
58	0x3d6b580e	0.057457022
59	0xbe1bcf69	-0.1521584
60	0xbbc80e2b	-0.0061052046
61	0xbe8ef0f0	-0.27918196
62	0x3e3a1c71	0.18174912
63	0xbe2b1fb4	-0.16711313
64	0x3e28e3ec	0.16493195
65	0xbb3d95b2	-0.0028928337
66	0x3dbddee2	0.09271027
67	0xbdb86e48	-0.090054095
68	0x3e479066	0.19488677
69	0x3ddb1965	0.10698203
70	0x3d92bdfd	0.07165144
71	0x3d80e5ca	0.06293829
72	0x3dadc43f	0.084846966
73	0x3c05bafb	0.008162255
74	0xbe0e57d9	-0.13900699
75	0x3e1c2ea2	0.15252164
76	0xbd0b6eae	-0.0340411
77	0x3d7a2607	0.061071422
78	0xbdae0cf2	-0.08498563
79	0xbd34a190	-0.04409939
80	0xbe0bedfc	-0.13665003
81	0x3e25cbbe	0.16191003
82	0xbe2478e3	-0.1606174
83	0x3dd09401	0.101844795
84	0xbe40eb7e	-0.18839833
85	0xbd8051bc	-0.062655896
86	0xbdb2ce9e	-0.08730815
87	0x3d83f95a	0.064440444
88	0x3e11b124	0.1422773
89	0x3dbaf89f	0.09129452
90	0xbce36816	-0.027759593
91	0xbd948b1f	-0.07253098
92	0xbe2ba4cd	-0.16762085
93	0xbe190511	-0.14943339
94	0xbdec7707	-0.1154614
95	0xbddea0d0	-0.10870516
96	0xbdd3bc46	-0.10338645
97	0xbe3fcc5c	-0.187303
98	0x3e7a833c	0.24464124
99	0xbd8d40a3	-0.06897094
100	0xbe54fdf1	-0.20799996
101	0x3d942e90	0.072354436
102	0x3ca6b37a	0.020349253
103	0xbdc7cf19	-0.097562976
104	0x3e420a51	0.18949248
105	0x3c22c9a3	0.009935769
106	0x3dd948f9	0.106096216
107	0x3e2dafda	0.16961613
108	0xbdd5cd49	-0.10439546
109	0xbe42308f	-0.18963836
110	0x3d946dee	0.0724753
111	0xbe6caf25	-0.23113687
112	0x3da03f8b	0.0782462
113	0x3df89f00	0.12139702
114	0xbdf818ba	-0.12114091
115	0xbdce44f4	-0.100717455
116	0x3d8e61bb	0.06952234
117	0xbe4fdc94	-0.20298988
118	0x3d7dde77	0.061979737
119	0xbe695b36	-0.227887
120	0xbe32db45	-0.17466457
121	0xbdb639d9	-0.08897752
122	0xbe615605	-0.2200547
123	0x3e029b24	0.12754494
124	0x3de203fc	0.11035916
125	0xbbe702e3	-0.0070499047
126	0xbd4ed648	-0.050497323
127	0xbe15662d	-0.14589758
128	0xbd616766	-0.05503025
129	0xbe195747	-0.149747
130	0xbe21c7d7	-0.15798889
131	0x3e85f0c1	0.26160243
132	0x3de5fd4a	0.11229952
133	0x3b37a811	0.002802376
134	0x3d662b56	0.056193672
135	0x3e2d5d8a	0.16930214
136	0xbc8c4d8f	-0.017126827
137	0xbdc83dd0	-0.09777415
138	0x3e7419d5	0.23837979
139	0x3e07cfc2	0.13262847
140	0xbd1e7c24	-0.03869261
141	0xbe616dc7	-0.22014533
142	0xbe00db88	-0.12583745
143	0xbddfed36	-0.10933916
144	0xbe5d55b7	-0.21614729
145	0xbc5f8661	-0.013642878
146	0xbcb291f7	-0.021798117
147	0x3defd82c	0.117111534
148	0x3db7ae2f	0.0896877
149	0x3d53a1d9	0.05166802
150	0x3d9acf71	0.075590976
151	0xbe46321e	-0.19355056
152	0x3d5107a0	0.051032662
153	0x3c03cf25	0.008044993
154	0x3d961ea0	0.0733006
155	0xbe8a5325	-0.2701656
156	0xbdb872cd	-0.090062715
157	0x3d7759bf	0.060388323
158	0xbd9ac61e	-0.07557319
159	0xbe1969a3	-0.14981703
160	0x3e72db52	0.23716477
161	0xbd6d8e69	-0.05799714
162	0x3da3d1e7	0.0799902
163	0x3d9e0896	0.077164814
164	0x3cbb4c31	0.02286348
165	0xbdcc9ee5	-0.09991244
166	0xbe4d041d	-0.200211
167	0x3d3493df	0.044086333
168	0xbdb7fb2f	-0.08983456
169	0xbe214ddc	-0.15752357
170	0xbc0f9b65	-0.008765076
171	0x3e6e0828	0.23245299
172	0xbd1cd6da	-0.038290836
173	0x3d44f326	0.048083447
174	0x3d0c560c	0.03426175
175	0x3dff2f4e	0.124601945
176	0xbdf50b4f	-0.119650476
177	0x3cffc146	0.03122009
178	0x3d277917	0.040886965
179	0x3d9b8dda	0.075954154
180	0x3e2b3fe1	0.16723587
181	0xbe39fe0d	-0.18163319
182	0x3d9dbd7b	0.07702156
183	0xbdb02126	-0.086000726
184	0xbaee1564	-0.0018164334
185	0x3d677b86	0.056514286
186	0xbdb4931b	-0.08817121
187	0xbd96cfbf	-0.07363843
188	0x3da6ff25	0.08154134
189	0xbe654a7d	-0.22391696
190	0xbb83d0b3	-0.0040226816
191	0x3dc3f335	0.095678724
192	0x3c4d3b2d	0.012526316
193	0xbdfa6078	-0.12225431
194	0x3af10aa5	0.0018390013
195	0xbd4d040d	-0.05005269
196	0x3e0fc9d7	0.1404184
197	0x3d979b00	0.07402611
198	0xbd968ccf	-0.07351076
199	0x3d50bec6	0.050963186
200	0xbd6ec266	-0.05829086
201	0x3e04454a	0.12917057
202	0x3e8352f4	0.25649226
203	0xbdeca4cf	-0.11554872
204	0x3c0738c1	0.008253277
205	0xbbf235a9	-0.0073916507
206	0xbe2a2548	-0.16615784
207	0xbe13bfe2	-0.14428666
208	0x3dae0e01	0.08498765
209	0xbe83f490	-0.25772524
210	0xbe3ef048	-0.18646348
211	0x3e06958f	0.1314299
212	0x3e2704bd	0.16310401
213	0x3c66e918	0.01409366
214	0x3e43c213	0.19117002
215	0x3dda7791	0.10667337
216	0x3c2eca9c	0.010668423
217	0xbe2bd7aa	-0.16781488
218	0xbe2cd32e	-0.16877434
219	0xbddf384e	-0.10899411
220	0x3cdd3230	0.02700147
221	0xbe526c68	-0.20549166
222	0xbe3c72a3	-0.18403105
223	0xbda32c35	-0.07967416
224	0x3e0c5413	0.13703947
225	0x3d5aa54b	0.053380292
226	0x3d838a13	0.0642282
227	0x3e012ac8	0.12613976
228	0xbe4b749c	-0.19868702
229	0xbd047321	-0.032336358
230	0xbe1d3bee	-0.15354893
231	0xbd52af84	-0.051436916
232	0xbdee361b	-0.116314135
233	0xbe4ba8d1	-0.19888617
234	0x3e502a44	0.20328623
235	0x3e42c688	0.19021046
236	0xbdaa1e2f	-0.08306538
237	0xbd87023a	-0.065922216
238	0xbd89d857	-0.06730717
239	0xbe3574f7	-0.177204
240	0x3e845f31	0.25853875
241	0xbe4654b1	-0.19368245
242	0xbe1d3487	-0.15352069
243	0xbe0f7d58	-0.14012659
244	0x3e39f921	0.18161441
245	0xbd07e350	-0.033175766
246	0xbd6ac389	-0.057315383
247	0xbe46ed91	-0.19426562
248	0xbd171370	-0.03688377
249	0xbe575980	-0.21030235
250	0x3d524867	0.05133858
251	0x3dff534b	0.12467059
252	0x3e208907	0.15677272
253	0x3e3eeb7b	0.18644516
254	0xbda081f8	-0.078372896
255	0xbcc6b6cb	-0.024257084

bias f4 [128]
0	0x3da97326	0.08273916
1	0xbbb0ffd5	-0.0054015913
2	0xbc99ff79	-0.018798577
3	0x3d9774e2	0.073953405
4	0x3db60bd1	0.088889726
5	0x3d95968b	0.073041044
6	0x3d308cc0	0.04310298
7	0x3d8f1684	0.069867164
8	0x3d82a23c	0.063786
9	0x3d1c89ca	0.038217343
10	0x3da3cb6d	0.07997785
11	0x3d942c6d	0.07235036
12	0xbd0a1295	-0.033709127
13	0x3d9b3ac6	0.075795695
14	0x3d99ada6	0.07503824
15	0x3d935154	0.071932465
16	0x3d93f15e	0.072237715
17	0xb9aa9498	-0.00032535638
18	0xbd031798	-0.032004923
19	0xbc3bb140	-0.011455834
20	0x3d9ab23f	0.07553529
21	0x3d5a5fd7	0.053314056
22	0x3d9e33d3	0.077247284
23	0x3d9bed14	0.076135784
24	0x3db158bf	0.08659505
25	0x3c4e2128	0.012581147
26	0x3d8e04ee	0.06934534
27	0x3d99eb89	0.07515628
28	0xbd0c0ef3	-0.034193944
29	0x3d39ffb4	0.045409873
30	0x3da33d84	0.079707175
31	0x3d9a8bb9	0.07546181
32	0x3d91cb3e	0.071188435
33	0x3d3b68d7	0.04575428
34	0x3db5131d	0.08841536
35	0x3d89a33f	0.0672059
36	0xbc07fb80	-0.008299708
37	0x3c6e07a1	0.014528186
38	0x3d91ad42	0.071131244
39	0x3db13747	0.086531214
40	0x3d9bc480	0.07605839
41	0x3db514a4	0.088418275
42	0x3d951028	0.07278472
43	0xbb5844c1	-0.0032999965
44	0x3d99aeb9	0.07504029
45	0x3da4e31d	0.08051131
46	0x3d8bd916	0.06828515
47	0x3d9d708f	0.076874845
48	0x3d97bbd5	0.07408873
49	0x3d93d8f1	0.07219113
50	0x3d9d8ce7	0.076928906
51	0xbc781d87	-0.015143759
52	0x3d921765	0.071333684
53	0xbcf4341f	-0.02981001
54	0x3d05fc63	0.032711398
55	0x3d9d3f48	0.076780856
56	0x3daee79d	0.085402705
57	0x3d8e2c0a	0.069419935
58	0x3d974552	0.07386269
59	0x3d968fc4	0.0735164
60	0x3d8be3f4	0.06830588
61	0xbc381fe8	-0.011238076
62	0x3d9e4725	0.077284135
63	0xbc9d65d8	-0.019213602
64	0x3d88b042	0.066742435
65	0xbb801171	-0.003908329
66	0x3c3d0353	0.011536437
67	0xbcfae1a5	-0.030625174
68	0x3dab02c5	0.083501376
69	0x3d9c5434	0.07633248
70	0x3d789213	0.060686182
71	0xbcdf9ae2	-0.027295534
72	0x3d8929df	0.066974394
73	0x3d929846	0.0715795
74	0x3d99f756	0.07517879
75	0x3a8b0316	0.0010605778
76	0xbcffacb1	-0.031210275
77	0x3d8d83aa	0.069098786
78	0x3dad12ee	0.08450876
79	0x3d97c683	0.0741091
80	0x3d9232e5	0.071386136
81	0x3d8201cc	0.06347999
82	0x3d9c312f	0.076265685
83	0x3c812db7	0.015768869
84	0x3dae7db2	0.08520068
85	0x3d4d2bb4	0.050090507
86	0x3da86619	0.082225986
87	0x3dab9e8d	0.083798505
88	0x3d86815a	0.065676406
89	0x3ab60504	0.0013886993
90	0x3d237fa8	0.039916664
91	0x3d715b58	0.058925003
92	0x3d5a2fc7	0.05326822
93	0x3da6efd9	0.08151216
94	0xba51d20b	-0.0008004016
95	0xbd31e389	-0.043429885
96	0x3da3fde2	0.08007409
97	0x3d844673	0.064587496
98	0x3d9084eb	0.07056602
99	0x3d925aff	0.071462624
100	0x3d94ae11	0.07259763
101	0x3dae54bb	0.08512255
102	0x3d4a4921	0.049386147
103	0x3d811565	0.06302909
104	0x3d9b2aeb	0.07576545
105	0xbd0b0f69	-0.033950243
106	0xbcc01d2d	-0.023451412
107	0x3d692f00	0.05692959
108	0xbbbe5115	-0.0058080056
109	0xbb7cdd5a	-0.0038584084
110	0xbd1376ad	-0.03600185
111	0x3d8d7d83	0.06908705
112	0x3d851e46	0.06499915
113	0x3da6304d	0.081146814
114	0x3d0f3651	0.03496391
115	0xbccc6218	-0.024949118
116	0x3dad1c48	0.0845266
117	0x3d88b16e	0.06674467
118	0x3d8c1745	0.06840376
119	0x3dae616a	0.08514674
120	0x3d6a920d	0.05726819
121	0xbcb0f023	-0.021598881
122	0xbbfc4c99	-0.007699561
123	0x3da5e95a	0.08101149
124	0xbc5a8888	-0.013338216
125	0x3c679d62	0.014136644
126	0x3d678368	0.056521803
127	0x3daa94d9	0.08329172

weight f4 [32, 128]
0	0xbd7d54cb	-0.061848443
1	0xbda50028	-0.080566704
2	0x3d7ec397	0.062198248
3	0x3e83938b	0.25698504
4	0xbc581c5a	-0.013190353
5	0xbc8f948e	-0.017526891
6	0x3df097ed	0.117477275
7	0x3d975b4c	0.0739046
8	0x3db02296	0.08600347
9	0x3d9301a6	0.07178049
10	0x3e6c03d6	0.23048338
11	0x3e7f909c	0.24957508
12	0xbdeadc8f	-0.114678495
13	0x3e4ece8c	0.20195979
14	0xbe83ac8a	-0.25717574
15	0xbc34d52c	-0.011037152
16	0x3e7727c6	0.24136266
17	0x3e39d913	0.18149213
18	0xbdeaa713	-0.11457648
19	0xbdfa827d	-0.1223192
20	0x3dc1c36d	0.09461103
21	0xbe364c62	-0.17802575
22	0xbdbf3c0f	-0.09337627
23	0xbd813611	-0.063091405
24	0x3e42d325	0.19025858
25	0xbd6e7b3e	-0.058223
26	0xbd28329a	-0.041063882
27	0xbd25bb72	-0.040461965
28	0xbbcfb16b	-0.0063382885
29	0xbde4f8ed	-0.11180291
30	0x3e119590	0.1421721
31	0xbcf313f6	-0.029672604
32	0xbd9396df	-0.07206511
33	0x3d3f96a4	0.04677452
34	0x3e8d19c4	0.2755872
35	0x3e37c47a	0.17946044
36	0x3e8f88f8	0.28034186
37	0x3e875247	0.2642996
38	0x3e7b79fa	0.24558249
39	0xbcf64870	-0.030063838
40	0xbd616c4c	-0.05503492
41	0x3e82352b	0.2543119
42	0xbd618158	-0.055054992
43	0x3ddedb90	0.10881722
44	0x3d302bc5	0.043010492
45	0xbd0e78a6	-0.034783028
46	0x3d12babf	0.035822626
47	0x3d8b8c7f	0.06813907
48	0xbe561a79	-0.20908536
49	0x3dfcfda9	0.12353069
50	0x3e80e9bf	0.25178334
51	0x3b972b36	0.0046133054
52	0x3e1911a7	0.1494814
53	0xbc8485eb	-0.016177138
54	0xbdc540ba	-0.09631486
55	0x3e7ffa18	0.24997747
56	0x3d68ef2e	0.056868725
57	0x3e1d6c2d	0.15373297
58	0xbc7e82aa	-0.015534082
59	0xbd32f906	-0.04369452
60	0xbe03aec7	-0.12859641
61	0x3dcef17d	0.10104654
62	0xb997d726	-0.00028961262
63	0xbde151fb	-0.11001965
64	0xbd16023b	-0.03662322
65	0x3eb41812	0.35174614
66	0x3cdcbf35	0.026946643
67	0xbca23795	-0.019801894
68	0x3e76242b	0.24037234
69	0x3df319e9	0.11870176
70	0x3d446659	0.04794917
71	0x3e626480	0.2210865
72	0x3ddb3d40	0.10705042
73	0xbd1df94e	-0.038567834
74	0xbd087e3f	-0.033323523
75	0x3bfc4d48	0.0076996423
76	0xbda68a4e	-0.08131848
77	0x3e0aa2f3	0.13538723
78	0x3e05a7eb	0.13052337
79	0x3e2229e6	0.15836295
80	0x3dd18e58	0.10232228
81	0xbc8ac8b6	-0.01694141
82	0xbd557d6c	-0.052121565
83	0x3e8b85ae	0.27250427
84	0xbdb51e36	-0.08843653
85	0x3e9802a3	0.29689512
86	0x3dbf83a1	0.09351278
87	0x3e170c13	0.147507
88	0x3dce97c2	0.10087539
89	0xbd873345	-0.06601576
90	0x3ac18698	0.0014764844
91	0x3ce69ac3	0.028149968
92	0xbda389c3	-0.0798526
93	0x3c185e33	0.009299803
94	0x3df65d3e	0.12029503
95	0x3dcbee67	0.09957581
96	0xbd8e3e1b	-0.069454394
97	0x3d2dca99	0.04242954
98	0xbca409dc	-0.020024233
99	0x3e65e9f6	0.2245253
100	0xbccfdfc9	-0.025375264
101	0x3d81c884	0.063370734
102	0x3e478fdd	0.19488473
103	0xbd892f63	-0.066984914
104	0x3d4bffa7	0.049804356
105	0xbc78c8d4	-0.0151846
106	0xbd96dfd2	-0.07366909
107	0xbe0bfd45	-0.13670833
108	0xbe0fbfce	-0.14038011
109	0xbe25c57a	-0.16188613
110	0xbd99a641	-0.075024135
111	0x3d35f692	0.0444246
112	0xbda0e05d	-0.07855294
113	0x3e11bea4	0.1423288
114	0xbdc11a71	-0.094288714
115	0x3c06c35b	0.008225287
116	0x3e505ccc	0.20347899
117	0xbe2c20c1	-0.1680937
118	0x396eeb11	0.00022785018
119	0xbdde362b	-0.108501755
120	0x3de71449	0.11283166
121	0x3df6f6a2	0.1205876
122	0xbda29419	-0.07938404
123	0xbd513197	-0.051072683
124	0x3d234f53	0.03987057
125	0xbe04a23e	-0.12952515
126	0xbdb53417	-0.08847826
127	0x3cf2fe9e	0.029662427
128	0xbd18453a	-0.037175395
129	0xbe603818	-0.21896398
130	0xbe39a3c8	-0.18128884
131	0xbdded29d	-0.10880015
132	0x3daa3c15	0.08312241
133	0xbd05e5a4	-0.032689705
134	0xbdefcd3a	-0.11709066
135	0x3d46497b	0.04840992
136	0xbd4834e5	-0.04887857
137	0x3ddff520	0.10935426
138	0xbc9226be	-0.01784074
139	0xbe6c6afb	-0.23087685
140	0xbe5ce1d5	-0.21570523
141	0xbe5dbf28	-0.21654952
142	0xbd1daffb	-0.038497906
143	0xbe20a32f	-0.1568725
144	0xbdf08c2d	-0.117454864
145	0xbd9d241e	-0.076729044
146	0x3d699384	0.057025447
147	0xbe73566d	-0.23763438
148	0x3c5e04c8	0.013550945
149	0xbd3c0d9f	-0.045911428
150	0xbc8dd6ae	-0.017314281
151	0x3db1e28c	0.086857885
152	0xbe28b60b	-0.16475694
153	0xbd38fe39	-0.04516432
154	0xbc337e7e	-0.010955451
155	0xbdc57ba8	-0.09642726
156	0xbe27e55e	-0.1639609
157	0x3df03983	0.117297195
158	0xbcdc3e4d	-0.026885176
159	0xbd80b4ca	-0.06284483
160	0xbe084883	-0.13308911
161	0xbd91a955	-0.07112376
162	0xbc285a5f	-0.010275452
163	0xbd6168e5	-0.055031676
164	0xbe8aee8a	-0.27135116
165	0xbe3a597d	-0.181982
166	0x3c65a1e6	0.01401565
167	0x3e0219bc	0.1270513
168	0xbe2b3081	-0.16717722
169	0xbe5efa8d	-0.21775265
170	0xbd1e4ed3	-0.03864939
171	0xbd3a05ea	-0.045415796
172	0xbdf69753	-0.120405816
173	0xbc3c4987	-0.01149214
174	0xbda7d9f5	-0.08195869
175	0xbe02bc1a	-0.12767068
176	0xbd9f47ee	-0.077773914
177	0xbda1fd24	-0.07909611
178	0xbd95f81b	-0.07322713
179	0xbe0b4f08	-0.13604367
180	0x3e011d24	0.12608773
181	0x3e0647dc	0.1311335
182	0xbd6c5b67	-0.057704356
183	0xbe4c5551	-0.1995442
184	0xbcbc3321	-0.022973599
185	0x3daf4095	0.0855724
186	0xbe43af9d	-0.1910996
187	0xbd62c20f	-0.05536085
188	0x3db98bf9	0.09059901
189	0xbc25a2db	-0.010109629
190	0x3d30b530	0.043141544
191	0xbe4ed138	-0.20196998
192	0x3d8c670a	0.06855591
193	0xbd65c85a	-0.056099273
194	0xbd4db5d0	-0.050222218
195	0xbe42a6fe	-0.19009015
196	0xbe60e073	-0.2196062
197	0xbe3f97ca	-0.18710247
198	0xbc372a20	-0.011179477
199	0xbd13c0df	-0.036072608
200	0x3d0afe94	0.03393419
201	0xbe0cb577	-0.13741098
202	0x3cefe8fc	0.0292859
203	0xbe50ef7c	-0.20403856
204	0x3ded7df2	0.11596288
205	0xbc4c8b80	-0.012484431
206	0x3d90b312	0.07065405
207	0x3d1f5a42	0.038904436
208	0xbe2c95b5	-0.16853984
209	0xbb91e387	-0.004452172
210	0x3c89603c	0.016769521
211	0xbd0028a0	-0.031288743
212	0xbcdb8525	-0.026796887
213	0x3cbe6771	0.023242684
214	0xbdb5d48f	-0.08878433
215	0x3c511821	0.0127621
216	0xbdb64828	-0.089004815
217	0xb9d18a24	-0.0003996651
218	0xbe27fd9c	-0.16405338
219	0xbc0aec3b	-0.008479173
220	0xbe8a4379	-0.27004603
221	0x3c596da2	0.013270767
222	0xbe76080b	-0.24026506
223	0xbe19376f	-0.14962552
224	0xbe12b822	-0.14328054
225	0xbd8b3d15	-0.0679876
226	0x3db6dada	0.089284614
227	0xbd173381	-0.036914352
228	0xbe27b398	-0.16377103
229	0xbc06c704	-0.00822616
230	0x3cee0a9d	0.029057795
231	0xbd76aa7b	-0.060221177
232	0x3db1e6e0	0.08686614
233	0x3c990844	0.0186807
234	0x3e13471c	0.14382595
235	0xbdd4cf2b	-0.10391077
236	0x3dbd0061	0.09228588
237	0xbda5d8aa	-0.08097966
238	0xbd5ad689	-0.053427253
239	0x3daea55b	0.08527633
240	0xbd94d436	-0.072670385
241	0xbe1b9d76	-0.15196785
242	0xbe3e969a	-0.18612137
243	0xbe478b1a	-0.19486657
244	0xbe3c8774	-0.18411046
245	0xbe386d40	-0.18010426
246	0xbe43d27f	-0.19123267
247	0x3dba0239	0.09082455
248	0xbe39c7c2	-0.18142608
249	0xbc10dc51	-0.00884159
250	0xbe540387	-0.2070447
251	0x3ced3c67	0.028959466
252	0x3d033178	0.0320296
253	0xbdce1634	-0.10062829
254	0xbdf341ef	-0.1187781
255	0x3c480df8	0.012210362

bias f4 [32]
0	0x3d500e9c	0.050795183
1	0xbd305d22	-0.04305757
2	0x3d7a8e8f	0.06117111
3	0x3d31424f	0.043276127
4	0xbd4c5904	-0.04988958
5	0xbd63a78d	-0.05557971
6	0xbd355bba	-0.04427693
7	0x3d62676d	0.055274416
8	0x3d386940	0.04502225
9	0xbd073469	-0.033008967
10	0x3d53364e	0.05156546
11	0xbd4f4b57	-0.05060896
12	0xbc8f780c	-0.017513297
13	0x3d693e17	0.05694398
14	0x3d4a50c3	0.049393427
15	0xbd52a884	-0.05143024
16	0x3d6a1d93	0.05715711
17	0x3d59c8d2	0.053170033
18	0xbd806c2c	-0.06270632
19	0xbd52e30b	-0.051486056
20	0x3d5842c0	0.052798033
21	0x3d6b3462	0.057423003
22	0x3d692277	0.056917634
23	0xbced1537	-0.02894078
24	0xbd61bee2	-0.05511368
25	0xbd0df07f	-0.034653183
26	0xbd69fcd2	-0.057125874
27	0xbd4954e9	-0.049153242
28	0x3d65655b	0.056004863
29	0xbd797377	-0.06090113
30	0xbd210bc2	-0.039317854
31	0x3d60bfa2	0.054870255

weight f4 [32]
0	0x3f8d68a4	1.1047559
1	0x3f8aaded	1.0834328
2	0x3f8d535c	1.1041064
3	0x3f7f2929	0.9967218
4	0x3f9213c4	1.1412282
5	0x3f8b52e2	1.0884669
6	0x3f9061ed	1.1279885
7	0x3f8f84ad	1.1212364
8	0x3f8dc499	1.1075622
9	0x3f91c2e6	1.1387603
10	0x3f91f867	1.1403931
11	0x3f8a5862	1.0808222
12	0x3f8f2650	1.1183567
13	0x3f900452	1.1251318
14	0x3f8e05aa	1.1095479
15	0x3f8f14e6	1.1178253
16	0x3f8ed7b1	1.1159574
17	0x3f8bdc35	1.0926577
18	0x3f821988	1.0164042
19	0x3f8dc0c3	1.1074451
20	0x3f8936bc	1.0719829
21	0x3f8ef8ee	1.1169717
22	0x3f920aab	1.1409506
23	0x3f92d0d2	1.1469977
24	0x3f91a5dc	1.1378741
25	0x3f937195	1.1519037
26	0x3f90f2db	1.1324114
27	0x3f8ed2ba	1.1158059
28	0x3f92e6a6	1.1476638
29	0x3f8efb2a	1.1170399
30	0x3f8e92f6	1.1138599
31	0x3f8fb155	1.1225992

bias f4 [32]
0	0x3df0e7ce	0.11762963
1	0xbda29840	-0.07939196
2	0x3d94aabc	0.072591275
3	0xbcb7a0d7	-0.022415562
4	0x3def7a4a	0.11693247
5	0xbda2e108	-0.079530776
6	0xbde98dc6	-0.11403994
7	0xbde2ed85	-0.110804595
8	0x3dc1fd1b	0.09472104
9	0xbe1d58a2	-0.15365842
10	0x3de8f059	0.11373968
11	0x3dba1bc7	0.09087329
12	0xbdf0716f	-0.11740386
13	0xbdee2341	-0.11627818
14	0xbdd9b85e	-0.106308684
15	0x3dddc232	0.108280554
16	0xbe17eb1d	-0.14835782
17	0xbdc2eae2	-0.095174566
18	0x3d2eda58	0.042688698
19	0x3dbed793	0.09318461
20	0xbcacef3f	-0.021110175
21	0xbde4a743	-0.11164715
22	0x3ddeecff	0.10885047
23	0x3da0bd7f	0.078486435
24	0xbdd08e42	-0.101833835
25	0xbe0ee28c	-0.13953608
26	0xbdff1a4e	-0.12456189
27	0x3d9c82cc	0.07642135
28	0x3e15a0d3	0.14612131
29	0x3dd1cfe6	0.102447316
30	0xbdafdb2a	-0.08586724
31	0xbdf69a87	-0.120411925

weight f4 [32]
0	0x3f89bc16	1.0760524
1	0x3f84ecfa	1.038482
2	0x3f8b8133	1.0898803
3	0x3f878455	1.058726
4	0x3f8b3b6c	1.0877509
5	0x3f8ae512	1.0851157
6	0x3f8ba2d5	1.0909067
7	0x3f8ad87d	1.0847317
8	0x3f8951c7	1.0728081
9	0x3f884cba	1.0648415
10	0x3f8c6fd5	1.0971628
11	0x3f85fa7e	1.0467069
12	0x3f8c6a09	1.0969859
13	0x3f880c67	1.0628785
14	0x3f88e9a1	1.0696298
15	0x3f870b76	1.0550373
16	0x3f8b2f79	1.0873863
17	0x3f83a2d7	1.028407
18	0x3f8af90d	1.0857254
19	0x3f8af9df	1.0857505
20	0x3f8a7e44	1.0819783
21	0x3f8aa2df	1.0830954
22	0x3f8d66ca	1.1046994
23	0x3f8badca	1.0912411
24	0x3f87ea07	1.0618294
25	0x3f846702	1.0343935
26	0x3f87ff8f	1.0624865
27	0x3f8ab1be	1.0835493
28	0x3f8138ed	1.0095497
29	0x3f88241f	1.0636023
30	0x3f878e7f	1.0590361
31	0x3f8ac0f4	1.0840135

bias f4 [32]
0	0x3d899e1f	0.06719612
1	0xbd2b2eed	-0.0417928
2	0x3d8ce24b	0.068790995
3	0x3d082e90	0.03324753
4	0xbdba70c3	-0.09103539
5	0xbdb1838c	-0.08667669
6	0xbdbbe8aa	-0.091752365
7	0x3da8f787	0.08250337
8	0x3d86f35c	0.06589386
9	0xbdcff2ba	-0.10153718
10	0x3db61b9c	0.08891985
11	0x3d615217	0.055009928
12	0xbdb73423	-0.08945491
13	0xbd94db07	-0.07268339
14	0xbd9b1740	-0.07572794
15	0xbdc9989f	-0.09843563
16	0x3cfc1fe1	0.03077692
17	0xbda36d36	-0.07979815
18	0xbdb3f5a9	-0.0878709
19	0xbd839146	-0.06424193
20	0x3dad72c8	0.084691584
21	0xbdb4c40e	-0.08826457
22	0x3daf0f44	0.085478336
23	0xbdb8553d	-0.09000633
24	0xbd78ef75	-0.06077524
25	0xbd3243c8	-0.043521672
26	0xbd86db72	-0.065848246
27	0xbd5a8659	-0.05335078
28	0x3d70655f	0.058690425
29	0xbd81eeec	-0.06344399
30	0xbd5955c1	-0.053060297
31	0xbdada13b	-0.08478018

weight f4 [32]
0	0x3fa48e28	1.2855883
1	0x3faf785e	1.3708608
2	0x3fa6f796	1.3044307
3	0x3faed866	1.365979
4	0x3fab253e	1.337074
5	0x3fa8b6e8	1.3180819
6	0x3fafd500	1.3736877
7	0x3fa9dcee	1.3270547
8	0x3fa70934	1.3049684
9	0x3f9e2c30	1.2357235
10	0x3fa3d777	1.280013
11	0x3f931298	1.1490049
12	0x3fae4897	1.3615903
13	0x3fa21340	1.2662125
14	0x3fa3f823	1.28101
15	0x3fa67fda	1.3007767
16	0x3fa92b2b	1.3216299
17	0x3fa1cd6f	1.2640818
18	0x3faa5a71	1.330885
19	0x3fa894a0	1.3170357
20	0x3faa2074	1.3291154
21	0x3f9c5f5b	1.22166
22	0x3fa4aeea	1.286588
23	0x3fae91f5	1.3638293
24	0x3fa8e211	1.319399
25	0x3fa2697d	1.2688442
26	0x3fa83af3	1.314299
27	0x3fa5aa1f	1.2942542
28	0x3fa50f61	1.2895318
29	0x3faad973	1.334761
30	0x3fa80e2b	1.3129324
31	0x3fa256ab	1.2682699

bias f4 [32]
0	0x3e9dec3e	0.308443
1	0xbeb10e9c	-0.3458146
2	0x3e975376	0.29555863
3	0x3eb908dd	0.36139575
4	0xbea9f5ac	-0.33195245
5	0xbe986fef	-0.297729
6	0xbeb6a44a	-0.35672218
7	0x3ea8231a	0.3283928
8	0x3e9fcdbd	0.31211653
9	0xbeb5b681	-0.35490802
10	0x3e94953d	0.2902011
11	0xbe8b3c30	-0.27194357
12	0xbeb73d81	-0.3578911
13	0x3e960b2d	0.293054
14	0x3e9d0e0f	0.30674788
15	0xbe99a14d	-0.30005875
16	0x3ea2848f	0.3174176
17	0x3e95558e	0.29166836
18	0xbe9577d2	-0.29192978
19	0xbea2883d	-0.31744567
20	0x3eb0a7a3	0.34502897
21	0x3e93144b	0.2872642
22	0x3e9456ba	0.28972417
23	0xbebb34c2	-0.3656369
24	0xbe97a7b7	-0.29620144
25	0xbea7c1af	-0.32764956
26	0xbe94a019	-0.29028395
27	0xbe97e3df	-0.2966604
28	0x3e9d5b75	0.3073384
29	0xbe93f3be	-0.28896898
30	0xbe9d4850	-0.30719233
31	0x3e984dc1	0.29746822
