pre_trained_models/mosei_senti_aligned_L_TRANSLATOR_2.pt (torch, 421259 bytes, 28 tensors)

multi f4 [1, 32]
000000 bc 8c 17 3f e2 02 d6 be 0f b3 a4 3e 94 79 03 3e
       0.5919912 -0.41799074 0.3216786 0.12839347
000010 a3 59 b8 be e0 00 b4 be d3 e7 e0 be 6a 82 a3 bd
       -0.36005887 -0.35156918 -0.43926868 -0.07983859
000020 e6 09 e9 3e a7 f4 a9 3e b8 dc 39 be d2 c4 98 3e
       0.45515364 0.33194467 -0.18150604 0.29837662
000030 81 94 02 bf 30 c4 31 be 0a ea a3 3d 5e f2 85 3e
       -0.5100785 -0.17359996 0.08003624 0.26161474
000040 f8 89 0e bf f7 d2 ec 3d c6 2c ec 3e e4 9c d2 3e
       -0.55679274 0.11563676 0.4612791 0.41135323
000050 84 e4 88 3c e3 6e f7 bd 17 bc 57 be 04 39 92 be
       0.016710527 -0.12081697 -0.21067844 -0.28559124
000060 df 20 c9 3d 18 7b a9 3b d4 5b 23 3e 76 34 dd be
       0.09820723 0.0051721446 0.15952998 -0.43204087
000070 d3 f4 a0 be 71 3e ec be 29 93 21 3e 66 6b 7d 3c
       -0.31436786 -0.4614139 0.15778793 0.0154675

weight f4 [50, 32]
000000 ea 06 c4 bb cc c1 68 bf 18 2b b3 3c 66 fd 99 3f
       -0.0059822695 -0.9092071 0.021871135 1.2030456
000010 8d 02 77 3e bd 7c c1 3f 8e c2 8c 3f 49 ce 3e be
       0.24122067 1.5116192 1.0996873 -0.18633379
000020 ed 4a 8f bf 3f 7e 68 3f b7 33 8f 3f 9a 9f fd 3f
       -1.119474 0.90817636 1.1187657 1.9814332
000030 c8 98 85 3f 80 43 33 3f 2c 66 e8 be dc 94 66 bf
       1.043725 0.7002487 -0.4539045 -0.9007089
000040 82 aa ca 3d a3 86 41 bd 0f a3 02 3f 6d 42 17 be
       0.09895803 -0.04724754 0.5103006 -0.14771433
000050 46 31 ae bf 63 73 c0 3f 39 42 a7 bf 87 b3 44 3f
       -1.3608787 1.5035213 -1.3067085 0.76836437
000060 7c fc 0d bf 3e 60 15 bf c0 f7 a3 3e 09 7a a9 3f
       -0.55463386 -0.5834998 0.32024956 1.3240367
000070 27 6f c3 be 4b 4b 6a 3f 61 cc 1f 3f ee bc 92 3d
       -0.3817074 0.9152114 0.6242123 0.07164942
000080 bb 63 a5 3f 07 41 d1 3d dc 96 ee be d2 00 12 be
       1.292106 0.10217481 -0.46599472 -0.14258125
000090 09 e6 69 3f c3 b6 02 c0 89 b4 5d bd 76 c2 a9 be
       0.9136663 -2.042405 -0.05412725 -0.33156174
0000a0 b8 9b 8c 3e c8 a8 d2 3f cd 5d a2 3e 19 3c 52 3e
       0.27462554 1.6457758 0.3171219 0.20530738
0000b0 7c 5d a0 bf 7d 06 4a bf 00 4c ac 3e 7a 29 b4 bf
       -1.2528529 -0.7891615 0.33651733 -1.4075158
0000c0 44 ec 45 3e d6 50 f2 3e 82 e8 55 3d a7 4b 0b 3d
       0.1932841 0.47327298 0.05222369 0.034007695
0000d0 11 48 a8 3f 37 7f 44 3e d5 ad e9 bf 2e 32 0c bf
       1.3146993 0.19189154 -1.8256174 -0.5476407
0000e0 32 3c 94 bf c2 b6 80 bf dc 02 75 bf bf b6 73 bc
       -1.158087 -1.0055773 -0.9570749 -0.014875113
0000f0 6f 1e ab 3e 2b ce 06 be 7d a1 f6 3f 6d ec 25 3f
       0.33421656 -0.13164584 1.9268032 0.6481388
000100 a9 33 2b 3f a9 2a f2 3e a5 c7 f7 bd e8 70 df 3d
       0.668757 0.47298172 -0.12098626 0.10910207
000110 b8 0b 1a 40 8a f0 b1 be ea 63 0c bf 7a ae 11 bf
       2.4069653 -0.3475383 -0.54839957 -0.56906855
000120 c9 54 26 3f c3 82 91 3f aa a3 68 3d 60 f2 0c 3f
       0.6497312 1.136803 0.056796707 0.55057335
000130 45 35 37 3f 43 c3 dc bf e4 7a 9d 3f 4f 09 f6 3d
       0.7156566 -1.7247089 1.2303128 0.12013494
000140 bf d7 54 bf cc 49 81 bf 6b d3 81 be 62 e9 ea bf
       -0.831417 -1.0100646 -0.25356612 -1.8352473
000150 13 d3 84 bf b0 e9 8a be c7 1e 0c 3e f3 66 cc be
       -1.0376915 -0.27131414 0.13683616 -0.39922294
000160 88 35 ed bf 6c e4 4b 3e 20 aa ac bd 14 ef bf 3f
       -1.8531961 0.19911355 -0.08430886 1.4994836
000170 ff 84 0c 40 44 24 8a bf bc 0c fd be ef 2f 31 bf
       2.1956174 -1.0792317 -0.49423778 -0.69213766
000180 a0 fc d8 bf 05 b9 ba 3f 42 22 87 be da 51 15 bf
       -1.6952095 1.4587713 -0.26393324 -0.5832802
000190 a6 bc a4 be 26 e7 39 bf 57 28 d1 be 77 7b 53 3f
       -0.32175177 -0.7261833 -0.4085109 0.8261027
0001a0 60 1a 1d 3f b1 70 e3 be fe e3 bf bf 96 00 21 3f
       0.6136837 -0.44421914 -1.4991453 0.6289152
0001b0 9c 1f a9 3e ec 06 30 bf 8d 45 85 3d 92 95 25 bf
       0.3303193 -0.6876056 0.065074064 -0.6468135
0001c0 20 80 ad bf cf e6 8b 3f de cf 1d bf d2 95 f4 3e
       -1.3554726 1.0929812 -0.61645305 0.47770554
0001d0 39 b9 c7 bd 43 b6 a0 3f 8f 06 da 3e 41 e4 38 bf
       -0.09752125 1.2555622 0.4258313 -0.7222329
0001e0 51 84 f8 3e a7 9b 7b 3f 60 1c 97 3f 1a 5b 0b 3f
       0.4853845 0.9828438 1.1805534 0.54435885
0001f0 b1 22 ed be 6e 49 a8 bf 2a 14 27 3f 6e 3a 17 3f
       -0.4631553 -1.3147409 0.6526514 0.5907353
000200 64 cc 9f 3e 55 c7 13 bf e7 d5 29 bf 5f d8 91 bf
       0.31210625 -0.5772603 -0.66342014 -1.1394156
000210 91 71 bc 3f f9 71 cb be 06 29 68 bf 7d a9 d5 3f
       1.4722158 -0.39735392 -0.90687597 1.6692349
000220 4d 67 be 3f 67 b8 39 3f 4d 32 93 be 25 1d 44 bf
       1.4875275 0.72547 -0.28749314 -0.7660697
000230 8e 25 57 bf 34 6b 7a be bc 4b 44 3f da 75 08 3f
       -0.8404168 -0.24454957 0.7667806 0.5330483
000240 51 e5 fa be 22 12 3b 3f ad 1a ad bd 9f 1f 23 be
       -0.4900308 0.73074543 -0.084523536 -0.15930031
000250 30 1b ed 3e f2 f0 22 bf 77 ff d2 3e 07 f8 fe be
       0.46309805 -0.63648903 0.4121053 -0.49798605
000260 38 61 0a 3f 7f 7c ff be e2 08 16 3f 69 69 d7 3e
       0.54054594 -0.4989967 0.58607304 0.4207261
000270 d6 8a 53 3f c9 c5 0d be dc e2 c6 3d 49 28 b3 bf
       0.8263372 -0.1384498 0.09711239 -1.3996669
000280 d7 43 60 be 80 aa 03 bf 85 be 88 be f7 35 80 3e
       -0.21900879 -0.5143204 -0.26707855 0.25041172
000290 b7 b6 0e bf 73 b9 18 3f 2e 79 93 3d ef 0f cc 3f
       -0.5574755 0.59657973 0.072008476 1.5942363
0002a0 0d 49 0a 3e 3f 51 5b 3f 49 79 bd be 15 77 8b 3f
       0.13504429 0.85670847 -0.37006596 1.0895716
0002b0 69 7b 24 3e 71 91 49 3f 50 e9 35 3f fa cb ea be
       0.16062702 0.7873755 0.7105913 -0.45858747
0002c0 06 b0 b2 bf 02 43 6a 3e aa b7 b2 3e 47 30 b4 be
       -1.3959968 0.22877124 0.3490575 -0.35193083
0002d0 89 b0 69 bf f0 65 87 bf 9e 81 a8 bf 48 9f ca bf
       -0.91284996 -1.0577984 -1.3164556 -1.5829859
0002e0 b9 aa 9c 3f 2f d0 6d bd be 1d a2 3e 93 ea 90 bf
       1.22396 -0.058059867 0.31663316 -1.1321586
0002f0 c4 8a b6 bf b2 81 16 bd 78 27 85 3f 88 1b 61 bf
       -1.4261098 -0.03674478 1.040267 -0.87932634
000300 ea 41 76 3f aa fc ad bf 37 26 72 3d 29 32 42 3f
       0.96194327 -1.3592732 0.059118476 0.7585779
000310 35 51 8a 3f 4c bb d2 3e 4a 1f 20 be b3 31 8c 3f
       1.0806032 0.4115852 -0.15636936 1.0952667
000320 49 3a 33 3f 88 22 88 bf 0d 74 01 3e 7b 62 07 3f
       0.7001081 -1.0635538 0.12641926 0.52884644
000330 56 5f b6 3f 01 25 06 bf 0d 65 7d bf f8 53 a0 3f
       1.4247844 -0.52400213 -0.98982316 1.2525625
000340 73 53 47 be 47 98 8d 3f 16 4f 16 bf c0 1a 17 3f
       -0.19465427 1.1062096 -0.58714426 0.5902519
000350 8e ae 78 3f cf a7 d1 3f 8b 29 0d bf a9 f6 49 3f
       0.9714135 1.6379336 -0.55141515 0.78892
000360 6d ed 3b bf 22 de ec 3f 31 85 a6 bf ff 82 09 bd
       -0.7340916 1.850529 -1.3009397 -0.033572193
000370 a6 e5 ac bf 7e 71 a4 be 95 ed 35 3f ad 0b be bf
       -1.3507583 -0.32117838 0.71065646 -1.4847313
000380 e5 c4 44 be 60 4b a9 be 53 64 b1 be 24 4e 30 3e
       -0.19215734 -0.3306532 -0.34646854 0.17217308
000390 73 ee 1d 3f 64 f5 b5 3f bf 89 40 bf 46 6e 94 3e
       0.6169197 1.4215512 -0.75210184 0.28990382
0003a0 89 7f 6e 3f 53 b8 c2 bf df f8 18 bd fa f6 af 3e
       0.93163353 -1.5212501 -0.037346717 0.34368116
0003b0 02 00 69 bf 72 c0 b8 3f 7f e8 3d bf 40 44 44 3f
       -0.91015637 1.443373 -0.74182886 0.7666664
0003c0 26 0a c3 3e 9b 1d e2 3d e9 58 89 3f 39 0a 30 3f
       0.3809368 0.11040803 1.0730258 0.687656
0003d0 5a 5a f1 bf e0 d5 24 3f 41 50 2e 3f a9 38 b0 3e
       -1.8855698 0.6438885 0.6809121 0.34418228
0003e0 ae 7a 96 be 21 41 73 bf d8 95 ec be ee af af bc
       -0.29390472 -0.95021254 -0.46208072 -0.021446194
0003f0 ff 0e 51 3e 0f 0e 81 3f 1a ee 9d 3e 33 10 4e 3f
       0.20415877 1.0082415 0.3084572 0.8049347

weight f4 [4, 32]
000000 f3 61 13 bf 73 4e 21 bf 6b a5 18 c0 1a e9 5a 3e
       -0.57571334 -0.6301033 -2.3850963 0.21377984
000010 91 22 1b 3f 47 0c cb bf 3d a8 55 3c 81 aa 09 bf
       0.6059962 -1.5863122 0.013040599 -0.53775793
000020 19 73 47 bf 76 16 66 3f 3d 13 7a 3e aa 49 db 3f
       -0.7791 0.8987802 0.24421401 1.7131855
000030 3c 8f c7 bf b8 0c 43 3f 76 7f 74 be d4 e7 03 3f
       -1.5590587 0.7619128 -0.23876747 0.51525617
000040 8f cd f7 3e 43 50 91 3d e1 65 b2 3f 72 9e bc 3e
       0.48399016 0.07095387 1.3937341 0.36839634
000050 14 27 9b 3e 2a 39 ba 3e 13 e8 09 bf be 6d 6a be
       0.30303252 0.36371738 -0.5386974 -0.22893426
000060 ea f6 18 3f d2 18 63 bf e0 79 fe be af 41 b7 3d
       0.5975176 -0.8870975 -0.49702358 0.08948075
000070 3c aa 46 bf 64 fd ab bf c0 f9 b1 3f b6 19 bc 3e
       -0.7760351 -1.3436704 1.3904343 0.36738366
000080 3b 25 45 3e 2e 37 34 3f 4f 37 dc 3d 02 06 c8 bf
       0.19252484 0.703967 0.10752737 -1.5626833
000090 47 db 89 3e 85 fb 9a 3e b5 25 e5 be a6 3c 16 bf
       0.26925108 0.3027002 -0.4475533 -0.5868629
0000a0 31 ee 0e be 40 88 f6 3f a0 79 73 be 99 0e de be
       -0.1395805 1.926033 -0.23776865 -0.43370512
0000b0 d3 a1 a4 3e b6 06 88 bf b6 4b 8f 3c a8 8c 84 3e
       0.32154712 -1.0627048 0.017492156 0.25888562
0000c0 69 12 6f 3f 57 e1 47 3f 73 9f 73 3e fb 17 11 c0
       0.93387467 0.78078216 0.23791294 -2.2670887
0000d0 d9 20 aa 3f f9 a8 84 bf ee ab bf 3f 3e eb 6c bc
       1.3291274 -1.0364066 1.4974344 -0.014460383
0000e0 21 e9 a2 3b e5 c7 5f 3f bc d8 8b bf d1 a5 09 bf
       0.004971639 0.8741439 -1.0925517 -0.5376864
0000f0 dd 32 84 be ad 7a a8 bf b4 c9 22 bf fd 1b f5 3e
       -0.25820056 -1.3162438 -0.63589025 0.47872916
000100 a9 a1 bb 3f e1 ae b5 3f ce f6 0b c0 52 e1 4c bf
       1.465871 1.4193994 -2.1869388 -0.8003131
000110 16 98 97 3f 91 37 50 bf 16 a6 07 3f 12 6f 10 3f
       1.1843288 -0.8133479 0.529878 0.5641948
000120 08 1e f7 be 92 df 59 bf a2 a9 37 3f e3 e5 f1 3e
       -0.482651 -0.85106766 0.71743214 0.47245702
000130 94 65 c4 bd d8 8d fa 3e 52 04 9e 3f ba 9c 4c 3f
       -0.09589687 0.48936343 1.2345068 0.79926646
000140 40 43 47 3e 30 5d 9f 3d a5 18 7e 3f 8e 15 cb be
       0.19459248 0.07781446 0.99256355 -0.39664882
000150 b0 d1 48 3f ab 95 0a 40 c5 51 d7 be d7 6c 99 be
       0.7844496 2.165385 -0.42054573 -0.2996585
000160 a6 a6 01 3f ed 42 38 3f 55 7d a3 bf b5 5e 2c bd
       0.5064491 0.7197712 -1.2772623 -0.042082507
000170 0e 98 5a c0 8c 9c 40 bf 46 b3 e2 be 0d f1 8a 3c
       -3.4155307 -0.7523887 -0.442774 0.016960645
000180 98 e4 44 3d f2 92 3f 3e 80 17 f3 be ab 07 c5 3f
       0.048069566 0.18708399 -0.47478867 1.5392965
000190 7b 96 69 3e 6b 34 64 3f fa d9 8c be 36 dc aa 3f
       0.2281131 0.89142483 -0.27510053 1.3348453
0001a0 6c 12 8f be ed 7e 6e 3f e8 bd 9c bf 12 10 60 3f
       -0.27943742 0.93162423 -1.2245455 0.8752452
0001b0 0a 72 95 3f cd c8 8a be bf 94 a8 3d b2 4f 8c be
       1.1675427 -0.27106324 0.08231496 -0.27404553
0001c0 95 f6 ae bf 7a 52 83 3f a8 5f ad bf d7 93 7f bf
       -1.3669001 1.0259545 -1.3544817 -0.9983496
0001d0 65 f2 3c bf 6b a8 35 3f c9 3a e1 bd ba a9 57 be
       -0.73807365 0.7096011 -0.109975405 -0.2106084
0001e0 b1 f8 69 3f c4 fb ba 3e eb 5f 53 bf 22 ff 50 bf
       0.913951 0.36520207 -0.82568234 -0.816393
0001f0 cd 7b 91 3f f1 75 18 bf 90 33 60 bf 6c 5a 18 3f
       1.1365906 -0.59554964 -0.8757868 0.5951297

in_proj_weight f4 [96, 32]
000000 84 53 b7 be c0 d1 42 3d 3e 7b 3b 3e cd 98 b6 3d
       -0.35805905 0.047563314 0.18308732 0.08915863
000010 02 63 1a be 72 f8 15 bd e0 a5 0a be 5c 13 34 3d
       -0.15076831 -0.03661389 -0.13539839 0.043963775
000020 bb 91 0d 3d 3b 8c 7e 3e 30 00 34 bd 70 ba 4d be
       0.034562808 0.24858181 -0.04394549 -0.20090652
000030 09 89 4f 3d d8 a5 ea bd dc f6 99 3d 8b 83 1d 3c
       0.050667796 -0.114574134 0.07517788 0.009613882
000040 24 94 0e 3b d7 a4 e9 3c f0 26 38 bd ab e2 84 3b
       0.002175578 0.028520985 -0.04495901 0.0040553412
000050 71 67 bf 3d d5 21 1b be e9 81 fa 3d 4a ff 85 3c
       0.09345902 -0.15149625 0.1223181 0.016357083
000060 e9 e7 a7 3d 52 20 cd be e3 f0 22 3e 8f 22 e9 bd
       0.0819853 -0.4006372 0.15912203 -0.11383545
000070 5c 3e 8e 3e 4d cb 2e 3d b7 66 6a 3c af 98 f1 bd
       0.2778195 0.04267435 0.014306716 -0.117967
000080 21 e7 12 bd 20 96 d0 be bf e0 89 3e f8 63 a0 bc
       -0.035864953 -0.40739536 0.2692928 -0.019578919
000090 6e b7 41 be 70 35 34 be c7 6f b5 bd cc 1c 47 3e
       -0.18917629 -0.1759851 -0.088592105 0.19444579
0000a0 af b0 2d 3e e1 ed 72 be c9 9f 7e 3d 6b 0d 82 bb
       0.1696193 -0.23723556 0.0621641 -0.0039688847
0000b0 62 dc 0b 3e 5a c6 be 3d 17 49 6d bc a8 32 3d 3e
       0.13658288 0.09315176 -0.014482758 0.18476355
0000c0 63 4a 07 3e 54 83 ad be 8d 2e 63 3e 9a 58 4e 3d
       0.1321197 -0.33889258 0.22185726 0.050377466
0000d0 f7 38 39 bd dc 68 51 be 81 cf a1 bd 83 bb 84 bd
       -0.04522034 -0.20450157 -0.07900906 -0.064810775
0000e0 5c 8b fb bd ae f9 a4 3e 07 72 f9 3b 02 86 9e be
       -0.1228244 0.3222174 0.00761247 -0.30961615
0000f0 b5 26 5f 3e cc df 28 3d 16 81 8c 3e 54 e3 a4 3c
       0.2179211 0.041229054 0.27442235 0.02012793
000100 85 1a 72 bc 4e 1b fa 3d 6f 99 9a 3d 85 8d a6 3d
       -0.014776831 0.12212239 0.075487964 0.081324615
000110 11 0f 81 3e a2 fe a0 bc 4a 9d b8 3d e6 4f 2e 3e
       0.25206807 -0.019652668 0.090143755 0.17022666
000120 68 60 31 3e ba 9b 93 be 2f 8f af 3c 49 4d 04 3e
       0.17321932 -0.28829747 0.02143058 0.12920107
000130 8d ec 8f 3e e9 38 f7 3d dc 14 3d be 8f 25 49 3e
       0.2811016 0.120714016 -0.18464988 0.19643234
000140 84 6f 72 3d a6 21 2c be 26 2b a8 3d 2f 7a 99 3e
       0.05918838 -0.16809711 0.08211355 0.2997603
000150 d9 ef 34 3e 04 0c 89 3e 84 ef cb bd 53 36 cc be
       0.1766962 0.2676698 -0.09957793 -0.39885196
000160 b8 8e 0c be a5 b3 97 3e 94 37 07 3d 55 7a fa bd
       -0.13726318 0.29629245 0.033011988 -0.12230364
000170 99 b9 f5 bd a5 76 3f bd 59 ae a2 3d 63 43 cb 3d
       -0.119982906 -0.046744008 0.079434104 0.09924962
000180 49 24 14 3e 72 98 98 be 82 ee 99 3d a1 35 90 3e
       0.14466967 -0.29803807 0.07516195 0.28165916
000190 84 5d 29 bd ca 30 d4 3b 04 5c db bd 35 60 8c be
       -0.04134895 0.0064755427 -0.1071091 -0.2741715
0001a0 9c 4d a1 3c 1b b9 23 3e db 47 0b be 89 bd d9 3d
       0.019690327 0.15988581 -0.1360163 0.10631854
0001b0 36 0f 04 be 3c 8e 5f be 59 a8 8c 3c a7 fb 3b 3e
       -0.12896428 -0.21831602 0.017170118 0.18357717
0001c0 52 c0 8b 3d da f1 51 be 3e 52 9b bd 2e b7 b3 bc
       0.068237916 -0.20502415 -0.07584046 -0.021937933
0001d0 a7 a1 93 3d 66 86 aa 3d 00 c5 53 3e 48 fe 02 be
       0.07208567 0.08326416 0.20680618 -0.12792313
0001e0 03 8c 5c be 67 68 b7 3e 0d cc 18 3e d2 72 ac bd
       -0.21537785 0.3582184 0.14921589 -0.08420338
0001f0 fe be 9e 3d 49 76 8c be 7e 25 28 3e 6e 72 76 be
       0.077512726 -0.27433994 0.16420552 -0.24067089
000200 24 b5 27 be d3 bb 37 3e c8 15 d6 bd 25 06 34 3d
       -0.16377693 0.17942743 -0.10453373 0.043951172
000210 75 ba d3 3d da 1c 5d 3e c4 ac 81 3e c6 f4 58 3e
       0.10338298 0.21593037 0.25327122 0.21187124
000220 b1 15 9f be 63 03 5d be 17 6b 2c 3e 01 e2 b9 be
       -0.31071237 -0.21583323 0.16837727 -0.3630524
000230 40 d3 26 3d 1d 92 b8 3c 7e 26 3f 3c 20 c3 33 be
       0.040728807 0.02253061 0.011666892 -0.17554903
000240 f2 29 d6 3d ef 94 0f 3e b8 b8 0e 3e 2e e4 8b be
       0.10457219 0.14021657 0.13937652 -0.27322525
000250 cc 21 00 be c1 68 52 3e 5f 07 f7 bc 0d 1e ca 3d
       -0.12512892 0.20547773 -0.030154882 0.09869013
000260 17 92 d7 3d e4 f9 3a be 79 c8 89 bd 95 1b c7 bd
       0.10525911 -0.18259388 -0.0672769 -0.09722058
000270 80 02 b4 3c d9 8a 43 be 8a a1 4d be 1d 9f 81 3e
       0.021973848 -0.19095935 -0.20081154 0.25316706
000280 b3 46 01 3e 5e 2e 80 3e 60 6f 30 be 9c c9 30 3d
       0.12624626 0.25035375 -0.17229986 0.04316102
000290 dd 29 8c 3e b6 27 ff 3b b0 d8 11 3d 51 b8 95 bc
       0.2737569 0.0077867163 0.03560704 -0.018276365
0002a0 2b 77 a1 bc 82 16 9b 3d d6 e9 4c 3e 44 f3 ba 3d
       -0.019710144 0.075726524 0.20011076 0.091284305
0002b0 62 1e 3e bd 3f 7f a7 bb 19 e0 f2 3c 95 0a 00 3e
       -0.046415694 -0.0051116045 0.029647874 0.12504037
0002c0 79 1e 31 3e e2 3d 37 3d b3 c8 18 bd 8c aa 40 3d
       0.1729678 0.04473675 -0.037300777 0.047037646
0002d0 b3 16 90 3e c6 d0 cd bd d4 b3 5d be c2 89 85 3d
       0.28142318 -0.10049586 -0.2165063 0.06520416
0002e0 bf f3 86 bd d0 47 c2 bd 73 b1 2c be ae 04 57 3e
       -0.0658946 -0.094863534 -0.16864567 0.20997879
0002f0 13 a6 a2 be ce fb d5 bd 0a 51 46 3c 03 ae 82 be
       -0.3176733 -0.104484186 0.012104282 -0.25523385
000300 4f b5 78 3d f3 cc 1a 3d 88 80 11 3e f7 27 b7 bd
       0.060719784 0.03779311 0.14209187 -0.089431696
000310 f2 31 b1 3d 54 04 72 bd ae 55 52 be 50 4b 08 be
       0.086521044 -0.05908616 -0.20540497 -0.1330998
000320 24 1d 4a 3e a6 0f 1e be 6f b7 90 bd 2e a2 a2 3d
       0.19737679 -0.15435657 -0.07066237 0.079410896
000330 cd 8a a1 bd 21 8d 03 be 16 5e 78 be e6 bb 88 3e
       -0.07887802 -0.12846805 -0.24254641 0.26705855
000340 98 55 55 bd 68 d4 38 be ac a8 26 3e 68 5a 48 bd
       -0.05208358 -0.18049777 0.1627528 -0.048914343
000350 57 82 80 be 8b fe 39 be ad 72 f5 3d c6 d2 6b be
       -0.2509944 -0.18163507 0.11984763 -0.23029622
000360 4b 07 03 be d3 31 70 3d 15 db 3d 3e 1c 05 d2 bd
       -0.12795751 0.058641266 0.18540604 -0.10254881
000370 ea 53 5b 3d 55 49 79 be 50 d7 1c bd 47 94 25 3e
       0.053546824 -0.2434438 -0.038291276 0.16169845
000380 66 4d d2 bd 86 94 81 bd ec 92 42 3d 47 f6 b9 bb
       -0.10268669 -0.06327157 0.047503397 -0.0056751105
000390 c6 0b 0e bd 5d 6e d9 3b c0 74 ea 3d 9b be 0a be
       -0.034679197 0.006635471 0.114480495 -0.13549273
0003a0 25 41 6c 3e 21 3a 05 3e 9e 87 e2 bc 1c b3 4d 3b
       0.23071726 0.13010456 -0.027652558 0.0031387275
0003b0 62 93 24 bd ac 33 85 be cb ed 63 be 31 6b a8 3d
       -0.040179618 -0.26015985 -0.2225868 0.0822357
0003c0 e9 1a c4 3a 4b 27 27 bd ae 73 3f 3d 90 cb 66 3e
       0.0014961633 -0.040808957 0.04674118 0.2253859
0003d0 0e 53 4c be 5f e7 1f be 79 56 6e be b3 4b ab 3c
       -0.19953558 -0.15615605 -0.23275174 0.02091012
0003e0 0b 2d 00 be 35 75 ff 3d 67 82 97 3e cd 0d b7 3d
       -0.12517183 0.12473527 0.29591677 0.08938179
0003f0 54 24 12 3e fd 0d 11 3d 29 06 e0 3c 9a fa 4a be
       0.1427167 0.03541373 0.027346687 -0.1982216

in_proj_bias f4 [96]
000000 06 08 80 3d ba 22 62 be 10 4f 08 3d 1b f2 48 be
       0.0625153 -0.2208356 0.033278525 -0.19623606
000010 f9 c3 4c 3e c2 09 e0 3d 60 e1 02 be 43 ff 30 be
       0.19996633 0.10939361 -0.12781286 -0.17284875
000020 56 63 e2 bd d7 08 00 bd e5 89 78 3e 34 49 0a 3e
       -0.11054103 -0.03125843 0.24271353 0.13504487
000030 78 32 af bd c2 9a fe 3d f9 d7 88 bd 3f cf a5 bd
       -0.08554548 0.124318615 -0.066818185 -0.0809617
000040 51 e4 05 be c7 4d d0 bd 82 a3 09 be 12 8c 04 be
       -0.13075377 -0.10171085 -0.1344128 -0.12944058
000050 6d c2 ec 3d 87 f6 12 3e 6e f4 1e be b9 25 06 bd
       0.11560521 0.14351855 -0.1552293 -0.03275082
000060 94 75 41 3e 4d 1b 37 be 84 c3 08 be 20 1d 57 be
       0.18892509 -0.17881508 -0.13355833 -0.21007204
000070 33 47 34 be 9e ad d5 3d ec 26 bd 3d 34 27 4b 3e
       -0.17605285 0.104335055 0.092359394 0.19839174
000080 de 11 12 b8 87 5a c1 b7 a8 b3 0c 38 d0 2f 05 b9
       -3.4825753e-05 -2.3049548e-05 3.354592e-05 -0.0001270168
000090 9a d1 38 38 c4 5a cb 38 d7 b1 2d b9 7f 5f ad b9
       4.4064225e-05 9.696701e-05 -0.00016564816 -0.00033068281
0000a0 53 da 5e 39 eb d7 cb 38 93 24 8b b9 9d 28 dd b8
       0.00021252902 9.720012e-05 -0.00026539396 -0.00010545666
0000b0 77 34 b0 b8 aa 99 32 38 d1 d0 df b8 7a d1 e2 b7
       -8.402106e-05 4.2581618e-05 -0.00010672364 -2.7038845e-05
0000c0 4f 33 7a b8 1c e8 51 b9 c8 06 9c b8 26 ff ab b9
       -5.965243e-05 -0.0002001826 -7.439923e-05 -0.00032805762
0000d0 c2 39 7f b8 51 35 07 39 84 3b 62 b9 78 84 9d 38
       -6.085053e-05 0.00012894465 -0.00021575211 7.5110176e-05
0000e0 58 b0 2e b7 0d de 0a 39 9c 6d 34 b9 af 5a 84 39
       -1.0412266e-05 0.00013243426 -0.0001720697 0.00025244566
0000f0 87 64 dd 39 a8 e0 17 b9 ea d2 22 37 c3 94 62 b9
       0.00042227303 -0.00014484173 9.70506e-06 -0.00021608458
000100 78 ab 32 bc 1b b2 c7 3c 6a b2 0f 3d 27 62 dc bc
       -0.010905139 0.02437692 0.03508226 -0.026902271
000110 a4 23 28 bc a3 1f 06 bc 5a f7 1f 3c 22 ad 2a 3d
       -0.010262404 -0.008186254 0.009763563 0.04166902
000120 52 6d e1 3b 19 ca 7c bc 99 2d fd 3c f5 75 d5 bb
       0.006879487 -0.015429043 0.030905532 -0.0065143057
000130 f9 be ad bc d5 01 1c 3d 2e 3a f9 bb 31 eb 03 3d
       -0.021209227 0.038087685 -0.0076058125 0.032206718
000140 3a f5 b7 3b 06 c1 1f bc 68 79 8f bc 57 bf 6d 3a
       0.00561395 -0.00975061 -0.017513946 0.00090693444
000150 33 3d 27 bd 09 44 92 ba ba d4 e0 3c 69 d2 aa 3b
       -0.04082985 -0.0011159192 0.027445186 0.005213071
000160 de 61 3c bc 35 56 3b 3b f7 ba ba 3c 69 9d fe 3b
       -0.011497943 0.002858532 0.02279423 0.0077702296
000170 49 1b de 3b 91 10 e7 bc d0 8f c0 3c 48 44 86 3c
       0.006778155 -0.028206142 0.023506075 0.01638998

weight f4 [32, 32]
000000 d7 e1 74 3e fb 5f de 3c 91 1a 09 3e e8 8f 95 3e
       0.23914276 0.027145376 0.1338904 0.29211354
000010 2a 42 eb bc 26 82 40 bd 15 6c ac 3e 0a ae 32 be
       -0.028718073 -0.04699912 0.3367621 -0.17449203
000020 11 51 84 bd a4 07 1b be 05 b4 54 bd 1e 32 d8 bd
       -0.06460775 -0.15139633 -0.051929493 -0.10556434
000030 44 b2 3e 3e 96 68 9f be 09 81 36 bc e3 57 7d 3e
       0.1862269 -0.3113448 -0.011139163 0.24740557
000040 91 6a 61 3d 94 a4 bb 3d c1 90 cd be d8 ff 44 be
       0.05503327 0.0916225 -0.401495 -0.19238222
000050 06 6d b8 bd ab 34 37 3e df 22 56 be d2 ee 15 3e
       -0.090051696 0.17891185 -0.2091174 0.14641884
000060 48 e2 75 3e 30 10 03 be cf f0 79 be cc 77 e1 ba
       0.240121 -0.12799144 -0.24408267 -0.001720184
000070 b3 fe 7f 3d 01 9f 3e be 10 13 a6 3d 01 53 8a be
       0.06249876 -0.18615343 0.08109105 -0.27016452
000080 c1 91 9a be 32 5f 6e bc 20 18 92 3d 22 80 f2 3c
       -0.30189326 -0.0145490635 0.07133508 0.029602114
000090 75 63 70 3e 40 30 3d 3d 4e 25 0a 3c ee ae b3 3e
       0.2347544 0.046188593 0.008431746 0.35094398
0000a0 cd 7b 5f 3d b8 a5 c0 3d 5c 8b f9 bd 25 40 90 3e
       0.054561425 0.09406608 -0.12184784 0.28173938
0000b0 66 b9 27 3e 7b 83 d8 3d 87 d3 e7 3b 39 4b 86 be
       0.16379318 0.10571953 0.0070747766 -0.26229265
0000c0 af b5 25 3d 9c 9c f6 bd a7 99 8c be 2b b9 86 3e
       0.04045647 -0.120415896 -0.27460977 0.26313147
0000d0 07 d7 d4 3d 62 50 24 3e 29 75 83 bd 97 1b 83 3e
       0.10392576 0.16046289 -0.06418831 0.25606987
0000e0 9c 6d 93 3e 78 76 6e bd 8a 48 c3 3e 8d 4a 89 be
       0.28794563 -0.05821845 0.3814128 -0.2681469
0000f0 76 06 98 bd a9 5d 20 3e ca 98 48 3e 02 40 7c 3e
       -0.07423107 0.15660729 0.19589534 0.24633792
000100 fb 05 e5 bd 2a c4 2c 3e c2 0a 0c be 1a e2 2a 3e
       -0.11182781 0.16871706 -0.13675979 0.16687813
000110 6a cc 25 be 95 dc a4 be 72 62 be be 10 35 2c 3e
       -0.16191259 -0.3219954 -0.37184483 0.16817117
000120 c5 44 49 3e 7e cb 7f be 92 7a 92 be ac a4 fd bd
       0.1965514 -0.2497997 -0.2860914 -0.12384924
000130 09 4a b0 3e c1 c4 19 3d 94 a1 ef 3d 18 86 8e be
       0.34431484 0.037541155 0.117007405 -0.2783668
000140 8e 22 07 be df 57 ca 3d 99 f6 aa 3c f5 4c 0d 3e
       -0.13196775 0.09880041 0.02086954 0.13798888
000150 6b 66 88 bd 0b fb 39 bd cc b3 5a bc 8b 75 54 3e
       -0.0666016 -0.04540543 -0.013348531 0.20747964
000160 8a dd 9f be 14 3d 92 3e 76 c0 81 3e cf 6e 83 3e
       -0.31223708 0.28562224 0.2534215 0.25670478
000170 d7 0a 15 3e 4a df d8 3e 3e f3 81 3e 40 82 21 be
       0.14554916 0.42357856 0.25380892 -0.15772343
000180 40 fa 75 3e 3e 3d bc be 0d 83 d0 3d da ce 25 3e
       0.24021244 -0.36765474 0.10181246 0.16192189
000190 31 93 96 3d 7e 4a 6d 3e 7e 9c 57 3e 15 59 84 3d
       0.07352293 0.23172948 0.21055791 0.064623035
0001a0 98 48 f8 be 58 93 98 be 6b e4 63 be 21 00 61 be
       -0.48492885 -0.29799914 -0.22255103 -0.21972705
0001b0 18 d4 84 3e be 7f 48 3e 66 1f c3 be c1 2d 8a bd
       0.25943065 0.1957998 -0.38109893 -0.06747008
0001c0 48 7a bc be 22 42 2a be 19 28 82 3d 86 21 36 3c
       -0.36812043 -0.1662679 0.06355304 0.011116391
0001d0 22 a8 a7 3e 27 63 45 be 4c 24 2b 3e a8 e3 5d be
       0.32745463 -0.19276105 0.16713065 -0.21668875
0001e0 6a 56 85 be 78 bb b2 3d dc e3 32 3e 5b 27 51 3d
       -0.2604249 0.08727163 0.17469734 0.051062923
0001f0 07 b5 32 3e 3c 05 06 3e d8 f1 f9 3d 98 0c 32 be
       0.17451869 0.13087934 0.12204331 -0.17387617
000200 7c c4 0b 3e 9f b4 63 be 64 6b ca 3d 3e 67 27 3e
       0.13649172 -0.2223687 0.098837644 0.16347978
000210 33 8f d0 3e be de 4d bd 29 37 34 be 9b 51 5d be
       0.40734252 -0.05026125 -0.17599167 -0.21613161
000220 a8 1a 8a bd 2f 74 0d 3e 1a fe b7 3a 61 6c 4c be
       -0.067433655 0.13813852 0.001403752 -0.19963218
000230 66 7c 59 3e a9 ea 93 3e de c1 ad 3e 4f 61 f4 bd
       0.2123886 0.2888997 0.3393697 -0.11932623
000240 94 19 bb bc cf 44 f0 3e 00 e6 af be 05 11 0d be
       -0.022839345 0.46927497 -0.34355164 -0.13776024
000250 ff 43 b4 be ef 6c 54 be 41 6e 73 be 86 a7 9e bd
       -0.35208127 -0.2074468 -0.23772527 -0.07746796
000260 f6 32 f9 bc 27 34 a6 3e 8f 6e c2 be 40 d9 8e 3e
       -0.030419808 0.32461664 -0.37974975 0.27900124
000270 8d a8 25 3e 1d 24 fb 3b e5 16 42 bd 84 fb 98 3e
       0.16177578 0.007664217 -0.047385115 0.2987939
000280 0a b7 cf 3d ce 8d 5f be e3 49 1b 3e e1 39 c3 bd
       0.10142334 -0.21831438 0.15164904 -0.09532524
000290 84 90 78 bd 25 16 b8 bd 35 df 13 be 7e c5 c0 bd
       -0.060684696 -0.08988599 -0.14440615 -0.09412669
0002a0 18 33 fa be cd dd 40 be 3d ee 95 3c d7 e4 1c be
       -0.48867106 -0.1883461 0.018302077 -0.1532167
0002b0 09 53 a6 be 41 a6 42 bd d9 72 7b be a3 94 1e be
       -0.32485226 -0.047521833 -0.2455553 -0.15486388
0002c0 fb f5 2e 3e e0 ee 05 be e3 1f d4 bd ba 4e 80 be
       0.17086022 -0.13079405 -0.103576444 -0.25060064
0002d0 a8 a8 c0 3e c9 a5 4a be 48 c6 c6 3d fe 0f c0 be
       0.37628675 -0.19789805 0.09705788 -0.375122
0002e0 97 50 00 be f4 72 c2 be fc 37 34 3e 5c 41 96 bd
       -0.12530743 -0.37978327 0.17599481 -0.07336685
0002f0 4e 2d d9 bd de 92 af 3c 6c 04 0d 3e 65 31 dc bd
       -0.10604344 0.021432336 0.13771218 -0.10751609
000300 71 9c 08 3c 5f 55 70 be 0d 3b 94 3d 5f c5 06 be
       0.00833808 -0.23470066 0.072378255 -0.13161229
000310 a4 e3 0c bd ad 5a be 3e 72 25 8f 3e c6 43 9c be
       -0.034396783 0.37178555 0.27958256 -0.30520457
000320 6a 95 27 be fd d5 b7 be 0e 6c 27 3d af 60 6f 3e
       -0.1636559 -0.35905448 0.040874533 0.23376726
000330 91 4f f5 3d bd af a9 39 6a 72 f0 bd f0 96 ec 3d
       0.11978067 0.00032365127 -0.11740573 0.115522265
000340 ba 74 33 3e 45 e3 b5 bd 45 0c 9d 3e b9 a1 95 be
       0.17524996 -0.08881239 0.30673423 -0.29224947
000350 d0 a6 ef 3b d4 46 58 be fb db 1c be cf 08 ad bd
       0.007313587 -0.21120769 -0.15318291 -0.08448946
000360 d5 6b 4f 3d 72 ae 57 bd 3b 23 87 3d 88 e8 a4 bd
       0.050639946 -0.0526566 0.065985166 -0.08052164
000370 6b ec af be 7a 93 78 be 94 49 cc 3e c7 ab a2 3e
       -0.3436006 -0.24275008 0.39899886 0.3177168
000380 df cb 9a 3e 1d 54 63 3e c6 08 92 3e 3a 75 9d be
       0.30233666 0.22200055 0.2852232 -0.307535
000390 6d 04 3c 3d 9a cd 0a bd da ec 50 be 28 34 18 be
       0.04590266 -0.033887483 -0.20402852 -0.14863646
0003a0 ef 24 ac 3e eb a1 6f 3e 74 5e 3b be 35 55 60 be
       0.33621928 0.2340161 -0.1829775 -0.21907504
0003b0 3b 13 ae be aa d1 03 be 99 2d ab 3e ea 57 81 bd
       -0.33999047 -0.12872949 0.33433226 -0.063155964
0003c0 1f 31 b3 3e 16 17 5c be aa 97 8e be 17 0e 31 3d
       0.34998414 -0.21493182 -0.27850085 0.043226328
0003d0 ba 27 e4 bc b3 c6 35 3e 25 93 a5 be 21 4f 07 be
       -0.027850974 0.17751579 -0.32338825 -0.13213779
0003e0 52 78 c4 3c 2c ce 19 3d e3 3e 55 bd 4f 09 14 3e
       0.023983154 0.037550136 -0.052061927 0.14456676
0003f0 80 c2 65 be 3a a1 c0 bb ec c7 0e be 9b 5a de be
       -0.22437477 -0.0058785947 -0.13943452 -0.434285

bias f4 [32]
000000 6c 71 08 3d ed 9a c1 bc 2f e9 34 bc 56 b1 7f bc
       0.033311293 -0.023633445 -0.011041923 -0.015606245
000010 9a cc 0c 3a 06 7d d6 bc 18 af 68 3c 28 a0 75 3d
       0.0005371064 -0.026182663 0.014201902 0.05996719
000020 e8 8f e4 bc bd b1 b8 bb d9 bc db 3c 3c ab 2d 3d
       -0.027900651 -0.0056364224 0.026823448 0.04239963
000030 15 3f ff 3c 65 6b 32 3d 04 15 db 3c ff 5c ae bc
       0.03115801 0.04355945 0.02674342 -0.021284578
000040 dd c2 3e bd e8 3e ff bb 98 b1 e9 bc 63 7d 08 bd
       -0.046572555 -0.0077894814 -0.028527066 -0.033322703
000050 3a 8f 32 3c 4c 44 43 3d 1b a9 f7 3c c4 99 c6 3c
       0.010898406 0.047672555 0.030232003 0.024243243
000060 53 c8 89 bc c7 83 e6 bc bf e8 e9 bc 8e 9e 85 bc
       -0.016819155 -0.028139008 -0.028553365 -0.016310956
000070 b1 3b 3e 3c e5 94 8b bd d2 08 23 bd 95 a8 3f 3d
       0.011610911 -0.06815509 -0.039803334 0.04679163

weight f4 [128, 32]
000000 64 b6 2b 3b 64 0e 23 3d 4b c3 a7 bd 7f 5e e5 bd
       0.0026201243 0.039808646 -0.08191546 -0.11199664
000010 fd d5 21 bd be d7 86 be b8 58 f7 3d b9 cb 75 be
       -0.039510716 -0.26336473 0.12077469 -0.24003495
000020 e6 51 50 be 99 d6 1e 3d 1d ec 42 3c ae 96 e2 3c
       -0.20343742 0.038778875 0.011897114 0.02765974
000030 f6 d3 5c 3e e9 07 76 3e 40 34 17 3e 5d 88 c6 3d
       0.21565232 0.24026455 0.14766026 0.09693978
000040 8b c6 88 be 3a 49 c6 3d 32 12 85 bc dd a5 37 be
       -0.26713976 0.096819356 -0.016244028 -0.17934366
000050 4e 12 90 bd 0e 65 ad bd 30 15 82 be 8a a3 d3 bc
       -0.07034741 -0.0846654 -0.2540679 -0.025834817
000060 ba c0 8d 3e 4f 67 d1 3d 8f 57 35 3d 42 7e 5a 3d
       0.276861 0.10224783 0.044272956 0.053343065
000070 6c d2 8b 3d 35 5a 7b 3e aa bb af bd 1b 88 2c 3e
       0.06827244 0.2454613 -0.08580716 0.16848795
000080 94 30 5e be 8f ec ca bd aa 30 b5 3d b3 49 74 3e
       -0.21698219 -0.09908401 0.088471726 0.23856239
000090 8a 17 c2 3d a9 bd 7d 3e e7 39 83 3e 90 96 c3 be
       0.09477146 0.24779381 0.25630113 -0.38200808
0000a0 e6 02 3c 3d d7 45 15 3e fa a2 63 be 20 c3 42 be
       0.0459012 0.14577423 -0.2223014 -0.19019747
0000b0 a0 5b 91 be 82 79 5f 3e 70 47 80 bd 25 85 36 be
       -0.28390217 0.21823695 -0.062636256 -0.17824228
0000c0 ae 91 d3 bd c9 0c 58 be 14 78 17 be 48 d2 4a 3e
       -0.103305206 -0.21098627 -0.147919 0.19806778
0000d0 76 de d3 3d 2c 8b 1d bd 1a 9f e2 3d 5d a2 8b 3d
       0.103451654 -0.038462803 0.110655025 0.06818078
0000e0 f3 dd a4 bd fc 6d c8 bd ef 29 f2 bd 44 39 25 3e
       -0.08050146 -0.09786603 -0.118244044 0.16135126
0000f0 e0 91 a1 bd f5 03 55 3e 5b 73 a3 bd 9d 29 92 bd
       -0.078891516 0.2080229 -0.07980987 -0.07136843
000100 8b 5a 5d bb e2 d8 6d be 75 f0 43 3e a4 f7 80 3e
       -0.0033775892 -0.23227265 0.19134696 0.25188935
000110 15 13 05 bc fe 43 35 3e 5c c5 97 3e 9c 21 e0 3d
       -0.008122225 0.17701718 0.2964276 0.109439105
000120 57 76 cc bd 23 e4 29 be b3 4b 83 3d 12 19 16 bb
       -0.09983509 -0.16590934 0.06410923 -0.0022903127
000130 fe a7 67 3e 03 ff b8 3d ab db 86 3c cf a5 12 bc
       0.22622678 0.090330146 0.016462168 -0.008950665
000140 1a 96 2a 3e ba c1 30 3e 5e 78 bb 3d 5c e0 64 be
       0.16658822 0.17261401 0.091538176 -0.22351211
000150 09 84 a2 bc 47 b3 83 3d 47 1a 13 3d 18 a0 a3 3d
       -0.01983835 0.06430679 0.035913732 0.0798952
000160 8a 26 93 3d d7 f7 9f 3d 47 be 2b 3d 36 93 85 be
       0.07185085 0.078109436 0.04192951 -0.26088876
000170 3d b5 64 3b c2 e9 5a be 2b b3 26 3e 4f c8 09 bc
       0.0034898065 -0.21378234 0.16279285 -0.008409574
000180 51 34 af 3d 36 7c 06 be fc 49 a3 3c 1d 2e 1b be
       0.085549004 -0.1313332 0.01993274 -0.1515431
000190 02 4a 89 bd 90 54 3a 3e cc 84 a1 be 1d 2a 1a be
       -0.06703569 0.1819632 -0.31546628 -0.15055127
0001a0 15 9d 8e 3d df b7 27 be 10 13 c1 bd 6e 3c ea 3d
       0.06963555 -0.16378735 -0.09427464 0.11437307
0001b0 0d 50 a7 39 f7 19 6e be 7d 4e 38 3e 23 60 8d 3e
       0.00031912365 -0.23252092 0.17998691 0.2761241
0001c0 81 51 8b 3d f0 c6 8f be 24 c0 2c 3d 26 d0 14 be
       0.06802655 -0.28081465 0.042175427 -0.14532527
0001d0 68 89 91 bb 22 ed 60 3e 51 49 84 3e 0e 73 ba 3c
       -0.004441429 0.21965459 0.25837186 0.02275994
0001e0 7a 76 33 be d1 7b 0c 3d 15 89 54 bd 62 58 cf bd
       -0.17525664 0.034297768 -0.051888544 -0.101242796
0001f0 e2 96 39 be f1 1f 31 3d 27 b1 66 be 43 5f c0 bd
       -0.18123963 0.043243352 -0.22528516 -0.0939317
000200 35 59 61 bd 26 04 6a bd c9 bb 67 3b 29 0e 4d be
       -0.055016715 -0.057132863 0.0035359731 -0.20024933
000210 5a 55 99 3d 12 b3 c3 3c c2 ea 6c 3e f8 9d 3e 3d
       0.07486983 0.023889098 0.23136428 0.04653737
000220 fc f5 01 be c0 9d 55 be 3e aa 5a bc 08 cc 7b be
       -0.12691492 -0.20860958 -0.013346253 -0.2458955
000230 5f 41 28 3e ff 93 1e 3e 41 5f 85 bd 3e 00 99 be
       0.16431187 0.15486144 -0.06512309 -0.29882997
000240 86 87 b8 3e f6 53 f0 3d 07 ae 85 3e 8d 83 09 bd
       0.36040896 0.11734764 0.26109335 -0.033572722
000250 5d 7d 1e 3d a0 68 e2 3d 85 56 ae 3d b6 02 80 b9
       0.038693774 0.11055112 0.08512596 -0.00024416082
000260 a9 e8 7b bd 2f 7d b9 bc 81 91 8a 3e a8 f0 3a be
       -0.06150118 -0.0226427 0.27064136 -0.18255866
000270 91 63 a5 3c bf 86 3c bd de e6 0c 3e e6 a2 87 3d
       0.020189079 -0.04602694 0.13759944 0.06622867
000280 e9 5f 6c be 12 b8 0a 3e 76 26 18 be cd b0 29 3e
       -0.23083462 0.1354678 -0.14858422 0.1657135
000290 c0 0c d1 bc bc 21 75 3c 12 2b ef 3d ac 44 21 3d
       -0.025518775 0.014961656 0.11678137 0.03937213
0002a0 ce 51 0b 3c a4 a4 3b 3e c9 30 ee 3d 70 d8 72 bd
       0.0085033905 0.18324524 0.11630399 -0.059288442
0002b0 87 f6 bd 3d 82 a6 4b 3e bb 8c 39 bc 49 6c 8b 3d
       0.09275537 0.19887736 -0.011325057 0.06807763
0002c0 1b c6 2a be 71 f8 91 bd 34 12 a0 3d 00 90 8b bd
       -0.16677134 -0.071274646 0.07815972 -0.06814575
0002d0 78 d4 cb 39 58 9f cb 3d fb c7 13 bd b0 a6 35 3e
       0.0003887748 0.09942502 -0.036079388 0.17739367
0002e0 ce 2b 09 be 27 be 1e be ac 11 85 3d 3f 1d 16 3e
       -0.13395616 -0.15502225 0.06497511 0.14659594
0002f0 ca f9 0a bd bd 4f 9c 3c 92 50 e8 3c 33 9d 43 3e
       -0.033929624 0.01908099 0.028358731 0.19102935
000300 73 6a c6 bd 99 ae 67 bd 43 30 2a be d1 62 77 be
       -0.09688272 -0.056562994 -0.16619973 -0.24158789
000310 c8 11 2e be 47 0f 2e be 4d a4 47 3d 85 a8 a4 3e
       -0.1699897 -0.16998015 0.048740674 0.3215982
000320 95 d7 9c 3d 99 0b 9c be ef 2b 6b 3d cf 0b b8 be
       0.076583065 -0.30477598 0.057414945 -0.3594651
000330 d5 17 ff 3d 87 93 03 3e 9a 20 c7 3d 9c 9e 00 be
       0.124557175 0.12849246 0.09723015 -0.12560505
000340 1a e2 44 be 8f e0 86 bd b2 f4 85 3b 7e cf 22 3d
       -0.19226876 -0.065858 0.004088008 0.03974866
000350 ad 02 97 be cd cf cd bb ae c9 e4 bd 4a 4b 7c 3e
       -0.2949423 -0.0062808753 -0.1117128 0.24638095
000360 83 23 f7 bc 9c d1 9c bd 13 a0 08 be 1d 05 83 be
       -0.0301683 -0.07657167 -0.13342313 -0.2558984
000370 8c fc 8d 3e b2 c9 c3 bd 1a f2 6a 3c 3b 7c 01 3e
       0.2773174 -0.09559955 0.014339948 0.12645046
000380 b2 89 56 bc c9 f4 b4 bd 10 6c 2d 3e f1 0c fd bd
       -0.013094353 -0.088357516 0.16935754 -0.12355984
000390 22 8a f9 3d 58 c4 26 be da 58 08 be e6 f5 93 3d
       0.1218455 -0.16285837 -0.13315144 0.07224636
0003a0 81 a2 1f 3e c8 6d d7 3d 48 09 f8 3c 53 19 ee 3d
       0.15589334 0.10518986 0.030277863 0.11625924
0003b0 53 f1 4a 3e 5c 5e 28 3d ff 93 33 bd a0 53 a8 bd
       0.1981862 0.041105613 -0.043842312 -0.08219075
0003c0 4d b3 2c be 58 f8 36 bd 2b 95 eb bd e5 23 25 bd
       -0.16865273 -0.044670433 -0.11503061 -0.040317435
0003d0 2b 7e f7 3c 2c 68 51 3e ff 62 e9 bd 97 c6 a6 3d
       0.030211529 0.20449895 -0.11395835 0.08143347
0003e0 39 e2 9e be 70 3e 19 bb 3c 05 0a be cf fe f7 3c
       -0.3103197 -0.0023383163 -0.1347856 0.03027287
0003f0 76 05 92 3d da f0 54 bd 15 07 cf ba a4 a0 b4 bd
       0.07129948 -0.051987506 -0.0015794957 -0.08819702

bias f4 [128]
000000 0f aa 84 3d 0d 73 46 3c 67 fc 6c 3d 25 c2 30 3d
       0.064777486 0.012112391 0.057857897 0.0431539
000010 1b 0d af 3d 38 f4 0e bd 58 0e d2 3d fd 8d c6 3b
       0.085474215 -0.034900874 0.10256642 0.006059407
000020 9c 75 2c bb 17 b9 af 3d e4 43 86 3d 0d 67 08 3d
       -0.0026315218 0.08580225 0.06555918 0.033301402
000030 4d d1 39 3e bc 88 57 3d 9a 68 83 bc a0 3b 3b 3d
       0.18146248 0.052620634 -0.016041089 0.04571116
000040 79 66 01 3d c6 f0 43 3c b5 bf ce 3d 60 68 e9 3d
       0.031591866 0.01195926 0.10095159 0.11396861
000050 3c 4b a8 3d cd 4d 9c 3d 58 dc 06 3e 99 f2 10 3e
       0.08217475 0.07632027 0.13169992 0.14155044
000060 db 1f 80 3d 89 62 ae 3d 6c b3 ad 3d cf 98 9a 3d
       0.06256076 0.08514888 0.08481488 0.07548677
000070 e0 63 6c bc 71 f0 cb 3d 3f ed 71 3d 7c e9 c3 3d
       -0.014428109 0.0995797 0.059064146 0.09566018
000080 b3 b6 ac 3d a7 01 79 3d 95 04 1b 3d f1 b5 ad 3d
       0.084332846 0.06079259 0.037846167 0.08481968
000090 f4 82 93 3d 8b 92 9b 3b fd 96 93 3d 00 0e c3 3d
       0.07202712 0.004747694 0.07206533 0.09524155
0000a0 c6 31 f3 3d 5f 17 8c 3c 7d 62 bc 3d 83 35 c9 3d
       0.11874728 0.017100988 0.09198473 0.0982466
0000b0 b4 a6 46 3d 97 56 9a 3c 96 f4 74 3d d0 07 fa 3c
       0.048498824 0.018840117 0.059803568 0.030521303
0000c0 bc e3 f7 3d 34 5c ad 3c 55 4e f1 3c 4a c8 b0 3d
       0.12103984 0.02116213 0.029456297 0.08631952
0000d0 c3 9f 91 3c 2f fb 94 3d 1e 8e fb 3c f1 6f dd 3d
       0.017776376 0.07274472 0.030707415 0.10812367
0000e0 3b 7a c5 3b 30 41 13 3d 9e fe e8 3c c3 af 8c 3d
       0.006026534 0.03595084 0.028441723 0.068694614
0000f0 1c 2a 01 3d bc a3 cd 3d 6a ac 6c 3c 2d c9 19 3c
       0.0315343 0.100409955 0.014445404 0.009386343
000100 eb 48 70 3d aa 96 9f 3d f0 30 b0 3c 15 ec 3b 3d
       0.05866329 0.07792409 0.02150771 0.045879442
000110 2e fc 53 3d 37 f6 8e 3d f5 92 6d bc d5 d2 68 3d
       0.05175417 0.069805555 -0.014500369 0.05684169
000120 f9 f2 70 3d ec f5 62 3c 02 f1 80 3d 2a 85 87 3d
       0.058825467 0.013852578 0.062959686 0.06617196
000130 af 80 8f 3d 7a 10 84 3d 97 5f 14 3e 6a ed bf 3d
       0.07006966 0.06448455 0.1448959 0.09371455
000140 50 62 be 3d d6 1b ce 3d 8d 9a 05 3d e8 d4 ed bc
       0.09296095 0.10063903 0.032618094 -0.029032186
000150 dd 38 83 3b de d4 b2 3d bf fa 23 3d c9 e7 b0 3d
       0.0040045814 0.087320074 0.040034052 0.086379595
000160 59 2e 80 3d 94 80 85 3d ca cb 9d 3d 95 10 5d 3d
       0.0625884 0.06518665 0.07704885 0.053970892
000170 69 04 41 3d 07 17 d1 3d ff 2b c0 3d 2d 60 67 3d
       0.047123346 0.1020947 0.093833916 0.056488205
000180 5f 88 01 3d 98 38 09 3d 02 c0 d5 3d aa 15 96 3d
       0.031624194 0.033501238 0.10437013 0.07328351
000190 61 f1 f1 bb dd e6 81 3d 8c 48 93 3d 7e e5 ee 3d
       -0.007383511 0.06342862 0.071915716 0.11664866
0001a0 25 b9 b7 3d aa cd 20 3d 63 b3 61 3d 59 b2 3e 3d
       0.089708604 0.039258637 0.055102717 0.046556804
0001b0 e4 47 ea 3d 4a e0 c5 3d dd 3e 64 3d ad 50 89 3d
       0.11439493 0.0966192 0.055724014 0.06704841
0001c0 61 4b cc 3d a0 9d ee 3d 5d ce 8b 3d 4e d0 cd 3c
       0.09975315 0.11651158 0.0682647 0.025123741
0001d0 08 fb b8 3c 57 b8 d6 3d c5 bd 3b 3d 0e 85 ad 3d
       0.022580639 0.10484379 0.045835275 0.08472644
0001e0 a5 66 98 bc 1a e8 95 bc a6 a8 e4 3d ef d3 8e 3d
       -0.018603632 -0.018299151 0.1116498 0.06974017
0001f0 2c aa 7a bd ac 0f 92 3c c5 03 c6 3d 73 fa c0 3d
       -0.061197445 0.017829739 0.09668688 0.094227694

weight f4 [32, 128]
000000 bc 07 e7 3d 39 a5 38 be 26 e6 01 be 4e 43 27 3e
       0.11280772 -0.18031777 -0.12685451 0.16334268
000010 cb 9b 05 3e 4f b6 3c 3e bf 0f 60 3a 48 fe e4 3d
       0.13047712 0.1842892 0.0008547268 0.11181313
000020 9f 43 36 bc a8 47 ad bd 10 bd cb bd 85 e5 06 be
       -0.011124521 -0.08460933 -0.0994817 -0.13173492
000030 e5 8a 76 3a e2 9b 57 be e0 28 0f be f5 08 02 be
       0.0009404852 -0.21055558 -0.13980436 -0.1269873
000040 c5 9a 0b be ce 3d e3 3d 04 fc fa bd 5f b6 5a 3c
       -0.13633259 0.11095773 -0.122550994 0.013349145
000050 5d 0f 3c 3e 02 54 36 be ca ff 52 be b6 ef 85 3c
       0.18365236 -0.17805484 -0.20605388 0.016349655
000060 99 f2 41 3d 14 fa 05 3e 00 a2 2b 3e d9 59 5e 3d
       0.0473505 0.13083678 0.16761017 0.054284904
000070 c2 c3 2f bd 67 c0 e6 bd 15 60 0e 3e a9 10 88 3e
       -0.0429113 -0.112671666 0.1390384 0.2657521
000080 4c 97 25 3e 6b f4 a3 3d 4c 8a 20 3e bf 5f 08 3d
       0.16170996 0.080056034 0.15677756 0.033294436
000090 93 98 0f bd 92 e0 24 3e a4 54 83 3e a9 7f 58 3e
       -0.035057615 0.16101292 0.25650513 0.21142448
0000a0 5a 7b 95 bd b2 7b 41 3e 23 6a f6 bd 01 35 84 3d
       -0.07298918 0.18894842 -0.12031963 0.06455422
0000b0 1e 34 f9 bd f4 d4 60 be 55 4e d9 bd 9e dd 0b 3e
       -0.12168144 -0.21956235 -0.10610644 0.13658759
0000c0 ed 45 39 3d a0 70 1b bd f9 73 c1 3d 60 9d d3 3d
       0.045232702 -0.037949204 0.09445948 0.10332751
0000d0 81 e2 57 3d 57 10 07 be 3d a7 87 bd 1f 94 f1 3d
       0.052706245 -0.13189827 -0.06623695 0.1179583
0000e0 c7 37 1f 3e 5a 8a 0b bc bb 23 fa bd b0 89 58 3c
       0.15548621 -0.008516872 -0.12213846 0.013216421
0000f0 b4 c5 83 3e cc 83 da bd 5b d4 a2 3d bc 31 0d be
       0.25736773 -0.106696695 0.0795066 -0.13788503
000100 fe bc d8 bd 8a 47 3e 3e 17 af 0c be b3 6f cc 3d
       -0.105829224 0.18581977 -0.13738666 0.099822424
000110 4e a6 ff 3d 0c 60 49 bd ff cf 99 bd db f8 3d 3e
       0.12482892 -0.049163863 -0.07510375 0.18551962
000120 f5 90 0a be 95 0a e2 bd 06 e4 18 3e c9 8e 21 3e
       -0.13531859 -0.110371746 0.14930734 0.15777124
000130 69 4c e7 3d 85 2c e2 3b 77 09 72 be be 17 d2 bd
       0.11293871 0.00690228 -0.23636423 -0.10258435
000140 a3 98 80 be 56 31 a9 3d e9 dc 70 bd 4a 9c 0c be
       -0.25116453 0.08261363 -0.058804426 -0.13731495
000150 0f 9a 6b be 9c 46 5e be bb 65 f7 3d 25 f5 35 3e
       -0.23007987 -0.21706623 0.120799504 0.17769296
000160 f6 7d 71 3e a2 5a 4d 3e 35 b4 85 3e d5 da 09 be
       0.23583207 0.20054105 0.2611405 -0.13462384
000170 69 45 96 3b 2c f8 14 3c 24 b5 cf bd ed b2 ca bd
       0.004585911 0.009092372 -0.10141972 -0.09897409
000180 3c 34 84 3d 9f 8d 34 3e 7f 0f e3 bd e5 13 52 bd
       0.064552754 0.17632149 -0.1108694 -0.051288504
000190 70 44 0d 3e 4c 68 85 bd 1b 68 b9 bc 95 49 76 3e
       0.13795638 -0.06514034 -0.02263265 0.24051507
0001a0 05 b8 98 3d 05 ab b6 3c d1 61 33 be 57 72 0c bd
       0.07456974 0.022298345 -0.17517783 -0.03428873
0001b0 8b 80 19 3e 9d ff 2a 3e 08 1b 05 3e 51 e5 1e 3d
       0.14990442 0.16699071 0.12998593 0.038792912
0001c0 c6 f4 af 3d a5 99 15 bc 5b 06 1a 3d cd cd 58 bd
       0.08591609 -0.00913087 0.037603717 -0.052930642
0001d0 5f 79 1e be 66 d1 32 bd 09 aa e5 bd 35 67 5d bd
       -0.15475987 -0.04365673 -0.11214072 -0.054053504
0001e0 fb 70 0f bd 8e a3 55 3e 96 ef 46 3e 77 50 26 3e
       -0.035019856 0.20863172 0.19427332 0.16241632
0001f0 56 55 b5 3d 91 c4 41 be b8 32 f4 bc 83 26 07 3e
       0.08854167 -0.1892264 -0.02980934 0.13198285
000200 7a 69 37 3d 8c a6 57 3e 9f ec 53 3e 54 3e 91 3c
       0.044778325 0.21059626 0.20695733 0.017729916
000210 9f bd 8c bd f6 a9 81 be 65 73 0b 3e cd 0d 53 be
       -0.06872105 -0.25324982 0.13618238 -0.20610733
000220 84 b1 e3 3d a2 71 73 bc f1 53 24 3c cc 75 3c bd
       0.11117843 -0.014858635 0.010029779 -0.046010777
000230 e9 4f 56 3d a8 49 7b bd 3a 3b 78 3e 51 ab 43 3e
       0.052322302 -0.06134954 0.24241343 0.19108321
000240 be b4 19 be 04 3f 76 be c6 a2 90 3e b4 48 8e bd
       -0.15010354 -0.24047476 0.28249186 -0.06947461
000250 6f 8d 53 be 5e 14 23 3e bd 12 96 3e 22 74 28 3d
       -0.20659421 0.15925738 0.2931117 0.041126378
000260 b7 d8 09 3e 98 f6 08 3e 7c 2f 54 be b7 8f 21 3d
       0.13461576 0.13375318 -0.20721239 0.039443698
000270 b7 57 47 be 25 d3 2f 3e 44 bd 9c bd 47 38 ac 3d
       -0.19467054 0.17170389 -0.07653287 0.084091716
000280 0c ef fd bb ee 76 81 3d 2f 8c 0e be f8 a9 1a bc
       -0.007749444 0.06321512 -0.13920663 -0.009439938
000290 3a 1c 01 3e 74 1d 33 bd 8a c4 b2 bc 23 13 27 be
       0.12608424 -0.04372926 -0.021822233 -0.16315894
0002a0 c7 db cf 3d 9f 65 93 bd a9 52 89 3c b1 94 ec 3d
       0.10149341 -0.07197117 0.016763048 0.11551798
0002b0 5f 95 da 3b 5c e2 35 bd e2 21 f6 bc 56 20 6a be
       0.0066706385 -0.044405326 -0.030045453 -0.22863898
0002c0 eb 6b 98 3d 4e 1f f6 bd 3d b1 bd bd 39 13 29 be
       0.07442459 -0.1201769 -0.09262321 -0.16511239
0002d0 74 ca 06 be 32 69 1b be cf 2b 8d 3e f7 3c 78 be
       -0.13163167 -0.15176848 0.27572486 -0.24242006
0002e0 39 80 7f be d0 e3 0d 3c 14 26 04 be 1f 15 58 3c
       -0.24951257 0.008660272 -0.1290515 0.013188629
0002f0 c4 8f 28 3d b9 0f be bc 74 16 86 bd ae 47 2b 3e
       0.04115273 -0.023200857 -0.06547251 0.16726562
000300 72 82 4a 3e 57 6c 0c 3e 9f a5 90 be 03 03 20 bd
       0.19776323 0.13713203 -0.2825136 -0.039065372
000310 5b 3d 2e be c1 a6 4d be 32 23 88 bd f7 f3 1a be
       -0.17015593 -0.20083143 -0.06647338 -0.15132128
000320 dc 80 bf 3d 41 11 8f be 28 95 31 be d4 86 a1 3d
       0.0935075 -0.2794285 -0.17342055 0.078870445
000330 9a de 97 bd 97 3b 0d 3e 6a 6d d1 3d 7b e5 25 3d
       -0.07415505 0.13792263 0.10225947 0.040502053
000340 28 a0 ad 3e 78 16 3c bd cb 73 9c 3d fe 16 0c be
       0.33911252 -0.045919865 0.07639273 -0.13680646
000350 77 8e b0 3d fd c0 25 be 2c db 02 3e b2 8e 74 3c
       0.08620923 -0.161869 0.1277892 0.014926599
000360 35 e2 24 bc 6e 60 cb 3d 61 b1 42 bd 1b 42 b0 bd
       -0.010063698 0.09930502 -0.047532443 -0.086063586
000370 5c 8b f5 bd 19 91 6f bd e3 71 07 3d 51 b1 6d 3d
       -0.11989471 -0.058487985 0.033067595 0.05803043
000380 e6 2c a7 bd d2 64 a7 bd 74 41 7d 3e 4d 25 25 3e
       -0.081628606 -0.08173527 0.24732 0.1612751
000390 90 91 9f bd 0a 9d 28 3c 50 19 6a bd 55 47 91 3e
       -0.07791436 0.010291347 -0.057153046 0.28374735
0003a0 8e d4 12 3e 84 0d ae 3d f8 f4 80 3d a9 25 f9 3d
       0.14338896 0.08498672 0.06296724 0.12165386
0003b0 ba 09 46 3c 52 32 62 3e e1 e2 d1 bd 45 65 93 bc
       0.01208728 0.22089508 -0.10248352 -0.017992625
0003c0 44 30 97 3e c7 d4 cf bd a7 cd 4f 3e 30 90 66 bd
       0.2952901 -0.10148006 0.20293294 -0.05628985
0003d0 64 7f 7d be 27 ef 86 be 31 76 cb bd b5 67 66 be
       -0.24755627 -0.26354334 -0.099346526 -0.22500499
0003e0 98 4b 96 bd 36 ed db bd 49 70 a5 3d 2a b3 59 be
       -0.07338637 -0.10738604 0.08078057 -0.21259752
0003f0 c1 36 82 be 46 69 59 be f3 fc 83 bd d4 b4 7c 3d
       -0.254324 -0.21231565 -0.064447306 0.06169589

bias f4 [32]
000000 b8 11 fc 3c 31 ae fd 3a a2 60 a6 bc 23 f5 f0 3c
       0.030770168 0.0019354281 -0.02030975 0.029413765
000010 d6 f3 07 3d 6f d1 04 bb 71 5a a2 3c 00 b1 06 3d
       0.033191524 -0.0020266434 0.019818516 0.032883644
000020 88 c5 92 bc f3 a2 82 3c c9 7a c8 3c 0b 37 2e 3d
       -0.017916456 0.01594684 0.024472611 0.04253296
000030 58 26 61 3d 91 3e 3d 3d ab 20 ad 3c 60 cb ee bc
       0.054968208 0.046202246 0.021133741 -0.029149711
000040 2f ac a8 bc 95 10 0b bd 95 5c 17 bd d2 6b 8e bc
       -0.020589916 -0.03395136 -0.036953527 -0.017385397
000050 65 fd b8 bc c6 13 1e 3d 0c c1 84 3c 3e 23 ca 3c
       -0.022581765 0.038593076 0.016205333 0.024675008
000060 f4 d8 92 bc f0 63 88 bc 8e ef 14 bd db d8 6d bb
       -0.017925717 -0.016649216 -0.03636127 -0.0036292586
000070 4e c1 1e bd f1 51 7a bd 03 61 07 bd 18 f2 d8 3c
       -0.03875857 -0.0611133 -0.033051502 0.026482627

weight f4 [32]
000000 5f 8f 91 3f de d5 8a 3f 95 77 85 3f 22 45 93 3f
       1.1371878 1.0846517 1.0427119 1.1505473
000010 8c 4c 86 3f d3 0e 99 3f 8c 14 9a 3f 49 4c 91 3f
       1.049211 1.1957649 1.203752 1.1351405
000020 4c f0 82 3f 28 d8 90 3f 84 41 90 3f 90 ed 95 3f
       1.0229583 1.1315966 1.1269994 1.1713123
000030 54 e2 92 3f c5 3f 97 3f 13 a4 82 3f 69 1e 89 3f
       1.147532 1.1816336 1.0206321 1.0712405
000040 58 ee 90 3f e1 3a 96 3f 83 77 96 3f 85 db 8e 3f
       1.1322737 1.1736718 1.1755222 1.1160742
000050 67 8a 92 3f 3f aa 92 3f d8 58 9a 3f 9b 51 94 3f
       1.1448487 1.1458205 1.2058363 1.1587404
000060 20 4d 93 3f 3a ed 9a 3f 61 2e 90 3f a4 6f 95 3f
       1.1507912 1.2103646 1.1264154 1.1674695
000070 ae ba 84 3f d9 9b 8b 3f 7b c0 8d 3f a1 56 8e 3f
       1.036947 1.0906936 1.1074365 1.1120187

bias f4 [32]
000000 20 ac 9a bb ec c3 9a 3d b4 dc 84 bd 7a f9 8d bd
       -0.004720226 0.075569004 -0.06487408 -0.069323495
000010 5d 07 37 bc 8c 00 14 bd c4 13 65 3d 70 81 b7 3d
       -0.011171189 -0.036133334 0.055927053 0.08960235
000020 f1 9a 9d bd 94 61 4e bd 85 83 c7 3d c2 89 9d ba
       -0.07695568 -0.050386027 0.09741882 -0.0012019204
000030 b2 2c 45 3d 34 5c bd 3c a7 57 88 3c 33 38 d5 bc
       0.048138328 0.023115255 0.016643358 -0.026027774
000040 2a 15 f1 3c 3e 36 bb 3d d5 b8 36 3c 37 cc b6 bd
       0.029429037 0.09141205 0.011152466 -0.0892567
000050 b4 26 59 3d 25 3e 00 3e be a0 c4 bd 0e 7f 36 3c
       0.053015426 0.12523706 -0.09600972 0.011138691
000060 18 00 3b 3d d9 df 23 bd ab af b4 bd 28 00 b5 3c
       0.045654386 -0.0400084 -0.088225685 0.022094801
000070 a5 b6 a1 bd 76 20 17 3d 61 48 7a bd 35 51 ec 3c
       -0.07896165 0.03689619 -0.061104182 0.028847316

weight f4 [32]
000000 c7 f3 85 3f 97 bc 96 3f 9b 37 82 3f 36 4e 92 3f
       1.046502 1.1776303 1.017322 1.1430118
000010 0b 8d 8a 3f e2 44 99 3f 70 08 95 3f eb df 93 3f
       1.0824293 1.1974146 1.16432 1.1552709
000020 a3 c5 96 3f d6 8a 93 3f 51 03 99 3f 05 a5 98 3f
       1.1779064 1.1526744 1.1954137 1.192536
000030 1e 6c 8e 3f 05 c6 98 3f 60 3b 92 3f 16 68 94 3f
       1.1126745 1.1935431 1.142437 1.1594265
000040 43 c7 98 3f 9b b5 96 3f 44 3e 91 3f 74 8b 97 3f
       1.193581 1.1774172 1.1347127 1.1839433
000050 34 a1 9a 3f 60 8e 92 3f f7 55 96 3f 1a b0 96 3f
       1.2080445 1.1449699 1.1744984 1.1772492
000060 a9 c4 90 3f 51 aa 8f 3f 2f d3 9b 3f 48 1e 96 3f
       1.1310016 1.1223851 1.2173823 1.1727991
000070 24 32 8d 3f 2f 2c 91 3f 68 24 9b 3f 43 b1 90 3f
       1.1030927 1.1341609 1.2120485 1.1304096
