pre_trained_models/mosi_aligned_LAV_UniMF.pt (torch, 258206 bytes, 52 tensors)

cls f4 [1, 32]
000000 8a 5c 49 bd 16 6c b4 be 6e 04 87 3e 14 b4 a3 bd
       -0.049160518 -0.35238713 0.26370567 -0.079933316
000010 40 f0 c4 3e 20 cb 96 3d be 36 19 bd 51 7c be 3e
       0.38464546 0.07362962 -0.03740572 0.3720422
000020 62 05 2c 3c e1 ef 8e 3e 25 c5 22 be dc ab d6 3e
       0.01049933 0.27917388 -0.15895517 0.41927993
000030 69 f3 a4 3e 3f 44 32 3e 04 18 b1 bd 41 44 cc bd
       0.32216957 0.17408846 -0.08647159 -0.09973956
000040 72 43 94 3e 1d 74 57 3e 08 cc 89 3e 66 37 1e be
       0.28957707 0.21040387 0.26913476 -0.1545082
000050 57 b5 a0 bd 49 3b dd be af d4 25 be 13 2d 96 be
       -0.07847088 -0.43209293 -0.16194414 -0.29331264
000060 e0 50 23 be 62 69 5b 3e 88 13 2d 3e 63 85 51 3e
       -0.1594882 0.21426919 0.16901982 0.20461039
000070 56 aa a0 bd df 42 18 be 7a f6 d4 bd 6d 28 60 be
       -0.07844989 -0.1486926 -0.10398574 -0.21890421

weight f4 [32, 300, 1]
000000 00 05 ab 3d af 9d bb 3d d4 a4 05 bd 81 eb 84 bd
       0.08350563 0.09160935 -0.032627895 -0.06490231
000010 e9 c5 e1 3d c8 e8 58 3d 18 68 dc bd e7 1e 51 bd
       0.110240765 0.052956372 -0.10762042 -0.05105486
000020 f8 3c c2 bc 1c d7 8f bd ce f7 be bd 7c d4 d0 3d
       -0.023710713 -0.07023451 -0.09324609 0.10196778
000030 91 7a 98 3c 88 5f 9d 3d ac 63 23 bd 83 b8 f2 bc
       0.018613132 0.07684237 -0.039889976 -0.029628998
000040 58 04 40 bd 76 0a 0f 3d 1f 46 0a 3d b3 09 21 3c
       -0.046879143 0.034922086 0.03375828 0.009828973
000050 45 e6 f8 3d 19 3c cf bd eb d7 b1 3c 24 4b ce bc
       0.121532954 -0.101188846 0.021709403 -0.025182314
000060 83 97 a3 3c 77 65 12 3e 87 0c b8 3c f1 2a 5b bd
       0.019969707 0.14296518 0.022466911 -0.05350775
000070 6c 0b a7 bc 49 43 0d 3d 78 1a e4 3c 19 ee 22 3b
       -0.020391189 0.034487996 0.027844653 0.0024861156
000080 57 a0 3c 3c 64 9c c0 3d 2e 29 a7 3c a8 bf fc bd
       0.011512837 0.09404829 0.020405378 -0.12341243
000090 41 d4 b3 3d 7f b0 55 bd d1 62 6a bd b4 cc 44 bb
       0.087807186 -0.052170273 -0.057223145 -0.003002924
0000a0 59 e7 cc bd b3 da 65 bd 39 c2 a7 3d ff f7 ed bd
       -0.100050636 -0.05611677 0.08191342 -0.11619567
0000b0 49 18 73 3c ee 26 21 3e bb f4 4d bd a7 c3 bf bb
       0.014837333 0.15737507 -0.05028222 -0.005852181
0000c0 60 d9 f8 3c dc ba ce bd 69 87 93 3c 31 dd 7f bd
       0.03037709 -0.10094234 0.018008905 -0.062466804
0000d0 b6 13 ba 3d 24 fc 01 bd f1 f6 a1 3c ef 9c 0f 3d
       0.09085791 -0.0317346 0.019771071 0.035061773
0000e0 db de 8a 3d 7a a1 65 3d 3a 8e ec 3b ad 83 93 3d
       0.067807876 0.0560622 0.007219103 0.072028495
0000f0 f1 15 88 3d 5b 0e f8 bc 39 d3 c3 3a 83 54 90 3d
       0.0664481 -0.030280283 0.0014940269 0.07047369
000100 07 df aa bd 18 8d ac 3c f8 f1 9e 3d e2 e4 13 bc
       -0.0834332 0.021063372 0.077609956 -0.009026738
000110 ee 6a 2c bd 6d 8d 11 bc 7f 55 18 bd 52 eb 97 bd
       -0.042094164 -0.008883816 -0.03719091 -0.07417931
000120 3b 06 e8 3b 85 e5 8d bc 63 f6 8b 3d d6 cb b3 3c
       0.007080821 -0.017321358 0.06834104 0.021947782
000130 90 6a 00 bd 13 5e a0 bc e3 b0 52 3c 48 28 90 3c
       -0.031351626 -0.019576108 0.012859556 0.017597333
000140 75 6f 24 3e 31 cf 30 3d 88 45 33 3d 23 94 9e 3d
       0.16058142 0.043166343 0.043767482 0.077430986
000150 60 02 ef 3d 5e 3d 07 3d 24 e1 e2 bc 06 11 03 bd
       0.11670375 0.03301751 -0.027695246 -0.031998657
000160 48 92 bb 3b 85 5c 7b 3d d6 a1 f4 3d 2b 72 a5 3d
       0.005724225 0.06136753 0.1194493 0.080784164
000170 ff 5e e4 3d 56 99 d9 3a 79 60 2f 3d 51 7f 83 3c
       0.111509316 0.0016601484 0.042816613 0.01605192
000180 c3 c1 00 3d 75 04 df bd 43 f1 a0 bd ad e6 10 3d
       0.031434786 -0.10889522 -0.07858517 0.03537624
000190 2a 1f 59 bd 9b 88 44 3c 20 d0 25 3d 11 34 24 b9
       -0.053008236 0.01199546 0.040481687 -0.00015659655
0001a0 4b 05 94 ba fc 17 4b 3d 48 a2 18 3e 8b 2e 12 bc
       -0.0011293081 0.04958342 0.14905655 -0.0089222295
0001b0 b4 71 92 3d cd 28 2b be 53 67 85 3d 2e 67 bc bc
       0.071505934 -0.16714783 0.06513848 -0.022998419
0001c0 1a dc 65 3d 3c 55 a3 3d 0d 96 df 3d 7a 91 b6 bd
       0.05611811 0.079752415 0.10917292 -0.08914466
0001d0 00 3d 2a bd 6d 26 e8 3d b1 14 0e 3d 4f 62 e4 3c
       -0.04156208 0.11335454 0.0346877 0.027878908
0001e0 0d c6 aa 3d 2c c4 81 bb ed 85 f1 3b 46 84 01 3e
       0.083385564 -0.003960153 0.0073707015 0.12648115
0001f0 f3 c5 c1 bd b3 8d fb 3d 89 e5 77 bb d1 2a cd 3b
       -0.09461584 0.12282886 -0.0037826023 0.0062612076
000200 de ab ca 3d b5 04 6e 3d 65 fe ad bb 2f 2e 0f bd
       0.09896062 0.058109958 -0.005309867 -0.034956153
000210 b7 6b 68 3c 16 85 fb 3c 6f b3 d0 3c e5 11 da 3d
       0.0141858375 0.030703109 0.025476186 0.10647944
000220 0d 2f 7a bd db 61 23 3d 94 c5 92 bc ad ed 08 3c
       -0.061080027 0.039888244 -0.017916478 0.008357448
000230 ed 12 bf bc 40 84 9a bc 57 de 83 3d 3b 9a 04 3e
       -0.023324454 -0.01886189 0.06438892 0.12949459
000240 82 e8 e8 bc cb 24 3a 3c cd 17 6d 3d 0b 4f 63 bc
       -0.02843118 0.011361311 0.057884026 -0.013873826
000250 d7 2a aa 3d 20 6d 19 3d b9 28 fa bd 89 3c e5 3c
       0.08308952 0.037457585 -0.122147985 0.027982967
000260 69 8c 95 bd 2a ba 40 bd 89 1c 0b 3d 1d 15 66 bd
       -0.07302172 -0.04705254 0.03396276 -0.05617248
000270 c7 dc 92 3d 47 1f 0f bd 99 3d 8e bd fb 48 bc 3c
       0.07171016 -0.034941938 -0.069453426 0.022984019
000280 82 ab bc 3d e8 8d 26 3c 38 2a d4 3c 1a 51 cf bd
       0.092124 0.010165669 0.025899038 -0.10122891
000290 ea 8e 10 3d 16 fd 74 3d 52 91 8d 3b e6 bd a6 bb
       0.035292543 0.059811674 0.004320302 -0.0050885556
0002a0 12 ca 10 3e f7 87 20 3e d6 de 84 3d d7 d0 e7 3d
       0.14139584 0.15676866 0.06487815 0.1131913
0002b0 0e 44 a8 bc f7 df 5a 3d 21 3f d5 bc d1 8d b5 bd
       -0.020540264 0.053436246 -0.026031079 -0.0886494
0002c0 b9 89 02 3d 08 6b c3 bd 36 9b 8e bc 6f 33 9e 3c
       0.031869624 -0.09541899 -0.017407995 0.019311635
0002d0 88 f2 87 bd d1 15 78 3c 07 d2 06 3d 0a 6d 0c bd
       -0.06638056 0.01514192 0.03291514 -0.034283675
0002e0 0f 1b 14 3e 59 f6 5b 3c 7b f8 dc bd 92 85 d7 3d
       0.14463447 0.013425433 -0.107895814 0.105235234
0002f0 2a d1 9f bd c4 d7 ca bc d4 87 17 bd b3 ef 3a 3c
       -0.07803567 -0.024761088 -0.03699477 0.011409688
000300 1b 94 2c 3a 78 6a c3 bd 91 d9 1e 3d 5d 1b 42 3d
       0.0006583349 -0.09541792 0.038781706 0.047389377
000310 26 63 f3 bc f9 87 13 be eb 95 6e 3d 0f 94 40 bd
       -0.029710364 -0.14407338 0.05824844 -0.0470162
000320 0b fb 01 3d a2 ee c4 bd c6 eb 22 3c 34 1f 09 3d
       0.031733554 -0.09615828 0.009943908 0.033477023
000330 3e 52 a1 3c 29 60 88 bd 60 66 40 3d e0 26 08 bc
       0.019692536 -0.06658966 0.046972632 -0.00831005
000340 d6 18 ea bd 1c 39 c7 bd df 23 0e 3b 58 98 c0 bd
       -0.11430518 -0.097276896 0.0021688861 -0.09404057
000350 31 cc 3c bb 2f 20 a0 3c 90 a0 cc bd 15 ed 4e 3d
       -0.002880823 0.019546596 -0.09991562 0.050519068
000360 45 1d 9a 3d 1f c9 59 bd b9 f8 db 3d 02 72 a6 bc
       0.07525114 -0.05317032 0.107407995 -0.020318035
000370 36 fd 32 3d bf 93 c3 3d ac 23 89 3c dd e3 cc 3d
       0.043698512 0.09549665 0.016740642 0.10004399
000380 d9 f2 f3 3c d3 55 88 3d f5 5e 1f 3b 52 db 1a 3e
       0.029778885 0.06656995 0.0024318073 0.15122727
000390 c6 b4 30 3e 97 7b 5d bc 0d 7f 34 bd 1c 4e c9 bd
       0.1725646 -0.013518236 -0.044066478 -0.09829351
0003a0 2d f2 29 be 27 b8 e7 bd 72 cf 67 bd 18 78 c1 bc
       -0.16596289 -0.11314421 -0.05659432 -0.023616835
0003b0 ba 2a 4c bc 46 63 15 3d 71 54 49 bd cb fe 0b 3c
       -0.012461359 0.036471628 -0.049152795 0.008544634
0003c0 db 01 7f bc 09 9a 7c 3b b9 30 9f 3c c8 5f a7 bd
       -0.015564407 0.003854396 0.019432412 -0.08172566
0003d0 e2 a0 95 3c 17 51 7e 3d e6 56 ce 3c 75 92 87 3d
       0.018265191 0.062089052 0.02518792 0.06619731
0003e0 0f ff ff 3c 42 6f 2f 3d 55 69 d5 3d fd 42 f3 bb
       0.031249551 0.042830713 0.10420481 -0.007423757
0003f0 ce 09 95 bd 99 9c 76 bc 17 61 bc 3c 61 90 82 3c
       -0.07277261 -0.015051984 0.022995515 0.015937986

bias f4 [32]
000000 8a a9 97 3c 61 e1 63 3d 59 b4 8d 3c 33 0a 6f bb
       0.01851346 0.05563486 0.01729791 -0.0036474585
000010 ec fe cd 3b ff 28 4b 3c ca b9 4f 3d 40 d7 48 3d
       0.0062864926 0.012399911 0.05071429 0.049033403
000020 7f 17 8f 3c 7e 21 29 3d ed c5 8d bb b2 4d 7f bd
       0.017467258 0.041291706 -0.004326573 -0.062329955
000030 7f ec 89 bd 6d a3 ec bd 2b 1d 24 bd 6a b7 a3 bd
       -0.06734561 -0.115546085 -0.04006688 -0.07993968
000040 eb 58 f7 3c 2c dd f8 ba b9 66 83 3c fd 3f 83 ba
       0.030193767 -0.0018986813 0.016040193 -0.0010013577
000050 f0 9f 8d bd 63 33 f9 3c 9c 46 8a bd 57 3a c7 3c
       -0.06915271 0.03042001 -0.06751749 0.02431981
000060 d3 37 9f bb 01 3b f8 3b 1c 0e 3a bc 7d 42 8b 3d
       -0.0048589497 0.007575393 -0.011355903 0.06799791
000070 72 83 82 3d dc f3 8b bd a7 d6 64 3d 2e d5 43 bd
       0.063727275 -0.06833622 0.05586877 -0.047810726

weight f4 [32, 5, 1]
000000 14 77 b5 3e bd 6f cb 3e 79 a5 c7 be 84 b4 da be
       0.35442412 0.39733687 -0.38993433 -0.42715847
000010 aa 8e 3e 3e 9e a2 a4 bd 48 cf c2 bd 5b ff c7 3e
       0.1860911 -0.08038829 -0.09512192 0.39062008
000020 9f 48 06 bf e0 2f 95 3e fb 39 ac 3e 53 05 09 be
       -0.5245456 0.29138088 0.33637986 -0.13380937
000030 e6 c0 cc 3e 65 1b 1c bd 6f ca f9 3d f9 89 39 be
       0.3999092 -0.038112063 0.12196814 -0.18119039
000040 02 b1 a2 3c 08 17 ff be 16 90 12 3f 3a 53 6d be
       0.019859795 -0.4982226 0.5725111 -0.2317628
000050 2b f4 ae be 8c fb e0 be 97 3f ab bd bd 72 53 be
       -0.3417066 -0.43941915 -0.08361738 -0.20649238
000060 b8 b5 d3 be ca 43 ee 3d ed d6 2b bd d2 3f e2 3d
       -0.41349578 0.116340235 -0.041953016 0.11047329
000070 9c e3 b4 3e c2 a0 3f be 20 e3 d6 3e 2b e2 c4 be
       0.35329902 -0.18713668 0.41970158 -0.38453802
000080 6d de ce be 39 4c c1 be 5c 9f f1 bd 6d 4f 9c 3d
       -0.40404072 -0.37753466 -0.117979735 0.07632337
000090 f7 15 df be 05 c3 0d be d7 33 e3 3e 33 e9 f7 3d
       -0.43571445 -0.13843925 0.44375488 0.12105026
0000a0 8e eb d3 3e ba 5e 9c 3e 5e 40 68 be 01 b1 d3 bd
       0.4139065 0.3054102 -0.22680804 -0.10336495
0000b0 6f b8 2a 3e eb 2a 5f 3c 9a 57 e2 3e 49 83 44 be
       0.16671918 0.013621072 0.4420746 -0.19190706
0000c0 f7 50 e5 be a8 3f ff 3e ff 3f 27 be a5 af 31 3e
       -0.44788334 0.49853253 -0.16333006 0.1735216
0000d0 c3 33 af be d4 3c e6 bd dd f4 8f be c3 a3 8c be
       -0.3421918 -0.11242071 -0.28116503 -0.2746869
0000e0 72 a3 ec be 01 5b f2 be 8b e4 49 be 3c da 82 3e
       -0.4621845 -0.47335055 -0.19716088 0.25557125
0000f0 b1 3f c5 3e 22 bc 7e 3e f7 96 ff 3e ef d5 ed be
       0.38525155 0.24876454 0.49919865 -0.4645228
000100 d2 de 98 3c 61 12 25 be 79 3d 4c 3e 42 72 c5 3d
       0.018660937 -0.16120292 0.19945325 0.096409336
000110 2c a7 00 3f c7 39 c9 be 42 89 96 bd d0 a3 b8 3e
       0.50255084 -0.39301893 -0.073503986 0.3606248
000120 f7 43 67 3c 65 62 39 3f a4 74 21 be 91 5c 94 bc
       0.014115325 0.72415763 -0.15767151 -0.018110545
000130 a4 d8 9c 3e bd e7 ae 3e e5 79 9a 3d f4 c1 91 be
       0.30634034 0.34161177 0.07542781 -0.28468287
000140 e7 9f 37 3c 26 05 93 3e 61 7e d4 bd 68 e3 62 bc
       0.011207557 0.28714865 -0.10375667 -0.013848163
000150 5c f0 11 3e b2 2b ae 3e 49 47 1d be 5e 2f e0 3d
       0.14251846 0.34017712 -0.15359224 0.109465346
000160 eb 0f 85 be bc 56 ee 3c 0f 33 93 bd 2d fc 01 3c
       -0.25988707 0.029094093 -0.07187473 0.007933659
000170 bf 40 92 3e 3c 04 30 be 67 28 d2 3e 7e 54 89 3e
       0.28565022 -0.17189115 0.4104645 0.26822275
000180 b4 ee 95 3e 82 6f 36 3d b9 ac f5 3e 4f 68 0d 3e
       0.2928368 0.044539936 0.4798334 0.13809322
000190 c0 1f 97 be 43 fd b5 3e 59 43 bd 3b d6 8f 39 bf
       -0.2951641 0.35544786 0.0057758507 -0.724851
0001a0 36 75 bb 3e c2 41 a7 be 0d 2d cf 3e 6a 61 93 3e
       0.36612862 -0.32667357 0.4046406 0.2878526
0001b0 be 6f ca be 5e c1 f5 3e da 30 58 be 55 db 53 3e
       -0.39538378 0.4799909 -0.21112385 0.20689137
0001c0 bf e9 31 be 1a cd 49 3f 85 ac 15 bf c5 10 78 3d
       -0.17374323 0.78828585 -0.5846637 0.060562868
0001d0 a3 92 c7 3e 2e 98 19 3d 60 35 4b be 50 29 da bd
       0.38979062 0.037498645 -0.1984458 -0.10652411
0001e0 cb a5 e8 3c 12 d3 8b be 35 eb 32 3e bf 90 2b 3f
       0.028399369 -0.2730947 0.17472537 0.6701774
0001f0 e0 8b 84 be de c9 2c 3e fb 96 8f bd 6a 11 99 3e
       -0.25887966 0.16873881 -0.07011219 0.29896098
000200 b2 66 81 be 64 e0 47 3e ac 35 8b bd 67 eb 51 3e
       -0.25273663 0.19519192 -0.067973465 0.20499955
000210 41 c0 ba bd d7 e6 48 3f f6 d5 0b bf 25 95 b2 be
       -0.09118701 0.78477234 -0.54623353 -0.34879413
000220 76 6a de 3b d4 88 1b be cb 7d 60 be 48 57 8b be
       0.0067875935 -0.15188915 -0.21922986 -0.27215028
000230 13 c0 17 be aa 10 56 be 64 1a 6c be 3b 34 03 3e
       -0.14819364 -0.20904794 -0.23056942 0.12812893
000240 62 4a 82 3b f3 b6 4a be 4c 4b 43 be 37 a1 59 3e
       0.0039761523 -0.19796352 -0.19071692 0.21252905
000250 3a bc 48 be 08 cf 82 3e f4 5c be be 75 60 60 3d
       -0.19603053 0.25548577 -0.37180293 0.05477949
000260 6c 73 dc 3e f6 27 71 ba ab 30 12 bf 68 7d 3c 3b
       0.4305681 -0.0009199375 -0.5710551 0.0028761271
000270 95 6a 38 be a0 db 46 3d c4 b8 10 3f d8 9d 66 be
       -0.18009408 0.048549294 0.5653193 -0.2252115

bias f4 [32]
000000 d9 ce 02 3d 86 7e 9b 3c 7d 8d bc be 32 8a b5 3d
       0.031935547 0.01898123 -0.36826697 0.08864249
000010 94 64 e2 bd 88 da b2 be 33 af b9 3d ed 3c a9 be
       -0.1105434 -0.3493235 0.0906662 -0.33054295
000020 78 21 59 be f0 c4 a6 3d a3 c5 ac 3e f0 e9 6a be
       -0.21204174 0.081430316 0.33744535 -0.22940803
000030 2e 87 b8 bd 05 b4 31 be 93 95 07 bd 62 eb 8d 3d
       -0.090101585 -0.17353828 -0.03310163 0.06929661
000040 13 d4 bd 3e be 48 9a be 86 d3 bf be 00 33 aa 3e
       0.37075862 -0.30133623 -0.37466067 0.33242035
000050 70 e1 e5 bd 7e dd 10 bc 3b 95 eb bd d9 03 16 be
       -0.112246394 -0.00884187 -0.11503073 -0.14649905
000060 98 69 8f 3b a7 91 d3 3e 4d 53 cd be f0 4c c3 be
       0.0043766014 0.4132206 -0.40102616 -0.38144636
000070 7e d1 ab 3e 1f 77 ad 3e d9 c8 a9 be 7f 8a 88 bd
       0.33558267 0.33879945 -0.33161047 -0.06667041

weight f4 [32, 20, 1]
000000 30 16 ea 3b 36 8d 93 bd 92 98 54 3d 26 77 2b 3e
       0.0071437582 -0.07204668 0.051903315 0.1674467
000010 08 e4 3e 3e f3 b5 27 be cb 10 23 be 4b 3c 51 3e
       0.18641675 -0.16378002 -0.15924375 0.20433156
000020 90 45 a6 3e 05 d6 51 be 74 f7 5a 3e bb 00 88 3e
       0.32474947 -0.20491798 0.21383458 0.26563057
000030 37 58 eb 3e f6 ad 12 be bf e4 10 bc c5 81 09 3e
       0.4596574 -0.14324173 -0.0088436 0.1342841
000040 c1 88 b3 bd 13 e4 ac 3d cf fd 60 be 99 46 91 3e
       -0.08766318 0.08441939 -0.2197182 0.28374174
000050 a5 49 a1 bd 53 fe 08 3e 78 91 cc 3c 09 c8 95 be
       -0.07875375 0.13378267 0.024971709 -0.29254177
000060 00 ef d6 3d 5e 39 09 be 0c 64 a0 bc 66 0f 99 3d
       0.104948044 -0.1340079 -0.019578956 0.0747364
000070 8c f4 d4 be a0 85 0c 3e 08 cf 34 be 2d 49 12 bd
       -0.41592824 0.13722849 -0.17657101 -0.035714317
000080 62 d3 9c bd 1e 8d a8 bd dc 42 80 3d 7e c9 bc be
       -0.076575056 -0.08230041 0.062627524 -0.36872476
000090 ea f3 8b 3d a6 6b ee bd 6d 36 74 3e b0 d8 22 be
       0.06833632 -0.11641626 0.23848887 -0.15902972
0000a0 c8 e6 73 3e 18 be 36 3e fb 34 2b bd ef ff 7a 3d
       0.23818505 0.17845953 -0.041798573 0.061279234
0000b0 f6 a5 61 3d ec f0 0d 3b 6d 58 6c be 40 f2 6a 3e
       0.055089913 0.0021658493 -0.23080607 0.22943974
0000c0 3a 1d d0 3e be c1 7e 3d 20 9c a4 bd 4b cd 2c 3c
       0.40647298 0.062196486 -0.08037591 0.0105469925
0000d0 52 33 82 3d e9 5c 95 3a f8 a2 5d 3d 0c c6 b3 3e
       0.06357445 0.0011395487 0.054110497 0.35112035
0000e0 44 cc 51 be aa 52 ab 3e a9 c0 e4 bd 4f 68 65 3d
       -0.20488077 0.33461505 -0.111695595 0.05600768
0000f0 0f 4c eb 3d d4 1f 0f 3e a4 4f ed bd 2e 8d 40 bd
       0.114891164 0.13976985 -0.11587456 -0.04700964
000100 6c d4 e2 bd 67 1d 59 3e 08 e4 19 3d 28 99 23 3e
       -0.110756725 0.21202622 0.037570983 0.15976393
000110 ef 82 df 3e 20 4a c1 3d 43 6e 2b 3e 44 b2 ec 3d
       0.43654582 0.09437966 0.1674128 0.11557439
000120 df 7a 24 3e 36 1e f9 3b f2 18 23 3e be fd 9c 3d
       0.16062497 0.0076024784 0.15927485 0.07665585
000130 5b 7e 1f be 2b 7f 44 bd 11 c9 62 be 25 ee 1b be
       -0.15575545 -0.04797284 -0.22147013 -0.15227564
000140 2e 48 05 be 4d e5 36 be 9d 8d e6 3d ca c7 db bc
       -0.13015816 -0.17860909 0.11257479 -0.026828665
000150 1d 41 67 be 8d b9 90 3e 74 e5 22 3e 96 2a 17 3d
       -0.22583432 0.28266564 0.15907842 0.036905847
000160 27 d0 15 3d 0a 72 2c 3e 58 40 9d 3d 5b 75 8f 3e
       0.036575463 0.16840377 0.07678288 0.28019223
000170 3f 9c 54 be 17 67 0d be d7 92 7f be bb 74 2e bd
       -0.20762728 -0.13808857 -0.24958359 -0.04259179
000180 de 24 49 3e 81 b9 7b 3d 50 33 73 3e 7e 3c 5d 3e
       0.1964297 0.061456207 0.23750043 0.21605107
000190 3e d7 26 be b1 12 c5 bd aa 3e 68 be 61 70 96 be
       -0.16293046 -0.09622706 -0.22680154 -0.29382613
0001a0 43 ff b4 3d a6 93 a2 3d d2 76 ee bd 89 67 ee bd
       0.0883775 0.07938318 -0.11643757 -0.116408415
0001b0 70 aa d7 be 60 aa 3a 3e 9d 62 c6 3d 8c 53 be bd
       -0.4212222 0.18229055 0.09686778 -0.09293279
0001c0 49 9b 82 bd bf d2 81 be f7 35 42 3d a8 59 52 be
       -0.063772745 -0.253561 0.047414746 -0.20542014
0001d0 21 13 53 3e 23 10 04 be 8c 39 ef bc 90 73 6b 3e
       0.20612766 -0.1289678 -0.029202245 0.22993302
0001e0 9b 98 ab 3d 1c 10 12 3e 48 3e 10 3e 62 cd 07 3e
       0.083787166 0.14263958 0.14086258 0.13261941
0001f0 99 ea 14 be ef 55 01 bd 9e 44 fb 3d 3d eb fb bd
       -0.14542617 -0.031576093 0.12268947 -0.123007275
000200 1e 8b 59 bd e6 66 87 bd 6d f7 44 be 60 ec ca 3c
       -0.053111188 -0.06611423 -0.1923501 0.024770916
000210 5d ab 83 be be fa 02 be de 6b 35 3d 6e fc 3c be
       -0.25716677 -0.12790963 0.044292323 -0.1845567
000220 aa 07 e1 bd 29 b0 9e bc 9a 99 72 bc a9 4f 3e 3e
       -0.1098779 -0.01937111 -0.014807129 0.18585075
000230 b8 0a 41 be 95 90 3f 3d 6c 85 63 3e 56 34 9c 3e
       -0.18851745 0.046768744 0.22218865 0.3050868
000240 7d ba fc bd 43 78 35 3e 2f 4b 15 3e 9c e0 36 3e
       -0.12340257 0.17721657 0.14579462 0.17859119
000250 4a 08 e4 3e 68 02 a2 3c a2 8b 9a 3e 78 4b 85 3e
       0.44537574 0.019776538 0.30184656 0.2603414
000260 04 dd 4d 3d 82 81 18 3e 2d 4d e3 bc 3c 32 1e be
       0.050259605 0.14893153 -0.027746761 -0.1544885
000270 38 f1 32 3e a4 ce 0b be 29 91 d9 bc c2 bb 05 3e
       0.1747483 -0.13653046 -0.026558476 0.13059905
000280 c6 83 f0 3d af d3 2f be 72 ba f1 3c 2f 88 3a 3c
       0.11743884 -0.17170595 0.02950785 0.011385008
000290 c9 87 c9 bd 52 f2 57 3e 7c 50 00 3e ed 6f 83 3e
       -0.09840352 0.21088532 0.12530702 0.2567133
0002a0 d3 fe ae 3e 99 d0 ca 3d 5a d8 a9 3d 81 50 d7 3d
       0.3417879 0.09903068 0.08293219 0.10513402
0002b0 14 a8 43 3e eb 30 89 3e 2b 93 33 3e 81 cd f8 3c
       0.19107085 0.26795134 0.17536609 0.03037143
0002c0 4d 7c 05 be 47 c2 a9 3d c8 89 2c be 5a 03 19 3e
       -0.13035698 0.082890086 -0.16849434 0.14942685
0002d0 a5 02 25 be e0 dc 92 3d 5c 25 a1 bd 29 72 3f be
       -0.1611429 0.07171035 -0.07868454 -0.18695892
0002e0 51 3c e3 bd c3 f0 5b bc 34 7d 06 be fa 9c 50 be
       -0.11095489 -0.013424101 -0.13133699 -0.20372382
0002f0 98 81 0b be cd 3d 2f 3d de 80 75 be e3 d7 32 3e
       -0.13623655 0.042783547 -0.2397494 0.17465167
000300 55 b5 5b be cc cc 2a bd 5a 7c b4 bd 0d bf a0 bd
       -0.21455891 -0.041699216 -0.08812781 -0.0784894
000310 ef 6d 37 be 66 a5 96 bd 40 7a 46 3e 40 62 00 be
       -0.1791303 -0.07355766 0.19382572 -0.1253748
000320 38 3d b6 3c e7 f1 33 be cb 4b 80 be 31 0e 19 3d
       0.022245988 -0.17572747 -0.25057825 0.03736705
000330 3d 7c 1c be 9c a4 b5 bd 82 2e 9a 3d be be 6d be
       -0.15281768 -0.08869287 0.07528402 -0.23217294
000340 80 3b cb be 6c cf 0c be 2c 50 1b be e1 75 12 bd
       -0.39693832 -0.13751 -0.15167302 -0.03575695
000350 8b 18 48 be 80 13 9f be 37 57 89 be 4d 76 9b bd
       -0.19540612 -0.31069565 -0.26824352 -0.075909235
000360 76 9e b9 3c 00 b5 e6 3d b2 3f 5e 3e 7f 63 5a be
       0.022658568 0.11264992 0.21703985 -0.21327017
000370 de 40 ca 3d ee 3d d8 3d 4a ff 89 be f9 41 af be
       0.09875654 0.10558687 -0.26952583 -0.3423002
000380 b6 aa 6a be ce 6e 33 3c 4f f5 54 3e 98 e1 7a be
       -0.22916684 0.010951711 0.20796703 -0.2450012
000390 b5 9f 04 bf 38 8f 37 3e ea 90 9b 3c ca 67 00 3e
       -0.51806194 0.17925727 0.018989999 0.12539592
0003a0 a5 8a a6 be 0e e7 30 be 59 c0 da bd e0 a6 5b be
       -0.32527652 -0.1727564 -0.10681219 -0.21450377
0003b0 bd 0d ad bd 81 6c 87 be 37 2c e0 bc aa 86 aa 3d
       -0.08449886 -0.2644997 -0.027364833 0.083264664
0003c0 6d 98 f8 3b d4 7e da 3d af 6c 0c bd 74 2d 97 bd
       0.00758653 0.10668722 -0.034283336 -0.07381716
0003d0 2c 1c e0 bd f0 48 70 3e 97 d8 23 be f8 8b 00 be
       -0.10942873 0.23465323 -0.16000591 -0.12553394
0003e0 fd a5 42 be 1e e8 f8 bd b8 40 dc 3d 84 ae 01 b9
       -0.19008632 -0.12153648 0.107545316 -0.00012367411
0003f0 d9 01 a6 3c fb 45 df bd d2 1a b5 3d 78 62 e5 3b
       0.020264553 -0.109020196 0.08843006 0.007000264

bias f4 [32]
000000 42 45 ca bd a8 10 ac bb cf 0d df 3d 04 ed 14 be
       -0.09876491 -0.005251009 0.10891306 -0.1454354
000010 de b7 31 3e e8 61 d5 bc 98 0b 23 3e f5 4f d9 bd
       0.17355296 -0.026047662 0.15922391 -0.10610954
000020 97 2c c9 3c 13 9b 4e bd a1 18 84 3d a9 14 06 3e
       0.024557395 -0.05044086 0.0645001 0.13093819
000030 86 d8 60 3e cb bb 1e 3e a0 1f 46 bd ca 64 31 be
       0.21957597 0.15501325 -0.048370004 -0.17323604
000040 bb 9f b7 bd 5b 1e 0f 3e bb bc 95 3d 66 1a f1 bd
       -0.08966013 0.13976423 0.07311388 -0.11772613
000050 99 e9 b6 bd a5 df 15 3e d6 a3 02 bc 70 ab cf bd
       -0.08931274 0.14636095 -0.007973632 -0.10140121
000060 cd 89 24 be 47 c6 4b 3d 3d df 71 3d 3b b1 8c 3d
       -0.16068192 0.04974964 0.059050787 0.068697415
000070 11 32 3e be bd 24 94 3d d5 1d f5 3b 7d 74 9e bd
       -0.18573786 0.0723357 0.007480363 -0.07737062

weight_ih_l0 f4 [96, 32]
000000 77 e5 a5 bd 48 12 2f 3d 2e 1b a8 bc 08 b0 42 be
       -0.081004076 0.042742044 -0.020520773 -0.19012463
000010 8d 06 b7 3d 19 96 14 bd d4 c1 1e bd d2 76 ce 3d
       0.08936796 -0.036275957 -0.038759068 0.10081257
000020 19 f4 c7 3d 99 8f 0e 3e 12 bf f6 3d d4 b4 ae bd
       0.09763355 0.13921966 0.120481625 -0.08530584
000030 06 48 c2 bc 20 27 9f be 44 b7 a7 3c 20 70 f6 bd
       -0.023715984 -0.31084538 0.02047313 -0.12033105
000040 7e 50 a7 3c 1e dc 70 bd 32 18 a4 3d 83 fb 30 3c
       0.020424124 -0.05880367 0.080124274 0.010802153
000050 6c b3 9a bd 65 85 c7 3c 2b f4 8a 3e 17 ad b5 bc
       -0.07553753 0.0243556 0.2713941 -0.022177262
000060 32 60 0f bc 2b ab d2 3d ea 25 94 3b 52 e4 c5 3d
       -0.008750962 0.10286554 0.0045211213 0.09662689
000070 03 98 ef 3c 82 17 00 be 10 2f 85 bd 06 3d 3a 3e
       0.02924729 -0.12508968 -0.06503117 0.18187341
000080 1a 49 43 be 7a 6c bd bd 52 18 c6 bc 33 a2 3e be
       -0.19070855 -0.09249206 -0.024181519 -0.18616562
000090 0c f8 78 3e 73 67 f7 3c 4c 7d c2 bd c7 56 46 3d
       0.24313372 0.030200696 -0.09496555 0.0484226
0000a0 df 68 35 3e 2f 86 a2 3e b7 3b 49 be 18 6e 84 be
       0.17715786 0.31743 -0.19651686 -0.25865245
0000b0 ee e8 c1 bd 79 f3 77 be 60 5f 38 3e 55 47 dc bd
       -0.09468256 -0.24213971 0.18005133 -0.10755793
0000c0 5c 48 7b 3e d0 cb 8e be 9c d3 30 3e 36 90 f5 3d
       0.24539322 -0.27889872 0.17268223 0.11990397
0000d0 1e d0 ab 3d 69 f8 f7 3c b2 8c 3c bd 82 43 3e 3e
       0.083893046 0.030269818 -0.046032615 0.1858044
0000e0 e8 a4 9f 3d e2 8b 2a bd 03 37 6d bd 6e 5e 12 3e
       0.07795125 -0.04163731 -0.05791379 0.14293835
0000f0 f0 9d 84 3d e0 f7 97 bd 4c c6 2f bc c3 11 83 3e
       0.06475437 -0.07420325 -0.01072843 0.2559949
000100 1c fa 0c 3e 64 ce f8 bd a1 5b 62 3e 6e 77 92 be
       0.13767284 -0.12148741 0.22105266 -0.28606743
000110 4e 6f ec 3c 50 f3 b0 3d a7 e3 b3 bd 45 d3 0b 3e
       0.028861668 0.08640158 -0.087836556 0.13654812
000120 d3 48 e0 3d f4 33 19 3e 56 dd a0 bb 90 ab aa bd
       0.1095139 0.14961225 -0.004909198 -0.08333504
000130 85 53 6e bd ab 27 77 be 88 35 0a be 33 81 c4 bd
       -0.05818512 -0.24136226 -0.13496983 -0.09594955
000140 92 70 e7 bd 40 84 d6 bd ff 69 1f bb 7f 3b 44 be
       -0.11300768 -0.104744434 -0.0024324653 -0.19163321
000150 c1 eb f8 3d 94 8f a3 bd 3b 23 18 3e 0d 46 89 3c
       0.121543415 -0.0798637 0.1485719 0.016757036
000160 78 52 2f 3e 0f 04 b6 bd 00 5f 2b be ea 2b a2 3d
       0.17121303 -0.08887493 -0.16735458 0.07918532
000170 f6 87 ff 3d 8a 23 5d be fc 31 6c 3d 94 99 82 3d
       0.12477104 -0.21595588 0.057664856 0.06376949
000180 79 74 ac 3d 1d 1e 51 3d 81 e7 26 3d f1 a6 9e bd
       0.08420653 0.05105411 0.040748123 -0.07746685
000190 5e 80 87 3e 51 a0 3b 3e 1e eb 25 3d 2b a3 b1 bd
       0.26465124 0.18322875 0.04050743 -0.086737
0001a0 92 55 82 3e 6d b1 82 3e fa 6a 8d bc f1 5d 26 bd
       0.2545591 0.2552599 -0.017262924 -0.040616933
0001b0 bf 1d 7a bd d3 6a 21 be 72 0c 01 3e 50 16 b1 3d
       -0.061063524 -0.15763406 0.12602404 0.08646834
0001c0 bd 54 eb bc f8 81 2f be e4 fe d7 3c aa 00 18 3d
       -0.02872693 -0.17139423 0.026366659 0.03711001
0001d0 be fc a6 3c 9f ad 82 3c d4 d5 46 3d 29 d3 03 3e
       0.020384189 0.01595193 0.048543766 0.1287352
0001e0 c3 4d 52 3d 2e af 53 3e 83 68 77 bd 3f 9b 70 3e
       0.05134369 0.20672294 -0.060402405 0.23496722
0001f0 05 e1 a8 bd c9 9a 63 bc 39 6e 7e 3d 94 40 07 bd
       -0.08246044 -0.013891884 0.062116835 -0.03302057
000200 1c 44 53 be 4b 32 62 3d 62 4a 41 be 78 76 24 bd
       -0.2063145 0.055223744 -0.18876031 -0.040152043
000210 44 1f 5c 3e c1 a1 52 3e e3 63 0d bc 2d d0 a8 3d
       0.21496302 0.20569517 -0.008629772 0.082428314
000220 ee 6a da 3d fe 89 9c bb b6 e5 e5 bd e0 64 03 be
       0.106649265 -0.004777192 -0.112254545 -0.1283145
000230 8c 3e 1c be dd 30 b2 3d e8 b7 e1 bd ac 41 38 bd
       -0.15258235 0.08700726 -0.110214055 -0.044984505
000240 ae 69 f6 3d 2a 0b b9 bd 31 f7 b0 bd de b6 2f 3e
       0.120318756 -0.090353325 -0.08640898 0.17159602
000250 a1 26 0b 3e 75 93 0d 3e f5 f6 13 3e d8 20 b2 3d
       0.13588955 0.13825782 0.14449675 0.08697671
000260 81 8c 82 bd 95 08 24 b8 1d 2f cb 3d 29 66 87 3d
       -0.06374455 -3.910864e-05 0.099210955 0.066112824
000270 c0 c6 40 be 27 58 fb 3d 08 ab 85 bd ed d3 13 3e
       -0.18825817 0.12272673 -0.06526762 0.14436312
000280 19 59 ea bd 24 c9 f3 3c cc 93 42 be c9 9d 56 be
       -0.11442775 0.029758997 -0.19001693 -0.20958628
000290 46 97 d3 bb 1a 65 88 bd ce 10 28 bd e9 88 4c be
       -0.006457242 -0.066599086 -0.04103165 -0.19974102
0002a0 02 61 42 3e 80 ad 48 bd 7d 88 3a 3d fe da 1f bd
       0.18982318 -0.048993587 0.04554032 -0.039027207
0002b0 53 53 71 be 23 71 1b be fb 5b cf 3d 57 6b 73 3d
       -0.23566942 -0.15179877 0.10124966 0.05942854
0002c0 91 1d 04 3e fa 4b 2a be e3 ef a6 bd 48 20 3d 3e
       0.12901904 -0.16630545 -0.081512235 0.18469346
0002d0 c9 19 8b bd 38 4a 07 be d6 9d 86 3e 94 4e 26 3e
       -0.067920275 -0.13211906 0.26292294 0.16240913
0002e0 54 c9 14 be 33 7a 84 bd ee 27 3f be e1 d4 91 bd
       -0.14529926 -0.0646862 -0.18667576 -0.071206816
0002f0 ca e4 07 be 4d 8b 79 3d 5e 61 8b be 33 87 87 bd
       -0.1327087 0.060923863 -0.27222723 -0.06617584
000300 de 8c 76 be dd 37 44 3e e2 5b 06 be 78 7e 4e be
       -0.24077174 0.19161935 -0.13120988 -0.20165431
000310 30 76 a6 3e 69 eb 07 3d 11 45 52 be 0c 7c 96 be
       0.32512045 0.03318349 -0.20534159 -0.29391515
000320 1a 32 30 3e 4a a7 8e 3e 97 13 e5 3d 84 c4 23 be
       0.17206612 0.27862006 0.11185377 -0.15992934
000330 ee a9 1a be 3a c4 6d 3d 48 a7 d1 3d 35 54 91 3e
       -0.15103886 0.058048464 0.102369845 0.28384557
000340 ca 87 88 3d 18 09 bb bd 1b 7b 49 3e 36 52 fe bc
       0.06666525 -0.09132594 0.19675867 -0.03104506
000350 c3 d9 1b 3d 28 fd 18 be bd 6d 2f 3d f9 f7 e5 3c
       0.03804947 -0.14940321 0.042829264 0.028072344
000360 13 79 a8 bc bd d5 65 3e e3 aa 41 bd 95 e3 0d 3e
       -0.020565545 0.22444816 -0.04728211 0.13856347
000370 1a b3 83 be eb 1b 83 bd 68 6d 1f bd 8e 7e d8 3d
       -0.2572258 -0.06401809 -0.038922697 0.105710134
000380 8f 19 94 3e 3f bf 56 be 34 81 85 bc 17 7b 69 3d
       0.2892575 -0.20971392 -0.01629696 0.057002153
000390 f1 d4 02 be 63 ff 6a 3e 34 88 84 3e 08 bc 57 3e
       -0.12776543 0.22948985 0.25885165 0.21067822
0003a0 19 a7 86 be 37 46 55 3a 77 ba 04 bd d1 09 b5 3d
       -0.2629936 0.0008135768 -0.03240439 0.08839763
0003b0 f7 01 58 3e bd 34 0a be b7 a1 23 bd 76 e0 33 be
       0.210945 -0.1349668 -0.039949145 -0.17566094
0003c0 0d b8 14 be 20 e7 8b bc 1c 08 e5 bd de 40 53 be
       -0.14523335 -0.017077982 -0.11183187 -0.20630214
0003d0 ae 62 14 be 20 6a 9c 3d 43 7e 29 be 51 3d f6 bc
       -0.14490768 0.07637429 -0.16552071 -0.030058535
0003e0 f0 02 6d 3e e6 77 13 3d 14 54 4b 3d d5 a5 d1 3d
       0.23145652 0.036003016 0.04964073 0.10236708
0003f0 04 bf 4a 3e 68 56 a8 3d 41 5a 82 3d cc 7d 25 3d
       0.19799429 0.08219606 0.06364871 0.040403172

weight_hh_l0 f4 [96, 32]
000000 fc 92 34 be 60 d9 e3 bc e6 c4 88 bd 90 ab c3 bd
       -0.17634195 -0.027813613 -0.066781804 -0.09554207
000010 30 99 56 be 22 80 31 be 5c 09 8b bc db 40 6a be
       -0.20956874 -0.17334035 -0.016972236 -0.22876303
000020 9d 43 8f 3d e8 da 16 be 61 a0 f3 3d 6e b9 11 3e
       0.06995318 -0.14731944 0.11895824 0.14230892
000030 15 57 67 be e9 03 b6 3d 14 b4 93 bc 0f 85 2b bd
       -0.22591813 0.088874646 -0.018030204 -0.04187494
000040 80 c0 2e 3e e3 12 26 3e 00 c5 d8 3d c8 44 82 3b
       0.1706562 0.16218142 0.1058445 0.0039754845
000050 03 fc aa bc 13 ed 46 be 7f 8d 5c bd 5a e6 40 3e
       -0.020872122 -0.19426374 -0.05384588 0.18837872
000060 f9 de 8a bd a4 c7 9a bd 36 92 1c be 63 54 27 bd
       -0.0678081 -0.0755761 -0.1529015 -0.04085196
000070 16 9e 37 3e 19 03 20 bd c4 e8 3d be 92 71 f1 3d
       0.17931399 -0.039065454 -0.18545824 0.1178924
000080 c8 8c 22 be fb 5d 87 3d ca ae 15 bd 3e ce 24 bd
       -0.15874016 0.06609722 -0.036543645 -0.04023575
000090 f8 09 5c be 24 bd b7 bd 60 90 d2 bd fa 9a 62 3d
       -0.21488178 -0.089716226 -0.102814436 0.05532358
0000a0 04 b9 39 bd 93 07 b9 3b 38 92 77 3d 9b c1 57 3b
       -0.04534246 0.005646655 0.06044218 0.0032921794
0000b0 f9 2b 4e be a8 fa 1b 3e 49 f4 cd bb 0a 16 4d be
       -0.20133962 0.15232337 -0.0062852246 -0.20027938
0000c0 18 de 85 bb cd 44 bf bb 7e 31 57 3e d8 e5 f3 bc
       -0.0040853135 -0.005837059 0.21014974 -0.029772684
0000d0 d3 71 34 be ce 91 f5 bd fa 2b 13 bc 49 99 b6 bd
       -0.17621545 -0.11990701 -0.008982653 -0.089159556
0000e0 ee 4d ee bd c2 ae fc bd 4b c4 9c bc 03 32 0d be
       -0.11635958 -0.1233802 -0.019136569 -0.13788609
0000f0 f4 f6 3a 3e 93 58 cf 3c bd 03 63 be b0 75 18 3e
       0.18258268 0.02531079 -0.22169395 0.14888644
000100 c6 4d 90 bd 44 c5 a2 bd 67 9d ec bd 85 46 57 3e
       -0.07046084 -0.07947782 -0.115534596 0.21022995
000110 b4 60 86 bc d7 a1 ea bd 35 46 0d 3e 2f 2e 86 bd
       -0.016403534 -0.1145665 0.13796313 -0.065517776
000120 6b 15 23 be 18 2e 40 3e 04 b4 fe 3d 65 69 37 3d
       -0.15926139 0.18767583 0.12436679 0.044778246
000130 04 46 f5 3d 06 f7 88 3d af dc 5f be 57 fe aa bd
       0.11976245 0.06687741 -0.21861528 -0.08349293
000140 8f 2b 77 3d ad 82 11 be 63 c7 86 3d 5b 71 d6 3d
       0.060344275 -0.14210005 0.06580999 0.104708396
000150 eb b7 2c 3e 80 71 5c bc dc 4e f8 3d 92 ce 48 3b
       0.16867034 -0.013454795 0.12124416 0.0030640704
000160 aa 10 64 be 01 6d c5 3d 9e dc 00 3e 84 3b 5f 3e
       -0.22271982 0.096399315 0.12584159 0.21800047
000170 b5 16 26 3d 91 4c 4f 3e 93 6d 00 be 69 81 c8 3c
       0.040549 0.20244052 -0.12541799 0.02447577
000180 7b 0c 09 be 01 67 92 3d c9 ca d1 3d 33 52 51 bd
       -0.13383667 0.07148553 0.10243756 -0.051103782
000190 89 d1 ab 3c bd ab 03 3e 16 28 b7 bd 41 68 d3 bd
       0.020973938 0.12858482 -0.08943193 -0.10322619
0001a0 f8 ef 34 3e 53 73 fa bd ae b0 0b 3d d1 09 0a be
       0.17669666 -0.122290276 0.03410404 -0.13480307
0001b0 c8 ce 2b be dc e2 6a bc de d6 26 be 02 dd 3a be
       -0.167781 -0.014336314 -0.16292903 -0.1824837
0001c0 36 99 57 3e 8e f0 09 be d3 9a ca 3d 44 2a 04 be
       0.21054539 -0.1347067 0.098928116 -0.12906748
0001d0 03 b9 d2 bc ee b7 15 be ee b7 cd 3d 8c b8 81 3d
       -0.025722986 -0.14620945 0.100448474 0.06334028
0001e0 43 89 f7 bd b1 37 72 bd ec c0 7e 3d 04 d9 d5 bb
       -0.120867275 -0.059135143 0.062195703 -0.0065261144
0001f0 e8 e6 8d 3c 4a 2a 4a be 0b 88 29 be f8 25 a4 bb
       0.017322019 -0.19742694 -0.16555803 -0.005009409
000200 85 fb 28 3e 2f cd a4 3b 37 c8 f6 bd e5 86 dc bd
       0.16502197 0.0050293426 -0.12049907 -0.107679166
000210 94 e6 1b be 9d b0 9d bd d3 38 41 bd 81 c8 f7 bd
       -0.15224677 -0.07699702 -0.047173332 -0.1209879
000220 7a cf 19 3e 7b 18 9b bd ed 86 2b 3e 65 32 9c bd
       0.15020552 -0.07573029 0.16750689 -0.076267995
000230 16 05 f4 bd 00 c9 52 3d 0d e3 0e 3d 2e 92 34 be
       -0.119150326 0.05146122 0.0348845 -0.17633888
000240 27 5f f1 bd cc c8 d7 3a e0 64 50 bd ee ee 4e bd
       -0.11785727 0.001646304 -0.050877452 -0.05052083
000250 ea 2c 2e be 41 bd 5b bc 9e 32 18 be ca 81 89 bd
       -0.17009321 -0.013411821 -0.14863059 -0.067142084
000260 b5 6d 42 3e aa e4 02 be f2 ec 53 be a2 f0 c7 3d
       0.18987162 -0.12782541 -0.20695856 0.09762694
000270 2a ce 1e be f1 54 6a 3c 0d 20 a4 3d 40 56 b1 bd
       -0.15508333 0.014302478 0.08013926 -0.08659029
000280 cd e9 da bd b5 af 50 bd 59 67 38 bc 05 3a 10 bd
       -0.10689125 -0.050948817 -0.011255109 -0.03521158
000290 fe b3 c5 3d ed cf 42 3e ee 6b eb 3d 7d 8a 10 3d
       0.096534714 0.1902463 0.11495195 0.035288323
0002a0 e7 2d 59 bd 5e f9 19 bd 0a 66 f4 3d 78 6f 8d 3d
       -0.05302229 -0.03759133 0.11933525 0.069060266
0002b0 ed 28 80 bd 9f 43 21 3e b9 5e 9d bd 59 cd 0c 3d
       -0.06257806 0.15748452 -0.076840825 0.034375522
0002c0 bc 9f cd 3c 5b 3a d0 3d 89 f3 c3 3d ae 7c 9d 3d
       0.025100581 0.101673804 0.09567935 0.076897964
0002d0 a5 55 14 3e dc b6 a2 3d 0c cc be bd 9d 9c a0 3d
       0.14485796 0.07945034 -0.093162626 0.078423716
0002e0 92 60 82 3d 85 76 9f bd 07 28 4d 3b 8b 0e 3b be
       0.063660756 -0.07786278 0.0031304376 -0.18267266
0002f0 9c 46 18 be 17 d5 5e 3e a4 70 47 3e f3 23 f5 bd
       -0.14870685 0.21760975 0.19476563 -0.119697474
000300 92 01 b0 bd 70 fe d6 bc e4 23 72 bd c2 6c fc bd
       -0.085940495 -0.026244372 -0.05911626 -0.123254314
000310 c5 a3 a6 bd 9d 27 80 be 9c e9 ab 3c 73 da 94 bc
       -0.08136705 -0.25030223 0.020985417 -0.018170571
000320 27 aa 58 3e 28 44 30 be 8d 94 86 3d 6c 25 78 bd
       0.21158658 -0.172135 0.065713026 -0.060582563
000330 da 7e d0 3d 76 4f c8 bd 8a ba 72 3d 09 47 4e bd
       0.10180445 -0.09780781 0.05925993 -0.050360713
000340 90 ff 67 3e 75 ea 83 3e cd b6 c3 3c c9 ab 7d be
       0.22656083 0.25764814 0.023890877 -0.24772562
000350 bb fd 11 3d ae 21 db bd 1e 6b bb bd fc 3d b3 bd
       0.035642367 -0.10699783 -0.0915129 -0.08752057
000360 d8 de 24 bc 6e da 8f bc 42 af a3 bd 3d b4 08 be
       -0.010062896 -0.01756021 -0.07992412 -0.13350005
000370 fe a0 fc 3b 00 fb bc bd c2 42 57 be 69 8a 8e 3d
       0.0077096215 -0.09227562 -0.2102156 0.069599934
000380 42 fb 94 3d 84 39 49 3e 1c c6 f5 bd 9c 86 d0 3d
       0.07274486 0.19650847 -0.12000677 0.10181925
000390 f8 c7 7e 3d bc b1 bf bd e4 31 58 be 57 09 b0 3d
       0.062202424 -0.09360072 -0.21112782 0.085955314
0003a0 21 a2 ef bd 5e ee 28 3e cc 7e d0 3d 79 8d 0d 3e
       -0.117008455 0.1649718 0.101804346 0.13823499
0003b0 58 36 cd 3d a3 29 0a bd 4a b0 98 bd d1 be f8 3d
       0.10020131 -0.033731114 -0.074554995 0.1214577
0003c0 1b 45 89 bc 24 90 8b 3e 74 71 e8 3d 45 0e f5 bd
       -0.016756585 0.27258408 0.113497645 -0.11965612
0003d0 2d cb fa bd 49 58 71 3a d1 85 bb 3d 61 ea 12 bd
       -0.12245784 0.0009206576 0.09156383 -0.035868052
0003e0 ee 2a 64 3d 70 06 35 bc 07 bd 09 3e b9 d5 19 be
       0.055705003 -0.011048898 0.13451014 -0.15022935
0003f0 5a 0c 51 3e 60 a5 8d be c8 db 71 be 66 ab 5d 3d
       0.20414868 -0.27665234 -0.23618996 0.054118536

bias_ih_l0 f4 [96]
000000 e7 af 13 bc d4 38 20 bd 99 de 25 3e 48 51 0f 3e
       -0.009014106 -0.039116696 0.16198196 0.1399585
000010 3e 3f 7c 3e dd b2 bf bd 7a 75 2f be 40 24 97 3c
       0.246335 -0.09360287 -0.17134658 0.018449903
000020 b8 be 32 3e 34 27 93 bd 6f 99 18 3d 3c f7 c4 3d
       0.17455566 -0.07185212 0.0372557 0.09617469
000030 01 d9 d7 bc 2b 2f ce 3d 46 9e c6 3d 89 0b 4c 3e
       -0.026348593 0.1006759 0.09698157 0.19926275
000040 1a 15 27 3e 34 53 55 3e 17 72 c5 bc ae ab 69 3e
       0.16316643 0.2083252 -0.024102254 0.22819397
000050 5a 90 d0 3d 06 67 39 bc ba a7 16 be 85 0c 7b 3e
       0.10183783 -0.011316067 -0.1471242 0.24516495
000060 75 38 01 be 63 0a 0a 3e 82 04 fc 3d 03 7f fb 3d
       -0.12619193 0.13480525 0.12305547 0.12280085
000070 83 3e b0 3d 01 30 b7 3d 62 75 21 be c2 0f 44 3e
       0.08605673 0.08944703 -0.15767434 0.19146636
000080 b3 5a 6b bc 6d 7e 90 3d c6 0e a4 3d 6c 2c 23 be
       -0.014364886 0.07055364 0.0801063 -0.15934914
000090 06 b6 d1 bd c2 b0 36 3e 17 19 26 3e 8d a5 18 be
       -0.10239796 0.17840865 0.16220509 -0.14906903
0000a0 a2 9d 81 be 5d 62 62 bc 86 ae 19 be b9 f7 9f bd
       -0.25315577 -0.013817397 -0.15007982 -0.07810921
0000b0 48 98 c1 bc 69 ac 07 be 59 fa 76 3d 56 3f 7e be
       -0.023632184 -0.13249363 0.060297344 -0.24828848
0000c0 41 48 a7 bd e9 77 12 bd 48 65 6d be 92 e3 0a 3d
       -0.08168078 -0.035758886 -0.23183167 0.033908434
0000d0 e0 f4 9f bc 65 b8 33 bc 45 59 dd bd 8f 81 4a 3d
       -0.019525945 -0.010969256 -0.108080424 0.049439963
0000e0 bb 9d 83 3c a7 ac 23 be 10 36 de 3d 8a dd a9 3c
       0.016066423 -0.1598383 0.10850155 0.02073552
0000f0 96 13 cb bd e0 bb df 3d a8 01 93 bd a9 b3 41 3e
       -0.09915845 0.10924506 -0.0717805 0.18916191
000100 1f 94 4d 3e 8b e8 30 be df 16 07 be b3 2c ba 3d
       0.20076035 -0.17276208 -0.13192318 0.09090557
000110 ee 72 42 3e ea 3e 87 3d 17 ba 35 3e 8f 78 6d bd
       0.18989155 0.06603797 0.17746769 -0.0579763
000120 30 c6 80 3c 0e 50 b2 bd 45 80 fa bd 9f c3 c6 3c
       0.015719503 -0.087066755 -0.12231497 0.024263201
000130 e5 28 76 3d b2 68 d2 bc 39 6c 37 bd 89 4b c8 bd
       0.060097594 -0.025684688 -0.044780944 -0.09780032
000140 77 52 d1 bd f1 49 28 be 71 37 4d 3d 1e d5 47 3e
       -0.10220807 -0.16434456 0.0501017 0.19514892
000150 e4 f1 0f 3c 2e f2 2b 3e 7c c8 65 3d 41 55 e3 bd
       0.008785699 0.16791603 0.0560994 -0.11100245
000160 b8 0a c5 bd 27 fb de bd 97 93 24 be f8 17 19 3e
       -0.09621185 -0.10887747 -0.16071926 0.1495055
000170 94 90 10 be 0c e9 f4 bd 5d 2f e9 3d 02 3a 20 3d
       -0.14117652 -0.11958513 0.11385987 0.03911782

bias_hh_l0 f4 [96]
000000 ee 13 af 3d 4a ae 29 3e 3b 75 3c 3e 9b 6b 0c 3e
       0.08548723 0.16570392 0.18404095 0.13712923
000010 a3 de 3b 3e e7 2c 14 be f5 fa c7 bd 27 02 29 be
       0.18346648 -0.14470254 -0.09764663 -0.16504727
000020 d9 cc 77 bd e6 34 ff bd 56 7c f8 bd 46 05 93 3e
       -0.060498092 -0.124612615 -0.1213309 0.2871496
000030 00 2c 66 3e ce 42 3e be e8 63 d9 bd be 52 87 3e
       0.22477722 -0.18580171 -0.10614759 0.26430315
000040 42 05 ce bd 66 dd 91 bc e6 02 fd bc 05 e8 6c 3e
       -0.100595966 -0.017805766 -0.030885171 0.23135383
000050 b9 17 14 bd 21 8c 2c 3d d7 71 04 be 9f 58 15 bc
       -0.036155436 0.042125825 -0.12934051 -0.009115367
000060 d8 f0 86 bd 36 8e a0 bd fa 9e 45 3e f5 d7 ce 3c
       -0.06588906 -0.078396246 0.19298926 0.02524946
000070 c3 77 00 be e1 29 c0 3d 0c fe 2c be 10 be f1 3d
       -0.12545685 0.09382988 -0.16893786 0.1180383
000080 69 05 c6 ba 4d ad 16 be 1a 52 fa bc 51 5d eb bd
       -0.0015107814 -0.14714547 -0.030556727 -0.11492408
000090 57 67 df bd 08 ec c1 3d c3 26 66 bd 53 7b c3 bd
       -0.109083824 0.094688475 -0.05618931 -0.095450066
0000a0 c2 cc 36 be 38 b1 5f 3d 5a 4c d7 3d bc 7a 55 3d
       -0.17851546 0.05461237 0.1051261 0.052119
0000b0 ab e4 3d bd b5 d4 d9 3d 7c ec 9a 3d f5 07 e6 bd
       -0.046360653 0.10636274 0.07564637 -0.112319864
0000c0 c6 cf 25 3e f8 c6 ef bd 47 19 78 be f1 97 eb 3d
       0.1619254 -0.11707872 -0.24228393 0.1150359
0000d0 10 6d 82 3d df e4 18 be 35 62 dd 3d f9 de 86 be
       0.06368458 -0.14931057 0.10809747 -0.2634199
0000e0 0a 71 81 3d ed 0f ca bc 1c 32 20 be f0 8a 06 3e
       0.063203886 -0.024665797 -0.15644115 0.13138938
0000f0 65 e4 c7 3b c8 bc 54 3e d1 c0 19 3e 9d 8e da 3d
       0.006100225 0.2077514 0.1501496 0.106717326
000100 fb 29 dd bd 3b fb d7 3c 52 21 62 3d 14 15 44 3e
       -0.10799023 0.026364913 0.055207558 0.19148666
000110 4d 58 86 3a 7e 3e de 3d df 2d da bd c0 ef df bc
       0.0010249704 0.10851763 -0.106532805 -0.027336001
000120 33 f1 34 3e 86 c8 16 3d b9 8a 2c be f0 f6 58 bd
       0.17670135 0.036812328 -0.16849793 -0.052969873
000130 4a ed 97 3b c4 3b 76 3d c0 1e 59 be 8d 89 38 3d
       0.0046364414 0.06011559 -0.21203136 0.045053054
000140 51 95 84 3d 1a 79 56 bd e3 71 d6 bc ed 14 ec 3c
       0.06473792 -0.052361585 -0.026177352 0.028818572
000150 8a d1 09 3e f5 c8 74 bd df 08 b8 3d 7e 66 a1 3c
       0.13458839 -0.05976196 0.08986067 0.019702192
000160 c0 25 de 3d 7d 80 9b 3d 49 05 a8 bd e1 2a bf 3d
       0.10847044 0.075928666 -0.08204133 0.093343504
000170 f0 f1 fb bd 4e 26 24 3a 65 7f 21 be 12 46 d2 bd
       -0.12302005 0.00062618114 -0.15771253 -0.10267271

weight_ih_l0 f4 [96, 32]
000000 3d 76 1b 3e ee c0 ad 3d 26 a9 f7 bb 32 42 9b bc
       0.15181823 0.08484064 -0.007558006 -0.018952463
000010 8f 3f 45 be 2f b0 0c 3d 29 eb 27 3e 68 96 95 bd
       -0.19262527 0.03434771 0.163983 -0.07304078
000020 b9 eb 78 3d 60 fa 3e bd 4b 8b 1b bd 99 ca 5b be
       0.060771678 -0.046625495 -0.037974637 -0.21464004
000030 93 32 81 3c 86 83 0e be f8 92 26 3d 81 3e df 3c
       0.015771186 -0.1391736 0.040667504 0.027251484
000040 8c 78 aa bd 99 3a 20 be 84 bc 01 3e 3c b8 44 3e
       -0.08323774 -0.15647353 0.12669569 0.19210905
000050 37 d1 a3 bd fa 98 cc bd 33 26 34 ba 02 ae 26 be
       -0.07998889 -0.099901155 -0.0006872147 -0.16277316
000060 bb e8 0f 3d e2 f5 aa 3d 27 1c 51 be ea 1f 02 3e
       0.03513406 0.0834768 -0.20420896 0.12707487
000070 3e 39 50 bc 95 93 fc bd 0a 1f 2e be 5a 33 3d be
       -0.01270896 -0.123328365 -0.17004028 -0.1847662
000080 fa dd 70 3e f0 45 27 be fa fa ab 3d d3 0f 10 3e
       0.23522177 -0.16335273 0.08397479 0.14068536
000090 67 42 8e bc df b8 c9 3d 4e ed b8 3d 02 01 e2 bd
       -0.017365647 0.098497145 0.09029637 -0.110353485
0000a0 67 5a d8 3d 7d 31 45 3e d6 ce c7 bd b0 b6 a5 bc
       0.10564118 0.1925716 -0.09756248 -0.020228714
0000b0 fd 1e 35 3e 4f 26 95 bd 16 7a 79 bd 94 c3 b2 bd
       0.17687602 -0.072826974 -0.060907446 -0.0872871
0000c0 dc 4b c0 bd 7d 79 c5 3d 6f 15 ed bd e7 41 13 3e
       -0.09389469 0.09642313 -0.11576354 0.14380608
0000d0 6a 0b 3f 3d b1 eb 36 be 97 b9 fc 3d 05 20 36 3e
       0.046641745 -0.17863347 0.12340086 0.17785652
0000e0 99 c4 81 3d bb 8b cf 3d a0 d5 76 bd d4 0e 98 bd
       0.06336326 0.10134073 -0.060262322 -0.07424703
0000f0 81 32 13 3e 83 b4 f4 3d 83 2c 9b 3d ea 27 b1 3d
       0.14374734 0.119484924 0.07576849 0.08650191
000100 ce 07 a1 3d 6b 3d 89 3d e4 5e 98 bd d1 49 e5 bb
       0.07862817 0.06701168 -0.07439974 -0.006997325
000110 6c 0e c1 3d 16 6f 11 3e 3e cb b7 3c a4 a9 46 3d
       0.09426579 0.14202532 0.02243578 0.048501626
000120 e8 e6 ff 3d 99 4a 1e be f0 3a 25 be 38 e2 1c 3e
       0.12495214 -0.15458144 -0.16135764 0.1532067
000130 71 3a 9a bc e6 ee 32 3d 25 51 ba bd c9 d3 ef 3c
       -0.018826695 0.043684863 -0.09097508 0.029275792
000140 09 14 39 be 7c 62 70 3d 63 45 13 be 8f 5e 95 3c
       -0.18074049 0.058687672 -0.14381938 0.018233566
000150 a0 aa 33 be 57 99 3e 3d ad 06 3f 3e 17 35 b4 bc
       -0.17545557 0.046532955 0.1865489 -0.021997971
000160 fc 62 24 3e 4c 8b 2b be 4f 09 23 3e fa bb f0 bd
       0.16053385 -0.16752356 0.1592152 -0.11754604
000170 65 ac 08 3e 1f b9 9d bd c2 5e 1c 3e d1 48 fe bc
       0.13347013 -0.07701325 0.15270522 -0.031040581
000180 dc 39 06 3e a0 ce 5e 3d e0 41 cd 3d 2f 6f 46 3e
       0.13108009 0.05439627 0.1002233 0.1937835
000190 1c 64 3f 3d fb aa 5d 3d 20 6d 86 3e 48 89 87 3d
       0.04672633 0.054118138 0.2625513 0.06617981
0001a0 76 da 47 be 5a 7b b3 bd 63 b1 5f 3b ae 47 7a bd
       -0.1951693 -0.08763762 0.003413283 -0.061103515
0001b0 a9 5e 9f 3d 69 99 fc 3d 86 45 db bc 0c 0f 6f 3e
       0.07781727 0.12333948 -0.02676655 0.23345584
0001c0 8a a4 83 3d 91 6a 39 bd 89 74 9e 3d 06 9d 97 3d
       0.06427868 -0.045267645 0.07737071 0.07402997
0001d0 e8 6b 82 be 10 12 0f be 3f 1c 13 3d 02 19 e7 3d
       -0.2547295 -0.13971734 0.03591561 0.11284067
0001e0 41 1c 2c 3e 3e 93 ff bd 85 21 31 3d d8 c5 60 bc
       0.16807653 -0.12479256 0.043244857 -0.013719045
0001f0 7c 46 00 bd 6b d7 7f 3d d5 1d e8 bc 42 75 4e bc
       -0.03131722 0.062461298 -0.028334538 -0.012601199
000200 66 02 25 3e 69 9e d3 bd 72 50 df bd a2 86 9f bd
       0.16114196 -0.10332949 -0.109040156 -0.07789351
000210 96 44 35 be 6d 2c 0d 3e 01 10 16 3e 9d 22 31 be
       -0.17701945 0.13786478 0.14654543 -0.1729836
000220 2c 3c 40 bc 2c 09 9c bd 11 fb 9f bd c9 e9 5e bd
       -0.011733096 -0.07618937 -0.07811559 -0.054422174
000230 ed e3 1a 3e 96 5e 94 3c c2 38 b4 3d c2 83 22 3e
       0.1512601 0.018111508 0.08799888 0.15870574
000240 49 65 23 3e a5 73 9e 3c 25 e5 84 bc ad 2c 28 3e
       0.15956606 0.019342253 -0.016222546 0.16423292
000250 a4 96 65 3d fc dd 09 3e 71 22 4a be ce ef 35 3e
       0.056051865 0.13463587 -0.19739701 0.1776726
000260 59 93 88 bd cf 53 2d bd 1f 4f a2 3c a9 7a 60 be
       -0.06668729 -0.042316254 0.019813119 -0.21921791
000270 75 69 50 3d bc 0a 18 3e 60 cf 0c 3d 70 ac 7a bd
       0.05088182 0.14847845 0.034377456 -0.061199605
000280 89 be 6a 3e 9c d3 a2 3d b4 f7 66 3c 71 f4 79 be
       0.22924246 0.079505175 0.014097143 -0.24409653
000290 a9 fe f0 bc 43 ac 95 3d 42 20 6d bd 8f c5 fc 3d
       -0.029418306 0.07308247 -0.05789209 0.12342369
0002a0 c4 c0 66 bd e4 f7 4f 3c bc ad 36 3d 25 c8 88 38
       -0.05633618 0.012693379 0.04459928 6.522265e-05
0002b0 e9 c0 6b 3e 8c 13 06 be 1f 83 47 be 89 bc 0e 3e
       0.23022808 -0.13093394 -0.19483612 0.13939108
0002c0 75 5b 06 ba 9a c0 70 ba f5 ef 87 bd a4 9b 05 3e
       -0.00051253225 -0.00091839733 -0.06637565 0.13047653
0002d0 92 3b 50 3e 7e fc 52 3e 85 67 49 be f2 a3 ee bd
       0.20335224 0.2060413 -0.19668396 -0.11652364
0002e0 51 ba 94 be bb 62 b0 3d 59 4d c2 bd 12 69 63 bd
       -0.29048398 0.08612581 -0.09487409 -0.055520125
0002f0 e7 14 e5 bd 95 11 e8 3d f8 e4 93 bd 12 6e bb bb
       -0.111856274 0.113314785 -0.07221407 -0.0057199085
000300 d5 ba 82 3e 8a d6 c0 bd 7e 14 fd b9 2c 17 0e 3e
       0.25533167 -0.0941592 -0.00048271188 0.13876027
000310 de 0f 7b 3d fa 41 c6 bd 45 ce 99 3e d2 1c 11 be
       0.06129443 -0.09680553 0.30040184 -0.1417115
000320 f6 7e 39 3d c3 12 a3 3d 86 65 5a 3e 37 fb 43 be
       0.045287095 0.07962563 0.2132779 -0.191388
000330 87 76 e0 3d e7 fd dc bd 6e 0d df bd 92 37 19 3e
       0.10960107 -0.107906155 -0.108912334 0.14962605
000340 be cc 39 3e 20 8a 2e 3d 0c a5 38 bd bc 61 bc 3d
       0.18144509 0.042612195 -0.045079276 0.09198329
000350 ae cb 8b 3d 3a ca a6 bd 11 63 a4 bd 44 1c 4e be
       0.06825958 -0.081440404 -0.08026708 -0.2012797
000360 fa 93 07 3e b6 77 56 3e b5 d7 89 bd 17 5d 63 be
       0.13240042 0.20944104 -0.06730596 -0.2220348
000370 10 09 5b 3e dc e0 01 3e d8 bc 3d 3d 45 42 34 bc
       0.21390176 0.12683433 0.046322674 -0.011002128
000380 71 bb 3f bd 36 46 10 be d7 66 37 3e 68 21 a9 bd
       -0.046809617 -0.14089283 0.17910324 -0.08258325
000390 36 0d 3e be de 56 04 be 18 20 c6 3d a5 01 2b be
       -0.18559727 -0.12923762 0.0967409 -0.16699846
0003a0 1a 68 e9 bd e8 c0 0f be 1b 5e 22 3e ef c0 9f 39
       -0.11396809 -0.14038432 0.15856211 0.0003047059
0003b0 d4 61 ae 3d 60 4b 1b 3e 98 2c 00 3e d8 d5 87 bd
       0.08514753 0.15165472 0.12517011 -0.06632584
0003c0 90 16 d8 3d c6 f0 95 3d e8 69 82 3d 3b e2 e6 3d
       0.105511785 0.073213145 0.06367856 0.11273619
0003d0 00 05 e7 bd 12 44 c9 3d 9f bf 0f 3d 81 e2 54 bc
       -0.112802505 0.098274365 0.035094853 -0.012993456
0003e0 fc ab af 3b 3b ff a6 bc a2 a8 a6 bd b8 64 9b bd
       0.0053610783 -0.020385375 -0.08137633 -0.0758757
0003f0 64 24 0f bc 0c 81 24 3d 2d c6 08 be 9c da 3f be
       -0.008736704 0.04016213 -0.13356848 -0.18735737
