pre_trained_models/mosi_aligned_LA_DISCRIMINATOR.pt (torch, 47511 bytes, 5 tensors)

weight f4 [128, 20]
0.11523139 0.10302755 -0.14570768 0.19359781 -0.16139485 -0.19852903 0.10479255 -0.045330692
0.06717805 -0.19820203 0.07864808 -0.0693297 -0.13990645 0.21027377 -0.15219097 -0.18945937
-0.12836097 0.049813528 -0.15711437 -0.119970486 -0.18603906 0.15641856 -0.15473175 0.14316595
-0.14364746 0.1738797 -0.09327469 -0.056351505 0.16541064 -0.15267986 -0.040268857 0.012842433
0.034115784 -0.017806524 -0.09428437 -0.19277024 0.21708333 -0.20557028 -0.021007428 -0.18093093
-0.13180408 0.1426186 0.010707003 0.22418347 -0.059594195 -0.14737731 -0.0050893514 0.025071168
0.14401986 0.12954779 -0.22744642 0.16097346 0.18790932 0.03715926 0.11350749 0.033511583
-0.020933874 -0.14529613 0.2036346 0.20750393 -0.07943721 0.038294327 -0.12460405 -0.06554491
0.11568615 0.06644833 0.15243751 -0.14582388 0.076159894 -0.0015584341 -0.12678371 0.23978433
-0.074593544 0.12795684 0.15287896 0.16687109 -0.0077794385 0.13505013 0.19734047 0.07983302
0.115117155 0.1952825 0.05079145 -0.19074185 -0.088314995 0.043869987 -0.12705843 0.0017371608
-0.16484071 0.21341927 -0.05924501 -0.19858463 0.17060727 0.19537596 -0.089042164 -0.1399578
-0.23064199 -0.1613959 0.11705178 0.17366353 -0.007590578 0.077092774 0.184771 -0.15685841
-0.062675275 0.16343999 0.1073715 0.024047399 -0.18118615 -0.17865233 -0.123085305 -0.19167182
0.14962077 -0.15755965 -0.1016428 -0.059016146 0.17944534 0.18159214 0.0013217615 0.03227867
-0.17438674 -0.13185225 -0.028663341 -0.16448313 0.032979723 -0.08496779 0.11013186 0.17886461
0.033740852 -0.029122246 0.066351786 -0.17589696 -0.07257107 0.11208294 0.12064588 -0.061271638
-0.18319798 -0.13409805 -0.09586985 -0.1867915 -0.20477766 -0.21685022 0.16697402 -0.10307682
0.1509306 0.15072581 0.16635117 -0.07772154 0.018762963 -0.18326338 0.1773525 0.16067964
-0.050029933 0.11848798 -0.14777403 0.15853259 -0.057701074 0.086021446 -0.19016486 -0.016554272
0.016459145 0.22065087 -0.12952349 0.03747496 0.04686702 0.20685822 0.16437052 -0.15527429
0.024203667 -0.12365571 0.1956844 0.029060813 0.22351679 0.03615385 0.043905515 -0.14541294
0.20732525 -0.13753507 -0.059359275 0.113489054 0.11840431 -0.051452816 -0.06797898 0.13293026
-0.16255486 -0.04041241 -0.19576003 -0.171969 -0.12608524 0.053250007 -0.15519924 -0.09051945
0.1369499 0.06773902 0.19619113 0.18290964 -0.15955669 0.11995267 0.034189723 -0.17540878
0.16693698 0.16815642 0.029110478 -0.055738904 0.124416865 0.075007595 -0.10579876 0.10015543
-0.235772 0.21101964 0.045826025 0.0013539833 -0.17640671 0.066780984 0.06194902 0.02086936
-0.006627791 -0.097562365 -0.08032935 0.19839256 -0.048882212 -0.22872484 -0.08843652 0.14627638
-0.10542127 0.060148112 -0.016870549 0.14528808 0.035393115 0.17854582 0.08002557 0.025670554
-0.119454764 -0.095696524 -0.23421314 -0.16485627 -0.15187255 0.14672926 -0.17171633 0.12746584
-0.13804232 0.063731976 -0.06406813 -0.08666645 -0.0881063 0.008620449 0.14154221 -0.17023629
0.23834817 -0.21842735 0.042096093 -0.10568137 -0.14523636 -0.20335314 0.061063804 -0.14181255
00000000: 6ffe eb3d 1c00 d33d 6534 15be 813e 463e
00000010: b144 25be 324b 4bbe 7a9d d63d adac 39bd
00000020: a594 893d 79f5 4abe 3f12 a13d bbfc 8dbd
00000030: a343 0fbe 0252 573e f3d7 1bbe a301 42be
00000040: 0f71 03be 4509 4c3d 97e2 20be 16b3 f5bd
00000050: 0681 3ebe 302c 203e 0072 1ebe 189a 123e
00000060: 5218 13be 850d 323e cd06 bfbd d6d0 66bd
00000070: 6861 293e 1c58 1cbe f5f0 24bd 1169 523c
00000080: febc 0b3d fdde 91bc 2a18 c1bd 9065 45be
00000090: 184b 5e3e 0481 52be c517 acbc f545 39be
000000a0: a6f7 06be 9c0a 123e 6d6c 2f3c 5a90 653e
000000b0: 0b19 74bd 14ea 16be 93c4 a6bb 0d62 cd3c
000000c0: f179 133e 2da8 043e b7e7 68be 3ad6 243e
000000d0: 4d6b 403e 4f34 183d 9d76 e83d 7143 093d
000000e0: 847d abbc 82c8 14be 9785 503e e97b 543e
000000f0: faaf a2bd 83da 1c3d 6830 ffbd 693c 86bd
00000100: dcec ec3d 1016 883d 9418 1c3e db52 15be
00000110: b8f9 9b3d 5f44 ccba 97d3 01be 068a 753e
00000120: 80c4 98bd 1e07 033e 4d8c 1c3e 41e0 2a3e
00000130: a9ea febb 954a 0a3e 9f13 4a3e 7f7f a33d
00000140: 8bc2 eb3d 23f8 473e b20a 503d d551 43be
00000150: 7ede b4bd 04b1 333d 9b1b 02be 72b1 e33a
00000160: 01cc 28be 958a 5a3e e5aa 72bd c559 4bbe
00000170: acb3 2e3e a310 483e bd5b b6bd 1951 0fbe
00000180: 6a2d 6cbe f844 25be d8b8 ef3d dad4 313e
00000190: 62ba f8bb d1e2 9d3d 9c34 3d3e 7e9f 20be
000001a0: e55b 80bd d05c 273e 97e5 db3d 0dff c43c
000001b0: dd88 39be a3f0 36be 2614 fcbd 9e45 44be
000001c0: 3036 193e 5157 21be 1a2a d0bd eaba 71bd
000001d0: 85c0 373e 4af3 393e f53e ad3a a436 043d
000001e0: 7092 32be 4704 07be 62cf eabc 446e 28be
000001f0: bf15 073d 9803 aebd d08c e13d 4928 373e
00000200: d933 0a3d c791 eebc 72e3 873d 551e 34be
00000210: 24a0 94bd be8b e53d 3015 f73d f8f7 7abd
00000220: 4098 3bbe 0051 09be 6957 c4bd 4546 3fbe
00000230: 3cb1 51be fc0d 5ebe 3dfb 2a3e f119 d3bd
00000240: 8d8d 1a3e de57 1a3e f657 2a3e 792c 9fbd
00000250: c9b4 993c 65a9 3bbe e59b 353e 3489 243e
00000260: 30ec 4cbd d3a9 f23d 1352 17be 5e56 223e
00000270: f657 6cbd 032c b03d 94ba 42be d39c 87bc
00000280: 54d5 863c 4df2 613e cea1 04be 587f 193d
00000290: a2f7 3f3d a4d2 533e bf50 283e 3900 1fbe
000002a0: c546 c63c 343f fdbd 7e61 483e f110 ee3c
000002b0: 96e1 643e 0f16 143d 45d6 333d 21e7 14be
000002c0: 124d 543e fed5 0cbe b622 73bd f36c e83d
000002d0: f57d f23d 30c0 52bd 9038 8bbd df1e 083e
000002e0: c874 26be 7c87 25bd 5175 48be a418 30be
000002f0: 7d1c 01be ae1c 5a3d 8dec 1ebe 4362 b9bd
00000300: 983c 0c3e c1ba 8a3d 54e6 483e aa4c 3b3e
00000310: d462 23be bfa9 f53d 860a 0c3d 5c9e 33be
00000320: 87f1 2a3e 3231 2c3e 1979 ee3c 7a4e 64bd
00000330: 45ce fe3d 959d 993d 05ad d8bd 4a1e cd3d
00000340: 376e 71be 8815 583e 12b4 3b3d 2478 b13a
00000350: f6a3 34be 78c4 883d 41be 7d3d 38f6 aa3c
00000360: f12d d9bb c7ce c7bd b783 a4bd 6b27 4b3e
00000370: b738 48bd d836 6abe 351e b5bd 7ac9 153e
00000380: 1be7 d7bd de5d 763d 1b34 8abc 66c6 143e
00000390: 5ff8 103d b7d4 363e 72e4 a33d 0e4b d23c
000003a0: b3a4 f4bd 8afc c3bd 92d5 6fbe 15d0 28be
000003b0: 7a84 1bbe 3240 163e 68d6 2fbe 6886 023e
000003c0: f75a 0dbe e985 823d 2736 83bd 2e7e b1bd
000003d0: 1371 b4bd c93c 0d3c 71f0 103e 6c52 2ebe
000003e0: 8b11 743e 6bab 5fbe f46c 2c3d 796f d8bd
000003f0: d7b8 14be ce3b 50be 0a1e 7a3d 4f37 11be

bias f4 [128]
0.17795312 -0.14082727 -0.1520019 1.9434683e-05 0.1711443 0.19295849 0.048145123 0.11621408
-0.07458814 0.098040335 -0.011079832 0.1281495 5.0848706e-05 -0.10777226 -0.028854202 0.17027204
0.024636336 -3.206032e-05 -0.017909966 -8.138781e-06 -0.17376864 -0.06971996 -0.18603082 -0.10971812
0.03351984 -0.0041779354 -0.038328316 -0.15716775 -0.13800678 0.15269294 -3.6987185e-05 -0.09284845
-0.20382659 -0.15348859 0.18621762 0.053266533 -0.20643985 -0.044534672 7.354102e-06 0.07446025
0.19197606 0.108521774 0.070776075 -0.007320438 0.094678044 0.098324895 -0.08249203 -0.11617047
-0.031077348 1.9797235e-05 -0.12868343 -0.12013831 -0.16913928 0.048412904 0.07624601 -0.20154996
-0.12959783 0.047644004 0.1333989 0.11837556 -0.0386614 -0.025836108 0.13015564 -0.08044757
-0.08985241 0.00018028096 0.08152686 0.048776194 0.07045055 0.19852379 0.16484793 -0.06678977
0.13369723 -0.047948476 -0.13539536 -0.07992032 0.16225037 -0.05278777 -0.1761441 -0.14556997
-0.117115356 -0.042823575 9.783031e-06 -0.13266137 0.08020243 -0.16148509 0.012706265 -0.13379216
0.110064946 0.16366926 0.04840677 0.10224647 0.059006397 -2.3226152e-05 -0.10011096 0.08692195
0.0048617977 -0.07631273 -0.111572504 -0.10498371 -1.8481682e-05 0.014811762 -0.020315899 0.18113388
0.05775619 0.1001006 -0.13504376 -0.19649124 -0.05688281 -0.20247492 -0.09069945 0.14986211
0.088814445 0.014851898 -0.08072208 -0.21906023 -0.03221562 -0.033399176 -0.14718853 0.17077759
-0.15666623 0.063613914 2.7123133e-05 0.12388289 -0.1366441 0.08485891 -0.022643803 0.098418616
00000000: 5839 363e 0635 10be 63a6 1bbe aa07 a337
00000010: 7440 2f3e e996 453e d233 453d a601 ee3d
00000020: abc1 98bd 5fc9 c83d 2f88 35bc 9f39 033e
00000030: 6246 5538 b4b7 dcbd a65f ecbc cb5b 2e3e
00000040: 24d2 c93c 8278 06b8 ecb7 92bc cc8b 08b7
00000050: 68f0 31be 57c9 8ebd dd7e 3ebe e5b3 e0bd
00000060: 1a4c 093d 10e7 88bb 27fe 1cbd 95f0 20be
00000070: a651 0dbe 8a5b 1c3e b022 1bb8 5427 bebd
00000080: ebb7 50be 1d2c 1dbe d5af 3e3e 022e 5a3d
00000090: f864 53be fd69 36bd 41c3 f636 9e7e 983d
000000a0: 5f95 443e aa40 de3d 0cf3 903d 49e0 efbb
000000b0: 90e6 c13d 905e c93d 95f1 a8bd c9ea edbd
000000c0: ec95 febc 3d12 a637 97c5 03be 130b f6bd
000000d0: d932 2dbe 9c4c 463d de26 9c3d 1d63 4ebe
000000e0: 4bb5 04be 5c26 433d b999 083e e36e f23d
000000f0: 6b5b 1ebd 3fa6 d3bc 8547 053e b2c1 a4bd
00000100: 8a04 b8bd cd09 3d39 8ef7 a63d 8cc9 473d
00000110: 6148 903d d249 4b3e e5cd 283e 13c9 88bd
00000120: ede7 083e 9f65 44bd 15a5 0abe 44ad a3bd
00000130: f624 263e fd37 58bd 1e5f 34be 4b10 15be
00000140: 2dda efbd c667 2fbd cc21 2437 62d8 07be
00000150: 2c41 a43d 595c 25be f02d 503c d000 09be
00000160: bb69 e13d ea98 273e 2d46 463d 9966 d13d
00000170: b1b0 713d c8d5 c2b7 fa06 cdbd 2304 b23d
00000180: b74f 9f3b d949 9cbd 2080 e4bd b301 d7bd
00000190: 1c09 9bb7 08ad 723c 876d a6bc 297b 393e
000001a0: c191 6c3d 8b01 cd3d e948 0abe 0035 49be
000001b0: f3fd 68bd 9655 4fbe a2c0 b9bd 7475 193e
000001c0: 59e4 b53d 6055 733c 9e51 a5bd 5351 60be
000001d0: 87f4 03bd 93cd 08bd 97b8 16be 52e0 2e3e
000001e0: 1d6d 20be 0348 823d 7c86 e337 50b6 fd3d
000001f0: 6eec 0bbe 82ca ad3d 7f7f b9bc b38f c93d

weight f4 [64, 128]
-0.015843023 0.08819276 0.062305234 0.02112012 -0.0278462 0.072383806 0.039204944 -0.07183571
-0.025962396 -0.0015413744 0.015515036 -0.05289695 0.059973575 -0.002126724 -0.006831755 0.062423754
-0.019147964 0.051856868 -0.07464646 -0.04258528 -0.015975052 0.017890692 -0.034866728 0.015696825
0.065052345 0.07324574 -0.07998861 0.062928066 0.089468084 -0.027093591 0.04478533 0.04341346
0.054932423 -0.08678326 -0.09189948 -0.019085787 -0.034825176 0.07859531 0.095651835 -0.09219462
-0.04563712 0.06017683 -0.022882134 0.095404945 -0.039894607 -0.070543945 -0.06264184 0.020020595
0.030438634 0.06553872 -0.029550014 -0.020728787 0.062568605 -0.045861937 -0.00541705 0.044383183
0.016809024 -0.06862738 0.019130917 0.055917446 -0.019358063 0.02991962 0.019518338 -0.023986211
0.061012443 0.047339015 -0.0034417121 0.054641783 -0.07242819 -0.006257664 0.026288848 -0.06738578
-0.008276011 0.049261082 0.02130123 0.05162948 0.02645795 0.05100989 -0.012897624 -0.04552438
0.066999406 0.046454396 -0.008441 0.023298731 -0.06538206 0.05135571 0.06398255 0.030956646
0.08259857 -0.0529778 0.078230694 0.009138571 0.060304705 -0.026732491 -0.042286966 0.014459399
0.07531568 -0.07179334 -0.028029555 0.022987666 0.086340785 0.0622808 0.013670718 -0.05809321
-0.07969981 -0.031370062 -0.03772959 0.07922815 0.048481353 0.07439225 0.06553947 -0.05212184
0.03239991 -0.013828027 -0.0895996 0.022806285 0.05429261 -0.06395445 0.085309364 -0.06835939
0.063188516 0.028346702 0.031994246 0.08445686 0.050066765 0.015825897 -0.04419131 0.05783553
-0.052438155 0.06598527 -0.01794274 -0.07902863 0.049130797 0.03258 0.013053336 -0.015286912
-0.033926122 -0.009957489 -0.036889594 -0.07526734 -0.053520728 0.08087172 -0.029111553 0.062367458
-0.048774704 -0.042450853 0.016286174 -0.050655536 -0.05659002 -0.04122793 -0.08545601 -0.015956402
-0.00045018314 0.059433766 -0.061336964 -0.054943975 -0.027693244 -0.063429445 -0.013707647 0.08613039
0.06603665 0.029264322 0.0419725 -0.0155691765 0.021026934 -0.07675427 -0.109111644 -0.014248697
0.07278207 -0.08207175 0.09048582 -0.013642406 -0.045569893 0.052003082 0.027134351 -0.044294167
0.021899004 0.0054742135 0.05240152 0.05091428 0.09669082 0.018800486 0.03141966 -0.059817664
-0.07639194 -0.017692516 0.059435554 0.044499747 0.081341125 -0.01770664 0.102471806 -0.05893009
-0.059782203 0.03169592 -0.0122150965 0.05628184 -0.028638205 -0.02003012 0.0076231174 0.028747234
0.011775924 -0.012594346 0.040191203 0.009365883 -0.036231194 -0.0525707 0.00032989937 -0.034345835
-0.016506074 -0.030533979 -0.06269258 0.049379513 0.011830229 0.058329757 -0.0020906492 -0.018765537
0.039065134 0.026015718 -0.06602076 0.015610286 -0.046338476 -0.076437324 -0.032883476 -0.030119246
0.079900205 0.06756171 -0.021848934 -0.0028600923 0.02343634 -0.09261596 0.019525068 0.03986169
-0.05051299 0.10935116 0.030083958 0.014103116 0.07812297 0.03053925 -0.071812995 -0.02762012
0.031284735 -0.0704424 -0.026585031 -0.062078338 -0.0039582024 0.0016270925 0.08093397 0.036941905
-0.03731858 0.08619746 0.015244882 -0.016629685 0.078791656 0.07716854 -0.09078221 -0.059296824
00000000: 3ac9 81bc 689e b43d c633 7f3d 1a04 ad3c
00000010: b71d e4bc f63d 943d 5d95 203d 9a1e 93bd
00000020: 17af d4bc f107 caba c732 7e3c 79aa 58bd
00000030: daa6 753d 8260 0bbb eadc dfbb 0db0 7f3d
00000040: 31dc 9cbc de67 543d 3ee0 98bd e76d 2ebd
00000050: 1dde 82bc 808f 923c 6ad0 0ebd a196 803c
00000060: 2a3a 853d dd01 963d 12d1 a3bd 6ee0 803d
00000070: 0b3b b73d 61f3 ddbc d270 373d 50d2 313d
00000080: d200 613d 6cbb b1bd cb35 bcbd cc59 9cbc
00000090: d8a4 0ebd 94f6 a03d 1ce5 c33d 88d0 bcbd
000000a0: fded 3abd fb7b 763d 5073 bbbc ab63 c33d
000000b0: 8768 23bd 5879 90bd 5d4a 80bd 3b02 a43c
000000c0: 715a f93c 2a39 863d df12 f2bc 6bcf a9bc
000000d0: f823 803d bad9 3bbd 8281 b1bb 24cb 353d
000000e0: 14b3 893c 838c 8cbd 71b8 9c3c b109 653d
000000f0: cd94 9ebc fe19 f53c ece4 9f3c bb7e c4bc
00000100: 2fe8 793d 8ee6 413d 598e 61bb 10d0 5f3d
00000110: 3b55 94bd 170d cdbb b65b d73c 8e01 8abd
00000120: 1b98 07bc fdc5 493d eb7f ae3c 6f79 533d
00000130: 58be d83c bfef 503d 8e50 53bc c677 3abd
00000140: fc36 893d f746 3e3d 1f4c 0abc fbdc be3c
00000150: 08e7 85bd 5d5a 523d 4809 833d cb98 fd3c
00000160: 7029 a93d 40ff 58bd 6a37 a03d f2b9 153c
00000170: 1102 773d 19fe dabc 1935 2dbd 1de7 6c3c
00000180: 1b3f 9a3d 6308 93bd 3d9e e5bc a150 bc3c
00000190: 70d3 b03d 271a 7f3d 26fb 5f3c 25f3 6dbd
000001a0: a739 a3bd e57d 00bd 588a 1abd 5e42 a23d
000001b0: 6294 463d f75a 983d 8f39 863d b67d 55bd
000001c0: c5b5 043d f38e 62bc ff7f b7bd 3fd4 ba3c
000001d0: ee61 5e3d 8dfa 82bd adb6 ae3d 0200 8cbd
000001e0: fb68 813d 5837 e83c 660c 033d b8f7 ac3d
000001f0: cf12 4d3d 50a5 813c f201 35bd f3e4 6c3d
00000200: 64c9 56bd 4923 873d a7fc 92bc c3d9 a1bd
00000210: 603d 493d 9b72 053d a9dd 553c f575 7abc
00000220: 1ef6 0abd bc24 23bc 8b19 17bd c325 9abd
00000230: 8d38 5bbd 13a0 a53d 5a7b eebc 0575 7f3d
00000240: fcc7 47bd f2e0 2dbd 956a 853c 2e7c 4fbd
00000250: f0ca 67bd 9ede 28bd 9003 afbd 00b7 82bc
00000260: 8f06 ecb9 d270 733d 783c 7bbd ef0c 61bd
00000270: f1dc e2bc 4ce7 81bd 0a96 60bc 2165 b03d
00000280: 393e 873d bbbb ef3c 5beb 2b3d dc15 7fbc
00000290: ad40 ac3c 5831 9dbd ed75 dfbd 5e73 69bc
000002a0: c40e 953d 3c15 a8bd a150 b93d 6684 5fbc
000002b0: 7fa7 3abd 2f01 553d dc48 de3c cd6d 35bd
000002c0: 8a65 b33c 0861 b33b faa2 563d 7e8b 503d
000002d0: d605 c63d 7a03 9a3c e7b1 003d 5e03 75bd
000002e0: 6173 9cbd e5ef 90bc b272 733d 5e45 363d
000002f0: 2d96 a63d 840d 91bc bddc d13d ae60 71bd
00000300: 2fde 74bd 95d3 013d d421 48bc c987 663d
00000310: ab9a eabc 3516 a4bc 58cb f93b 527f eb3c
00000320: ceef 403c 8458 4ebc 889f 243d 5c73 193c
00000330: 2967 14bd 6054 57bd 58f6 ac39 38ae 0cbd
00000340: bf37 87bc 6522 fabc f864 80bd 2c42 4a3d
00000350: 94d3 413c 2feb 6e3d 4603 09bb 2fba 99bc
00000360: c302 203d ea1e d53c e435 87bd 49c2 7f3c
00000370: 6acd 3dbd 2c8b 9cbd d3b0 06bd a3bc f6bc
00000380: b8a2 a33d cb5d 8a3d 89fc b2bc 6370 3bbb
00000390: 91fd bf3c 70ad bdbd 09f3 9f3c 0346 233d
000003a0: b6e6 4ebd 80f3 df3d a272 f63c c110 673c
000003b0: f0fe 9f3d 732d fa3c b112 93bd 9743 e2bc
000003c0: 6c24 003d 1b44 90bd dac8 d9bc db45 7ebd
000003d0: cfb3 81bb 2a44 d53a b6c0 a53d 6550 173d
000003e0: 5edb 18bd 4b88 b03d abc5 793c fa3a 88bc
000003f0: 855d a13d 8a0a 9e3d 06ec b9bd 3ae1 72bd

bias f4 [64]
0.0709968 0.0058424557 -0.057341337 -0.018691089 -0.041491132 -0.009633755 0.040748145 -0.035669006
-0.08837054 -0.058980107 -0.010729211 -0.024316614 0.046902407 0.042007316 0.06269445 -0.003797805
-0.022405166 0.041993495 0.016305052 0.073118985 -0.040993344 -0.073000655 0.07730376 -0.081128985
-0.04941818 -0.0074298168 0.021561518 0.082209475 -0.02786245 -0.045323715 0.017143799 0.027538495
0.07513146 0.077994525 0.017026594 0.053608526 -0.04146222 -0.051204894 -0.0455666 0.031015072
0.0031625594 -0.061674595 0.052102335 -0.073078886 0.074024476 0.083518334 0.08082876 0.03191997
-0.013381875 0.04843353 0.0098738745 -0.054814365 0.043878 0.0061327573 0.027563667 0.040050715
0.06774824 -0.044910643 0.047979802 -0.09000013 -0.0032922917 0.051592156 -0.059783664 0.03320087
00000000: c566 913d 1272 bf3b c0de 6abd 0e1e 99bc
00000010: 9bf2 29bd e6d6 1dbc 87e7 263d aa19 12bd
00000020: 9dfb b4bd 2095 71bd 93c9 2fbc a333 c7bc
00000030: bd1c 403d dd0f 2c3d f365 803d 98e4 78bb
00000040: 0a8b b7bc 5f01 2c3d 2c92 853c 68bf 953d
00000050: a3e8 27bd 5e81 95bd 6f51 9e3d f426 a6bd
00000060: b86a 4abd d275 f3bb c8a1 b03c 715d a83d
00000070: cb3f e4bc 5ca5 39bd 2771 8c3c 6998 e13c
00000080: 86de 993d 98bb 9f3d 5b7b 8b3c 9d94 5b3d
00000090: 4ad4 29bd 39bc 51bd 0ba4 3abd 5213 fe3c
000000a0: f142 4f3b 809e 7cbd 4269 553d 62aa 95bd
000000b0: 259a 973d a90b ab3d 8d89 a53d 84be 023d
000000c0: a73f 5bbc 3d62 463d 08c6 213c 0785 60bd
000000d0: 6bb9 333d 4cf5 c83b 33cd e13c 380c 243d
000000e0: 97bf 8a3d 39f4 37bd 7886 443d fd51 b8bd
000000f0: 7dc3 57bb 4c52 533d b7df 74bd a3fd 073d

weight f4 [1, 64]
-0.11095159 0.073834755 0.028027916 -0.12356762 -0.00936379 -0.009686221 -0.05816411 0.0040378687
-0.081062 -0.06870282 -0.081484 0.14313003 -0.07476039 0.07503144 0.10685386 -0.076515354
-0.10408314 0.08269852 -0.11193471 0.047531806 0.12488265 0.14961931 -0.087425604 -0.09802432
-0.059923194 -0.10641722 -0.023021035 0.025592081 0.07287119 -0.09632746 -0.12079623 -0.043272622
-0.07348764 0.10991999 0.06436118 -0.045424134 0.027979268 -0.0049504694 0.11486136 0.04946035
-0.10809365 -0.11044529 -0.020323275 0.10362748 0.032424517 0.121065564 0.021609934 -0.072752304
-0.107150294 -0.053097513 -0.034239907 0.08689486 -0.08614692 0.08132174 0.11114286 0.12023656
0.074858226 0.11972263 -0.033943687 -0.088833235 -0.1151441 -0.12431376 0.06020065 -0.072642714
00000000: 963a e3bd ad36 973d cd9a e53c 0511 fdbd
00000010: 956a 19bc f5b2 1ebc 7d3d 6ebd 1950 843b
00000020: d503 a6bd 10b4 8cbd 15e1 a6bd ae90 123e
00000030: fa1b 99bd 15aa 993d 32d6 da3d 15b4 9cbd
00000040: 8b29 d5bd d75d a93d 063e e5bd b6b0 423d
00000050: 7ac2 ff3d ce35 193e 320c b3bd fac0 c8bd
00000060: 0672 75bd 45f1 d9bd 9c96 bcbc 7ca6 d13c
00000070: 7e3d 953d 5547 c5bd 0464 f7bd a23e 31bd
00000080: b080 96bd bb1d e13d cbcf 833d a80e 3abd
00000090: c734 e53c 8c37 a2bb 6f3c eb3d f096 4a3d
000000a0: 3460 ddbd 2431 e2bd ff7c a6bc a53a d43d
000000b0: 92cf 043d 39f1 f73d 5107 b13c 29ff 94bd
000000c0: 9d71 dbbd c77c 59bd 253f 0cbd eff5 b13d
000000d0: cc6d b0bd 038c a63d de9e e33d 963e f63d
000000e0: 454f 993d 2331 f53d 8908 0bbd 33ee b5bd
000000f0: abd0 ebbd 3698 febd f594 763d b4c5 94bd
