pre_trained_models/mosi_aligned_L_TRANSLATOR_1.pt (torch, 109341 bytes, 23 tensors)

multi f4 [1, 32]
00000000: dc1c d2be 5de5 2c3e 9b74 7a3e 28f8 8abe
00000010: c1bb 81bc 4944 b4be d9e1 33be 8c62 243e
00000020: b14b 163e e65e 333c 3ace d3be eb0b 9abe
00000030: f7e7 f23d 0aa6 30bd 561b c93e 6b64 adbd
00000040: 7d62 b03c 2560 4dbe a701 5f3e e444 943d
00000050: cf26 a03e 8cd1 b63d 58af 613e 467b 6b3e
00000060: d6fd a6bd eb4c 783e 5e2e bcbe 322d 873e
00000070: 0df9 30be b329 c43e b370 17be 47d6 febc
-0.41037643 0.1688437 0.24458544 -0.27142453 -0.015836598 -0.35208347 -0.17566623 0.16053218
0.14677311 0.0109479185 -0.41368276 -0.30087218 0.1186065 -0.043127097 0.39278668 -0.08466419
0.021531338 -0.20056207 0.21777974 0.07239702 0.3127961 0.08926687 0.22039545 0.22996244
-0.08153884 0.24248092 -0.36754125 0.2640167 -0.17282505 0.38313064 -0.14789085 -0.031108035

weight f4 [50, 32]
00000000: 899c 8dbf 3cc5 4d3e 6af0 34bf ecfd 823f
00000010: b76f dd3f 9289 98be 1bff 6dbf 9331 03c0
00000020: b8f8 97bd 0906 b4be 9c1d d03f 0ea8 0cbe
00000030: 441b debf b087 a5bf 4b17 2d3f d355 a73f
00000040: 9c62 5fbf 581a 143b bfca 05bf ecb3 e8bc
00000050: cbf2 55bf ba95 dcbc c21f 1dbf d49e 7e3d
00000060: faf4 dc3f 1cc1 d8bf ebe2 e6bf 6e96 61bf
00000070: 35d1 0b3f 1c55 c53d eb36 1c3f 55e0 1f3f
00000080: 97de 11bf d832 b23f 9379 293f 2f14 ba3c
00000090: 7754 99bf 30c1 f43e 6541 003d 709a 993e
000000a0: 969a 09bf 8edf 313f 417a 983f 88f6 34bf
000000b0: 9863 8c3f e8e0 f3be d08d 623c dd5b d43d
000000c0: 87b4 cd3d f09c 0e3f fd71 c03f 2451 e83d
000000d0: c395 c6bf 0b24 803f 7dfe 923d 3735 963e
000000e0: f689 483e e04b ee3f 7825 0d40 40eb 3040
000000f0: fbb5 a2bf a06a fbbd 04de 403f 22f9 01bf
00000100: 1a14 85bc cbcd 4a3f 3291 063f ff4f 9d3f
00000110: 7b30 4cbf 372b 9fbe cedc 9b3d 7595 21c0
00000120: ec19 a2be 9127 d33f c32a ccbf 894b b93e
00000130: 8c29 033f 0d69 32bf 38bb 80be e134 bdbe
00000140: 6e22 81bf 6abb 89bf d616 5f3d 241d 0a3c
00000150: e162 f0be 8c01 3d3e d0f7 febf 7fb4 aa3f
00000160: 1d42 53bd c33b d8be 752f 5c3f ca31 54bf
00000170: 0942 90bf 7234 603e ef7a f7be 57fd 49bf
00000180: 90da 61bf ecab 00c0 9327 043f 24d4 113f
00000190: 4b67 07bf 0c83 8b3f 1332 8d3f 5195 4b3f
000001a0: b531 8dbe 99c7 efbf 3c08 8dbe 54ef d6be
000001b0: 6e07 43bf eee7 533e 1284 b3bf 2cfa e4be
000001c0: 59e5 c8be f8c1 4a3f b7c0 95bf 44fc b8be
000001d0: 0208 413e dbba a63e 4b30 ad3e 3061 c2be
000001e0: 2bd2 a2bf 93e1 93bf 2b40 7f3e dbe3 50be
000001f0: 9d7f 6dbf 1710 aa3f ce43 4ebf e7ff 8fbf
00000200: e214 42be 9714 f5be d194 6e3f 9fb1 c5bf
00000210: f5c3 b53f 077e ddbf 2df7 a8be 5e1b bfbd
00000220: d0d0 d0bf 3202 c3be eec9 a7bf f242 26bf
00000230: 0c5f 88bf 31ce 893f b6bc 44c0 002f e73e
00000240: a2df c8bf f7c9 d9bf b7a5 44bf e312 0a3f
00000250: 0f3b 893f 2066 e4bb 4bc7 93bf eb77 8b3e
00000260: 4ef1 e5bc 20f0 6abf d330 4ebf b49f 11be
00000270: 2dd7 a53f 5147 a4bf 4376 0e40 2e02 2b3f
00000280: a708 1a3f 1eb7 c5bf 8837 e4be 903e 153f
00000290: fca7 6abf 1999 b7bf afce 8d3f 91bd 353f
000002a0: fb42 c73f 82ec 93be 85fa 7abf 0f7f a23e
000002b0: 32cc d03f bdd9 523e 1ef5 5dbf 7606 2ebf
000002c0: 66fb 0dc0 b3b3 0e3e adfe 81bf e73b bcbb
000002d0: 922c dd3f 839f 123e e0cb 42be d10c 443e
000002e0: 2cf0 8f3f 81b0 72bf 0b04 953f f57e ce3e
000002f0: 947a 7abf dd3f 08c0 153f 1e3f 1c60 eabb
00000300: 0661 8f3f ffe4 56bf b85e 24be 3822 a4bf
00000310: 0944 9a3e c5be cd3f fcb8 233f 121a 0dbf
00000320: f52f 7fbf e9ab d0be 43c9 f3bf 1999 afbf
00000330: 4376 613f 1ad4 5bbf 3f60 f4bd 2d77 c43f
00000340: c35f 513f 6b68 763e 31a5 233f bf72 44bd
00000350: 774e 1cc0 43ee 0bbf da28 62be fd03 b6be
00000360: 8dd7 20c0 853a 2cbd 7e77 0a3f 5ce7 dabd
00000370: a5bb f8be bca3 d0be cb78 88bf da6d b1be
00000380: 2f10 b93c 7773 ee3e b1c5 1cbf d5bd c3bf
00000390: 5fac 13be 5f8d edbe bee4 3dbf 6210 e23c
000003a0: a904 a5be 16ed 503f d696 cb3f 79fa 10bf
000003b0: 32cd e33e dd87 cc3e c00d c1bf 4df5 703f
000003c0: 80cf debe b147 a03f 977d c93e 2e69 a8be
000003d0: 9a67 ca3e fdc6 aa3f 6047 303f 3875 5f3f
000003e0: e500 0ebf e931 cd3f 9cae e6bf e044 c93d
000003f0: b05e 9ebf 7497 1bbf 0521 383e 4a0f 0ebf
-1.1063396 0.2009477 -0.7067934 1.0233741 1.7299718 -0.29792458 -0.92967385 -2.0499008
-0.07420486 -0.35160854 1.6259036 -0.13735983 -1.7352071 -1.2932034 0.6761367 1.3073066
-0.8725984 0.002259871 -0.5226249 -0.028406106 -0.835736 -0.026926864 -0.61376584 0.06216319
1.7262261 -1.6933932 -1.8038 -0.8812016 0.546161 0.09635374 0.610213 0.6245168
-0.5698027 1.3921766 0.6620113 0.022714702 -1.1978902 0.4780364 0.031312365 0.3000064
-0.53751504 0.6948174 1.1912309 -0.70688677 1.0967894 -0.47632527 0.013827756 0.10369084
0.100441985 0.5570822 1.5034786 0.11343601 -1.5514454 1.0011 0.07177446 0.29337475
0.19583878 1.8616905 2.205412 2.7643585 -1.2711786 -0.122761965 0.7533877 -0.5077077
-0.016244937 0.79220265 0.525653 1.2290038 -0.79761475 -0.31087658 0.076104745 -2.5247471
-0.31660402 1.649645 -1.595055 0.3619044 0.5123527 -0.69691545 -0.25142837 -0.36954406
-1.0088632 -1.0760319 0.054465137 0.008429799 -0.4695044 0.18457621 -1.9919376 1.3336333
-0.051576722 -0.42233095 0.86009914 -0.8288847 -1.1270152 0.21895006 -0.48335978 -0.7890219
-0.88224125 -2.0104933 0.51622885 0.56964326 -0.5289199 1.0899367 1.1030906 0.79524714
-0.27576986 -1.8732787 -0.27545345 -0.41979468 -0.7618321 0.20693943 -1.402468 -0.44722116
-0.39237478 0.7920222 -1.1699437 -0.36129963 0.18850711 0.32564434 0.33825907 -0.37964773
-1.2720388 -1.1553215 0.24926822 -0.2039942 -0.9277285 1.328616 -0.8057221 -1.124997
-0.18953279 -0.4786727 0.93195826 -1.5444831 1.4200426 -1.7304085 -0.3300108 -0.09331392
-1.6313725 -0.38087612 -1.3108499 -0.649459 -1.0654006 1.076605 -3.074018 0.45153046
-1.5693247 -1.701476 -0.7681536 0.5393507 1.0721148 -0.006970182 -1.1545194 0.27239928
-0.028069165 -0.9177265 -0.8054325 -0.14221078 1.2956291 -1.2834264 2.2259681 0.668002
0.6016945 -1.5446508 -0.44573617 0.5829859 -0.91662574 -1.4343597 1.10787 0.7099238
1.5567316 -0.2889138 -0.9803851 0.31737563 1.6312315 0.20590873 -0.86702144 -0.6797861
-2.2184691 0.13935737 -1.0155846 -0.0057444456 1.7279227 0.14318661 -0.19023085 0.19145514
1.124517 -0.94800574 1.1641859 0.40331236 -0.9784329 -2.128898 0.61815006 -0.0071525704
1.1201484 -0.8394317 -0.16051757 -1.2822943 0.30130032 1.6073843 0.6395414 -0.55117905
-0.9968255 -0.40756157 -1.9045795 -1.3718597 0.8807108 -0.85870516 -0.1193242 1.534887
0.81786746 0.2406327 0.6392394 -0.047960993 -2.442289 -0.54660434 -0.22085896 -0.35549918
-2.5131562 -0.042047996 0.5408858 -0.106886595 -0.4858066 -0.4074992 -1.0661863 -0.34654123
0.022590725 0.46572468 -0.61239153 -1.5292307 -0.14421223 -0.4639692 -0.7417716 0.027595703
-0.32230118 0.81611764 1.5905406 -0.5663219 0.4449249 0.39947405 -1.5082321 0.941243
-0.43517685 1.2521878 0.3935363 -0.32892746 0.39532167 1.3341976 0.6885891 0.87288237
-0.55470115 1.6030856 -1.8022037 0.0982759 -1.2372646 -0.60777974 0.17981346 -0.5549208

weight f4 [4, 32]
00000000: 25b0 f93d dbd0 6abf 4599 3d3e 6579 643f
00000010: f02d 77bf 393c 7a3f 9b55 903e c7d4 44bf
00000020: 0b38 9a3f c61c 1840 a42a 6bbf 6daa 1b3e
00000030: e3b2 7ebe d4cd 8cbc fd74 1f3e 9074 a5bf
00000040: f335 483f 7b19 e63f e45e 12bf 3974 b7be
00000050: 30c2 93bf 5064 f7be eae6 ccbe 7554 81bf
00000060: 04ba 513f 142e 963f 06e9 8dbf 73c2 1cc0
00000070: b230 22bf 7b8b 093f d082 41bf f6d2 173e
00000080: 6628 fe3e ad9a cbbe accb 0abf 9865 c33e
00000090: 3957 f93e 4721 88bf 5a79 93bf 442b e6bf
000000a0: d3b6 05be 79fd c6bf e18c 1ebf d017 1a3f
000000b0: 43f2 7bbf 9fc3 c4bf 42d4 a4bf 4088 ae3f
000000c0: fcdf 99bf 2c81 e1be ea94 c8be db38 3e3f
000000d0: 1b26 70bf a06d 05c0 9162 af3f 852b adbe
000000e0: d295 9ebe c6e5 c6bf a6cf 86bf 5c75 16be
000000f0: 8332 c03f d10c cc3f 368a d63d 1b56 ffbf
00000100: cfc1 e53d 6337 2b3f 3b17 ee3e 7912 05c0
00000110: 3fbe 973f 94a7 963f 4cfc 6abf a2ad 90bf
00000120: 64a8 863e cad3 de3e 0388 93bf 8201 81bf
00000130: d90d 7f3f dc9f 1bbe e615 a93f 9df1 aa3d
00000140: e3d6 c23e 2c2a e1be 1c9e f8bf 4019 533e
00000150: 8ac6 2c3f 7714 46bf 6e47 cb3f c595 123f
00000160: 4c49 26bf 720d 2ebf e8c1 50be b2dc 0abd
00000170: c43b 903e 62b9 a43e 4173 abbe aa3a 17c0
00000180: 9d3f c63f 44f7 64bd 6c59 513f f67f f53f
00000190: 8850 29bf 0e66 0fbe 48a0 a73f 377c 02bf
000001a0: 9f35 18bf 4c58 773e 4765 68bc 98ca aa3f
000001b0: 8aa6 45bf a139 d9be d2f2 cdbf 0bc5 d23e
000001c0: 5a0c 1dc0 1c76 b73e d562 9ebf e979 95be
000001d0: 430f 96bf 8f6c 073f 083b 203f 6b82 a6bf
000001e0: e2f9 083e 7e6d e73e a301 a33f 7da2 e33d
000001f0: 3481 833f 703a 353d 415a 3a3e 88f7 7cbe
0.121918 -0.9172494 0.18515499 0.89247733 -0.9655447 0.9774814 0.28190312 -0.7688717
1.2048353 2.3767562 -0.9186194 0.15201731 -0.24872927 -0.01718799 0.15571971 -1.2926197
0.7820732 1.7976526 -0.5717604 -0.35830858 -1.1543636 -0.4831872 -0.40019923 -1.0103899
0.8192446 1.1732812 -1.1086738 -2.4493682 -0.63355553 0.53728455 -0.7559023 0.14826569
0.49640197 -0.39766446 -0.5421703 0.38163447 0.48699358 -1.0635155 -1.1521409 -1.7981954
-0.13058023 -1.5546104 -0.61933714 0.60192585 -0.9841654 -1.5372199 -1.2877276 1.363533
-1.202148 -0.44043863 -0.39176112 0.74305505 -0.93808144 -2.084816 1.3701955 -0.33822265
-0.3097368 -1.5538871 -1.0532119 -0.14693207 1.5015415 1.5941411 0.104755804 -1.9948152
0.11218607 0.6688139 0.46502098 -2.0792525 1.1854934 1.1769891 -0.91791224 -1.1302989
0.26300347 0.43520957 -1.1525882 -1.0078585 0.99630505 -0.151977 1.3209808 0.08346865
0.3805457 -0.43977487 -1.9423251 0.20615101 0.67490447 -0.77374977 1.5881174 0.5725978
-0.6495559 -0.67989266 -0.2038647 -0.033901878 0.28170598 0.32172686 -0.3348637 -2.3629556
1.5488163 -0.055899873 0.8177707 1.9179676 -0.66138506 -0.14003775 1.3095789 -0.50970787
-0.5945682 0.24154776 -0.014184303 1.3343077 -0.77207243 -0.4242678 -1.6089728 0.41165957
-2.4538789 0.35832298 -1.2373911 -0.29194573 -1.1723408 0.5290002 0.62590075 -1.300855
0.13376573 0.45200723 1.2734874 0.111149766 1.0273805 0.044245183 0.18198492 -0.247038

in_proj_weight f4 [96, 32]
00000000: 59be 433d 07d5 b6bc c6e6 12be 5e00 4b3e
00000010: 5083 e83c 9159 e43d f171 e43d b665 8d3c
00000020: 1c59 653d fafb dd3c 6698 b53d 9cbb 083e
00000030: 3ef4 dfbd c570 5d3d 331e 983d 0658 3f3e
00000040: 7354 00be 94d8 a43d ace6 3abe 3be1 9dbd
00000050: e920 8abd 8639 e43d 2d0b a13d 8f16 da3d
00000060: f1ea 4bbe 1d47 ccbd 6ce6 adbd 0050 a0bd
00000070: a1bb 48be d0e3 babd a271 213e bbf2 29be
00000080: 94d4 ba3c 61ba 043e 7373 023e 6b9f 013e
00000090: 2ae1 57be f2fa 53be 103f 40be 84e2 6bbe
000000a0: e0c2 1cbe 17cd 1bbe 750c d53d d21d 1e3d
000000b0: b578 d8bd 17fa 11be 61cf 453c 6c80 c13d
000000c0: 9a52 363e 3580 963d ec2b 263d 80bd 66bd
000000d0: f08f 51be 7888 9e3c 748f d6bc ab6a 09be
000000e0: 5c9e f2bd f319 28bb 5553 1e3c 1f55 763d
000000f0: 13c2 d7bc 2df7 033e 3eb9 633e a597 09be
00000100: 132b 043e 549a 933c d193 183e 3942 1e3e
00000110: 48ca 463e bf34 303d 15d7 5abe 4924 303e
00000120: aa65 333e de52 083e 03a8 90bd a28d df3d
00000130: eb08 a8bd f527 643a 0a6c 10be 69e9 54bd
00000140: bd5e f03d d3bd ad3d d89f f83d 8869 2d3e
00000150: 82d7 b93d 97ea e63c 095f bbbd 5014 1e3e
00000160: 773e d73a 026c 78be 78ce 2dbb 899b 73be
00000170: 9b6d 3abe 1c6d ec3d 125b 2bbe 8711 9b3d
00000180: 2f9b 4a3e bca1 403b 706e 3ebe 67dc e83b
00000190: 8b3d 713e 0139 e7bd 597b a03d 7ecc 343c
000001a0: 19dd b2bd 21bc 233e 71da 1b3c 502d 46be
000001b0: a373 05be 3038 67bd 38a6 27bc 5356 38be
000001c0: ab2d f43d e70c 9e3d d995 8a3d 8ced 583d
000001d0: a989 f13d 0af8 923d c30c 0e3e 0ed2 42be
000001e0: 8ccc fbbb 19c0 353e b90e 06be 1c11 dd3d
000001f0: 5290 f63d 3e64 85bd 5ea6 173c f88d 73bd
00000200: 5fb3 143e 8c3d 353e c60c 483c 5d0b 783d
00000210: a52e d5bd 7789 663d bb4a 85bb 5ed6 42be
00000220: e870 843e e7cd 993c 8deb 393e 85de 043e
00000230: d820 38be ffd3 e63d d29e 27be a0d2 163e
00000240: c7a1 e9bd 0a38 9abd dd8e a3bd 842a 05be
00000250: 2c18 37be 8e0a 44be b14c 123e 5c3a b33d
00000260: 2573 acbc f8f9 85bc ac89 ca3d ff56 bebd
00000270: ec4f ce3d 2bd8 15be b02e 6d3e c72b 36bd
00000280: 2b5f 7b3a 3869 cbbd 26b4 eebc 57ad f53c
00000290: 56c2 11be 7c63 28be 3dd8 eb3d bb8c e13d
000002a0: 036b 4ebe 6efe f1bc f55d 9a3d f6a8 553e
000002b0: 63db 32bd 5a4d 5dbe 99c6 abbd 0768 bcbd
000002c0: 0dda 423e 05fb 32bd ac6e 4d3e cc9a dc3c
000002d0: 0635 9e3d f0b9 39be 5864 4d3d 86d3 55bd
000002e0: fcf8 393e 241f af3d 2bb5 143e 7830 433d
000002f0: 7ed6 403e 8fee 293e 3cca e13d 0a54 343c
00000300: 9feb 9eba c19c 83ba 970b 89bd 4ea9 2b3e
00000310: c4ff 763b f910 b2bd 0482 1fbe ebe3 323e
00000320: 04d5 febd 59ef b2bb 6c18 153e ee01 18be
00000330: 8e6d 93bc b574 733e 82f8 263e e006 983d
00000340: 7525 253e 7e97 81ba 3a9b 1b3d a8c7 933d
00000350: 849d d7bd 6586 4d3e f4bb d7bd 64bb 3fbe
00000360: fca3 82bd c2fa cb3c e34b 223e ceb3 55bd
00000370: 3aea 65be d7f2 68be 4336 1a3e 8e16 0f3c
00000380: 5838 143e ad15 20be 457a cc3d 9dd1 de3d
00000390: d032 cbb9 6891 023e 30a5 5b3e 7463 2f3d
000003a0: a53c ffbd 568c 65be 72d1 9fbc a584 113e
000003b0: 81a8 443e d71a e6bd b2e8 a63d 25a5 ae3d
000003c0: e14d 86bc 7278 b83c 14cc 403e 22a8 383e
000003d0: c67e d4bd 7bce f53d fd5e 9f3d 363d b73b
000003e0: 7776 e5bd 72ab 603e 69a2 5c3e 775c c13d
000003f0: beb8 2ebe 197e 22bd d3d2 ae3d 532e fe3d
0.04778895 -0.022318376 -0.14345846 0.19824359 0.028382927 0.11149896 0.11154545 0.017260414
0.055993184 0.02709769 0.08866958 0.13352817 -0.109352574 0.054062624 0.07427635 0.18685922
-0.12532215 0.080491215 -0.18252057 -0.07708975 -0.06744558 0.11143784 0.0786346 0.10648834
-0.19913842 -0.09974501 -0.08491215 -0.07827759 -0.19602825 -0.09125483 0.15766004 -0.165965
0.022806443 0.12961723 0.12739353 0.1265847 -0.21081987 -0.20701197 -0.18774056 -0.23035628
-0.15308714 -0.15214954 0.104027666 0.038602658 -0.10569898 -0.14255558 0.012073369 0.09448323
0.17804947 0.07348672 0.04056923 -0.056333065 -0.20465064 0.019352183 -0.02619145 -0.13419597
-0.11846611 -0.0025650233 0.009663423 0.06013977 -0.026337659 0.12887259 0.22238633 -0.13436754
0.12907057 0.018017925 0.14900137 0.1545495 0.19413102 0.043019053 -0.2137111 0.17201342
0.1751925 0.13312861 -0.07063296 0.10915686 -0.08204826 0.0008703464 -0.14103714 -0.05198041
0.1173682 0.08483472 0.12139863 0.16934788 0.09074308 0.028188033 -0.09148986 0.15437436
0.0016421814 -0.24259952 -0.002652077 -0.237898 -0.18205874 0.115442485 -0.1673396 0.075717025
0.1978576 0.0029393276 -0.18596816 0.007106352 0.23558633 -0.112901695 0.07836027 0.011035083
-0.08733577 0.15989734 0.00951253 -0.19353223 -0.13032393 -0.05645007 -0.010232501 -0.1800168
0.11922773 0.07717305 0.067668624 0.052960917 0.11793835 0.07176216 0.13872056 -0.19025442
-0.007684296 0.1774906 -0.13091554 0.10794279 0.12039246 -0.0651326 0.009255974 -0.059461564
0.1452155 0.1769926 0.012210077 0.060557712 -0.10409287 0.05628344 -0.0040677465 -0.19027087
0.2586739 0.01877494 0.18156262 0.1297551 -0.17981279 0.11270904 -0.16369179 0.14728785
-0.1140781 -0.0753022 -0.079862334 -0.130045 -0.17880315 -0.19144651 0.14287068 0.087513655
-0.021050999 -0.016354546 0.0988954 -0.09293937 0.10073838 -0.14633243 0.23162341 -0.044475343
0.0009589071 -0.09932178 -0.029138636 0.029989881 -0.1423429 -0.164442 0.115158536 0.1101317
-0.20158009 -0.029540267 0.07537452 0.20865235 -0.043666255 -0.21611539 -0.08387489 -0.09199529
0.19028492 -0.043696422 0.20061749 0.026929282 0.07724957 -0.18137336 0.050144523 -0.052203678
0.18161386 0.085508615 0.14522235 0.047653645 0.18831822 0.16594909 0.11024901 0.011006365
-0.0012124664 -0.0010041223 -0.06691664 0.16763803 0.003768907 -0.086946435 -0.15576941 0.17469756
-0.12442973 -0.0054606614 0.14560097 -0.14844486 -0.017996576 0.23774989 0.16305736 0.07423186
0.1612757 -0.0009887067 0.037989832 0.07215816 -0.105280906 0.20070799 -0.10533896 -0.18723828
-0.06378934 0.024899844 0.15849261 -0.05217343 -0.22452632 -0.22748886 0.15059762 0.008733405
0.14474618 -0.15633269 0.099842586 0.10879824 -0.00038757036 0.1275078 0.21449733 0.042819455
-0.12462739 -0.22416815 -0.019509051 0.14210756 0.19204904 -0.11235588 0.08149852 0.085275926
-0.016394557 0.02251837 0.1882785 0.18032888 -0.103757426 0.12002274 0.077817895 0.0055920137
-0.11204236 0.21940401 0.2154633 0.094414644 -0.17062661 -0.039671037 0.08536305 0.124111794

in_proj_bias f4 [96]
00000000: ef8b 86bc 6e6d 133d f626 9c3c 445b c7bc
00000010: 7b43 e13c 25ae df3b d680 08bd 2890 bebb
00000020: 6049 e23c a030 10bd 3eb0 ab3c cdcc e1bc
00000030: 934b 3bbc 1750 b33c 47fd debc 627c f1bc
00000040: 3194 60bc 8e32 5db7 483f 813c 7d79 48bc
00000050: 5573 0e3d 36f8 cf3c 2db5 eabc cb03 09bd
00000060: 953a df3c 51b6 84bb 530b fabc f633 063c
00000070: 32ce 1a3d 96d8 a03a b397 ca3b 2647 31bc
00000080: 43e8 6fb6 fc06 6a36 728f 0134 77b2 9db3
00000090: 9108 60b7 8c0f b2b7 5045 9037 b714 1337
000000a0: fffb e337 fc64 af36 fa64 d7b6 4849 8936
000000b0: 9044 7ab7 2d9d b936 5d9b bb36 1c0d 86b7
000000c0: 7956 5836 dc8f 5a37 7a8f 2a37 be7c bb37
000000d0: a817 a036 86b9 fb36 8010 c837 19c9 38b7
000000e0: 7e96 f1b5 80c4 02b7 f568 02b7 7a79 ceb5
000000f0: bcc3 9b36 2a26 d4b6 170c 6637 d3ec 4ab6
00000100: d16b e0bc f7b5 9fbc a0bc cd3b b78b 473c
00000110: 6d78 4fbb a97d 913c 3b8d c23c c589 043c
00000120: 99f3 223c 0764 f73c 4507 d0bb 32b4 c6bb
00000130: e5d4 91bb 3900 4cbc c1bf 06bd 7f4e bbbc
00000140: 3128 983c 34f7 98bc 3ad7 3dba 37ab bd3c
00000150: 51dc e1bc 882a fb3c b83e e6ba f58b d7bc
00000160: 98e7 e5bc 3021 b43b 5690 803c c03c f2bc
00000170: a99e 903c 91d0 e0bc 5bf5 f13c a8ec 803c
-0.016424147 0.035993032 0.019061547 -0.024335511 0.027497998 0.0068261796 -0.033325993 -0.0058155246
0.027622879 -0.035202622 0.020958062 -0.027563477 -0.0114315925 0.021888776 -0.027220381 -0.029478256
-0.013707207 -1.3184397e-05 0.015777245 -0.012235996 0.034777958 0.02538691 -0.028650844 -0.033450883
0.027249614 -0.004050054 -0.030522978 0.008191099 0.0377943 0.0012271579 0.0061826347 -0.010820186
-3.574897e-06 3.4872783e-06 1.2066246e-07 -7.343345e-08 -1.3353435e-05 -2.1226493e-05 1.7198414e-05 8.766706e-06
2.7177854e-05 5.2271625e-06 -6.4192545e-06 4.0914492e-06 -1.4917125e-05 5.5317273e-06 5.591121e-06 -1.598015e-05
3.2236842e-06 1.3027307e-05 1.0166195e-05 2.2350225e-05 4.7711255e-06 7.5019807e-06 2.3849541e-05 -1.1014076e-05
-1.7999698e-06 -7.794355e-06 -7.773041e-06 -1.538355e-06 4.6421465e-06 -6.3225352e-06 1.3711883e-05 -3.0238195e-06
-0.02739516 -0.019495947 0.0062785894 0.012179307 -0.0031657473 0.017760115 0.023748985 0.008089487
0.0099457735 0.030199064 -0.006348523 -0.0060639614 -0.004450428 -0.012451225 -0.032897715 -0.022864578
0.018573852 -0.018672563 -0.0007241849 0.02315293 -0.027570875 0.030659929 -0.0017566299 -0.026311854
-0.028064534 0.0054971203 0.015693825 -0.029569983 0.01765378 -0.027443202 0.02953594 0.015737846

weight f4 [32, 32]
00000000: 0169 9bbe 6e5e fb3d 61e7 e6bc 977c 57bd
00000010: bbc2 96be 9f00 223e 9c43 76be 7559 0abe
00000020: f411 d43d 02e7 0c3c dcce 2ebc 9647 913e
00000030: 8c87 b23d 02ea 3a3e 8dd6 1fbe 7a95 18be
00000040: 9e36 1b3e 4028 c73d 0d64 8fbd d67e 033e
00000050: e2df 3b3e 8236 80bd eb86 c63d a3c3 923d
00000060: 432e b33b 445f 39be 6713 893e bced 62bd
00000070: 69be 2d3e d5f7 c0bd f714 94bd 34b4 813e
00000080: 79b0 95be be6b 2c3e 38f5 50be 2569 e03d
00000090: fc2c 74be 57cc 55bb 8bdf e4bd 2f95 373e
000000a0: 3892 b6bd 67e7 10be 7107 50be 4363 4e3e
000000b0: fc4f 5a3e 29dc 813e dd0b 96bd 4d56 0cbe
000000c0: 6d29 7fbd 8139 4a3e 533c 873e f5a9 8ebe
000000d0: ab52 553e 2f36 25be d10f 6d3e 4489 a03d
000000e0: 2af0 913d 9dff e2bd 4ef8 4c3e cffb 543e
000000f0: 297c 95be 0ac3 4a3d 9b80 44bd a7e4 67be
00000100: fcd0 60be 0ce5 a03e f6ad e03d 7b30 88be
00000110: d7d1 44be 4ccd c73d 27c6 8c3d e037 9d3d
00000120: c103 d33d c5d6 d1bd 5d00 7c3e 3a0c 1abd
00000130: b01e 0f3e 002a 5c3e 61a2 8e3e ba9f 6fbd
00000140: 72f3 963e d848 d2bd 7e3e a53e c192 89bd
00000150: 4c49 8b3d d48e 333e c71b 7bbd 235c bdbd
00000160: 38ec 843e e43f 083e 1ff6 e4bd 02c9 59be
00000170: 372c e33c 44b6 8ebe 68ba 09be 5341 65be
00000180: 745c 84bd 8c1a d3bd 5299 9a3e e028 66be
00000190: f2be 29bd 233e 1a3d b9a7 c7bd 82bc 1dbe
000001a0: ac7f bfbc 58cc 88be d4e5 453d 538d 72be
000001b0: 41b7 29be aadd 8e3e 6d14 c9bd cdb3 873c
000001c0: 96a2 fcbd a5ac a1be ca6d 703e c681 76be
000001d0: 85c8 15be b3bb 72be 404a 49be c053 3cbe
000001e0: 6a28 15be 43fa 9cbe 2bfe 7ebe 4a3a 6b3c
000001f0: af2d d2bd 276c 123e 715e 22be af8d 96be
00000200: d46c cdbd f9a0 86be 7356 95be 6e29 0a3e
00000210: fd3f 203e fb39 ba3b 05a4 05be c97c 61be
00000220: c256 0ebe a696 943e 5135 3e3e ff63 8d3e
00000230: 18cd 44be 2c69 873e 84f4 29bd 8e9b c43d
00000240: a09c 8c3e 95fd 903e f462 5e3c a2e7 00be
00000250: 211d 623e afb0 c93d b7e1 973e 6e7c 5ebe
00000260: 500c 383d 40fe dabd ee3b 76bd ef50 da3d
00000270: d028 093e 3d82 493e c0c1 30be 2936 6fbd
00000280: 5237 87bd 7306 963e 9227 993e 2484 90ba
00000290: da52 0d3e 22fb 58bd 2798 ff3d b919 893e
000002a0: abc1 a3bd b1c5 18be 4abb 71be 2093 f7bd
000002b0: 2275 97be f30d 5e3e 8de0 1ebd d979 fd3d
000002c0: e40d 46be 7954 283e e020 29be c010 83be
000002d0: 45e7 fdbd 0fad 96bd 6715 89be 59e5 093e
000002e0: b20f a13c 1457 b9bc 365e 87bd 054c f9bd
000002f0: 4b57 363e 74aa ccbd 3d24 35be 537a 233e
00000300: 774c aa3d 6df1 683d 9ec2 143e 9ed0 693e
00000310: a60f 8bbe 7968 8d3e 40aa 2dbe 6146 063e
00000320: 90ca 1abe 8d6c 093e cfeb 6e3e 311f 9bbe
00000330: e128 533d 3789 28be c7ec 83be f1ef dfbd
00000340: 1040 c2bd 1a0a 44be f0b8 2abe da05 77bd
00000350: 23e8 88bb 7a44 9ebd 1532 1fbe 2c36 5bbe
00000360: 2d98 d93c 0791 953d bf1e 9c3e d21a 32be
00000370: 0afa 2a3e 6cc3 37be 4891 963e e52e 26be
00000380: 6d49 dcbc 1ba7 c5bd a150 413e 080a 223d
00000390: d985 2abd 264d 67be 478d 25bd c74d 38be
000003a0: 6f46 40be 1de5 423e 2ee2 973e f54f 593e
000003b0: a71a 8b3e 5735 0dbe 4e23 503e bf72 ab3e
000003c0: 216a 8fbb e22c 773e 7f4f 7abe d2b7 78be
000003d0: f520 273e 12a4 43be 20f1 ec3c 43a7 263c
000003e0: e176 3a3e 6eea 583c 48cd adbc 43e3 ab3e
000003f0: 0a05 05be 1dfd 663e 6209 32be d054 4a3e
-0.3035355 0.122738704 -0.028186502 -0.052609053 -0.29445443 0.1582055 -0.24049228 -0.13510688
0.10354987 0.008599998 -0.010669436 0.28374928 0.0871726 0.1825333 -0.15609188 -0.14900771
0.15157554 0.09724474 -0.07001505 0.12841353 0.18347123 -0.062603965 0.09693702 0.07166221
0.0054681613 -0.18102747 0.26772615 -0.055402502 0.16967167 -0.0942227 -0.07230561 0.25332797
-0.292362 0.16837975 -0.20406044 0.10957555 -0.23845285 -0.0032623017 -0.1117545 0.17928003
-0.08914608 -0.14150773 -0.20315339 0.20155053 0.21319574 0.2536328 -0.073264815 -0.13704796
-0.062295366 0.19748498 0.2641321 -0.27864042 0.20832317 -0.1613395 0.23150565 0.07838681
0.07125886 -0.110839106 0.20016596 0.20799182 -0.2919629 0.04950241 -0.04797421 -0.22645818
-0.21954721 0.3142475 0.109706804 -0.26599488 -0.19220673 0.09755954 0.06873732 0.07676673
0.103034504 -0.10246042 0.24609514 -0.037609316 0.1397655 0.21500397 0.2785826 -0.058501936
0.2948261 -0.102678 0.3227424 -0.06717444 0.0680109 0.17534953 -0.061305787 -0.09246089
0.2596147 0.13305622 -0.111797564 -0.21268085 0.027731044 -0.27873433 -0.13450015 -0.223882
-0.064629465 -0.10307798 0.301951 -0.2247653 -0.041441865 0.037656914 -0.097487874 -0.15403941
-0.023376308 -0.26718402 0.048314884 -0.23686723 -0.16573812 0.2790349 -0.09818349 0.016565228
-0.12335698 -0.3157703 0.23479381 -0.24072942 -0.14627273 -0.23704414 -0.1965723 -0.18391323
-0.14566198 -0.30659685 -0.24901645 0.014357159 -0.1026262 0.1429907 -0.15856339 -0.2940497
-0.10030523 -0.26294687 -0.29167518 0.13492367 0.1564941 0.0056831813 -0.1305085 -0.22020258
-0.13900283 0.29021186 0.18575026 0.27615353 -0.19218862 0.26447427 -0.041492954 0.09599982
0.27463245 0.28318468 0.013573397 -0.12588361 0.22081424 0.09848153 0.29664394 -0.21727154
0.044933617 -0.106930256 -0.060115747 0.10659968 0.13394475 0.19678588 -0.1726141 -0.05840126
-0.066023484 0.29301795 0.29913002 -0.0011025709 0.13801137 -0.052973874 0.12480193 0.26777437
-0.079959236 -0.14919163 -0.23606601 -0.12088609 -0.29581553 0.21685009 -0.038788367 0.12376756
-0.19341236 0.16438474 -0.16516447 -0.25598717 -0.12397627 -0.07357227 -0.2677414 0.13466395
0.019660804 -0.02262453 -0.06609766 -0.12172703 0.17806737 -0.09993449 -0.17689605 0.15964632
0.08315366 0.056870867 0.14527366 0.22833487 -0.27160376 0.2761877 -0.16959476 0.13112785
-0.15116334 0.13420315 0.23332141 -0.30297235 0.051552657 -0.16458593 -0.25766584 -0.10934437
-0.09484875 -0.19144478 -0.1667211 -0.060308315 -0.0041780635 -0.077279046 -0.15546449 -0.21407384
0.02656182 0.073030524 0.30492207 -0.17393044 0.16696945 -0.17945641 0.29407716 -0.16228826
-0.02689048 -0.096510135 0.18878414 0.039560348 -0.041631553 -0.22588024 -0.040417936 -0.1799842
-0.18776868 0.19032712 0.2966475 0.21221907 0.27168772 -0.13789879 0.20325968 0.33485982
-0.004376665 0.24138215 -0.24444388 -0.24288872 0.16321166 -0.19105557 0.028923571 0.010171714
0.18209411 0.013239486 -0.02121605 0.33571824 -0.12990203 0.22557493 -0.17386392 0.19758916

bias f4 [32]
00000000: 1e68 e23c cf17 3dbc 0172 a3bc 7bfd 64bc
00000010: 527d 0cbc fefb c3bb 82e4 073b 21f1 fabc
00000020: 8c0d dc3c ab40 92bc 1646 cdbc 8fa1 c03c
00000030: 7116 153c 4616 de3b a190 2a3b c553 563c
00000040: 4a49 3ebc d2f2 34bc 4619 bcbc e35e 023d
00000050: 11a0 9ebc 3d1c bdbb 2b70 133c 28e3 ae3c
00000060: 15bc 123c 0e02 7bbc 30e9 d9bc f3d4 80bc
00000070: ce5e c73c 3b53 db3c bb90 103c dd49 e5bc
0.027637538 -0.011541321 -0.019951822 -0.01397645 -0.008574801 -0.0059809675 0.0020735567 -0.030632557
0.026861928 -0.017853102 -0.025057834 0.023514537 0.009099589 0.0067775575 0.0026026147 0.013081496
-0.011614153 -0.011044221 -0.02296127 0.031828772 -0.019363435 -0.0057711885 0.008998911 0.02134855
0.008955975 -0.015320314 -0.02660045 -0.015726542 0.024337199 0.026773086 0.008823569 -0.027989322

weight f4 [128, 32]
00000000: aa93 323d 9810 2f3d 260b c4bd 0294 c73d
00000010: 7c86 df3d 0472 c83b 2629 323d d497 97bd
00000020: 265a f9bd 67dc 9c3d 35f7 32be 7b48 d5bd
00000030: 3e9a 8dbd f94d 52be 23c6 ae3d 519f 6cbc
00000040: 4283 c6bd b378 e53d 88a5 58be fd50 623d
00000050: 654e 493b 9a62 083d b612 073e 3ca2 32bd
00000060: e227 f5bd 2b25 34be c7e1 27be 8693 453e
00000070: e5e8 9dbc 2024 d7bc 43dc c9bd 3267 06be
00000080: bda0 cfbd bd84 85bd 03b3 a43d 7ac0 073e
00000090: 1dee 06be 09b2 213d 3416 863c 250c 193d
000000a0: 62f3 593e 67a1 b03d 8f08 c7bd 3c01 ecbd
000000b0: 1d24 2e3e b40c 0bbe 431d 33be acf7 ccbd
000000c0: 1a02 20be 8765 9abd e7cf 27be 92bd 4d3e
000000d0: 992e 02be 0117 7b3d 2e9b bd3d 04c7 203e
000000e0: 88cb 9bbd cc36 f53a 8e98 a33b 399e efbd
000000f0: 8ebd b3bc ef0c 10be e20d cb3d 7324 39be
00000100: fe9d 593e ac71 74bd 40d6 cf3d 2e26 30bd
00000110: 3360 203e 97e8 f03d f22f 8f3d a584 54bc
00000120: 24b6 fb3d 68a7 b7bb 7daf 47be 150a 513e
00000130: a84d 8bbc 6846 603d e3aa 4ebd 26f5 a43b
00000140: b198 f7bd 36b2 1e3e 41cb 60be 4854 233e
00000150: cf1d 42be 64d0 d4bd a782 e4bd 5c6c a93d
00000160: 227c d73d 9213 a73d 888c a5bd 6478 b7bd
00000170: e19f 14be b7de 10be 47c6 46be eaae 26be
00000180: aeb8 0fbe 9cf5 a9bd cdfe 0e3e 0f3a 37be
00000190: 4b1c 25be 09a3 e33d 13d4 963d e5ee 37be
000001a0: 74cc 203e 4dcb d8bc 7282 5a3d 9f27 043e
000001b0: 900a 78bd 1c85 2dbe 09cd 343e 7c0b 1dbe
000001c0: 9f19 2dbd 1e56 383e 1e49 c0bd 9d0e 17bc
000001d0: d991 f6bc 215c 2dbe b91a 7a3d 4fbb e5bd
000001e0: 659b 08be effb fdbd bce5 35be 5444 3a3e
000001f0: c63d 6c3e fc61 053e 42ce 76bc ac66 d6bd
00000200: f3e7 03be 33b4 99bd c8de 2abe 3c7e 3d3e
00000210: bd0c 5f3e c62e de3d dd3f 383e 6a06 683d
00000220: a687 99bd bf6d b7bd 1705 b13d 96f4 db3d
00000230: 174a cc3c fbba 41be ab4d a3bd 2488 2bbc
00000240: d965 51be 2cec b1bc b931 ac3c a04c 403e
00000250: d633 04bd ad11 d03d c965 acbc 4897 74bd
00000260: 1e9b 413e 8827 c8bc f3c8 f23d f03d 0fbe
00000270: 8b2a a4bc 8c43 093e a881 0e3c 4dc3 20be
00000280: 094e 3c3e 7bc6 703c 213e f5bc c294 8cbc
00000290: 5b91 c03d 223b 35bc 8b08 02be 7472 3abc
000002a0: cad1 29be 1504 debd bbaf 7bbd d160 373e
000002b0: 31e8 c33c a363 e53d 83ad 283e e8c4 373e
000002c0: 890d 37be 3042 3a3d 4e7f 103e 35bf f23d
000002d0: edf6 063e 2d91 0bbe 9ad0 343c 16ad 763b
000002e0: 713c 523d 8131 bc3c 899c 06bd d777 153c
000002f0: 9b8d ef3d cb50 13be bc77 0c3d 0023 343e
00000300: 2c2e de3b 0109 c5bd b3e5 febd bc17 edba
00000310: 9580 1f3e 0bb9 a23d de6c 45bc bbc1 743c
00000320: 9fb0 16be 40de d53d 57aa 1c3e c16a 40be
00000330: 3e91 713d b355 253e 426c 6fbd fb26 9ebd
00000340: dad7 353d 2564 e7bd c5e2 edbd cafe 353e
00000350: bafb b53d 8050 983d 0eb9 fd3d 9259 1d3e
00000360: 0b38 d13d b6b6 b8bd f593 0abe 8193 99bd
00000370: cc23 143e 50b4 24be 7c5a febd fa7a b13b
00000380: f0da a93d 3c90 df3d 5435 e9bc 9648 793b
00000390: b951 29be bcbb f23c 9559 89bd 8ee2 babd
000003a0: 7f78 56be 73e6 0bbe 8f25 ab3d 10dd 173e
000003b0: 2870 6a3b db2a e93c ec9f 133d 79b1 18be
000003c0: 056c 273e 38c5 29be 36cc c2bd f235 d6bd
000003d0: ce73 923d 0c76 583d e944 9fbd 7ab1 e7bd
000003e0: fc50 993d 0591 3ebe dd92 083e 0227 1e3e
000003f0: 29db 443e a421 503e 3fb2 7ebc 2167 9a3c
0.043597855 0.042740434 -0.09572439 0.09745027 0.10914323 0.0061171073 0.043496273 -0.07402006
-0.121753976 0.07659226 -0.17477114 -0.10414215 -0.06914185 -0.20537557 0.08533885 -0.014442281
-0.09693004 0.11204662 -0.21156895 0.055253018 0.0030716893 0.03329716 0.13190731 -0.04361175
-0.11970498 -0.17592303 -0.16394721 0.19294557 -0.019276092 -0.026262343 -0.09856465 -0.13125303
-0.1013808 -0.065194584 0.08041956 0.13257018 -0.1317677 0.03947643 0.01636801 0.037365098
0.2128425 0.08624535 -0.09718429 -0.11523673 0.17005964 -0.13579065 -0.17491631 -0.10008177
-0.15625802 -0.07538896 -0.16387902 0.20091847 -0.12713088 0.061301235 0.09258114 0.15700918
-0.0760718 0.0018708347 0.004992551 -0.117001005 -0.021940973 -0.14067434 0.09914757 -0.1808031
0.21251675 -0.05967872 0.10148287 -0.04300516 0.15661697 0.11763113 0.06991567 -0.012971078
0.122906 -0.005604673 -0.19500537 0.20414002 -0.017004803 0.054754645 -0.05045594 0.005034107
-0.120896704 0.1549767 -0.21952535 0.1595012 -0.18956684 -0.1039131 -0.111577325 0.08272621
0.10521723 0.081580296 -0.08083445 -0.089585096 -0.14514114 -0.14147459 -0.19411574 -0.16277662
-0.14035293 -0.082987994 0.13964386 -0.17893241 -0.16124074 0.11115081 0.07364669 -0.17962225
0.15702993 -0.026464129 0.05334706 0.12905739 -0.06055695 -0.16945308 0.1765634 -0.15336412
-0.042260762 0.18001601 -0.09388946 -0.009219793 -0.030098842 -0.16929676 0.06106064 -0.11217367
-0.13340528 -0.12401568 -0.17763418 0.18190128 0.2307044 0.1302566 -0.015063824 -0.10468802
-0.1288145 -0.075050734 -0.16686547 0.18505186 0.21782203 0.10848765 0.17993112 0.056646742
-0.07496576 -0.08956479 0.08643549 0.107400104 0.024937673 -0.18918984 -0.07973798 -0.01046947
-0.20449008 -0.02171906 0.021019803 0.1877923 -0.032275997 0.101596214 -0.021044629 -0.059714586
0.18906829 -0.024432912 0.11854734 -0.13988471 -0.020039817 0.13404673 0.008697905 -0.15699501
0.18389143 0.014695759 -0.029936852 -0.017160777 0.09402724 -0.011061462 -0.12698571 -0.011379827
-0.16583934 -0.10840622 -0.061446887 0.17908026 0.023914428 0.11200645 0.1647244 0.17946208
-0.17876257 0.045473278 0.14111063 0.11852876 0.13180132 -0.13629599 0.011036063 0.0037639788
0.051327173 0.022972824 -0.032864127 0.00912281 0.11696931 -0.14386289 0.034293875 0.17591476
0.0067804065 -0.09620858 -0.124461554 -0.0018088738 0.15576394 0.079454504 -0.012049882 0.014938767
-0.14715813 0.104427814 0.15299354 -0.18790723 0.058976404 0.16145973 -0.058452852 -0.07722279
0.044395305 -0.11298398 -0.116155185 0.17772976 0.08885904 0.07437229 0.12388812 0.153662
0.102157675 -0.09019224 -0.13533004 -0.07498837 0.1446678 -0.16084409 -0.12419602 0.0054162713
0.08293712 0.109161824 -0.028467812 0.003803765 -0.16535081 0.029630534 -0.067065395 -0.09125243
-0.20944403 -0.13662128 0.08356773 0.14830422 0.0035772417 0.028462818 0.036041185 -0.1491145
0.163498 -0.16579139 -0.095116064 -0.10459508 0.07150994 0.052846953 -0.077768154 -0.11313148
0.0748615 -0.18610008 0.13337274 0.15444568 0.19224228 0.20325333 -0.015545427 0.018848004

bias f4 [128]
00000000: 9980 e43c 375d 133d 3275 fa3c 0546 113d
00000010: 4b63 033d 2f2d a33c 6c3d 1cbc 708c 713b
00000020: 5176 f13c 5cfd 8ebc 867b d73c c8d9 153d
00000030: 74a9 ddb8 a84e 84ba b856 73bb 9b97 993c
00000040: 9fe5 cebc eaa2 a238 3014 acbc 3d4a 203b
00000050: e21b 703c 7fa7 d03c 324a c7bc 0dd0 52bc
00000060: 41ab 163d 3d8e f13c f9ea 1a3d c91d a43c
00000070: 1e82 be3c 81ed b23c c62a e63c 6f08 4c3c
00000080: bd73 8a3c d96b 023d d1aa 033d 147c b9bb
00000090: 78b7 063d bd8f cdbc 8f06 3cbc d1ce 7bbc
000000a0: e493 b2bc 6db3 d43c 3ad0 943c 5244 1bba
000000b0: c3cb a43c 95c2 9f3c 6fa0 093b 847d 7f3c
000000c0: b3b7 4e3c 33cd 403c dd34 bfbb 5180 ef3b
000000d0: 929b 953c 6c09 c73c f7b9 d93c a8a0 32bc
000000e0: cc35 9abc abda ad3c b746 d73a 7bfc 92bc
000000f0: fc1b 573c 06d3 ed3c 515f 37bc 64a4 f33c
00000100: 83c8 a53c 9364 3f3c fdea df3c 23c7 2a3c
00000110: e80b a1bb 0d5e 003c e7b7 c83c 9d1e 063d
00000120: 970a 30b9 0188 bbba ea13 bb3c b9b8 c73c
00000130: 57d3 95bb 48fa 833c 253c 99bc 5adb 133d
00000140: 6ca0 0b3d 281e be3b 7be0 5cbc c3d2 0dbc
00000150: 1b9d 66bc d770 323d 2d4e 0b3b 2900 cebb
00000160: e2da f53c d239 0d3c 710b 003d 5585 593c
00000170: f039 c2bc c4f9 96bc c184 d93c a5d3 f43a
00000180: 7cec 6c3c f02c c93c 9793 2b3d 2cd6 33bc
00000190: e9a4 b23c 26d5 b63c 3c96 adbc 97c4 70bc
000001a0: 1e5d ac3c faf1 e73c 2d16 963c 2ca8 e23c
000001b0: 9bfc d1bc 3491 33bc ebe1 16bc 7a7d fb3c
000001c0: 471e cdbc 0f73 25bc b62b 09bc 7a14 95bc
000001d0: 9953 3d3c 5da9 1938 3ae4 56bc 0546 5bbc
000001e0: 2fe4 a6bc a43c 8cbc 77ac fc3c 6c4c 13bc
000001f0: 2b84 053d 4e63 4c3c 36e0 193c 7fe3 88b9
0.027893351 0.03597757 0.030573461 0.035467166 0.032077115 0.019919006 -0.0095361285 0.003685739
0.029475363 -0.017454796 0.026304018 0.036584646 -0.00010569664 -0.0010094242 -0.0037130546 0.018749049
-0.025255976 7.755107e-05 -0.02100572 0.0024458312 0.014655085 0.025470493 -0.024327371 -0.012866986
0.036784414 0.02948677 0.037821744 0.020033734 0.023255404 0.021841766 0.028096568 0.012453183
0.016900891 0.031841133 0.032145325 -0.005660543 0.032889813 -0.025092954 -0.011476173 -0.015369133
-0.021799035 0.025964463 0.018165696 -0.0005922961 0.020116692 0.019501964 0.0021000167 0.01559389
0.0126170395 0.011767673 -0.005835159 0.0073089977 0.018262658 0.024296485 0.026577933 -0.010902561
-0.01882448 0.021222433 0.0016424273 -0.017942658 0.013129231 0.029031288 -0.011192159 0.029741473
0.020237213 0.011681694 0.02733373 0.010423454 -0.0049147494 0.007834923 0.024501754 0.03274404
-0.00016788613 -0.00143075 0.022836644 0.024380075 -0.004572313 0.016110554 -0.018705437 0.03609786
0.034088537 0.0058019347 -0.013481255 -0.008656207 -0.014075543 0.043564644 0.0021256313 -0.00628664
0.030011598 0.0086197425 0.03126091 0.013276418 -0.023709267 -0.018429644 0.02655256 0.0018678798
0.014460679 0.02455756 0.0418888 -0.0109763555 0.02180715 0.022318434 -0.021189801 -0.014695308
0.021040495 0.028313626 0.018321121 0.027668081 -0.025633147 -0.010959912 -0.0092091365 0.03069948
-0.025038851 -0.010098233 -0.008372238 -0.01819824 0.011555576 3.6635774e-05 -0.013115937 -0.013383393
-0.020372478 -0.01711876 0.030843956 -0.008990388 0.03259675 0.012474848 0.009391835 -0.0002610944

weight f4 [32, 128]
00000000: ba12 d9bd ea2e 22be 279c c13d 2247 133e
00000010: 156c c6bd c8e1 4f3d 679d e83c 9cdf 523d
00000020: 10fb 78bd fef8 903d 8278 553e db32 3b3e
00000030: 07af 12be 0243 0a3e 3bb8 23be fbd2 5fbd
00000040: 076c 0b3e abb3 283d 3159 08be d48c b5bd
00000050: 51d2 323e 713b 34be 4081 f7bd d6c7 f1bc
00000060: 0a93 133d 4e58 173d 3fcb 2a3c 226a b9bd
00000070: 3332 8ebc fb00 77bd 3983 643e 913c 85bc
00000080: f92e ebbd 97e7 873d 4d16 503e 571c cb3d
00000090: 1e5b 623e df03 133e bbff 423e 0449 d0bd
000000a0: 50a7 f4bd 8104 443e bd98 d0bd 24c5 353c
000000b0: 50fb 123d d3b0 7fbd dfab 333d d869 103e
000000c0: 06c0 2cbe b628 1e3e ca59 473e c88c d4bd
000000d0: 253a 393e 98f0 2fbc 3aea 08bc 8a29 333e
000000e0: 8ef0 0c3c c8f7 5f3e 2002 bdbc 22b8 d5bd
000000f0: db63 0cbe 2c67 023d 71ba a0bd 67ce 3fbe
00000100: 3e10 243d c317 5a3e e290 96bd 4368 cdbd
00000110: 497c 1f3e d1c5 cd3d 1573 d1bc 6ec4 263e
00000120: 78a3 ba3c 9957 0abe 3f2e 05bd a4b9 3bbd
00000130: 45af dabd 7538 7a3d dcce 573d 9df7 fb3d
00000140: 062a 33bc e663 463d f907 13be 9a05 393e
00000150: 61e4 86bd e16e 563e 1ba5 893c 4699 813d
00000160: 9f66 e23c d4f8 8fbc 5f7b 0dbe fccf 66bd
00000170: 1c27 ce3c 231b 2ebd 117c 6d3d 6766 873d
00000180: 3152 0cbe f631 2d3d f4ab cabd 3384 023e
00000190: b74f 59bd 6300 45bc 455d a83d 6ee0 a9bd
000001a0: f626 26bd c997 f2bc f0e2 15be 9eb9 e5bd
000001b0: 31bb fdbd caab cbbd c2ba 4cbd bd1f 0b3d
000001c0: a452 1ebe 3a83 273d 85d4 c9bd 396d 273d
000001d0: 4c43 863d 21f1 c1bd 277c babc ec60 17be
000001e0: df71 0cbc 2d53 003d 755c adbd 2137 fbbd
000001f0: 42eb febc 2295 13be ecae 73bd 8334 67bc
00000200: 884e f63c dd8f 38be c83b 04be bb10 65bd
00000210: 49d7 bf3d 3df6 3d3d b050 c7bd 5c08 083e
00000220: 9cc1 29bc 0b0c 273e 8c0f 383d b06a 2dbe
00000230: bacb 1dbe 7e3a 32be 7c2a 7c3d 2398 adbd
00000240: d25d 5ebd fcef 1b3b afd1 aa3d 05d8 37be
00000250: 3968 ae3d f137 4a3d 39e6 3a3d 0f93 ee3d
00000260: b363 70bd 7915 253c 0a00 013d 7695 ebbc
00000270: 1f63 1fbe 8fc4 533e 6734 373d 908d a6bb
00000280: 043d 02be b215 1bbd ec81 a43d 3e9e 713b
00000290: 6bef 37be 9d56 26be 887e 9b3d 4e5d 1d3e
000002a0: 22c4 07be 4165 4bbe d993 0a3d 3ae6 bb3a
000002b0: 0181 45bd 319b 913d 0693 f3bc 4542 3bbd
000002c0: 4853 d63c 1a05 8c3c 964d d6bb 2ec0 84bd
000002d0: 69d6 5d3e af38 273e 3d98 ab3d ec86 07be
000002e0: ded2 c23a a695 283e f7ba 2cbe 8bdb d0bc
000002f0: bddf 3f3e 9f18 673d 8d9a bb3d 45af 05be
00000300: e6cc 2c3e f6eb b9bd 065a 113d f482 03be
00000310: 7e1c 31be 8498 88bd ed7e 553d 9cf4 2b3d
00000320: 5421 f13d cdbb 34be 7067 a63d e24c 1ebe
00000330: 2e0b 043e 0b3a 253d 60d2 083e 2adb 6a3d
00000340: 37b7 05be 7c8e 303d 7f30 983d edc2 373d
00000350: a842 433d 4059 e63d 0141 60bd ce7d b53d
00000360: a64e fbbc fb75 733d a898 0bbe 9f49 e73d
00000370: 809a 3bbe 0def a43d 2772 4bbe 21d9 11be
00000380: ee4b d0bd 03ea 1bbd 7dd1 273e 71e6 313d
00000390: 6b7b 32be e73d 033d 8bf7 7e3d 5b17 22bc
000003a0: 4b96 c33d cd3a d53d cb78 553e ec67 5abd
000003b0: 35dc 0a3e f18c 80bc 65a8 6bbc 04b3 093e
000003c0: 030b 98bc 6cff e2bd a2eb 09be e8f4 37be
000003d0: 2615 12be e6a5 25be 5278 0ebe ecc3 413e
000003e0: 4549 03be e967 0d3d 32aa 46be b95c ea3d
000003f0: 64b9 c93d 1c28 80bd 7d66 ffbc 3ce7 fa3d
-0.10599275 -0.15838209 0.09453612 0.14382604 -0.09688584 0.05075243 0.028395368 0.05148278
-0.060786307 0.070787415 0.20846751 0.18281119 -0.1432458 0.13502124 -0.15988247 -0.054644566
0.13615428 0.04118697 -0.13315274 -0.088647515 0.17463042 -0.176008 -0.12085199 -0.029514235
0.0360289 0.03694945 0.010424434 -0.09053446 -0.017357921 -0.06030367 0.22315682 -0.016264232
-0.11483569 0.06635969 0.20321007 0.09917515 0.22105071 0.14356945 0.19042866 -0.101701766
-0.11945975 0.19142343 -0.101853825 0.011094365 0.0358842 -0.062424492 0.04386508 0.14102876
-0.16870126 0.15445217 0.19467846 -0.103784144 0.18088587 -0.010738514 -0.008356625 0.17496315
0.008602275 0.21871865 -0.023072302 -0.10435511 -0.13709967 0.031836674 -0.07848061 -0.1873108
0.040054552 0.21298127 -0.07351853 -0.10029652 0.15574755 0.10047496 -0.02556757 0.1628587
0.022783026 -0.13509978 -0.032514807 -0.045831338 -0.10677961 0.061088998 0.05268751 0.12303088
-0.010935312 0.048435114 -0.1435851 0.18068543 -0.065865286 0.20940734 0.016802361 0.06328063
0.027636824 -0.017574705 -0.13816594 -0.056350693 0.025165133 -0.04250635 0.057979647 0.066113286
-0.13703229 0.042283975 -0.09896079 0.12745742 -0.053054538 -0.012024018 0.08220915 -0.0829476
-0.0405645 -0.029613392 -0.14637351 -0.11217044 -0.123892196 -0.099448755 -0.049982794 0.033965815
-0.15461212 0.04089663 -0.09854988 0.040875647 0.065558046 -0.0946982 -0.022764279 -0.14783067
-0.008572071 0.031329323 -0.084649004 -0.122663744 -0.031118039 -0.14412358 -0.05949299 -0.014111641
0.030066743 -0.1802363 -0.1291343 -0.05592416 0.09367234 0.04637741 -0.09732187 0.13284439
-0.0103611015 0.16313188 0.0449367 -0.1693523 -0.15409747 -0.17405125 0.061563954 -0.084762834
-0.054288693 0.0023794165 0.08340775 -0.17953499 0.08515973 0.049369756 0.045629714 0.11649143
-0.05868883 0.01007592 0.031494178 -0.028757792 -0.15565155 0.2068045 0.04472771 -0.0050827935
-0.12718588 -0.037862487 0.08032593 0.0036868001 -0.17962424 -0.16243978 0.07592493 0.15367624
-0.13258412 -0.19862844 0.033832405 0.0014335581 -0.04821873 0.071096785 -0.029733192 -0.045717496
0.026162758 0.017092276 -0.0065400107 -0.06481968 0.21663822 0.16330217 0.083786465 -0.13235062
0.0014863869 0.16463336 -0.16868196 -0.025495311 0.18737693 0.056419965 0.091603376 -0.13055141
0.16875038 -0.09078209 0.035486244 -0.12842923 -0.17296025 -0.06669715 0.052123 0.041981325
0.11773935 -0.17649765 0.08125198 -0.15459016 0.1289489 0.040338557 0.13361502 0.057337917
-0.13058172 0.043104634 0.07431125 0.04486363 0.04767099 0.11247492 -0.054749493 0.08861886
-0.030677151 0.059438687 -0.13632452 0.11293339 -0.18320656 0.08053408 -0.19867764 -0.14242984
-0.101707324 -0.038064968 0.16388507 0.043432657 -0.17429893 0.032041457 0.062247794 -0.009893264
0.095501505 0.10411606 0.2084686 -0.053321764 0.13560565 -0.015692206 -0.01438341 0.13447195
-0.018559938 -0.11083874 -0.13468793 -0.17964518 -0.1426588 -0.16176566 -0.13913086 0.18922395
-0.12820919 0.034522925 -0.19400862 0.11443467 0.098498136 -0.0625765 -0.0311768 0.12251136

bias f4 [32]
00000000: 4739 b93c a141 113c 3806 b4bc 4a17 a7bc
00000010: 81b5 1abc 74ef 6bbc 4f0b a1bb 69a2 e8bc
00000020: 6555 d93c 6426 d5bc 86af bebc 5934 c03c
00000030: c450 8d3b 535a 5b3b 94e1 373b 231b c43c
00000040: b7bd e1bb 7f59 6bbc c669 8bbc 869a 173d
00000050: 5bc0 8bbb 95b6 31bc 3344 5b3c 0876 ae3c
00000060: 03ae f73b 9c55 5cbc 20f9 6bbc cee5 9abb
00000070: 7ac1 c13c dcd2 df3c 4cf1 a73b fb7d a6bc
0.02261032 0.008865745 -0.021975622 -0.020396847 -0.009442688 -0.014400352 -0.004914678 -0.028397756
0.026529977 -0.026019283 -0.023277055 0.023462461 0.0043126065 0.0033470585 0.002805804 0.023938721
-0.006889071 -0.014364599 -0.01701821 0.0370126 -0.004264874 -0.010846754 0.013382959 0.021296516
0.0075585856 -0.013448145 -0.014402658 -0.004727102 0.023651827 0.027322225 0.0051252004 -0.020323744

weight f4 [32]
00000000: edac 803f 6ba1 793f e1b0 833f 0fb8 823f
00000010: 5b9d 803f 41c0 843f 74f2 7b3f 8cee 813f
00000020: 225d 7f3f 7e68 833f 9091 7b3f 225f 7f3f
00000030: 60de 783f 6094 823f e14f 813f b05d 823f
00000040: 20ef 793f ea44 7b3f f297 803f 19f6 843f
00000050: e685 813f 7210 7e3f 25cf 833f 0090 833f
00000060: 5709 843f 5bcb 843f 9593 843f a9e1 853f
00000070: b123 813f 9002 813f a8b9 813f b30b 843f
1.0052773 0.9751193 1.0288354 1.021242 1.0048021 1.0371171 0.9841683 1.0150924
0.99751484 1.0266263 0.98268986 0.99754536 0.9721432 1.020153 1.0102502 1.0184841
0.976305 0.9815203 1.004637 1.0387603 1.0118988 0.99243844 1.029759 1.027832
1.031535 1.0374559 1.0357538 1.0459491 1.0089017 1.0078907 1.0134783 1.031607

bias f4 [32]
00000000: 364c 663c 7290 bcbc cefd 0a3d 91d5 893c
00000010: a8b5 a83b 9172 13bd 67fd 9d3c a7bf 77bc
00000020: 035f c5bc 87b8 cfbc 322a 3b3b 9f9d 80bb
00000030: 8116 ac3c e457 afbc 6f37 f33b d82d a13c
00000040: 9c88 da3c 2c61 ea3c 2c0e d63c bd30 173d
00000050: 9380 25bb c741 293c 2d52 e63c 9e15 8f3c
00000060: 31cc f73c 0611 16bd 80ae 10bd a34e f7bc
00000070: 9262 72ba 3105 353c 0071 023c f26c 06bd
0.014056256 -0.023018096 0.033933453 0.01682547 0.0051486082 -0.03599793 0.01928587 -0.015121377
-0.024093157 -0.025356544 0.0028559086 -0.00392504 0.021006824 -0.021404214 0.0074223797 0.01967518
0.026676469 0.028610788 0.026129805 0.036911715 -0.0025253638 0.010330624 0.028115356 0.017466363
0.030248733 -0.03663733 -0.035322666 -0.030188864 -0.00092462555 0.011048601 0.007961512 -0.032818742

weight f4 [32]
00000000: 6b98 833f 1878 853f e5c4 7b3f 5d5b 843f
00000010: db28 833f e8b2 7c3f 80dc 813f 2ffa 843f
00000020: 2eb2 7c3f de7b 833f 60b6 813f fb62 833f
00000030: 34c1 843f aa52 853f 7632 833f 9837 783f
00000040: 5903 843f 1006 853f 2377 843f 4715 7c3f
00000050: 5412 843f bfbb 823f d85e 813f 3090 843f
00000060: c887 863f 0d5b 7e3f 897c 823f 818c 853f
00000070: 237e 7e3f d3b9 843f 974b 833f b6cc 853f
1.0280889 1.0427275 0.9834731 1.0340382 1.0246843 0.9871049 1.0145416 1.038885
0.9870938 1.0272176 1.0133781 1.0264581 1.0371461 1.0415852 1.0249774 0.9695983
1.0313522 1.0392475 1.0348858 0.98469967 1.0318093 1.0213546 1.0107069 1.0356503
1.0510187 0.9935768 1.0194255 1.0433503 0.9941122 1.0369209 1.0257443 1.0453098

bias f4 [32]
00000000: 7222 c33c 1c6b debc 95c3 883c 07de 04bc
00000010: a659 e13b 798e 0d3c bf60 143d 7cfa 14bd
00000020: ab04 9cbc fbe2 30bc 4556 abbc e797 e63c
00000030: 68d4 033b 5c73 febb a46b 4abc 4f6d 04bd
00000040: 6545 aabc 6813 36bc 45fe 12bc e503 963c
00000050: 29df 81bc 5a6b 98ba d04b b83c 2863 633c
00000060: 46ac 153b 11fa 18bc fe3b f7bb 3832 90bc
00000070: ac8a 303d c254 ea3c 5454 993c 0969 d3bc
0.023820136 -0.027150683 0.016694823 -0.008109576 0.006877142 0.008639925 0.036225077 -0.036371693
-0.019045195 -0.010796304 -0.02091516 0.028148605 0.0020115618 -0.0077652168 -0.012354765 -0.032330807
-0.020785043 -0.011113025 -0.008971755 0.018312404 -0.015853481 -0.0011628673 0.022497088 0.013878621
0.0022838279 -0.009336964 -0.0075449934 -0.017602071 0.043100998 0.028604869 0.018716969 -0.02580692

weight f4 [32]
00000000: 1d47 7a3f 5e0e 783f 5847 783f f782 773f
00000010: d673 783f 1e71 783f cec3 7d3f f84c 783f
00000020: b248 7a3f 0ef7 773f 3bd4 773f 9f7e 773f
00000030: 6ba2 783f ddff 773f ac34 773f e020 783f
00000040: 6b4d 7a3f d06e 793f 3610 7a3f 22cc 763f
00000050: 62f2 7b3f 98c3 7a3f 8569 7a3f 7635 803f
00000060: a07b 783f 0d2a 783f ff26 7a3f 06a9 773f
00000070: d786 7b3f de70 793f 3f46 7b3f a78d 773f
0.9776476 0.9689692 0.9698386 0.9668421 0.9705175 0.97047603 0.991269 0.96992445
0.97767174 0.9686135 0.96808213 0.96677583 0.9712283 0.9687479 0.96564746 0.96925163
0.9777438 0.9743471 0.97680986 0.9640523 0.9841672 0.979547 0.9781726 1.0016315
0.97063637 0.96939164 0.97715753 0.96742284 0.98252624 0.97437847 0.9815406 0.9670052

bias f4 [32]
00000000: b604 623c 5e2d ab3b df4e 5d3c 2366 623c
00000010: 58ff 20bc 4d2d 363c 1135 3a3a 5d3d 643c
00000020: 977e 853b 0046 073c b747 a73b dda8 513c
00000030: 4798 293c b240 f33b ca46 81bb 0a51 a3b9
00000040: f4b2 da3b 3d43 313c ce5f 2cbc 384c 953b
00000050: 4764 553b 73dd 2f3c 75b7 05bb 4cd5 283c
00000060: e149 8d3c 79ba aabb 059a 133c 80fc 6a3c
00000070: b992 113c 23bb 213c 8456 443c e23b a93b
0.0137950685 0.005223914 0.013507574 0.013818297 -0.009826504 0.011119199 0.00071032444 0.013930646
0.0040739286 0.008256435 0.0051049846 0.012796608 0.010351247 0.0074234838 -0.0039452063 -0.00031150162
0.006674165 0.0108192535 -0.0105208885 0.004556205 0.003256099 0.01073395 -0.0020403538 0.01030476
0.017247142 -0.0052102176 0.009008889 0.014342427 0.008885079 0.009871277 0.011983518 0.0051646093
