pre_trained_models/mosi_aligned_A_TRANSLATOR_1.pt (torch, 148189 bytes, 23 tensors)

multi f4 [1, 32]
-0.38948256 0.11496142 0.28472564 -0.2789708 0.009326325 -0.30014998 -0.1319165 0.20485282
0.10894505 -0.041160554 -0.38963693 -0.33654776 0.11214871 -0.08922828 0.4266087 -0.10101258
-0.012864089 -0.2038398 0.2185784 0.018613428 0.33474216 0.04583913 0.19521604 0.20570418
-0.091988266 0.2528977 -0.30422327 0.28160334 -0.15683554 0.34799382 -0.17819183 -0.032154266
00000000: 426a c7be e570 eb3d 8fc7 913e 43d5 8ebe
00000010: 71cd 183c 42ad 99be 1e15 07be f0c4 513e
00000020: 951e df3d f897 28bd 7e7e c7be fd4f acbe
00000030: 39ae e53d 51bd b6bd 756c da3e afdf cebd
00000040: e6c3 52bc 61bb 50be 04d3 5f3e 307b 983c
00000050: 5363 ab3e d0c1 3b3d b7e6 473e 1ea4 523e
00000060: 5864 bcbd cf7b 813e 27c3 9bbe 502e 903e
00000070: 7f99 20be 3f2c b23e eb77 36be 31b4 03bd

weight f4 [50, 32]
-1.0857903 0.1471295 -0.66657263 1.0158526 1.7545345 -0.24594997 -0.88599116 -2.0057542
-0.11191707 -0.4036727 1.6499037 -0.17289108 -1.7417344 -1.3391302 0.7101899 1.290668
-0.90697914 -0.0005813212 -0.5220426 -0.082313485 -0.8137846 -0.07063703 -0.6385918 0.037984215
1.7157551 -1.6829247 -1.7405772 -0.86345154 0.5621535 0.061061192 0.579956 0.6224856
-0.5444205 1.3673785 0.7147876 -0.0011384818 -1.2094737 0.52488744 0.06781868 0.32887277
-0.52189964 0.6562186 1.202827 -0.7416364 1.056892 -0.4741952 0.04716998 0.07114157
0.08880859 0.5997484 1.4527535 0.066385545 -1.5303066 0.94568926 0.08450338 0.25755942
0.21678658 1.8530642 2.2229567 2.7844524 -1.260879 -0.14034599 0.75193655 -0.4908387
-0.02752772 0.7974687 0.5246706 1.2525903 -0.80573297 -0.2773177 0.058687527 -2.4806478
-0.3361097 1.6532153 -1.6357543 0.37273332 0.5538211 -0.6641659 -0.25907853 -0.40957016
-1.0036948 -1.0931101 -0.0040333783 -0.042268958 -0.44045174 0.20681459 -2.028987 1.3329548
-0.014121357 -0.42640403 0.83906037 -0.86528933 -1.0802107 0.23598808 -0.43474376 -0.81187457
-0.83397907 -2.0299022 0.56686175 0.59610087 -0.5473471 1.1212417 1.143596 0.8228192
-0.29904893 -1.8996184 -0.25778514 -0.46037132 -0.726085 0.16153117 -1.3670973 -0.4582158
-0.43683726 0.7613093 -1.2007519 -0.3873658 0.20676522 0.27213532 0.29525372 -0.3864661
-1.2607689 -1.1824505 0.26248726 -0.16393177 -0.8936207 1.290359 -0.78341174 -1.1478229
-0.2390978 -0.5382463 0.9109908 -1.5094059 1.3935753 -1.6894644 -0.34190562 -0.063123405
-1.6339422 -0.42003474 -1.3487554 -0.6356424 -1.0088742 1.052675 -3.0354466 0.4450718
-1.557423 -1.7328829 -0.79225934 0.49849936 1.1261739 0.009845897 -1.2064811 0.28152817
-0.042174585 -0.9591637 -0.746502 -0.12406841 1.3223338 -1.2747592 2.2515223 0.64322907
0.63973784 -1.5907637 -0.4525988 0.6052294 -0.91282624 -1.3894457 1.0622448 0.7393324
1.5164661 -0.34021774 -0.9680151 0.31521797 1.6536709 0.1810192 -0.8619422 -0.69194484
-2.2025673 0.11627389 -1.0587476 -0.033340927 1.7473809 0.13766135 -0.23667282 0.19490756
1.0955598 -0.9995548 1.1932162 0.44669893 -0.9256427 -2.116922 0.6699799 -0.021180807
1.1505795 -0.8803961 -0.11342357 -1.2621005 0.31136593 1.6371473 0.66555613 -0.5273062
-0.9483822 -0.4510542 -1.8634522 -1.4154644 0.8752334 -0.8966608 -0.07879401 1.5379757
0.77436256 0.25203422 0.65039915 -0.0057347524 -2.3981543 -0.59136254 -0.2502648 -0.393182
-2.5270867 -0.05941494 0.5604159 -0.07084139 -0.45201212 -0.43361688 -1.1056244 -0.34238577
-0.022275686 0.4741835 -0.5687135 -1.5223539 -0.16477098 -0.41798708 -0.7520223 0.046645667
-0.3385609 0.82542616 1.5416783 -0.54629964 0.43802443 0.39849332 -1.5228237 0.92072207
-0.4553053 1.3002206 0.3583646 -0.3720988 0.36990395 1.3310283 0.6924859 0.8325316
-0.5074578 1.6108594 -1.827583 0.063513406 -1.2673116 -0.5715955 0.1876339 -0.51622665
00000000: 2dfb 8abf 1ea9 163e 81a4 2abf 7507 823f
00000010: 9694 e03f 4fda 7bbe 51d0 62bf 475e 00c0
00000020: c734 e5bd 30ae cebe 0b30 d33f 5c0a 31be
00000030: 27f1 debf 9e68 abbf 01cf 353f 9c34 a53f
00000040: c92f 68bf ce63 18ba 95a4 05bf f993 a8bd
00000050: 3054 50bf 26aa 90bd c17a 23bf 5695 1b3d
00000060: dd9d db3f 146a d7bf 3ccb debf 290b 5dbf
00000070: 4be9 0f3f 4d1b 7a3d ff77 143f 375b 1f3f
00000080: 245f 0bbf 4206 af3f 52fc 363f 1c39 95ba
00000090: 09d0 9abf 065f 063f 85e4 8a3d 0362 a83e
000000a0: 379b 05bf f1fd 273f 3cf6 993f e2db 3dbf
000000b0: 3d48 873f b7c9 f2be 4f35 413d acb2 913d
000000c0: 47e1 b53d 1c89 193f d4f3 b93f 25f5 873d
000000d0: 16e1 c3bf b118 723f 1c10 ad3d d4de 833e
000000e0: 4dfd 5d3e 3531 ed3f ec44 0e40 7834 3240
000000f0: 7c64 a1bf dcb6 0fbe ea7e 403f 364f fbbe
00000100: d081 e1bc e926 4c3f d050 063f e154 a03f
00000110: 8444 4ebf 96fc 8dbe 5562 703d efc2 1ec0
00000120: 9216 acbe 8f9c d33f 6660 d1bf e7d6 be3e
00000130: 38c7 0d3f c706 2abf f1a5 84be 2eb3 d1be
00000140: 1279 80bf 08eb 8bbf 6e2a 84bb 3722 2dbd
00000150: e482 e1be 34c7 533e ecda 01c0 439e aa3f
00000160: 445d 67bc a151 dabe a9cc 563f 9a83 5dbf
00000170: 5844 8abf dca6 713e bc96 debe 03d7 4fbf
00000180: a77f 55bf ebe9 01c0 da1d 113f 119a 183f
00000190: f11e 0cbf d984 8f3f 5b61 923f 47a4 523f
000001a0: f11c 99be b226 f3bf 6afc 83be cab5 ebbe
000001b0: b5e0 39bf 6d68 253e 0bfd aebf 439b eabe
000001c0: 22a9 dfbe 2be5 423f 3db2 99bf cf54 c6be
000001d0: 43ba 533e 5255 8b3e 7f2b 973e e2de c5be
000001e0: e060 a1bf 8a5a 97bf bb64 863e bbdd 27be
000001f0: 54c4 64bf 7c2a a53f ac8d 48bf dceb 92bf
00000200: 0ed6 74be 82ca 09bf b136 693f 3634 c1bf
00000210: ad60 b23f 5f40 d8bf 410e afbe d846 81bd
00000220: 0525 d1bf cb0e d7be 04a4 acbf 76b9 22bf
00000230: ca22 81bf 0ebe 863f c244 42c0 73e0 e33e
00000240: a359 c7bf 1bcf ddbf 82d1 4abf 4f3b ff3e
00000250: 7726 903f af50 213c f96d 9abf 7624 903e
00000260: 42bf 2cbd c18b 75bf c11a 3fbf 9417 febd
00000270: 3c42 a93f 4f2b a3bf f118 1040 a9aa 243f
00000280: dcc5 233f 259e cbbf 08bb e7be 50f0 1a3f
00000290: fbae 69bf 5bd9 b1bf a3f7 873f e344 3d3f
000002a0: 901b c23f 0531 aebe d6cf 77bf 4064 a13e
000002b0: 7dab d33f 195d 393e 3ea8 5cbf 4c23 31bf
000002c0: ddf6 0cc0 0121 ee3d 0b85 87bf 7f90 08bd
000002d0: 2daa df3f 19f7 0c3e 5c5a 72be d995 473e
000002e0: 4e3b 8c3f d3e2 7fbf 4fbb 983f b9b5 e43e
000002f0: ecf6 6cbf a67b 07c0 cd83 2b3f 5f83 adbc
00000300: 3046 933f a461 61bf 9e4a e8bd 828c a1bf
00000310: 5b6b 9f3e 0b8e d13f e361 2a3f 8afd 06bf
00000320: 2dc9 72bf 93f0 e6be 9a85 eebf f02d b5bf
00000330: 4c0f 603f 908b 65bf c15e a1bd 63dc c43f
00000340: a03c 463f a10a 813e 8f80 263f 97ea bbbb
00000350: 5c7b 19c0 8963 17bf b522 80be 274f c9be
00000360: cabb 21c0 155d 73bd 6b77 0f3f 4a15 91bd
00000370: 226e e7be 0803 debe 1a85 8dbf 304d afbe
00000380: 807b b6bc 2ec8 f23e 3597 11bf 7edc c2bf
00000390: b9b9 28be 6702 d6be 8984 40bf 870f 3f3d
000003a0: db57 adbe 214f 533f b755 c53f 4bda 0bbf
000003b0: bd44 e03e 5107 cc3e e3eb c2bf 71b4 6b3f
000003c0: c71d e9be a16d a63f 917b b73e bc83 bebe
000003d0: 0d64 bd3e 235f aa3f c246 313f ca20 553f
000003e0: c1e8 01bf a430 ce3f 3dee e9bf 5113 823d
000003f0: 4437 a2bf 1554 12bf 1a23 403e 6e27 04bf

weight f4 [4, 32]
0.084580764 -0.9252446 0.1819418 0.9310301 -0.92815995 0.9720873 0.26950273 -0.7912774
1.2479359 2.3785388 -0.9179212 0.15330896 -0.26385295 -0.023947995 0.2072669 -1.3335191
0.807165 1.852416 -0.62720567 -0.3303104 -1.1386856 -0.4919504 -0.41741496 -0.9798203
0.8162298 1.2061511 -1.062028 -2.4953105 -0.63194275 0.52085483 -0.7151435 0.12254389
0.4913454 -0.35811302 -0.50117856 0.40696207 0.47559693 -1.0285875 -1.1649092 -1.7682573
-0.1325181 -1.5220888 -0.61738753 0.5936375 -0.9984178 -1.5350555 -1.2862121 1.3513412
-1.2269477 -0.4359255 -0.3724065 0.6889805 -0.90548927 -2.1195142 1.3323604 -0.34972093
-0.3403682 -1.5571653 -1.046422 -0.115315236 1.4765519 1.5865477 0.09981448 -1.9539529
0.11218607 0.6688139 0.46502098 -2.0792525 1.1854934 1.1769891 -0.91791224 -1.1302989
0.26300347 0.43520957 -1.1525882 -1.0078585 0.99630505 -0.151977 1.3209808 0.08346865
0.3805457 -0.43977487 -1.9423251 0.20615101 0.67490447 -0.77374977 1.5881174 0.5725978
-0.6495559 -0.67989266 -0.2038647 -0.033901878 0.28170598 0.32172686 -0.3348637 -2.3629556
1.5488163 -0.055899873 0.8177707 1.9179676 -0.66138506 -0.14003775 1.3095789 -0.50970787
-0.5945682 0.24154776 -0.014184303 1.3343077 -0.77207243 -0.4242678 -1.6089728 0.41165957
-2.4538789 0.35832298 -1.2373911 -0.29194573 -1.1723408 0.5290002 0.62590075 -1.300855
0.13376573 0.45200723 1.2734874 0.111149766 1.0273805 0.044245183 0.18198492 -0.247038
00000000: ae38 ad3d d5dc 6cbf f44e 3a3e fd57 6e3f
00000010: e49b 6dbf b7da 783f 43fc 893e 2891 4abf
00000020: 5dbc 9f3f fb39 1840 e2fc 6abf 06fd 1c3e
00000030: bc17 87be 962e c4bc c63d 543e c1b0 aabf
00000040: 5ea2 4e3f f81b ed3f 8d90 20bf 721e a9be
00000050: 73c0 91bf ece0 fbbe 6ab7 d5be 81d5 7abf
00000060: 70f4 503f 2963 9a3f 89f0 87bf 2bb3 1fc0
00000070: 00c7 21bf be56 053f a513 37bf 4af8 fa3d
00000080: a091 fb3e 975a b7be 3d4d 00bf 555d d03e
00000090: 7181 f33e c1a8 83bf bf1b 95bf 4156 e2bf
000000a0: d3b2 07be ced3 c2bf 1c0d 1ebf a1f8 173f
000000b0: 4f98 7fbf b37c c4bf 99a2 a4bf c0f8 ac3f
000000c0: 9f0c 9dbf a131 dfbe 11ac bebe 0761 303f
000000d0: 25ce 67bf 1fa6 07c0 c98a aa3f 9f0e b3be
000000e0: be44 aebe 3151 c7bf 28f1 85bf 652a ecbd
000000f0: a7ff bc3f ff13 cb3f 896b cc3d 211b fabf
00000100: cfc1 e53d 6337 2b3f 3b17 ee3e 7912 05c0
00000110: 3fbe 973f 94a7 963f 4cfc 6abf a2ad 90bf
00000120: 64a8 863e cad3 de3e 0388 93bf 8201 81bf
00000130: d90d 7f3f dc9f 1bbe e615 a93f 9df1 aa3d
00000140: e3d6 c23e 2c2a e1be 1c9e f8bf 4019 533e
00000150: 8ac6 2c3f 7714 46bf 6e47 cb3f c595 123f
00000160: 4c49 26bf 720d 2ebf e8c1 50be b2dc 0abd
00000170: c43b 903e 62b9 a43e 4173 abbe aa3a 17c0
00000180: 9d3f c63f 44f7 64bd 6c59 513f f67f f53f
00000190: 8850 29bf 0e66 0fbe 48a0 a73f 377c 02bf
000001a0: 9f35 18bf 4c58 773e 4765 68bc 98ca aa3f
000001b0: 8aa6 45bf a139 d9be d2f2 cdbf 0bc5 d23e
000001c0: 5a0c 1dc0 1c76 b73e d562 9ebf e979 95be
000001d0: 430f 96bf 8f6c 073f 083b 203f 6b82 a6bf
000001e0: e2f9 083e 7e6d e73e a301 a33f 7da2 e33d
000001f0: 3481 833f 703a 353d 415a 3a3e 88f7 7cbe

in_proj_weight f4 [96, 32]
0.043779083 0.0059845624 -0.19917144 0.17226602 0.07311981 0.068086505 0.076512024 0.025832046
-0.004183749 0.0027833288 0.0801496 0.17215385 -0.14130387 0.031756524 0.042618267 0.23030877
-0.15540214 0.029729486 -0.11557186 -0.044830304 -0.019166319 0.11678556 0.114552855 0.1206519
-0.2112973 -0.13150689 -0.06786837 -0.08631058 -0.16241984 -0.09626662 0.20342477 -0.20027326
0.016863782 0.07650708 0.16985065 0.098860964 -0.2115881 -0.1489583 -0.13546787 -0.21459955
-0.18248023 -0.109294854 0.07307203 0.0021579037 -0.04682657 -0.10677876 0.06644185 0.06127707
0.2258682 0.09364677 0.063799456 -0.112939775 -0.18715805 0.053597424 -0.08477199 -0.17773822
-0.12723763 0.054217074 0.03160916 0.081253536 -0.07299321 0.10656045 0.16777264 -0.10960961
0.08259788 0.05752427 0.12871787 0.1070621 0.21802452 0.05362233 -0.22082794 0.18899427
0.17715332 0.14221318 -0.015628425 0.05935703 -0.12371071 -0.040193636 -0.1001232 -0.05156094
0.11398353 0.09081564 0.16551548 0.13395852 0.1255897 0.05555387 -0.06958643 0.14900763
-0.055688795 -0.23458882 0.0031909095 -0.1851546 -0.18888053 0.085935324 -0.18480954 0.08818921
0.17266294 0.023146803 -0.20846969 0.06567448 0.21376675 -0.12840158 0.0473524 -0.043033242
-0.030282427 0.1931163 0.023026058 -0.17574897 -0.179462 -0.030640256 -0.029606596 -0.21088545
0.10857528 0.12447281 0.0045490274 0.09701374 0.06013844 0.04455263 0.18681037 -0.1871641
0.049953613 0.1796736 -0.18399823 0.049527396 0.109973416 -0.016857216 -0.02045166 -0.06756401
0.10637938 0.14882438 -0.010628658 0.07277753 -0.14127435 0.09726241 0.0028551004 -0.17518342
0.22805312 0.066557676 0.12371541 0.1374998 -0.14614603 0.12858607 -0.14772858 0.10496282
-0.07224564 -0.058749806 -0.1177676 -0.1722397 -0.18067634 -0.1832844 0.09099397 0.0541193
0.020490615 0.028454235 0.097762704 -0.13828248 0.06578553 -0.14847346 0.19373836 -0.017999161
-0.024993034 -0.049472235 -0.04248699 0.0051749237 -0.15320088 -0.20776811 0.078509085 0.09332642
-0.16225673 -0.011610566 0.12794612 0.19575071 -0.08081771 -0.1880153 -0.090296015 -0.10481819
0.21403094 -0.046476886 0.1964552 0.05038118 0.08642812 -0.15783696 0.06855277 -0.037252944
0.13402897 0.07560959 0.16378503 0.030242227 0.1732164 0.12716654 0.15600559 0.018994767
0.005785749 0.04794856 -0.09436415 0.16525193 0.05129199 -0.14317939 -0.20329328 0.15010624
-0.09517556 -0.05091023 0.19865946 -0.1566361 -0.06204152 0.19958399 0.13960467 0.122213416
0.11046933 -0.018673854 0.038165376 0.124054156 -0.09226319 0.18750806 -0.050589744 -0.17607728
-0.097454555 -0.024758268 0.14726782 -0.04285277 -0.19181463 -0.21298352 0.19691093 -0.016041538
0.12588182 -0.100016356 0.06094311 0.11914034 -0.015121051 0.10744043 0.16037385 0.051422182
-0.09668717 -0.2260493 -0.011291548 0.17238447 0.19291086 -0.104112566 0.09228314 0.09920511
-0.011175029 0.003563881 0.17578408 0.22887628 -0.08444484 0.1456231 0.0985378 0.030371577
-0.12586813 0.18805517 0.21460687 0.07875676 -0.18489322 -0.067151256 0.10150574 0.1009927
00000000: b251 333d 261a c43b 99f3 4bbe 8166 303e
00000010: d7bf 953d f070 8b3d 56b2 9c3d ba9d d33c
00000020: d517 89bb 8268 363b 7925 a43d 1949 303e
00000030: f6b1 10be 2113 023d 7e90 2e3d 10d6 6b3e
00000040: bd21 1fbe 408b f33c f0b0 ecbd fb9f 37bd
00000050: af02 9dbc 452d ef3d b09a ea3d 5818 f73d
00000060: 525e 58be bea9 06be 92fe 8abd 9ac3 b0bd
00000070: 6351 26be 6f27 c5bd 954e 503e 6f14 4dbe
00000080: ea25 8a3c beaf 9c3d 54ed 2d3e 9e77 ca3d
00000090: 8daa 58be 8688 18be 17b8 0abe fcbf 5bbe
000000a0: 19dc 3abe fbd5 dfbd caa6 953d 9e6b 0d3b
000000b0: 38cd 3fbd d3ae dabd aa12 883d aafd 7a3d
000000c0: fe49 673e e1c9 bf3d 4aa9 823d f84c e7bd
000000d0: 5ca6 3fbe f988 5b3d f09c adbd 0201 36be
000000e0: 954a 02be b912 5e3d 9b78 013d 4168 a63d
000000f0: 777d 95bd 5d3c da3d 97cc 2b3e 017b e0bd
00000100: 1429 a93d 929e 6b3d 9ece 033e 6043 db3d
00000110: d241 5f3e 17a3 5b3d b820 62be b787 413e
00000120: ae67 353e 55a0 113e 2f07 80bc 5b20 733d
00000130: 0a5c fdbd 15a2 24bd 640d cdbd 9031 53bd
00000140: 3270 e93d 8dfd b93d e47c 293e 6c2c 093e
00000150: 969a 003e 748c 633d 5583 8ebd 7595 183e
00000160: ef19 64bd 0d38 70be 941e 513b 2b99 3dbe
00000170: e669 41be dcfe af3d b63e 3dbe 8b9c b43d
00000180: 8ece 303e 5d9e bd3c 1479 55be 5780 863d
00000190: ace5 5a3e b47b 03be 97f4 413d a043 30bd
000001a0: da12 f8bc 48c0 453e 25a1 bc3c 8af7 33be
000001b0: e3c4 37be 4601 fbbc 8889 f2bc 5bf2 57be
000001c0: b75c de3d 9aeb fe3d 0210 953b 24af c63d
000001d0: ba53 763d d27c 363d 384b 3f3e f2a7 3fbe
000001e0: 299c 4c3d 5bfc 373e 086a 3cbe 3ddd 4a3d
000001f0: be39 e13d 2518 8abc 3d8a a7bc 005f 8abd
00000200: 6fdd d93d 6b65 183e d323 2ebc 630c 953d
00000210: 39aa 10be 8431 c73d a31c 3b3b 4863 33be
00000220: c286 693e 644f 883d 815e fd3d bfcc 0c3e
00000230: 4ea7 15be 11ac 033e 2946 17be bff6 d63d
00000240: 86f5 93bd a3a3 70bd 2430 f1bd 9b5f 30be
00000250: 3803 39be e8ae 3bbe 0c5b ba3d 33ac 5d3d
00000260: efdb a73c db18 e93c d037 c83d ec99 0dbe
00000270: 90ba 863d 6d09 18be 5963 463e fa72 93bc
00000280: 31be ccbc 66a3 4abd d706 2ebd 6892 a93b
00000290: b1e0 1cbe 2ac1 54be 5fc9 a03d ec21 bf3d
000002a0: a126 26be 3e3a 3ebc 4f04 033e e072 483e
000002b0: c183 a5bd 1587 40be 1eed b8bd ebaa d6bd
000002c0: ed2a 5b3e 8c5e 3ebd 8d2b 493e 7f5c 4e3d
000002d0: 3a01 b13d 03a0 21be 6565 8c3d 8b96 18bd
000002e0: e43e 093e 33d9 9a3d 43b7 273e 8cbe f73c
000002f0: a45f 313e f237 023e eebf 1f3e ea9a 9b3c
00000300: 6196 bd3b b665 443d fe41 c1bd cd37 293e
00000310: 8d17 523d 9e9d 12be 1d2c 50be 73b5 193e
00000320: 67eb c2bd 3f87 50bd 636d 4b3e 3765 20be
00000330: 401f 7ebd bf5f 4c3e 87f4 0e3e 074b fa3d
00000340: be3d e23d e9f9 98bc 4c53 1c3d 1b10 fe3d
00000350: 7cf4 bcbd 1d02 403e 3137 4fbd 9a4d 34be
00000360: 4196 c7bd dad1 cabc 60cd 163e 6386 2fbd
00000370: 0e6b 44be 5a18 5abe 05a3 493e 8b69 83bc
00000380: 2ae7 003e 60d5 ccbd 7c9f 793d daff f33d
00000390: 49be 77bc ba09 dc3d 0b39 243e 11a0 523d
000003a0: ec03 c6bd 7879 67be 2f00 39bc 8e85 303e
000003b0: 6d8a 453e f838 d5bd f1fe bc3d 0c2c cb3d
000003c0: 7817 37bc 0090 693b be00 343e 8b5e 6a3e
000003d0: 6bf1 acbd 391e 153e 30ce c93d d0cd f83c
000003e0: 93e3 00be 8991 403e e7c1 5b3e 394b a13d
000003f0: a654 3dbe 9986 89bd 3ee2 cf3d 43d5 ce3d

in_proj_bias f4 [96]
-0.021035176 0.018577693 -0.01900565 0.021220231 0.017835928 -0.009457787 -0.016348297 -0.019380324
0.01375449 -0.012175343 0.018840915 -0.019397508 -0.009835643 -0.0050693834 0.018260404 0.009013171
-0.018911663 -0.019909171 0.006692728 -0.01106394 0.016016005 0.0013178126 -0.0013237204 -0.008853745
0.020453114 -0.018639918 -0.01929936 -0.018657126 -0.018983629 -0.021001704 0.019217996 0.01238557
-2.7908166e-07 3.088605e-07 -3.2240093e-06 -1.358998e-06 -9.317773e-08 4.048775e-07 1.5092996e-06 -9.3326923e-07
2.651029e-06 -1.0340947e-06 2.9208826e-08 1.6607684e-06 -1.7987209e-07 3.2467037e-07 -6.609281e-07 -1.7925429e-06
1.298854e-06 -4.186838e-06 7.082901e-07 5.1313066e-07 2.4327608e-06 -2.5373947e-07 1.8615343e-06 -1.4082295e-06
-4.1786132e-07 -1.3045268e-06 3.320388e-06 1.1045107e-06 -1.5714114e-06 -5.1299054e-07 -1.7073596e-06 -1.1099269e-06
0.00607763 0.020850774 0.01889834 0.021176342 0.019507367 0.012886615 0.020362101 -0.01693553
-0.021366453 0.015715504 -0.011445281 0.0063566114 -0.021301035 -0.0026323544 -0.0015712094 0.017576316
-0.010408953 -0.01997215 -0.006744217 -0.017262103 -0.016370665 0.01728212 -0.0045058746 -0.0034724732
-0.019552736 -0.0061753877 -0.003020715 0.00733798 0.018784534 -0.021177098 0.021038027 -0.020609912
00000000: f651 acbc 3f30 983c bdb1 9bbc 0dd6 ad3c
00000010: a71c 923c d5f4 1abc ddec 85bc 7cc3 9ebc
00000020: 835a 613c 177b 47bc 4358 9a3c 86e7 9ebc
00000030: ad25 21bc 121d a6bb d896 953c fbab 133c
00000040: a2ec 9abc 8f18 a3bc ac4e db3b 8745 35bc
00000050: ff33 833c 74ba ac3a b080 adba 4c0f 11bc
00000060: 4a8d a73c beb2 98bc b119 9ebc d4d6 98bc
00000070: 8e83 9bbc c40b acbc 0f6f 9d3c d9ec 4a3c
00000080: b1d4 95b4 77d1 a534 0f5c 58b6 d166 b6b5
00000090: 0019 c8b3 f15d d934 2493 ca35 c685 7ab5
000000a0: 55e8 3136 39cb 8ab5 e3e6 fa32 91e7 de35
000000b0: dd22 41b4 5b4e ae34 a26a 31b5 4e97 f0b5
000000c0: 4954 ae35 aa7c 8cb6 5321 3e35 12be 0935
000000d0: 8342 2336 b039 88b4 d5d9 f935 6602 bdb5
000000e0: 6c56 e0b4 3317 afb5 d5d3 5e36 b33e 9435
000000f0: 49e9 d2b5 71b4 09b5 6e28 e5b5 ccf8 94b5
00000100: db26 c73b 3ecf aa3c b1d0 9a3c 027a ad3c
00000110: eacd 9f3c 6122 533c 6cce a63c 61bc 8abc
00000120: b308 afbc cdbd 803c fd84 3bbc 1f4b d03b
00000130: 827f aebc 9483 2cbb 0af1 cdba 35fc 8f3c
00000140: 508a 2abc a29c a3bc 98fe dcbb 4169 8dbc
00000150: c61b 86bc 3c93 8d3c 04a6 93bb 6f92 63bb
00000160: 0f2d a0bc e85a cabb 30f7 45bb 7073 f03b
00000170: 06e2 993c 987b adbc f157 ac3c 1ed6 a8bc

weight f4 [32, 32]
-0.2869462 0.17341445 0.016718736 -0.10361362 -0.28846386 0.1624383 -0.24101926 -0.15546
0.07688668 0.014942654 0.0008272464 0.23652825 0.080572486 0.17248607 -0.10731857 -0.13833939
0.16130047 0.056405086 -0.05983206 0.09273475 0.19331141 -0.11591636 0.107854895 0.0666042
0.056044232 -0.22861175 0.22066195 -0.040846884 0.1933394 -0.043021627 -0.06892699 0.24381895
-0.31322798 0.1641549 -0.20229541 0.09385908 -0.25855416 -0.045866404 -0.12310759 0.24304704
-0.08548204 -0.12948161 -0.24373358 0.17591119 0.2519941 0.2119421 -0.07346271 -0.1825583
-0.08322538 0.17809434 0.22668213 -0.27652827 0.23706584 -0.15079752 0.17998683 0.11213549
0.07321392 -0.120998725 0.19665374 0.18318947 -0.27961394 0.055928167 -0.084108554 -0.18730949
-0.22416131 0.27189755 0.07713046 -0.2382097 -0.19840093 0.09232098 0.0639332 0.07780202
0.12517521 -0.09035076 0.23489012 -0.0017875043 0.15173803 0.2116677 0.24757424 -0.06546274
0.27025267 -0.08096805 0.3142252 -0.02550575 0.053549595 0.2272559 -0.06439531 -0.087369576
0.22430377 0.16504985 -0.08201713 -0.21900626 0.020635258 -0.30882943 -0.133922 -0.21366723
-0.07308261 -0.08363357 0.28115502 -0.19586058 -0.047286525 0.029336778 -0.09201923 -0.16167219
-0.026129704 -0.27367845 0.04497963 -0.26155177 -0.16617128 0.26271778 -0.124943525 0.013241124
-0.14181133 -0.28168643 0.23184219 -0.219904 -0.1418995 -0.24855882 -0.20292838 -0.179892
-0.17182961 -0.279375 -0.21731257 0.0034996476 -0.12373836 0.11499599 -0.15793255 -0.28943864
-0.07503173 -0.2934654 -0.31931803 0.15994123 0.17356752 0.014816703 -0.12068462 -0.24985074
-0.1344751 0.25383 0.19684342 0.3163043 -0.20858356 0.30776298 -0.06991512 0.11059331
0.27224797 0.3060429 0.026265983 -0.10714733 0.20841022 0.1352327 0.30971137 -0.23035686
0.016574422 -0.07785709 -0.036300205 0.13798648 0.1206354 0.16814047 -0.16100793 -0.07389201
-0.05524695 0.2790884 0.27292696 0.032070193 0.1522364 -0.033884887 0.1401336 0.2549859
-0.08521656 -0.17681366 -0.22113483 -0.09730631 -0.31178048 0.24848717 -0.06390045 0.14237559
-0.185329 0.19301309 -0.15100813 -0.24047484 -0.14041539 -0.06994387 -0.24832493 0.119094014
-0.007808743 0.00309784 -0.03784082 -0.1083829 0.14987555 -0.12677561 -0.15993978 0.14371346
0.10299227 0.044487096 0.1384558 0.23685072 -0.25344178 0.28283185 -0.15983135 0.11871307
-0.17689118 0.11703587 0.24335843 -0.2821105 0.036609598 -0.1404915 -0.26042402 -0.09299146
-0.08124632 -0.19133975 -0.15545149 -0.07790137 -0.007245728 -0.07429901 -0.14171755 -0.22651199
0.01910158 0.07883261 0.3010216 -0.15019643 0.15786785 -0.18464361 0.30494878 -0.17761317
-0.08483702 -0.11581628 0.17321031 0.063506015 -0.09595656 -0.25707468 -0.07552699 -0.14145873
-0.13934682 0.23415127 0.24525912 0.21363029 0.32137626 -0.15516046 0.19115996 0.28695813
-0.040746283 0.25372928 -0.29030576 -0.18992323 0.1695017 -0.1800025 -0.012617439 0.051943116
0.16399863 0.029975496 -0.0048572947 0.27933508 -0.14323051 0.21182531 -0.20939787 0.2462842
00000000: 9dea 92be 8f93 313e bbf5 883c 6133 d4bd
00000010: 89b1 93be 3a56 263e c1cd 76be e830 1fbe
00000020: c476 9d3d 09d2 743c 91db 583a 7634 723e
00000030: 3003 a53d 30a0 303e d7c9 dbbd d7a8 0dbe
00000040: f32b 253e 0509 673d 7612 75bd b7eb bd3d
00000050: 6df3 453e 8e65 edbd 07e3 dc3d c867 883d
00000060: a38e 653d 3319 6abe 35f5 613e 104f 27bd
00000070: c4fa 453e 7237 30bd 9829 8dbd adab 793e
00000080: 6b5f a0be 3918 283e 8726 4fbe 3039 c03d
00000090: 3661 84be 69de 3bbd d51f fcbd 53e1 783e
000000a0: 3511 afbd d496 04be 4c95 79be 1022 343e
000000b0: 5f05 813e 5a07 593e 9e73 96bd 90f0 3abe
000000c0: 1172 aabd 5d5e 363e 5c1f 683e 1d95 8dbe
000000d0: 63c1 723e aa6a 1abe 784e 383e 4ba7 e53d
000000e0: 2ef1 953d 2ece f7bd 995f 493e 0596 3b3e
000000f0: 8f29 8fbe ef14 653d 1b41 acbd 0fce 3fbe
00000100: 8b8a 65be 2836 8b3e 93f6 9d3d 3eed 73be
00000110: 9d29 4bbe c812 bd3d 69ef 823d aa56 9f3d
00000120: ee2d 003e d209 b9bd 0987 703e b14a eaba
00000130: 3761 1b3e 6bbf 583e 1a84 7d3e 5411 86bd
00000140: 8f5e 8a3e 94d2 a5bd 20e2 a03e 6ff1 d0bc
00000150: d256 5b3d c5b5 683e b0e1 83bd d2ee b2bd
00000160: e3af 653e d402 293e 99f8 a7bd 2d43 60be
00000170: 460b a93c e41e 9ebe d922 09be 95cb 5abe
00000180: 56ac 95bd 1448 abbd 8df3 8f3e ad8f 48be
00000190: 84af 41bd af53 f03c 9474 bcbd 658d 25be
000001a0: f60d d6bc 951f 8cbe 8f3c 383d 1dea 85be
000001b0: ce28 2abe f282 863e 64e2 ffbd 4df1 583c
000001c0: fd36 11be 3439 90be 0a68 6d3e 842e 61be
000001d0: 1a4e 11be 3486 7ebe 75cc 4fbe 9c35 38be
000001e0: 1af4 2fbe 3d0a 8fbe 3087 5ebe 585a 653b
000001f0: 8a6a fdbd 0583 eb3d 12b9 21be 4d31 94be
00000200: 3caa 99bd 1941 96be a77d a3be a2c7 233e
00000210: afbb 313e c2c1 723c 8029 f7bd dfd8 7fbe
00000220: d7b3 09be 01f6 813e 5291 493e a3f2 a13e
00000230: ee96 55be 1c93 9d3e a92f 8fbd bf7e e23d
00000240: 1664 8b3e a8b1 9c3e c22b d73c 0f70 dbbd
00000250: 7d69 553e 717a 0a3e 7d92 9e3e abe2 6bbe
00000260: 15c7 873c 8a73 9fbd 86af 14bd 544c 0d3e
00000270: b10f f73d 042d 2c3e 43df 24be b254 97bd
00000280: a04a 62bd ade4 8e3e 15bd 8b3e 095c 033d
00000290: dce3 1b3e e1ca 0abd 2f7f 0f3e 838d 823e
000002a0: 0586 aebd a40e 35be 2b71 62be 8848 c7bd
000002b0: b1a1 9fbe 6c73 7e3e 3dde 82bd e8ca 113e
000002c0: e3c6 3dbe 39a5 453e e0a1 1abe 093f 76be
000002d0: 0dc9 0fbe bb3e 8fbd e448 7ebe 90e7 f33d
000002e0: 7ce0 ffbb 2105 4b3b fafe 1abd dbf7 ddbd
000002f0: fa78 193e 77d1 01be 41c7 23be 9f29 133e
00000300: 9ced d23d 1a38 363d 5bc7 0d3e ff88 723e
00000310: 1fc3 81be 56cf 903e d4aa 23be d71f f33d
00000320: f622 35be 81b0 ef3d f432 793e ca70 90be
00000330: f2f3 153d 01dd 0fbe 4c56 85be 4e72 bebd
00000340: 7864 a6bd 91ee 43be ad2e 1fbe c18a 9fbd
00000350: 926d edbb 142a 98bd 681e 11be c2f2 67be
00000360: eb7a 9c3c fe72 a13d 811f 9a3e 18cd 19be
00000370: 1ca8 213e 3713 3dbe 3f22 9c3e 3ae0 35be
00000380: 08bf adbd 1631 edbd 0b5e 313e 710f 823d
00000390: df84 c4bd 4b9f 83be e5ad 9abd 8fda 10be
000003a0: efb0 0ebe 5ac5 6f3e 3525 7b3e e6c1 5a3e
000003b0: 6e8b a43e 62e2 1ebe 70bf 433e 2dec 923e
000003c0: 93e5 26bd cee8 813e f5a2 94be 3c7b 42be
000003d0: db91 2d3e 9352 38be 60b9 4ebc 4ec2 543d
000003e0: 42ef 273e 2c8f f53c f129 9fbb 0205 8f3e
000003f0: 05ab 12be bce8 583e 656c 56be ed31 7c3e

bias f4 [32]
-0.018788882 -0.020437462 0.011975918 0.011653298 0.021127254 0.020728892 0.009560233 -0.017650623
0.020432483 0.010384248 -0.021246063 -0.017535845 0.015302712 -0.017945388 0.0011593981 -0.008428783
-0.013140896 0.019227704 -0.020640686 0.017892392 -0.01861821 -0.0068495357 -0.020139443 0.008970645
0.019257665 -0.008445971 0.008063855 -0.0039390298 0.018127995 0.018692985 0.00528505 0.013936351
00000000: 24eb 99bc 776c a7bc a436 443c 79ed 3e3c
00000010: 1013 ad3c a3cf a93c 86a2 1c3c 0a98 90bc
00000020: 0662 a73c b122 2a3c 390c aebc 55a7 8fbc
00000030: 3ab8 7a3c 3502 93bc f2f6 973a e118 0abc
00000040: ea4c 57bc 6b83 9d3c a816 a9bc 1193 923c
00000050: 3785 98bc 1272 e0bb 79fb a4bc 9df9 123c
00000060: 40c2 9d3c f860 0abc 421e 043c fa12 81bb
00000070: 2981 943c 0822 993c 362e ad3b 4b55 643c

weight f4 [128, 32]
-0.011289955 0.050145194 -0.10388947 0.09593648 0.107947156 0.06214181 0.03637523 -0.07472867
-0.1067981 0.12834868 -0.1647757 -0.15983275 -0.06349216 -0.18770507 0.08695237 -0.06241499
-0.03156358 0.15288696 -0.1903099 0.09703565 0.014349214 0.056382466 0.116334856 -0.105673365
-0.1293648 -0.12637112 -0.16825381 0.1357341 -0.07662861 -0.048522644 -0.08973311 -0.07113536
-0.12607804 -0.09867294 0.11355439 0.082622245 -0.06200211 0.06641323 0.045934387 0.07541764
0.16184333 0.10402685 -0.043179996 -0.14835423 0.15688924 -0.18525584 -0.16811654 -0.07574674
-0.13667576 -0.059118927 -0.11261099 0.1519397 -0.13241589 0.09619583 0.07973878 0.127914
-0.1150605 0.027314086 0.053509057 -0.054245442 -0.042225342 -0.19467214 0.16429836 -0.1609043
0.16837421 -0.024705144 0.12912084 -0.06759407 0.20215565 0.07802526 0.060381174 -0.0011609341
0.10271834 0.027270619 -0.14880832 0.1692113 -0.047317553 0.027764332 -0.11355058 -0.027579911
-0.09693337 0.13859406 -0.1788809 0.11601791 -0.14949477 -0.07900902 -0.12540467 0.05079504
0.12053465 0.11106967 -0.046030723 -0.060048915 -0.16482143 -0.17740113 -0.15443043 -0.1246719
-0.18722725 -0.09356274 0.16203956 -0.1557889 -0.1427562 0.15111071 0.105325565 -0.13509841
0.10214703 0.0045945947 0.010185769 0.11290139 -0.0047352435 -0.14238732 0.11971517 -0.17092289
-0.0012234804 0.12754245 -0.026447836 -0.06028432 0.0023729648 -0.1224752 0.0026181696 -0.17062154
-0.10168912 -0.074365035 -0.1283223 0.193866 0.17228402 0.079060875 0.04705269 -0.10459069
-0.18582831 -0.04402974 -0.13101986 0.19320035 0.17613126 0.118361846 0.165543 0.0901816
-0.083613075 -0.034626223 0.111824065 0.056401197 0.06677302 -0.17631428 -0.083878644 -0.06376696
-0.17088906 0.036466584 0.046229936 0.15614836 -0.018466286 0.118150346 -0.07191762 -0.11015946
0.16476417 0.017487353 0.15056813 -0.18773755 -0.07576324 0.11949471 0.0032914863 -0.12120297
0.14772944 0.038115256 -0.022475457 0.00874127 0.047703873 -0.017590992 -0.13068303 0.020998511
-0.1938858 -0.09685674 -0.08044269 0.18903227 0.04016611 0.12941986 0.14522225 0.16544735
-0.16964197 0.040612534 0.13459443 0.07493674 0.10417496 -0.096696794 0.004955947 0.011610632
0.06624718 0.024463957 -0.0039340355 0.008636786 0.08350116 -0.17890128 0.05393957 0.16297589
0.0072829304 -0.07897972 -0.09302648 -0.03209641 0.18853796 0.095598444 -0.0035343673 0.010228806
-0.12910578 0.08983829 0.19523197 -0.17787261 0.059691075 0.12153971 -0.07933004 -0.07541961
0.017177077 -0.123664476 -0.11233462 0.16803499 0.13035974 0.06935548 0.14876536 0.15045834
0.059216876 -0.109066196 -0.13621631 -0.041628767 0.14204727 -0.15254837 -0.14034459 0.015297837
0.06831493 0.10184448 -0.0027265376 0.058458496 -0.11422828 0.0614138 -0.07828452 -0.1095413
-0.17474715 -0.12836823 0.110054836 0.10383375 0.008736316 -0.015583504 0.037155487 -0.16773126
0.19649786 -0.16092806 -0.091227025 -0.106208034 0.08926878 0.022467654 -0.08922247 -0.15204896
0.06239917 -0.16577405 0.10997848 0.17383891 0.18943687 0.20523527 0.008163623 0.07173142
00000000: 81f9 38bc 0c65 4d3d 01c4 d4bd 587a c43d
00000010: 6613 dd3d 6988 7e3d 31fe 143d 580b 99bd
00000020: f6b8 dabd d66d 033e f6ba 28be 32ab 23be
00000030: 2d08 82bd c235 40be 1614 b23d dca6 7fbd
00000040: d048 01bd 668e 1c3e 99e0 42be a0ba c63d
00000050: f718 6b3c 4df1 663d f840 ee3d 476b d8bd
00000060: 3578 04be 6e67 01be ba4a 2cbe e1fd 0a3e
00000070: 76ef 9cbd aebf 46bd fec5 b7bd 6aaf 91bd
00000080: 9a1a 01be 0a15 cabd 348f e83d da35 a93d
00000090: edf5 7dbd a903 883d b225 3c3d 9074 9a3d
000000a0: 42ba 253e 070c d53d 82dd 30bd 2cea 17be
000000b0: 93a7 203e b5b3 3dbe be26 2cbe 1b21 9bbd
000000c0: bbf4 0bbe b026 72bd 97a0 e6bd 1596 1b3e
000000d0: 0898 07be 5202 c53d 164e a33d e3fb 023e
000000e0: d7a4 ebbd cac1 df3c 502c 5b3d 7830 5ebd
000000f0: 7bf4 2cbd 2258 47be d43d 283e 19c4 24be
00000100: 4a6a 2c3e 7162 cabc 4138 043e c36e 8abd
00000110: e401 4f3e b5cb 9f3d 4052 773d 7c2a 98ba
00000120: fe5d d23d a266 df3c 3561 18be ba45 2d3e
00000130: 0dd0 41bd 0672 e33c 358d e8bd 44ef e1bc
00000140: 0185 c6bd 9aeb 0d3e 8e2c 37be cc9a ed3d
00000150: 2815 19be 7bcf a1bd 156a 00be 760e 503d
00000160: dfda f63d 7f78 e33d b68a 3cbd daf5 75bd
00000170: f3c6 28be a4a8 35be 0323 1ebe fb53 ffbd
00000180: 80b8 3fbe d29d bfbd b3ed 253e 2087 1fbe
00000190: ae2e 12be c4bc 1a3e eeb4 d73d 3d57 0abe
000001a0: 7632 d13d 418e 963b 36e2 263c d838 e73d
000001b0: 1a2a 9bbb fbcd 11be 3a2d f53d 6906 2fbe
000001c0: 315d a0ba 7d9a 023e 22a9 d8bc b1ec 76bd
000001d0: be83 1b3b 47d4 fabd 9995 2b3b 6ab7 2ebe
000001e0: 6342 d0bd b24c 98bd ec66 03be cf84 463e
000001f0: 396b 303e abea a13d 52ba 403d a533 d6bd
00000200: c749 3ebe 8758 34bd 122a 06be 50d6 453e
00000210: c15b 343e b267 f23d 1b84 293e 21b1 b83d
00000220: 553d abbd 3ad4 0dbd 0404 e53d f104 673d
00000230: 4bc0 883d bb8b 34be 91c8 abbd 4098 82bd
00000240: 8bfd 2ebe fc5d 153d 9a5b 3d3d 5be5 1f3e
00000250: 9c46 97bc cff8 f13d 8c49 93bd 489b e1bd
00000260: f0b7 283e a341 8f3c 882e 1a3e 463e 40be
00000270: c229 9bbd a4b9 f43d fab5 573b 4339 f8bd
00000280: 6346 173e be1e 1c3d 731e b8bc 8b37 0f3c
00000290: 2365 433d fc1a 90bc c6d1 05be 1205 ac3c
000002a0: 008a 46be d45c c6bd 23bf a4bd ad91 413e
000002b0: 3885 243d a486 043e 24b5 143e 086b 293e
000002c0: a0b6 2dbe 5459 263d 1fd3 093e 6f78 993d
000002d0: ae59 d53d f808 c6bd 7f65 a23b 853a 3e3c
000002e0: 9aac 873d a368 c83c 15e9 80bb 4e81 0d3c
000002f0: a802 ab3d e631 37be bdef 5c3d 27e3 263e
00000300: a6a5 ee3b 1fc0 a1bd ab84 bebd 8677 03bd
00000310: 1810 413e 1ec9 c33d d8a0 67bb b996 273c
00000320: 4e34 04be 23fd b73d e4ea 473e 3d24 36be
00000330: a17e 743d d0e9 f83d ca77 a2bd 9975 9abd
00000340: f1b6 8c3c cd43 fdbd b10f e6bd 5d11 2c3e
00000350: 067d 053e 3f0a 8e3d f255 183e c011 1a3e
00000360: 658d 723d 195e dfbd 4a7c 0bbe ed82 2abd
00000370: d774 113e a435 1cbe 7eb6 0fbe c7a3 7a3c
00000380: b3e8 8b3d d793 d03d b6af 32bb 2d72 6f3d
00000390: 84f0 e9bd 098d 7b3d a253 a0bd 3057 e0bd
000003a0: ebf0 32be f672 03be 6e64 e13d caa6 d43d
000003b0: c422 0f3c f451 7fbc 5a30 183d bec1 2bbe
000003c0: bc36 493e 53ca 24be 3cd5 babd 9983 d9bd
000003d0: 8dd2 b63d 160e b83c 45ba b6bd b9b2 1bbe
000003e0: 4696 7f3d acc0 29be 663c e13d d402 323e
000003f0: bdfb 413e 3229 523e b7c0 053c ece7 923d

bias f4 [128]
0.021362249 -0.010072881 -0.0012659195 -0.009337966 0.021390596 -0.014571383 -0.0073579107 0.019784575
-0.017077735 -0.016882613 0.011739649 0.022197673 -0.0013106412 -0.0020316523 0.0015104588 0.01824813
-0.019449951 0.018919732 0.02078627 0.019873707 -0.0142545765 0.021509869 0.012366801 -0.017914396
0.017645353 0.013202818 0.021272251 -0.0019261787 0.020576855 0.012889898 -0.0012632384 0.0188132
-0.018880514 0.0053954893 -0.01814566 0.021269154 0.005923484 -0.017470866 -0.018754698 -0.020640044
-0.014916815 -0.009521451 -0.0074584694 0.021314682 0.014858243 0.01983685 0.009003198 -0.0022100436
-0.018240253 -0.018654019 0.016710434 0.011298891 -0.008710128 0.019616427 0.0072578914 0.012743212
0.018492358 -0.017783236 -0.0060054613 -0.0064732726 0.017068015 -0.014928854 0.021251198 0.02202643
0.0125589855 -0.007464475 -0.00668922 0.010996301 -0.001561595 -0.012706501 0.020590322 -0.0008444311
0.01704225 0.021607496 -0.013447185 0.021230707 -0.00085143873 0.013752199 0.017326172 0.018953614
0.019331606 -0.012922424 -0.0021325701 0.019919677 -0.0118736075 -0.012380805 0.016547007 0.0023517986
0.021546237 0.018192058 0.020345984 0.020816071 0.021585051 -0.01662051 0.021969788 -0.014641747
0.015433262 -0.012962868 0.010394698 0.021539116 -0.017293109 -0.017444117 -0.013218826 0.020403408
-0.014744785 -0.015604576 -0.020333603 0.02209846 0.019391041 -0.010933635 -0.009892016 0.014644315
-0.013921967 0.021605453 0.021176333 0.008461064 -0.00827095 0.02165261 0.020000959 -0.018518945
-0.011653704 -0.017815601 -0.0058204886 0.021593528 -0.009318631 -0.00038757877 0.014158125 -0.018679433
00000000: e2ff ae3c ba08 25bc 36ed a5ba 45fe 18bc
00000010: 553b af3c cfbc 6ebc a11a f1bb 4313 a23c
00000020: 9be6 8bbc 684d 8abc a857 403c e5d7 b53c
00000030: d2c9 abba 7825 05bb 96fa c53a 1a7d 953c
00000040: 8155 9fbc 8efd 9a3c f847 aa3c 2fce a23c
00000050: 078c 69bc 7735 b03c 1f9e 4a3c 36c1 92bc
00000060: fd8c 903c a250 583c 2543 ae3c d577 fcba
00000070: cb90 a83c 2730 533c 3f93 a5ba 241e 9a3c
00000080: 4fab 9abc a5cc b03b 35a6 94bc a63c ae3c
00000090: c919 c23b 101f 8fbc 74a3 99bc 4f15 a9bc
000000a0: a865 74bc dcff 1bbc 2d66 f4bb 219c ae3c
000000b0: fd6f 733c e480 a23c 2682 133c 61d6 10bb
000000c0: 956c 95bc 50d0 98bc 52e4 883c fc1e 393c
000000d0: edb4 0ebc a1b2 a03c 9bd3 ed3b e8c8 503c
000000e0: 497d 973c 26ae 91bc 76c9 c4bb bf1d d4bb
000000f0: 39d2 8b3c 2798 74bc fe16 ae3c c670 b43c
00000100: 34c4 4d3c 8e98 f4bb 3f31 dbbb d429 343c
00000110: 6fae ccba ee2e 50bc 09ad a83c d05c 5dba
00000120: 309c 8b3c 3402 b13c 9551 5cbc 05ec ad3c
00000130: 1633 5fba e750 613c 9eef 8d3c 9c44 9b3c
00000140: 515d 9e3c 93b8 53bc 97c2 0bbb 972e a33c
00000150: 8589 42bc dcd8 4abc 978d 873c a220 1a3b
00000160: bc81 b03c 8307 953c 9fac a63c 7786 aa3c
00000170: 22d3 b03c bc27 88bc fcf9 b33c f0e3 6fbc
00000180: cbdb 7c3c 3662 54bc 864e 2a3c cd72 b03c
00000190: 47aa 8dbc f7e6 8ebc c693 58bc 0c25 a73c
000001a0: 1c94 71bc 56aa 7fbc a892 a6bc d407 b53c
000001b0: f6d9 9e3c fd22 33bc 1f12 22bc b5ee 6f3c
000001c0: f618 64bc ebfd b03c fd79 ad3c 46a0 0a3c
000001d0: e182 07bc d060 b13c 0dd9 a33c 0bb5 97bc
000001e0: 2def 3ebc 06f2 91bc ccb9 bebb e9e4 b03c
000001f0: 2cad 18bc f133 cbb9 7bf7 673c 9c05 99bc

weight f4 [32, 128]
-0.102211446 -0.19895557 0.042560086 0.14901389 -0.13703021 0.0065069455 0.0031439792 0.013509874
-0.036920175 0.029892132 0.17494154 0.19068667 -0.15984935 0.14112325 -0.20981707 -0.10175239
0.14623965 -0.005277005 -0.18197072 -0.097759835 0.1427033 -0.16442817 -0.123070866 -0.07725154
0.074073024 -0.016905569 -0.042676877 -0.07987716 -0.07158546 -0.1032652 0.16868736 -0.06756535
-0.16270284 0.013062321 0.14950496 0.087242946 0.16202515 0.14618598 0.14911129 -0.15010904
-0.15668021 0.13973445 -0.13803136 -0.007834892 -0.014063863 -0.11506511 -0.0050705406 0.13947815
-0.20506996 0.099897474 0.14924598 -0.10649777 0.13960859 -0.060274523 -0.064462595 0.14736637
-0.032969557 0.1649236 -0.07833588 -0.1510558 -0.18795921 -0.015026685 -0.08700615 -0.18068199
-0.008589443 0.16166443 -0.056644663 -0.083291546 0.16198146 0.08338498 -0.06499333 0.1615781
-0.003460148 -0.15498205 -0.0686698 -0.076384045 -0.15610595 0.02385186 0.009570873 0.064225644
-0.011112733 0.008983636 -0.16720161 0.16212387 -0.107616894 0.1564025 0.0049621863 0.021038668
-0.024439234 -0.06601837 -0.13820893 -0.045188554 -0.022888198 -0.09313401 0.05158044 0.052919935
-0.18284969 -0.008357292 -0.09649785 0.1143792 -0.108663455 -0.030017277 0.08543256 -0.12626262
-0.05704954 -0.06494148 -0.1182726 -0.09617355 -0.17310752 -0.13316248 -0.09285711 -0.019043682
-0.19717893 0.045282777 -0.10833351 -0.0056723095 0.08157562 -0.13453645 -0.042433925 -0.18951464
-0.0029846688 -0.0073269857 -0.1543201 -0.120212235 -0.011042944 -0.18866953 -0.049445227 -0.05523935
0.024726797 -0.19614013 -0.15770714 -0.09161079 0.10262121 0.017330354 -0.11325052 0.09033315
-0.071981005 0.15288782 0.031232236 -0.2060586 -0.19502038 -0.20374095 0.023332171 -0.13831173
-0.09794473 -0.0020639445 0.07168153 -0.20500368 0.051822122 -0.011450846 0.012627871 0.119944796
-0.1365673 0.0064386586 0.011535003 -0.06834752 -0.14898269 0.15301377 0.0008723355 -0.044646975
-0.10614974 -0.043356024 0.029085545 -0.026061328 -0.17334457 -0.19067611 0.05106367 0.16266716
-0.12839407 -0.1901117 0.017907977 -0.03283745 -0.08952282 0.051138226 -0.0411301 -0.08791597
-0.019925458 0.019152237 -0.010887376 -0.115360916 0.17873555 0.14717308 0.035038248 -0.1726227
0.045951504 0.15087992 -0.15667266 -0.017317945 0.12310502 0.024188071 0.099747874 -0.17591633
0.12811396 -0.076723725 -0.013169918 -0.17722513 -0.21316299 -0.112137124 0.025671415 -0.022668963
0.06611961 -0.17322399 0.06843725 -0.19592054 0.13032234 0.003486094 0.10912115 0.059294213
-0.13416784 0.031786017 0.05255771 0.007123214 0.036793865 0.059334196 -0.08234495 0.087933086
-0.032404445 0.026597183 -0.16024068 0.061960403 -0.21478532 0.0969111 -0.19255853 -0.1361095
-0.12700558 -0.040880587 0.14222673 0.007172001 -0.15488885 0.058663823 0.07103968 -0.019255105
0.080923334 0.04026267 0.15583156 -0.11684979 0.1229953 -0.051111706 -0.015510152 0.14909685
-0.010647031 -0.13670394 -0.17246337 -0.17557718 -0.181864 -0.20240143 -0.14429145 0.16387908
-0.15677734 0.015997615 -0.20399766 0.0698405 0.04037712 -0.055352062 -0.08140221 0.085419305
00000000: 3c54 d1bd 02bb 4bbe 7c53 2e3d 1997 183e
00000010: a651 0cbe 3738 d53b 380b 4e3b 8558 5d3c
00000020: 9c39 17bd 58e0 f43c e023 333e 5e43 433e
00000030: 8caf 23be 9d82 103e 49da 56be 8f63 d0bd
00000040: d9bf 153e baea acbb 8856 3abe 4f36 c8bd
00000050: d020 123e dc5f 28be 940c fcbd 0e36 9ebd
00000060: 99b3 973d 8c7d 8abc f3cd 2ebd a396 a3bd
00000070: 669b 92bd b57c d3bd 61bc 2c3e b45f 8abd
00000080: 939b 26be 5803 563c d417 193e 6eac b23d
00000090: ece9 253e c7b1 153e a1b0 183e 2fb6 19be
000000a0: c770 20be 8c16 0f3e 1858 0dbe eb5d 00bc
000000b0: 1e6c 66bc 42a7 ebbd c726 a6bb 5cd3 0e3e
000000c0: dcfd 51be 0c97 cc3d f0d3 183e 811b dabd
000000d0: 8ef5 0e3e 6be2 76bd f704 84bd 36e7 163e
000000e0: 160b 07bd bbe1 283e 906e a0bd 5fae 1abe
000000f0: 6178 40be 7c32 76bc 4830 b2bd b304 39be
00000100: bcba 0cbc 5c8b 253e 3c04 68bd c294 aabd
00000110: 78de 253e bfc5 aa3d 391b 85bd bb74 253e
00000120: a6c3 62bb 9db3 1ebe c1a2 8cbd 3d6f 9cbd
00000130: 3dda 1fbe fa64 c33c 27cf 1c3c bc88 833d
00000140: 2e12 36bc 1a30 133c e636 2bbe cd03 263e
00000150: 3f66 dcbd fa27 203e d699 a23b 4959 ac3c
00000160: ca34 c8bc a434 87bd a486 0dbe a217 39bd
00000170: 0880 bbbc 0bbd bebd 0346 533d 93c2 583d
00000180: f33c 3bbe 06ed 08bc aaa0 c5bd a43f ea3d
00000190: f28a debd cbe6 f5bc 44f7 ae3d fd4a 01be
000001a0: c7ac 69bd 0a00 85bd e838 f2bd a3f6 c4bd
000001b0: 1943 31be bf5b 08be de2b bebd 7f01 9cbc
000001c0: 46e9 49be 6f7a 393d f6dd ddbd c8de b9bb
000001d0: 1e11 a73d ecc3 09be 32cf 2dbd 2010 42be
000001e0: 6f9a 43bb 3617 f0bb 1706 1ebe d531 f6bd
000001f0: 77ed 34bc 9632 41be 1487 4abd a842 62bd
00000200: da8f ca3c f5d8 48be fb7d 21be 709e bbbd
00000210: 122b d23d 63f8 8d3c e3ef e7bd 9600 b93d
00000220: c76a 93bd a08e 1c3e bfda ff3c 0701 53be
00000230: 6cb3 47be 78a1 50be 1c23 bf3c 97a1 0dbe
00000240: 3f97 c8bd 3e43 07bb c4cd 923d 7cec 51be
00000250: 6f43 543d 549c 3bbc 21e5 4e3c 9ea5 f53d
00000260: 4cd8 0bbe 62fb d23b 4ffd 3c3c c9f9 8bbd
00000270: eb8e 18be a4af 1c3e 72ad 643a bfdf 36bd
00000280: 0965 d9bd 1696 31bd cf44 ee3c 917e d5bc
00000290: 3d81 31be 9940 43be 2428 513d 3892 263e
000002a0: bc79 03be a4ac 42be c0b3 923c 9080 06bd
000002b0: be57 b7bd 5176 513d 0978 28bd 4a0d b4bd
000002c0: b73a a3bc 27e5 9c3c f760 32bc 5842 ecbd
000002d0: 7406 373e 8ab4 163e 4484 0f3d 01c4 30be
000002e0: a537 3c3d 4480 1a3e cc6e 20be 5dde 8dbc
000002f0: 7c1e fc3d 1026 c63c 9d48 cc3d 6923 34be
00000300: 4e30 033e 5421 9dbd a4c6 57bc 817a 35be
00000310: 6647 5abe 26a8 e5bd dc4c d23c 43b4 b9bc
00000320: b869 873d a161 31be d428 8c3d 659f 48be
00000330: 3873 053e f476 643b e97a df3d 7dde 723d
00000340: 4b63 09be 0e32 023d c146 573d da69 e93b
00000350: 2ab5 163d 6a08 733d 78a4 a8bd 4316 b43d
00000360: 86ba 04bd 56e2 d93c 2216 24be 31ca 7d3d
00000370: aff0 5bbe 5479 c63d 102e 45be 4a60 0bbe
00000380: c00d 02be 6772 27bd e2a3 113e 1b03 eb3b
00000390: 2f9b 1ebe 7a49 703d 407d 913d e2bc 9dbc
000003a0: 22bb a53d 78ea 243d 4f92 1f3e f14e efbd
000003b0: f6e4 fb3d 825a 51bd 4b1e 7ebc d8ac 183e
000003c0: e270 2ebc 1efc 0bbe 3d9a 30be 81ca 33be
000003d0: 8e3a 3abe 5242 4fbe 23c1 13be ebcf 273e
000003e0: 3d8a 20be 6e0d 833c c3e4 50be 8908 8f3d
000003f0: 7b62 253d d8b8 62bd 34b6 a6bd 51f0 ae3d

bias f4 [32]
-0.019379828 -0.01924889 -0.012016079 0.0053838184 0.02152788 0.02054812 0.003932284 0.005321212
0.019215235 0.013969197 -0.019677794 -0.017884381 0.016278919 -0.018068537 -0.021313427 -0.0125243515
-0.0075366236 0.018716536 -0.020069433 0.015598079 -0.018566677 -0.0044809734 -0.020032573 0.014466112
0.019328585 -0.0046597957 0.0060908594 -0.005106859 0.01910643 0.020826275 0.009013792 0.01639061
00000000: 72c2 9ebc d9af 9dbc 17df 44bc be6a b03b
00000010: 3d5b b03c 8854 a83c 64da 803b 905d ae3b
00000020: 4569 9d3c 0fdf 643c 5333 a1bc 4482 92bc
00000030: 5e5b 853c 7804 94bc 7f99 aebc f032 4dbc
00000040: c8f5 f6bb 6c53 993c a768 a4bc 168f 7f3c
00000050: 2519 98bc 21d5 92bb 5a1b a4bc 4503 6d3c
00000060: fb56 9e3c 33b1 98bb d595 c73b 7057 a7bb
00000070: 1685 9c3c dd9b aa3c 95ae 133c 9a45 863c

weight f4 [32]
1.0054319 1.017143 1.020609 1.012792 1.018169 1.0173862 1.021869 0.9846376
0.98338425 0.9951465 1.015958 1.0156026 0.99071765 1.0206858 1.0181135 1.0216956
1.0060292 1.0196774 0.99362946 1.0130368 0.97998893 1.0095652 1.0184995 1.0128987
1.0101589 0.97978896 1.0184213 1.0001054 1.006083 1.0003011 0.9790645 1.013892
00000000: feb1 803f be31 823f 51a3 823f 2ba3 813f
00000010: 5d53 823f b639 823f 9acc 823f 3611 7c3f
00000020: 12bf 7b3f ecc1 7e3f e90a 823f 44ff 813f
00000030: ac9f 7d3f d5a5 823f 8b51 823f ecc6 823f
00000040: 91c5 803f ca84 823f 805e 7e3f 31ab 813f
00000050: 8ee0 7a3f 6f39 813f 315e 823f aaa6 813f
00000060: e34c 813f 73d3 7a3f a15b 823f 7403 803f
00000070: 54c7 803f de09 803f f9a3 7a3f 37c7 813f

bias f4 [32]
0.018221892 -0.016774207 0.019833092 0.016472748 -0.01951595 0.017153515 0.02182272 0.01474682
-0.01699377 -0.0026985889 -0.016924119 -0.0046146205 0.020118313 0.021305475 0.016568754 -0.022057889
-0.00072126987 0.019917035 0.0072248722 -0.013543089 0.02028808 -0.00556355 -0.018907027 -0.01724286
0.01024043 -0.020042678 -0.019220825 -0.00046706654 -0.0071864584 -0.0010402744 0.009568792 0.020711599
00000000: 1446 953c 106a 89bc 0279 a23c dbf1 863c
00000010: eadf 9fbc 8785 8c3c 90c5 b23c a59c 713c
00000020: 8536 8bbc cfda 30bb 73a4 8abc 3e36 97bb
00000030: 29cf a43c d288 ae3c 32bb 873c bfb2 b4bc
00000040: 9a13 3dba 0d29 a33c 9fbe ec3b d5e3 5dbc
00000050: 3033 a63c 714e b6bb e9e2 9abc e640 8dbc
00000060: 7ac7 273c 8b30 a4bc fe74 9dbc 9ce0 f4b9
00000070: 627c ebbb d159 88ba 6cc6 1c3c 5fab a93c

weight f4 [32]
0.9804518 1.0136642 1.0205975 1.0122659 1.0030042 1.0010635 1.0182817 1.0215935
1.0037087 0.9957002 1.0191028 1.0193013 0.989478 1.021639 0.9964878 0.99288225
0.9809518 1.0188389 1.0055548 0.9987676 1.003491 1.0206026 1.0214839 1.0186945
0.98501396 0.98685676 0.9977264 1.003615 1.0178244 1.0188564 0.9994065 0.9934601
00000000: e4fe 7a3f c0bf 813f f0a2 823f ee91 813f
00000010: 7162 803f d922 803f 0e57 823f 93c3 823f
00000020: 8779 803f 35e6 7e3f f671 823f 7778 823f
00000030: 6e4e 7d3f 11c5 823f d319 7f3f 882d 7e3f
00000040: a81f 7b3f 5069 823f 05b6 803f 3caf 7f3f
00000050: 6572 803f 1ba3 823f fcbf 823f 9564 823f
00000060: e029 7c3f a5a2 7c3f ff6a 7f3f 7576 803f
00000070: 1248 823f e369 823f 1bd9 7f3f 6753 7e3f

bias f4 [32]
0.02010231 -0.012382613 0.021022892 0.017451363 0.021204147 0.020950649 0.02111062 -0.021095468
-0.00094014575 -0.0014104432 -0.021700934 -0.018473106 -0.01479925 -0.018484518 0.006592474 -0.000664683
-0.01950653 0.021242406 -0.016068576 0.021411732 -0.008480259 -0.016282363 -0.019956691 -0.0014634995
-0.016351357 -0.013656654 0.0038542857 0.0026193743 0.019523542 0.017680664 -0.013178131 -0.021261344
00000000: 9aad a43c 71e0 4abc 3338 ac3c 29f6 8e3c
00000010: 52b4 ad3c b2a0 ab3c 2ef0 ac3c 67d0 acbc
00000020: 1d74 76ba 9fde b8ba 28c6 b1bc e954 97bc
00000030: 8e78 72bc d86c 97bc ae05 d83b 1f3e 2eba
00000040: 29cc 9fbc 8e04 ae3c 3fa2 83bc a867 af3c
00000050: c9f0 0abc 9762 85bc 377c a3bc e5d2 bfba
00000060: 48f3 85bc 29c0 5fbc 2f98 7c3b cfa9 2b3b
00000070: d6ef 9f3c 0ad7 903c 16e9 57bc 452c aebc

weight f4 [32]
0.9793155 0.9797747 0.9808473 0.9814084 0.9806392 0.97991604 0.9818356 0.9813241
0.9793341 0.9820997 0.97970927 0.97933036 0.9810743 0.9794284 0.98062164 0.9813498
0.98234534 0.9797961 0.9792568 0.9798685 0.97921395 0.9844204 0.98018044 0.9806596
0.9791735 0.984505 0.9831871 0.98261106 0.98109204 0.98033214 0.98201096 0.9807921
00000000: 6cb4 7a3f 84d2 7a3f cf18 7b3f 953d 7b3f
00000010: 2c0b 7b3f c7db 7a3f 9459 7b3f 0e38 7b3f
00000020: a4b5 7a3f e36a 7b3f 3ace 7a3f 65b5 7a3f
00000030: af27 7b3f d2bb 7a3f 050a 7b3f be39 7b3f
00000040: fc7a 7b3f ebd3 7a3f 93b0 7a3f a9d8 7a3f
00000050: c4ad 7a3f fa02 7c3f 1bed 7a3f 820c 7b3f
00000060: 1dab 7a3f 8508 7c3f 26b2 7b3f 668c 7b3f
00000070: d928 7b3f 0cf7 7a3f 1265 7b3f 3115 7b3f

bias f4 [32]
0.020828726 0.019822618 -0.011469124 -0.01724946 -0.0131139085 -0.019255912 -0.0111027295 0.018034294
-0.020214047 -0.017502837 0.019879648 -0.0036289846 0.011705822 0.006039845 0.017918626 0.0099175945
-0.01409884 -0.020568125 0.020875953 -0.018493969 0.020713115 0.01412966 0.019116912 0.010882501
-0.007071023 -0.014738454 0.014623645 0.014396058 0.009213386 -0.01907241 0.014986393 -0.014173635
00000000: 01a1 aa3c 0b63 a23c fee8 3bbc bd4e 8dbc
00000010: b8db 56bc 93be 9dbc 39e8 35bc a8bc 933c
00000020: ee97 a5bc 1c62 8fbc a5da a23c 42d4 6dbb
00000030: c7c9 3f3c e4e9 c53b 15ca 923c 687d 223c
00000040: d2fe 66bc 7c7e a8bc 0c04 ab3c aa80 97bc
00000050: 8dae a93c 1780 673c 129b 9c3c 844c 323c
00000060: 0ab4 e7bb 8e79 71bc 0398 6f3c 72dd 6b3c
00000070: bef3 163c be3d 9cbc 7d89 753c 8938 68bc
