pre_trained_models/mosi_aligned_A_GENERATOR_L.pt (torch, 204025 bytes, 35 tensors)

multi f4 [1, 32]
00000000: 877e d7be 3275 0f3e bdb4 823e bd5f 99be
00000010: d408 823c 1bd8 99be 996d 02be d19c 353e
00000020: b3a3 f93d acf0 273c b3dd c3be b9eb abbe
00000030: c671 dc3d c9b2 cebd 1d8c d43e 9666 bdbd
00000040: 13a1 4cbc ed76 6fbe 37ae 7c3e a22f ad3c
00000050: fb14 b73e 34ed 433d 26be 4f3e 8fdd 5b3e
00000060: 3d80 0bbe a463 893e 46c9 aebe d091 9c3e
00000070: c0ee 26be dea5 b73e 158f 58be 631f 24bd
-0.4208872 0.1400955 0.25528517 -0.29955855 0.01587335 -0.30047688 -0.1273712 0.17735602
0.12189426 0.010250252 -0.3825508 -0.3357828 0.10763888 -0.10092694 0.41513148 -0.09248082
-0.012489575 -0.2338521 0.24675833 0.021140877 0.35758194 0.047833636 0.2028738 0.21471237
-0.13623138 0.26833832 -0.34137934 0.30579996 -0.16302013 0.35868734 -0.21148331 -0.040068995

weight f4 [50, 32]
00000000: 8803 8fbf cc32 303e 4f2e 32bf 0dc8 7e3f
00000010: 0d80 e13f 170c 7cbe f2a6 61bf 4b20 02c0
00000020: e6b0 cabd ed54 b4be 7a17 d43f d233 30be
00000030: d888 dfbf d1eb acbf 96d7 323f 154b a63f
00000040: a70f 68bf 24b4 fabc 52ea fcbe bf63 a3bd
00000050: 2d7e 4abf a410 8cbd 2b89 21bf 6e6f 403d
00000060: 02f0 d53f 1971 d5bf 6f88 e3bf 44e2 56bf
00000070: 4856 0e3f c8dc 923d 1bf5 0b3f 7c53 1d3f
00000080: 924d 10bf 85be b23f 89cb 2d3f 8581 a3bc
00000090: 8a68 98bf 5048 033f bf85 423d 11db 9d3e
000000a0: e39d 0ebf 450e 2c3f e41d 9b3f a950 3cbf
000000b0: 7c5b 8c3f 9913 f8be 8ede 253d 8559 9d3d
000000c0: f756 9d3d 8a12 153f a13a bd3f bdb6 813d
000000d0: 8441 c4bf 358e 753f cc9a cb3d 348a 8f3e
000000e0: 83c9 633e 11cb ed3f eabe 0f40 e58b 3240
000000f0: b2d7 a1bf 7e94 1dbe 5dff 383f 2581 febe
00000100: 93bd 62bd ae5f 523f d100 fa3e c65b 9d3f
00000110: 50fe 52bf 70a0 8dbe 1278 3d3d dbca 20c0
00000120: fd4a b9be 5ed3 d83f 9822 cfbf fe67 c63e
00000130: 5cb8 0e3f 631e 2bbf 5cc4 88be 4174 c9be
00000140: c4a0 7dbf 9e97 8ebf c34b b33c d9c8 6ebd
00000150: 48dd dfbe f560 4b3e 9917 01c0 9383 ac3f
00000160: a6a1 04bd 59b6 c9be d791 593f c7cf 5abf
00000170: 1003 8cbf ce98 713e 51b3 f1be c5fc 50bf
00000180: 8323 5fbf 5f44 02c0 758b 0b3f 24c0 113f
00000190: 7fb2 07bf 27db 903f cd17 903f f10b 4c3f
000001a0: c214 9fbe ad1e f0bf bb14 85be d3c9 dfbe
000001b0: 74ab 3bbf 1f83 323e c09a afbf 17e7 f3be
000001c0: a02d dfbe 8936 3b3f f919 98bf 0aed cdbe
000001d0: 94db 613e ec94 9a3e 99f8 a13e ab58 c2be
000001e0: 48ba a3bf 89d2 93bf 6b92 8c3e bcf2 31be
000001f0: 8226 67bf 1fe6 a63f 82b0 50bf 1167 94bf
00000200: 87d5 7dbe 077e febe 9809 633f de8f c4bf
00000210: f36e b23f 0f7d d5bf e089 bdbe 6f59 6bbd
00000220: 8730 d2bf 22ec cebe 9213 aabf 6262 24bf
00000230: 1d38 82bf 351a 863f 4143 43c0 e2e3 f43e
00000240: 314a c5bf 879b e0bf 2b37 3ebf b127 f73e
00000250: d32c 8f3f a419 b23b 7d9d 9bbf 9a86 983e
00000260: d039 90bd 9ac1 6dbf 6885 41bf ab33 02be
00000270: b374 a93f 0be1 a3bf 913c 0f40 0458 253f
00000280: 06d1 1e3f 07e5 c8bf bbf6 f5be b1c3 143f
00000290: 6639 6ebf f53c b1bf c6c9 893f f357 373f
000002a0: 080b c23f ec51 a5be e97f 71bf 5a9f 9d3e
000002b0: 62a6 d83f 695b 3b3e 06d8 5ebf 8070 2abf
000002c0: 6e9f 0dc0 a163 b73d a6ea 83bf 1f67 55bd
000002d0: 5a47 e33f e398 0d3e fb4b 68be b877 5b3e
000002e0: bfc3 8c3f 3b4f 7bbf b97f 983f 70bd e63e
000002f0: d1f5 74bf 0b74 07c0 5a3e 1f3f 45d0 d7bc
00000300: 76f6 953f 11b3 59bf 6ee8 0fbe ef6e a3bf
00000310: 363e aa3e 6d48 d13f 1f93 233f d0bd 07bf
00000320: cd6c 7cbf f4c7 d7be 34ea f1bf 3428 b5bf
00000330: 05c0 633f 0a1c 63bf 792d b4bd 508c c43f
00000340: e99b 443f 3166 703e 7bb1 2b3f f634 a9bc
00000350: 5917 1bc0 9bfc 15bf f73b 7abe 52ac b8be
00000360: 353a 23c0 8da1 21bd 6a76 153f 4456 96bd
00000370: 714e e8be 0692 e8be 2d1a 8cbf ba78 b3be
00000380: 470e a5bb 091f 043f 87e7 16bf d54a c5bf
00000390: ca1d 1ebe 40de ddbe 2c45 49bf ff5a 0c3d
000003a0: 5a0a b7be ddea 5a3f f6b6 c73f 3f28 0cbf
000003b0: 1187 e83e 4b16 da3e fdec c4bf 0200 6c3f
000003c0: 34d4 e0be adaa a33f 278a c03e 9193 c1be
000003d0: b477 c63e 3f54 ab3f 0fe0 323f c08b 5a3f
000003e0: 242e 04bf 1f41 d03f 1b12 ecbf ca69 953d
000003f0: f6be a0bf 9b06 19bf ddd9 2b3e 6dc5 08bf
-1.1172953 0.17206877 -0.6960191 0.99524003 1.7617203 -0.24613987 -0.88145363 -2.033221
-0.09897022 -0.35221043 1.6569664 -0.17207268 -1.7463636 -1.3509465 0.6986021 1.2991663
-0.90648884 -0.030603476 -0.49397522 -0.079780094 -0.7909878 -0.068391114 -0.63099927 0.046981268
1.671387 -1.667514 -1.7776011 -0.83939004 0.55600405 0.07171017 0.54670876 0.6145551
-0.5636836 1.3964392 0.67888695 -0.01995922 -1.1906903 0.51282215 0.04749083 0.30831197
-0.55709666 0.67209274 1.2118497 -0.7356058 1.0965419 -0.48452452 0.040495448 0.0768309
0.07682603 0.58231413 1.4783517 0.06333683 -1.5332494 0.95920116 0.099416345 0.28035128
0.2224484 1.8577596 2.2460275 2.7897885 -1.264395 -0.15388677 0.72264653 -0.49707904
-0.055356573 0.82177246 0.48828748 1.2293632 -0.824193 -0.27661467 0.046257086 -2.5123813
-0.36190024 1.6939504 -1.6182432 0.38751215 0.5575006 -0.6684324 -0.2671231 -0.39346507
-0.99073434 -1.114002 0.021886712 -0.058297012 -0.43723512 0.19861205 -2.0170653 1.3477653
-0.032380722 -0.39396933 0.8498816 -0.85473293 -1.0938435 0.23593447 -0.4720712 -0.81635696
-0.8716356 -2.035423 0.5450967 0.5693381 -0.5300674 1.131688 1.1257263 0.7970572
-0.31070524 -1.8759362 -0.2599238 -0.43708667 -0.7330849 0.17432831 -1.3719101 -0.47637245
-0.43589497 0.7313009 -1.1882926 -0.4021991 0.22056419 0.30191743 0.31634977 -0.37958273
-1.2791224 -1.1548625 0.27455458 -0.17377752 -0.90293133 1.3038977 -0.8151933 -1.1593953
-0.24788485 -0.49705526 0.88686514 -1.5356405 1.3940109 -1.667879 -0.37019253 -0.057458337
-1.6421059 -0.4041453 -1.3287222 -0.6421262 -1.0173374 1.0476748 -3.0509799 0.4783011
-1.5413266 -1.7547463 -0.7430293 0.4827247 1.1185554 0.0054351855 -1.2157437 0.29790193
-0.07042277 -0.9287354 -0.75594187 -0.12715022 1.3238739 -1.2803053 2.2380717 0.64587426
0.62037694 -1.5694894 -0.48039803 0.581111 -0.93056333 -1.3846728 1.0764701 0.71618575
1.5159616 -0.32289064 -0.943358 0.30785638 1.6925776 0.18296589 -0.87048376 -0.6657791
-2.2128558 0.089545496 -1.0305984 -0.052100297 1.775615 0.13827853 -0.22685234 0.21432388
1.0997237 -0.9816777 1.1913978 0.45066404 -0.95687586 -2.1164577 0.62204516 -0.026344428
1.1715839 -0.8503886 -0.14053509 -1.2768229 0.33250588 1.6350228 0.63896364 -0.53024006
-0.98603517 -0.4214474 -1.8899598 -1.4152894 0.88964874 -0.8871466 -0.08797736 1.535532
0.768004 0.23476483 0.6706769 -0.020655137 -2.4233 -0.5858857 -0.24436937 -0.3606897
-2.5504277 -0.039460707 0.5838381 -0.073406726 -0.45372346 -0.45423907 -1.0945488 -0.35053045
-0.0050371024 0.51609856 -0.5894703 -1.5413462 -0.15441051 -0.43333626 -0.7862117 0.03426647
-0.35750085 0.8551462 1.560271 -0.5474891 0.45415547 0.42595133 -1.5384823 0.9218751
-0.43911898 1.2786461 0.37605402 -0.37807897 0.387632 1.3385085 0.69873136 0.8536949
-0.51632905 1.6269873 -1.8443025 0.07295568 -1.2558277 -0.59775704 0.16782327 -0.5342625

weight f4 [4, 32]
00000000: 29a0 a63d 05c8 61bf 4209 253e c420 683f
00000010: bb1b 73bf e855 773f f5c4 843e 27c7 4bbf
00000020: 5f3f 9c3f 69f3 1840 3678 63bf dfec 163e
00000030: 8857 83be 9db3 32bc 33b9 453e c6b1 a7bf
00000040: 51e6 503f 1d26 e83f 802f 19bf 1a50 b2be
00000050: cd33 8fbf e5d6 fbbe e36a d1be 7267 74bf
00000060: ac46 4c3f 1571 9c3f d2ab 86bf 2d84 1fc0
00000070: 7c24 27bf 5fe7 fc3e eccb 3ebf 5eb1 ff3d
00000080: 5a17 e53e 9387 c5be bb16 06bf 3786 ca3e
00000090: 38a5 013f da25 81bf 0b75 97bf 37f3 e3bf
000000a0: af80 0bbe 23b7 c5bf 9467 1abf 92e5 103f
000000b0: 9a87 80bf 044a c8bf 9e90 a8bf 303e ad3f
000000c0: 8ead 98bf fb3b eabe b726 cdbe 7df3 2d3f
000000d0: d44d 69bf 0004 05c0 779f ac3f f299 babe
000000e0: d082 bdbe 0d76 c7bf f674 82bf e034 aebd
000000f0: 6ecf be3f 786f c93f 3f60 d73d 5a38 fbbf
00000100: cfc1 e53d 6337 2b3f 3b17 ee3e 7912 05c0
00000110: 3fbe 973f 94a7 963f 4cfc 6abf a2ad 90bf
00000120: 64a8 863e cad3 de3e 0388 93bf 8201 81bf
00000130: d90d 7f3f dc9f 1bbe e615 a93f 9df1 aa3d
00000140: e3d6 c23e 2c2a e1be 1c9e f8bf 4019 533e
00000150: 8ac6 2c3f 7714 46bf 6e47 cb3f c595 123f
00000160: 4c49 26bf 720d 2ebf e8c1 50be b2dc 0abd
00000170: c43b 903e 62b9 a43e 4173 abbe aa3a 17c0
00000180: 9d3f c63f 44f7 64bd 6c59 513f f67f f53f
00000190: 8850 29bf 0e66 0fbe 48a0 a73f 377c 02bf
000001a0: 9f35 18bf 4c58 773e 4765 68bc 98ca aa3f
000001b0: 8aa6 45bf a139 d9be d2f2 cdbf 0bc5 d23e
000001c0: 5a0c 1dc0 1c76 b73e d562 9ebf e979 95be
000001d0: 430f 96bf 8f6c 073f 083b 203f 6b82 a6bf
000001e0: e2f9 083e 7e6d e73e a301 a33f 7da2 e33d
000001f0: 3481 833f 703a 353d 415a 3a3e 88f7 7cbe
0.08136017 -0.8819583 0.16116813 0.90674996 -0.9496419 0.9661546 0.25931516 -0.7960076
1.2206839 2.3898566 -0.888553 0.14738797 -0.2565272 -0.010907081 0.19308929 -1.3101127
0.81601435 1.8136631 -0.59838104 -0.34826738 -1.1187683 -0.4918739 -0.4090186 -0.95470345
0.79795337 1.222201 -1.0521185 -2.4924424 -0.65290046 0.49395272 -0.7452991 0.12485002
0.44744378 -0.38579997 -0.52378434 0.39555523 0.5064273 -1.0089676 -1.1832594 -1.7808598
-0.13623308 -1.5446514 -0.603143 0.56600296 -1.0041382 -1.5647588 -1.3169134 1.3534603
-1.1927965 -0.45748886 -0.400686 0.6794966 -0.9113438 -2.0783691 1.3486165 -0.36445576
-0.37013865 -1.5582901 -1.0191944 -0.08506179 1.4907053 1.5737143 0.10516404 -1.9626572
0.11218607 0.6688139 0.46502098 -2.0792525 1.1854934 1.1769891 -0.91791224 -1.1302989
0.26300347 0.43520957 -1.1525882 -1.0078585 0.99630505 -0.151977 1.3209808 0.08346865
0.3805457 -0.43977487 -1.9423251 0.20615101 0.67490447 -0.77374977 1.5881174 0.5725978
-0.6495559 -0.67989266 -0.2038647 -0.033901878 0.28170598 0.32172686 -0.3348637 -2.3629556
1.5488163 -0.055899873 0.8177707 1.9179676 -0.66138506 -0.14003775 1.3095789 -0.50970787
-0.5945682 0.24154776 -0.014184303 1.3343077 -0.77207243 -0.4242678 -1.6089728 0.41165957
-2.4538789 0.35832298 -1.2373911 -0.29194573 -1.1723408 0.5290002 0.62590075 -1.300855
0.13376573 0.45200723 1.2734874 0.111149766 1.0273805 0.044245183 0.18198492 -0.247038

in_proj_weight f4 [96, 32]
00000000: 10cc c03d ce92 a3bd 4579 e23d c37f 943d
00000010: a930 2b3e a73a 163e 351e a4bc 57ef 4c3e
00000020: c7c8 3c3d 6e57 2e3e 5902 d83d 3399 f03c
00000030: b4e8 efbd a3b8 15be 787c bf3d c46b 6d3e
00000040: 996c 8e3d 96a4 3fbe e752 0b3d 0945 2ebe
00000050: e845 713e b5ff 9f3d 418c 733e 1459 0bbd
00000060: 591c 83be f294 143d da1b 8d3d 9580 123e
00000070: 8452 17bd dd76 693d 12f0 573e 4d65 60be
00000080: 9125 613d cd98 e8bd 7435 03be 188f 4dbe
00000090: 88a0 2d3e db9b c2bc 1e74 ecbc b022 3ebe
000000a0: 857d a93d dcb0 32be d0c7 10be f4f1 253e
000000b0: 3788 0cbe c289 0a3d de64 30be b09a 94bc
000000c0: 975f 04be e9f8 0a3e 6e27 ee3d e6d5 07bd
000000d0: 6ac1 d5bb 51c8 8e3d 97d3 163e af8e 44be
000000e0: a95f 6bbd c884 b63d 6032 a63c 3b6d 9fbd
000000f0: 9f97 23bd 8011 553d 792f f1bd 3fc3 29bd
00000100: 7428 4c3e 069d 8ebd 03f8 5d3c 1b66 1bbb
00000110: 398e 6ebd 8128 7ebd d5f8 d6bd b7b8 6bbc
00000120: 41ea 0cbd dc61 14be 0fc4 e53d 3007 eabc
00000130: 7dcd 4a3e 9fd7 47bd b869 d7bd e999 293d
00000140: 5e5b 9ebd bd7c d83d 3a8c 453e 4246 4e3d
00000150: 727c c3bd a67b f9bd d27f 12bd 8c59 363e
00000160: 327a 3dbd 6b70 b8bd f196 b7bd 55ce b7bd
00000170: 9006 553e e4e1 d53d 4fa5 febd 1d97 69be
00000180: f3d3 363c 51be c5bd a48f 1bbe 9d20 83bc
00000190: 6c86 0ebe 8f11 29be be23 0abd 2e99 5f3e
000001a0: 46ca 993c 9472 2bbe 58b2 8f3d 6d93 2d3e
000001b0: a199 8cbd 20e6 16bd 809d 75be e942 213e
000001c0: 33da 12be bc25 923d bade 293d c2b3 37bc
000001d0: ac09 ab3c 512b 0c3e 2917 173e 5a3b b2bd
000001e0: b47c 51bd 6a7d 48be 7914 d23d b0d1 733d
000001f0: caec 4abd a831 1e3e 7d9d 13be 80f6 053e
00000200: 6c51 3c3c 6886 073d ca4e a9bd 1780 0cbe
00000210: b0b7 073e 1700 42bd ede7 ba3c a92e 183e
00000220: 0e02 bfbd 7c76 50be 4f13 473e 8a12 b1bd
00000230: 5bb6 363e 92d0 97bd 0668 4ebe 7980 f1bd
00000240: 31a6 113e c55c c7bc 558f 023e 47bb 44be
00000250: 13e7 9bbd 457d 90bd 7bf1 fa3d 421f 233e
00000260: 4371 dabc 4899 64bd b234 be3d 67d1 403e
00000270: c466 2bbe e8cb d5bd c044 7d3c 8c9f 2bbe
00000280: 34b7 0ebd ee2d acbd 64ff 3fbe 2cd8 3abe
00000290: b07b 753d 56ee 0cbe 270a 9abc c00b 16bd
000002a0: a8cd 28be 79f5 13bd 6c4b d4bc 8722 c5bd
000002b0: 3795 4e3d e75f 003a 7937 2abe 18d7 2abd
000002c0: 2b22 a8bb 8db4 53be f60b c7bd 8637 2e3d
000002d0: 170a 3d3e d837 ca3d 811a 2cbd 8d55 bebd
000002e0: 65fa 5a3e 2c6f 7fbd 5ac1 c83b d2bd fdbd
000002f0: eccd 0abe b295 86bd 65c8 263e 0aea 4d3e
00000300: 4a63 52be 2ffe 2fbe 8f00 d43d fe6b b9bd
00000310: 8c28 4c3e 6230 e6bc 09d0 443e 32c5 00be
00000320: 6e2b fdbc 224a 553e 50ef 66bd c231 9d3d
00000330: b8a6 193e defc 20be 5ea5 13be b106 14be
00000340: 9f6b 8e3d 0d2e 453e fa7e 31be 6a4d 9d3c
00000350: dc09 a5bd 1e36 653b aaa6 533e 908b 98bd
00000360: da85 85bd 861b 0ebe 8628 483e beec 33be
00000370: a318 25bc ef9a 3c3e 0f41 3abe c925 053e
00000380: 23a0 47bd a08c babd 1c24 ff3d cf95 4e3e
00000390: d1ce 153d faa5 68bb 7b13 4a3d 2a6b 453e
000003a0: 020d cfbd c60a 12be 4925 86bd 6543 4e3b
000003b0: 7b02 2dbe eaea bdbd 1e79 1f3e 0f8f 39be
000003c0: b39c 23be 322f e7bd 3b70 0b3e 46f6 eabd
000003d0: a402 1ebd 3588 e03c 0084 3d3e a274 4abe
000003e0: 3d9e 0d3e d137 26be cf01 523e 9952 42be
000003f0: 3e53 90bc e781 0e3e e97c 1c3e 2ca6 9f3b
0.09413922 -0.07986985 0.110582866 0.07250931 0.16717781 0.14670812 -0.020033935 0.20013176
0.046089914 0.1702554 0.10547323 0.029369926 -0.117143065 -0.14621215 0.093499124 0.2318564
0.06954307 -0.18715128 0.03401461 -0.17018522 0.23561823 0.07812444 0.23783971 -0.0340205
-0.25607565 0.036274858 0.06890078 0.14306863 -0.036943927 0.056998122 0.21087673 -0.21913643
0.054967467 -0.113572694 -0.1281336 -0.20074117 0.16955769 -0.023755958 -0.028863963 -0.1856792
0.08275894 -0.17450279 -0.14138722 0.16205579 -0.13723837 0.033822782 -0.17225978 -0.018140167
-0.1292709 0.13571514 0.11628614 -0.033162974 -0.006523301 0.06971801 0.14729153 -0.19195054
-0.057464276 0.08912045 0.020287693 -0.07784506 -0.03993952 0.052018642 -0.11776633 -0.041445967
0.19937307 -0.069635436 0.0135479 -0.0023711983 -0.058241103 -0.062050346 -0.1049668 -0.014387301
-0.03440309 -0.14490455 0.11219036 -0.02856788 0.1980495 -0.048789617 -0.10518211 0.041406546
-0.07732271 0.10570667 0.19291773 0.05035997 -0.095452204 -0.12181787 -0.03576643 0.17807597
-0.046259113 -0.09005817 -0.08964337 -0.089749016 0.20803285 0.10443476 -0.12433874 -0.22811551
0.011158931 -0.096554406 -0.15191513 -0.016006762 -0.13918465 -0.16510604 -0.033725493 0.21835777
0.01877321 -0.16742927 0.07016438 0.1695077 -0.0686524 -0.036840558 -0.23985863 0.1574818
-0.14341049 0.071361035 0.041472174 -0.011212291 0.020878635 0.13688399 0.14754929 -0.08702727
-0.051144317 -0.19579092 0.10257811 0.059526145 -0.049542226 0.1544863 -0.14415546 0.13082314
0.011494022 0.033087164 -0.08266981 -0.13720737 0.13253665 -0.047363367 0.022815669 0.1486155
-0.09326564 -0.20357698 0.1944096 -0.08646114 0.17843 -0.074128285 -0.2015687 -0.11792082
0.14223553 -0.024336228 0.1274999 -0.19212066 -0.07612433 -0.07055143 0.1225309 0.15929893
-0.026665336 -0.055810243 0.092873946 0.1882988 -0.1673842 -0.10439283 0.015458286 -0.16760081
-0.034842685 -0.08407198 -0.18749768 -0.18246526 0.05993241 -0.13762793 -0.01880367 -0.0366323
-0.16484702 -0.036122773 -0.02591487 -0.09625726 0.05043527 0.0004897103 -0.16622724 -0.041709036
-0.0051310263 -0.20674343 -0.09719078 0.04253342 0.1846088 0.098739326 -0.042017464 -0.09293661
0.2138458 -0.06236188 0.006126565 -0.12389721 -0.13555115 -0.06571521 0.16287382 0.2010881
-0.20545688 -0.17186807 0.10351669 -0.09053801 0.19937342 -0.028099243 0.19219984 -0.12575224
-0.030904498 0.2082906 -0.05638057 0.07675506 0.15005004 -0.15721461 -0.14418551 -0.14455678
0.06954121 0.19255848 -0.17333594 0.019201953 -0.08058521 0.0034974883 0.20669046 -0.074484944
-0.06519671 -0.13877687 0.19546708 -0.17570779 -0.010076675 0.18418477 -0.1818888 0.13002695
-0.048736703 -0.09108853 0.12458059 0.20174335 0.03657419 -0.003549932 0.049334984 0.19279161
-0.10109903 -0.14261922 -0.0655008 0.0031473276 -0.16895477 -0.09273322 0.15573546 -0.18120979
-0.15977745 -0.11288299 0.13617031 -0.11472754 -0.038576737 0.027408699 0.18507385 -0.19771054
0.13829894 -0.1623223 0.20508502 -0.18976821 -0.017617818 0.13916741 0.15282024 0.004872104

in_proj_bias f4 [96]
00000000: 375a 26bd 5e99 0a3b 60d7 82bc 63ee 26bc
00000010: e2cf 8dbb 991a 42bb e965 04bc a67a 30bc
00000020: a4c1 3b3b 9a33 d13a 52f7 793b cde8 5fbc
00000030: 3569 413c 579c d03b 278b 2e3c dff6 fb3b
00000040: 77f6 07bc fdfb c8bb 9d62 2bbc 8b96 773a
00000050: 032f 66bb 9705 8bbc c3b5 59bc de47 2b3b
00000060: de9b a73a fa95 0ebb 6a80 4dbc fb0f fe3b
00000070: da99 26bc 6429 cebb 1724 0ebc 5fd6 5dbc
00000080: da01 88b6 2fdb 87b6 2e0a 9eb6 22df c2b6
00000090: 0a47 8737 b5e3 72b4 bcee 36b7 cc9f adb6
000000a0: fcc3 d4b6 5c01 cf35 fcdc 2135 cf51 88b5
000000b0: 7574 9e36 97a9 99b7 20b9 46b6 fc0a ce35
000000c0: 045f 3337 1681 88b6 7ad1 d3b5 560e 1636
000000d0: a28a afb6 a721 93b6 1149 ae36 2756 74b6
000000e0: d3cc 94b7 dbe5 da35 ea65 9636 6b09 d336
000000f0: da1d 3037 65df 17b6 183b 7736 02d4 3937
00000100: 6fa9 0cbc 9042 92bc 40b3 89bc 1f31 cb3c
00000110: 88d5 c73b 284b 3a3b fd95 a9bb 0ae4 513c
00000120: 37ce b2bc 9a0b 07bc 3693 0e3b 2a91 19bc
00000130: 10ef 083c 044f 0cbb 16a0 ce3c 853d e6bc
00000140: c4ab 82bc c1d7 b23c 1824 e93b d929 e3ba
00000150: f261 4abc f722 333c 191f df3b 6336 98bc
00000160: 595a 24bc 2da2 88bc b8b4 223c 2e7f ccbb
00000170: f081 58bc 4d64 8cba 3a9e a63b 1c07 813c
-0.04061338 0.0021148543 -0.01597184 -0.010188672 -0.00432776 -0.0029617904 -0.008080938 -0.010771429
0.0028649354 0.0015960813 0.00381418 -0.013666344 0.0118048685 0.0063662934 0.010653294 0.0076893414
-0.008298508 -0.006133555 -0.010460523 0.0009444735 -0.0035123236 -0.016970439 -0.013287964 0.0026135365
0.0012787541 -0.0021756873 -0.012542823 0.00775337 -0.010168517 -0.0062915552 -0.008675597 -0.01353988
-4.0533314e-06 -4.04883e-06 -4.709952e-06 -5.8076266e-06 1.6126334e-05 -2.2620846e-07 -1.090363e-05 -5.1744046e-06
-6.340908e-06 1.5423097e-06 6.029875e-07 -1.0156599e-06 4.7223243e-06 -1.8317993e-05 -2.9612056e-06 1.5351393e-06
1.0691354e-05 -4.0681434e-06 -1.5781691e-06 2.2360086e-06 -5.2315454e-06 -4.384859e-06 5.19411e-06 -3.640898e-06
-1.7738354e-05 1.6309162e-06 4.4822127e-06 6.2893864e-06 1.0497368e-05 -2.2630786e-06 3.6840265e-06 1.1076221e-05
-0.008585318 -0.017854005 -0.016809106 0.024803696 0.006098453 0.0028426144 -0.0051753507 0.012810716
-0.021826847 -0.008242512 0.0021755225 -0.009372989 0.008357778 -0.0021409402 0.02522282 -0.028105507
-0.015951045 0.021831395 0.0071148984 -0.0017331197 -0.012352454 0.010933629 0.006809127 -0.018580621
-0.010031306 -0.016678894 0.009930782 -0.006240747 -0.013214573 -0.0010711044 0.00508478 0.01575046

weight f4 [32, 32]
00000000: 3113 683e 2002 813e 55a3 2ebe 104e 713e
00000010: 83a8 5d3e 41e4 aebd 2686 4abd 68b3 83bc
00000020: 4fcb 91be 8891 49be 26ad 60be 10c9 903e
00000030: 4e0d babd 2da8 683e d12f d33c 9571 90bd
00000040: 77a5 43be 56dd 9a3e 002a d0bc 9e65 063e
00000050: cafc 34be 7ee7 723e cfcb c93d 9b6b 00be
00000060: c347 0e3e 3db2 8fbe 6286 3f3e a7f1 013e
00000070: bf6b 90be 3bac f1bd f399 d4ba 3f75 893e
00000080: 2758 5bbe 8dd1 92be f26e 47be 64e4 833e
00000090: 72f2 de3d 71f6 483e cc5c 3dbe 6949 273e
000000a0: f651 1d3d 543f 0abe 090d 7c3e 0032 853e
000000b0: f142 08be 60ca 6c3c 8bf4 86bd e984 75be
000000c0: 0bc7 7fbe 9188 71bd 5331 6abe 0e2d 873e
000000d0: c989 0abe f584 f4bc a438 493e ce5f a4bd
000000e0: 36e5 333e e7bf 853d 7d98 483e a3a1 3fbe
000000f0: 3801 3a3e 7bda 4abe 5076 dcbd f8b9 373d
00000100: 6970 81bd 1c62 8bbe e0c5 343e e6d3 6cbe
00000110: a5f9 5b3e 914e 03be a20b 10be 5c25 87be
00000120: a4a0 8dbe 7c07 16be 5d98 a8bd 4cfb 833e
00000130: 3234 933e 2d2a 0d3e bfe0 8c3e a2cc 743e
00000140: 6194 0a3e aa2d 4fbe 53e2 5c3e cc56 993d
00000150: c9ca 9e3d 8e9f 613e a101 58bb 2fef 823e
00000160: 609d 4b3e 5fa6 903e 1da4 823e 0d65 38be
00000170: b8c1 7cbe 9eb8 163e 3596 92bd c280 53be
00000180: ae4a d73d c26b 30be 8381 9f3e 61ac 3abd
00000190: b4e0 61be fd3a 93bc 4999 833e bc92 46be
000001a0: 5287 b7bd 564e 69be 1278 b73c 6116 60bc
000001b0: adf8 9bbe 83c1 4e3c 96a2 28be 7161 a63d
000001c0: a812 d83d c9ac b13d 69d2 a8bd c153 1a3d
000001d0: 7bef 783e c595 83be c9ba b3bd 47a0 1fbe
000001e0: 9106 1b3e 637e 7f3e 99e9 4f3e a56e 17bd
000001f0: 2705 a3bb ed5b 3ebd 2140 62bd d953 713e
00000200: f343 88be a450 94be 96a0 3a3e 47e4 4bbd
00000210: 663f 9a3e 3a89 083e 140d 8d3d 0b61 70be
00000220: 92dc 87be c1d2 b73d 1db0 87bd 1b06 d43d
00000230: ac95 503e 3789 8ebd 5bc0 39be 8fea 32be
00000240: eb22 9bbd 2df4 b53d 3794 2e3e 4849 9f3e
00000250: 38b6 663e a157 1a3e c14a d0bd f592 f9bd
00000260: fdf5 643e dd6c 5a3c 2ae3 9ebc a157 ec3d
00000270: eccc 743e bc96 ce3d 15ee 7d3e 3c59 7dbb
00000280: ad2f 1a3d c675 d23d 8c2e c63c 4bb2 93be
00000290: 23ef 93be 787c 083e cff9 c63c 91e5 d2bd
000002a0: c6f2 253d 942e 123e 15c0 d8bc aa5b 8b3d
000002b0: 35d8 10be 112a e53d e425 13be a815 92be
000002c0: c6ff 98be dc8c 393d f0fa 133e 42fd 0cbe
000002d0: a15e cf3d a643 41be fae7 0bbe b582 6dbe
000002e0: 9484 f33c c480 9cbe 70f3 52be eb21 983d
000002f0: fd5c 963e 64c5 31be b823 8f3e c216 9abe
00000300: 32ba 843d 2363 44be ec41 223d a35b 77bd
00000310: b0d5 6f3e 1a40 ecbc 3949 763e 71b0 13bd
00000320: 87ff 17be f874 69be 2432 a63d b206 783e
00000330: 6635 8abe 3923 7bbd bb5c 10bd 5813 1fbe
00000340: 5f72 8f3d b7a7 cbbc be3e 6dbe a1b2 90be
00000350: 9db5 1c3e ffdb 993e 12fa 963e f57b a0be
00000360: 9b54 373e 6f95 8fbe 9c0f 913d 1717 8ebd
00000370: dca4 b7bd 2029 0bbe 7905 1ebd 22c0 153e
00000380: bdf7 0cbc 48f2 603e f79d f73c 8706 c93b
00000390: aa03 97be cce3 1a3e bd8f 3abe b7af 903e
000003a0: a8b2 363e e2e6 7e3b dcfa 3cbe 8279 c43d
000003b0: bc29 98bd 7821 fd3d 302e 683e 3e49 7dbd
000003c0: 8f6d 0b3e 7b6e 54bc 1280 f0bd ab0b 38be
000003d0: 0b53 7e3e ba3a 82be 0123 35be 8f0a 343e
000003e0: c415 283e 2ebd a83d fd36 97be df46 c9bd
000003f0: aa1d 2c3e 39e8 083e 8899 993d 04ca 94be
0.22663571 0.25196934 -0.17054494 0.23564935 0.21646313 -0.0853963 -0.04944434 -0.016076759
-0.28475425 -0.19684422 -0.21941051 0.282784 -0.09084569 0.22720404 0.025779637 -0.07052914
-0.19106089 0.3024699 -0.025410652 0.13124701 -0.17674556 0.2372112 0.098533265 -0.12541048
0.13894562 -0.28065673 0.18703607 0.1268984 -0.28207204 -0.118004285 -0.0016220197 0.26847264
-0.21420346 -0.286755 -0.19475916 0.25760186 0.108860865 0.1962526 -0.1849243 0.16336598
0.038408242 -0.1350072 0.24614348 0.2601471 -0.13306786 0.014452547 -0.065896116 -0.23976482
-0.24978273 -0.05896813 -0.22870378 0.26401561 -0.13529123 -0.029848555 0.19650513 -0.08026086
0.17567906 0.06530743 0.1958942 -0.18714003 0.18164527 -0.19809906 -0.10764754 0.044855088
-0.06320269 -0.2722329 0.17653608 -0.23127708 0.2148195 -0.1282294 -0.14066938 -0.2639569
-0.27661622 -0.14651293 -0.08232186 0.25777662 0.2875076 0.1378562 0.27515218 0.23906186
0.13533165 -0.20232263 0.21570711 0.07487258 0.07753522 0.22033522 -0.0032959955 0.25573108
0.19884253 0.2825193 0.25515833 -0.18007298 -0.24683273 0.14718863 -0.07157556 -0.20654586
0.10512291 -0.17228606 0.31153497 -0.04557455 -0.22058374 -0.017972464 0.25702885 -0.19391912
-0.08961357 -0.22783789 0.022396121 -0.013677211 -0.30463162 0.012619379 -0.16468272 0.08124054
0.105504334 0.08675534 -0.082432576 0.03767753 0.24310105 -0.25700203 -0.08775861 -0.15588485
0.15139224 0.24950556 0.20303954 -0.036970753 -0.0049749794 -0.046474386 -0.05523694 0.23567142
-0.2661434 -0.28967774 0.18225321 -0.04977825 0.30126494 0.13333598 0.0688726 -0.23474519
-0.2653547 0.08975745 -0.06625388 0.10352727 0.20369595 -0.069597654 -0.18139784 -0.1747229
-0.075750194 0.088844635 0.17048727 0.31110597 0.22530448 0.1507249 -0.10170508 -0.12186233
0.22359462 0.013331619 -0.01939543 0.115401514 0.23906296 0.10087344 0.24797852 -0.0038657924
0.037643123 0.1027637 0.024192117 -0.28846964 -0.28893384 0.13328731 0.02428904 -0.102976926
0.04051473 0.1427558 -0.02645878 0.06804593 -0.14144976 0.11189664 -0.14369923 -0.28532147
-0.2988264 0.04530035 0.14451194 -0.13768485 0.10125471 -0.18873462 -0.13662711 -0.23194392
0.029726304 -0.3056699 -0.20600677 0.07428344 0.2936782 -0.17360455 0.2795694 -0.30095488
0.064808264 -0.19178443 0.03961365 -0.060390126 0.23421359 -0.02883916 0.2405137 -0.03605694
-0.1484357 -0.22798526 0.08115032 0.24221304 -0.26993865 -0.061312888 -0.035244685 -0.15534723
0.070042364 -0.024860246 -0.23168465 -0.28261283 0.15303655 0.30050656 0.29487664 -0.31344572
0.17903368 -0.28043696 0.070830554 -0.06937998 -0.08966991 -0.13589907 -0.038579438 0.14624074
-0.008603987 0.21967423 0.03022669 0.0061348113 -0.29494983 0.1512596 -0.18218894 0.2825906
0.1784159 0.003889494 -0.1845507 0.09593488 -0.07429835 0.12359899 0.22673869 -0.061837427
0.13616012 -0.012965794 -0.117431775 -0.17973201 0.24836366 -0.2543543 -0.17689134 0.17582153
0.16414553 0.08239208 -0.2953414 -0.09827971 0.16808191 0.13369836 0.07499987 -0.29060376

bias f4 [32]
00000000: 642b 23bb d83a b43c 468a cb3b fa29 52bc
00000010: 49a2 ddbb f40f 2a3b 0518 fd3b 4053 29bb
00000020: 7539 09bc 298a a63b 2a28 033d 0387 c6bc
00000030: a75f 683c 94c9 88bc 9f77 64bc 23c2 2a3c
00000040: f39b 2fba ff25 49bc 4389 e23b e7e9 ebbb
00000050: 0943 063c 1568 3fbc ad80 94bb 720f 593c
00000060: 863d 8b3b 64b0 8c3b 4cf5 8e3c 10e1 2f3b
00000070: 9c08 3ebc 4db2 3dbc d783 71bc b4c1 ea3c
-0.002489769 0.022000715 0.006211552 -0.012827391 -0.0067637307 0.002594945 0.0077238106 -0.0025836974
-0.008375515 0.005082388 0.032020725 -0.0242343 0.014182962 -0.016697682 -0.0139445355 0.010422262
-0.00066989585 -0.012277125 0.0069133355 -0.007199514 0.008194693 -0.01168253 -0.004531941 0.013248311
0.0042492775 0.0042934883 0.017450951 0.0026837029 -0.011598732 -0.011578155 -0.014740906 0.028656818

in_proj_weight f4 [96, 32]
00000000: 1734 463e 02b1 db3d 8a4a 83bd 2156 1ebe
00000010: 2d9a 213e 8843 29bd a0e4 9fbd b443 2ebe
00000020: 8732 503e a4d6 683d 39e0 3a3e 6baa 583e
00000030: ecf5 3e3d 0d04 05be ffd3 4a3e fcee 17be
00000040: fde5 073e 776c 0f3e 42fb 933d 3483 7f3d
00000050: e339 073e 80b1 62bd 83f5 dbbd a0b9 9abc
00000060: fa4d e53d 9c15 45bd 606c 09be ca6b 19be
00000070: 6c13 323d 9c3f 93bd b8ab 22be 48bd aebc
00000080: c7c5 16be 525d bd3d 5229 13be 0aa9 e93d
00000090: ba9d 00be f316 183e 9046 45be d05d 54bc
000000a0: 0c94 373d a2e2 2bbe 7641 8f3d f4f1 12bd
000000b0: 9205 f53d 6470 f3bd ca81 d13d 66d6 8abd
000000c0: 637b 24be 0029 20be 7a86 d73d 2c76 523d
000000d0: 629e bc3d 0819 a93c b865 25be 20b7 83bb
000000e0: 4886 92bd 25f8 093e 06c0 943d b63c ea3d
000000f0: fa8d 0abe cb6b eebd c915 11be 027f b93d
00000100: 41b2 003e c033 cb3c 29cc 2d3e 850f 0b3e
00000110: acc3 0f3d d081 28bc c654 a13d 02ed 45be
00000120: f348 eebd 4ed4 f83d 32a6 39be 8cb2 73bd
00000130: ff47 503e 558d 423e c199 4d3e 81b4 3ebe
00000140: ec3d f6bd f2a0 03be acf3 133d 421b dd3d
00000150: d2f0 d33d f5e4 183e 5b17 4e3e 8886 4bbe
00000160: 2746 003e fd25 3f3e 1045 5ebd 0385 473e
00000170: 1167 3f3e 0002 453a a8ea 4fbd 11ee 4bbe
00000180: a83b f63c 0db8 4b3e c05c 0abc d5b1 443e
00000190: b893 8dbd bdd3 19be c042 e6bd 203d aebc
000001a0: ec09 3fbd 9e6e 3abe 388f c2bd 3042 fabc
000001b0: 0c35 b3bd 3ba7 2cbe c061 72bc 6c8f 263d
000001c0: 4dc9 2e3e 805c b63c d09a d63c f0be 663c
000001d0: 0f09 253e e84e a13c d54d 3fbe e40a 69bd
000001e0: 9b66 503e 13b7 5a3e 5348 1f3e 115a 2fbe
000001f0: 3002 62bd 115d 123e 02f9 9bbd f8b9 c63c
00000200: a976 1d3e 184f 89bc 90ba 95bc 7822 9cbd
00000210: b470 013d 24cf 193d ec27 42be 4ecb 27be
00000220: bdf2 0c3e 5366 163e 0264 bfbd 536d 423e
00000230: b791 103e 4204 c43d 1600 24be 7f18 2c3e
00000240: f0f2 56bc 8083 973c f8f3 42be c8e2 17be
00000250: 4a29 3ebe 8d34 153e 0abe 02be 6dca 043e
00000260: 884d b73c cb72 493e e8dc fcbd 93a3 253e
00000270: e9ae 1a3e 36e6 a8bd c05c 273b b4b5 303d
00000280: 6899 1fbe 45fe 06be 3adc f1bd 520f b0bd
00000290: 705b 94bd e032 733c 94d5 26bd ebb9 273e
000002a0: 72d8 f63d d823 e5bc 503b 21bd 2829 073d
000002b0: 32f0 57be b6b1 a8bd e0fc 6dbc 9ce6 273d
000002c0: 9764 0fbe 30b9 64bc 20d8 533c d07c dbbc
000002d0: 9848 4bbe 781b cabd c013 44bd 50f5 c23c
000002e0: e4a3 633d d8c0 f83c ac23 4dbd a81f 82bc
000002f0: 401e 183b 3470 233d 6093 a4bd 1b61 2f3e
00000300: 0742 3f3e 0fd2 583e 9ebc a73d 7b79 0e3e
00000310: e86e 91bc 2799 033e 1a15 47be 407a 143b
00000320: 791b c3bd a340 29be 5d31 22be 58e6 f53c
00000330: 6166 d7bd 1261 c6bd b291 b5bd f0e3 c23c
00000340: 1c91 36bd f8a6 41be 0d5c 3f3e 19f5 253e
00000350: 0050 99bc 6041 da3c f81c b63c 40e8 663b
00000360: 222d 3ebe 16c6 a13d 6912 2f3e 484d f1bc
00000370: 5cd5 3abe e811 73bd d348 513e 56cc 4ebe
00000380: bcff 39be b248 933d e250 9d3d 002d 9a3c
00000390: 0cce 0f3d 6486 90bd d3a1 3f3e 1547 5abe
000003a0: 48fc cc3c a280 853d 2c80 dfbd 9456 223d
000003b0: 79e0 3d3e 7031 58bc 10a3 513c ce7c c23d
000003c0: f62d c03d 753d f8bd 6e17 b53d 48e4 01be
000003d0: df93 5d3e 8ff4 5abe dbfa 493e 06bd b13d
000003e0: ec34 c2bd ca2d cfbd 10a7 06bc 902a 4a3c
000003f0: 7f73 583e 124a dc3d 30c5 31bc 0a31 a13d
0.19355808 0.10727121 -0.064107016 -0.15462543 0.1578147 -0.04132417 -0.07807279 -0.17018014
0.20331775 0.056845322 0.18249597 0.2115876 0.046621248 -0.12989827 0.19807433 -0.14837259
0.13271327 0.1400622 0.07225658 0.062380984 0.13205676 -0.05534506 -0.10740187 -0.018887341
0.111965135 -0.04811631 -0.13420248 -0.14982525 0.043475553 -0.07189867 -0.15885818 -0.02133049
-0.14723884 0.09246315 -0.14371231 0.11409195 -0.12560168 0.14852504 -0.19265199 -0.01296182
0.044818923 -0.16785672 0.069949076 -0.035875276 0.11963953 -0.11886671 0.102298334 -0.067791745
-0.16062693 -0.1564064 0.10523696 0.05138223 0.092098966 0.020641819 -0.16152084 -0.004019633
-0.07154518 0.13473566 0.07263188 0.11437361 -0.13530722 -0.116416536 -0.14168467 0.09057428
0.12567998 0.02480495 0.16972412 0.13580139 0.035098717 -0.010284856 0.078774974 -0.19328693
-0.11635008 0.12149869 -0.18129805 -0.059496447 0.20339964 0.18999226 0.20078184 -0.18623544
-0.120235294 -0.12854365 0.036121055 0.10796215 0.10348667 0.1493109 0.20126097 -0.19875538
0.12526761 0.18666835 -0.054265082 0.19484334 0.1869166 0.00075152516 -0.050760895 -0.19915034
0.030057743 0.19894429 -0.008444965 0.19208463 -0.06912941 -0.15022178 -0.112432 -0.021269381
-0.04664032 -0.1820626 -0.09499973 -0.030549139 -0.08750352 -0.16860668 -0.014793813 0.04066412
0.17068978 0.022260904 0.026196867 0.014083609 0.16116737 0.019690946 -0.18682034 -0.05689515
0.20351641 0.213589 0.15554933 -0.17124201 -0.055177867 0.14293315 -0.07615854 0.024258599
0.15377297 -0.016761348 -0.018277436 -0.07623762 0.031601623 0.03755106 -0.18960541 -0.16386148
0.13764472 0.14687471 -0.09345247 0.18987016 0.14118086 0.095711246 -0.16015658 0.1680622
-0.013119444 0.018495321 -0.19038379 -0.14832604 -0.18570438 0.14570828 -0.12767807 0.12967844
0.022375837 0.19672696 -0.12346822 0.1617568 0.15105785 -0.08247034 0.002553746 0.043142036
-0.15585864 -0.13182934 -0.11809583 -0.08596672 -0.07244003 0.0148436725 -0.040731028 0.16379516
0.120530024 -0.027971193 -0.039363205 0.032998234 -0.21087721 -0.08237021 -0.014525622 0.04099141
-0.14003216 -0.013960168 0.012929946 -0.026792914 -0.19851911 -0.098685205 -0.047870398 0.023798615
0.05557622 0.030365393 -0.050082847 -0.015884236 0.002321139 0.039901927 -0.08035922 0.17126887
0.18677531 0.21173881 0.08190273 0.13913529 -0.01775308 0.12851392 -0.19441643 0.0022655874
-0.09526724 -0.16528563 -0.15839143 0.030017063 -0.10517574 -0.096864834 -0.0886568 0.02379033
-0.04457198 -0.1891135 0.18687458 0.16206779 -0.018714905 0.026642501 0.02223061 0.0035233647
-0.18571904 0.0789911 0.17096867 -0.029455796 -0.18245453 -0.05934325 0.20437936 -0.20195135
-0.18163961 0.071916 0.07681443 0.018820286 0.03510861 -0.07056883 0.18714075 -0.21316178
0.02502264 0.065186754 -0.10913119 0.03963335 0.18542661 -0.013195381 0.012795225 0.09496461
0.09383766 -0.12121097 0.088423595 -0.12684739 0.2163844 -0.21382354 0.197246 0.086786315
-0.0948275 -0.101161554 -0.008218542 0.012339249 0.21137808 0.10756315 -0.010850236 0.078706816

in_proj_bias f4 [96]
00000000: 0000 0000 0000 0000 0000 0000 0000 0000
00000010: 0000 0000 0000 0000 0000 0000 0000 0000
00000020: 0000 0000 0000 0000 0000 0000 0000 0000
00000030: 0000 0000 0000 0000 0000 0000 0000 0000
00000040: 0000 0000 0000 0000 0000 0000 0000 0000
00000050: 0000 0000 0000 0000 0000 0000 0000 0000
00000060: 0000 0000 0000 0000 0000 0000 0000 0000
00000070: 0000 0000 0000 0000 0000 0000 0000 0000
00000080: 0000 0000 0000 0000 0000 0000 0000 0000
00000090: 0000 0000 0000 0000 0000 0000 0000 0000
000000a0: 0000 0000 0000 0000 0000 0000 0000 0000
000000b0: 0000 0000 0000 0000 0000 0000 0000 0000
000000c0: 0000 0000 0000 0000 0000 0000 0000 0000
000000d0: 0000 0000 0000 0000 0000 0000 0000 0000
000000e0: 0000 0000 0000 0000 0000 0000 0000 0000
000000f0: 0000 0000 0000 0000 0000 0000 0000 0000
00000100: 0000 0000 0000 0000 0000 0000 0000 0000
00000110: 0000 0000 0000 0000 0000 0000 0000 0000
00000120: 0000 0000 0000 0000 0000 0000 0000 0000
00000130: 0000 0000 0000 0000 0000 0000 0000 0000
00000140: 0000 0000 0000 0000 0000 0000 0000 0000
00000150: 0000 0000 0000 0000 0000 0000 0000 0000
00000160: 0000 0000 0000 0000 0000 0000 0000 0000
00000170: 0000 0000 0000 0000 0000 0000 0000 0000
0.0 0.0 0.0 0.0 0.0 0.0 0.0 0.0
0.0 0.0 0.0 0.0 0.0 0.0 0.0 0.0
0.0 0.0 0.0 0.0 0.0 0.0 0.0 0.0
0.0 0.0 0.0 0.0 0.0 0.0 0.0 0.0
0.0 0.0 0.0 0.0 0.0 0.0 0.0 0.0
0.0 0.0 0.0 0.0 0.0 0.0 0.0 0.0
0.0 0.0 0.0 0.0 0.0 0.0 0.0 0.0
0.0 0.0 0.0 0.0 0.0 0.0 0.0 0.0
0.0 0.0 0.0 0.0 0.0 0.0 0.0 0.0
0.0 0.0 0.0 0.0 0.0 0.0 0.0 0.0
0.0 0.0 0.0 0.0 0.0 0.0 0.0 0.0
0.0 0.0 0.0 0.0 0.0 0.0 0.0 0.0

weight f4 [32, 32]
00000000: 5c08 f0bd cd87 53be 78ac 033e 4ed1 753e
00000010: 16c7 41be 84f6 e63d 89da 1abe b5b5 823e
00000020: c2bb 003e 326c 5a3e f537 9b3e 002f 413d
00000030: 4012 543d 24c5 84be 5fd6 9b3e 53f8 883e
00000040: 34a6 103e 2637 fdbd 52ca 673e 6ecc 84bd
00000050: 0762 2fbe 3c46 96bd c360 25be caa9 3b3e
00000060: 4085 c0bb e814 79be fc11 50be 56c0 573e
00000070: e069 5f3c c77c 9b3e 1ae8 193e 4f64 8b3e
00000080: df3e 81be 5860 7abe a831 00bd c041 443d
00000090: 77aa 4ebe d75c 873e ecbf 8d3d 40f6 a5bd
000000a0: 4042 72bd c09f d73d b2f8 8cbe 3e34 793e
000000b0: 08f9 fcbd 98e4 5a3d c4e5 dabd 7249 093e
000000c0: 0ad0 1cbe a018 eabc aaf4 f6bd d615 4d3e
000000d0: f063 b83c ca68 373e 9067 babc 1c0f f53d
000000e0: 563d 99be 9022 0ebd 2135 8d3e 76e0 59be
000000f0: 0b22 11be f7f1 95be cd05 15be 1203 453e
00000100: 4069 d83b c309 30be e49f c83d e86a 123e
00000110: b933 8f3e 2459 373e 3ab7 dcbd d040 c83d
00000120: 2cb7 1ebe f25b 78be 223c 473e 42a6 72be
00000130: dab9 023e 53a4 11be 06f5 043e 617a 28be
00000140: 6c71 b13d 38fc fd3d 0b2e 97be e0e4 95bc
00000150: 6885 8f3d 00ea 2ebc f867 58be 42a2 283e
00000160: 502a 95be 20cc 2f3c 6040 733d 18d7 dfbd
00000170: 12f8 1f3e f4a7 233e e0b9 27bd bacb 0c3e
00000180: 787b 60bd fdd8 8cbe 6444 58be 6aeb 193e
00000190: c00e 68be 5084 8ebd 1014 2e3d a08d 273c
000001a0: f524 85be a2c5 90be 047e ad3d 6187 8a3e
000001b0: f510 61be fcdb 0cbe 6465 bf3d 5b9d 83be
000001c0: 3b65 823e 85eb 6abe 7a60 ebbd 33c4 00be
000001d0: aa9c 723e 30df 1ebd c839 273d c885 2ebd
000001e0: a489 2fbe 6eb5 463e c8cd fa3d 287b 22bd
000001f0: b613 3d3e 526f 5a3e b6c6 b4bd dca8 86bd
00000200: 88c0 68be 5e0e 333e 460a 8fbe 8cd7 8d3d
00000210: 68b4 183e d891 593d 0c29 f03d a0de 223c
00000220: ae2b 4e3e e005 52bd 505b f33c c433 adbd
00000230: ffe5 863e 304f aa3c ac87 303e 986c 423d
00000240: 4fe6 29be 8412 d33d a428 943d a541 8dbe
00000250: a0bf fe3d 60f0 03bd 1314 2cbe 488c c5bd
00000260: 264d 6c3e 0a2d 0d3e e67d 90be a5eb 833e
00000270: 33b0 81be 1dbd 50be a0bb 48bd 5c99 81be
00000280: 62b2 c3bd b6bd 6a3e bf06 43be 60cb 8abc
00000290: 0a27 3e3e 768b 34be cacb 8ebe 6d5c 833e
000002a0: e063 0fbd f813 bfbd f802 19be ca18 7c3e
000002b0: 9e2d 3d3e 2255 91be a020 5dbd df1f 863e
000002c0: 8085 3c3c 68bd 533d b811 013d a9a1 9abe
000002d0: c206 193e c4ca ac3d 00ee 49bd 8037 9fbb
000002e0: e6ea 1f3e 80ba a9bc 224a d9bd 08c0 ea3d
000002f0: 4501 883e 7094 9fbc 102a afbc acb8 433e
00000300: 08b3 753d e0f2 803d 3472 a53d 4026 173c
00000310: cec2 84bd b76a 853e 0227 a2bd a6e3 213e
00000320: 80c3 bebc 0667 87be c0d2 77bc a003 9ebd
00000330: a435 a5bd 7128 8c3e be8f 0ebe d461 0e3e
00000340: 7c09 a03d ea23 493e d6f2 b4bd f057 20be
00000350: 388b 013d 4cd4 8f3d 4c9c 97be 22ff 1f3e
00000360: 1881 99be 9055 923c b8f3 09bd 27a5 05be
00000370: 2185 973e d03c 133d 75ff 9b3e b848 643d
00000380: 5efd 423e 504e 6ebd 09c5 8b3e d80d 423e
00000390: ce05 40be e9b8 933e fc98 7fbe 15b0 37be
000003a0: 8af0 703e 9a9e 4fbe f58c 81be 886e 093d
000003b0: 50b2 41bd 902a a43d f760 863e 6ef9 5ebe
000003c0: 6080 bb3c 4082 0a3e 0a50 0fbe 8833 63be
000003d0: 9ccf 7fbe 64dd 90be 64f9 8b3d ec71 d43d
000003e0: 9801 ccbd 926e c0bd 90d7 443e 438a 2bbe
000003f0: a4f8 273e b0de ecbd dcc4 29be 82b2 73be
-0.117203444 -0.20657273 0.1285876 0.24005625 -0.18923602 0.11277488 -0.15122427 0.25529256
0.12571624 0.21330336 0.3031613 0.047163963 0.051775217 -0.25931656 0.3043699 0.26751956
0.14125901 -0.12364034 0.22635773 -0.06484304 -0.17127238 -0.07337615 -0.16150193 0.18326488
-0.0058752596 -0.24324381 -0.2031936 0.21069464 0.013636082 0.30368635 0.15029946 0.27224967
-0.2524328 -0.24450815 -0.031297356 0.047914267 -0.20182215 0.2643802 0.06921372 -0.08103609
-0.059145212 0.10528517 -0.2753349 0.24336335 -0.123521864 0.05344066 -0.106883556 0.13406923
-0.15313736 -0.028576195 -0.12058385 0.20027861 0.022508591 0.17911068 -0.02275446 0.119657725
-0.29929608 -0.03470093 0.27579597 -0.21277031 -0.14173143 -0.29286167 -0.14552994 0.19239452
0.0066043437 -0.17191224 0.09796122 0.14298594 0.2796915 0.17905098 -0.10777135 0.09777987
-0.15499562 -0.24253824 0.19456533 -0.23696235 0.12766209 -0.14222841 0.12984094 -0.16452934
0.08664212 0.124016225 -0.29527315 -0.018297613 0.07007867 -0.010675907 -0.21133411 0.16468146
-0.29133844 0.01072982 0.059387565 -0.10929698 0.15621975 0.15982038 -0.04094875 0.1374959
-0.05480525 -0.275093 -0.21119839 0.1503121 -0.22661877 -0.0695883 0.0424996 0.010226637
-0.26004758 -0.28275782 0.08471301 0.2705641 -0.21979125 -0.13755792 0.093455106 -0.2570599
0.25467858 -0.22941406 -0.11493011 -0.12574844 0.23692575 -0.038787067 0.04082659 -0.042608052
-0.1714235 0.19405147 0.12246281 -0.039668232 0.1846455 0.21331528 -0.088269636 -0.06575176
-0.22729695 0.1748595 -0.27937526 0.06925878 0.1491257 0.053117603 0.11726579 0.009940773
0.2013385 -0.051275134 0.029706627 -0.08457139 0.26347348 0.020789713 0.17239255 0.047466844
-0.16591762 0.10306266 0.07234314 -0.27589145 0.12438893 -0.03221166 -0.16804533 -0.09645897
0.23076305 0.13786712 -0.28221053 0.2576572 -0.25329742 -0.20384641 -0.04900706 -0.25312316
-0.09555508 0.22923931 -0.19045542 -0.01694268 0.1856958 -0.17631325 -0.27889854 0.25656453
-0.035007358 -0.093299806 -0.14942539 0.24618831 0.18474433 -0.28385264 -0.05398619 0.2619619
0.011506438 0.051694304 0.03151104 -0.30201462 0.14943984 0.08437112 -0.04929924 -0.004858911
0.1561695 -0.020718813 -0.10609843 0.11462408 0.2656347 -0.01947996 -0.021382362 0.19113415
0.05998519 0.06296325 0.08078423 0.009225428 -0.064824685 0.2605798 -0.079175964 0.15809497
-0.023286581 -0.26445788 -0.01512593 -0.07715535 -0.08066872 0.27374604 -0.13922021 0.13904506
0.07814309 0.19642606 -0.0883538 -0.15658545 0.03162691 0.07022914 -0.29611433 0.15624669
-0.29981303 0.017863065 -0.033679694 -0.13051282 0.29593757 0.035946667 0.30468336 0.055733413
0.19041964 -0.058180153 0.27298763 0.18950593 -0.18752214 0.28852013 -0.24960703 -0.17938264
0.23529258 -0.20275345 -0.25302854 0.033552676 -0.047289193 0.08015931 0.26245853 -0.21774837
0.022888362 0.13526249 -0.13995376 -0.22187626 -0.2498154 -0.28293908 0.06834677 0.103732914
-0.099612415 -0.093960896 0.19222856 -0.16751961 0.16403443 -0.11565912 -0.16579002 -0.23798564

bias f4 [32]
00000000: 0000 0000 0000 0000 0000 0000 0000 0000
00000010: 0000 0000 0000 0000 0000 0000 0000 0000
00000020: 0000 0000 0000 0000 0000 0000 0000 0000
00000030: 0000 0000 0000 0000 0000 0000 0000 0000
00000040: 0000 0000 0000 0000 0000 0000 0000 0000
00000050: 0000 0000 0000 0000 0000 0000 0000 0000
00000060: 0000 0000 0000 0000 0000 0000 0000 0000
00000070: 0000 0000 0000 0000 0000 0000 0000 0000
0.0 0.0 0.0 0.0 0.0 0.0 0.0 0.0
0.0 0.0 0.0 0.0 0.0 0.0 0.0 0.0
0.0 0.0 0.0 0.0 0.0 0.0 0.0 0.0
0.0 0.0 0.0 0.0 0.0 0.0 0.0 0.0

in_proj_weight f4 [96, 32]
00000000: b5e0 153e b815 49bd ca53 45be bcd4 3d3d
00000010: 7c80 3f3d 2bae 013e f09b e13c e0c0 37bc
00000020: 7581 593e b224 5dbe 8f2f 37be 809a 4dbd
00000030: ff86 5cbe e14a 123e 276c 213e d35b 12be
00000040: be6f c2bd 423a f73d b65f 07be 62c8 c63d
00000050: 9402 babd 269b ed3d e001 5bbe 08c0 24be
00000060: 54bb 1d3d 9129 263e 3634 09be b4cc b0bd
00000070: 8920 363e fc3a 0c3d 18e9 3dbe bc2e 453d
00000080: ab8d 2b3e 40fe 1e3c 82ed a83d a96b 273e
00000090: 7734 013e e262 b83d 0ecf 853d 5545 d1bd
000000a0: 06b5 ebbd 32b3 c73d f042 403c 7ac1 1abe
000000b0: a834 9c3c eebb c0bd 3694 53be b797 31be
000000c0: 430d 0e3e 90fe 193c 8175 063e 7ae8 20be
000000d0: f59d 51be ce08 c63d e909 5c3e f02f 2bbe
000000e0: 60bc 89bc d0a5 0cbe 9a24 91bd 9c86 91bd
000000f0: 02fb a13d 6cec 7a3d 5f45 343e fe70 54be
00000100: b0ef 243c 9627 1abe b654 d83d 1708 463e
00000110: 1878 1ebe d002 28bc 41c2 e8bd 10f3 42be
00000120: 50f7 9fbc 75df 393e 7853 96bc 40aa 15be
00000130: 14dd 1a3d 90b7 d73c e0ff 47bc 078d 15be
00000140: ff00 093e f9c8 073e 6e2f b43d 2e12 e0bd
00000150: 4c62 6abd d8cd 44bd a689 20be 987d e33c
00000160: fe5d cd3d 1a38 ca3d e676 c83d 30db c03c
00000170: a0cb 6c3c acac b2bd 3139 353e 6916 f4bd
00000180: ec6b 00be 8461 f2bd 8ebf dfbd 06f5 bc3d
00000190: af37 063e 5fee 263e b62c e83d f2e8 32be
000001a0: 319a 12be 7a33 1bbe 6664 a7bd 82dc ae3d
000001b0: 383a 893c b00f cfbc 4094 a0bd 78fd f5bd
000001c0: 28aa c13c 63f7 083e 108a 2dbe 8b7c c2bd
000001d0: 0243 b83d da2c c1bd acf9 46bd f9e0 593e
000001e0: 1e6b 883d 5337 2fbe 4d74 093e 40f6 10be
000001f0: ed54 063e 43d9 fbbd da87 fc3d bbfe 253e
00000200: 4ae5 59be d7d2 c3bd 2bf2 47be 5bf2 593e
00000210: 2d96 083e cd6b 4d3e f040 a1bd 0f96 35be
00000220: 5ba6 29be 076e 173e d2e9 41be 1a59 f43d
00000230: 2c7a 0ebd c5da 4dbe ab4d 053e 65ae 0b3e
00000240: 4977 313e 93b3 4c3e 792d 173e 7051 b83c
00000250: 998e 07be faf3 4abe 2428 16bd 569a a2bd
00000260: 091a 533e 601e cdbc 1fd9 1ebe a033 99bc
00000270: b401 a0bd 643e 40be 0018 4ebd b3dd 133e
00000280: ca94 13be 90d4 fbbc bb5c 373e f460 c2bd
00000290: acde 7cbd 07a6 543e f6f4 b7bd 210e 1d3e
000002a0: 5ed0 40be 3ddc 3bbe cc99 673d b847 9cbc
000002b0: 36cf 9d3d 0ed7 e23d 3459 0c3d 571a 273e
000002c0: f244 3dbe f2f4 f8bd 7d8e 2d3e 287e c13c
000002d0: dce9 09bd 9d5e 2d3e a0f7 a83b c435 113d
000002e0: 5425 343d 3866 3cbd 1368 223e c23a f83d
000002f0: bc12 243d e7ed 21be d807 5bbd 5761 57be
00000300: a418 333d e426 323d 3705 4a3e d0dc 3fbe
00000310: 5bd7 363e a239 8abd b920 2b3e 0d7a 4d3e
00000320: e739 5cbe 8893 95bc 1f3b c0bd c69e b03d
00000330: 237c 303e f8d1 babc fc4d 0e3d 9847 c6bc
00000340: 8c11 a0bd 2bc0 543e a4ac 67bd 9225 53be
00000350: b132 333e 63fd 583e 6aed 22be 0441 8bbd
00000360: dd55 f7bd 139f 213e 4e36 ca3d 7ee5 ca3d
00000370: b535 4f3e 1c2d 063d 3689 fc3d 56f4 48be
00000380: 2d3a 183e ec88 2fbe f8d1 e73c e75b 18be
00000390: c25e a33d c758 1b3e d037 323c 8487 0c3d
000003a0: 06ce 48be 6e2b b43d 9c7d 67bd f136 2dbe
000003b0: 761e 20be 3f20 0d3e 6cba 023d 4fae 363e
000003c0: c945 163e 5bb5 193e 1774 363e 5c54 d5bd
000003d0: c0bf 9fbd abf2 113e 0745 1a3e 02fe 30be
000003e0: 24a2 1d3d 4288 aa3d 4c59 6f3d f945 cfbd
000003f0: a6ec 9d3d 798b 32be 5fd1 3e3e 540f 50bd
0.146365 -0.04909298 -0.19270244 0.046345457 0.04675339 0.12664096 0.027540177 -0.011215419
0.2124079 -0.2159603 -0.17889236 -0.05019617 -0.21535872 0.14286377 0.15763913 -0.1429284
-0.094939694 0.12071659 -0.13220105 0.09706189 -0.09082523 0.11601858 -0.21387434 -0.16088879
0.03850873 0.16226794 -0.13398823 -0.08632794 0.17785849 0.03423594 -0.1854595 0.048140272
0.16753261 0.009704173 0.08248426 0.16349663 0.1261767 0.090032354 0.06533633 -0.10218302
-0.11509137 0.09750976 0.011734709 -0.15112868 0.019068077 -0.09410845 -0.20662007 -0.17343031
0.13872246 0.009399071 0.13130762 -0.15713683 -0.20470412 0.09669648 0.21488155 -0.16717505
-0.016813457 -0.13735127 -0.07087059 -0.07105753 0.07909204 0.061260626 0.17604588 -0.20746228
0.010066912 -0.15054163 0.10563032 0.19339024 -0.154755 -0.010254577 -0.11365176 -0.19038033
-0.019527107 0.18151648 -0.018350348 -0.14615726 0.037808493 0.026332647 -0.012207001 -0.14604579
0.13379286 0.13260259 0.08798109 -0.109409675 -0.05722265 -0.04804787 -0.15677509 0.027769849
0.10027693 0.09873982 0.09788303 0.023542017 0.014452845 -0.08724341 0.17697598 -0.11918337
-0.12541169 -0.11835006 -0.10925208 0.09226422 0.13107179 0.16301869 0.11336653 -0.17471674
-0.14316632 -0.15156356 -0.08173446 0.08538152 0.016751394 -0.025276035 -0.078407764 -0.12011236
0.023640707 0.1337562 -0.16947198 -0.09496411 0.08997156 -0.09432383 -0.04857795 0.21277227
0.06661056 -0.17110948 0.13423271 -0.14156437 0.13118334 -0.12297299 0.12330599 0.16210453
-0.21278873 -0.09561699 -0.19525973 0.21283858 0.13338538 0.20060654 -0.07873714 -0.17733024
-0.16567366 0.14788066 -0.18936852 0.11931057 -0.03478448 -0.20102985 0.13017909 0.13640745
0.1733066 0.19990377 0.1476344 0.02249977 -0.1323799 -0.19819632 -0.036659375 -0.079395935
0.206154 -0.025038898 -0.15512513 -0.018701375 -0.07812825 -0.187738 -0.050315857 0.1444004
-0.14412227 -0.030741006 0.17906468 -0.094911486 -0.061735794 0.2076646 -0.089822695 0.15337421
-0.18829486 -0.18345733 0.056543157 -0.019077167 0.07705538 0.11076175 0.03426476 0.16318642
-0.18483332 -0.121560946 0.16948886 0.023619726 -0.03367029 0.16930623 0.0051564723 0.035451666
0.04398091 -0.04599592 0.15860014 0.12120582 0.04005693 -0.15813409 -0.053474277 -0.21033226
0.04372467 0.04349412 0.19728552 -0.18736577 0.17855589 -0.06749274 0.16711701 0.2006609
-0.21506463 -0.018258825 -0.093862765 0.08624034 0.17234854 -0.022805199 0.03474234 -0.02420406
-0.07815847 0.20776431 -0.056561127 -0.206198 0.17499806 0.2119041 -0.15910879 -0.0679951
-0.12076924 0.15783338 0.09873639 0.099070534 0.20235331 0.032757863 0.123308584 -0.19624457
0.14865942 -0.17142075 0.028298363 -0.14878808 0.07977058 0.15170585 0.010877565 0.034308925
-0.19609842 0.08797346 -0.056516275 -0.1691549 -0.1563662 0.13781832 0.031916067 0.17839931
0.14675058 0.15010588 0.17817722 -0.10416481 -0.07800245 0.14252727 0.15065394 -0.17284396
0.038484707 0.0832677 0.05843477 -0.10120768 0.07711153 -0.17436017 0.18634556 -0.050795868

in_proj_bias f4 [96]
00000000: 0000 0000 0000 0000 0000 0000 0000 0000
00000010: 0000 0000 0000 0000 0000 0000 0000 0000
00000020: 0000 0000 0000 0000 0000 0000 0000 0000
00000030: 0000 0000 0000 0000 0000 0000 0000 0000
00000040: 0000 0000 0000 0000 0000 0000 0000 0000
00000050: 0000 0000 0000 0000 0000 0000 0000 0000
00000060: 0000 0000 0000 0000 0000 0000 0000 0000
00000070: 0000 0000 0000 0000 0000 0000 0000 0000
00000080: 0000 0000 0000 0000 0000 0000 0000 0000
00000090: 0000 0000 0000 0000 0000 0000 0000 0000
000000a0: 0000 0000 0000 0000 0000 0000 0000 0000
000000b0: 0000 0000 0000 0000 0000 0000 0000 0000
000000c0: 0000 0000 0000 0000 0000 0000 0000 0000
000000d0: 0000 0000 0000 0000 0000 0000 0000 0000
000000e0: 0000 0000 0000 0000 0000 0000 0000 0000
000000f0: 0000 0000 0000 0000 0000 0000 0000 0000
00000100: 0000 0000 0000 0000 0000 0000 0000 0000
00000110: 0000 0000 0000 0000 0000 0000 0000 0000
00000120: 0000 0000 0000 0000 0000 0000 0000 0000
00000130: 0000 0000 0000 0000 0000 0000 0000 0000
00000140: 0000 0000 0000 0000 0000 0000 0000 0000
00000150: 0000 0000 0000 0000 0000 0000 0000 0000
00000160: 0000 0000 0000 0000 0000 0000 0000 0000
00000170: 0000 0000 0000 0000 0000 0000 0000 0000
0.0 0.0 0.0 0.0 0.0 0.0 0.0 0.0
0.0 0.0 0.0 0.0 0.0 0.0 0.0 0.0
0.0 0.0 0.0 0.0 0.0 0.0 0.0 0.0
0.0 0.0 0.0 0.0 0.0 0.0 0.0 0.0
0.0 0.0 0.0 0.0 0.0 0.0 0.0 0.0
0.0 0.0 0.0 0.0 0.0 0.0 0.0 0.0
0.0 0.0 0.0 0.0 0.0 0.0 0.0 0.0
0.0 0.0 0.0 0.0 0.0 0.0 0.0 0.0
0.0 0.0 0.0 0.0 0.0 0.0 0.0 0.0
0.0 0.0 0.0 0.0 0.0 0.0 0.0 0.0
0.0 0.0 0.0 0.0 0.0 0.0 0.0 0.0
0.0 0.0 0.0 0.0 0.0 0.0 0.0 0.0
