pre_trained_models/mosi_aligned_L_TRANSLATOR_2.pt (torch, 113245 bytes, 23 tensors)

multi f4 [1, 32]
00000000: b4ed 963e a567 433b 268d a2bd 19cb f73d
00000010: c33f 84be 37ac c33d 5c6d 903e da62 053e
00000020: 17b7 a0bc 455f b3bd afdc 9dbe 538f 9bbe
00000030: e5e3 9abe 0474 853e 6a20 82bc f6bb ad3e
00000040: 64ce a03e 5bb6 a8be 4f24 87be 7881 193e
00000050: 2080 183d 91c6 b13e b6d7 c3be 25c7 dc3e
00000060: 5e94 c8be 2dd6 973e 15a0 bfbd 3292 253e
00000070: 9946 4dbe 810c ec3d eccb 56be 0cfd 81be
0.29478228 0.0029816416 -0.07937078 0.12099285 -0.25829896 0.09554332 0.28208435 0.1302599
-0.019618554 -0.087584056 -0.3083243 -0.30382785 -0.30251995 0.26065075 -0.015884597 0.33932465
0.31407464 -0.32951626 -0.2639489 0.14990795 0.037231565 0.34721807 -0.38250512 0.43120685
-0.39175695 0.2965559 -0.09356705 0.1616905 -0.20046462 0.115258224 -0.20976228 -0.25388372

weight f4 [50, 32]
00000000: cd9b b43e b447 a03f 31af 543f 1b85 0fbe
00000010: 480f 93bf e70b 24be d6db 233f e314 8f3f
00000020: 4b58 9dbf 91c4 74bf 4959 24bf 1941 6cbc
00000030: b901 75be 26d5 6b3e 8a29 6c3f 43dc 32bf
00000040: d50c 0cbf e8d0 aabe f9d7 89be 3a20 a0bf
00000050: 9deb f8bf dbe8 2dbf 0072 1d40 ac9e a1bf
00000060: b025 d439 e192 943d 6176 f9be 8112 89bf
00000070: cdba f1bd 01ed 763f 8ad8 3cbf fe60 de3e
00000080: 0d08 d13e c0c9 d8bf 5540 b4bf 9d1b 08bf
00000090: a400 273f 3d29 e73f 41df 45bf 6acf 3c3c
000000a0: 098a 24bf ef5d cebd 79b4 533f 62f2 7c3f
000000b0: b77c 2f3f 583b 5f3f 646b 80bf a4ad fe3e
000000c0: 0cba e4bd 58bf d4bf 1ec6 783e d618 ce3e
000000d0: 3056 99be 43ba 883f 2490 d53f 2077 0ec0
000000e0: f007 89bf d13a 88bf dcfe 3ebe 906d dc3e
000000f0: aeec 1e3e 84bb eb3f 93a9 b43f 8a68 0a3f
00000100: 2422 52bf d48d 3140 2303 593f a7ba cb3d
00000110: 9487 babb 733a b2bf cbed 31bf 6a74 8cbf
00000120: f71a 383e 159c 5d3f c8b8 513d 4581 983f
00000130: 2573 763f ff88 5dbf 1922 82be c729 fb3e
00000140: 1e29 f8be 48ef 22bf 6e04 4f3f f740 c53e
00000150: 4b1c 96be 3fc7 3fbe 52ad 3fbf 3264 2cbe
00000160: 74eb b1bf a6ad ec3f a5cc e83d 565f 09bf
00000170: e0e5 b8bc 24dd d93f 99ae 69bf d216 143f
00000180: 263d 5bbf 8549 4a3f 336e 4fbf 6354 83bf
00000190: 5406 00c0 209e 693f 2246 9f3f 1b3e 933d
000001a0: b5c5 393f fada 0fc0 fd04 1b3f 7966 f0bd
000001b0: b2e0 0b3b 6a9a f43f ee62 0e3c 6f87 55bf
000001c0: 9840 143f 96e4 9d3e c34b dd3c 559a fd3e
000001d0: 8852 9dbf 7b02 80bf b06b 24c0 142f 1f3f
000001e0: fbc3 8ebf a84a 413e 4d53 34bf 18ce 05bf
000001f0: ec9d 9ebf f4c5 d43f 3f6b 5c3f d79d 57be
00000200: d678 f0bf c2a3 303f 45c5 4140 0faa 063f
00000210: 4d1c 05bf 3460 d5be 821b f03e dc93 0840
00000220: e81e 6dbf d63f f83e b756 803e 8269 a6be
00000230: a560 b93e c7f0 c63f 9c1f febf ff77 9a3f
00000240: 17b0 bc3e 11b6 12bf baa5 5cbe 81e5 c93f
00000250: 5d8a bbbf 09c8 7a3f 34f2 12bf 43ae 1abf
00000260: fb0a b7bf 3b67 ccbf 0ecf a9bd 06fd d9be
00000270: 97bf 35bf 7995 05bf b6b4 cdbf e228 86bf
00000280: 0d81 cfbf 1a8d 62bf cb36 57bf 845b 313f
00000290: e048 fe3f 24ce 10bf 7457 febe 9598 51bd
000002a0: 1788 823f 2999 753f 6797 043f 648d 0dbe
000002b0: f25a 973e a160 513f af97 203e cbed b73e
000002c0: 6f28 ae3f d438 ecbd 214e a93e d09e cdbf
000002d0: 036c 95bf 05b3 90bf ea26 523f 2a11 4f3f
000002e0: 4e21 babd 9ad9 79bf 9820 f9be 9880 0cbf
000002f0: 10cc e9be 6ca8 2b3f 2a94 a43e f1d0 8abf
00000300: 00d0 78bf 2481 abbe a26e 003f 3c9a b9be
00000310: e286 203f 7c4d e6bd 1069 d03e bf6d 2740
00000320: 84b5 95ba ffea b6bf 60d0 84bf 38c2 8b3f
00000330: 6fa8 863f 19f9 06bf a6b1 893f 49dc 233e
00000340: 3f54 d3bf eb03 5abf def3 fcbd 09b1 04be
00000350: f9f7 cd3e 0441 bebe ac35 983f fbb8 d53f
00000360: f506 6a3f 96ef e23f 184c d1be 8644 54bf
00000370: aaea 683f 504b 2b3e 764d e5be 15fd 4e3d
00000380: caf8 973f 0068 09bf 4795 bebf ce8f 74bb
00000390: 189d 3f40 cebc 8a3f d0c2 b63f 6f59 7cbd
000003a0: 097f b53e 56a7 a0bf 5a0d ad3f 5bd1 27bf
000003b0: 51ef 153d 0d5d dfbf 4c7d 1fbf 0012 273e
000003c0: 6653 29bf 5e33 d8be fe73 08c0 6e9a 25bf
000003d0: 6921 603f 410c a13e 1d0f 00be 377b 803f
000003e0: c93d 3bbf 6dc5 9dbc f548 83bf b091 7bbe
000003f0: 3efa 58bf 3a7a e53e e3ac a3be b236 133e
0.35275117 1.2521882 0.8307982 -0.1401562 -1.1489038 -0.16020165 0.6400732 1.1178249
-1.229257 -0.95612437 -0.6419874 -0.014419817 -0.23926438 0.23030528 0.92250884 -0.6986734
-0.5470708 -0.33362508 -0.26922587 -1.2509835 -1.9446903 -0.67933434 2.460083 -1.2626548
0.0004046387 0.072545774 -0.48723128 -1.0708772 -0.118032075 0.9645539 -0.7376791 0.43433374
0.40826455 -1.6936569 -1.4082133 -0.53167135 0.6523535 1.805946 -0.77293783 0.011524061
-0.64273125 -0.1007651 0.82697254 0.98807347 0.68549675 0.87199926 -1.0032773 0.49741852
-0.11168298 -1.6620893 0.24294326 0.40253323 -0.29948568 1.0681843 1.6684613 -2.2260208
-1.0705547 -1.0642949 -0.18651909 0.4305234 0.15519974 1.84166 1.411425 0.54065764
-0.82083344 2.7742815 0.8477041 0.099477105 -0.0056924317 -1.3924087 -0.6950347 -1.0973027
0.17979036 0.8656629 0.05120161 1.191445 0.96269447 -0.86537164 -0.2541664 0.4905531
-0.4846887 -0.63646364 0.80866134 0.38526127 -0.2931846 -0.1872835 -0.7487384 -0.16835096
-1.389998 1.8490493 0.11367158 -0.53661096 -0.02257055 1.7020612 -0.9128204 0.5784732
-0.8564018 0.7901843 -0.81027526 -1.0260128 -2.0003862 0.91256905 1.2443278 0.0718958
0.725673 -2.2477403 0.60554487 -0.11738295 0.0021343646 1.9109623 0.008690579 -0.8340978
0.5791106 0.3083846 0.027013665 0.49531808 -1.2290812 -1.0000757 -2.5690727 0.6218121
-1.1153558 0.18876135 -0.70439607 -0.522676 -1.2391944 1.662291 0.86101145 -0.21056305
-1.8786876 0.68999875 3.0276654 0.5260324 -0.5199631 -0.4167496 0.46895987 2.1340246
-0.92625284 0.48486203 0.25066158 -0.3250237 0.36206546 1.554223 -1.9853396 1.206787
0.36853096 -0.5730906 -0.21547595 1.5773164 -1.46516 0.9796148 -0.5740082 -0.6042215
-1.4300226 -1.5969003 -0.08291446 -0.42575854 -0.7099547 -0.521812 -1.6070774 -1.0481226
-1.6211258 -0.88496554 -0.8406798 0.69280267 1.986599 -0.56564546 -0.49676096 -0.051170904
1.0197781 0.9593683 0.5179352 -0.13823467 0.29561573 0.8178807 0.15682863 0.3592361
1.3606089 -0.115342766 0.3306742 -1.6064091 -1.1673588 -1.1304632 0.8209063 0.80885565
-0.090883836 -0.9759766 -0.4865768 -0.5488372 -0.456635 0.67053866 0.3214429 -1.0845014
-0.9719238 -0.33496964 0.5016881 -0.36250484 0.62705815 -0.11245248 0.40705156 2.6160734
-0.0011421894 -1.4290465 -1.0376091 1.0918646 1.0520152 -0.5272384 1.0757339 0.16002001
-1.6510085 -0.8516223 -0.123512015 -0.12958159 0.4022825 -0.37158978 1.1891379 1.6697077
0.91416866 1.7729366 -0.40878367 -0.8291706 0.9098307 0.16727948 -0.4478566 0.050534327
1.1872799 -0.53674316 -1.4889306 -0.003731716 2.9939632 1.0838869 1.4278202 -0.061608728
0.35448483 -1.2551067 1.35197 -0.65553826 0.036605183 -1.7450272 -0.6230056 0.1631546
-0.6614288 -0.4222669 -2.1320796 -0.64688766 0.8755098 0.3145466 -0.12505765 1.0037602
-0.7314115 -0.019259179 -1.025664 -0.24567294 -0.8475684 0.44819814 -0.3196784 0.14376333

weight f4 [4, 32]
00000000: 8f83 48bf 010d a2bd 42fa 693f ba5f e43f
00000010: cfcc 51bf 42a1 d6be 46ee 643e 06bb c7bf
00000020: 22fd ac3e 4eb4 dd3f 2e66 6ebf 1169 29bf
00000030: f482 ba3e be98 69bf 96d8 6dbf d5d8 563e
00000040: 76b8 c13f 600e c13e 6db6 20bf 27fe 253e
00000050: 8901 a83e 64cf 89bf 86c2 c0be 9351 ff3f
00000060: f94b 9abe fae8 613f ec19 7f3e 9272 c3bf
00000070: 175b a63e fed4 2ebe 97a3 a83f 6e25 2fc0
00000080: 0bfc f73f e872 25bf b80a e9bf 8ba9 e0be
00000090: f335 77bf 7a7c 52bf 72cf 583f cd32 c7be
000000a0: 34e1 ea3e f7f6 c6bf 1a07 2fbf 7f7d 8b3f
000000b0: 4c8d 6fbf 0000 dabe 9214 4f3e ce37 683b
000000c0: af5b 8bbe 75de 663f ce97 edbe e705 003f
000000d0: 3b30 42bf d564 55be d4ed 92bb c754 81bf
000000e0: a746 f9bc e5fe bbbe 2505 90be 0e87 b8bf
000000f0: 4c8e 91bf 3426 04bf 8dc6 653f c27e bfbe
00000100: bf82 193f d91d 9a3f bf6a 58be f41a a8be
00000110: ce9d 8f3e e04b 5dbd 6a7d d5be 746c 72be
00000120: db3d d6be ac95 a8be dce0 073f 41e8 dcbf
00000130: 4955 b2bf da3c 14c0 6b1d e43f 936c 8abf
00000140: 25c7 ad3f d80d 4f3f b4fa 033f 927f 4f3f
00000150: 7d57 2f3d c390 0fbe 5e5e b0bf 734b bb3f
00000160: a081 fdbf 0c08 31bf 386f c13e 5504 8fbf
00000170: eb50 16be abd8 49bf 735b e9bf 0f6b 663e
00000180: a939 903f dcbf 80bf 1483 a4bf 0a6f 95bf
00000190: 6382 70bf 2ae2 0c3f 1097 a63f fc6d ca3e
000001a0: a815 f6be 75fa 4cbe ac35 903f cd6f f13e
000001b0: 465a 173e 40c3 2e3d 4db2 c63d 21af 23bf
000001c0: f1c9 c9bf 20cb babf fc47 843f a63e 643e
000001d0: 4fba f1be 3ca8 50bf 2114 28be 76b0 3d3f
000001e0: 6028 c83d e68c e43e a296 7ebf 1271 8d3e
000001f0: 1a56 17c0 a2c2 2c3e a7f8 28be c17c b2be
-0.7832574 -0.079126365 0.9139749 1.7841713 -0.8195314 -0.41919905 0.22356519 -1.560395
0.33786875 1.732065 -0.93124664 -0.66175944 0.36428034 -0.9124869 -0.9290861 0.20981152
1.5134418 0.3770628 -0.6277836 0.16210233 0.3281367 -1.0766416 -0.3764841 1.994677
-0.30136088 0.8824612 0.24912232 -1.5269339 0.3249137 -0.17073438 1.3174924 -2.7366595
1.9373792 -0.6462846 -1.8206396 -0.4387935 -0.96566695 -0.82221186 0.84691536 -0.38905945
0.4587494 -1.5544118 -0.6837021 1.0897673 -0.93574977 -0.42578125 0.2022269 0.0035433653
-0.27218387 0.9018319 -0.4640488 0.50009006 -0.75854844 -0.20839246 -0.0044839177 -1.0103997
-0.030429197 -0.36717907 -0.28128925 -1.4416215 -1.137155 -0.51620793 0.8975609 -0.37401396
0.5996513 1.2040359 -0.2113447 -0.32833064 0.28050083 -0.05402744 -0.41697246 -0.23674184
-0.41844067 -0.3292669 0.53077483 -1.7258378 -1.3932277 -2.316214 1.7821478 -1.0814384
1.3576399 0.808805 0.5155442 0.8105403 0.042808045 -0.14020066 -1.3778799 1.46324
-1.9805183 -0.69152904 0.37780166 -1.1173197 -0.14679305 -0.78846234 -1.8231033 0.22501777
1.1267596 -1.0058551 -1.2852502 -1.1674511 -0.93948954 0.550326 1.3014851 0.39537036
-0.48063397 -0.20017417 1.1266379 0.4715561 0.1478053 0.042666674 0.09701977 -0.639391
-1.5764753 -1.4593239 1.0334468 0.22289523 -0.47212455 -0.81506705 -0.16413929 0.74097383
0.09773326 0.44638747 -0.994486 0.27625328 -2.3646302 0.16871122 -0.16501103 -0.34860805

in_proj_weight f4 [96, 32]
00000000: 7d3e 0cbe 50fd 7a3e 8779 eb3b 5570 15bd
00000010: 271c 71bc 02af 2a3e 0960 4e3e a73f 783d
00000020: c9a3 3bbe 70f3 813d bf29 763c ff2d 723d
00000030: 1aa1 f63c 8760 5bbe 9ac1 533e 8f4a 0abd
00000040: dea6 953d 5e3d 14be 25c2 6fbc bdec 37be
00000050: 0596 3fbe c843 5bbe bef2 fd3c 6f4c 84bc
00000060: e280 01be 3ee7 203e 2948 34bd 4f50 dabd
00000070: b58f 66be de33 d43d a34c 85be 6b3a 233e
00000080: 4065 413e 56df 22be ae12 e4bd d0ea 113e
00000090: ea2b 343e 07cb 49bd 714d ebbd 2986 6abe
000000a0: f092 223e ab2f eebd d87b 073e 4f2d cabd
000000b0: c0a7 18be faa4 93bc 3b0f db3d f75c b23c
000000c0: 0d40 d13d d3c7 793d bc53 e53d 8ecd e1bd
000000d0: 600a 143e 1e81 46be 016a 253c bcc8 4f3d
000000e0: 9816 c539 f4c2 79bc 7dba d4bd 46e4 993d
000000f0: 56a9 e63d 0f0d 6f3e 9d47 6cbe f763 4dbe
00000100: 7948 de3d 00ab bf3d e457 43be a712 b03d
00000110: f4d0 94bd f9a2 e9bd 4c34 18be fe99 03be
00000120: 60cb 123e d076 87bd 68ef 35be e60d 2c3e
00000130: 3960 b93d b3b1 9c3d 3cae e73c 4167 2f3e
00000140: 2d1a 48bc fed5 0b3e 0673 18be 3af7 eebd
00000150: 1308 cd3c 318b febc 46b3 eb3d 63f3 0bbe
00000160: 98af 833d 3c2c 1fbb 4016 8a3d 578a ca3d
00000170: bebf 29be 36ff 543e 8b4b 4a3e 406f 27bd
00000180: 4a02 bc3d 9a90 253e bc09 28be b6dc d8bd
00000190: 981a 023c 6187 0f3e a429 2d3e d7f5 05be
000001a0: 5a42 e43d c5cf 633e 5d5d a53c 2c41 0e3e
000001b0: b072 eabd 93bb 3f3c a0db edbc 81bc d73d
000001c0: 1cc4 c9bb e537 1e3e e1dc 333b 1547 e93d
000001d0: 346f d5bd 7070 f6bd 9145 0f3e 63f0 343e
000001e0: 6a5b df3d ab68 07bd 2a65 3b3e a670 6ebd
000001f0: 58c2 a53d 6d99 293e dfd2 b2bd 2f9c e5bd
00000200: 7342 283d 2575 16bd 2730 883c e823 443c
00000210: f812 cabd 2801 95bd 7834 30bd 14aa 87bd
00000220: 2085 593e e180 4f3e 2c42 2dbd fe44 053e
00000230: 2b32 5a3e 91a0 3c3e ffb9 c1bc 79be 8d3d
00000240: e20f 4d3d 0418 3bbd 937f 1dbe 2cb5 9abd
00000250: 60cc 8dbd 713d da3d f5a0 2abe 5af7 e4bd
00000260: d52e 243e 235b 26be 0ca0 a7bc debc 52be
00000270: 1311 153e ca58 d2bd b0e3 fb3c 7bbc 593e
00000280: 4f7f 603e 7f91 35bc 8955 50bd 16c6 95bd
00000290: 1b35 37bd 556d 3b3d 9b2c 0abe d2fc 283e
000002a0: eccf edbd f698 113c 5986 3bbe c83c b2bd
000002b0: e328 283e cb80 59be c0a5 353e 6e12 02be
000002c0: 49bb 383e d9fd 90bb 100e 3abe cf77 093d
000002d0: f255 6f3e dea3 f53d 271f 1b3e 3784 a5bc
000002e0: 398c c73c ab08 acbc a562 d3bd f8df 653e
000002f0: b61e f33d 8dd6 62be cb4a 4bbe 58ef 9c3c
00000300: d351 6f3e ef7f 233e 57df a63d db78 7f3c
00000310: 543b 9f3d 87e6 423e 09ee 363e 5a12 8bbd
00000320: 49c4 17be 5270 93bd edf9 bcbd 2cf7 aa3c
00000330: e3c1 3cbd 2174 51be 45e1 ac3d c243 26be
00000340: 2e68 5c3d 9ea0 07be 92ef 72bd 5f42 f6bc
00000350: ceff 103e 62f0 d8bd cede 01be 0e52 2f3e
00000360: 0c26 3ebd a1ad eebb 6a21 aabd 73dc 64bb
00000370: 0986 053e 2700 2fbd cade e73d 70b8 48be
00000380: 005d 57be 35f9 443e 4ea7 fc3d ed73 f33d
00000390: 7dac 37be 11d7 bbbd b32d cc3b 1f80 cfbb
000003a0: 59da 273e 5b62 94bd 2a61 283e 2c2c 503e
000003b0: 9aab fd3c 7667 433d 244a 813a 3cae 3abe
000003c0: 7497 18be 1d16 0dbd b466 1e3d 6d90 4cbd
000003d0: 4dc9 093e b04a 113e 3f6c c63d db12 543e
000003e0: 9329 08be 743c ffbd 9f9a 103e 1892 fc3d
000003f0: 5150 42bd c409 943d 936e 403e 79c2 13bd
-0.13695712 0.24510694 0.007186118 -0.03648408 -0.014716185 0.16668323 0.20153822 0.06060758
-0.18324198 0.0634526 0.0150246015 0.059125897 0.030106116 -0.21423541 0.20679322 -0.03376251
0.07307218 -0.14476535 -0.01463369 -0.17961402 -0.18709572 -0.21412575 0.030999538 -0.016149728
-0.12646821 0.15713212 -0.04401413 -0.10659849 -0.22515757 0.103614554 -0.26035032 0.15940253
0.1888628 -0.15905508 -0.11136375 0.1424973 0.17594877 -0.049265888 -0.1148938 -0.2290274
0.15876365 -0.11630186 0.13230836 -0.09871923 -0.14907742 -0.018023003 0.10696264 0.021772845
0.10217295 0.060981583 0.11197612 -0.110255346 0.14457083 -0.19385192 0.010096074 0.050728545
0.00037591602 -0.015244234 -0.10387132 0.07514243 0.11262767 0.23344825 -0.23074193 -0.20057665
0.10853667 0.093587875 -0.19076496 0.08597308 -0.07266417 -0.11408038 -0.148637 -0.12851712
0.14335394 -0.066144586 -0.17767107 0.16802177 0.09051556 0.07651081 0.028281324 0.17129232
-0.012213272 0.1365585 -0.14887628 -0.116682485 0.025028264 -0.031072231 0.11508803 -0.13667063
0.06429976 -0.002428784 0.06742525 0.098896675 -0.1657705 0.2080048 0.1975538 -0.04087758
0.09180124 0.16168442 -0.16409963 -0.10588972 0.007940911 0.14016487 0.16910416 -0.13082062
0.11145468 0.22247227 0.02018612 0.13892049 -0.11447656 0.011702436 -0.02903539 0.10534001
-0.0061574113 0.1545101 0.0027444887 0.11390511 -0.10421601 -0.120331645 0.13991381 0.17669825
0.10906108 -0.033058804 0.1830031 -0.0582129 0.08093709 0.16562434 -0.08731627 -0.1121143
0.041078996 -0.03673281 0.016624523 0.011971451 -0.09866899 -0.07275611 -0.043018788 -0.06624237
0.2124219 0.20264007 -0.042299435 0.130146 0.213082 0.18420626 -0.02364826 0.069210954
0.050063975 -0.0456772 -0.15380697 -0.07554087 -0.06923747 0.1065625 -0.16662963 -0.11179991
0.1603349 -0.16245703 -0.020462058 -0.2057986 0.14557295 -0.102708414 0.030748218 0.21263306
0.21923564 -0.011082052 -0.050862823 -0.073131725 -0.04472838 0.045758564 -0.13493578 0.16502693
-0.116119236 0.008886566 -0.18312968 -0.08702999 0.16421847 -0.21240537 0.1773901 -0.12702343
0.18040194 -0.0044247922 -0.18169427 0.033561524 0.2337263 0.11994146 0.15148602 -0.020204647
0.024358856 -0.021000227 -0.10321549 0.22448719 0.11871092 -0.22152157 -0.1985275 0.019157097
0.23371057 0.15966772 0.081480674 0.015592779 0.07774988 0.19033252 0.1786424 -0.0679061
-0.1482097 -0.07199158 -0.09227357 0.020869814 -0.046083342 -0.20454456 0.08441404 -0.16236785
0.05381029 -0.13244864 -0.059310503 -0.030060945 0.14160082 -0.105927244 -0.1268265 0.17121145
-0.046423003 -0.007283882 -0.083071545 -0.0034921437 0.13039412 -0.042724755 0.113217905 -0.19601607
-0.2103157 0.1923569 0.12336598 0.118873455 -0.17936893 -0.0917188 0.0062310337 -0.006332412
0.16391887 -0.07245322 0.16443315 0.2032935 0.030965615 0.04770609 0.0009864015 -0.18230528
-0.14901525 -0.034444917 0.038672164 -0.049942423 0.13455696 0.14188647 0.09688615 0.20710318
-0.1329711 -0.124627024 0.14121483 0.12332553 -0.047439877 0.07228425 0.1879218 -0.036074135

in_proj_bias f4 [96]
00000000: ea92 343d 4669 b03c 8372 52bd 316f 8b3b
00000010: 1227 90b9 1f6a 953c 9f43 9c3c 1015 40bc
00000020: 1632 13bd ddf1 323c 62ff 4abc 23c5 3abb
00000030: 3434 19bd fe67 efbc ecd2 dabb bb0d 22bd
00000040: da94 a33c 5892 b9bc 54a6 393a 5f32 233d
00000050: 0156 9d3a 36c6 cd3c 6da6 04bd 654a 56bc
00000060: 1c0e 9b3c bb20 d7bc 1aee 9f3c 4757 c0bc
00000070: f633 903c 11df 90bc cf3d 833b 7038 7ebc
00000080: a020 98b3 c5c7 a536 b5f9 a0b3 ab57 c235
00000090: 72f8 9eb7 1725 c2b5 9962 0536 d78a 8ab5
000000a0: 7099 15b5 e139 3d37 ab94 98b6 72c6 b036
000000b0: 2d1f ec36 c2d3 8bb6 e8ef 3db6 f579 dfb6
000000c0: 0362 16b6 bf3b 46b6 a3fd 5f36 00bd 9236
000000d0: 9c24 a036 a529 b535 fbcd 5ab7 1303 79b6
000000e0: 24bc 0635 1af7 44b6 a231 8936 1ab9 c937
000000f0: 83a4 18b6 7054 2c35 d8a6 0e36 360b 40b6
00000100: 8873 f2bc 13b6 083d fd31 debc 3250 d53c
00000110: 797e 3bbc 5113 b5bc b45d 4a3c 2199 d73c
00000120: 66a9 7fbc 2529 4a3c 8bd5 4f3b 99a4 c5bb
00000130: 690c f7bc c16e 053d af38 1c3d 4441 7e3c
00000140: 3bd1 07bd 93d9 61bc 263b 183d 2877 033d
00000150: bc6d 1d3d de71 b8bc f8dd 1dbd 7e10 b3bb
00000160: 26f7 aa3c 17bc b03c e4d9 87bc c75d 51bc
00000170: 42e5 813c 3593 d7b9 ac54 df3c 42b6 a73b
0.04408542 0.021534573 -0.051378738 0.0042551984 -0.0002749493 0.018239079 0.019075213 -0.011723772
-0.035936438 0.0109219225 -0.01238999 -0.002849885 -0.0374033 -0.029224392 -0.006677976 -0.039563876
0.019968439 -0.02265279 0.0007081975 0.03984296 0.001200378 0.025118928 -0.03238528 -0.0130792605
0.018927626 -0.026260724 0.019522715 -0.023479117 0.017602902 -0.017684491 0.004005171 -0.015516385
-7.083986e-08 4.9406394e-06 -7.496002e-08 1.4479641e-06 -1.895076e-05 -1.4464921e-06 1.9875936e-06 -1.0322209e-06
-5.5730106e-07 1.1278754e-05 -4.5472602e-06 5.268311e-06 7.0369774e-06 -4.1671747e-06 -2.8302838e-06 -6.6601156e-06
-2.2408792e-06 -2.9539076e-06 3.3377225e-06 4.3731416e-06 4.7726335e-06 1.3497671e-06 -1.3041771e-05 -3.710568e-06
5.019267e-07 -2.9350108e-06 4.088696e-06 2.4047262e-05 -2.2745523e-06 6.4197866e-07 2.1256765e-06 -2.8616755e-06
-0.029596105 0.033376765 -0.027123446 0.026039217 -0.011443728 -0.022103937 0.012351442 0.026318135
-0.015604353 0.012338911 0.0031712975 -0.0060315845 -0.030157285 0.032576326 0.038139995 0.01551849
-0.033158522 -0.013784784 0.037165783 0.032096058 0.03843473 -0.022515234 -0.038541764 -0.0054646125
0.020869803 0.021574063 -0.01658339 -0.012778706 0.015856389 -0.00041117673 0.027262054 0.0051181624

weight f4 [32, 32]
00000000: fa5f e5bd c6ba c73b 9838 a2be 7007 e73d
00000010: 0dca 0c3e 8914 143e fb0f 1cbe 9041 d13b
00000020: de99 55be a113 c6bd 7357 5cbe e96d ac3d
00000030: 427a 4d3d 1476 03bc d59f 443e 266d 503e
00000040: 1dcd 88be 4d5b 883e 59f5 dc3d bbaf 8c3d
00000050: 914f 763e 2d37 82bd c19b 333d 5613 253e
00000060: 8d54 7d3d 4b4c 913d 294a babd 1d2e 7d3e
00000070: d11f 84be 851b 5f3e 8cfa 393e 2fd0 b6bd
00000080: 407b 6d3e 33ec 96bd 13e5 783e 3291 54be
00000090: 1dd7 4bbe cc1e 6fb9 6b5b 543e b416 3e3e
000000a0: 27c4 91be 3984 843d 756f 41be 1744 033e
000000b0: 0608 0bbe 6047 663e 5493 373e 7d29 203e
000000c0: 737d aebe 9211 fcbd e646 f43d 1ea2 6c3e
000000d0: f1fc a73e 167a 36bd 2349 2e3e a494 1d3d
000000e0: 01da 8a3e 8b8e 8abe 8f0b d3bd 05a9 c5bd
000000f0: 179a dd3d 32ad ce3c 5f0c a73e 276a 873e
00000100: 7697 933d be83 80be edc2 4e3e 8043 8cbd
00000110: c62a 853e 2f32 2abe 3adc df3d 5226 56be
00000120: 8c2b 6cbd 70b3 97bd 72c2 ce3d 59d9 dd3b
00000130: 3451 113e 87df 313e d6a2 883e cd4e 34be
00000140: 98aa 49be 9f95 2db9 038d d2bc 5eeb 04be
00000150: d422 abbd 3752 60be 5df6 35be 820c 93bd
00000160: 14cb 60be f722 39bd b78c ab3d 8a39 283e
00000170: 910a 833e 997f 9c3e 35bd 2fbe 2f6a 08be
00000180: 6d57 30be d8a9 3a3e 81ab aabe 42bb a83e
00000190: 7240 bbbd f7c2 d43d 2cd7 68be 8ce7 c13d
000001a0: 0ae7 97be d12e adbd a777 333d 8238 a1bd
000001b0: 4c66 82be 6109 a33e 5766 0ebe 0787 06be
000001c0: d7fc 013e 27c5 42be bf10 973d 9c42 11bd
000001d0: 3026 11be b810 d1bd 7887 ce3d 3a34 8cbd
000001e0: 174b 473d ca4c 593e 9d80 083e 2987 a3bd
000001f0: 08d9 25be fa7b 273e 0674 05be 2929 203e
00000200: f4fc afbd a45c 89be 4018 b33a f757 6a3e
00000210: 618a 2dbe f857 12be 51c2 8cbd 3af0 793e
00000220: 7af1 8f3d ab52 2fbd e184 42be 3f1a 8f3d
00000230: 0611 543e 72e4 403e e592 f4bd f041 583e
00000240: eb4d 19be 9f03 3abd 94f3 923e 8d71 81be
00000250: f31f f13d efc7 6c3e 6fd0 14bd fcd1 203d
00000260: 97d6 89be 56c4 8d3e d372 51be 90a3 323e
00000270: 22f9 8bbd 7b8f cdbb f1a8 623e de77 123e
00000280: 39e7 14bc 9419 0f3d dd7b 2fbe 6786 3fbd
00000290: c91d 863d 2e8a 193d 8534 08bd ca15 9abe
000002a0: 8167 6d3e b43b 8ebe 0fd0 0ebc ce86 05be
000002b0: d69c 8fbe 78fc d0bd 4cf4 61be 4579 f43d
000002c0: b129 9e3e 29fa 0dbd 8cff 8d3c db7a 5a3e
000002d0: a3c2 46bd 454a 9b3d 5242 7bbd b6b6 643e
000002e0: e055 953c ca93 38be 7b93 7a3e 887d d23d
000002f0: 3a38 b03d b338 60be 98c7 34bd fd94 513d
00000300: 85eb 2a3d 169b a3be 407b 5b3c 95e3 5bbe
00000310: 3d64 043e 55b3 83be d82f fabd 7afe b4be
00000320: bdcd 46be 36c8 afbd e9e9 31bc 4ee1 7fbe
00000330: 7591 5bbe 299d 2dbe 9128 3f3e 4044 72be
00000340: d4d6 96bc 8c8d 32be 6258 81be 0ba1 a1be
00000350: ce00 a8bd f2df 253e d57b 02bd 7d70 50be
00000360: c408 763e d407 f3bd 2faf 6e3d c20a 1e3e
00000370: cdf0 5cbe f624 863e 2880 e53d cc8b 83be
00000380: 3cf0 003e 45b1 133d 6bf6 3abe 313c 8f3d
00000390: d819 b9bd 5b24 ac3d 35b7 97bd ed68 88be
000003a0: cc66 1ebe e076 7d3e 48c1 efbd 3128 84be
000003b0: e420 0fbb 545f 3d3e b784 793d a2e8 433e
000003c0: 77e3 5ebe fce8 28be 4096 a53e 748f debd
000003d0: c8da b73c dd3d 75be 4e59 81bd 5f99 8a3e
000003e0: 4f97 31bc cc0c e83d 2804 9b3e fc38 9f3d
000003f0: ce6d b73d 40ee 80be dc30 973e 2fb9 d73c
-0.11199947 0.006095263 -0.31683803 0.112807155 0.13748951 0.14460959 -0.15240471 0.0063859895
-0.20859477 -0.09671713 -0.21517734 0.08419401 0.050165422 -0.0080237575 0.19201596 0.20354137
-0.2671899 0.26632157 0.10788984 0.068694554 0.2405379 -0.0635818 0.04384971 0.16120657
0.061848212 0.0709463 -0.09096176 0.24724622 -0.25805524 0.21787842 0.18161982 -0.089264266
0.23191547 -0.0736927 0.24306135 -0.20758513 -0.19906278 -0.00022804289 0.20737998 0.18563348
-0.28469965 0.06470532 -0.18890174 0.12818943 -0.1357728 0.22488165 0.17927295 0.15640827
-0.34080085 -0.12308039 0.11927585 0.23108718 0.32810166 -0.044550024 0.17020087 0.038471833
0.2711945 -0.27061877 -0.10304939 -0.096513785 0.10820406 0.02522907 0.32626626 0.26448175
0.07206623 -0.2510051 0.20191546 -0.06848812 0.26009196 -0.16620706 0.10930677 -0.20913056
-0.057658717 -0.07407272 0.10095681 0.0067702946 0.14191133 0.17370425 0.26686734 -0.17608185
-0.19693983 -0.00016554304 -0.025702005 -0.1298041 -0.08356252 -0.21906362 -0.17769761 -0.0718012
-0.21952468 -0.04519936 0.083764486 0.164282 0.25594 0.305661 -0.1716202 -0.13321756
-0.1722085 0.18228853 -0.33333972 0.32955366 -0.09143151 0.10388749 -0.22738332 0.09467992
-0.29668456 -0.08456195 0.04381528 -0.07872106 -0.2546867 0.31843093 -0.13906227 -0.13137446
0.12694107 -0.1902052 0.07376241 -0.035463914 -0.14174724 -0.10208267 0.10084432 -0.06845899
0.048655596 0.21220699 0.13330312 -0.07984764 -0.16196072 0.16355887 -0.1303254 0.15640701
-0.08593169 -0.26828492 0.0013663843 0.22885118 -0.16947319 -0.1429137 -0.068730004 0.24408045
0.0702848 -0.042803448 -0.18996002 0.06987428 0.20709619 0.18837145 -0.119420804 0.21118903
-0.1497113 -0.04541361 0.2870146 -0.25281945 0.11773672 0.23123144 -0.03633159 0.039262757
-0.26921532 0.27688855 -0.20453958 0.17445207 -0.06834628 -0.0062732077 0.22134759 0.14303538
-0.009088331 0.034936503 -0.17137094 -0.046759035 0.0654865 0.037485294 -0.03325321 -0.3009475
0.23184015 -0.27779925 -0.008716597 -0.13039705 -0.28049344 -0.102044046 -0.22065848 0.11937193
0.30891183 -0.0346624 0.017333768 0.21335928 -0.048525464 0.07582525 -0.061342545 0.22335324
0.018229425 -0.18025127 0.24470322 0.102778494 0.08604474 -0.21896629 -0.04413566 0.051167477
0.041728515 -0.3195426 0.013396084 -0.21473534 0.12928863 -0.25722757 -0.12216157 -0.353504
-0.1941442 -0.08583109 -0.010858991 -0.2498829 -0.21442206 -0.16954483 0.18667819 -0.23658848
-0.018412985 -0.17436808 -0.25262743 -0.3156818 -0.082032785 0.1619871 -0.031856377 -0.20355411
0.24026781 -0.118667275 0.058272537 0.15433791 -0.21576233 0.26200074 0.112060845 -0.25692594
0.12591642 0.03605773 -0.18258063 0.069939025 -0.090381324 0.08405372 -0.07407991 -0.26642552
-0.15468901 0.24752378 -0.11706787 -0.25811914 -0.0021839673 0.18493396 0.060917582 0.19131711
-0.21766458 -0.16495126 0.32341194 -0.10867205 0.02244319 -0.2394938 -0.06315862 0.27070138
-0.010839297 0.11330566 0.30276608 0.07774541 0.089564905 -0.2518177 0.29529464 0.02633342

bias f4 [32]
00000000: 6e7b 983c aa05 f83c 4cc1 2e3c e3ed 073d
00000010: ebe4 9c3c 2b71 92bc 304f d3bc 6af9 9e3c
00000020: aa76 bc3c d501 c63c 1e4a 6bbc a90d e0bc
00000030: 0742 163b e088 003a 1a5e 903c 1cba 97bc
00000040: d4d0 173d 44eb 0f3d a939 2dbc ce2c 1e3a
00000050: d983 923c 43e2 87bc f8da 4ebc d764 1bba
00000060: 9ea2 c0bc 5b70 0ebd 0f1e e23b bd26 08bd
00000070: 1895 31bc ba7f d2bc ee58 b0bc f008 05bd
0.018613543 0.030276138 0.010666203 0.03318585 0.019152125 -0.017876228 -0.025794595 0.01940604
0.023005802 0.024170795 -0.014360933 -0.027350264 0.002292754 0.00049032085 0.017622996 -0.018521361
0.03706439 0.035136476 -0.010572829 0.0006033898 0.017885135 -0.016587382 -0.012625448 -0.0005927807
-0.023515042 -0.03477512 0.006900556 -0.03324007 -0.010838769 -0.02569567 -0.02152678 -0.032479227

weight f4 [128, 32]
00000000: 927e a83d b767 fbbd 6c6d ab3d ae82 f93c
00000010: a751 33bd 298b 87bd 9eb1 b3bd 0cc3 cfbd
00000020: c29f a0bd 5373 8b3d aea0 25be a998 e33d
00000030: e90c 393e 28ae 0cbe f716 4abe e93e 0ebe
00000040: 8880 46be 25d3 863d 4b4d 523c ef31 aa3d
00000050: 19c5 bebc d69c e93d 9347 e8bd e7e7 fd3d
00000060: 195b 9b3c 00e4 89bb be8c d63d 8290 073e
00000070: 75a8 493e f2d3 19be 7c58 5fbb cf3f 21be
00000080: 14b3 94bd 5ba6 6c3c ea3a c1bc 5acc 5abb
00000090: 0c52 0b3e 176c e13b 0474 f33d a9d0 0cbd
000000a0: d598 06bd 8265 34be 97a7 4bbd 33aa 853d
000000b0: 3933 0fbe 03aa a33d 9e80 f0bc a409 393d
000000c0: e1e7 4f3e 1dac 743d cb16 183e 980a 2abe
000000d0: 39c7 32bd e4b3 fabd 26bd 013e e90d 38be
000000e0: fe06 05bd 35b0 323e c769 823d 05bd a43d
000000f0: 0401 513e 698d 4b3d 7868 06be d7dd ccbd
00000100: 1e8d debd 4be3 ad3d f7a6 d33c 76d2 b53d
00000110: 78b4 fe3d 33f1 a83c dcd8 09be fdf0 483e
00000120: c84b cd3d 2044 ea3d f939 1ebe 5791 d6bd
00000130: 3ee2 39be cdfa 50be a530 243d 4c2f 2ebe
00000140: 57ab 35be 9f83 cc3d eb0d 40bd 6341 f6bc
00000150: 716e 043e 9f2a 5b3c f833 373c fff3 6fbc
00000160: 3be9 d73d c748 043e 0681 353e 66c4 88bd
00000170: 3db8 00be 8ab9 d8bd de54 20be cc40 70bc
00000180: 9d30 12be ce14 223e 9b51 a9bd b668 c73d
00000190: 5fec 083e e35a 1fbe b4ad 55bd c17b 5f3e
000001a0: 1b6f 2c3c c0a1 b53d a70b 203e b9a2 8c3c
000001b0: 4e6e 85bd df75 9cbc 579e c93d c53a 0ebe
000001c0: c0b5 ad3d 6b2f 8b3c e278 5d3e c3cd 263e
000001d0: f042 f2bd b0b7 4fbe 5d09 133e 3537 9c3c
000001e0: 990b d7bc 8e25 80bd eed9 21be 1e11 6cbc
000001f0: f266 10be 7cc2 f0bc 607e a03d 7276 1b3c
00000200: 8556 4b3e bb5c 3c3e 0fb9 32be c1ff c03d
00000210: a950 a43c bc9b 0ebd dd58 82bb 3271 53bd
00000220: 8bae 123e c8cb 6b3e 81ae e03d 556d ccbd
00000230: c4bd ab3d 70df 3cbe d33d 903d d582 1cbe
00000240: d510 cdbd 2359 513e 715a 683d 63e8 debd
00000250: 4264 16be 33de fe3d 2fe6 28be be93 023e
00000260: d835 64be ac29 dabd 73c0 433d d491 98bc
00000270: 067e 293e 4825 d33c 5d6a 10bd c637 9dbc
00000280: 66f4 283e c3a2 2e3d bec6 c1bd f5d1 073e
00000290: 7da1 4a3e 836d 433d da80 b23d 28aa aebd
000002a0: 3a3b 433e a8fb c2ba a6ae abbc 6395 b5bd
000002b0: 52c5 c4bd ff1a eabd 060d 1e3d 928c 513c
000002c0: b89f 0c3d 4cda b1bb a04c 0f3e 8d8a 533d
000002d0: 9ac6 a1bd 29c1 263c 7574 573d 0621 c9bd
000002e0: 62f4 91bd 3b40 8abd db04 543e 8713 0c3e
000002f0: cde0 fc3b 71bf 53be c6a3 9fbd 5439 0e3d
00000300: db60 283d eaef 8fbc 59a2 0fbe 274f e53c
00000310: 8a5b 4f3e 4ced 86bd a7cc 0ebe 1618 263d
00000320: 9d4f 49be caf4 a83d 6244 dc3c 36ef ce3c
00000330: 550c 5d3d 76ff 25be 94db 403e 0c14 77bd
00000340: fa84 89bc de5f 403e b5f6 583e 67dd 97bd
00000350: 2dd9 683e 3bb1 41be 415d 44be 1cd9 89bc
00000360: e93d 183e 269c 46be b0cb 573e 8a72 3c3c
00000370: 6872 073e 085c 93bc ad76 c2bd 8241 03bd
00000380: a602 0b3e e6e2 133e 318f 973d f8c5 473e
00000390: 0cd9 bcbd 6bf4 08bc 0a54 febd f0eb 633e
000003a0: b3f9 bc3d 48a0 953d 23e7 cc3d 695a 34be
000003b0: 80ad 32be e7e5 a2bd 5b50 0d3e 8c2c 463c
000003c0: 8e7d 4cbe 2b80 a43d 7665 113e 9d88 5c3d
000003d0: b3fc 1c3d 2e87 dd3c 8706 123e 694b 51bd
000003e0: abb6 70bd 8992 07be c552 4d3e f926 753d
000003f0: 54ba 2f3c d255 5fbd ccec c63d ecae 2cbe
0.08227266 -0.122756414 0.0837048 0.03045782 -0.04377904 -0.066183396 -0.08774112 -0.10144624
-0.078429714 0.06809106 -0.16174576 0.11113102 0.18071331 -0.1373831 -0.19735323 -0.13891186
-0.19384968 0.065832414 0.012835811 0.08310305 -0.023287343 0.11406867 -0.11341777 0.123977475
0.018964337 -0.004208088 0.10476063 0.13238719 0.19693168 -0.15022257 -0.003407984 -0.15746997
-0.07260719 0.014443959 -0.023587663 -0.0033385963 0.13605517 0.0068793404 0.118873626 -0.03437868
-0.032860596 -0.17616847 -0.049720373 0.065266035 -0.13984384 0.079914115 -0.029358204 0.04517521
0.20303299 0.059734453 0.14852445 -0.16605604 -0.043647025 -0.12241343 0.1266981 -0.17974056
-0.03247737 0.1745003 0.06367832 0.08043865 0.20410544 0.049695406 -0.13125789 -0.1000325
-0.1086676 0.08490618 0.025836451 0.08878033 0.124367654 0.020622825 -0.13461632 0.1962318
0.1002422 0.11438775 -0.15451802 -0.1047694 -0.18152711 -0.20408173 0.040085454 -0.1701023
-0.17741142 0.09986042 -0.046888273 -0.030060476 0.12932755 0.013376861 0.011181824 -0.014645576
0.10542532 0.12918387 0.17725 -0.06678085 -0.12570281 -0.10582264 -0.15657374 -0.014663886
-0.14276357 0.15828249 -0.08267518 0.09736769 0.13371418 -0.15562014 -0.05216761 0.21824552
0.0105245365 0.08868742 0.15629445 0.017167436 -0.065151796 -0.019099174 0.09844654 -0.13889606
0.08481932 0.016990384 0.21628144 0.1628943 -0.118291736 -0.20284915 0.1435904 0.019069294
-0.026250647 -0.06257163 -0.1580579 -0.014408378 -0.1410177 -0.029389612 0.07836604 0.009488689
0.19857223 0.18394749 -0.17453407 0.09423781 0.020057993 -0.03481649 -0.0039778785 -0.051621623
0.14324395 0.23026955 0.10970784 -0.09981791 0.08385804 -0.1844461 0.07043042 -0.15284283
-0.10012976 0.20444159 0.056726877 -0.10884168 -0.14686683 0.12444725 -0.16494058 0.12751672
-0.22286165 -0.106524795 0.047790956 -0.018624224 0.1655198 0.025774613 -0.035257686 -0.019191634
0.1649948 0.04263569 -0.09461735 0.13263686 0.19788165 0.04771186 0.08715983 -0.085285485
0.19065562 -0.0014876025 -0.020957302 -0.08866384 -0.09607948 -0.1143093 0.03858664 0.012789862
0.034332007 -0.0054276343 0.13994074 0.051645804 -0.07899208 0.010177889 0.052601296 -0.09820752
-0.071266904 -0.06750532 0.20704977 0.13679324 0.007717228 -0.20678498 -0.07794909 0.03472264
0.041107994 -0.017570455 -0.14026774 0.027991844 0.20249763 -0.065882295 -0.13945256 0.040550314
-0.19659276 0.08249815 0.026888076 0.025260549 0.05396684 -0.16210732 0.18833762 -0.060321853
-0.016787041 0.1878657 0.21187861 -0.07415276 0.22739096 -0.18915264 -0.19176199 -0.016827159
0.14867367 -0.19395503 0.21073794 0.011501918 0.13227236 -0.01798822 -0.09495292 -0.032044895
0.13575229 0.14442024 0.074003585 0.19509113 -0.09221086 -0.008359055 -0.12418373 0.22257972
0.09227314 0.07305962 0.10005023 -0.17612614 -0.17448997 -0.07954007 0.13800184 0.012095582
-0.1996977 0.080322586 0.1419886 0.053841222 0.03832693 0.027041998 0.14260302 -0.051097307
-0.058767956 -0.13239492 0.20051105 0.05985162 0.010725576 -0.054525204 0.09713134 -0.16863602

bias f4 [128]
00000000: d73e f4bc eea5 b13b 2518 913c cfaf 113d
00000010: 9a6b f43c 355e cd3c b268 1f3d 8ba8 06bb
00000020: 9804 953c 8f2e cc3c 9922 883c 6bf0 553c
00000030: 2f3f 9ebb e867 e03c a957 c83c da00 e73b
00000040: 3e9d 4d3c 4078 23bc 1267 97bb 3166 b33c
00000050: 5ba8 103c c2bf d63c e19f dd3b be4f cd3c
00000060: eeaa f33c 0efc 8fbc 9acb 0b3d 7f82 a53c
00000070: cde1 e83a 2dfe abbb 51c0 b43c 97e6 0a3c
00000080: 9c74 233d b3d9 c73c e255 b33c e06e 85bc
00000090: 8cde b33c cef8 d33c 9879 86bc 7567 203d
000000a0: adc3 07bc 744d 81bc a996 abbc 7df2 993c
000000b0: 1175 d23c 3f33 153d e4cd 03bc 0af6 45bc
000000c0: 6012 1ebc 1a84 023c 17a0 093d 12a6 8a3c
000000d0: f1a1 49bc 7d86 65bc b19b d73c 7d91 8b3c
000000e0: 9dee 27bc 94e7 a43c 4d92 253d 3628 debc
000000f0: 92cc 6dbc e0cc 1abc dda0 d0bc f452 a53c
00000100: 9699 ee3c 5fa9 953c 6d86 213d d6d0 f03c
00000110: d15b 1c3d 24e8 c7bb 7461 043d 5802 73bc
00000120: 1a55 f83c b149 b53c 7c5a 88bc 247c 6dbc
00000130: 8f26 a43c 34b5 273a 519a 9abc e992 bdbb
00000140: afb1 e43c 4d52 8d3c 30b8 2e3d 66a4 1f3d
00000150: ddef 5fba adc2 65bc b316 b7bc 0803 893c
00000160: 9f20 b33c f534 653c 575d 65bb 3bfe 253d
00000170: 218a 1dbc 3600 993a 87de 893c 44a1 75bc
00000180: eefe c83b 3ed1 593c 6527 a0bc 6c82 623c
00000190: 52bb b7bb 81af adbb 8885 b2bc f115 b93c
000001a0: a3d8 19bb eeec 36bc c583 263d d31d cb3c
000001b0: 15f5 e03c 0e2c b53c 49a9 ba3b 6e7c 423c
000001c0: 3b38 b8bc d12e 7e3b 0a42 aebc bfe6 163d
000001d0: ef5e 8dbc fc0e 6cbc 5bd4 20bc a8f4 213d
000001e0: 259a c03c a608 c83c 5c45 efbc 430a 34bc
000001f0: 7e64 103d 9abe 0b3d 994b d03c e772 50bc
-0.02981512 0.0054213917 0.017711708 0.035568055 0.029836465 0.025069335 0.038918205 -0.0020547237
0.018190667 0.024924545 0.01661806 0.013057808 -0.0048293094 0.027393296 0.024455862 0.007049662
0.0125496965 -0.0099774 -0.0046204412 0.021899315 0.008829202 0.026214484 0.006763444 0.025062438
0.029744592 -0.017576244 0.034129716 0.020203827 0.0017767489 -0.005248806 0.02206436 0.008477828
0.03990613 0.0243958 0.021891538 -0.01628822 0.021956705 0.025875475 -0.016415402 0.039161164
-0.008286399 -0.015784003 -0.020945864 0.018792385 0.025690587 0.036425825 -0.008044694 -0.012082586
-0.009647936 0.007966066 0.03359994 0.016924892 -0.012306676 -0.014009115 0.026319357 0.017037148
-0.010249761 0.020129956 0.040422726 -0.027118783 -0.014514105 -0.00944826 -0.02546733 0.020181157
0.02912597 0.018269239 0.03943484 0.029396456 0.0381735 -0.0061006714 0.0323195 -0.014832102
0.030314017 0.022129865 -0.016644709 -0.014494929 0.020037917 0.0006397546 -0.018872412 -0.0057853353
0.027916757 0.017251158 0.042656124 0.038975142 -0.00085425173 -0.014023465 -0.022349691 0.016725078
0.02186614 0.013989677 -0.0034998262 0.040525656 -0.009615452 0.0011673036 0.016829742 -0.014992062
0.0061339056 0.013294516 -0.019550035 0.01382504 -0.005607047 -0.0053004627 -0.021792188 0.02259347
-0.0023475073 -0.011164887 0.04065301 0.024794495 0.027460614 0.022115733 0.00569645 0.011870487
-0.02248775 0.003878523 -0.021271724 0.03684115 -0.017257182 -0.014407869 -0.0098162545 0.039539963
0.023511002 0.024418186 -0.029207878 -0.010988775 0.035252087 0.03411732 0.025426673 -0.012722707

weight f4 [32, 128]
00000000: 77aa 9b3d 1f5c 9cbd f607 38be fcca 3b3c
00000010: 6c54 3d3d b588 3abe 0a11 17be 470d 5b3d
00000020: 1b13 833d e5cd f7bc e195 11be 7b71 a93d
00000030: 8ff6 06be 201d 9dbd 15cf 9abd 3c77 87bd
00000040: 2267 9f3d c43f ac3d ab6c aabc 5f73 8bbc
00000050: 0015 cbbb 37c9 81bd aa73 04bd c594 a8bc
00000060: bee0 263e f493 8ebd 582b 2d3e 9a9b b6bd
00000070: ce35 4dbe 5082 de3d 8702 24be 3f5b 33bc
00000080: f545 0abd d0b9 3d3e f937 4d3c 3ac8 0a3d
00000090: f100 dfbd e007 1d3e 0ba4 80bd 6983 223e
000000a0: 55ce 1cbe 53e5 22bc 17fe ab3c 554b 1a3e
000000b0: 9cb2 7cbd c4e1 183e 2897 37be 7025 2d3e
000000c0: 521b 65bd 2996 e8bd a9fe 0f3d 05a0 1bbd
000000d0: 3710 b2bc af5e f5bd 24cc 14be a0a6 6b3d
000000e0: 81d7 4e3d da4d 183e a7ed a5bd 5b53 17bc
000000f0: efa0 5cbc 6eba 4b3d e422 e3bd afcf 693d
00000100: b84d 29be cb76 febc 7d21 123e 087f 1ebe
00000110: 9f36 5cbd fa35 823d 8ca7 013e bb80 b23c
00000120: fcbb d43d 19b2 1c3e 77f4 ec3d dfed 953d
00000130: 184b f4bd 7768 0dbe d776 2c3e cf6c b6bd
00000140: df9a 1dbd b0a1 563d e1d9 893d 9031 e2bd
00000150: 0d1f 243e a328 01be ff06 093e 2985 c73d
00000160: 7dc1 a7bd 671c 94bd 013c 093e 5ee5 44bd
00000170: 7a79 d83d c7fe 8abd 1c94 78bd 5313 c03c
00000180: 66f4 30be 4a18 47bd 9eed 0dbe d0d7 173e
00000190: e272 c8bd 4578 fa3b 89c2 97bd bda1 21be
000001a0: 9b5c 923d e0e4 983d 34a7 293e 0528 023e
000001b0: 5b9d 75bd 4335 173e c5d0 4e3c 5e9c dd3d
000001c0: 2ef5 2bbd 27cf 09be 9832 e9bc 092f 70bd
000001d0: 445b cdbd ceb2 b43d 2ed2 d63d 6623 4cbe
000001e0: 9382 4cbd 4af5 053e 01f7 563d 29eb 623d
000001f0: 0ac9 e23d 0f4a 9c3d 547e bf3c 164e 68bc
00000200: e380 603e cf54 e53d b198 06be 9bdc 5e3e
00000210: d406 f73c c555 0a3e 973e 4d3e 6c49 0dbe
00000220: 0ef3 e1bd 2da5 0a3d b987 e9bd 011c 813d
00000230: 00c6 b4bb d188 433e 0b11 453e ac0f 8ebd
00000240: df59 b13d 97ab 1e3d 34f9 5fbc 2143 103d
00000250: 7f01 103e 310d 653d 57b6 303d 5acf f6bc
00000260: 4ea5 393e a31c 0dbe c7e7 d0bd 92b7 3a3e
00000270: d28b 0f3e ec46 afbd bc8d 0abd 0070 523e
00000280: 1668 663e 69b2 b43d 1fe4 ecbd 0b5c 6dbd
00000290: a4ae c2bd 8204 313e 5012 433d 6e64 a4bd
000002a0: c2c9 bd3b d070 a3bd fc41 823c 6f9e 483d
000002b0: 90ce ad3d bea4 a43d c256 e23d 83b8 a0bd
000002c0: 547f 20be 3620 a03c 276b 403e 0825 733d
000002d0: c7e3 b23c 778c 87bd 5b24 243e 7856 bfbc
000002e0: d9c6 87bc af69 a63d 5713 a5bd f162 33bd
000002f0: 544c e5bd 2e63 80bd 219b 1bbd c0f6 fc3b
00000300: 47a5 173e f9b1 1e3e 7d24 c13d 10b4 e03d
00000310: 6389 ed3c 8948 c23d b4d3 173e cc5d febc
00000320: 246f cf3d 26ad 223e 66c4 19bc cd48 c63d
00000330: 2845 b83c c471 e5bd a386 8bbd eca1 973d
00000340: 7fd0 9e3d 149b 203e fe74 563e 3e07 123e
00000350: 8793 09be e08f 603e e4fc 58bd be61 203e
00000360: 03f5 a73d 4a90 b33d 2320 04bc 4efc 40bd
00000370: 668d c8bd dfc8 d1bd 1eae ff3d e3a8 d0bd
00000380: 88ef e43d 879a aebd f609 893c 6a3f d7bd
00000390: fe65 b63a 2b31 713d 6a11 063e da77 c13d
000003a0: 2049 963d 3ade a1bd 9cb5 5f3c ab58 013e
000003b0: 71f6 b43d 4022 0a3d 43de d3bd e2ee 2c3e
000003c0: c9bf 8ebd fc97 853b 458a b6bc f259 2f3d
000003d0: 7a53 d8bd 374e b1bd 7420 bebd dae7 0c3e
000003e0: 9f4f a0bd 8104 edbb 32e9 c3bd 8744 86bd
000003f0: 4261 4f3e b22b 4e3e b7ec 5c3e eac6 8b3d
0.07600873 -0.07634758 -0.17971787 0.011461969 0.04622309 -0.18216212 -0.14752594 0.05347946
0.064001285 -0.030249545 -0.1421733 0.08273598 -0.13179992 -0.07671571 -0.07559029 -0.06614539
0.07783343 0.084106 -0.02080377 -0.017022787 -0.0061975718 -0.06337207 -0.03233687 -0.020578751
0.1629667 -0.069618136 0.16911066 -0.089163974 -0.20040056 0.10864699 -0.16016589 -0.010947048
-0.033758122 0.18527913 0.012525552 0.033882357 -0.108888514 0.15335035 -0.06281289 0.15870441
-0.15313084 -0.0099423705 0.020995183 0.150678 -0.061693773 0.14929873 -0.17928755 0.16908813
-0.055934258 -0.11356766 0.035154972 -0.037994403 -0.021736247 -0.1198095 -0.14530998 0.057531953
0.05049849 0.14873448 -0.08101969 -0.009236182 -0.013466104 0.04973834 -0.11090639 0.057082828
-0.16533554 -0.031062504 0.14270587 -0.15478146 -0.05376303 0.063579515 0.1266157 0.0217899
0.10387418 0.15302314 0.115700655 0.07320761 -0.119283855 -0.13809381 0.16842209 -0.08907472
-0.038477775 0.05240029 0.0673101 -0.110446095 0.1602747 -0.12613158 0.13381575 0.09742195
-0.08191202 -0.0723198 0.13401796 -0.048070304 0.10570045 -0.06786876 -0.060688123 0.023446715
-0.1728073 -0.04860715 -0.13860175 0.1482842 -0.09787537 0.007643732 -0.074101515 -0.15784355
0.07146569 0.074655294 0.16567689 0.12710579 -0.05996452 0.14766411 0.012623017 0.1082084
-0.04198187 -0.13457929 -0.028466508 -0.058638606 -0.10027173 0.08823167 0.10489307 -0.19935378
-0.049929213 0.13081852 0.052481655 0.055400047 0.110735014 0.07631313 0.023375668 -0.014178773
0.21924166 0.111978166 -0.13144185 0.21763842 0.030154623 0.13509281 0.20043407 -0.1379754
-0.11032687 0.03384893 -0.1140284 0.063041694 -0.0055167675 0.1909516 0.19244783 -0.06936583
0.0865972 0.03873786 -0.0136702545 0.03522027 0.1406307 0.055920783 0.043142643 -0.03012817
0.18129465 -0.13780455 -0.10200458 0.18234089 0.14018181 -0.08558449 -0.033826575 0.20550537
0.22500643 0.088230915 -0.11566948 -0.057949107 -0.09505966 0.17286876 0.047624886 -0.08026968
0.0057918737 -0.07980502 0.015900604 0.04897922 0.08486664 0.080392346 0.11051704 -0.07847693
-0.15673572 0.01954661 0.18790875 0.059361488 0.021837128 -0.066185884 0.16029494 -0.023356661
-0.01657431 0.08125626 -0.080603294 -0.04379553 -0.11196199 -0.06268917 -0.03798974 0.0077198446
0.14809142 0.15497579 0.09430788 0.10971844 0.028996175 0.09486491 0.14826852 -0.031050585
0.1012862 0.15886363 -0.009385204 0.096818544 0.022493914 -0.1120334 -0.06812789 0.07403931
0.07754611 0.15684158 0.20943066 0.14260575 -0.13435183 0.21929884 -0.05297555 0.15662286
0.08201029 0.08767755 -0.008064303 -0.047115617 -0.097925946 -0.10243391 0.12484382 -0.101884626
0.111784995 -0.085255675 0.016728383 -0.10510142 0.0013915894 0.05888478 0.1309258 0.09446688
0.07338166 -0.079037145 0.013654139 0.1263148 0.088360675 0.03372407 -0.103451274 0.16888002
-0.06970174 0.004076956 -0.022282729 0.042810388 -0.10562797 -0.086574964 -0.09283534 0.1376032
-0.078276865 -0.007233203 -0.09565963 -0.06556039 0.20251945 0.20133856 0.21574675 0.06825049

bias f4 [32]
00000000: e15d 6f3b 2b63 f93c 7239 443c bb3e cb3c
00000010: d5ae 873c 7ec6 8dbc 7af4 a1bc 0890 7f3c
00000020: 2fbc 9cbc e4c1 bf3c a2c4 7fbc 02e5 80bc
00000030: c527 df3b a5f8 033c 0d8f 983c 08ae 93bc
00000040: ca49 143d dbb5 073d 0f1b 0ebc 99e8 353c
00000050: 7856 903c 8b23 94bc 6de0 b3bb 7875 233c
00000060: f089 08bd b807 0bbd 97f0 763b 76cf 08bd
00000070: 3766 3abc b560 c4bc a91a c7bc 2ba2 04bd
0.0036524462 0.030442795 0.011976587 0.024810186 0.016562859 -0.017306563 -0.019769896 0.015598305
-0.019132702 0.023407884 -0.015610846 -0.0157342 0.006810161 0.008054887 0.0186229 -0.01802732
0.036203183 0.033132415 -0.008673443 0.011102819 0.017619357 -0.018083354 -0.0054894 0.009976737
-0.033334672 -0.033942908 0.0037680024 -0.033400975 -0.011376909 -0.023971895 -0.024304705 -0.032381218

weight f4 [32]
00000000: c7cb 7f3f e37a 7d3f 85b2 853f 0650 803f
00000010: bb1f 833f 17a0 783f 40e4 803f bfbb 843f
00000020: 80a3 843f ebc2 7f3f d269 843f 0437 823f
00000030: f4da 7a3f a7bf 833f 9835 853f ddf1 7d3f
00000040: 0275 853f 3a0b 7a3f bcf0 823f f8b8 853f
00000050: 2f0d 7b3f 7df1 823f b31b 7f3f 2c57 853f
00000060: da48 853f 0e5e 853f 395a 833f 8cd4 843f
00000070: 50ca 7f3f 9f12 833f 10a5 7d3f d020 853f
0.99920315 0.99015635 1.0445105 1.0024421 1.0244058 0.9711928 1.0069656 1.0369796
1.0362396 0.99906796 1.0344794 1.017304 0.97990346 1.0292863 1.040698 0.9919718
1.0426333 0.9767338 1.0229716 1.0447073 0.9806699 1.0229946 0.9965164 1.0417228
1.0412858 1.0419328 1.0261909 1.0377364 0.9991808 1.0240058 0.9907999 1.0400639

bias f4 [32]
00000000: cf21 edba 9a04 3dbc f94b c6bc aea3 4abc
00000010: 23af 883c 3a80 06bd 78c0 7dbc b288 68bc
00000020: 768d 0fbd b0a6 25bc 7070 103d 8451 89bc
00000030: ad1c b63c d89f f1bc b82f 2e3d 78c6 023c
00000040: ba97 283d 95f1 c9bc f5c7 cb3c 66ac 3d3d
00000050: ca78 183d 4e38 42bd 147e 4dbb 0de3 363d
00000060: e162 29bd 0c5f 16bd 8abd c83c 7f18 17bd
00000070: 9372 20bb 123a c63c 47ad b33b 7ff4 1a3c
-0.0018091741 -0.011536742 -0.024206148 -0.012368126 0.016685074 -0.03283713 -0.015487783 -0.014192747
-0.035047017 -0.010110542 0.03526348 -0.016762502 0.02223047 -0.029495165 0.042525977 0.007981889
0.041160323 -0.024651328 0.02487562 0.04630699 0.03722457 -0.047416978 -0.0031355666 0.044650126
-0.041354064 -0.036711738 0.024504442 -0.036888596 -0.0024482354 0.024197612 0.0054833028 0.0094577065

weight f4 [32]
00000000: 29ba 853f 11e3 833f b8c6 843f 1db2 793f
00000010: f7f9 843f a9de 7e3f 06ea 7d3f d4ef 833f
00000020: 6ea2 793f d187 853f e40d 803f 2bbf 843f
00000030: c311 843f 1f01 853f ccf3 843f 8d65 833f
00000040: 3268 843f 2344 843f 2612 7e3f fbde 793f
00000050: 0130 843f f6e1 7d3f d852 853f e197 823f
00000060: 7143 833f ddf7 863f 1c73 843f 1085 853f
00000070: eab7 843f a979 853f 19e7 813f de4e 833f
1.0447437 1.030367 1.0373144 0.97537404 1.0388783 0.995585 0.99185216 1.0307565
0.97513473 1.0432073 1.0004239 1.037084 1.031792 1.0390967 1.0386901 1.0265366
1.0344298 1.0333294 0.9924644 0.97605866 1.032715 0.99172914 1.0415907 1.02026
1.0254956 1.0544392 1.0347629 1.0431232 1.0368626 1.0427753 1.014865 1.0258443

bias f4 [32]
00000000: fb43 273d 2afa b73c a96c dabc c5c2 123d
00000010: 0cea 173d 96a4 623a a9c9 263c 8aa3 0e3d
00000020: 400c e73c 905a 0b3d 943e 1abc 97e0 20bd
00000030: 2b20 22bd 2936 1fbd 8042 b23c 6e09 cfbc
00000040: b753 083d dc59 ed3c 9cb6 83bb 4dc7 d0bc
00000050: ae63 e7bc c5a3 d43c d478 13bd ac26 663b
00000060: 3782 2cbc 99ba 20bd dcfb ff3c 8371 08bd
00000070: 6c66 843c 8a7a debc 275c 2abc 278b 08bd
0.040836316 0.022458155 -0.026663141 0.035830278 0.03708844 0.0008645741 0.010179915 0.03482393
0.028204083 0.034021914 -0.009414334 -0.039276686 -0.03958146 -0.03887001 0.021760225 -0.025273051
0.03328296 0.028973512 -0.0040195715 -0.025485659 -0.028245773 0.025956998 -0.036003903 0.0035118265
-0.0105290925 -0.039240453 0.031248026 -0.03331138 0.01616212 -0.02715804 -0.010397947 -0.03333583

weight f4 [32]
00000000: 4299 783f 16ea 753f e587 783f 479d 753f
00000010: bfbe 753f 7155 753f 7e38 753f 563c 763f
00000020: e676 773f c53e 773f 1b10 773f 0ab3 773f
00000030: bbc9 7a3f e471 783f 9d19 793f f49f 773f
00000040: 93f2 783f 25fd 773f f445 793f 9d93 783f
00000050: bd06 743f 1a4b 7a3f b731 783f 2cb8 783f
00000060: 34ea 783f 501d 773f b299 783f 5dae 763f
00000070: d215 783f 9836 763f 095c 753f a150 763f
0.9710885 0.9606031 0.9708236 0.9594311 0.9599418 0.958335 0.95789325 0.96185815
0.966658 0.96580154 0.9650895 0.96757567 0.97964066 0.97048783 0.9730471 0.96728444
0.9724514 0.9687064 0.97372365 0.9710024 0.9532278 0.97770846 0.9695086 0.97156024
0.97232366 0.965291 0.9710952 0.9635981 0.96908295 0.96177053 0.9584356 0.9621678

bias f4 [32]
00000000: 49d1 47bc dbb7 83bc 6344 1c3c d769 9dbc
00000010: 8cc1 523c 4b0a 40bc d393 25bc 292a 6e3b
00000020: 699e 8bbc 70eb 4d3c 982a 49bc b7b6 7d3c
00000030: 1092 203c ec6d 1d3c 34d9 07bc e6df 393a
00000040: 5964 8cbc b6c9 84bc 1aea 66bc 2a82 223c
00000050: 4431 5a3c f590 6dbc dbaf cd3b c73b 81bc
00000060: a409 813b 6ffb 543c 07d9 85bc d634 b53c
00000070: a29e 3cbc 75c1 d5bb a810 2abb cf36 863c
-0.012195894 -0.01607888 0.009537789 -0.019215507 0.012863528 -0.011721204 -0.010106045 0.0036341047
-0.01704331 0.01256834 -0.012278222 0.015485457 0.009800449 0.009608727 -0.008291531 0.00070905534
-0.017137693 -0.016209465 -0.0140939 0.009918729 0.01331741 -0.0144998925 0.006277067 -0.015775574
0.003937917 0.0129994 -0.016338838 0.02211992 -0.01151243 -0.006523306 -0.002594987 0.016383557
