pre_trained_models/mosi_aligned_L_UniMF.pt (torch, 372822 bytes, 76 tensors)

cls f4 [1, 32]
0	0xbeb0722a	-0.344621
1	0xbd736da6	-0.05943074
2	0xbe817da9	-0.25291184
3	0x3e445296	0.19172129
4	0x3ece4b61	0.40291885
5	0x3ed1b5e2	0.40959078
6	0x3e77398b	0.24143045
7	0x3d987f25	0.07446126
8	0xbe49acef	-0.19694875
9	0xbe3173be	-0.17329308
10	0xbdfa8521	-0.122324236
11	0x3e7dfdd7	0.24803863
12	0x3e8e92fd	0.27846518
13	0xbaefab2a	-0.0018285264
14	0x3e8739ad	0.2641119
15	0xbe926c4e	-0.28598255
16	0x3e84c107	0.25928518
17	0x3db3ae9f	0.08773541
18	0xbe96b0b3	-0.29431686
19	0xbca647fb	-0.020297995
20	0x3e89f730	0.26946402
21	0x3e2d55bc	0.16927236
22	0x3d75afc1	0.059982065
23	0x3e092b40	0.13395405
24	0x3e823cf9	0.25437143
25	0xbd0571bf	-0.03257918
26	0xbd8bb528	-0.06821662
27	0x3ed7f9c0	0.42182732
28	0x3d94d3a5	0.072669305
29	0xbeb831e7	-0.35975572
30	0xbcaacd81	-0.020849945
31	0xbeabcf8c	-0.33556783

weight f4 [32, 300, 1]
0	0xbc8460b4	-0.016159393
1	0x3bc749b1	0.0060817827
2	0xbd15b69d	-0.036551107
3	0x3c9d2a40	0.019185185
4	0x3d0da38f	0.03457981
5	0x3b8ca01c	0.0042915475
6	0xbcc5a5ea	-0.024126966
7	0xbbd9aa33	-0.006642604
8	0x3c796b68	0.015223362
9	0x3ccd7249	0.02507891
10	0x39c1a660	0.00036935788
11	0xbcb3d295	-0.021951
12	0xbd09d343	-0.03364874
13	0xbc8a8c22	-0.016912524
14	0x3c4ddb09	0.012564429
15	0x3cd2207d	0.025650257
16	0xbd93ad7f	-0.07210826
17	0x3d3b7ec4	0.04577519
18	0xbd66a843	-0.05631281
19	0xbbdc7408	-0.006727699
20	0xbd1e69a7	-0.038674977
21	0x3c6c0f79	0.014407986
22	0x3d283490	0.041065753
23	0x3c513899	0.012769842
24	0x3bd2fbf6	0.0064387275
25	0xbc9d048c	-0.019167207
26	0x3b2754e1	0.002553277
27	0xbcc36656	-0.023852509
28	0x3d1829c7	0.037149217
29	0x3d4f2682	0.050573833
30	0xbd51d68e	-0.051230006
31	0x3c63152e	0.01386003
32	0x3d3bcb66	0.045848273
33	0xbd1f5ad2	-0.038904972
34	0x3c899827	0.016796185
35	0xbd21a8e4	-0.039467707
36	0xbd3d209b	-0.046173673
37	0xbb8faa93	-0.0043843477
38	0xbd5af746	-0.053458475
39	0x3c1cbeff	0.009567021
40	0xbd4ecc35	-0.050487716
41	0x3d670817	0.0564042
42	0xbd517e40	-0.051145792
43	0xbccd4248	-0.02505602
44	0x3cc8049f	0.024416266
45	0xbac28c15	-0.0014842773
46	0x3cbd3c0f	0.023099927
47	0x3cac8e53	0.02106396
48	0xbcd5d4da	-0.026102472
49	0xbc0fad4f	-0.008769347
50	0xbcd9c5db	-0.026583603
51	0xbd061d53	-0.03274281
52	0xbcddca2f	-0.027073948
53	0xbcece110	-0.028915912
54	0x3c830a52	0.015996132
55	0xbd2c7962	-0.042107947
56	0x3c4c81d1	0.0124821225
57	0xbd88737b	-0.06662651
58	0xbc50ee04	-0.01275206
59	0xbcefc036	-0.029266458
60	0xbd396a66	-0.045267485
61	0xbd2f8357	-0.042849865
62	0xbd489577	-0.048970666
63	0x3d2a8307	0.041628864
64	0x39312ee4	0.00016897504
65	0xbd07aefd	-0.033125866
66	0xbc890a86	-0.01672865
67	0xbb1c1d43	-0.0023821152
68	0x3c39e743	0.011346641
69	0x3d7cd719	0.06172857
70	0xbd093ea6	-0.03350701
71	0x3b8b14e9	0.004244436
72	0x3cb5ff3e	0.022216436
73	0x3d15fc47	0.036617544
74	0xbcab2ea9	-0.020896273
75	0x3d722de8	0.05912581
76	0xbd1cf663	-0.03832091
77	0xbd8d3c83	-0.06896307
78	0xbd58990e	-0.05288034
79	0xbcb90f6b	-0.02259036
80	0xbd3d7c28	-0.046260983
81	0x3d43b967	0.047784235
82	0x3cabcab3	0.020970678
83	0xbbfc6e70	-0.007703595
84	0x3cdf40c3	0.02725256
85	0x3d0dff67	0.0346674
86	0x3d5c96ee	0.053854875
87	0xbd06a18a	-0.0328689
88	0xbc79c2a2	-0.015244158
89	0x3b9a52ff	0.004709601
90	0x3cc99970	0.024609298
91	0x3cf419cb	0.029797455
92	0x3c609304	0.013706926
93	0x3d511be0	0.051051974
94	0x3d4de65a	0.05026851
95	0x3d81596e	0.063158855
96	0x3c814779	0.015781151
97	0xbd11260e	-0.035436682
98	0x3d7426df	0.059607383
99	0x3cbda928	0.023151949
100	0xbc822fc9	-0.015891926
101	0x3d26d1c4	0.04072739
102	0x3c612330	0.0137412995
103	0xbc1888cf	-0.009309961
104	0x3a5a74c2	0.00083334383
105	0x3ce7549f	0.028238593
106	0x3d11c0e6	0.035584353
107	0x3cbb56c2	0.022868518
108	0x3ac7d18a	0.0015244943
109	0xbcd8e69f	-0.026477156
110	0x3bad85b4	0.0052954797
111	0xbcd505c7	-0.026003731
112	0x3d776bea	0.06040565
113	0xbae67c1c	-0.0017584595
114	0xbd62eed4	-0.055403545
115	0x3cb262b0	0.021775573
116	0xbcbc67d5	-0.02299873
117	0xbd1586d2	-0.036505528
118	0xbd676e5a	-0.056501724
119	0x3d1523a1	0.03641093
120	0x3d3ddcc0	0.0463531
121	0x3ceb29c3	0.028706437
122	0xbcb4472d	-0.022006596
123	0xbd2f14ed	-0.042744566
124	0x3d2c752f	0.042103942
125	0x3d48bcb8	0.0490081
126	0xbd84b74a	-0.06480272
127	0xbd305600	-0.043050766
128	0x3d211989	0.039330993
129	0xbd2ebf28	-0.04266277
130	0xbce3e94e	-0.02782121
131	0x3c0cd4d4	0.008595664
132	0xbcb12319	-0.021623181
133	0x3b183848	0.0023226906
134	0x3d1327ea	0.035926737
135	0xbd9b52db	-0.07584163
136	0x3cd8fe5a	0.026488472
137	0x3bed2316	0.0072368486
138	0xbd4f8cd5	-0.050671417
139	0x3c64f457	0.013974271
140	0x3d0ada83	0.033899795
141	0x3b83eea3	0.0040262504
142	0x3c8d3e9b	0.017241767
143	0x3c6c84de	0.014435975
144	0xbd180a01	-0.037118915
145	0x3d2c87ca	0.042121686
146	0x3c0862bb	0.00832432
147	0x3cdacbd7	0.026708527
148	0x3cbe8b81	0.02325988
149	0xbd07e71a	-0.03317938
150	0x3c8c9470	0.017160624
151	0x3d06ca13	0.032907557
152	0xbc2ee92f	-0.0106757125
153	0x3d07a614	0.03311737
154	0xbc344ab7	-0.0110041415
155	0xbd176988	-0.036965877
156	0xbcbb6dfa	-0.02287959
157	0xbd13e2b1	-0.03610486
158	0x3d202aab	0.03910319
159	0x3c8a40c3	0.016876584
160	0x3cab1e8b	0.020888587
161	0xbcdeb400	-0.02718544
162	0xbbcffd50	-0.006347336
163	0xbc75f8c8	-0.015012927
164	0x3bc002b9	0.0058596996
165	0x3cad465b	0.021151712
166	0xbd4d2270	-0.05008167
167	0x3c5b411b	0.013382222
168	0x3cff84f8	0.031191334
169	0x3c8bfc15	0.017087976
170	0x3c8f1b50	0.017469078
171	0x3cfbdd80	0.030745268
172	0xbc86c791	-0.016452583
173	0xbd68df03	-0.056853306
174	0x3ba4bcd4	0.005027393
175	0x3c28ad5f	0.010295241
176	0xba636228	-0.0008673989
177	0x3d94432e	0.07239376
178	0xbc9facfd	-0.019491667
179	0x3ba467dd	0.0050172643
180	0x3d8ab3da	0.06772585
181	0xbc090d6b	-0.0083650155
182	0xbc95cd5a	-0.018286396
183	0xbc95b37b	-0.01827406
184	0x3d007df4	0.03137012
185	0x3c862376	0.016374331
186	0x3c8830c2	0.016624812
187	0xbd93cae4	-0.07216433
188	0x3c8d4043	0.017242556
189	0x3d713e31	0.0588972
190	0x3da5d7e7	0.08097821
191	0x3cb921ed	0.022599185
192	0xbd5e02e9	-0.054201994
193	0x3c699eff	0.014259099
194	0x3ccda29f	0.025101958
195	0x3c61c1e8	0.013779141
196	0xbd2adfd4	-0.041717365
197	0x3d326ad6	0.043558918
198	0xbc80fe0a	-0.015746135
199	0x3aea7402	0.0017887356
200	0xbc2bbce3	-0.010482046
201	0x3d48484d	0.048897076
202	0xbdaaf4e7	-0.08347493
203	0xbb8884c4	-0.0041662175
204	0xbc947dbd	-0.018126363
205	0xbcdf023d	-0.027222747
206	0xbcc923c0	-0.02455318
207	0xbd4490f7	-0.04798981
208	0x3d506cc8	0.050884992
209	0x3d3e16ac	0.04640834
210	0x3d0d75c6	0.034536146
211	0xbd7ee435	-0.062229354
212	0xbc56b6cc	-0.013105106
213	0xbd48ab0f	-0.04899126
214	0x3d1acfc8	0.037795812
215	0xbc805e8b	-0.015670082
216	0x3af68c53	0.001881013
217	0xbd49189e	-0.049095742
218	0xbd9c841e	-0.07642387
219	0xbcc85e37	-0.024458988
220	0xbb20ce0e	-0.002453688
221	0xbb74a11f	-0.003732748
222	0xbd60f596	-0.05492171
223	0x3cb0330e	0.02150872
224	0xbc2a7e88	-0.010406144
225	0xbd0b5d8a	-0.034024753
226	0x3d1b38ae	0.03789585
227	0xbd2412c3	-0.040056955
228	0xbc3e500c	-0.011615764
229	0xbc9e7c42	-0.01934636
230	0xbb2651a6	-0.0025378256
231	0xbb427b69	-0.002967561
232	0x3c73a6c5	0.014871304
233	0xb9ea99b2	-0.0004474647
234	0xbd20711b	-0.039170366
235	0x3c2adef7	0.0104291355
236	0x3d3d0c70	0.04615444
237	0x3b1e7a71	0.0024181867
238	0xbd8ab17b	-0.06772133
239	0x3ca90e15	0.020636598
240	0xbcafe67e	-0.021472212
241	0x3ce86061	0.02836627
242	0x3d3a072b	0.045416992
243	0xbc58fb1b	-0.013243462
244	0xbc871c78	-0.016493067
245	0xbc7704b6	-0.015076807
246	0x3d68188c	0.056664035
247	0x3947be5c	0.00019049033
248	0xbc9392b3	-0.018014288
249	0x3d46a9af	0.048501667
250	0xbcb41046	-0.021980416
251	0xbd78bd98	-0.060727686
252	0x3d7ac703	0.06122495
253	0x3d44a166	0.048005484
254	0xbceda078	-0.029007182
255	0x3d8415a6	0.064494416

bias f4 [32]
0	0x3d484297	0.04889163
1	0xbbd08dc1	-0.0063645546
2	0xbd375c8b	-0.04476599
3	0xbcc95f9d	-0.024581725
4	0x3d42233d	0.047396887
5	0xbd6f10f6	-0.058365785
6	0xbce33ca0	-0.02773887
7	0xbcd628bd	-0.026142472
8	0xbd49b0bc	-0.049240813
9	0xbcbd8020	-0.023132384
10	0x3cd31031	0.025764557
11	0xbb82aeb3	-0.003988111
12	0x3c08d25a	0.008350933
13	0x3a488964	0.00076498673
14	0x3d67e2ee	0.0566129
15	0xbd314480	-0.043278217
16	0x3c6e6448	0.014550276
17	0xbcc66187	-0.024216427
18	0x3c9de264	0.01927299
19	0x3bc71bbc	0.0060763042
20	0x3d8165af	0.06318223
21	0xbca36098	-0.01994352
22	0x3d14ed4f	0.036359128
23	0x3ce0da1c	0.027447753
24	0xbd4a3976	-0.049371205
25	0xbcc11029	-0.023567276
26	0x3cae57ff	0.021282194
27	0x3c40ba5a	0.01176318
28	0xbd057be9	-0.032588873
29	0xbb01e63f	-0.0019821075
30	0xbc3b4b12	-0.011431472
31	0x3d49a8b7	0.049233165

weight f4 [32, 5, 5]
0	0xbe080359	-0.13282527
1	0xbdb1091a	-0.08644314
2	0x3d80e319	0.062933154
3	0xbe1a33b8	-0.15058792
4	0xbd8ca94c	-0.06868228
5	0x3dafa126	0.085756585
6	0x3d93c1ea	0.072147205
7	0xbd82d490	-0.06388199
8	0x3d928cf5	0.07155792
9	0x3d870018	0.06591815
10	0xbe214774	-0.15749913
11	0x3e08fdf1	0.13378121
12	0x3e48f6dd	0.19625421
13	0x3c252c5f	0.01008138
14	0x3e351b21	0.1768613
15	0xbc669322	-0.014073165
16	0xbd9b86a6	-0.075940415
17	0x3ad36e18	0.0016130833
18	0xbe172334	-0.14759523
19	0x3e0f55cf	0.13997577
20	0xbe07c9d4	-0.13260585
21	0xbdb52f1a	-0.088468745
22	0x3e0ecfa8	0.13946402
23	0x3d4dc938	0.050240725
24	0x3e14ff02	0.14550403
25	0x3da76865	0.081742086
26	0xbe1b639e	-0.1517472
27	0xbabf5caa	-0.001459976
28	0xbd483924	-0.04888262
29	0xbcb76d8a	-0.0223911
30	0xbe543e6a	-0.20726934
31	0xbd8d7802	-0.06907655
32	0xbd88b3c6	-0.06674914
33	0x3e005494	0.12532264
34	0xbd6d926e	-0.058000974
35	0xbe2d0bcd	-0.16899033
36	0xbdfcf1a8	-0.1235078
37	0x3e267d34	0.16258699
38	0xbb7b770e	-0.0038370523
39	0x3e24818d	0.16065045
40	0xbd030bb4	-0.031993583
41	0x3dc9e54c	0.09858188
42	0xbda201a8	-0.07910472
43	0xbe0d3b43	-0.13792138
44	0x3dd43ba9	0.10362942
45	0xbb18da27	-0.0023323388
46	0xbca95734	-0.020671465
47	0x3e231b25	0.15928324
48	0xbe34bc03	-0.17649846
49	0xbe44fd27	-0.19237195
50	0x3daeb87b	0.085312806
51	0xbd8ae5a1	-0.067820795
52	0xbdc9432e	-0.09827267
53	0x3c63468e	0.013871802
54	0x3da2003a	0.079101995
55	0x3e102944	0.14078242
56	0x3e02356a	0.12715688
57	0xbe183538	-0.14864051
58	0xbd1598a2	-0.036522515
59	0xbe1bec46	-0.1522685
60	0xbcf4bedd	-0.029876167
61	0x3e413bda	0.18870488
62	0xbdc1a546	-0.094553515
63	0x3dad899a	0.08473511
64	0x3d2b04a1	0.04175246
65	0x3d6a8f6a	0.057265677
66	0xbe3dfb59	-0.18552913
67	0xbe3f391f	-0.18674134
68	0x3db3e404	0.08783725
69	0x3d4ed9d4	0.050500706
70	0x3e36a958	0.17838037
71	0x3e363786	0.17794618
72	0x3e218d07	0.15776454
73	0x3d74e474	0.059788182
74	0xbd0b8723	-0.034064423
75	0xbde6d364	-0.11270788
76	0xbc4433a0	-0.011975199
77	0xbe060b93	-0.13090353
78	0xbcf4a33a	-0.029862989
79	0x3e04b545	0.12959774
80	0xbc6d14b5	-0.014470269
81	0xbd9264c5	-0.071481265
82	0xbdcd0608	-0.10010916
83	0x3d97e25c	0.074162215
84	0xbe313947	-0.17307006
85	0x3d8da63c	0.06916472
86	0xbc262232	-0.010139989
87	0xbd001122	-0.03126634
88	0x3e405514	0.18782455
89	0x3e1f8f46	0.15581998
90	0xbe2f65c4	-0.17128664
91	0x3d5a5c8c	0.053310916
92	0xbde92e12	-0.1138574
93	0x3d81fcc3	0.063470386
94	0x3d07b109	0.03312782
95	0x3d4c4caa	0.0498778
96	0x3e4d4c4c	0.20048636
97	0x3e41b15f	0.18915318
98	0xbe3e74a3	-0.18599181
99	0xbdf0213b	-0.11725088
100	0x3e1d917a	0.15387526
101	0xbd3e67e9	-0.046485815
102	0xbdf3a212	-0.11896147
103	0xbce51c55	-0.027967611
104	0xbe4dab2a	-0.20084825
105	0x3e1eb4ab	0.15498607
106	0x3d9ed032	0.07754554
107	0xbdff89c7	-0.12477451
108	0x3e01ee39	0.12688531
109	0xbd37191a	-0.044701673
110	0x3d94dfaa	0.07269223
111	0xbe0eacc3	-0.13933091
112	0xbe4cb5d7	-0.19991241
113	0x3d3f104b	0.046646398
114	0xbd35aeaa	-0.044356026
115	0x3dc30960	0.095232725
116	0xbe16e224	-0.14734703
117	0xbe38f4bc	-0.18062109
118	0xbda44ce2	-0.08022477
119	0xbc2879d6	-0.010282954
120	0xbe347b92	-0.17625263
121	0xbe299c6f	-0.16563581
122	0xbbdb1a1b	-0.0066864616
123	0x3e09eb03	0.13468556
124	0xbe3e37ae	-0.18575928
125	0x3e2fff04	0.17187124
126	0x3de83f6e	0.11340223
127	0x3e10d21e	0.14142653
128	0xbdc6d2f5	-0.097082056
129	0x3d918d2a	0.07107003
130	0xbe05329e	-0.1300759
131	0x3e373b45	0.17893703
132	0x3da5366e	0.08067022
133	0xbdd50db2	-0.10403003
134	0x3ca63bb9	0.02029215
135	0xbda51e25	-0.0806239
136	0x3e11760b	0.14205186
137	0xbe1bfd24	-0.15233284
138	0xbe2ebd26	-0.17064342
139	0x3e392e35	0.18084033
140	0x3d9ef0a6	0.07760744
141	0x3d50cf1a	0.050978757
142	0xbc9fa116	-0.019485991
143	0xbd986b35	-0.07442323
144	0x3e19eccb	0.15031736
145	0x3d097d2c	0.03356664
146	0xbd220aaf	-0.03956097
147	0x3e2d06cb	0.16897123
148	0xbd8a016d	-0.06738553
149	0xbe254411	-0.16139247
150	0x3dfb91e0	0.12283683
151	0x3d8e35ef	0.06943881
152	0xbe0640b5	-0.13110621
153	0x3d80b824	0.06285122
154	0xbd3c67d1	-0.045997445
155	0x3c95f17d	0.018303627
156	0x3d4ef724	0.05052866
157	0xbdf5e28d	-0.12006102
158	0xbdb8b978	-0.0901975
159	0xbcc85f52	-0.024459515
160	0xbdc1edd4	-0.0946919
161	0xbdc63145	-0.09677366
162	0x3da88453	0.08228364
163	0xbdb3dca4	-0.08782318
164	0x3dabfa4b	0.08397349
165	0xbc979169	-0.018501954
166	0xbe488fbb	-0.19586079
167	0x3dde8004	0.10864261
168	0xbe0ae5a5	-0.13564165
169	0x3e006c9e	0.12541434
170	0x3d622805	0.055213947
171	0xbdaa4189	-0.08313281
172	0x3cd02836	0.0254098
173	0x3dccc6f0	0.09998882
174	0xbd9dd3c3	-0.07706406
175	0x3e132cc3	0.14372544
176	0x3e28de0c	0.16490954
177	0xbdf6e9bf	-0.12056302
178	0x3dd30995	0.10304562
179	0x3d880a23	0.066425584
180	0x3e16fc92	0.14744785
181	0x3d9fa5ff	0.07795333
182	0x3d9b0003	0.075683616
183	0xbd26b3f0	-0.040698946
184	0xbda46f59	-0.080290504
185	0xbe187736	-0.14889225
186	0xbd9e9c38	-0.0774464
187	0x3ca1aef3	0.019736743
188	0x3d494e1f	0.049146768
189	0xbe41953a	-0.18904582
190	0x3c972570	0.018450469
191	0xbe41fe81	-0.18944742
192	0xbde693e2	-0.11258675
193	0xbe25a25c	-0.16175216
194	0xbd1d9d41	-0.038480047
195	0x3e490aeb	0.19633071
196	0x3dd32a08	0.10310751
197	0x3e170006	0.14746103
198	0xbe405b24	-0.18784767
199	0x3e4871f3	0.19574718
200	0x3cef9854	0.02924744
201	0x3d15a603	0.036535274
202	0xbd287216	-0.041124426
203	0xbe2369a5	-0.15958269
204	0xbe49f925	-0.19723947
205	0xbde64a6a	-0.11244662
206	0xbd938c8c	-0.072045416
207	0x3d0b4f3b	0.034011107
208	0xbdd55c92	-0.10418047
209	0x3d28ef4d	0.04124384
210	0x3c78aa33	0.015177297
211	0xbe3a4d80	-0.18193626
212	0xbe476c79	-0.19474973
213	0x3d8d911b	0.06912442
214	0xbc622699	-0.013803148
215	0x3dc2c9a6	0.09511118
216	0x3e1e307a	0.1544818
217	0xbd6e60d6	-0.05819782
218	0xbd74969d	-0.05971395
219	0x3e07dabd	0.13267036
220	0x3d9f87b3	0.077895544
221	0xbe292f60	-0.16521978
222	0x3dc622a4	0.09674576
223	0x3df96f0a	0.12179382
224	0x3dde3191	0.10849298
225	0x3dc92ae2	0.09822632
226	0x3dc69e8e	0.09698211
227	0xbdfc9c1f	-0.12334465
228	0x3d8a1f63	0.06744268
229	0xbbaa8610	-0.00520397
230	0xbcb6107f	-0.022224663
231	0x3da5a2d8	0.080877006
232	0xbd0f7740	-0.035025835
233	0x3dd3bd6b	0.10338863
234	0x3d57ae3b	0.052656393
235	0xbe2611fc	-0.16217798
236	0x3d5e0df8	0.05421254
237	0xbe4dab23	-0.20084815
238	0x3e1d8ae2	0.15385011
239	0xbdcb8761	-0.09937931
240	0x3c74caf2	0.014940964
241	0x3dfdab44	0.12386182
242	0xbd60c3c1	-0.054874185
243	0x3d8a73cc	0.06760368
244	0x3d1a4927	0.03766742
245	0x3dd5e206	0.10443501
246	0x3d5cbc4f	0.053890523
247	0x3df49644	0.119427234
248	0x3c449c5e	0.0120001715
249	0x3da89199	0.082308955
250	0x3e161a09	0.14658369
251	0xbdae1a53	-0.08501115
252	0x3d1f3f78	0.038878888
253	0x3e359b70	0.17735076
254	0xbe38c888	-0.18045247
255	0xbe3dac2c	-0.1852271

bias f4 [32]
0	0xbe25aabf	-0.16178416
1	0xbe14afc0	-0.14520168
2	0x3d76be10	0.06023985
3	0x3d6e5f1e	0.05819618
4	0x3d53ff4f	0.051757153
5	0xbb494aae	-0.0030714679
6	0xbdf37b00	-0.11888695
7	0xbe1016e6	-0.14071235
8	0xbe4a3974	-0.19748479
9	0xbd9b6af0	-0.07588756
10	0x3ce1d47b	0.027567139
11	0xbda72455	-0.08161227
12	0x3e1b8734	0.15188295
13	0x3dffa3fc	0.124824494
14	0x3d98dae6	0.074636266
15	0x3e4342a1	0.19068386
16	0x3e4911d5	0.19635709
17	0x3cccd4d5	0.02500383
18	0xbd834910	-0.0641042
19	0xbdcca71a	-0.099928096
20	0xbe168a5e	-0.1470122
21	0x3d47e3e8	0.048801333
22	0xbdcc009e	-0.09961055
23	0xbdfa85a0	-0.12232518
24	0x3d565c81	0.052334312
25	0xbe201979	-0.15634717
26	0xbd945542	-0.07242824
27	0x3d2b8af3	0.04188056
28	0x3e24f295	0.16108163
29	0x3e156ac9	0.14591517
30	0x3e08720b	0.13324754
31	0x3e276ebd	0.16350837

weight f4 [32, 20, 1]
0	0x3d9dd35d	0.0770633
1	0xbd804ee1	-0.06265045
2	0xbe03b0ad	-0.12860365
3	0xbe55dd24	-0.2088514
4	0x3e2f4797	0.17117153
5	0x3e23debe	0.16002938
6	0xbe5326a0	-0.20620203
7	0x3deb5883	0.11491492
8	0xbd12dc56	-0.03585466
9	0xbe42707e	-0.18988225
10	0x3da3b020	0.079925776
11	0x3dce79ee	0.1008185
12	0xbc963f0f	-0.018340616
13	0xbe42e987	-0.19034396
14	0x3d86e0ef	0.065858714
15	0xbe291c73	-0.16514759
16	0x3d15f8ef	0.036614355
17	0xbdc99dc2	-0.09844543
18	0xbe0c69de	-0.1371226
19	0x3e0dc41b	0.1384434
20	0xbd889393	-0.066687725
21	0xbe131a53	-0.1436551
22	0x3bd34a21	0.006448046
23	0x3e00d843	0.12582497
24	0xbe155ef7	-0.14587007
25	0x3e398ab6	0.1811932
26	0x3e1f1936	0.15536961
27	0xbe4061f4	-0.18787366
28	0x3d557a6b	0.0521187
29	0xbad58763	-0.0016290959
30	0xbd9c3cce	-0.07628785
31	0xbcc1f5b3	-0.023676729
32	0xbe2d7cdf	-0.16942166
33	0x3d423c93	0.04742105
34	0x3e23b235	0.1598595
35	0x3e55281f	0.20816086
36	0x3e496977	0.19669138
37	0xbd8cdad7	-0.06877678
38	0xb9c588c6	-0.00037676672
39	0xbe58dd38	-0.21178138
40	0x3d5ebfd9	0.05438218
41	0x3e1219a2	0.1426759
42	0x3bac7e49	0.005264078
43	0x3dad748f	0.084694974
44	0xbe61f4b5	-0.22066005
45	0xbdd7c4eb	-0.10535606
46	0xbdaf9656	-0.08573596
47	0xbe103b07	-0.14085017
48	0x3e50c40b	0.20387284
49	0xbe1ee902	-0.15518573
50	0xbe52ea55	-0.20597203
51	0xbe54943b	-0.2075967
52	0x3d5e4b3b	0.054270964
53	0x3dfff0fa	0.124971345
54	0x3d0682c7	0.032839563
55	0xbdacdb9c	-0.08440325
56	0x3e19248a	0.14955345
57	0xbe05161c	-0.12996715
58	0xbe509cf1	-0.20372368
59	0x3e62976b	0.22128074
60	0x3e487176	0.19574532
61	0xbcaf6ae3	-0.021413272
62	0x3c94db27	0.018170906
63	0x3d1ed921	0.03878129
64	0xbd3a4829	-0.045478974
65	0x3e202b69	0.1564156
66	0xbe5c1e0f	-0.21495841
67	0xbc974fc4	-0.018470652
68	0x3d89c63f	0.067272656
69	0xbd5358f2	-0.051598497
70	0x3e298433	0.16554336
71	0x3e1dc619	0.154076
72	0xbe555dcb	-0.2083656
73	0x3d4cdd90	0.050015986
74	0xbe4d6194	-0.20056754
75	0x3e1c3e34	0.15258104
76	0x3d84f7c8	0.06492573
77	0x3cc8c087	0.024505867
78	0xbb6b7c69	-0.0035932309
79	0x3dd7db38	0.105398595
80	0xbd23e6c2	-0.04001499
81	0x3d7782d3	0.060427498
82	0xbdee8f5c	-0.116484374
83	0xbd88ce44	-0.06679967
84	0xbde7962a	-0.113079384
85	0xbd7d861a	-0.061895467
86	0xbdae2624	-0.085033685
87	0x3e566000	0.20935059
88	0xbde7770c	-0.11302003
89	0xbe24857d	-0.16066547
90	0x3e686583	0.22694974
91	0xbe0c4be4	-0.13700825
92	0xbcb1824c	-0.021668576
93	0x3e258020	0.16162157
94	0xbd056b82	-0.03257323
95	0xbd7c80c0	-0.061646223
96	0x3d97f2b3	0.07419338
97	0x3b614d02	0.0034378176
98	0xbdb2e863	-0.087357305
99	0x3cf70364	0.030152984
100	0x3e49c275	0.19703086
101	0x3de748ee	0.11293207
102	0x3df03555	0.11728922
103	0xbd3eaf36	-0.046553813
104	0xbdfd8801	-0.12379456
105	0x3e193ff8	0.14965808
106	0xbe426b80	-0.1898632
107	0x3e2d16ac	0.1690318
108	0x3e071253	0.13190584
109	0x3e4c075f	0.19924687
110	0xbded8b97	-0.1159889
111	0x3dc3488d	0.09535322
112	0x3e05402c	0.13012761
113	0x3e0f2697	0.13979565
114	0xbd2cd80d	-0.04219823
115	0xbdf36b41	-0.118856914
116	0x3df5757c	0.11985299
117	0x3deb7d55	0.114985146
118	0x3e3c72e9	0.1840321
119	0xbdba0bce	-0.09084283
120	0xbe27b4b7	-0.16377531
121	0x3cfb4aff	0.03067541
122	0xbd869541	-0.06571437
123	0x3e0b8f8c	0.13628978
124	0x3e08aa41	0.13346197
125	0xbe0c48a2	-0.13699582
126	0xbe09b1a6	-0.13446674
127	0x3ce8ec4f	0.028432993
128	0xbd730a76	-0.05933615
129	0xbd8069fe	-0.062702164
130	0x3e496bc0	0.1967001
131	0xbd9b24fb	-0.07575413
132	0xbdc9fd10	-0.09862721
133	0x3e1dcd41	0.1541033
134	0xbe0ccf52	-0.13750961
135	0xbdd33b3e	-0.10314034
136	0xbc9b7ff9	-0.01898192
137	0x3e3fb980	0.18723106
138	0xbe276c70	-0.1634996
139	0x3e18d17c	0.14923662
140	0xbe4a1e8f	-0.1973822
141	0xbdc5a455	-0.096504845
142	0xbd380b41	-0.044932608
143	0xbcb20726	-0.021731924
144	0x3e01782b	0.12643497
145	0xbdb98298	-0.09058112
146	0x3c2ae9d7	0.010431728
147	0x3d9a7558	0.07541913
148	0xbe05815c	-0.13037628
149	0xbe0c64c5	-0.13710316
150	0xbcf2ec89	-0.029653804
151	0x3e3b57f7	0.18295275
152	0xbc84413b	-0.016144386
153	0x3e42f5d1	0.19039084
154	0xbe14b778	-0.14523113
155	0x3b8dddb6	0.0043294085
156	0x3e57315c	0.21014923
157	0x3dd5fddc	0.104488105
158	0xbe2f6b97	-0.17130886
159	0x3e5365b8	0.20644271
160	0x3d25a696	0.04044207
161	0xbdd05413	-0.10172286
162	0xbd8f5669	-0.06998903
163	0x3e1aa48a	0.15101829
164	0x3d3c7ad9	0.046015594
165	0xbe1a8a69	-0.15091862
166	0x3d64cf9e	0.05586206
167	0xbc175692	-0.009236949
168	0x3dc7b2f1	0.09750927
169	0xbdb44d00	-0.08803749
170	0xbe1ed0a0	-0.15509272
171	0xbe21ebe2	-0.15812638
172	0x3e092bd5	0.13395627
173	0x3d3828ff	0.044960972
174	0x3dd1a627	0.10236769
175	0x3d9b465c	0.07581779
176	0xbcd49326	-0.025949072
177	0x3e43f579	0.19136609
178	0xbdd5ff84	-0.10449126
179	0x3cac0e9a	0.021003056
180	0x3d33e3c9	0.043918405
181	0x3d341b72	0.043971486
182	0x3e290ab1	0.16507985
183	0xbe2c9566	-0.16853866
184	0xbdb38c6a	-0.08767016
185	0xbe5ddddf	-0.21666668
186	0x3d1a7613	0.03771026
187	0x3dfc3510	0.12314808
188	0x3d561e07	0.05227473
189	0x3d62c5ad	0.0553643
190	0x3e56cd62	0.20976785
191	0x3ddb4e6a	0.10708316
192	0xbe382849	-0.17984118
193	0xbe55f7b0	-0.20895267
194	0xbca3a648	-0.01997675
195	0xbd7789e4	-0.060434237
196	0xbc3b308f	-0.0114251515
197	0x3e044fa1	0.12921001
198	0xbe2f68b5	-0.17129786
199	0x3d1f4f0b	0.03889374
200	0xbd90f4c4	-0.07077935
201	0xbd1af3ae	-0.037830047
202	0xbd9f112c	-0.07766947
203	0xbd14a2c2	-0.03628803
204	0xbe14fa15	-0.14548524
205	0xbe66a058	-0.22522104
206	0x3d27ed6a	0.0409979
207	0x3e0c9123	0.1372724
208	0xbcfddae1	-0.030988159
209	0xbcfd282d	-0.030902946
210	0x3e3a2a4b	0.18180196
211	0x3e403367	0.18769608
212	0x3e35b8a1	0.17746212
213	0xbe1ff728	-0.15621626
214	0xbc6f5ec5	-0.014609997
215	0x3e1735fc	0.14766687
216	0xbde9ca89	-0.11415584
217	0x3d7fcd66	0.062451743
218	0xbd3ac31a	-0.04559622
219	0x3d7afede	0.061278217
220	0x3d434a73	0.047678422
221	0xbdf94a72	-0.121724024
222	0xbc24d4cf	-0.010060503
223	0xbe2962e2	-0.16541627
224	0xbd4ee90c	-0.05051522
225	0x3d0d342d	0.034473587
226	0x3e420b0a	0.18949524
227	0xbe11366a	-0.14180914
228	0x3d0d8dc7	0.034559038
229	0x3e0c0bfa	0.13676444
230	0x3db87b7d	0.090079285
231	0x3e01874c	0.12649268
232	0xbd0ed95b	-0.034875255
233	0xbe4c0c08	-0.19926465
234	0xbdf033ef	-0.117286555
235	0xbe03f3b6	-0.12885937
236	0xbdac53ed	-0.08414445
237	0x3d8b67bb	0.068068944
238	0x3d622f81	0.055221085
239	0x3e1658df	0.14682339
240	0x3e11c51b	0.14235346
241	0x3e56d0b4	0.20978051
242	0x3e336c98	0.17521894
243	0x3e41969e	0.18905112
244	0x3d2ef0df	0.04271018
245	0xbda31604	-0.079631835
246	0xbe3b8de1	-0.18315841
247	0xbcfef90e	-0.031124618
248	0xbd8e97cb	-0.06962546
249	0xbd1703c8	-0.03686884
250	0x3d87672c	0.06611475
251	0x3d28b060	0.04118383
252	0x3e56ebe4	0.20988423
253	0xbdd7a66f	-0.105297916
254	0x3e04b0f1	0.12958123
255	0x3e386cad	0.18010207

bias f4 [32]
0	0xbe27fcbf	-0.16405009
1	0xbdfd885f	-0.12379526
2	0x3e45f18d	0.19330426
3	0x3e38c73b	0.1804475
4	0xbdfd9534	-0.12381974
5	0xbb1fa4f9	-0.0024359806
6	0xbdc50bee	-0.09621416
7	0x3e03c5a9	0.1286837
8	0xbe33ede1	-0.17571212
9	0xbc3a4a8c	-0.011370312
10	0x3d003731	0.031302635
11	0xbe3b0e7b	-0.18267243
12	0xbde6c598	-0.11268157
13	0xbdc6b6c2	-0.09702827
14	0xbe45d6b2	-0.19320181
15	0x3e6575af	0.22408174
16	0xbda8b916	-0.08238427
17	0x3e6426cc	0.22280425
18	0x3e59ff37	0.21288763
19	0xbd4d6835	-0.050148208
20	0x3e162385	0.14661987
21	0x3e10ef85	0.1415387
22	0xbe20edb7	-0.15715681
23	0xbd888746	-0.06666426
24	0x3dc5321b	0.096286975
25	0xbd9b7570	-0.07590759
26	0xbdef3d71	-0.11681641
27	0xbe0017ba	-0.12509051
28	0x3e4198bc	0.1890592
29	0xbd82910a	-0.0637532
30	0x3c8174f5	0.01580284
31	0x3db44b52	0.08803429

weight_ih_l0 f4 [96, 32]
0	0xbcdb48d4	-0.026768126
1	0xbe16da9a	-0.14731827
2	0x3d777109	0.060410533
3	0x3df5d211	0.120029576
4	0xbe084080	-0.13305855
5	0x3dd41be6	0.10356884
6	0x3d9caaa9	0.07649738
7	0x3d92fb0a	0.07176788
8	0xbe360bb8	-0.17777908
9	0x3d1f3dbd	0.038877238
10	0x3cc9f884	0.024654634
11	0x3dccd5f1	0.100017436
12	0x3db9a80e	0.09065257
13	0xbdc3e822	-0.0956576
14	0xbd97848b	-0.073983274
15	0xbd271f1f	-0.040801164
16	0xbdf932bd	-0.12167881
17	0x3d9def6f	0.07711684
18	0x3dbbd946	0.09172301
19	0x3ce996fd	0.02851438
20	0xbd4f4bcd	-0.0506094
21	0x3d3c7e24	0.046018735
22	0x3df461a7	0.11932688
23	0x3de96e2c	0.11397967
24	0x3cd774fa	0.026300896
25	0x3c35e847	0.0111027425
26	0x3deffee0	0.117185354
27	0x3e12b68f	0.14327453
28	0x3c62acc2	0.013835134
29	0xbdcb2a11	-0.09920133
30	0x3e053adb	0.13010733
31	0x3e354880	0.17703438
32	0xbdb72f36	-0.08944552
33	0x3dbbf513	0.091776036
34	0xbe1fdcd1	-0.15611579
35	0x3df0c27e	0.117558464
36	0x3d95fb5a	0.07323332
37	0x3e1e76f3	0.15475063
38	0x3c95abf2	0.018270466
39	0xbd9923da	-0.07477541
40	0xbe2bab3c	-0.1676454
41	0x3dd01d39	0.10161824
42	0x3dd1a2b4	0.10236111
43	0x3c4fa1fb	0.0126728965
44	0xbd90b3dc	-0.070655555
45	0xbdf68033	-0.12036171
46	0x3d1698a3	0.03676666
47	0x3e21c4f3	0.15797786
48	0xbe1460de	-0.14490077
49	0x3c9eeda8	0.019400433
50	0xbe26971e	-0.16268584
51	0xbdafc8f1	-0.085832484
52	0x3d577a6f	0.052606996
53	0xbe279469	-0.16365208
54	0x3e1f26f9	0.1554221
55	0xbda8c54e	-0.08240758
56	0xbdd92a9f	-0.106038325
57	0x3c2c8ab7	0.010531119
58	0x3e0c6f5a	0.13714352
59	0x3e138dfa	0.14409629
60	0x3dcbe92e	0.09956585
61	0xbdff5ee8	-0.12469274
62	0xbd475b04	-0.048670784
63	0xbe061fc1	-0.1309805
64	0x3e1a057b	0.15041153
65	0xbe0ff545	-0.14058407
66	0x3e4131c6	0.18866643
67	0x3def7757	0.11692684
68	0xbe228261	-0.15870048
69	0x3dbed0f8	0.093172014
70	0x3d97392d	0.07383952
71	0x3e2a861b	0.1665272
72	0xbd4fd3e6	-0.05073919
73	0xbe004c47	-0.12529097
74	0x3dfb6919	0.12275905
75	0x3d92e65b	0.07172843
76	0xbd903dc0	-0.07043028
77	0xbdd32899	-0.10310478
78	0x3b2c4b20	0.0026289895
79	0x3daa4ec5	0.08315805
80	0x3e36e6f6	0.17861542
81	0x3a674edd	0.0008823702
82	0x3e0d0123	0.13769965
83	0xbc5dba5f	-0.013533204
84	0xbe3050e0	-0.17218351
85	0xbe273055	-0.16327031
86	0xbe215301	-0.1575432
87	0xbe2e7978	-0.17038524
88	0x3ce40569	0.027834611
89	0x3de2bf47	0.110716395
90	0x3d034dbe	0.032056563
91	0xbe167efa	-0.14696875
92	0xbe2376af	-0.15963243
93	0xbc850e0e	-0.016242053
94	0x3e1c1145	0.15240963
95	0x3c9f8c5c	0.019476108
96	0xbe17fcfc	-0.148426
97	0xbd6f4e35	-0.058424193
98	0xbdd58990	-0.104266286
99	0x3e0ef995	0.13962395
100	0xbdfc3082	-0.1231394
101	0xbdcf81b9	-0.101321645
102	0xbdae15f5	-0.08500282
103	0xbd0de4b9	-0.034641955
104	0xbe36916e	-0.17828915
105	0x3da029ac	0.07820448
106	0xbda9ee98	-0.08297461
107	0x3dba1070	0.090851665
108	0xbddd6e54	-0.10812059
109	0x3e0a7fe4	0.13525349
110	0xbe31d6c2	-0.1736708
111	0xbdd611c6	-0.10452609
112	0x3d4d431b	0.050112825
113	0xbe00f4c9	-0.12593378
114	0xbd78f5d5	-0.06078132
115	0x3dbc64a5	0.09198884
116	0x3b6b7278	0.0035926383
117	0x3acae3e7	0.0015479297
118	0x3e27ccf6	0.1638678
119	0xbd654297	-0.05597171
120	0xbe31add7	-0.17351471
121	0x3d486599	0.048925016
122	0xbda1a528	-0.07892829
123	0x3c7b33b5	0.015332152
124	0x3e16fbd0	0.14744496
125	0xbd9ad502	-0.07560159
126	0x3d0c646b	0.034275454
127	0xbdc6a5c0	-0.09699583
128	0xbe060c84	-0.13090712
129	0x3e006ab1	0.125407
130	0xbe1c44a8	-0.15260565
131	0x3da06410	0.078315854
132	0xbdb67371	-0.089087375
133	0x3d435a46	0.047693513
134	0x3d8bb8c7	0.06822353
135	0x3e26eb2f	0.16300653
136	0x3e0b077a	0.13577071
137	0xbdacfefd	-0.08447073
138	0x3d8c0e98	0.06838721
139	0x3e216259	0.15760173
140	0x3d460e7f	0.04835367
141	0xbe2d3182	-0.16913417
142	0x3ced57a5	0.028972456
143	0xbb6e3862	-0.0036349525
144	0x3e1377bf	0.14401148
145	0xbe20c4ee	-0.15700123
146	0xbcecd6a7	-0.028910948
147	0x3da181c5	0.0788608
148	0xbb3ff0b9	-0.002928777
149	0x3d7ebdec	0.062192842
150	0xbe1d4d7c	-0.15361589
151	0xbdf90f5e	-0.12161134
152	0xbdc7c4ed	-0.097543575
153	0xbdf0b5c4	-0.11753419
154	0x3d2f1628	0.04274574
155	0xbe0a59d9	-0.13510837
156	0xbd5c2524	-0.053746358
157	0x3dad1e20	0.084530115
158	0xbd34597c	-0.04403065
159	0xbdaaf812	-0.08348097
160	0xbd6524a8	-0.05594316
161	0xbe241ba2	-0.16026166
162	0xbc6142f0	-0.013748869
163	0xbcb1c8d1	-0.021702202
164	0x3d0ca409	0.034336124
165	0x3e5a21cd	0.21301956
166	0x3e0bcb5c	0.13651794
167	0x3d5b7f3e	0.053588144
168	0xbdc2a074	-0.0950326
169	0x3e30b383	0.17255978
170	0xbbb9baf3	-0.005668038
171	0xbdbc8ed2	-0.09206928
172	0xbde717d5	-0.112838425
173	0x3ddf6046	0.109070346
174	0xbcb9f4dd	-0.022699768
175	0xbe3f92c8	-0.18708336
176	0xbc37701a	-0.011196161
177	0x3e107b85	0.14109619
178	0xbe1617b2	-0.14657477
179	0x3c4b5e7e	0.012412665
180	0xbe5c5e2d	-0.215203
181	0xbe280e81	-0.16411783
182	0xbe0684bf	-0.13136576
183	0xbe368f27	-0.17828046
184	0x3dec4b6d	0.11537824
185	0xbc29e363	-0.010369155
186	0xbd0c60d9	-0.03427205
187	0xbdf14822	-0.11781336
188	0xbd97f684	-0.07420066
189	0xbdbf9e22	-0.09356333
190	0x3e0f4221	0.1399007
191	0x3e3498c1	0.17636396
192	0xbc80ad1c	-0.015707545
193	0xbd8b4274	-0.06799784
194	0xbdf91113	-0.1216146
195	0xbe230d04	-0.15922934
196	0xbcb8575c	-0.022502594
197	0xbce26447	-0.027635707
198	0xbe291c25	-0.16514643
199	0xbe1651f9	-0.14679708
200	0xbe278365	-0.16358717
201	0x3df07587	0.117411666
202	0xbd3f305b	-0.046676975
203	0xbc3a6f12	-0.01137902
204	0xbe035e6a	-0.12828985
205	0xbd94b1ff	-0.072605126
206	0xbd988643	-0.074474834
207	0xbd74b924	-0.059746876
208	0xbd1da0e5	-0.03848352
209	0xbd514b06	-0.05109694
210	0x3c429c23	0.011878046
211	0xbda0ebeb	-0.07857498
212	0x3cf2069b	0.029544165
213	0xbd6a3a08	-0.05718425
214	0xbdf73f29	-0.12072594
215	0x3e34591e	0.1761212
216	0xbdfa66c7	-0.122266345
217	0xbdbff8c1	-0.09373618
218	0x3dd67dc3	0.10473206
219	0xbd4bb1d1	-0.049730126
220	0x3e16d4d2	0.14729622
221	0x3e0c118d	0.1367857
222	0x3df7294e	0.12068425
223	0x3dc24391	0.094855435
224	0x3e1f8f5a	0.15582028
225	0x3e08d3d6	0.13362059
226	0x3e2775eb	0.16353576
227	0x3d735fd2	0.059417553
228	0xbe11a510	-0.14223123
229	0x3d7cefc4	0.061752096
230	0xbd48d99b	-0.04903565
231	0x3e11a332	0.1422241
232	0x3dbaf848	0.09129387
233	0x3dfbed17	0.12301081
234	0xbc7743e1	-0.015091867
235	0x3ca18953	0.019718802
236	0xbdf80e0e	-0.12112056
237	0xbce52791	-0.027972968
238	0xbe236815	-0.15957673
239	0x3dbf8471	0.09351433
240	0xbdd43799	-0.10362167
241	0xbe0c8c63	-0.13725428
242	0x3e07821e	0.1323323
243	0xbdbffce1	-0.09374405
244	0x3c887f63	0.016662305
245	0x3d67c736	0.056586467
246	0xbd98fa1b	-0.07469579
247	0xbdde2c8e	-0.10848342
248	0x3e05d16f	0.13068174
249	0xbdcc5383	-0.09976866
250	0xbdb40aca	-0.0879112
251	0xbdad2101	-0.084535606
252	0x3dac405c	0.08410713
253	0xbdf102b0	-0.11768091
254	0x3bd6834f	0.006546415
255	0xbe0a5f44	-0.13512903

weight_hh_l0 f4 [96, 32]
0	0x3d84c2a7	0.064824395
1	0xbe03e933	-0.12881927
2	0x3dae5747	0.085127406
3	0x3d801199	0.062533565
4	0x3dce3d62	0.100703016
5	0x3d2784b6	0.040898047
6	0xbd692460	-0.056919456
7	0xbd8d5de9	-0.069026776
8	0xbde1d7d2	-0.110274926
9	0xbe090ca7	-0.13383733
10	0xbde5b82c	-0.112167686
11	0xbbaab965	-0.005210089
12	0x3df605ec	0.12012848
13	0x3bb46ff9	0.0055065122
14	0x3e196cd8	0.14982927
15	0xbda2b9ca	-0.07945593
16	0x3d89077b	0.0669088
17	0x3d0a13a8	0.033710152
18	0xbe099d43	-0.13438897
19	0xbd297a42	-0.04137636
20	0xbd0c10d0	-0.03419572
21	0xbe04c1e0	-0.12964582
22	0x3e2c595c	0.16830963
23	0xbd724eec	-0.059157297
24	0x3d977b99	0.07396621
25	0xbe274459	-0.16334666
26	0xbdea6b3e	-0.11446236
27	0x3e078027	0.1323248
28	0x3d85d669	0.06535036
29	0xbd897542	-0.06711818
30	0x3dd92f0c	0.106046766
31	0x3c25b59e	0.010114102
32	0x3e1f6b37	0.15568243
33	0x3d4ef446	0.050525926
34	0x3a09e95f	0.000526091
35	0x3cb63d75	0.022246102
36	0xbd1aaf6d	-0.037764955
37	0x3da210bd	0.07913349
38	0x3dbaebc2	0.091269985
39	0xbda188b8	-0.07887405
40	0xbd65594a	-0.055993356
41	0x3aa0aa6c	0.0012257821
42	0x3da69ce3	0.081353925
43	0xbe25c977	-0.16190134
44	0xbda185f5	-0.078868784
45	0x3e2ec944	0.17068964
46	0x3c698cef	0.014254793
47	0x3b8a267b	0.004216013
48	0xbe33b77c	-0.17550462
49	0x3e36180f	0.17782615
50	0x3d4550a9	0.048172627
51	0x3a131388	0.00056105154
52	0xbdc34cc1	-0.09536124
53	0xbd4ccc9c	-0.04999982
54	0xbd719df2	-0.05898852
55	0x3cfd6c22	0.03093535
56	0x3dc5834f	0.09644186
57	0xbe16a28c	-0.14710444
58	0x3daaac2b	0.0833362
59	0xbb7093ec	-0.0036709262
60	0x3c416715	0.011804362
61	0xbd4bd583	-0.049764168
62	0xbde325c5	-0.11091188
63	0x3d775089	0.06037954
64	0xbdcb0bf5	-0.0991439
65	0xbe23de10	-0.16002679
66	0xbd682514	-0.056675985
67	0xbe150915	-0.14554246
68	0x3e04f897	0.12985454
69	0xbe222d8a	-0.15837684
70	0xbda05c61	-0.0783012
71	0x3d96501f	0.07339501
72	0xbd5ac36d	-0.05340903
73	0xbb47e40f	-0.0030500924
74	0xbddfb11e	-0.10922454
75	0x3e0c0e6f	0.13677381
76	0x3b771d90	0.003770683
77	0xbe3f52d9	-0.18683948
78	0xbcbc9cd2	-0.023023997
79	0x3e0fe76a	0.14053121
80	0x3d14c325	0.036318917
81	0xbb49b312	-0.00307769
82	0xbdeb71b3	-0.11496296
83	0x3d9dbdee	0.07702242
84	0x3de128cd	0.1099411
85	0xbe30ce71	-0.17266251
86	0x3df5050e	0.11963855
87	0xbe048a06	-0.12943277
88	0xbdc19f90	-0.09454262
89	0xbc024ae3	-0.007952425
90	0x3ded0f8c	0.11575231
91	0x3d40abac	0.04703872
92	0x3dab8d6f	0.08376586
93	0x3dbe97af	0.09306275
94	0x3deca536	0.11554949
95	0x3ce7f513	0.028315103
96	0xbb9e948c	-0.0048394855
97	0x3ddd5796	0.10807721
98	0xbd90dd26	-0.07073431
99	0x3e2af18e	0.16693708
100	0x3dd68f4c	0.104765505
101	0xbdf07e4c	-0.11742839
102	0x3c9d67f4	0.019214608
103	0x3d53309d	0.051560033
104	0xbd380808	-0.044929534
105	0x3c919363	0.017770475
106	0x3d4c3e89	0.049864326
107	0x3de28920	0.11061311
108	0x3d9d528f	0.076817624
109	0x3e2b64f1	0.16737725
110	0xbdd8b6ea	-0.10581763
111	0xbe2dbd42	-0.16966727
112	0xbd8c17f4	-0.06840506
113	0x3c473f06	0.012161022
114	0x3e2eb41e	0.17060897
115	0xbd80b153	-0.06283822
116	0xbe25f69d	-0.16207357
117	0x3d080ec2	0.0332172
118	0x3df4b7df	0.11949133
119	0xbd57c5d3	-0.052678894
120	0x3e2747e5	0.1633602
121	0xbe2f1213	-0.17096739
122	0xbd47e783	-0.04880477
123	0x3dd33794	0.10313335
124	0xbdecc0f0	-0.115602374
125	0xbdd672cb	-0.10471114
126	0x3dee4beb	0.11635574
127	0xbdb725e2	-0.089427724
128	0x3e39978d	0.18124218
129	0xbcea7ad2	-0.028623018
130	0xbd07cc02	-0.03315354
131	0xbc814670	-0.015780658
132	0x3d9d7a99	0.07689399
133	0x3d7167dc	0.05893694
134	0xbddb8d2e	-0.10720287
135	0xbe02f150	-0.12787366
136	0xbd78c9aa	-0.060739197
137	0x3e0ed180	0.13947105
138	0xbc90b650	-0.017665058
139	0xbe07ca30	-0.13260722
140	0xbd85cf3e	-0.06533669
141	0xbdbe217a	-0.09283729
142	0xbdcea03a	-0.100891545
143	0x3e05c622	0.13063863
144	0xbd2fdfcb	-0.042938035
145	0x3e1d6f4c	0.15374488
146	0xbe247aac	-0.1606242
147	0x3de8ea20	0.11372781
148	0xbcc3263a	-0.023821939
149	0xbe24dc57	-0.16099678
150	0x3d7fcd4c	0.062451646
151	0xbc4785e3	-0.012177917
152	0xbdeb5d55	-0.11492411
153	0xbe145a92	-0.14487675
154	0x3e00d10e	0.12579748
155	0xbe052024	-0.13000542
156	0x3d791475	0.060810525
157	0xbde508a7	-0.11183291
158	0x3e264084	0.16235548
159	0x3dd2aa34	0.1028637
160	0xbe34f39a	-0.17671052
161	0x3d6a26c0	0.05716586
162	0xbd5a957a	-0.05336521
163	0x3ca1ae06	0.019736301
164	0x3d3ecc95	0.046581823
165	0x3e2763fd	0.16346736
166	0xbdb22f8a	-0.087004736
167	0xbe31f03d	-0.173768
168	0x3db9b5ce	0.090678796
169	0xbe163655	-0.14669164
170	0x3e14a256	0.14515051
171	0x3e1d2b30	0.15348506
172	0xbda0a699	-0.07844276
173	0xbde7184c	-0.11283931
174	0x3b87d1a0	0.0041448623
175	0xbc95137c	-0.018197767
176	0xbd8f64df	-0.070016615
177	0xbddf1990	-0.108935475
178	0xbe0fc8d2	-0.1404145
179	0xbe0ace4c	-0.13555259
180	0x3d4f8e43	0.05067278
181	0xbe3b226c	-0.1827485
182	0xbdef5af1	-0.116872676
183	0xbdfafaaa	-0.122548416
184	0xbd37186e	-0.044701032
185	0x3dcb3e1c	0.09923956
186	0xbd0308f8	-0.031990975
187	0x3e12a55d	0.14320894
188	0x3d5027d4	0.050819233
189	0x3de4f36d	0.11179242
190	0x3dcb9d18	0.09942073
191	0x3dda50fd	0.106599785
192	0x3d18251a	0.037144758
193	0xbd56920b	-0.05238537
194	0x3de5ac90	0.11214554
195	0x3e10a4ef	0.14125417
196	0x3e3f2157	0.18665062
197	0xbda0d10a	-0.07852371
198	0xbdf93cd0	-0.12169802
199	0x3dd4d79f	0.10392689
200	0xbe0cfe6f	-0.13768934
201	0xbdc802e4	-0.09766176
202	0x3c6d05b4	0.014466692
203	0x3da5a364	0.08087805
204	0xbe40d21d	-0.18830152
205	0x3d963898	0.07335013
206	0x3e41ba3b	0.18918698
207	0x3d6cef52	0.05784542
208	0xbe08d176	-0.13361153
209	0x3e2f3273	0.17109089
210	0x3de08feb	0.1096495
211	0x3da148b4	0.07875195
212	0xbdfb8d76	-0.12282841
213	0xbb504aac	-0.003178279
214	0x3e2b059e	0.16701362
215	0xbd07d7e4	-0.033164874
216	0x3d437905	0.047722835
217	0x3e2ba877	0.16763483
218	0x3c3e985d	0.011633006
219	0x3df4c6b8	0.11951965
220	0x3ca61022	0.020271365
221	0x3db439f4	0.08800116
222	0x3dc26360	0.094916105
223	0xbb6938c4	-0.0035586813
224	0x3d98b5da	0.074565604
225	0x3caeb4b0	0.021326393
226	0xbdbf2287	-0.093327574
227	0x3c08c8ed	0.008348686
228	0xbd7efb31	-0.062251274
229	0x3d3e0472	0.046390958
230	0xbd357b58	-0.044307083
231	0xbdb1a975	-0.086748995
232	0x3e1eabc4	0.15495211
233	0x3ca35d82	0.019942049
234	0x3d265104	0.040604606
235	0x3e1d38f2	0.15353754
236	0xbc203f66	-0.00978074
237	0x3e09b287	0.13447009
238	0x3c6d2d0f	0.014476075
239	0xbd02637f	-0.031833168
240	0x3e29f201	0.16596223
241	0x3ce5e2ae	0.02806219
242	0x3d55de11	0.052213732
243	0x3d8c355e	0.068461165
244	0x3d78fc9d	0.060787786
245	0x3deae0a5	0.11468629
246	0x3e22c9c0	0.15897274
247	0x3d3a6899	0.04550991
248	0xbd1b1e26	-0.03787055
249	0xbc9289cb	-0.01788797
250	0xbde7b15a	-0.11313124
251	0xbe244368	-0.16041338
252	0xbe271aaa	-0.16318765
253	0x3d37bbf6	0.044856988
254	0xbd593e4d	-0.05303793
255	0x3e1acc9c	0.15117115

bias_ih_l0 f4 [96]
0	0x3df67a46	0.120350406
1	0x3d5e2495	0.054234106
2	0x3dd512e8	0.10403997
3	0x3e01646e	0.12635967
4	0x3dde2ad5	0.10848013
5	0x3dd5c58a	0.10438068
6	0x3e39c4e9	0.18141522
7	0xbc4f07b1	-0.012636111
8	0x3d9653a7	0.07340174
9	0xbe0bc233	-0.136483
10	0x3df58182	0.11987592
11	0xbe31f7fe	-0.17379758
12	0xbcdb0d77	-0.026739819
13	0xbd2446d1	-0.0401066
14	0xbd4d2493	-0.050083708
15	0xbe2a43bb	-0.166274
16	0xbe0d8228	-0.13819182
17	0x3ccfed7a	0.025381792
18	0x3ddce047	0.10784965
19	0xbe11f684	-0.14254194
20	0xbda808f4	-0.08204833
21	0xbd252ac0	-0.040323973
22	0xbcdc2aff	-0.02687597
23	0xbe16ab2d	-0.14713736
24	0x3da09519	0.07840938
25	0x3e11909c	0.1421532
26	0x3ddc3194	0.10751644
27	0xbc893e55	-0.016753355
28	0x3cce2eda	0.025168825
29	0xbe1a44aa	-0.15065256
30	0x3d95884a	0.07301386
31	0xbdc282cf	-0.09497606
32	0x3dad8997	0.08473509
33	0x3e2b20dd	0.16711755
34	0xbce8b013	-0.028404271
35	0x3e0ad869	0.13559116
36	0xbde3f3d7	-0.11130493
37	0xbe31b17b	-0.1735286
38	0x3bef6006	0.007305148
39	0xbd0f4a97	-0.034983244
40	0xbdb0d886	-0.086350486
41	0xbbed43de	-0.0072407564
42	0xbc655e99	-0.013999605
43	0xbd41fa4c	-0.047357842
44	0xbc119634	-0.008885909
45	0xbdc6c608	-0.0970574
46	0x3d9b2e53	0.07577195
47	0x3d560229	0.052248154
48	0x3e03928d	0.12848873
49	0xbce93e8f	-0.028472213
50	0x3e1fdc2b	0.15611331
51	0xbd0bde3e	-0.034147494
52	0x3dc58da5	0.09646157
53	0xbc806aac	-0.015675865
54	0xbe08090a	-0.13284698
55	0x3e0f8fea	0.14019743
56	0x3c1874f5	0.0093052285
57	0x3da1a45e	0.07892679
58	0xbd8e55a0	-0.069499254
59	0x3d944340	0.072393894
60	0xbcc7671c	-0.024341159
61	0xbe2a34c2	-0.16621688
62	0x3ad9323e	0.001657076
63	0xbcfea523	-0.031084603
64	0x3dba050d	0.090829946
65	0xbe1a930c	-0.15095156
66	0x3d8a0f47	0.06741195
67	0x3e008b10	0.12553048
68	0x3c8cf3ad	0.017206037
69	0x3d80c294	0.06287113
70	0x3e29a3e9	0.16566433
71	0xbd965db9	-0.07342095
72	0xbe01645d	-0.12635942
73	0xbdda131b	-0.10648175
74	0xbde1131b	-0.10989972
75	0x3d9653bc	0.0734019
76	0xbe1442d7	-0.14478622
77	0x3e2473b0	0.16059756
78	0x3de26fb5	0.11056463
79	0xbe06ec29	-0.13176025
80	0x3e021bbe	0.12705895
81	0xbe2bfe2e	-0.1679618
82	0xbe096ee0	-0.13421202
83	0x3c0665b8	0.008202963
84	0x3b0ed679	0.0021795316
85	0xbde620a6	-0.11236696
86	0xbca036c9	-0.019557374
87	0xbe0f0b53	-0.13969164
88	0x3b2e6996	0.0026613227
89	0x3dbc74e5	0.09201983
90	0xbdfa383b	-0.12217756
91	0x3e0e34bf	0.13887309
92	0x3dff37a4	0.124617845
93	0xba45265a	-0.00075206684
94	0x3da5efc2	0.08102371
95	0x3db66183	0.08905318

bias_hh_l0 f4 [96]
0	0xbe1a2df8	-0.15056598
1	0xbdf51277	-0.119664125
2	0x3e2ed8de	0.17074916
3	0xbd2162f0	-0.039400995
4	0xbcbb8bb4	-0.022893764
5	0x3e19bd0f	0.15013526
6	0xbe04e26c	-0.12976998
7	0x3da05a3d	0.078297116
8	0xbe2936af	-0.16524766
9	0xbd52e27b	-0.05148552
10	0xbd803460	-0.0625999
11	0x3e07fbb8	0.13279617
12	0xbe1225bd	-0.14272209
13	0xbe1f080b	-0.15530412
14	0x3d203bbd	0.03911947
15	0xbdcafd3a	-0.099115804
16	0xbd483fe0	-0.04888904
17	0x3e090ce2	0.1338382
18	0xbd1d3f7e	-0.03839063
19	0xbd1eef8e	-0.038802676
20	0xbe01967d	-0.12655063
21	0xbd555388	-0.052081615
22	0xbe381422	-0.1797643
23	0xbc293e19	-0.010329747
24	0x3cf7530d	0.030190969
25	0x3e3decf0	0.18547416
26	0x3c5d7d6c	0.013518672
27	0xbcc82889	-0.024433391
28	0x3e115672	0.14193133
29	0xbce40a10	-0.02783683
30	0xbe1cadcd	-0.15300675
31	0x3e0cd911	0.1375468
32	0xbe15f14e	-0.14642832
33	0x3dab123e	0.08353089
34	0xbe1e6666	-0.1546875
35	0xbc905b92	-0.01762179
36	0xbe0b398a	-0.13596168
37	0xbe284914	-0.16434127
38	0xbd8a18d0	-0.06743014
39	0xbcc57aa0	-0.024106324
40	0xbd8a0438	-0.06739086
41	0xbde67db8	-0.11254448
42	0xbde4c0e4	-0.111696035
43	0xbca1a606	-0.019732486
44	0x3d9b109f	0.075715296
45	0x3dd94da9	0.106105156
46	0x3d6d8d7f	0.05799627
47	0xbd73c5bd	-0.05951475
48	0xbd826f6d	-0.06368909
49	0xbe18ae13	-0.14910154
50	0x3db40c8a	0.08791454
51	0x3df5d25d	0.12003014
52	0xbe037138	-0.12836158
53	0xbd3fddfa	-0.046842553
54	0xbb337d58	-0.0027387943
55	0x3e0a2e36	0.1349419
56	0x3e075dc8	0.13219368
57	0x3de0247b	0.10944458
58	0xbdbea786	-0.09309296
59	0xbdf15369	-0.11783487
60	0xbc2fc059	-0.010727012
61	0x3d3fbffa	0.046813942
62	0x3ca7c795	0.02048091
63	0xbe10d188	-0.1414243
64	0xbe0a0bac	-0.13481015
65	0xbdcbda01	-0.0995369
66	0xbb8effe3	-0.004364
67	0xbbf83ac1	-0.0075753634
68	0xbd7ae283	-0.061251175
69	0x3caef6b3	0.02135787
70	0xbe307c5d	-0.17234941
71	0xbe1f21ff	-0.15540312
72	0xbe28abe1	-0.16471817
73	0xbe0b54fa	-0.13606635
74	0xbdefe565	-0.117136754
75	0x3d2ebbfd	0.04265975
76	0x3e13e7eb	0.14443938
77	0x3d9349f0	0.07191837
78	0x3c2f5646	0.0107017215
79	0x3dc8a2f3	0.09796705
80	0xba9a8894	-0.0011789971
81	0x3d2f91bc	0.042863593
82	0xbe07940f	-0.13240074
83	0x3daa86b5	0.083264746
84	0xbe02ad4d	-0.12761422
85	0x3e05fa7f	0.13083838
86	0x3ddcfb26	0.1079009
87	0x3d427738	0.047476977
88	0x3b39ac50	0.0028331466
89	0xbd5aa1b6	-0.053376876
90	0xbbb7e7a7	-0.005612332
91	0xbce7350b	-0.028223535
92	0xbb8bd7c2	-0.0042676637
93	0x3dc095ba	0.09403558
94	0x3cd30424	0.02575881
95	0x3d9910b2	0.074738875

weight_ih_l0 f4 [96, 32]
0	0x3d8388e6	0.06422596
1	0xbddb4cb9	-0.10707993
2	0x3dd5930f	0.1042844
3	0xbc65c676	-0.014024368
4	0x3ddffeb4	0.10937253
5	0xbdf3cf2b	-0.119047485
6	0xbdf81929	-0.12114174
7	0xbc3ac2fb	-0.011399026
8	0x3d35b220	0.044359326
9	0x3d57c00d	0.05267339
10	0xbc4cb6bd	-0.01249474
11	0xbe19754b	-0.1498615
12	0x3d3063cd	0.043063927
13	0xbb1d4903	-0.0023999817
14	0x3d60f3e4	0.054920092
15	0x3e270e7b	0.16314118
16	0x3d3c58d7	0.04598316
17	0x3da9ba17	0.08287447
18	0x3c306996	0.010767361
19	0xbce878ba	-0.02837788
20	0x3c48bf03	0.012252572
21	0xbd6bc7fb	-0.057563763
22	0x3da4fc70	0.08055961
23	0xbdf26942	-0.118364826
24	0xbdf8acfd	-0.1214237
25	0xbe0cf06a	-0.13763586
26	0x3d982e35	0.07430688
27	0xbd420148	-0.047364503
28	0xbd1a3b32	-0.03765411
29	0xbe2472a1	-0.16059352
30	0x3dd75a59	0.10515279
31	0x3daf7453	0.08567109
32	0xbc1f5bfe	-0.0097265225
33	0xbdf283fe	-0.11841582
34	0x3d32d7be	0.04366278
35	0x3dfa52c2	0.12222816
36	0xbd5c856e	-0.053838186
37	0xbe304652	-0.17214325
38	0x3d1cc4f4	0.038273767
39	0xbddb19a8	-0.10698253
40	0x3d9e8d3e	0.077417836
41	0x3e2308ce	0.15921327
42	0xbd756004	-0.05990602
43	0xbe259bcd	-0.16172715
44	0x3dd0bdb3	0.10192432
45	0xbe082fae	-0.13299438
46	0x3d2e4adc	0.04255186
47	0xbd90aec5	-0.07064585
48	0xbe28344f	-0.16426204
49	0xbcd007f7	-0.025394423
50	0xbcb67743	-0.022273665
51	0xbddb08d4	-0.10695043
52	0x3da8b328	0.08237296
53	0x3dde7a6c	0.10863194
54	0xbc52fe6d	-0.012878043
55	0x3d628f59	0.05531249
56	0xbdd297b7	-0.102828436
57	0xbd2b575d	-0.041831363
58	0xbcf6ef14	-0.030143298
59	0xbd28826e	-0.041140012
60	0xbdf1016d	-0.1176785
61	0xbe113b56	-0.14182791
62	0x3d433d3b	0.047665816
63	0xbdd77528	-0.10520393
64	0xbdaea73e	-0.08527993
65	0xbe20b60f	-0.1569445
66	0xbdf4a0ea	-0.119447544
67	0xbe17e2c3	-0.14832596
68	0x3d354c96	0.04426249
69	0x3d943be2	0.07237984
70	0xbdc91aa0	-0.098195314
71	0x3e2133ca	0.15742412
72	0xbe0b064c	-0.13576621
73	0xbe0e8512	-0.1391795
74	0x3e075072	0.13214281
75	0xba247b9b	-0.0006274522
76	0xbd7ffb73	-0.06249566
77	0xbdbe32e2	-0.09287049
78	0xbdc04bc7	-0.093894534
79	0xbd449033	-0.04798908
80	0xbe1cd885	-0.1531697
81	0xbd9e1bbe	-0.07720135
82	0xbd864545	-0.06556181
83	0xbe0c2f60	-0.13689947
84	0x3e168c8d	0.14702053
85	0xbd65f959	-0.056146
86	0xbd8fa765	-0.0701435
87	0xbdfa068a	-0.122082785
88	0x3dbfd3c4	0.09366563
89	0xbd22f643	-0.039785635
90	0x3e210cbc	0.15727514
91	0xbdea6dc2	-0.11446716
92	0xbdaf5f64	-0.08563116
93	0xbe15bf2b	-0.14623706
94	0x3e25ac4a	0.16179004
95	0xbd2145fa	-0.039373375
96	0x3dfc5d7f	0.123225205
97	0x3e018112	0.12646893
98	0xbe3ae613	-0.18251829
99	0xbc846b12	-0.016164336
100	0x3e21cab9	0.15799989
101	0xbd95d57b	-0.07316109
102	0x3e213bea	0.15745512
103	0xbe14363c	-0.14473814
104	0xbd7b04a7	-0.061283734
105	0xbe125cf5	-0.14293273
106	0x3e2342ea	0.15943494
107	0xbe08e0c3	-0.1336699
108	0x3e184bd2	0.14872673
109	0xbe02ac31	-0.12760998
110	0xbd2c6d6f	-0.04209655
111	0x3e237e6e	0.15966198
112	0x3dcfca84	0.10146049
113	0x3d9381e7	0.07202511
114	0x3cdf1241	0.027230384
115	0xbd7e7340	-0.06212163
116	0xbdb3f4ef	-0.08786952
117	0x3da03f06	0.07824521
118	0x3d2ecfef	0.04267877
119	0x3d069d89	0.03286508
120	0xbca5df42	-0.02024806
121	0xbe07727f	-0.1322727
122	0x3db8e4f5	0.09028045
123	0x3d5c4c5d	0.053783763
124	0x3e33d793	0.17562704
125	0xba2622d2	-0.0006337586
126	0x3d69f960	0.05712259
127	0x3e155527	0.14583264
128	0xbce41daf	-0.027846185
129	0xbd17180c	-0.036888167
130	0xbdb2d47b	-0.08731934
131	0x3bdc3036	0.0067196144
132	0x3e2482b3	0.16065483
133	0xbdef5a7c	-0.116871804
134	0x3df83a35	0.12120477
135	0xbdca3f89	-0.098753996
136	0x3df66b58	0.12032193
137	0xbdcaeeb5	-0.09908811
138	0x3cb02d90	0.0215061
139	0x3e36d6f8	0.17855442
140	0xbdb57051	-0.08859313
141	0x3d276c38	0.04087469
142	0x3da101a0	0.07861638
143	0xbe3108eb	-0.17288558
144	0x3d2ca832	0.04215259
145	0x3db4592a	0.08806069
146	0xbd2cb4cf	-0.04216462
147	0xbdbb4598	-0.09144133
148	0xbca50a16	-0.02014641
149	0xbc92bcee	-0.017912354
150	0x3e324942	0.17410758
151	0xbc95d9bc	-0.0182923
152	0xbcc8d5b0	-0.024515957
153	0xbd76891b	-0.060189348
154	0xbe284e5f	-0.16436146
155	0xbe1b6fec	-0.15179414
156	0xbd27a1e4	-0.040925875
157	0x3ddc93c7	0.10770374
158	0x3c3789b0	0.011202261
159	0xbd9f743b	-0.07785841
160	0x3bd54971	0.006508999
161	0xbe0f448d	-0.13990994
162	0xbdeae04a	-0.11468561
163	0x3d9b38a5	0.075791635
164	0x3e0dfd3d	0.13866134
165	0x3deb7cf2	0.11498441
166	0x3d85ffb6	0.065429136
167	0xbda72071	-0.081604846
168	0xbd324fc7	-0.043533113
169	0xbdca3b2c	-0.098745674
170	0x3d6c9198	0.057756037
171	0x3c9a9c62	0.018873397
172	0xbe1871e0	-0.1488719
173	0xbbb506b6	-0.0055244816
174	0x3e0af91e	0.13571593
175	0x3bd73850	0.0065679923
176	0x3d26cc9a	0.040722467
177	0xbe2eb286	-0.17060289
178	0xbc93e9c3	-0.018055802
179	0xbd069573	-0.03285737
180	0xbe291d67	-0.16515122
181	0xbe2e8083	-0.17041211
182	0xbda99a59	-0.082813926
183	0x3d34e053	0.044159245
184	0xbd1ca060	-0.038238883
185	0x3bab637a	0.0052303644
186	0x3e04daf0	0.12974143
187	0x3df4494b	0.11928042
188	0x3ce14453	0.0274984
189	0x3e0231f9	0.12714376
190	0x3de2303d	0.11044357
191	0x3df59a68	0.11992341
192	0xbd491be0	-0.04909885
193	0x3e222c1a	0.15837136
194	0x3d0da192	0.034577914
195	0xbe2e5c79	-0.17027463
196	0xbd9f8be3	-0.07790353
197	0xbcde39c8	-0.027127162
198	0xbced8888	-0.028995767
199	0xbd2b26b5	-0.04178496
200	0x3dfdff92	0.12402262
201	0x3e212b4b	0.15739171
202	0xbdfa0dd9	-0.122096725
203	0x3b2e4e2b	0.0026596885
204	0xbe2cc7a9	-0.1687304
205	0xbe24b8e0	-0.16086149
206	0xbd898aa8	-0.067159
207	0x3ddcfa17	0.10789888
208	0xbe013698	-0.12618482
209	0x3e000774	0.12502843
210	0x3c6c66df	0.014428823
211	0x3ccfea07	0.025380148
212	0x3e0d4645	0.13796337
213	0x3e038bca	0.12846294
214	0xbc93482e	-0.017978754
215	0x3bd24513	0.0064169257
216	0x3e167413	0.14692716
217	0xbdafddd2	-0.08587231
218	0x3ddc31ff	0.107517235
219	0xbd9ceaeb	-0.076619945
220	0xbdb4dc60	-0.08831096
221	0x3d9c7f65	0.07641486
222	0x3d71916b	0.058976572
223	0xbc20a6f9	-0.009805434
224	0x3c5630a5	0.013073121
225	0x3d86c9d7	0.06581467
226	0xbde8171f	-0.11332535
227	0xbd1407b2	-0.03614015
228	0x3e0984f2	0.13429621
229	0x3d9c23d7	0.076240234
230	0x3e02456f	0.127218
231	0xbe33c6a6	-0.17556247
232	0x3b79879d	0.0038075217
233	0xbe034cf4	-0.12822324
234	0xbd843f96	-0.064574406
235	0x3e2e7fa0	0.17040873
236	0x3e2fc301	0.17164232
237	0x3cd71357	0.02625434
238	0x3d975862	0.073899046
239	0x3e2e3bd3	0.17015009
240	0x3e0bd5b6	0.13655743
241	0xbba12ae4	-0.004918443
242	0xbdac8cb5	-0.08425275
243	0xbda48ebd	-0.08035038
244	0x3da553e0	0.080726385
245	0xbd6342f2	-0.055483766
246	0x3d8a019e	0.0673859
247	0x3e0bc589	0.13649572
248	0xbe01b522	-0.12666753
249	0x3d79cbb5	0.060985286
250	0x3d819b4d	0.063284494
251	0xbd15dfe1	-0.03659046
252	0xbe119165	-0.1421562
253	0x3df41ce0	0.1191957
254	0x3db79956	0.089647934
255	0xbdbbf59b	-0.09177705
