pre_trained_models/mosi_aligned_L_DISCRIMINATOR_1.pt (torch, 39831 bytes, 5 tensors)

weight f4 [128, 5]
000000 03 a1 ba be c6 3a 75 bd 3c b2 83 be a4 8a 53 3e
       -0.36450967 -0.059870504 -0.2572192 0.20658356
000010 97 c4 db 3e f7 fd db 3e 89 bc 81 3e 0a 9f aa 3d
       0.42923424 0.42967197 0.25339153 0.083311155
000020 45 49 5e be 7d 27 37 be 80 dc 02 be 79 f8 88 3e
       -0.21707638 -0.17886157 -0.12779427 0.2675207
000030 63 e5 92 3e 4d 30 ae bb 32 38 8f 3e 51 a0 9c be
       0.28690633 -0.0053158165 0.2797256 -0.30591062
000040 a6 ea 89 3e 3a f5 d2 3d df 4f 99 be 93 aa e9 bc
       0.26936835 0.103006795 -0.2994375 -0.028523719
000050 9e 4e 8d 3e 97 d0 35 3e 7a c1 79 3d 12 e2 02 3e
       0.27599043 0.17755352 0.06097553 0.12781551
000060 91 df 88 3e 2c 8b 0a bd 88 a5 a7 bd 6e 01 e4 3e
       0.26733068 -0.03382413 -0.081858695 0.4453234
000070 f2 4e 92 3d 80 75 bc be 10 62 79 bc a4 57 b3 be
       0.07143964 -0.36808395 -0.015221134 -0.35027802
000080 f9 72 23 3d c2 3f b4 bc 64 13 2f be 6a 33 55 3e
       0.03990457 -0.022003058 -0.1709724 0.20820394
000090 10 6f 61 3e 86 ca 58 3e 61 e9 83 be f3 b4 4f 3b
       0.22015023 0.21171007 -0.2576399 0.0031693547
0000a0 3b b7 fe 3c 57 79 21 3d d9 25 03 3e 1a 91 85 bd
       0.03109323 0.03942236 0.12807406 -0.065218166
0000b0 26 d8 9e be 31 5b c2 bb bb 92 86 3e 2a cc a4 3e
       -0.31024283 -0.005931281 0.2628382 0.32187015
0000c0 16 04 dd be 68 73 64 3e c5 e5 b2 be 71 c1 54 3d
       -0.4316718 0.22309649 -0.34940925 0.051942293
0000d0 d8 a4 c0 be 02 98 b3 3d ee 5f df 3e d1 01 00 3e
       -0.37625766 0.087692276 0.43627876 0.12500693
0000e0 a2 67 ea 3d fe 5f b2 3c 3a dc 1d 3e a1 0e 5e bd
       0.11445548 0.021774288 0.15416041 -0.05421317
0000f0 71 64 07 3e 24 90 e0 3e 9c e0 88 be a6 b8 d0 bd
       0.13221909 0.4385997 -0.26733863 -0.10191469
000100 ac 1f db 3e 53 9e c0 be 3d b9 47 bd f9 b0 d7 be
       0.427976 -0.37620792 -0.04876064 -0.42127207
000110 8d ea 3d be 99 70 0d be f1 58 c2 be c0 a4 4a 3c
       -0.18546505 -0.13812484 -0.37958482 0.012368381
000120 ae ab c8 be 01 be 71 3e b4 92 70 be 07 ec 4d be
       -0.3919348 0.23607637 -0.23493463 -0.20109569
000130 5e 28 f0 3c 7f 45 27 3e b0 31 72 3e 5c 5b 9e 3e
       0.029316124 0.16335104 0.23651767 0.30929077
000140 b0 03 6b bd b0 81 34 be 6e 41 bc 3c ea c7 ba be
       -0.057376564 -0.17627597 0.022980418 -0.36480647
000150 fd 4c b0 bd a8 e4 27 be 8d 4f e6 3c 65 9d a4 be
       -0.08608434 -0.16395819 0.028114105 -0.32151332
000160 f3 24 3d 3e 30 0b c1 be 16 cd 49 be da d5 cc bd
       0.18471126 -0.37703848 -0.1970714 -0.100017264
000170 46 d2 86 be ef 37 7c be fe 35 86 be 9c 15 47 3e
       -0.263323 -0.24630712 -0.26213068 0.19441837
000180 31 78 10 be c1 79 16 be ee 40 38 3d fb 04 64 3d
       -0.1410835 -0.14694883 0.044983797 0.055668812
000190 69 c8 89 3d a0 9f ae 3e 7c 64 c7 be e2 69 d5 bd
       0.06727678 0.3410616 -0.3894385 -0.10420586
0001a0 54 b3 cd 3b 86 a4 b1 3e 6d 0f 83 be 5c 51 ac 3e
       0.006277481 0.34695834 -0.25597706 0.33655822
0001b0 83 19 e5 be e2 5d d9 be 2f 1a a3 be 93 e2 97 be
       -0.44746026 -0.4245444 -0.31855914 -0.2966505
0001c0 01 6f 66 be bc bf a7 3e 68 e4 b8 3e 95 cf 80 3d
       -0.22503282 0.3276347 0.3611176 0.06289593
0001d0 ab de 85 3e 30 93 be 3e b2 f8 9f 3e ed 2f 85 bd
       0.26146445 0.3722167 0.31244427 -0.06503282
0001e0 0d b9 90 be 3b 8d 8f bc 4b 29 c4 3e 68 69 8d 3e
       -0.28266183 -0.017523399 0.38312754 0.2761948
0001f0 b1 41 82 3e 03 cd d2 3e a1 52 af 3e 15 aa ad 3e
       0.25440744 0.41172037 0.34242728 0.33918825
000200 4a 72 ae 3d 13 0f 7c be 11 02 b4 3e 63 86 5b 3e
       0.08517893 -0.24615125 0.35157827 0.21437983
000210 51 25 53 be 2d 71 79 3e 72 2d 2d 3e 17 80 17 3d
       -0.20619704 0.2435958 0.16911867 0.03698739
000220 8e 5f 1d be bf e0 d6 3e 87 bd 9e 3e e3 da 8a 3d
       -0.15368482 0.41968343 0.31003973 0.067800306
000230 b1 3d a6 3d 10 4d a0 be 6c 6b 0a 3e 85 7f 7d bd
       0.081172355 -0.31308794 0.1351754 -0.06188919
000240 39 de d4 3e fd a5 0a 3e 20 14 9b be d8 98 e1 3c
       0.41575792 0.13539882 -0.30288792 0.027538702
000250 65 b5 66 be c5 8e 5a be 3f 7a b0 be f7 79 96 3e
       -0.22530134 -0.21343525 -0.34468266 0.29389927
000260 7d b8 9f 3e 43 73 ab 3e 66 3d 66 be 4a e5 20 be
       0.3119544 0.33486375 -0.22484359 -0.15712467
000270 e6 2d 7b 3e bf aa a7 3e 38 e1 e3 be 20 da 2e be
       0.24529228 0.32747456 -0.44507766 -0.17075396
000280 8f 6f aa 3e fc 3e 1c be 13 de dc bd 85 fb 23 3b
       0.33288237 -0.15258402 -0.10784545 0.0025021743
000290 b0 ff 9b bd e0 0b ec bd 21 91 1b 3e c3 42 9d be
       -0.07617128 -0.115257025 0.15192081 -0.30714998
0002a0 9b b9 10 3e b5 18 cb 3d 44 20 61 be 7b ad 6c 3e
       0.14133303 0.09916822 -0.21984965 0.23113053
0002b0 3c 8c c8 3e 25 a5 11 be 77 9c 85 3d ac 8b 0f 3e
       0.3916949 -0.14223154 0.06523984 0.14018124
0002c0 a5 92 c7 be dd 25 d3 3e 89 2b 5d 3e 1b a0 b3 3d
       -0.38979068 0.41239825 0.21598639 0.08770772
0002d0 91 d3 8a 3e 36 cc 0f be f2 fe 8a 3d 49 48 bc 3e
       0.27114537 -0.14042744 0.06786908 0.367739
0002e0 8c 2d 81 be 08 2c 16 3e 42 4f 68 3d b1 cc 44 be
       -0.25230062 0.14665234 0.05671621 -0.19218709
0002f0 c5 5f dd 3b a4 30 37 be 37 ef dd 3e a5 57 60 3d
       0.0067558014 -0.17889649 0.4334657 0.054771084
000300 ec 7c 93 3e 38 84 8a be 22 91 a2 3d cc 8a 41 be
       0.28806245 -0.27054 0.07937838 -0.18900603
000310 17 20 8f 3e 3d 17 8b 3e 0a 0a ab be 96 1e 41 3d
       0.2795417 0.27166167 -0.33406097 0.04714831
000320 91 57 f1 3d 4e 45 bb 3e 55 60 64 3e 4f 04 d0 3e
       0.1178428 0.36576313 0.22302373 0.40628287
000330 81 c1 5e be 65 48 a5 be 4b 9c 17 3e 85 8a 89 bd
       -0.21753503 -0.32281795 0.14805715 -0.06715874
000340 91 1c a4 3d 37 23 e0 3e 0f de c9 bd 92 c5 2a 3e
       0.08013261 0.43776867 -0.098568074 0.1667693
000350 7e 3c ac 3e 1a 99 8c 39 5b 83 ab bb 1d e3 a2 3d
       0.33639902 0.0002681695 -0.0052341647 0.07953475
000360 79 f8 b0 3e 92 92 9a 3d 83 76 f7 3d 58 fa c2 be
       0.3456457 0.07547487 0.12083151 -0.38081622
000370 e3 6f 84 bd 4c 46 84 3e fa 7e c1 3e e9 90 47 3e
       -0.06466653 0.25834882 0.37792188 0.19488873
000380 60 ee 88 be 92 83 12 3d 4b 1f d0 3b 57 e5 99 bd
       -0.26744366 0.035770006 0.0063513867 -0.07514446
000390 78 27 47 be 80 01 d3 3e cd 83 91 bc e9 30 1c be
       -0.1944865 0.41212082 -0.017763043 -0.15253033
0003a0 a1 15 1f bd 78 a3 d6 3e 19 b8 cb be 9c 74 97 3d
       -0.038838986 0.41921592 -0.39788893 0.07395288
0003b0 cc dc 88 be 2d 7b 82 be 9a 19 9f be 6b 29 96 be
       -0.26730955 -0.254846 -0.3107422 -0.29328474
0003c0 3a 19 56 3e 0f 44 f0 3d a6 96 bb 3e 80 f8 e3 be
       0.2090806 0.11731731 0.36638373 -0.44525528
0003d0 50 86 9e 3c 6b f6 a2 be 22 a8 98 3d f8 d1 31 be
       0.019351155 -0.31828627 0.07453944 -0.17365253
0003e0 3f 23 92 3e 6a e7 bc be ac 8d bb be ea 13 65 bd
       0.28542516 -0.36895305 -0.36631525 -0.055927195
0003f0 88 8b 06 be 75 8e 97 3d 98 81 82 be dc 53 c7 3e
       -0.13139164 0.074002184 -0.25489497 0.38931167

bias f4 [128]
000000 90 5e 1e 3e 25 07 82 be 02 1b 94 3e 91 6f 76 bd
       0.1546576 -0.25396076 0.28926855 -0.06016499
000010 13 45 16 3d 9d 26 96 3e e6 8e a2 be 48 28 12 bd
       0.036686968 0.29326335 -0.31749648 -0.035682946
000020 53 1d e4 be e2 b5 04 3e 9f 04 b6 be d6 99 8c be
       -0.44553623 0.12960008 -0.355504 -0.27461118
000030 f0 b6 cc 3d e1 43 09 3d 6d 0c 1e be a5 42 f9 bc
       0.0999583 0.033512 -0.15434428 -0.030427286
000040 41 7d 6e be 06 f0 1b be c9 a7 d9 3d 15 76 b0 bd
       -0.23289968 -0.1522828 0.106277056 -0.08616272
000050 95 5e 51 be 9f 2f c5 be da 94 e0 3e e5 49 33 3e
       -0.20446236 -0.38512895 0.43863565 0.17508657
000060 c6 81 8b be 61 2c 1c 3e 92 d4 18 be 29 1b 1a bc
       -0.27247447 0.15251304 -0.14924839 -0.00940589
000070 67 50 22 be c8 a2 7b bd 48 4a db 3c d1 11 4a be
       -0.15850984 -0.061434537 0.026768818 -0.19733359
000080 e8 d8 3b 3e 7d d5 06 3e 9b 98 80 be 69 08 d5 3e
       0.18344462 0.13167377 -0.2511643 0.4160798
000090 aa de 37 3e 8e 80 e3 3e 78 fc c9 be c1 f2 04 be
       0.17956033 0.44434017 -0.3945043 -0.12983228
0000a0 22 77 92 be a9 a3 52 3e 86 a9 c7 be 48 2e 20 bd
       -0.28606516 0.20570244 -0.38996524 -0.039106637
0000b0 b4 98 b4 3e 30 42 02 be 24 5b b9 bd 23 38 a0 3e
       0.35272753 -0.12720561 -0.09050587 0.3129283
0000c0 c6 82 98 3e 01 42 c0 be a6 ac b7 3c 58 e5 de 3e
       0.29787272 -0.37550357 0.022421192 0.4353435
0000d0 c2 0a f7 bd 31 ba b7 be af 27 aa be c6 9b 85 be
       -0.12062599 -0.3588424 -0.332334 -0.26095408
0000e0 68 45 7d be 77 74 69 be fc 1b d5 3e 15 83 28 be
       -0.24733508 -0.22798334 0.41622913 -0.16456254
0000f0 0d 50 00 be f9 60 d1 3e b1 0b 9d 3e 8b b5 bc be
       -0.12530537 0.40894297 0.30672982 -0.36857256
000100 cf 24 93 be 6a a9 da 3e 78 bd a2 3e 1b 30 b0 be
       -0.2873902 0.42707378 0.31785178 -0.34411702
000110 e9 82 9f be 68 86 6f be e1 8a d0 bb bc d0 99 bd
       -0.31154564 -0.23391116 -0.006364212 -0.07510516
000120 f6 78 55 3e 1c 93 46 bd 9f 70 85 3e 4f 18 a7 3d
       0.20846924 -0.04848014 0.26062486 0.08158933
000130 b0 59 e3 bb d5 76 db 3e 4b 74 26 be 91 60 58 3c
       -0.006938182 0.428641 -0.162553 0.013206617
000140 aa ac 21 bc a4 ea 4f be 6f 45 c1 3d b5 0a 0f 3e
       -0.0098678265 -0.20304352 0.094370715 0.13968928
000150 54 39 11 be 72 04 0a bd 2d 31 bf be ea b9 d7 3e
       -0.14182025 -0.033695646 -0.37342206 0.4213403
000160 a5 88 88 bd 90 bc b0 be f3 71 28 3e 21 04 71 3e
       -0.06666688 -0.34518862 0.16449718 0.23536731
000170 c3 6c 83 3e df c0 af be 33 b7 7b be 6c 29 c6 3e
       0.25668916 -0.34326836 -0.24581604 0.38703477
000180 9b f6 80 3e af 6b 2a 3d ec 08 e8 bc 03 48 60 3e
       0.25188145 0.0416066 -0.028324567 0.2190247
000190 9a 27 dc be b4 23 13 3e f2 3b 4a be 04 e9 c8 be
       -0.42998964 0.14369088 -0.1974943 -0.39240277
0001a0 a9 1d f3 3d e6 24 e5 bd 98 34 cf be 43 6b 9e bc
       0.118708916 -0.111886784 -0.40469813 -0.019338256
0001b0 e6 f1 94 3e 56 f1 de 3e 76 30 ca be 38 35 f5 3c
       0.29090804 0.435435 -0.39490098 0.029932603
0001c0 ef 4c 0c be 84 b0 af 3e a2 31 90 3e ff 74 01 bd
       -0.13701223 0.34314358 0.28162867 -0.031605717
0001d0 b4 17 70 3e 2e f7 f9 3d 69 11 57 be 6e 64 8c be
       0.23446542 0.12205349 -0.21002735 -0.27420372
0001e0 98 b7 20 3e 85 81 8e bd ec 4d 9a 3e af 7d a8 3e
       0.15695035 -0.06958298 0.30137575 0.3290839
0001f0 bb 04 73 3e fe f0 a7 3e a8 0d 8f bd 22 09 81 3e
       0.23732273 0.3280105 -0.069850266 0.2520228

weight f4 [64, 128]
000000 5d 11 b1 bd 6d 04 9b 3d 85 6b 88 bd 10 fc b3 bd
       -0.0864589 0.075692035 -0.06661133 -0.087883115
000010 84 32 8c 3d 8e f4 3b 3c 0b 77 e7 3c 74 73 19 bd
       0.068455726 0.011471881 0.028255006 -0.03746362
000020 7e 3a 19 bb 89 fb ba bc 71 b0 b2 3d 4e 21 62 3d
       -0.0023380811 -0.02282502 0.0872506 0.055207543
000030 cb 51 f9 3c 00 2a 9b 3b 83 6c ac bd 6c a8 8e 3d
       0.03043451 0.0047352314 -0.084191345 0.06965718
000040 6f 28 25 bd 49 1f 9d bd 8b c5 4d bb 25 a9 02 bd
       -0.040321764 -0.07671983 -0.0031398262 -0.03189959
000050 31 a5 a8 3c 8d 1f 76 bc f5 98 57 3d 8c 88 93 3d
       0.020586582 -0.015022171 0.052636106 0.072037786
000060 7e c4 be 3c 76 96 52 3d 95 11 96 3c 1e 6d 98 3d
       0.023287054 0.051413022 0.01831893 0.074426875
000070 4b ad 96 3d bc d9 a6 3d 39 64 9a bc f2 10 53 3d
       0.07357272 0.08146998 -0.018846618 0.051529832
000080 d3 eb 09 3d 15 4a 7f 3d 74 d3 6d bd 44 c1 a7 3d
       0.033672165 0.06232651 -0.058062986 0.08191159
000090 42 7e 46 3c 51 d0 ac 3d 3c ff 38 3d 17 44 8a 3d
       0.012115063 0.08438171 0.045165285 0.06751268
0000a0 82 31 b1 bd 93 6f 63 bc 85 5f 47 3d b1 30 23 bd
       -0.08652021 -0.013881582 0.04867508 -0.039841358
0000b0 96 43 32 ba 84 95 b3 bb e1 10 15 bd c7 a8 84 bd
       -0.0006800232 -0.00548047 -0.03639305 -0.06477504
0000c0 6d df 86 3d 0d c1 76 bc dc 36 45 bd e3 80 9b 3d
       0.06585584 -0.015060675 -0.04814802 0.075929426
0000d0 f1 7e 9e bd 68 57 76 bd 12 3d 96 3d c0 d2 69 bd
       -0.07739056 -0.06014195 0.07335867 -0.057085752
0000e0 47 77 a4 bc 7b 3b d8 bc 56 c1 7c 3d 7e f0 6a ba
       -0.020076407 -0.02639555 0.061707817 -0.0008962228
0000f0 27 cd 9f bd 5f af 49 3d 64 b2 79 3d 46 18 4d bd
       -0.078028016 0.049239513 0.060961142 -0.050071977
000100 f8 89 73 3d fb 9c a2 3d 10 16 5e 3d ff 5c 9c 3d
       0.05945775 0.07940098 0.05422026 0.07634925
000110 23 21 82 bd bf 58 dc bc f0 53 84 3c b0 d7 4c 3d
       -0.063539766 -0.026897786 0.016153306 0.050010383
000120 09 ac ae bd 34 75 3a 3d 52 ea 9f 3c e9 67 bc 3c
       -0.08528907 0.04552193 0.019520912 0.022998767
000130 f7 de f3 bc f1 f2 7e 3d b3 cf 36 3c 6b 4c 6e bd
       -0.029769404 0.062243406 0.011157918 -0.058178347
000140 bf 19 8f bd 4c 8c 22 bd d8 b4 95 3d 43 9c 22 3d
       -0.069873326 -0.03968458 0.07309884 0.039699804
000150 9e 17 9b 3d eb 11 2e bd 23 39 3c bd 76 25 0c bd
       0.07572864 -0.042497557 -0.045952927 -0.034215413
000160 5e 07 5d 3d 0d fb cb bc 18 b3 30 bd 69 07 75 bd
       0.053962104 -0.024899984 -0.043139547 -0.05982152
000170 3e 1c 34 3b 47 5a f0 bc 2b 34 09 3d bf 6e 9b 3d
       0.0027482654 -0.029339923 0.033497017 0.075894825
000180 94 41 86 3d dd 36 93 3d cc 2f da bc 6d c6 c3 bc
       0.06555477 0.07188199 -0.02663412 -0.023898328
000190 1f e5 49 3d 18 bb 22 bd 66 8d 76 bd 96 43 73 3d
       0.049290773 -0.039729208 -0.06019344 0.059390627
0001a0 84 e4 af bd 1c 22 fd 3c de b5 93 3d 5c db a5 3d
       -0.08588508 0.030900054 0.07212423 0.0809848
0001b0 17 91 86 bd 9e e9 0e bd 04 00 97 3c ba 17 aa 3d
       -0.065706424 -0.034890763 0.018432625 0.08305307
0001c0 8d 4b cb bc e9 06 72 bb 8d 6c ae 3d ed 69 79 b8
       -0.024816299 -0.0036930388 0.08516798 -5.9464877e-05
0001d0 a1 68 86 ba db f3 e2 bc 10 6a f7 bc 26 f4 8e 3c
       -0.001025457 -0.02770417 -0.030201942 0.017450403
0001e0 b3 56 0e bd d2 44 1c bc 61 70 51 3d c2 82 86 bd
       -0.03475065 -0.009537892 0.051132564 -0.06567909
0001f0 0f 2a a8 3d 3d 8a 7e 3d 00 47 fe bb 72 25 dd 3b
       0.08211147 0.062143553 -0.0077599287 0.0067488486
000200 fc 86 a3 3d 67 51 c8 bc b4 50 13 bd 01 db 5c 3a
       0.079847306 -0.024452878 -0.035965636 0.0008424968
000210 2a a9 06 3d ca 67 df 3c 79 aa 8a 3c d6 da 4e 3d
       0.03287617 0.02727117 0.01692699 0.050501667
000220 38 91 3d 3c ec 70 9a 3c 90 64 82 3c f6 34 a5 bd
       0.011570267 0.018852673 0.015917093 -0.08066742
000230 1a 42 a7 3d ec 99 ff bc b0 f0 0b bd 44 03 ab bc
       0.08166905 -0.031201325 -0.034165084 -0.02087558
000240 10 dc 5b 3d 99 49 43 3c 07 14 4e bd 6f 37 10 3d
       0.053676665 0.0119194025 -0.05031207 0.035209116
000250 a5 33 ae 3d 06 62 04 bd 12 4b c7 3c 9c e8 8a bd
       0.08505944 -0.032320045 0.024327789 -0.06782648
000260 7f 2f a7 bc c8 c9 86 3c 65 8d f7 bc 3e 4d 81 3d
       -0.02040839 0.016453639 -0.03021879 0.06313561
000270 ba dc 66 3d 3d f9 8f 3c ae 88 ab bd b9 2b 2f bd
       0.056362845 0.0175749 -0.08375679 -0.042766307
000280 36 6f 2b bc 23 1a 3f bd e1 3e ac bd 32 93 02 bc
       -0.0104635265 -0.046655785 -0.08410431 -0.007969664
000290 5a 8f 15 3d ab 87 58 bd ef d6 d1 bc 00 ed f0 bb
       0.036513664 -0.052863758 -0.025615184 -0.0073524714
0002a0 b6 09 ef bc 20 0f 87 3b dc bb d2 bc 08 84 c9 bc
       -0.029179435 0.004121676 -0.025724344 -0.02459909
0002b0 3e 0d a3 bd 5d 5f 95 3c be 0c b2 3d 39 02 a4 3d
       -0.0796151 0.01823395 0.08693837 0.080082364
0002c0 96 78 9e 3d 0e dd c4 bc 2e 97 a6 3d 3e 69 7d 3d
       0.07737844 -0.024031188 0.08134304 0.061867945
0002d0 72 a1 da bb a2 4e 8c bc a5 61 6f 3c 85 59 1b 3c
       -0.006672078 -0.017127339 0.014610683 0.009481792
0002e0 a0 b7 25 3d 56 b6 a3 bd 8d bf a0 bc 7a 4a ad 3d
       0.04045832 -0.07993762 -0.019622589 0.08461471
0002f0 a3 b0 39 bd e8 e7 7f bb 67 c7 54 3d 21 2e f1 3b
       -0.04533447 -0.003904814 0.051947977 0.0073602353
000300 93 0a e9 3c bd 55 19 bc 9a 16 14 3c fe 9d a0 bd
       0.028447425 -0.0093588205 0.009038592 -0.078426346
000310 ce fb 66 39 e3 3b af 3d ea b1 a8 bd 8e 87 91 3d
       0.00022028314 0.08556344 -0.082370594 0.07105933
000320 2d 11 9a bd c5 ce c5 3c 41 ea a8 bc ef 26 75 3d
       -0.07522807 0.024146447 -0.020619513 0.059851583
000330 a1 e4 92 3d f0 bb 12 bd b2 64 b5 bb 43 41 86 3d
       0.07172514 -0.035823762 -0.0055356855 0.065554164
000340 9a d5 65 bd 0f 36 56 3a c2 47 3c bd c0 b8 a9 3c
       -0.05611191 0.00081715075 -0.04596687 0.020717978
000350 18 fc 8a bd c6 62 22 ba cb 27 8b bc ea 87 d6 bb
       -0.06786364 -0.0006194528 -0.016986748 -0.006546964
000360 76 a1 5e 3d cd b0 8f 3d e8 d5 59 3d 53 d6 a9 3c
       0.0543532 0.07016144 0.053182513 0.02073208
000370 36 6a 56 bd 3f 4f 07 3d df 37 70 bd b6 2a dd 3a
       -0.052347384 0.03303456 -0.058647033 0.0016873691
000380 55 05 43 bd 1d 6c 32 3d 86 bc c3 bc e6 ef 69 bd
       -0.047612507 0.043560136 -0.023893606 -0.05711355
000390 49 3f a3 bd 42 6b 7f bd 87 0d 98 bd 7b 97 c5 bc
       -0.07971055 -0.06235815 -0.07424455 -0.024120083
0003a0 0b 37 30 bd 50 8f 3a 3b 7e 93 41 3d 5f 2f 3c bd
       -0.043021243 0.0028466769 0.0472598 -0.045943614
0003b0 ac cd 01 bd 8a 8a 73 bd 80 03 c5 bc 68 3a f6 3c
       -0.031690285 -0.059458293 -0.02404952 0.030057147
0003c0 e9 3a de bb 9f ff 8e 3d 6c ec ce 3b da c3 28 3d
       -0.006781925 0.069823496 0.006314805 0.041202404
0003d0 02 61 32 3c af bc bb bc 5b d3 af bd af b4 24 bd
       0.010887386 -0.02291712 -0.08585235 -0.040211376
0003e0 56 19 94 bd fc 0f bb 3c 6e 05 14 3d f4 e8 fc 3c
       -0.07231395 0.02283477 0.03613799 0.0308728
0003f0 29 01 89 bd fe 5d 96 3b 96 87 78 3d dc 27 1f 3d
       -0.066896744 0.0045888415 0.06067618 0.038856372

bias f4 [64]
000000 4f be 9e 3c c6 3f b1 bd 25 87 29 bd dc 91 8c 3d
       0.019377856 -0.08654742 -0.04138865 0.06863758
000010 9a a4 33 3d 52 b0 25 bd 0b 3b 58 3d 7d 95 ef 3c
       0.04385815 -0.040451355 0.052790683 0.029246086
000020 39 52 a1 bd ab c5 75 bd 68 c6 99 3c c6 d3 9c bd
       -0.07877011 -0.060002964 0.018771365 -0.0765758
000030 d3 61 4a bd 2d 0f d4 bc c7 d1 8c 3d a7 90 96 bd
       -0.0494097 -0.025886143 0.06875949 -0.07351809
000040 b6 20 85 3c d9 b8 64 3c 9d 6b 77 3c 48 39 11 bd
       0.01625095 0.013960087 0.015101341 -0.03545502
000050 aa 27 32 bd 21 05 48 bd 4d 88 4e 3d b0 51 43 bd
       -0.043494858 -0.048833016 0.050422955 -0.047685325
000060 93 4d 5f bd 59 29 a0 bc 43 9a 59 3c 48 98 8a bd
       -0.05451734 -0.019550966 0.013281408 -0.067673266
000070 1f bc 30 bd f7 64 96 bc 64 02 18 bd 84 00 78 3d
       -0.043148156 -0.01835869 -0.037111655 0.060547367
000080 82 a9 a4 bd a1 dd 36 3d ec 87 f1 bb 11 85 3b bd
       -0.080401435 0.044644956 -0.0073709395 -0.0457812
000090 60 c2 a6 3c 61 54 0e bc 96 d9 d2 bc 00 e1 70 bc
       0.020356357 -0.00868711 -0.025738519 -0.014702082
0000a0 5a 64 c0 bc 78 c3 4c bd 21 74 b1 3c 21 2c b0 bd
       -0.023485351 -0.0499911 0.02166182 -0.08602167
0000b0 fa cb 4e 3d 30 87 91 3d 52 fa fe bc 96 68 4e 3d
       0.050487496 0.07105863 -0.031125221 0.05039271
0000c0 a1 ed 94 3d 7d 96 d1 bc 68 3e 1c 3d 3a ca 12 3b
       0.072718866 -0.025584454 0.038145453 0.0022398368
0000d0 d8 b2 92 3d 2e 0a 80 bd d0 09 72 bc f6 0d 19 3d
       0.07163018 -0.062519416 -0.014772847 0.03736683
0000e0 fb d8 5b bd 0f b9 91 bd 5e 8e 9c bd f0 9e 27 bd
       -0.053673726 -0.07115375 -0.07644342 -0.04092306
0000f0 6b a7 98 3d fe 9f 62 3d 43 c5 85 bd 6c 7f 7a bd
       0.074538074 0.05532836 -0.06531765 -0.061156675

weight f4 [1, 64]
000000 2f e3 d7 3d d3 db ae 3d 6b 48 fa 3d f7 b0 d0 bd
       0.10541379 0.08538022 0.12220844 -0.10190003
000010 a2 44 08 bc da df 50 3d 84 d0 e3 bd 7c 52 67 3d
       -0.008317145 0.05099473 -0.111237556 0.056475148
000020 2b eb b0 3d 81 81 15 bc 5f 62 c7 bd 5b 4b 80 3d
       0.08638605 -0.009125114 -0.0973556 0.06264373
000030 23 13 31 bd 94 d1 1f 3d e8 55 18 3d f2 e9 94 bc
       -0.04323114 0.03901823 0.0371913 -0.01817796
000040 bd 64 ff bd 5f 8d b8 bd cd 80 f3 3d ab 4b a2 3d
       -0.12470386 -0.090113394 0.11889801 0.07924589
000050 3d d5 08 3d c6 a6 e5 bc c0 ed 02 bd 5f 87 68 bd
       0.033406485 -0.028033625 -0.031965017 -0.056769725
000060 0b 34 16 bd 2e 1d 82 3d 03 af e7 3c 6a 3d ed 3d
       -0.036670726 0.06353222 0.028281694 0.115839794
000070 3d 6b 98 3d 25 62 97 ba 9e 29 4f bd b0 4f 80 bd
       0.07442329 -0.0011549635 -0.0505768 -0.06265199
000080 b2 8e d8 3d 9d 8c 6d bd 55 3f f2 3c 25 9c 8e bc
       0.10574092 -0.057995427 0.029571215 -0.01740844
000090 5f 6e 0f bd 81 76 f3 3a dc 0d 15 3d 53 6f 07 3d
       -0.035017367 0.0018574746 0.03639017 0.03306515
0000a0 77 5f a2 bd b4 4a dd 3c 17 b5 44 bd de e1 21 3d
       -0.07928365 0.02701316 -0.048024263 0.039522044
0000b0 52 5c f9 3d 93 ba 91 bc 3e f9 1f bb c4 b1 26 bd
       0.12175812 -0.01778916 -0.0024410035 -0.040696874
0000c0 46 ab 56 3d dc 9e a1 bd 04 80 46 bc 31 41 06 bd
       0.052409433 -0.07891628 -0.012115482 -0.032777015
0000d0 32 cd fb 3d e3 d2 85 3c c1 b9 b2 bd d7 f5 04 bd
       0.12294997 0.01633591 -0.08726836 -0.032461014
0000e0 41 0e 34 bd cd c1 1e 3d 71 cd b2 bd 88 3d b1 3d
       -0.043958906 0.03875904 -0.08730591 0.08654314
0000f0 0f f4 93 bc ee 51 b5 bd b7 49 42 3d 4d f7 59 bd
       -0.018060712 -0.088535175 0.04743358 -0.05321436
