pre_trained_models/mosi_aligned_LA_UniMF.pt (torch, 372694 bytes, 76 tensors)

cls f4 [1, 32]
00000000: 0ccf 70be 54a1 e4bd 2c4e 353e ecd7 42be
00000010: e0d1 72bd 56d2 ab3e 55e4 3fbe df2b 283e
00000020: 5476 2d3e 00fc aebe 9a4d b83d 3c34 c23c
00000030: 9ed0 32bd 0ba7 17be 3f0f 903d a261 bd3e
00000040: 719c d13e 5e8c d23e aba6 abbe 2b83 d6be
00000050: 4e93 953e 36cb 923e 9ffd ab3e 3fe9 bb3d
00000060: 1046 0b3e 403e 93be d8a6 a03d 7c0d 9abe
00000070: ecb8 0f3b e0b6 06be fe55 913e eee9 c3be
-0.23516482 -0.111635834 0.17705601 -0.1902768 -0.059282184 0.3355891 -0.18739446 0.16422985
0.1693967 -0.34176636 0.08999176 0.023706548 -0.043655984 -0.14809816 0.07034158 0.3698855
0.40939668 0.41122717 -0.33525595 -0.41896948 0.29213947 0.28670663 0.33591935 0.091753475
0.13600945 -0.2875843 0.07844323 -0.30088413 0.002193029 -0.13155699 0.2838592 -0.38264412

weight f4 [32, 300, 1]
00000000: cb33 a63c 9c48 e23d c750 4cbd b96c 46bc
00000010: 6009 66bc 0082 7d3d 490f a5bd b916 123d
00000020: 7828 42bd f121 73bd f4ad 943d 5368 4b3d
00000030: 885f e03d 61b5 b83d e399 0dbc 96aa 07bd
00000040: 6f1b b4bd 464d a33c 66d0 3fbd afa4 723b
00000050: c73b 043d b072 a3bd 6b69 813d 24f0 59ba
00000060: 88ca 48bd 89bc 263d 6248 e03d f165 2cbd
00000070: 046e b5bc 658c 7abc f465 ae3c 1372 15bd
00000080: 8af7 513d bc60 813c 4165 05bd 7bce b2bd
00000090: 0744 ad3d 1c72 a43c 7a31 243d 814c eebd
000000a0: a417 2f3c a8f8 bf3c 8e12 7b3d 1889 bcbd
000000b0: 9a71 1a3d fc74 383e 94ca 41bd f5ff a93d
000000c0: e381 1e3d ea4f 99bd 6eda c93d dff5 2ebd
000000d0: 2426 123e bb06 5b3c 1611 c23c 4c7f 923c
000000e0: 1844 4d3c 336d de3d c0a7 af3c b7c4 313d
000000f0: 06ec 09bd f4aa 453d 20a0 43bc 7de9 b73d
00000100: 53de 80ba d05a 65bd bed5 0d3e d5f1 4abc
00000110: 16d8 4d3d c10f 72bd 8d1f dcbc 103f 0dbd
00000120: d1d8 7fbd f97a 7bbd 65ad b33c eba5 2cbd
00000130: 0af1 143b 1194 95bc 3a7a 02be 7f81 123c
00000140: 0f75 113e a0c3 a8bb d1c0 5f3d e389 013e
00000150: 7190 f13d 8b1b eb3c 3b62 ca3c 94ff 9d3d
00000160: e2a8 ba3b 8ff8 013c 8a7b 903d 1107 383b
00000170: 2970 a43d 889f bd3d d788 f13d 688c adbd
00000180: ea49 4e3c 0c78 c5bd 0446 59bd 22ce 6fbb
00000190: 7dde 5abd 2568 b5bd 2a2e 16bd f048 e33d
000001a0: f1ad fabc 91f4 bc3d 9156 0a3e 2f51 2dbc
000001b0: 09fd ebbc fe17 f0bd 9306 4f3d 3b04 223d
000001c0: 155e da3c 49c8 543a 7a9a d93d 9952 8bbd
000001d0: e7d7 06bd 8353 593c 41db 74bd fe4a 4d3d
000001e0: 92cd b53d 1c7b d13c e554 bb3c f8d8 35bd
000001f0: 91f7 68bd 1502 02bc 7a85 a73c 5203 843c
00000200: f393 a63d 241f 523c 5735 473d 6689 f5bc
00000210: a69c 36bd b9c5 83bb 4223 143c bc50 6d3d
00000220: c76b 88bb 95e1 a3bc 995c 1bbd b709 02bd
00000230: 5ce5 f03c a63d 5d3d 03cb d63d cd22 a43d
00000240: 4343 c1bd d43f 4abd f491 b6bb 2caa 53bb
00000250: c41d 5f3c 4a10 a23d 0662 1cbe 15dd 303d
00000260: 595f 1cbd 6163 1dbd c1d4 c13d 8b5a 06be
00000270: ce1e 03bc 0e00 3a3d 3d5d 8dbc 834b 8dbd
00000280: f5f7 38bc 2a85 12bc dfbf 6b3d e238 bbbd
00000290: 30e5 d73d 5a48 3fbd ff92 fb3c 0bd7 84bd
000002a0: 151f 2bbd c22f bc3d 5daf 953d 2bfb bf3d
000002b0: 013e 873b d0aa 7fbd 188e f2bc 3996 68bd
000002c0: be84 01bd 5b71 25bd 2f6c d23d fec8 57bc
000002d0: e8e0 bfbc 2f33 e73c efa4 8b3c 5b00 3b3e
000002e0: 949d 1d3d 6ae4 03be 7bb6 4bbd 63e8 2d3d
000002f0: deed 2ebd 8a66 9d3c 78e5 ffbd d9a2 a1bd
00000300: 969a 8fbc 9614 323c 6079 57bd 1fb9 78bd
00000310: c7f9 433d eab4 dabc 09cb b8bb 7c2e c4bc
00000320: 1b58 65bd cb72 ff3c 3c1c d23d fabd 343d
00000330: c174 503d 89b3 4abd 798e cbbc 5dec 9b3b
00000340: d4ea 82bd 1eab 07be 7be6 7abd 1397 45bb
00000350: 464a 1cbc c81c 46bd 8128 21bd e2d4 083d
00000360: cc7a 853d decc e5bb 4ccc 3a3d 95b3 ac3b
00000370: 8148 223d 8ddb 993d a49a 04bb 555a 063e
00000380: 4504 edbb 2641 cc3d 5f68 533c 29a3 b03c
00000390: a815 323d 20d5 b33d 84a9 503c 1cf0 02be
000003a0: f966 a9bd f772 c1bc b4fb 853b f885 863c
000003b0: c254 2bbd 3105 8b3c 872b b43c 27d6 523b
000003c0: 929b a2bd 89e7 3cbd 816e 8bbd 2403 cabc
000003d0: 595d f1bc 060a e93d 3f14 febd 3f5d 843c
000003e0: 506e ddbb 8ac9 e23b 8ad6 963d 17aa 2c3d
000003f0: 322a 13be 2c63 343b fc27 673c 1b08 b93c
0.020288369 0.110490054 -0.049881723 -0.012110882 -0.014040321 0.061891556 -0.08059556 0.0356662
-0.047401875 -0.05935854 0.072597414 0.04966004 0.10955721 0.0901897 -0.0086426465 -0.033121668
-0.08794295 0.019934308 -0.046829604 0.0037024429 0.03228357 -0.07980859 0.06318935 -0.0008313677
-0.049021274 0.040707145 0.10951306 -0.042089406 -0.022147186 -0.015292262 0.02128885 -0.036485743
0.051261462 0.015793197 -0.032567266 -0.08730789 0.08460241 0.020073943 0.040086247 -0.11635686
0.010686789 0.023433998 0.061296992 -0.09205836 0.037705995 0.18013376 -0.047312334 0.08300773
0.03869809 -0.074859455 0.09856115 -0.04271495 0.14272362 0.013368304 0.023689788 0.017882966
0.012528442 0.10860672 0.021442294 0.043400493 -0.033672355 0.048258737 -0.011940032 0.08980081
-0.0009831883 -0.05599481 0.13851067 -0.012386759 0.050254904 -0.059097055 -0.026870513 -0.03448397
-0.06246263 -0.061396573 0.021933267 -0.04215042 0.0022726678 -0.01825908 -0.12741938 0.008942007
0.1420481 -0.0051502734 0.054627243 0.12650256 0.11795128 0.028699657 0.024705043 0.07714763
0.005696402 0.007932796 0.07054813 0.0028080384 0.08029205 0.09258944 0.11793678 -0.08474046
0.012590865 -0.09642038 -0.053045288 -0.003659137 -0.053434838 -0.088577546 -0.03666512 0.11097896
-0.03060052 0.09226335 0.13509585 -0.010578438 -0.02880718 -0.11723326 0.05054338 0.039554816
0.02665619 0.0008117003 0.10625167 -0.06802864 -0.032920744 0.01326454 -0.05977941 0.050120346
0.088771 0.025571398 0.02286763 -0.04439637 -0.056876723 -0.007935067 0.020449389 0.016114864
0.08133688 0.012824807 0.048634853 -0.029972743 -0.044582985 -0.004021373 0.009041609 0.057938322
-0.0041632387 -0.020005027 -0.037930105 -0.031747546 0.029406242 0.05401387 0.1048794 0.0801445
-0.09436657 -0.049377277 -0.005571598 -0.0032297475 0.0136179365 0.07913263 -0.15271768 0.04317959
-0.038176868 -0.038424853 0.09464408 -0.13120477 -0.00800295 0.04541021 -0.017256374 -0.06899168
-0.011289586 -0.008942882 0.05755603 -0.09141709 0.10541761 -0.04669986 0.030709742 -0.06486329
-0.04177769 0.091887966 0.073088385 0.09374078 0.0041272645 -0.06241876 -0.029608771 -0.05678389
-0.031620733 -0.040391307 0.10274541 -0.013170479 -0.023422673 0.028222648 0.01704642 0.18261854
0.038480356 -0.12880102 -0.049734574 0.04245795 -0.042707317 0.019213933 -0.124949396 -0.07892389
-0.017529767 0.010869166 -0.052605987 -0.06072342 0.047845628 -0.026697595 -0.005639438 -0.023947947
-0.055992227 0.031182667 0.102592915 0.04412649 0.050892595 -0.049487624 -0.02484821 0.0047584013
-0.06392446 -0.1324887 -0.06125496 -0.0030149862 -0.009539193 -0.04836729 -0.03934527 0.033406146
0.06517562 -0.0070129475 0.04560499 0.0052704313 0.039619926 0.07512579 -0.0020233775 0.13120396
-0.007233175 0.099733636 0.012903302 0.021562176 0.043477684 0.08780885 0.012735728 -0.12786907
-0.082715936 -0.02361439 0.0040888432 0.016421303 -0.04182888 0.016970249 0.021993412 0.0032171102
-0.07939829 -0.046119247 -0.06808186 -0.0246597 -0.029463457 0.11378865 -0.124062054 0.016157744
-0.006757535 0.006920998 0.07365139 0.042154398 -0.14371565 0.0027524931 0.014108654 0.022586873

bias f4 [32]
00000000: bb9d d43c bf93 47bd 5f22 ce3c 1aa8 753c
00000010: 0c68 20bd bd4a 8abb 6590 113d 77da 043d
00000020: 3b83 733d 3b35 f9bc 7fd7 383b d94b c73b
00000030: 649a fdbc f4ab 143c e579 19bd b2de 81bd
00000040: 662c cabc 556b 2d3c 088e 34bc f86e 713d
00000050: 0ad5 52bc 5124 73bd 38c6 363c 4dcd 813c
00000060: 6875 39bd 67eb 28bd 89b4 e1bc aa10 3c3d
00000070: 37a5 69bd 7eef cebc 3bc2 7d3d bd7c de3a
0.025954118 -0.048724886 0.025162874 0.014993692 -0.039161727 -0.0042203353 0.035538096 0.032434907
0.059451323 -0.03042089 0.0028204618 0.00608204 -0.030957408 0.0090742 -0.037469763 -0.06341304
-0.024679374 0.010584672 -0.011020191 0.05894372 -0.012868175 -0.059360806 0.0111556575 0.015844965
-0.045277983 -0.041240122 -0.027551906 0.04591433 -0.057042327 -0.025260683 0.06195281 0.0016974431

weight f4 [32, 5, 5]
00000000: 3723 543e b6fd 53bd bf41 2a3e f079 48bd
00000010: c09c 1dbc 0b5d 26bd 53be 50bd 0318 b0bd
00000020: 3c07 bdbd 3463 523e 9ab5 1abe 0068 2a3d
00000030: 70ed d83d d0dc 613e 6c70 f63d 05f9 113e
00000040: 4bcd 133e 6503 efbd ecbf b5bd 573a 373d
00000050: 7555 babd f913 d8bd 64af 03be 9c30 5cbd
00000060: 5b4c 2cbe ae1d 973c ff57 02be e53b babd
00000070: 83e3 f23d 17c9 46bd 9e9b c1bd 0297 4e3e
00000080: fabe 603c a611 2a3e 5d4a 47bd 3bf9 f83c
00000090: f536 57bd 53a9 a03d 00d1 c5bc 6bc4 00bb
000000a0: 34cb ff3d 8b77 e13d 5fe2 a6bd 74e4 ac3c
000000b0: 4d70 293d 17f6 8abe 3fa5 8bbd 7d9c b2bd
000000c0: 5262 6cbd f907 d0bc d586 f53b 7091 fbbd
000000d0: cc2e 593d c49c 723d 5c8b 393d 53db 05be
000000e0: 2ed7 d4bd ce81 10be 231f 8fbd 5963 36be
000000f0: 0999 6c3d 0f02 da3d 461b 033d 808f e8bd
00000100: d1b8 d23c b6eb eabc ca2a b4bd 79c1 5c3e
00000110: 30ff 4fbd ee41 9fbd cba1 1d3d 7dc1 ef3d
00000120: 39fb 49be 8ee7 8ebe 8614 aebd 8d34 ddbd
00000130: 0e66 b1bd 45d0 933d c121 8d3d fb39 8bbd
00000140: 4f4b 553c fc18 f23d 639e 8f3d b64e 283e
00000150: 8c73 433e 808e 853d 05a6 5bbc b81e 123e
00000160: d96d 5cbd 227f 12bd ee55 4dbd 8eda 073c
00000170: 046a c43d 37a5 7e3d 3d8b 963e 2629 443d
00000180: b0b4 10be e63f 68be 034f 8fbe 5de3 fdbd
00000190: a06c 2b3e d15c ab3d 1979 1b3e a71b 733e
000001a0: 3b08 9dbd 8502 f8bd 5f27 47bd 95f8 50bb
000001b0: 17bc 84bc 0f1c 36bd 4dec e83d e870 d2bd
000001c0: 9c18 08be 273a 373e 0e28 82bd 3fa2 633e
000001d0: 496f 5a3e 0aed ba3d 6523 e6bd 9fbb 09bb
000001e0: 8610 14be 93ec 0cbe 855a cabd 9a5d 173e
000001f0: 44f6 393e fdff 343e c91b 1abe da84 61bc
00000200: 9c2d d1bd 1d11 5a3e 9244 813d d94a 803d
00000210: 5750 07be 09b4 20be 5aaf 1e3e 9fc6 9dbc
00000220: 9c8c 39bd cfa5 fe3d 6101 d4bd 99f8 da3d
00000230: 092a 33be 9e0e 62be 1146 2bbc 1b50 ac3d
00000240: 2f97 483a b74f 983d a77c 8bbd cb13 293e
00000250: bfd1 623e 714a 853e 3d35 a6bd 5bef 953d
00000260: 8e54 383e 9b32 293b 4e0e 21be f265 ecbd
00000270: 30cb 76bd a03e 763d d43a 05be f556 89bd
00000280: 662d f23d 5f44 5bbe 9a4c 34be b638 743d
00000290: 5474 47be ff8d 74be f89d 64be 289d 23bd
000002a0: c174 593d 8efe ccbd 9354 ae3c 3301 3e3d
000002b0: 901e 5c3d 592b 183e b0da 783e ca08 f7bd
000002c0: fd46 95bd 207a fb3c 60f8 a3bd 5a4b 9e3c
000002d0: 7cf4 803d 4073 423e f805 6bbd bec2 e9bc
000002e0: 9ae4 f13d 867a 043e 1a97 8fbd 42ec b93d
000002f0: 08dc 183e 6066 47bc 3e25 dabd b9b5 7d3c
00000300: 3169 20bd 2f40 2cbd 377b 12bd 1252 0d3e
00000310: 8579 8c3b e15a 113e fec3 443e 3793 943e
00000320: 1c39 613e 476d 16bc 812f 2a3e 168c c5bd
00000330: 8586 0d3e 3505 bb3d ed19 2a3d d9a1 08be
00000340: 2fa0 15be 01af 01be 2c17 473e 445f 383e
00000350: e883 3f3e ebe4 efbb a6da 73bd 9177 493e
00000360: 7174 ecbd 9cc2 dabd e410 da3b bdb8 833e
00000370: c44a 113d a08b 0cbe 0664 483d 2912 30be
00000380: efe1 20be 13c3 2b3c 6bcd 993d 6150 c3bd
00000390: 4177 b0bc 289c 60be 94a5 1d3d a903 90bd
000003a0: a7ec 61bd 9ad6 fabc f13a e5bd e728 d63a
000003b0: c3bf e13d 9efc b53d e449 243e d85f 1c3e
000003c0: 6560 963d 97ac df3d f258 66bd 57b2 91bc
000003d0: 8c14 373c ea02 82be a98f c5bd d4c0 6bbe
000003e0: 4833 55be 8843 d33c ce6c 4a3e 03ac f63d
000003f0: 2e11 cb3d 129b 09be 03cb 803d e4b1 e83d
0.20716558 -0.05175563 0.16626643 -0.048944414 -0.009619892 -0.040616076 -0.050962757 -0.0859833
-0.092298955 0.20545655 -0.15108338 0.04160309 0.105921626 0.2205689 0.120331615 0.1425515
0.14433782 -0.11670569 -0.08874497 0.04473337 -0.09098331 -0.105506845 -0.12859875 -0.053757295
-0.16826002 0.01844677 -0.1272888 -0.09093455 0.11859801 -0.048531618 -0.0945351 0.20174792
0.013717407 0.16608295 -0.048654903 0.03039228 -0.052542645 0.07844796 -0.02414751 -0.0019648324
0.1248993 0.11009129 -0.081486456 0.021105029 0.041366864 -0.27140877 -0.068186276 -0.08721254
-0.057710953 -0.025394427 0.00749288 -0.122835994 0.053023145 0.059231535 0.04529892 -0.13071947
-0.10392605 -0.14112017 -0.06988361 -0.17811336 0.057763133 0.10644924 0.03200843 -0.113554955
0.025722893 -0.028676849 -0.08797224 0.21558179 -0.050780475 -0.07776247 0.038484376 0.11706827
-0.1972474 -0.27911037 -0.08500008 -0.10801039 -0.086620435 0.07217459 0.06891204 -0.06798168
0.013018443 0.11821172 0.07012632 0.16436276 0.19087046 0.0652132 -0.013406281 0.14269531
-0.053815696 -0.035765775 -0.050130777 0.008291854 0.095905334 0.06216928 0.29403105 0.047890805
-0.14131427 -0.22680625 -0.2798997 -0.12396882 0.16740656 0.08367313 0.15182914 0.23741017
-0.076675855 -0.121098556 -0.04862153 -0.0031886448 -0.01620297 -0.044460353 0.11373196 -0.102754414
-0.13290638 0.17893277 -0.06355296 0.2222986 0.21331514 0.09127243 -0.1123722 -0.0021016372
-0.14459428 -0.13762121 -0.098805465 0.147818 0.18160349 0.17675777 -0.15049662 -0.013764584
-0.102137774 0.2129559 0.06311907 0.06264276 -0.13214241 -0.15693678 0.15496579 -0.019259749
-0.04530011 0.12433969 -0.103518255 0.106919475 -0.17496504 -0.22075889 -0.010453717 0.084137164
0.00076519226 0.074370794 -0.06810885 0.16511457 0.22150324 0.26033357 -0.08115623 0.07321044
0.18001005 0.0025817517 -0.15728113 -0.11542882 -0.06025237 0.060118318 -0.13010722 -0.06706039
0.11825065 -0.214128 -0.17607346 0.059624396 -0.1947797 -0.23882292 -0.22325885 -0.039944798
0.05308986 -0.1000949 0.021280563 0.046387862 0.053740084 0.14860286 0.24302173 -0.12062223
-0.072889306 0.030697882 -0.08006358 0.01932304 0.06296632 0.18989277 -0.05737874 -0.028535243
0.118111804 0.12937364 -0.07011242 0.09078266 0.14927685 -0.012170404 -0.10651635 0.015485221
-0.03916282 -0.042053398 -0.035762038 0.13800839 0.004286947 0.14194824 0.1921539 0.29018566
0.21994442 -0.009181327 0.16619684 -0.0964586 0.13820846 0.091318525 0.04152863 -0.1334299
-0.14611886 -0.12664415 0.19442433 0.18005091 0.18702662 -0.0073209903 -0.05953469 0.19674517
-0.11545647 -0.1068165 0.0066548456 0.25726882 0.035471693 -0.13725138 0.048923515 -0.17194428
-0.15711187 0.010483521 0.075098835 -0.095368154 -0.02154124 -0.21934569 0.038487986 -0.07031948
-0.05515733 -0.030619908 -0.11192883 0.0016339094 0.11022904 0.088860735 0.16043812 0.15270936
0.073426045 0.10921591 -0.05623717 -0.017785234 0.011174332 -0.25392848 -0.096465416 -0.23022777
-0.20820343 0.025789037 0.19768068 0.120445274 0.09915386 -0.13438061 0.062887214 0.11362055

bias f4 [32]
00000000: 306e 3dbe acd9 31be b662 a63d 7e2a 4cbd
00000010: 5359 2dbe 63ee 8abd 3606 173e 8ecd d5bd
00000020: c259 ca3d 901c 163d faa2 323e 7fff bb3d
00000030: c044 253e e3f7 283e c3d0 0a3e 2b21 823d
00000040: 9d9a 05be 414a 363e 16ac bdbd ddc0 86bd
00000050: eaed aa3d ea1f fd3d 6845 02be 76fe a0bc
00000060: cd14 023e fb8b fd3d c922 eebd d1e3 cbbd
00000070: cd3d 2dbe 6841 65be 6d03 debd 2a6c 62bb
-0.18499064 -0.17368191 0.08124296 -0.04984521 -0.16928606 -0.0678375 0.14748463 -0.10439597
0.09880401 0.036648333 0.17444983 0.091795914 0.16139507 0.16500811 0.13556199 0.063539825
-0.13047262 0.17801763 -0.092613384 -0.065797545 0.0834616 0.12359603 -0.12721789 -0.019652586
0.12703247 0.12380215 -0.116277285 -0.09955562 -0.16918106 -0.22388232 -0.10840497 -0.0034549334

weight f4 [32, 20, 1]
00000000: f54b 473e 2166 433e 6143 d93d ce3f 1d3e
00000010: 2ee2 76bd 06f9 333e 126c bcbd 0fb9 26be
00000020: 4773 5d3e 9808 68bd ef7a 7739 b882 0a3b
00000030: 47e1 283b ad4f 43bd c535 05bd 2e0f fcbd
00000040: f9c8 403e 5a3b 25be b619 c6bd 8cd7 2e3e
00000050: eb84 4c3e 605e 1abe 1551 1f3e e88f 013c
00000060: 3dcb 003e b023 123e 46a4 1b3e b55c 463d
00000070: 80be 073e 13e5 493e 2695 dc3c 0ceb 19be
00000080: e0f3 68bd c647 093d 94bb 613c 8b65 48be
00000090: c049 cc3c 6a53 2cbe 779f bcbd dc8a 8ebd
000000a0: 4c8a 42be 9805 24be ba30 023e e693 983d
000000b0: 4957 853d 23bb 8e3d b8aa bc3d 1534 0e3e
000000c0: 405c 7c3d 22dc 313e b5e1 81bd 6a4f 06be
000000d0: 1fe2 48be aaa4 a53d d417 3b3e 7f56 4f3e
000000e0: 588b 393e 382d f0bc 0070 a43c 50fc 2a3e
000000f0: ce8d f43d 294f 053e bba6 babc 60fc d43c
00000100: 10ed 893d 1371 0cbe 3e8e 15be 88c1 113d
00000110: 5d79 183d 25b5 7e3d d85d b5bd 2e35 1bbd
00000120: 7c29 acbd 0b1f a8bd 3e89 34be 8c44 ca3d
00000130: 3b7c 68be e9cb 323d 97bf 1dbe ad16 13bc
00000140: fc7c 54be ba76 043e 557c 28bc 40e3 06be
00000150: d887 c2bb 7e7e 4ebe ae1a dbbd 81ae 2bbe
00000160: 73ba 12be 4720 353e 2c60 253e cf15 883d
00000170: 5329 a23d ddf9 90bb 9049 193e 9f73 393d
00000180: f9fc 4bbb 448f ae3d 97da d9bd 30d4 03be
00000190: 4152 71bd f951 a6ba 471d 31be 78e2 f6bd
000001a0: 78ff 853c 4245 01be 3454 90bd 0fc7 413e
000001b0: 495f 193c e9fb f2bc 3f8e 41be f824 303e
000001c0: 007e 363e 251f 3e3e 45db 30be 3f1c 0ebe
000001d0: 2c11 c5bd 9ffc 5fbd ff14 ab3d a572 553d
000001e0: 2f8f 3ebe 4403 f73d 83ca 3e3e 380a 353e
000001f0: 3842 3abe 65ef 49be d47b 633d 5855 abbd
00000200: 9cc4 0bbe 8449 993d 53b5 c6b9 3921 b8bc
00000210: dca0 2abe 215c a6bc e567 203e 7ccc 4cbe
00000220: 8cd2 d3bd 6d65 48be 0f69 39bd b564 313e
00000230: e426 b9bd 5615 473d ee03 34be 6625 263e
00000240: 250e 2c3d 2874 bc3d 8942 0a3e d15b 43be
00000250: 6ce2 26bc 50ff 00be e8a2 0a3d 6a0b 42be
00000260: 7a4a 253e 1465 65be 1d66 f23d 7171 70be
00000270: f570 423e db1f 0f3e dd8e 37bd a703 0cbe
00000280: 5161 75bd e0f3 4c3e 0a7f 1f3e 580f 3f3e
00000290: 6cd1 e03b 14e1 83bd 13e7 123e b489 da3b
000002a0: 44b5 183e d924 bfbd 30ae 003e e7fe 493e
000002b0: c68c 0ebe 4bb6 7bbd 7ba8 c7bc ce8f f3bd
000002c0: 8b61 613e 23bc 393e b2e2 253e 062c a7bd
000002d0: ca08 e53d 10c1 d23a 27bc 413d 6b16 00be
000002e0: 570b 17be c0c0 5bbd 4cf7 c13d a3fa 5d3d
000002f0: 48ac 11be 718d be3c 6f25 0ebe ef9a 67bd
00000300: ee67 3b3e 637a 283d c7bf b1bd f00e 58bc
00000310: 7236 6abe 6f95 953d 1b4c 823d 21f5 07be
00000320: d024 0a3c ac29 8cbd a837 b9bd 609b 12bd
00000330: 9d7e f9bd 87a1 f2bd 776f 5dbe 3595 7ebd
00000340: deca afbd 027f 62be 4ad2 513e 4ec8 88bd
00000350: 6db2 c6bc ba4a d73d 560a 0a3c 2f50 cebd
00000360: 8612 e8bd a782 69bc 367e 343e 3c4e fe3d
00000370: b4d8 29bd 9022 483e fe48 c6bd e390 993b
00000380: aed1 57be 3d79 fc3d 1420 a2bc f0b8 2ebe
00000390: ea4f 003e 39b3 ff3d 904e 403e 62e7 dabc
000003a0: d748 2e3a c038 463d a9bf 37bb 632b 18bd
000003b0: fb68 39be ff80 16bd 0573 763d c4f2 30be
000003c0: fad9 d13c 8f97 39be db8d 5cbe 55bb 34be
000003d0: aa18 4c3d aa98 19be b36d 6dba 60c0 b93d
000003e0: 0299 34be 7e56 ca3a c4d2 20bc 31dc cd3d
000003f0: 43c5 6abd 3f74 3ebe 7b58 fbba fbba 693d
0.19462569 0.19081928 0.10608555 0.15356371 -0.060274296 0.17575464 -0.092003 -0.16281532
0.21626006 -0.05664882 0.00023601552 0.0021135043 0.0025769041 -0.047683407 -0.03252198 -0.12307583
0.18826665 -0.16135922 -0.09672873 0.17074412 0.19972579 -0.15075064 0.15558274 0.007907845
0.12577529 0.14271426 0.15199384 0.048428256 0.13256264 0.19716291 0.026926588 -0.1503107
-0.056873202 0.033515714 0.013777632 -0.19569986 0.02493751 -0.16828695 -0.09210103 -0.06960079
-0.18998069 -0.16017759 0.127139 0.074500844 0.06510789 0.06969287 0.092122495 0.13887055
0.061611414 0.1736913 -0.06341878 -0.13116232 -0.19617508 0.08088048 0.18270808 0.2024784
0.18119562 -0.029318437 0.020072937 0.16697812 0.119411096 0.13018478 -0.022784581 0.025999248
0.06734669 -0.1371501 -0.14605042 0.035584956 0.037225116 0.06218447 -0.0885579 -0.037892513
-0.0840635 -0.08209046 -0.17630479 0.098763555 -0.2270364 0.043651495 -0.15405117 -0.008977574
-0.20750803 0.12935916 -0.010283549 -0.13172626 -0.005936604 -0.2016544 -0.10698448 -0.16765787
-0.14328937 0.17688094 0.16149968 0.06644785 0.07918038 -0.0044243173 0.14969468 0.04527628
-0.0031126125 0.085234195 -0.10637396 -0.12873912 -0.058916334 -0.0012689225 -0.17296325 -0.12054914
0.016357169 -0.12624076 -0.070473105 0.18923591 0.009361097 -0.029661136 -0.18901919 0.17201602
0.17821503 0.18566568 -0.17271145 -0.13877963 -0.09622416 -0.054684278 0.08353614 0.052111287
-0.18609308 0.1206117 0.1863194 0.1767968 -0.18189323 -0.19720228 0.055538014 -0.083658874
-0.1364922 0.07484725 -0.000379006 -0.02247678 -0.16662925 -0.020307602 0.15664633 -0.1999988
-0.10342893 -0.19569941 -0.045266207 0.17323573 -0.09040621 0.048604332 -0.17579624 0.16225204
0.042005677 0.092018425 0.13501944 -0.19077994 -0.010185819 -0.12597394 0.033846766 -0.18949667
0.16141692 -0.2240184 0.11835883 -0.23480774 0.18988402 0.13976996 -0.04481398 -0.13673268
-0.05990726 0.20014906 0.15575805 0.18658197 0.0068609025 -0.064394146 0.1434596 0.0066692475
0.14912897 -0.093332 0.12566447 0.19726144 -0.13920888 -0.061453145 -0.02437233 -0.11892663
0.22009866 0.18138175 0.16199759 -0.08162694 0.11183317 0.0016079266 0.047298577 -0.12508552
-0.1475042 -0.053650618 0.09470996 0.054194104 -0.14225876 0.023260804 -0.13881467 -0.05654424
0.18301365 0.041132342 -0.08679157 -0.013187155 -0.22872332 0.07303893 0.06362172 -0.13277103
0.008431628 -0.06843886 -0.09043819 -0.03579271 -0.12182353 -0.11847215 -0.21624552 -0.062154014
-0.08583616 -0.22118762 0.20490375 -0.0667883 -0.024255002 0.105123 0.008425316 -0.100738876
-0.11331658 -0.014252341 0.1762627 0.12417266 -0.04146643 0.19544435 -0.09681891 0.0046864613
-0.2107608 0.12327812 -0.019790687 -0.17062736 0.12530485 0.12485356 0.18779969 -0.02672166
0.0006648427 0.048393965 -0.0028037822 -0.03715075 -0.18106453 -0.036744114 0.060168285 -0.17280108
0.025616635 -0.18124221 -0.21538489 -0.17649586 0.04982821 -0.14999643 -0.0009057179 0.09069896
-0.17636493 0.0015437154 -0.009815875 0.10051764 -0.05731703 -0.18599032 -0.001917615 0.057063084

bias f4 [32]
00000000: c265 22bd 54e6 51bd 61c8 5f3e e4e7 85bd
00000010: a4e9 2b3e e01f ca3d cf04 1c3d 6201 2cbe
00000020: 362d 893d bbb1 e0bd f7ad 073c c32b 04be
00000030: 04b9 3dbe fbb3 f43d b1e0 d3bd 9bee 823c
00000040: 83bb 803d 93c1 8ebd 4aa3 31be e1e3 83bd
00000050: e209 51be 9ddb cebd 49a5 11be bfbd 61bc
00000060: e2ba 52be a5e3 1ebe fb6d 2c3e e7c0 40bd
00000070: a3ef 343d c9ef 46be e658 0ebe 6f0e 103e
-0.039647825 -0.05124505 0.21853782 -0.0653837 0.16788346 0.09869361 0.038090523 -0.16797403
0.066980764 -0.109713994 0.008281223 -0.12907319 -0.18527609 0.11948391 -0.10345591 0.015982917
0.06285765 -0.06970515 -0.17347446 -0.06439949 -0.20413926 -0.10100482 -0.14223208 -0.013778149
-0.20579103 -0.15516527 0.16838829 -0.047058966 0.044173848 -0.19427408 -0.139011 0.14068006

weight_ih_l0 f4 [96, 32]
00000000: bd0d fabc dc74 1f3e 3863 33be bfda 1cbe
00000010: 4a42 4b3e 73cc 07bd 5de4 0dbe 9dce 29bd
00000020: 2c98 873d 16d2 b0bd 4e14 08be 40fe 40bd
00000030: 8eac 42be 8016 2fbc 08e6 3dbe 5202 80bd
00000040: ddb9 8f3d d39b 4abe aa21 2d3d e417 39bd
00000050: 0015 513e 157a 5fbe df0d 363e 7952 b1bd
00000060: 0af4 d23d 361b 15bd d7f5 7c3d 3f33 983d
00000070: aa30 61be edca 1ebe 8e85 57be 0954 d63d
00000080: 12b8 c73d 650b ec3c 2fbb 45be 0e81 163e
00000090: 247a 66bd 8a84 8d3c e667 5b3e 3da0 093e
000000a0: 493d eabd dec2 50bd 6720 51be 3e7c dcbd
000000b0: c5b5 97bd 9ca5 11be 77e5 f63d ee2a be3d
000000c0: dafb eb3c e8cf c5bd 1712 44be 888e fabc
000000d0: 45f8 0cbe 6e33 a7bd 7a71 eabc 7ebb 2e3e
000000e0: 2ac2 19be a8b2 22bc 8390 c23d 9aa8 6fbd
000000f0: be96 da3c f4da 0f3c 449c 083e ee71 9fbb
00000100: 64b1 82be d5d1 5cbd d516 4fbe 3baf ffbd
00000110: 51bb 673e 1981 dc3d 43d4 6d3b 6915 1bbe
00000120: c91c 10bd 96df 99bc a4ae 54be 5272 8ebd
00000130: 634b 40be 8640 303d df1b 50be 1c52 60bd
00000140: a635 3a3c bbf8 eabd f753 303d 3cd0 52be
00000150: 3934 573d 42e6 3abe 90d8 13bd 0d57 0fbd
00000160: d26d 7b3d 3c4a 473e 692c 13bc 4eee c23d
00000170: d324 e2bd bc18 8dbd 1835 9a3c a6a7 f6bc
00000180: eb10 193e 068e b0bd cafe 0f3e b1e0 bbbd
00000190: 3d1b 083e 7632 ab3b ec4e 103e f282 21be
000001a0: d02b 27be a195 473e 2cee 203e a36c 91bd
000001b0: b805 e03c c2c2 2cbe fea4 273d 5181 2bbe
000001c0: a745 25be af3c 8b3d 4f6e 96bd 36ca b83d
000001d0: 8060 4bbc abe7 683d 2a6e 8ebd b528 613d
000001e0: 7c56 583d 65fa 06be 9018 15be ef80 363e
000001f0: 01ea 8b3e f520 9b3d 8f6e 6ebd 553f 373d
00000200: 8246 02bd 3e3f bdbd 91f0 3abe 393a abbd
00000210: 39ae b3bd 5294 d1bc 02e0 2dbe 4c00 1f3d
00000220: 7bad 1abc e2df a13d 64b9 163e 62e0 413d
00000230: fe46 e5bc 245f 3f3e 9171 083e bf7d 1f3e
00000240: 115a aabd 60cf 623e 4067 ee3d 1dac 40be
00000250: 27c5 2e3d 9bfe 3abe d87d 24be c81c 5f3b
00000260: 1144 423e 5dca 313e 88ce 05be 90a8 2e3c
00000270: e966 873c 700e 1a3d 593b 593d 1e01 6abd
00000280: 457e a7be 0dca 523d 0e13 27be 119b 79be
00000290: 4480 1ebd a743 193d 72f6 83be bfda 15be
000002a0: 0ad2 bd3d cac0 323e aa28 a6bd cac2 923e
000002b0: 1425 71be 82fd 773d 5dc8 853d d620 b8bd
000002c0: 9596 11be 6511 9dbe 809e 55bd 0c40 91bd
000002d0: c675 aabd 5f66 83bd aee9 51be 4cc9 8bbc
000002e0: be89 a13e bdf3 1bbd a0f6 54bd f1d1 1dbd
000002f0: 11dc fe3c 2129 003e 2504 193d e78f e83d
00000300: 60af 8fbe abcf 063e f767 85bd bcdc 91be
00000310: 879d 9e3d 5015 d33d 4351 dcbd 1132 a9bd
00000320: cd68 813e b5ee 2e3e a93d e9bd 34df b6bd
00000330: f03c ffbc 9367 9f3c fb73 fdbd ee74 303e
00000340: 11de 8d3d 0840 84bd 95f3 81bd 73f6 92be
00000350: 70fe a83e f2a0 91be afcb 3d3c e490 70bd
00000360: 74f1 a23e 8c89 083e c35a 993e 4d75 b4bd
00000370: 2fc2 9fbe cdb1 313e 194f 10be fdd8 403d
00000380: 0624 793e ce98 7fbd 496f 103e 1b9c 933e
00000390: 14d7 25be 6ced 083e a25e a73d d3f0 90bc
000003a0: 254e 1cbe 59fa 663d 5b92 0c3e 0e66 d53a
000003b0: f39d 013d 10cd 45be ea82 7ebd 2925 18be
000003c0: ba24 423e 1d79 1ebd 2100 a53d 641c 013e
000003d0: 706e 263d fb49 9abd 5cd1 b5bd 69a2 1fbe
000003e0: f1ff debd df68 61be 2b8a 49be 040f b43d
000003f0: 87fc 5c3e 72d1 6abe 9fdc adbd c464 9ebd
-0.030524129 0.15571922 -0.17518318 -0.1531782 0.19849506 -0.033153962 -0.13856645 -0.041456807
0.06620821 -0.08633821 -0.13288996 -0.04711747 -0.19011137 -0.010686517 -0.18544781 -0.062504426
0.070178725 -0.19786005 0.042268433 -0.0451888 0.20418167 -0.21823914 0.17778729 -0.086583085
0.10300453 -0.036402903 0.06175789 0.074316494 -0.2199122 -0.15507098 -0.21047041 0.10465247
0.097519055 0.028814027 -0.19309686 0.14697668 -0.056268826 0.017275114 0.21426353 0.13440032
-0.114374705 -0.05096709 -0.20422517 -0.10765885 -0.07407717 -0.14223331 0.12055486 0.09285532
0.028806616 -0.096587956 -0.19147526 -0.030585542 -0.13766582 -0.08164106 -0.028618563 0.1706371
-0.15015474 -0.00993029 0.0950022 -0.0585104 0.026683208 0.00878023 0.1334086 -0.0048658764
-0.25525963 -0.05391105 -0.20223553 -0.124845944 0.2263005 0.10766811 0.0036289848 -0.15144886
-0.0351837 -0.018783372 -0.20769745 -0.069553986 -0.18778758 0.043030284 -0.20323132 -0.054765806
0.01136533 -0.11473223 0.043048825 -0.20587248 0.052540038 -0.18251899 -0.036095202 -0.034995127
0.06138403 0.19461912 -0.008982756 0.09518109 -0.1104218 -0.06889483 0.018824145 -0.030109238
0.1494786 -0.08620839 0.14062038 -0.09173716 0.1329164 0.0052245213 0.14092606 -0.15772608
-0.16325307 0.19490673 0.15715855 -0.07100799 0.027346477 -0.16871169 0.040928833 -0.16748549
-0.16139852 0.06798684 -0.073452584 0.09022944 -0.012413144 0.05686156 -0.06954606 0.054970462
0.052816853 -0.13181455 -0.14560151 0.17822622 0.27326968 0.075746454 -0.058210906 0.044738133
-0.031805523 -0.09240578 -0.18255831 -0.083607145 -0.08773465 -0.02558342 -0.16979983 0.038818642
-0.009440775 0.079040304 0.14719158 0.04733313 -0.027987953 0.18688637 0.13324572 0.15575312
-0.0831796 0.2214942 0.11640787 -0.18815656 0.042668488 -0.18261187 -0.1606363 0.0034044255
0.18971278 0.17362352 -0.13067067 0.010660306 0.016528564 0.037611425 0.053035114 -0.05712997
-0.32713524 0.051462222 -0.16315863 -0.2437556 -0.038696542 0.037418034 -0.2577396 -0.14634226
0.092685774 0.17456356 -0.08113225 0.28664237 -0.235493 0.0605445 0.06532357 -0.08990638
-0.14217599 -0.30677333 -0.05215311 -0.07092294 -0.08323245 -0.0641601 -0.20499298 -0.01706376
0.315504 -0.038074244 -0.051993012 -0.038530294 0.031110795 0.1251569 0.03735747 0.11355572
-0.28063488 0.13165157 -0.0651397 -0.2848872 0.0774489 0.103067994 -0.10757687 -0.082615025
0.2527527 0.17083247 -0.11388714 -0.08929291 -0.031156987 0.019458568 -0.12375637 0.17232105
0.069271214 -0.064575255 -0.06345288 -0.2870365 0.3300662 -0.28443104 0.0115842065 -0.05873193
0.3182484 0.1333372 0.29952058 -0.08811436 -0.31202838 0.17352982 -0.14092673 0.047081936
0.24330148 -0.062401585 0.14104952 0.28830037 -0.16195327 0.1337182 0.08172347 -0.017692959
-0.15264185 0.056391094 0.13727705 0.0016281025 0.031644773 -0.19316506 -0.062136568 -0.14857925
0.18959323 -0.03868972 0.08056665 0.12608486 0.040632665 -0.07533642 -0.08877823 -0.15589298
-0.10888661 -0.22012661 -0.19681613 0.087919265 0.21580707 -0.2293146 -0.08489346 -0.07734063

weight_hh_l0 f4 [96, 32]
00000000: abe8 c8bb 1697 463e ef9d d3bd 651b 8cbd
00000010: b4ba 1ebc 5cf6 1e3e eb86 363d 2b49 2bbe
00000020: 3481 81bd 4b72 953c 7478 eabd fa40 14bd
00000030: a0fb 953d 492f 173d f72b 3b3e b8bc 0ebc
00000040: cee8 9ebd 094d 5c3d 0b5d 883c 1d71 64bc
00000050: ed84 563d 5e53 f1bd 2e56 c4bb 8cdf 29be
00000060: 656a 05be 9f59 c4bc e01b 5b3d ff57 793c
00000070: 26bc a3bd f297 39bc 78b3 c9bd 1677 3cbe
00000080: 3ba6 d63d 1bb1 e23d a758 2ebe 18ee 4f3c
00000090: a9ea aa3d 182b 333e 739b adbd 917f 843d
000000a0: 2d63 403e 8e43 083e ca57 8e3c 09d8 d23c
000000b0: 5165 6c3d 83ba 0cbe a207 86bd aca7 2b3d
000000c0: f9d5 613d 4941 223d 76af 053e 938c 04be
000000d0: 8e2b 8d3d ad01 e63c 2811 43bd 0b1e c3bd
000000e0: eb74 1abe b132 ef3d ba64 263e a23d 47be
000000f0: ce52 bebd 8147 5cbd b484 3c3e 7642 f7bd
00000100: ee5a 08be 08e2 bc3d 70fd c73c e67b 13be
00000110: bb5c 7a3c a758 103d 8690 38be 925b 13bd
00000120: 5265 d63d 0e83 383e d5b7 603e e91e cf3d
00000130: ee61 11bd 5fc0 8bbc 0ca4 a63d bf8e 48bd
00000140: 1688 df3d 9f43 313e c202 a1bd ae82 b93d
00000150: eec7 30bd c1cd c33d 1aae 1e3e e55e aa3c
00000160: c4df 023d 6094 0c3d a8ac 0c3e fdb8 bc3c
00000170: 9abf cc3d aa9f efbd b690 3f3e 43af 743d
00000180: a678 c13d bed3 0e3d aa90 0a3e c610 cf3d
00000190: 3169 8cbd b8d4 173d 3413 323e 20fc 4b3d
000001a0: 32b9 663d 897b 033d 8e66 503d b860 17be
000001b0: d0c2 d13d 4eb9 ddbd 03a7 023e 0087 56be
000001c0: ad8a 413d 3ac3 5c3c 4742 03be 9a65 ce3d
000001d0: 5f8d 25be 0fb6 33be 9b53 84b9 a67b bb3d
000001e0: 8a68 f4bd fa5f f8bd 58cf 30be 2cd8 a23d
000001f0: 3112 143e 6e34 293e e745 1fbe 49c8 cf3d
00000200: da71 bf3d 17fb 053c 124c 33be f884 693e
00000210: 8b64 183e 5cb1 70bb 9a6d 4dbc c46a 143d
00000220: 1498 c93c 6dee 1fbc c24b 903d 37f0 acbc
00000230: 9cab e3bd 3580 1abe 9a1e 1b3e 7e31 79bd
00000240: a8ae 57be 5c55 bb3c e4f5 28be 436d 84be
00000250: 5b23 3fbd 50e3 5a3e 6bb2 c5bd 3dc4 463e
00000260: 22ec 4bbd a2ee 8cbe b1c9 403d 5840 d7bd
00000270: 9c0c d33d c02b ba3b c4bf 143e 5cd3 c03c
00000280: fd36 e53d 9c4a e73d b722 34be b5cf f0bc
00000290: f55f 183e 2c6c 5cbe 5069 cd3d a668 a9bd
000002a0: 1cff db3d 5996 b6bc 7cc6 8e3d cadc 1fbd
000002b0: 9243 86bc 9d99 7dbd b004 cebd 3e71 82bd
000002c0: dcda 52be 61a2 bcbd a899 2c3d 4ae2 02bd
000002d0: ebbc 413e 82f8 41bd 839e 92bc 07ff ae3c
000002e0: b29a 1f3e a139 e4bc abc5 a63d 128f 3cbe
000002f0: a41e 443c da3f 02be ac51 053d 45f4 c5bd
00000300: 18dc 7abd f667 b23d 988a 2d3e c570 e83c
00000310: 1331 a2bd 0e86 19be 6f67 cc3d bb34 513a
00000320: 4c9e 7a3d 09e8 16be 1ad7 67bd 509d 5bbe
00000330: 9aa2 b43c e67d be3b fa27 92bc eb4f eebd
00000340: b95f 89bd 138f 063c d3e1 a7bd 28a1 4cbe
00000350: 5735 ca3d 36e3 9abd 9c51 1b3e 35b3 323d
00000360: c387 a5bc b697 e43d 5286 053e 7177 073e
00000370: 8ffa 213e 1cd8 023e 22a6 67bd 1b83 dabd
00000380: e9d3 143e b034 0d3c 021c 2c3e d11b ce3d
00000390: ce35 69bd b5a3 413e 471f c8bd 99b6 0a3d
000003a0: a201 ac3c 6225 933c a52e 18bd 301c 5b3e
000003b0: a883 ac3d c866 b83d f60c 303e e631 ed3d
000003c0: f6a4 b63d daae abbc 4c24 673e d0a6 813e
000003d0: 671d 68bd 44ae 353d 86b4 99bd 7428 113c
000003e0: afb7 19be ef4f 403d b4f2 07be a4c1 cabd
000003f0: 3e9b 0e3e ebe4 223e 9ded aebd f919 593e
-0.006131252 0.19393572 -0.10332858 -0.068411626 -0.009688068 0.15523666 0.04456226 -0.1672713
-0.06323472 0.018242976 -0.11448756 -0.03619478 0.07323384 0.03691033 0.1827849 -0.008711986
-0.07759248 0.053784404 0.016645929 -0.013942984 0.05237286 -0.11783479 -0.0059917187 -0.16589183
-0.13028868 -0.023968516 0.05349338 0.015218734 -0.07994871 -0.0113277305 -0.09848684 -0.18404803
0.10480925 0.110689364 -0.17026006 0.012691043 0.08345539 0.17496908 -0.08476915 0.06469644
0.18787833 0.1330702 0.017375845 0.02573778 0.05771381 -0.13743024 -0.065444246 0.04190795
0.0551357 0.039613042 0.13055214 -0.1294425 0.06893073 0.028076971 -0.047623783 -0.095272146
-0.15083663 0.116795905 0.16249362 -0.19457105 -0.092931375 -0.05377913 0.18409997 -0.12073223
-0.13315937 0.092227995 0.02441284 -0.14402732 0.015280898 0.035240795 -0.18023881 -0.035976
0.10468544 0.18018743 0.21945126 0.101133175 -0.035493784 -0.017059503 0.08136758 -0.04896426
0.10914628 0.17310952 -0.07861854 0.09058128 -0.043159418 0.09560729 0.15496102 0.020797202
0.03195168 0.03432119 0.13737738 0.023037428 0.099974826 -0.117003754 0.18707547 0.059737455
0.0944684 0.0348699 0.13531747 0.10110621 -0.06856001 0.0370681 0.17390138 0.049800992
0.05632896 0.032100234 0.050879054 -0.14782989 0.10242236 -0.1082636 0.12759022 -0.20949936
0.047251392 0.01347428 -0.12818252 0.10077973 -0.1616721 -0.17549919 -0.00025239293 0.091544434
-0.11934002 -0.12127681 -0.17266595 0.07951388 0.14460064 0.16523907 -0.1555401 0.10145623
0.09347887 0.00817754 -0.17509487 0.2280463 0.14882104 -0.0036726808 -0.012538338 0.036234632
0.02460865 -0.009761435 0.070457 -0.021110637 -0.11116716 -0.1508797 0.15148392 -0.060838215
-0.2106272 0.022867851 -0.1650005 -0.2586461 -0.046664577 0.21375775 -0.09653171 0.19410796
-0.04978574 -0.27525812 0.047067348 -0.105103195 0.103051394 0.005681485 0.14526278 0.023538284
0.11192129 0.112935275 -0.17591368 -0.029395917 0.14880355 -0.2152564 0.100298524 -0.08271913
0.107420176 -0.022288488 0.06971452 -0.03902892 -0.016389642 -0.061914075 -0.10059488 -0.063692555
-0.205913 -0.09210659 0.042138726 -0.031954087 0.18919723 -0.047356136 -0.01789785 0.02136184
0.15586355 -0.02785951 0.08143171 -0.18413952 0.011970196 -0.1271967 0.03254859 -0.09665731
-0.061245054 0.08711235 0.169474 0.028374085 -0.079195164 -0.14992544 0.09980666 0.0007980575
0.06118612 -0.14736952 -0.05660162 -0.21446729 0.02205019 0.005813348 -0.017841328 -0.11636337
-0.06707711 0.0082128225 -0.081973694 -0.19983351 0.09873455 -0.07562868 0.1516785 0.043627936
-0.020206338 0.11161749 0.1303952 0.13229157 0.15818237 0.12777752 -0.05655492 -0.10669538
0.14533962 0.008618519 0.16807559 0.10063899 -0.056936078 0.18910106 -0.09771591 0.033865545
0.020996872 0.017962161 -0.03715386 0.21397471 0.08423549 0.09003979 0.17192444 0.11581783
0.089181826 -0.0209574 0.2257244 0.2532258 -0.056668665 0.044355646 -0.07505135 0.008859742
-0.15011476 0.04695123 -0.13276178 -0.09900215 0.13926408 0.15907638 -0.08541415 0.21201314

bias_ih_l0 f4 [96]
00000000: c81e c2bd 2a85 b1bc ed47 3e3e afab bdbd
00000010: 45af 3f3d 9475 d13d 0a95 b63d efab 703b
00000020: c32c 0bbe 1020 3fbc dfe3 a73d 2d1f d33c
00000030: 2b64 7bbd 3b93 a03b 2ab7 533e c704 ad3d
00000040: 663b 70bd 7024 03be 1256 da3b a7ce b03d
00000050: 2056 193e e93f 0abc f6a4 1abe a1c3 773c
00000060: f2a5 903d 8395 15bd df7a a2bd 10c4 823d
00000070: ae07 be3d 3455 b63d 1216 113e 577f 8d3d
00000080: e60d 0b3e 8e6e f9bd 655a 4bba 9cc9 d83d
00000090: d25c 8e3d 91eb 413c 0b01 24be a677 78bd
000000a0: 37a2 033e c1d9 043e c1fb a93d 7a56 d2ba
000000b0: 19e4 c2bd 4ce0 0e3e ea0b 8cbd e80e b63d
000000c0: f65c b33b a0b9 8ebd e742 f63a 5ce8 e4bd
000000d0: fef5 033e ea1f 063e e132 303d 87eb b73d
000000e0: 3f52 0d3e 46b2 e0bd 019c c6bd 97e0 38be
000000f0: e6b9 0bbe 045f 05be 1ff3 39be 0ae1 9bbd
00000100: 8d90 58bd 7a1a 103e b13b ebbd 3ae0 34be
00000110: ea66 8fbd 720c 493d 14f3 ca3d 5dc9 49bd
00000120: f465 213e 228d 7a3d e30c b73d 1dc8 423d
00000130: 9bb0 833d 1809 85bd 6923 f6bd 4398 653d
00000140: 9e61 083e 442c 2d3d cc26 a9bd 6323 1c3c
00000150: 0b4a 6e3d 1e16 073e 22b5 8dbc 3c7b a8bd
00000160: d5f6 333e b66e a23d 4a5a 9e3d 10a0 01be
00000170: 5da3 4bbd a82b 39be 8778 e93c c36f 863d
-0.09478527 -0.021669943 0.18582125 -0.09261262 0.04679801 0.102275044 0.08915146 0.0036723574
-0.13591294 -0.011665359 0.0819776 0.025771702 -0.061374824 0.0049003637 0.2067534 0.08448177
-0.058650397 -0.12806869 0.0066630924 0.08633166 0.1497426 -0.008438089 -0.1510199 0.015122325
0.070629016 -0.03651954 -0.07933592 0.06385052 0.092788085 0.0890297 0.14168575 0.06909054
0.1357952 -0.1217929 -0.0007757305 0.10585329 0.06951298 0.011835949 -0.16016023 -0.06066098
0.12854849 0.12973692 0.08299971 -0.00160475 -0.095161624 0.1395275 -0.0683821 0.08889562
0.0054737283 -0.06968999 0.0018788249 -0.111771315 0.12886807 0.13098112 0.043017272 0.0898047
0.13800906 -0.10971503 -0.09697724 -0.18054424 -0.13645133 -0.13024527 -0.1815915 -0.07611282
-0.05287223 0.140726 -0.114859946 -0.1766366 -0.07002051 0.049084134 0.09909645 -0.0492643
0.15761548 0.06116975 0.08938005 0.047554124 0.06430169 -0.06495875 -0.12018473 0.05605341
0.13318488 0.042278543 -0.08259353 0.009529921 0.05817608 0.13192031 -0.017298285 -0.0822663
0.17574628 0.07931273 0.07732065 -0.12658715 -0.049716342 -0.1808306 0.028499855 0.065642856

bias_hh_l0 f4 [96]
00000000: 5d8f a33c 80d4 c5bd a068 2f3e 5871 d8bd
00000010: 7702 ec3d bc3a 4e3e 7ddb 063d d5ac 18bb
00000020: 211b acbd e270 1abd a4e8 70bd c5ed 403e
00000030: a9e5 1cbe d164 20be f146 853e ecd5 cb3c
00000040: 57d4 063c 3f3b 6bbd bfda 11be f70a 16bc
00000050: a54f 9c3c 4c3f 8c3c b45e 21be 364a 363d
00000060: 4a6c 1c3d ea7b c83d 7b0a 0dbe 3834 f73d
00000070: e569 8abc 23cd 0a3b 84aa b43c bc7a de3d
00000080: 20f3 0d3d 7a59 10be ed33 2d3e 9e7b 18be
00000090: 443b 05be 7cea 2abd 6323 7d3c 77eb 3fbd
000000a0: be36 243d 197f f73c 3c2c 10be 56e4 663d
000000b0: 9d5d eebd 6141 f6bd 71c9 9c3d e46e b3bd
000000c0: a781 aa3d e6f2 88bd d8dc d43c b7c6 dc3d
000000d0: 20ba edbd d4de 20bd 3931 15be d603 d9bd
000000e0: a3bd 113d 6cf3 2b3e 9574 d03d 1837 06be
000000f0: e17f bcbc f270 c1bd 25ce 193e 3b6b b9bc
00000100: eea3 a43d 30f2 35be e131 63bd faf8 803d
00000110: d897 b5bb e650 d33d 48b9 1abe 7d79 b8bd
00000120: 9309 01be a4b1 a63d d706 d53c 80bc 89bd
00000130: 6380 06be 0d8a bb3d 345d 0fbe 18c3 1a3e
00000140: 19e3 e73d 652c 983d 3361 04be 5c91 67bd
00000150: 46f3 2e3d 0850 b53d 83c8 863d ea78 f83d
00000160: 7e5c 3b3e 9c0a c6bd e588 3b3e b1a5 e83c
00000170: f1a7 1fbd 66f1 273e ba56 d0bc 3aec 47be
0.019965822 -0.09659672 0.17129755 -0.105684936 0.11523908 0.20139593 0.032924164 -0.0023296375
-0.08403612 -0.03770531 -0.058815613 0.18840702 -0.15321983 -0.15663458 0.26030686 0.02488228
0.008229337 -0.05742955 -0.14243601 -0.009157888 0.019080946 0.017120026 -0.15758783 0.044504367
0.03818921 0.0978926 -0.13773529 0.12070507 -0.016896198 0.00211794 0.022053964 0.108632535
0.03465569 -0.14096633 0.1691434 -0.14890906 -0.1301089 -0.041727528 0.015450331 -0.046855416
0.04009127 0.030211972 -0.14079374 0.056370102 -0.11638949 -0.12024189 0.076556094 -0.08761385
0.083255105 -0.06686954 0.025984213 0.10780089 -0.11607766 -0.039275005 -0.14569558 -0.10596435
0.035581242 0.16792077 0.10178486 -0.13106954 -0.023010196 -0.09445371 0.15020044 -0.02263414
0.080390796 -0.17768168 -0.05546749 0.062974885 -0.005541783 0.103181645 -0.15109742 -0.09007547
-0.12601309 0.08139351 0.026004238 -0.06725407 -0.13134913 0.091571905 -0.14000398 0.15113485
0.11322612 0.074303426 -0.12927704 -0.05653511 0.042712472 0.088531554 0.06581213 0.121324375
0.18297002 -0.09669992 0.1831394 0.02839932 -0.03897852 0.1640068 -0.02543198 -0.19523707

weight_ih_l0 f4 [96, 32]
00000000: f7b3 a2bd 616e d6bd f8ff 6f3e 6bf6 1c3e
00000010: eb9c 47be bc57 58bd bd23 f53d 31ab 09be
00000020: 275c 443e 6fc6 8d3c efe5 d53b 5356 923d
00000030: ec40 6f3e 6d43 1ebd caba 3f3e 7d98 07bd
00000040: 1e83 3b3d 82ba 153c 572b 82bd a354 103e
00000050: 0f75 02bd 1033 aabd 230b 64bd 0b7e 0b3e
00000060: 0728 343e bf5d 3a3e 78e5 2dbe 18df d0bc
00000070: 02b0 043d b420 9bbd d72f e3bd a667 bebd
00000080: 1e8e a4bd 17fd ed3d fdcf debd 1456 71bd
00000090: c326 dfbc 9338 c73d eefe b3bd 08cf 86bc
000000a0: ec14 9b3d 86b4 413e 4b12 1f3e 5237 f33d
000000b0: b83c 04be c987 8e3d 020b efbd 1d75 303e
000000c0: e741 1fbe 180a 01be 9655 1abe 2597 ad3d
000000d0: 8752 0fbe e408 973d 7de6 ab3d ada4 0bbe
000000e0: 33fd 063e 1af7 b8bd ac18 573d 1996 24be
000000f0: b35a 5cbe 5d58 203e 93a5 c03d b998 d639
00000100: 8d22 0abc a12d e7bc bfcd 39be df3c 593d
00000110: 4f66 fe3d baf1 3ebd 7e97 edbd f45f 3b3d
00000120: e06f 66bd 2881 d93d 0a72 d43d 56d5 c63d
00000130: 5e7b fabd 5791 313d 456f bfbd 7a1c d2bd
00000140: c979 193e 0420 86ba bf96 83bd b229 fb3c
00000150: 6838 533e 502c d13c b524 543d dd39 e2bd
00000160: 829b 763a aa03 333e b9d9 ff3d 5344 573c
00000170: 2df9 0fbe 3456 35be 90a6 cc3b 4330 1d3b
00000180: 5247 ee3d 09b9 a7bd 26b8 e93d e995 d3bd
00000190: 72d2 b5bd e4ab 54bd b4eb 05be fe37 0bbe
000001a0: 0205 58bd 3e91 db3d c5d4 2d3e f7ba f33d
000001b0: e67a 8b3d 7002 073e 2df5 bc3c ef8e a73d
000001c0: 1235 e73d cb57 01be 4a60 95bc 4951 023e
000001d0: 2364 f83d 6c59 edbd 2c9b f63d 5cf3 8cbd
000001e0: ac32 f6bd 0a10 4f3c 228a b2bd e4f3 3bbd
000001f0: 8a78 00bd 0486 b5bd 634c 0b3d 845e 513e
00000200: f906 be3c 7202 a23c 2fd4 823d 6344 bc3d
00000210: 7f6c 35be 7f42 9f3c c7d2 2bbe 29a7 acbd
00000220: 9458 e23d f026 4b3c 7766 5f3d e2f5 36bd
00000230: f4eb 5a3e 83af 0d3d 984c 2e3e f9b6 9a3d
00000240: cf48 73bc 18f3 ccbd 86dc 053e a7e7 d23d
00000250: 30a8 f9bd afd6 a63d 92bc 79bd 35b1 493e
00000260: 5b37 3f3d 7c85 0b3e 4914 1b3e ae51 18be
00000270: bd57 063e 66dc c53d 64a1 283e 5d56 17bc
00000280: 0fa9 a43d f7cc 2cbc 19fc cc3d 0534 523d
00000290: 229e 93bd 741f 4dbc cbd9 8c3d f310 acbd
000002a0: 0f2e 9a3c 774f 923c 51b4 833d 034d dbbd
000002b0: 29f9 88bd e846 e8bd 144e 033d 23f4 b9bd
000002c0: ecde 31be f28b 303d e410 e8bd f701 07be
000002d0: 8771 dabd bb22 bb3c 9d17 1b3e e2d0 2b3e
000002e0: 0709 c63d f572 b13d 2df6 f4bd 9c11 223c
000002f0: 4203 443d a3f7 733d 743d 7abd b0f1 08be
00000300: 4a9c 02be 0bd8 53bd 1ddf 4b3d 2756 46bd
00000310: e46a 253e 2ef8 c43d 35c6 d53d bc5d 473d
00000320: e638 c1bd 3ca4 123d 9496 9f3b 1bac 10be
00000330: cc28 9c3c cb3d c13d 6166 863d 7953 183d
00000340: 0d13 823d 9a61 b8bd bd58 1dbe 6e01 923d
00000350: 7887 abbd 8499 12be a246 7ebd 787d e83b
00000360: caaa 24be 573c 74bc f6f5 e33d 394e 813d
00000370: 0e64 c83d 385f 70bc a5ba 613d 523f b63d
00000380: a9cf d83d 18be 093e 6510 66bd e2ae 43bd
00000390: 6dcd 933b 8085 51bd b42d 47be 46cc 67be
000003a0: 0e57 3f3e 2a43 373e 1009 273d 2308 3e3d
000003b0: 04fa 463e e2b4 8c3d d729 51bc 4933 45be
000003c0: de5f 323e 0f3c bbbd 5255 a63d 7733 883c
000003d0: ff9b 12be fece a83d 5d20 0b3e ecac f23d
000003e0: 1148 403e 1734 393d 6225 96bd c3f6 383e
000003f0: 9878 38bd 5745 52bd 4df6 ac3d 72c4 2abe
-0.07944482 -0.10470272 0.23437488 0.15328376 -0.19493453 -0.052818045 0.11969707 -0.1344421
0.19175778 0.017306535 0.0065276544 0.07145371 0.2336461 -0.03863852 0.18723598 -0.03310441
0.04577934 0.009138705 -0.06355923 0.14094786 -0.031849917 -0.08310521 -0.055674683 0.136223
0.17593394 0.18199824 -0.16982067 -0.025497004 0.032394417 -0.07574597 -0.11093109 -0.09297113
-0.08034919 0.11620539 -0.10879514 -0.05891998 -0.027240163 0.097275876 -0.08788858 -0.016456142
0.0757235 0.1891652 0.15534322 0.11875786 -0.12913787 0.06959493 -0.116720214 0.17232175
-0.15552483 -0.12601507 -0.15071711 0.08476094 -0.13996325 0.073747426 0.083935715 -0.13637038
0.13182525 -0.09031506 0.052513763 -0.16072883 -0.21518974 0.15658708 0.09406581 0.00040931048
-0.008431089 -0.02822 -0.18144892 0.053036567 0.124218576 -0.046617247 -0.116011605 0.045745805
-0.056259036 0.10620338 0.10373314 0.09708659 -0.12230562 0.043351498 -0.09347395 -0.10259338
0.14987864 -0.001023293 -0.06425237 0.03065953 0.20626986 0.025533825 0.05179282 -0.11046193
0.0009407328 0.17481866 0.12492699 0.013138848 -0.14059897 -0.17708665 0.0062454417 0.0023985065
0.11634697 -0.081895895 0.11412077 -0.103313275 -0.0887803 -0.05192174 -0.13078195 -0.13595578
-0.05273915 0.10721062 0.16975696 0.11900895 0.068105504 0.13184524 0.023066128 0.08181559
0.11289419 -0.12631147 -0.01823439 0.1272632 0.121284746 -0.115893215 0.120413154 -0.068823546
-0.12021384 0.012638101 -0.08717753 -0.04588689 -0.031364955 -0.08863452 0.034008395 0.20446211
0.023196684 0.019776557 0.06388127 0.09192731 -0.17717169 0.019440887 -0.16779624 -0.08430321
0.11052051 0.01239942 0.054541077 -0.044668086 0.21379071 0.03459121 0.17021406 0.075544305
-0.014848902 -0.10007304 0.13072404 0.102980904 -0.12190282 0.081464164 -0.06097085 0.19696505
0.04668365 0.13625139 0.15144457 -0.14874908 0.13119407 0.09661178 0.16467816 -0.009236899
0.08040058 -0.010546914 0.10009021 0.05131914 -0.07207896 -0.012519706 0.06877478 -0.0840167
0.01882079 0.017860157 0.06430877 -0.10708048 -0.066881485 -0.11341649 0.032056883 -0.090797685
-0.17370194 0.043102212 -0.11331347 -0.13184343 -0.10666185 0.02284371 0.15145727 0.16778901
0.096696906 0.086645044 -0.11961017 0.009891894 0.04785467 0.059562337 -0.061093763 -0.13373446
-0.12754932 -0.051719707 0.049773324 -0.048422005 0.16154057 0.09617649 0.104381956 0.048673376
-0.09434681 0.035801157 0.0048702452 -0.14128153 0.019062422 0.09435614 0.06562496 0.03718898
0.0635129 -0.09002991 -0.15365882 0.07129179 -0.08375448 -0.14316374 -0.06207908 0.007095035
-0.16080776 -0.014906964 0.11130898 0.06313748 0.09784709 -0.014671139 0.05510964 0.08898796
0.10586483 0.13451421 -0.05616798 -0.047774203 0.0045105726 -0.051152706 -0.19451028 -0.22636518
0.18685552 0.17896715 0.040780127 0.04639448 0.19431311 0.06870438 -0.012766323 -0.19257845
0.17419383 -0.09142315 0.08121742 0.016626103 -0.1431732 0.082426056 0.13586564 0.118493885
0.18777491 0.045215692 -0.07331349 0.18062882 -0.045036882 -0.05133566 0.08445416 -0.166765
