pre_trained_models/mosi_aligned_A_GENERATOR_V.pt (torch, 131193 bytes, 35 tensors)

multi f4 [1, 32]
00000000: 0367 f0bc a160 d63e 5eb6 5c3e 1b71 913e
00000010: da77 953e 2583 a23e 34a7 5cbb 24fa 563e
00000020: 9e29 c23e 0ec1 6fbc 2fca b3be a638 bebe
00000030: c07c 993d 8217 9a3e 1255 f2bd 016e 4fbe
00000040: 7ccd 8abe a4ca debd aea2 833c a79c 74be
00000050: e0de 24be 833a 2bbe 75c3 a03e eaa8 973e
00000060: 5099 903e def3 efbd 2f63 3bbd 0948 b13e
00000070: 9c2c 7e3e 7cc6 e43e c31b bd3e b2e6 de3e
-0.029345995 0.41870597 0.21553943 0.28406605 0.29193002 0.3174068 -0.0033668997 0.20993859
0.37922376 -0.01463343 -0.3511519 -0.37152594 0.07494497 0.3009606 -0.11832632 -0.20256807
-0.27109897 -0.108784944 0.016068783 -0.23887883 -0.16100645 -0.16721539 0.31399122 0.2962106
0.28241968 -0.11716436 -0.045748886 0.3462527 0.24821705 0.44682682 0.36935243 0.43535382

weight f4 [50, 32]
00000000: 7a1b 98bf 1fe9 78bf 56c5 293d f8c3 1b3f
00000010: 7379 dfbe 4de8 31bf 14af 5abf 7f51 ca3f
00000020: d9f8 913f 10ad f23e 9bcd d33f 70a9 abbe
00000030: 7698 9f3f 9cd0 bc3e 7df7 bc3e 2c57 ebbe
00000040: eff0 7dbe 2e5d 6bbe 6d97 323d 5ce2 1040
00000050: 1f57 ed3e 9554 33bd 56a4 82bf 6ef2 a93c
00000060: f8a1 89bf 4c09 32bf 5c73 a43d 2e07 303e
00000070: 99a7 dc3f 60ed c0bd 03da 3abf 6202 53bf
00000080: 02b9 623f 4bfa 863f 9f64 09c0 98fa d93f
00000090: 590d 12bf 88e1 d8bb 7445 47bf 56f1 a13e
000000a0: b1e3 fc3f fe40 cc3f 257f 9bbf e7cb c73f
000000b0: a963 ccbe f5d4 b6bd b37a b5bf 458d b03f
000000c0: c9a6 fa3e efc9 d5bf f101 e1bd d9cf 9dbe
000000d0: e23f b9bf 520b 7b3f c355 1ac0 8939 e5be
000000e0: 8857 e0be 5c0f b3bf 0827 b8bc fc77 f9bf
000000f0: d8f0 05bf a70a a2bd 9203 233e feb8 11bf
00000100: e9db c73d 75eb 073f 0579 833d fbe4 863e
00000110: e824 503f e36d cbbe e0a2 1f3f 5207 193f
00000120: b157 3fbf 07ab 15be 3c14 53bf 2953 efbc
00000130: 113a 893f cc58 59bf 4f91 6dbf 2761 9b3f
00000140: c6c6 393f ad9d abbf 4a32 d1bf a826 84bf
00000150: d297 bf3f 61ad 9cbf 5a00 3dbe 3223 a33e
00000160: 5dd8 c03f 9dcf 1c3e f886 9fbe bc79 e43b
00000170: 178c 54bc bd5e 8dbe 8459 723d 0f8f 30bf
00000180: 882e 37bf b687 08c0 90d7 913e 2cae 183e
00000190: 4311 e4be cc9c 74be 7b2b d3bf d38a 843f
000001a0: 7f29 b4bf a442 febf c96f c53e 59f3 bdbd
000001b0: 9188 0a3f 115d b53e 35e5 d7bf c974 b9be
000001c0: 12dd fbbe 6886 f3bf 16c2 8dbf 9184 cb3e
000001d0: c808 c7be 7787 8abd 0224 333e 46cc 1cbf
000001e0: d10f e93f 444e 7ebe a54d 09bf c444 1840
000001f0: 5ec7 55bd a263 1dbf d243 e83d f4ab 58bf
00000200: 9353 0e40 c165 98bf c45b 30bf 3eb7 9f3e
00000210: 39f0 30bf b069 333f 1f2f d93f 253c ad3f
00000220: a227 adbe 83d3 2840 4717 00be 21f9 243e
00000230: 5cd2 343f 9930 f83d 8d93 2e3b 6298 afbd
00000240: 3d4e d83e d34e abbe c8e4 23be 42cf 393f
00000250: 2cd6 3dbf ec91 7f3f 2d7b 493f da01 43bf
00000260: 6d08 8bbe ccd9 d2bf 3ec0 0040 86b4 92be
00000270: e0fc 4ebf 1bac db3f 592b 703e 489e b63e
00000280: 8849 6b3f 12f6 863f 477b 4d3d de6e b63e
00000290: a1ee 9fbe 3500 f1bf 4c8e 5d3f a678 cabe
000002a0: 5d37 a3be b663 38be 76a9 513f 9108 0b3f
000002b0: 4fdd 14bf 6223 cb3e 2187 203f 8873 38be
000002c0: af10 6cbf 7e7d 6cbf c27b 16c0 e73d 273f
000002d0: 4356 833d 8a34 0f3f ab66 e83e 1766 71bf
000002e0: 77d9 dc3f 2479 fcbe 528a ebbf 24f4 6b3e
000002f0: 042a abbf a7c9 ed3e 7398 5abf b120 c3bf
00000300: 514c 38bf 15bd 11bf 583c 713e 7bed 303d
00000310: c864 6abf fa43 773e ae92 88bf 8d39 b43d
00000320: fefe 99bf 8ec3 443f 2633 ef3e 8eef e1be
00000330: da27 10c0 c32d b93f 7f55 973f a6be 253f
00000340: 7ecb acbf a6ed f93f c876 10bf 0e7c bebf
00000350: 89be 87bf f424 163f 5d93 e5be 81c3 733f
00000360: 236d 15bf 3a69 a33e 932b 493d 63cc 0dbf
00000370: 183c f33e 9499 b43d d066 0a3e 64df e13e
00000380: 53f8 b73f 918d 603e 2bfa 973f 442d 95bf
00000390: 2481 27bf 7cca 993f d529 edbe 6fcf 813e
000003a0: 9eee 9bbe 6766 273e 9ec0 a1bf 8742 a3bd
000003b0: 2520 153e b253 22bf 9e8c 8ebf e201 a6bf
000003c0: 120d 833f 7ff6 b33f b477 06bf d7b0 babe
000003d0: 7bea 823f 6133 18bf 39de 13c0 923c f0be
000003e0: 756f 463f e168 1b40 f75f f23e 9468 14be
000003f0: 84f2 463e 0abc 0dbf 5cdd 4abf 8647 e7bd
-1.1883385 -0.97230715 0.04144796 0.608459 -0.43647346 -0.6949509 -0.854234 1.5806121
1.1404067 0.4739766 1.6547121 -0.33527708 1.2468402 0.36877906 0.3690757 -0.45964944
-0.2479894 -0.22984764 0.043601442 2.2638159 0.4635553 -0.043781836 -1.0206401 0.020745482
-1.0752554 -0.69545436 0.080298156 0.17190239 1.7238647 -0.09420276 -0.7298891 -0.8242551
0.8856355 1.0545133 -2.1467664 1.70296 -0.57051617 -0.0066186823 -0.7784035 0.31629437
1.9756986 1.5957334 -1.2148176 1.5609101 -0.39919785 -0.08927337 -1.417807 1.3793112
0.48955372 -1.670225 -0.109866984 -0.30822638 -1.447262 0.9806415 -2.4114845 -0.44770458
-0.4381678 -1.3989062 -0.022479549 -1.9489741 -0.52320623 -0.07912188 0.1591933 -0.569229
0.097587414 0.53093654 0.06419567 0.26346573 0.81306314 -0.39732274 0.623579 0.59776795
-0.7474318 -0.14616023 -0.8245275 -0.029214459 1.0720845 -0.8490112 -0.9279985 1.2139024
0.7256893 -1.3407494 -1.6343472 -1.0324297 1.4968207 -1.2240411 -0.18457165 0.3186279
1.5066029 0.15313573 -0.3115766 0.0069725197 -0.012972853 -0.27611342 0.0591674 -0.6896829
-0.71555376 -2.1332831 0.28484774 0.14910191 -0.4454442 -0.23887938 -1.6497644 1.0354866
-1.4075164 -1.9864087 0.38561848 -0.092749305 0.54114634 0.35422567 -1.6866823 -0.36221913
-0.491921 -1.9025393 -1.1074855 0.39749578 -0.38873887 -0.06764119 0.17494205 -0.61249197
1.8207952 -0.24834543 -0.536341 2.3791971 -0.052192084 -0.6148015 0.11341061 -0.8463738
2.223851 -1.1906053 -0.68890023 0.3119449 -0.6911655 0.7008314 1.6967505 1.353398
-0.338193 2.6379097 -0.1250888 0.1611066 0.7063348 0.12118644 0.002663824 -0.085739866
0.4224719 -0.33458576 -0.16005242 0.72581875 -0.74154925 0.99832034 0.78703576 -0.761747
-0.27154866 -1.6472716 2.0117335 -0.28653353 -0.80854607 1.7161897 0.23454036 0.35667634
0.91909075 1.0543845 0.050166395 0.3563146 -0.31236747 -1.8828188 0.8654525 -0.39545172
-0.31878176 -0.18006787 0.818992 0.54309946 -0.5815019 0.39675432 0.6270619 -0.18012822
-0.9221296 -0.92378986 -2.3513036 0.6532883 0.064129375 0.55939543 0.4539083 -0.942964
1.7253865 -0.49311173 -1.8401587 0.23042351 -1.3372197 0.4644291 -0.8538887 -1.5244352
-0.7199145 -0.5692914 0.23558176 0.04319523 -0.9156003 0.24147025 -1.0669763 0.088000394
-1.2030942 0.7686089 0.4671871 -0.44128078 -2.2524323 1.446709 1.1822966 0.6474403
-1.3499601 1.952565 -0.56431246 -1.4881608 -1.0605022 0.58650136 -0.44838992 0.9522019
-0.58369654 0.3191622 0.04911382 -0.55389994 0.47506785 0.08818355 0.13515782 0.44115746
1.4372658 0.21929003 1.187322 -1.1654439 -0.6543143 1.2014918 -0.46320978 0.25353572
-0.30455488 0.16347657 -1.2636907 -0.079716735 0.14563043 -0.6340896 -1.1136663 -1.2969325
1.0238364 1.40596 -0.525264 -0.36463043 1.0227808 -0.594534 -2.3104384 -0.4692121
0.7751382 2.4282763 0.4733884 -0.14493018 0.1942845 -0.5536505 -0.7924402 -0.11292939

weight f4 [4, 32]
00000000: 3a5e c43f 612e 62be f845 2d3f 0225 1bbf
00000010: 7109 a3bf 6692 c23d 730d e8be e77c 9fbf
00000020: a8d1 073f 2eda 073f de7e 81bf 7986 88bf
00000030: 9a42 4e3d 84ed d93f afd0 213f 707a 773f
00000040: 41fe a63e 53fb 313f 402d cf3f 8aae e7bd
00000050: 358f 90be 9380 a4bf 423b 3440 db71 c13d
00000060: 08f1 19bf 05f6 ccbf 191b 04c0 0709 34be
00000070: 8ffa 90bf 171a 8a3f 7cdd 0c40 82c1 833d
00000080: 007c ebbf d94f f93d 1487 5abf 57c2 d13f
00000090: 9089 3abf 4002 0cbf 5a25 993f 6041 2c3d
000000a0: f0fc 903f 69ef aa3f 8f19 28bf 5da1 073f
000000b0: 73c9 013e a80f 04bf 81b7 843f eaed 18bf
000000c0: d0ea 00c0 6b43 1f3d 37e3 463d 54bd 7bbf
000000d0: 929a babf 7c7a e63e 3e4a cc3e 7515 a1be
000000e0: cb93 edbe 184a 923f e06b 08be d3f6 bb3f
000000f0: 36c0 8a3d 6e91 9a3e 149e 593d c491 16be
00000100: 5625 18bf 6265 843c 30b7 c4be da5e 99bf
00000110: 064c 7e3f e439 e13e 028e b53d 202e 9b3f
00000120: 7a19 debf e534 51be 20f3 5b3e 2b00 ebbf
00000130: c9dd aa3f 36fe 513f f915 dcbf a234 aabe
00000140: 6801 26be 506f 69be 389a b63f 0cb4 87bc
00000150: 815a 033e 2fc7 3ebf 3c9d fabf 7a51 dd3b
00000160: e114 2b3f 5eda 3ebf f4cb 933f a7b2 0b3f
00000170: 1de0 af3f b669 443e 100e 28bf 3d2a 1540
00000180: 0982 323f 27c2 80bf d4de c13e 8049 14bf
00000190: 1de2 383f acef efbf f06c 683f 6813 8abe
000001a0: d9d9 d13e 29ef c5be cfa4 303f 70ba 3fbf
000001b0: 0c88 d13e c0d5 603f eaf4 d8be 0e2d ef3e
000001c0: 5aad 4c3f cfc4 ffbe 0c8d 2ec0 e4fc a6be
000001d0: b8da 04bf cdbf 903f e6b6 eb3f 1168 a23e
000001e0: e2da 263f e9f9 c9bf cf70 363f 7226 1f3f
000001f0: 210f 47c0 b517 37bf 566f 8cbf f125 d23f
1.5341256 -0.22088005 0.6768489 -0.60603344 -1.2737256 0.095005795 -0.4532276 -1.2459992
0.53054285 0.5306729 -1.0116842 -1.0666038 0.050356485 1.7025609 0.6320905 0.966712
0.32615855 0.69524115 1.6185684 -0.113125876 -0.28234258 -1.2851738 2.8161168 0.09445544
-0.6013341 -1.6012579 -2.064154 -0.17581569 -1.1326464 1.0789212 2.2010183 0.06433393
-1.8397217 0.12173433 -0.8536236 1.6387433 -0.72866154 -0.54690933 1.1964524 0.042054534
1.132719 1.3354312 -0.65664 0.52980596 0.12674503 -0.5158639 1.0368501 -0.5973803
-2.0143318 0.038882654 0.048556533 -0.98335767 -1.4578421 0.45015323 0.39900392 -0.31461683
-0.4640182 1.1428862 -0.13322401 1.46847 0.067749426 0.3018908 0.05312927 -0.14704043
-0.5943197 0.016161624 -0.3842101 -1.1982071 0.9933475 0.4398948 0.088649765 1.2123451
-1.7351525 -0.20430334 0.21479464 -1.8359426 1.3348933 0.8202852 -1.7194206 -0.3324328
-0.16211474 -0.22796369 1.4265814 -0.016565345 0.12827493 -0.7452268 -1.9579234 0.0067540975
0.66828734 -0.7455195 1.1546617 0.54569477 1.3740269 0.1918095 -0.6564646 2.330703
0.6972967 -1.005925 0.37865317 -0.5792465 0.7222002 -1.8745017 0.90791225 -0.2696793
0.40986517 -0.38659027 0.6900148 -0.74893856 0.40924108 0.87826157 -0.42374355 0.46714061
0.79952013 -0.4995484 -2.7273588 -0.32614815 -0.5189624 1.1308533 1.8415191 0.3172002
0.6517774 -1.5779392 0.7126588 0.6216804 -3.1102984 -0.7152055 -1.0971477 1.6417829

in_proj_weight f4 [96, 32]
00000000: 8931 ad3d 5866 bd3b 2274 fabc df55 3abd
00000010: 6571 87bd 98db 51bc 1c71 153e 0eed d83d
00000020: f8fa 6b3e 4ff0 b53d 9c0c 7b3d 2909 d4bd
00000030: 8059 02be 3b8f 403e f421 c8bd fceb db3d
00000040: 30ec 9fbd 2989 afbd e88d 01bd bac1 983c
00000050: 0aa4 e53d cc37 1cbe 59ca 123d 4707 06be
00000060: 1909 293d 25af 823e 4be3 6abd e2c7 28bb
00000070: 6fd7 55bd 004d 023e ef31 11be d4af 6bbd
00000080: c431 85bc b47b 873e 31d1 89bc 41da f2bd
00000090: ac5a a6bd 1623 c8bd 6255 bb3d 7ff8 19be
000000a0: 4822 253e 66f5 c23a 7d3b 54be 225e be3d
000000b0: 3a0d d1bd 5727 c1bd 1270 133e db04 bfbd
000000c0: 0b68 babd e260 0dbc 3a74 fe3c 1aff 5b3e
000000d0: b1da 4a3d 1685 423e 7eee 15be 7340 fa3d
000000e0: f133 513e 6a21 1e3e eb1e 553e 6c37 b53b
000000f0: a609 3dbd 2d3b 37be 0592 05bb 99a7 9cbd
00000100: febd 0b3c ed4a c4bd 838b 503e f242 473d
00000110: 3c19 033e f765 ffbd 09ff 77be 60d9 ebbd
00000120: 53a8 403e f8cd 633d fe86 103e b7f4 873d
00000130: 4dfc 82be daa0 fe3d 7ffa 4a3b 87fe 6c3d
00000140: fad7 473e be9a 383e bafc 6dbe 716a 493e
00000150: 9142 5abe c50d bc3c d1bb 03be 6084 2ebe
00000160: e6fa 78be 7572 403e af3f bdbd 1a67 10bc
00000170: 0855 d43c 560c 1a3d d7dd 3abd 4874 26be
00000180: 11b9 99bd 461e bb3d 0a74 db3d 7180 85bd
00000190: 7d8e f93d 05a9 b03d 36b1 053d 2a28 9bbb
000001a0: 153d 803d 57aa 943d 0864 1f3e 82b6 ec3b
000001b0: b4bd 273e 8b18 373e 9e05 643e 6c54 dfbd
000001c0: 146b 23bc 5ed5 02be 616c bbbc 9550 1e3e
000001d0: 8738 4b3d 6811 d2bd 4948 823d f931 0ebe
000001e0: b559 dd3d 22cc 47be 2aa2 4d3e 2573 963d
000001f0: a56c 9abd 180b 44be 8968 233e 5b3e 203e
00000200: 9d79 6f3d b0aa 57be 7631 753c 6756 603e
00000210: 71c8 d7bd 7a2c 6b3d 39c4 343e 37e2 e73d
00000220: c217 1b3d d443 c8bd 2953 3d3e 7538 cc3d
00000230: 3894 0abe 800b babd be19 e23d 03b4 c93d
00000240: 3720 293e b0ce 803e 3b36 d13d 73a3 e5bd
00000250: 801e 273d 34d0 27be 0799 2bbe 67e8 aabc
00000260: acaf 46be b831 1a3e 1bb4 9ebd 1d5b 8b3d
00000270: 64ff 8f3c 68d2 643e cfef 173d fc72 ddbd
00000280: 6283 ad3c a481 053d a2e2 0bbc e03c 913d
00000290: e3ff 36be ce2f e93d 5e68 68be cb61 3cba
000002a0: 4433 8d3d 19e8 9eb8 1143 413d 40a4 f9bd
000002b0: 842b e53d e020 36be 8415 0bbe 8e0f 12be
000002c0: 95be b63d ab8c 5abd 3e8f 0cbe 2c7a 19be
000002d0: 5425 3e3c 31ce 723d 47f6 32be 8a0f 183e
000002e0: 8d45 42be 3b99 adbc fba4 07be 4011 3dbe
000002f0: 1332 4e3e 0cd4 87bd 59c3 223e cbfe 05be
00000300: 8a2a cfbd d474 aa3d f1c1 c13d 68e1 c5bd
00000310: a374 7a3d d6aa ea3d 3347 c93d 44de c0bd
00000320: 096f 57bd b35c 7dbe bc53 f7bc 983c 6cbe
00000330: e0e3 ffbd fa7f da3d 2f8f 6c3d f64c 8dbd
00000340: f826 a6bd 7b62 e33d e7ca b4bc 98db f23d
00000350: df61 a93d c37f 19bd af49 15be 7194 3fbe
00000360: 3e16 b4bd 76a3 633d 9306 363e f0d2 b53d
00000370: aade fd3c 634d 263d e704 31be d0b3 c4bd
00000380: a7db b83d 82f9 6a3e c3b9 2dbe c9ba c339
00000390: 19de 1dbe fba8 193e 44f2 923d b143 513d
000003a0: f13e e53b 1b25 7f3d e594 52be 8448 993d
000003b0: 6005 16be abfd 2dbe 836a cebd d7da 703d
000003c0: 21cb 1cbd 4fd7 5fbd 0493 223e 5756 7eb9
000003d0: 7c6a bcbc 3b5e 2a3e d544 e23d 069c 503e
000003e0: cb39 113e faaf 2e3e 8ffb 393d 64f6 133c
000003f0: fbb9 4bbe 7261 31be bbeb 11be 6b39 77be
0.08456714 0.0057800226 -0.030572955 -0.04549205 -0.06613425 -0.012808703 0.14593929 0.105920896
0.23044956 0.08883726 0.061291322 -0.1035331 -0.12729454 0.18804638 -0.09772101 0.1073837
-0.07808721 -0.08571083 -0.031629473 0.018647064 0.112129286 -0.1525566 0.035837505 -0.13088714
0.04126844 0.2552425 -0.05734567 -0.0025753905 -0.052207407 0.12724686 -0.14179204 -0.05754073
-0.016259082 0.26461565 -0.016823383 -0.11858035 -0.08122763 -0.09772317 0.09147145 -0.150362
0.16126359 0.001487416 -0.20725818 0.09295298 -0.10207601 -0.094313316 0.1439822 -0.09327098
-0.09101876 -0.008629056 0.03106128 0.21484032 0.049524967 0.18996081 -0.14641759 0.12219324
0.2042997 0.15442434 0.20812576 0.0055302884 -0.04615178 -0.17893668 -0.0020381224 -0.07649154
0.008529184 -0.095846035 0.2036572 0.04864783 0.12802595 -0.1247062 -0.24218382 -0.1151607
0.1881421 0.05561635 0.14113995 0.066384725 -0.25583115 0.12433024 0.0030972061 0.057859924
0.19515982 0.1802778 -0.23240939 0.1966951 -0.21314456 0.022955785 -0.12864615 -0.17042685
-0.2431446 0.18793662 -0.09240662 -0.008813644 0.025919452 0.03760942 -0.04562172 -0.16255295
-0.07506002 0.091366336 0.10715492 -0.06518639 0.121853806 0.08625988 0.032639705 -0.0047350125
0.062616505 0.07259052 0.15565503 0.007223905 0.1638096 0.17880456 0.22267768 -0.10904774
-0.00997426 -0.12776706 -0.022878828 0.15460427 0.049614456 -0.10257226 0.063614435 -0.1388625
0.10808126 -0.19511464 0.20081392 0.07346181 -0.075402535 -0.19144857 0.15957846 0.15648787
0.05846559 -0.21061206 0.014965406 0.2190796 -0.10536278 0.057415463 0.17652978 0.11322444
0.037864454 -0.09778562 0.18488754 0.09971706 -0.13533103 -0.09084225 0.11040066 0.09848788
0.16516195 0.2515769 0.10215422 -0.11212816 0.04080057 -0.16388017 -0.16757594 -0.020862771
-0.19402951 0.15058029 -0.07749196 0.06804488 0.017577834 0.22345889 0.037093934 -0.10812947
0.021180812 0.032594338 -0.00853792 0.07091689 -0.1787105 0.11386071 -0.22696063 -0.0007186203
0.06894544 -7.577259e-05 0.0471831 -0.12189531 0.111899406 -0.17785978 -0.13582426 -0.14263746
0.089230694 -0.053356808 -0.13726518 -0.14988011 0.011605579 0.05927867 -0.1747676 0.14849678
-0.18971844 -0.02119123 -0.13246529 -0.18463612 0.2013629 -0.066322416 0.15894832 -0.13085477
-0.101155356 0.083230644 0.094608195 -0.096621335 0.06114639 0.114583656 0.09828033 -0.09417394
-0.052596126 -0.24742393 -0.030191295 -0.2306999 -0.124946356 0.10668941 0.057753738 -0.06899445
-0.081129014 0.11102768 -0.022069408 0.118582904 0.082706206 -0.03747536 -0.1457889 -0.1870897
-0.08793305 0.05557581 0.17775945 0.08878124 0.030989964 0.040601145 -0.17287026 -0.09604609
0.0902627 0.22946742 -0.16965394 0.00037332464 -0.15416755 0.15005867 0.07175115 0.051089946
0.0069960286 0.062291246 -0.20564611 0.074845344 -0.14650488 -0.16991298 -0.10078909 0.058802452
-0.038279656 -0.054648694 0.15876395 -0.00024255492 -0.022999994 0.16637509 0.11048285 0.20372018
0.14182203 0.17059317 0.04540592 0.009030912 -0.19895165 -0.17322329 -0.1425008 -0.24142997

in_proj_bias f4 [96]
00000000: 7a77 72ba 5a42 25bc d8d6 35bd ce44 a8bb
00000010: 91fe ebbc 943d 843c fa82 f73c 9ba9 d9bc
00000020: 397c eabc 17fe b1bc c551 48bd e4d2 07bd
00000030: 320c 30bd d13f 40bd eccf 3bbd 0b35 df3c
00000040: ea34 fa3a efc0 c23c eea4 ddbc 58e0 e13c
00000050: e94e 52bc 9502 e2bc 87e3 cb3c 7b46 a5ba
00000060: 64ee 583c 619c eb3c 3310 29bd 4797 983c
00000070: 9f9c 5d3c 4f5e a83c 3fe0 343c 33fd c0bc
00000080: d3d3 d232 920e 74b3 31b7 1db4 b451 fe31
00000090: 8017 9bb2 d17e 3832 3ecf efb2 7538 e5b2
000000a0: 7308 93b3 2fcc 28b3 a04f 30b4 c7c5 82b2
000000b0: 6673 ba33 9f61 3b34 86b8 ac33 e9f1 62b4
000000c0: 9801 0bb3 598a 0933 cfa2 89b2 9d87 8131
000000d0: 9a92 abb1 8721 6bb3 f452 b1b3 f868 fc31
000000e0: 268b 42b3 3203 1833 dbf9 a5b2 54b8 3cb3
000000f0: e9d1 fdb2 b5c9 72b3 c28f 4e33 e065 0034
00000100: 4939 d9ba e4a3 243d 118f 0cbd 469c bd3c
00000110: 3df0 30bb b1b3 ec3c 9993 a1bc 1ab7 8e3c
00000120: 3480 0e3c 5c6d 47bc c329 813b 5aea 173d
00000130: a3a4 d53b 9d76 44bd aa51 3d3d cae0 3b3d
00000140: 8ba4 063d 2c91 173d 45b0 843c a065 b4bb
00000150: a64b 92bc 7813 b43c 9cf1 58bb 90f5 5dbc
00000160: 3f36 de3c eeda 4d3d 4956 1ebb 2803 edbb
00000170: 69f9 f3bc 22cf f3bc 0c98 463c dda5 6ebc
-0.0009249371 -0.01008662 -0.044394344 -0.0051351553 -0.02880791 0.016142644 0.030213822 -0.026570132
-0.028623687 -0.021727605 -0.048906107 -0.033160105 -0.04298038 -0.04693586 -0.045852587 0.027246973
0.0019089256 0.023773639 -0.027056184 0.027572796 -0.012836196 -0.027589122 0.024888767 -0.0012609506
0.0132404305 0.02876109 -0.041275214 0.018626822 0.013526111 0.020552782 0.011039793 -0.023558235
2.4543544e-08 -5.682393e-08 -1.4688409e-07 7.4016615e-09 -1.8055061e-08 1.0739044e-08 -2.7917505e-08 -2.6684782e-08
-6.846758e-08 -3.9301252e-08 -1.6420245e-07 -1.522393e-08 8.682291e-08 1.7451246e-07 8.042939e-08 -2.1135897e-07
-3.236491e-08 3.2023625e-08 -1.6022936e-08 3.7698116e-09 -4.9934217e-09 -5.4745694e-08 -8.257294e-08 7.346099e-09
-4.52957e-08 3.5393164e-08 -1.932215e-08 -4.3939806e-08 -2.9548533e-08 -5.6528467e-08 4.809386e-08 1.1957991e-07
-0.0016572858 0.04019536 -0.034316126 0.023145806 -0.0026998662 0.028894277 -0.0197237 0.017421294
0.008697558 -0.012172069 0.003941746 0.03708873 0.0065198704 -0.04796468 0.04622046 0.045868672
0.032871764 0.03700368 0.016197333 -0.0055052787 -0.017858338 0.02198194 -0.0033102995 -0.013547316
0.027125476 0.050257616 -0.0024160317 -0.0072330423 -0.029782014 -0.029761855 0.012121212 -0.014565912

weight f4 [32, 32]
00000000: 61f6 69be 26c1 a9bd 9aa1 cd3d 1a23 893d
00000010: aa28 ec3c 0f41 f6bd 2456 c1bc 0fad 94be
00000020: 13b3 393e f78d 99be 4853 a13d 821d 57be
00000030: 72ed 783e f15d 843e 74df 7fbe 79d7 003e
00000040: 76bc f1bd 0784 8bbe 7091 5ebe 1228 16be
00000050: 6665 77be 03be 9dbe 4901 3cbe 523c 88be
00000060: 446d 363e d03a 54be 9dfc 293e e1e5 3b3e
00000070: 47f3 043d fb53 8bbe a979 15be 56b0 2c3d
00000080: 3f0d 89be 859c 933e b1bc 103e 9f95 2a3e
00000090: cc10 56be dfa6 873e 02ae 923e e290 53be
000000a0: 8b93 593e bc53 fc3d be96 323e 23d7 8f3d
000000b0: 9deb 8f3e 5356 c53d e07c d6bc ee0d fd3c
000000c0: 8a80 7e3d 0ae4 9a3d 7f59 d1bd c560 673e
000000d0: 8946 a93d 06ad 313e bfe1 123e 6205 103e
000000e0: f7fe 87be bc09 6a3e 50be 83be 030f 62be
000000f0: d4e3 babd c039 323e 1889 c73d 309d 45be
00000100: 4178 973e e76a af3c 10e3 20be 780e e13c
00000110: af7f a2be 52a1 c13c d200 a13d a5d1 dbbd
00000120: cfe2 363e 8644 4b3e 79ef 953e 8d9c cebd
00000130: c6b0 453e e6ff af3d b5ca d4bd 410a d23d
00000140: 7624 55be 3bd2 8a3c 684e 203d 5f02 363d
00000150: 9c77 c93c 574d 96bd 2417 863c 3af6 8c3e
00000160: 365f a8bd 9f05 9fbe 1011 813e 66ad 3c3e
00000170: 6e5c 8dbe aadc 1b3e cb11 913e 1534 5cbd
00000180: 24e3 31be babb 833e ef06 533e 555a 103e
00000190: 72ec 4fbe fc21 933d 1595 d83c 4055 94be
000001a0: 3591 833b d45a 8f3e 07f3 b5bd b987 183e
000001b0: ec20 c3bd 03c7 c23c e7fd 843e 8861 233e
000001c0: 7be1 803e 8a35 be3d d716 06be 688b 733e
000001d0: 2402 78be 2324 913e 6618 22be 60db 6d3e
000001e0: 2234 fc3d 5aa4 50be 5d14 87bd 5ddf 46be
000001f0: 39d4 acbd 642b acbd 421e e9bd 80e8 b73d
00000200: 76e5 103d 24d2 e83d 49cc 6b3e 425b 68be
00000210: db82 963d 6b53 e4bd 0118 d5bc 774e a6bd
00000220: 4815 7fbe f8df b53d 4e42 eb3d b9db f9bd
00000230: 7b6e 913c 34fc 41be 2638 3fbe 6243 103e
00000240: 8067 063e 1f0a cc3d a807 60be b6d5 34be
00000250: 2bb3 033e 45a4 913d 9bda 063e f2de 35be
00000260: e978 8abd b1fc 713e c0a5 17be 4371 f8bd
00000270: 2420 8fbc cdea 023e 8c20 f9bd 4fc3 9fbe
00000280: 9ecf 863e deca 4abd e986 88be 4a68 7d3e
00000290: 62fb 71be a0a4 76be f06c 463e 1158 ac3c
000002a0: e5d3 6a3c 70a2 883e 461a 06be fc29 68be
000002b0: 1615 96bc f6f6 96bb 5f34 2b3e 05e8 6d3e
000002c0: e22e f6bd 937f 673e b88f f6bd ef47 a7bd
000002d0: 6cda 42be 7a8f 18be b9b7 373d 726a 5d3e
000002e0: ada2 88be dce8 5cbe c6fc 89be a895 873e
000002f0: 7a81 443e e292 3c3e 53ab 27be dc8e 5c3e
00000300: 7acd c63d 6dce ffbd d435 e3bd 5c48 1ebe
00000310: 2a6d c63d 326d 353e 3898 07be d7fb 9a3c
00000320: d6a2 25be 6949 533b 1e58 ee3d 5d78 73be
00000330: b72c 823e 0b1c 0bbe 2d3a 50be eaa1 05be
00000340: d186 6d3e e3bb 8dbe cd9b f8bd 66c4 80be
00000350: c0e2 933e fe9f 5d3e 9b42 9b3d 2826 503c
00000360: 4a17 0ebe 5768 a23c 5dda b7bc aeb7 59bd
00000370: 11f5 94be 06bf 1e3c ac9c a63d 3161 793d
00000380: 2362 4abd e277 a03e df85 e4bd 0376 783e
00000390: a400 71bd 9f09 66be d9ae 2cbe 36c1 02bd
000003a0: c076 193e 714c c9bd f39a 563e bb10 a63e
000003b0: 4c0f ad3e 33cf 60be 17b5 fb3d bdb3 793e
000003c0: 4917 73be 29cd 463e 3849 6e3e 2b0c afbe
000003d0: 8db9 183e a7ab 903e cf76 e13d 1b80 11be
000003e0: 8304 b4bc cfdf b2bd 59da 7f3e 3531 153e
000003f0: a884 323e c06a b33d cc2b a23e d3ea 9bbe
-0.22847892 -0.08288793 0.10040589 0.06696148 0.028827984 -0.12024128 -0.023600645 -0.29038283
0.18134718 -0.29991123 0.07877213 -0.2100735 0.24309328 0.25852922 -0.24987584 0.12582196
-0.11803524 -0.27249166 -0.21735168 -0.14663723 -0.24159774 -0.3080903 -0.18359865 -0.2660852
0.17815119 -0.2072556 0.1660027 0.1834941 0.03245857 -0.2721251 -0.14597191 0.042160355
-0.26767918 0.28830352 0.1413448 0.16658638 -0.20904845 0.264945 0.28648382 -0.20660737
0.2124769 0.123206586 0.17440316 0.07023456 0.28109446 0.09635606 -0.026182592 0.030890431
0.062134303 0.07563026 -0.10222148 0.22595508 0.08265407 0.1735116 0.14343928 0.14064553
-0.2656171 0.22855276 -0.25731134 -0.22076039 -0.09125486 0.17404842 0.097429454 -0.19298244
0.29583934 0.02141328 -0.15711617 0.02747272 -0.3173804 0.023636494 0.078614846 -0.10733346
0.17859958 0.19850358 0.29284266 -0.100884534 0.19305715 0.08593731 -0.10390226 0.10255862
-0.2081469 0.016945949 0.039137274 0.044435855 0.024593167 -0.0733897 0.016368456 0.27531606
-0.08221285 -0.31058976 0.2520833 0.18425521 -0.2760958 0.15220895 0.28333887 -0.053760607
-0.17371804 0.25729162 0.20608114 0.14096959 -0.2030504 0.071842164 0.026438275 -0.2897129
0.0040151128 0.27998984 -0.088842444 0.14895524 -0.09527764 0.023776537 0.25974962 0.15955174
0.25172028 0.092875555 -0.1309465 0.23783648 -0.24219567 0.28347883 -0.1582962 0.23228216
0.12314631 -0.20375195 -0.06595681 -0.19421144 -0.08438916 -0.084067136 -0.11382724 0.08979893
0.03537508 0.11368206 0.23027147 -0.22691062 0.073491774 -0.11148723 -0.026012423 -0.08120435
-0.24910462 0.08880609 0.11487256 -0.12200112 0.017752877 -0.18943864 -0.18673763 0.14088205
0.1312542 0.09962868 -0.2187792 -0.17659649 0.12861316 0.0711141 0.13169329 -0.17760828
-0.06761343 0.2363155 -0.14809322 -0.12130978 -0.01747138 0.12784882 -0.12164411 -0.31203696
0.26330274 -0.049509875 -0.26665428 0.24746814 -0.23631051 -0.24086237 0.19377494 0.021038087
0.014332746 0.2668643 -0.1309596 -0.22672266 -0.018320601 -0.0046070768 0.16719197 0.2323304
-0.12020661 0.2260726 -0.12039131 -0.08168017 -0.19028634 -0.14898482 0.044852946 0.21622637
-0.26686612 -0.21573204 -0.26950663 0.26481366 0.19190016 0.18415406 -0.16373949 0.21538872
0.0970716 -0.124905445 -0.11094251 -0.1545729 0.0968879 0.17717436 -0.1324166 0.018918915
-0.16175398 0.00322398 0.11637901 -0.23776384 0.2542474 -0.13584916 -0.20334692 -0.13050047
0.2319596 -0.2768241 -0.12139092 -0.2514984 0.28883934 0.21643063 0.07581063 0.01270441
-0.13876072 0.019825144 -0.02244299 -0.053153686 -0.2909322 0.009689098 0.081353515 0.060883705
-0.049409997 0.31341463 -0.111583464 0.24263768 -0.0588385 -0.22464608 -0.16863574 -0.03192254
0.14986706 -0.09829033 0.20957546 0.3243464 0.33800733 -0.2195404 0.122903995 0.24384971
-0.23739351 0.194142 0.23270118 -0.3418897 0.14914532 0.2825596 0.11008989 -0.14209025
-0.021974808 -0.08734094 0.24985637 0.14569552 0.17433417 0.08760595 0.3167404 -0.30452594

bias f4 [32]
00000000: 402d abba 14c7 d0bb c816 82bc f165 3e3a
00000010: 9d7b a93c 33c4 c9bc 47bd 383a 428e 0d3d
00000020: 2bf8 43bd b29e 8b3c 4e5f f43c 9b93 dfbc
00000030: 9ea9 973c f825 b13b 92a7 07bd e420 87bc
00000040: d226 38bd 6a53 33bd 50e3 693c 3a84 e83c
00000050: cc2f 09bd 9642 f6bb 2386 aabc dac9 cfbc
00000060: 4b52 843c e6d4 003c 517e 2f3d 6a0b 6d3c
00000070: 3a8c d03b 5e3c 8a3c 8b6a 283c 281c c33c
-0.001305975 -0.006371388 -0.015880004 0.0007263115 0.020688826 -0.024629688 0.00070472475 0.034559496
-0.047844093 0.017043445 0.029830601 -0.027292063 0.018513497 0.0054061376 -0.033118792 -0.016495176
-0.044958897 -0.04378072 0.014275387 0.028383363 -0.03349285 -0.007515262 -0.020815914 -0.025364805
0.016152522 0.007863259 0.042845074 0.014468053 0.0063643726 0.016874488 0.010279308 0.023817137

in_proj_weight f4 [96, 32]
00000000: 7016 07be 2e23 c23d cc37 7fbd b9f1 2b3e
00000010: a070 aebd 912d eabd 4089 17bb 262d a0bd
00000020: be47 43be f60e 3bbe d839 8cbc 5279 8a3d
00000030: 7195 563e 0048 c8b8 56a3 c13d bf80 473e
00000040: 1c27 6c3d b665 e83d d95b 55be eea2 b4bd
00000050: 72a7 31be e001 58bc 6c50 d5bd ca94 b13d
00000060: 2f12 543e 0870 a13c 1c40 163d dded e5bd
00000070: e4b4 483d 78ff 9cbc 76c5 9fbd 2874 c13c
00000080: 64a6 213d dc9b 733d ba3f eabd ae3e c23d
00000090: 4a9a 06be 5540 c3bd c481 4dbe dcc7 3abe
000000a0: 2d80 c6bd db4e 113e bea8 aa3d 4d92 453e
000000b0: 5017 45bd 9420 163d 049b b5bd b882 36bd
000000c0: 82f1 b53d 6fe9 453e cfcc 3cbe e0cf 84bd
000000d0: 9641 32be 1ebf d53d 6585 443e dc34 64bd
000000e0: 4086 21be d291 833d 5c54 b3bd 12b5 58be
000000f0: 98f5 62bd 4092 34bd e6ee db3d ad21 56be
00000100: 133b 3c3e 9855 03bd 38da d1bc 5200 a73d
00000110: b266 36be 5acd 0ebe 4925 163e 2f07 543e
00000120: 9194 393e cf96 5b3e 77bd 4c3e 85df 36be
00000130: 1723 fcbd aa3a 20be 5ae8 26be 9007 07bd
00000140: ae02 e23d 7433 193d 7871 38be fca5 433d
00000150: b0c3 3ebd 9a57 833d e0f9 15bd f9fa 243e
00000160: aa9d a2bd daad 33be 3b9c 2a3e 8b18 5c3e
00000170: 0d3c d1bd 0427 65bd cec2 97bd 62ca b6bd
00000180: 1aec 3cbe 0ca7 24bd 0547 fabd 2065 68bd
00000190: 126c c93d 0548 4c3e d8e3 02bd 4cba 733d
000001a0: 009b ce3c 48fe 13bd 366c e83d 0ef8 ef3d
000001b0: ec14 b0bd 9341 f9bd c1b8 183e e0e6 3d3c
000001c0: 4edc bb3d 0898 a6bd 2926 253e 1621 55be
000001d0: 8120 3d3e 48c0 37be 7b56 cfbd 85ce 273e
000001e0: d82e c33c b0ac 30bc db6f 113e 49f0 043e
000001f0: 74e5 66bd ecd2 5bbd 14a7 06bd d086 23be
00000200: 68d5 983c 68b3 2ebe 7fa9 013e 98fb c2bc
00000210: aadd 55be 0080 f936 3c22 643d 1d2a 5d3e
00000220: d0fd 1e3c 6379 f0bd b72c 2c3e b06e 4dbc
00000230: 4aa5 37be 6cb8 713d 1a06 bf3d 76f9 41be
00000240: 4fae 45be cb72 0abe 5002 09be 5577 3d3e
00000250: d9bd 083e c822 83bc c234 b33d 20c1 e93c
00000260: 5179 443e 586d 83bd 6036 08be 0408 35bd
00000270: abfa 27be e228 1dbe f4f9 2a3d de19 0abe
00000280: 8a41 c43d 843b 30bd ecd9 fdbd c425 fbbd
00000290: 4004 6ebd 1e64 983d b479 d7bd 507e 88bd
000002a0: cfe5 1dbe 2ae8 fa3d 3aa9 b23d 7a1e 943d
000002b0: 96be fc3d a2b5 0dbe 0797 1a3e 3e42 4fbe
000002c0: e01a 963b c188 2a3e 9f46 453e 2ab8 873d
000002d0: 5534 e2bd d02b 20be 680f 1cbe 4cdd 0bbe
000002e0: 2d1d 113e 5ed3 1dbe 0a38 3bbe ed14 3d3e
000002f0: 54b0 a6bd 5ae8 c73d e3b4 44be 7934 0c3e
00000300: 56dd a5bd 4649 b83d cf28 4bbe 10ee 73bc
00000310: 2555 f9bd 0e08 b63d 6081 53be c760 003e
00000320: aeb2 0dbe 5cc5 03be 9ad4 3cbe f50d 2bbe
00000330: 1652 e53d 60fd ffbc 675e 4ebe 1176 dabd
00000340: 10ce 94bc a57a 3dbe c034 bebc 70db 96bc
00000350: 1484 a5bd f0d5 7f3c 16c9 c3bd 66c4 0bbe
00000360: 0ca6 adbd 6065 893b 8cae e7bd 1b58 febd
00000370: d4da 06bd 5018 f93c 1f28 323e 587c 66bd
00000380: 87b5 2b3e dcc7 7b3d 46e3 f3bd 8c9a 663d
00000390: 629e 2fbe e06e 4bbc 5ad3 2cbe 28a8 5cbd
000003a0: 2189 53be 50e7 7cbc 25a3 003e 049b 36be
000003b0: 715a 3f3e 6f5e e3bd 8b02 343e 0c5f 2cbe
000003c0: 2462 25be 6ecc aa3d 4ce5 1b3d a24d f53d
000003d0: b9de 1e3e d82e 053d 8562 5c3e 5afb 92bd
000003e0: 035d 4e3e e882 c93c 6aa3 f63d e94d ebbd
000003f0: afdc 293e 0bd3 323e 87a2 013e 5c9b f4bd
-0.13192153 0.09479366 -0.06230907 0.16791429 -0.08517575 -0.11434472 -0.002312258 -0.078211114
-0.19070336 -0.18267426 -0.017117426 0.06761421 0.20955445 -9.550154e-05 0.09454982 0.19482706
0.057654485 0.11347525 -0.20835818 -0.08820139 -0.17349032 -0.013184041 -0.1041573 0.086709574
0.20710061 0.019706741 0.036682233 -0.112270094 0.049000636 -0.019164786 -0.078013346 0.023614958
0.039465323 0.05947481 -0.11437936 0.094846115 -0.13144794 -0.09533755 -0.20069033 -0.18240303
-0.09692416 0.14190237 0.08332966 0.1929409 -0.048117936 0.036652163 -0.088674575 -0.044558257
0.088839546 0.19327329 -0.18437503 -0.064849615 -0.17407832 0.10436843 0.19191511 -0.055714473
-0.15773869 0.064242974 -0.08756325 -0.21162823 -0.055409998 -0.044084787 0.10738926 -0.20911284
0.1838191 -0.03206405 -0.02561675 0.08154358 -0.17812613 -0.13945523 0.1466266 0.20705865
0.1812308 0.21444248 0.1999415 -0.17858703 -0.1231138 -0.15647379 -0.16299573 -0.032966197
0.11035667 0.037402585 -0.18012035 0.047765717 -0.04657334 0.06413193 -0.036615252 0.16111363
-0.07940228 -0.17546788 0.1666116 0.21493737 -0.10216532 -0.05594541 -0.07410203 -0.0892532
-0.1844944 -0.04019837 -0.12220577 -0.056737065 0.09835066 0.19949348 -0.03195557 0.05950384
0.025220394 -0.036131173 0.113487646 0.117172346 -0.085977405 -0.121707104 0.14914228 0.011590689
0.09172879 -0.081344664 0.16127838 -0.20813403 0.1846943 -0.17944443 -0.10123917 0.16387375
0.023826048 -0.010783359 0.14202826 0.12982287 -0.056371167 -0.053667948 -0.032874182 -0.15969396
0.018656448 -0.17060626 0.12662314 -0.02380161 -0.2088534 7.4356794e-06 0.05569671 0.21598096
0.009704068 -0.11741903 0.16813932 -0.012538597 -0.17934147 0.05901377 0.09327336 -0.18942818
-0.19304775 -0.13520353 -0.13379788 0.18502553 0.13353671 -0.016007796 0.08750297 0.028534472
0.19186904 -0.0641734 -0.13301992 -0.044197097 -0.16404216 -0.15347627 0.04174228 -0.1348643
0.09582813 -0.04302551 -0.12395081 -0.122630626 -0.058109522 0.07440971 -0.1052126 -0.06664717
-0.15419696 0.12251313 0.08723684 0.072323754 0.12341039 -0.13838819 0.15096675 -0.20240113
0.0045808405 0.1665373 0.19265221 0.066269234 -0.11045138 -0.15641713 -0.15240252 -0.13658637
0.14171286 -0.15412661 -0.18283096 0.18465014 -0.08139101 0.097611144 -0.19209628 0.13691892
-0.08098857 0.08998351 -0.19839786 -0.0148883015 -0.12174443 0.08888255 -0.20654821 0.12536918
-0.13837692 -0.12868255 -0.18440476 -0.16704543 0.11197297 -0.031248748 -0.20153199 -0.10667051
-0.018164665 -0.18503816 -0.023218513 -0.018415183 -0.080818325 0.0156149715 -0.095598385 -0.13649139
-0.084789366 0.004192993 -0.11312589 -0.124191485 -0.032923535 0.0304071 0.17398117 -0.056270927
0.16768466 0.061469898 -0.11908583 0.05629973 -0.17150262 -0.012416571 -0.16877499 -0.053871304
-0.2065778 -0.015436009 0.12562235 -0.17832571 0.18686844 -0.11101996 0.17579095 -0.16833133
-0.16150719 0.08339773 0.03806047 0.11977698 0.1551465 0.032515377 0.21521957 -0.07176848
0.20152669 0.024598554 0.120428875 -0.114894696 0.1658809 0.17463319 0.12659656 -0.11943695

in_proj_bias f4 [96]
00000000: 0000 0000 0000 0000 0000 0000 0000 0000
00000010: 0000 0000 0000 0000 0000 0000 0000 0000
00000020: 0000 0000 0000 0000 0000 0000 0000 0000
00000030: 0000 0000 0000 0000 0000 0000 0000 0000
00000040: 0000 0000 0000 0000 0000 0000 0000 0000
00000050: 0000 0000 0000 0000 0000 0000 0000 0000
00000060: 0000 0000 0000 0000 0000 0000 0000 0000
00000070: 0000 0000 0000 0000 0000 0000 0000 0000
00000080: 0000 0000 0000 0000 0000 0000 0000 0000
00000090: 0000 0000 0000 0000 0000 0000 0000 0000
000000a0: 0000 0000 0000 0000 0000 0000 0000 0000
000000b0: 0000 0000 0000 0000 0000 0000 0000 0000
000000c0: 0000 0000 0000 0000 0000 0000 0000 0000
000000d0: 0000 0000 0000 0000 0000 0000 0000 0000
000000e0: 0000 0000 0000 0000 0000 0000 0000 0000
000000f0: 0000 0000 0000 0000 0000 0000 0000 0000
00000100: 0000 0000 0000 0000 0000 0000 0000 0000
00000110: 0000 0000 0000 0000 0000 0000 0000 0000
00000120: 0000 0000 0000 0000 0000 0000 0000 0000
00000130: 0000 0000 0000 0000 0000 0000 0000 0000
00000140: 0000 0000 0000 0000 0000 0000 0000 0000
00000150: 0000 0000 0000 0000 0000 0000 0000 0000
00000160: 0000 0000 0000 0000 0000 0000 0000 0000
00000170: 0000 0000 0000 0000 0000 0000 0000 0000
0.0 0.0 0.0 0.0 0.0 0.0 0.0 0.0
0.0 0.0 0.0 0.0 0.0 0.0 0.0 0.0
0.0 0.0 0.0 0.0 0.0 0.0 0.0 0.0
0.0 0.0 0.0 0.0 0.0 0.0 0.0 0.0
0.0 0.0 0.0 0.0 0.0 0.0 0.0 0.0
0.0 0.0 0.0 0.0 0.0 0.0 0.0 0.0
0.0 0.0 0.0 0.0 0.0 0.0 0.0 0.0
0.0 0.0 0.0 0.0 0.0 0.0 0.0 0.0
0.0 0.0 0.0 0.0 0.0 0.0 0.0 0.0
0.0 0.0 0.0 0.0 0.0 0.0 0.0 0.0
0.0 0.0 0.0 0.0 0.0 0.0 0.0 0.0
0.0 0.0 0.0 0.0 0.0 0.0 0.0 0.0

weight f4 [32, 32]
00000000: d823 01be 00e2 2ebb 5b46 10be ae40 233e
00000010: 0f73 9bbe b8b6 5f3d 5d3c 0dbe 30ba d83c
00000020: 5c0b 61be 8071 09bb f366 06be 347c 9d3d
00000030: 809c 413d 4de2 8c3e b49a 4dbe 28c6 50bd
00000040: 1fde 77be e2c5 d4bd 787f 313e e905 24be
00000050: f4f2 c43d 0603 12be 4a44 723e 8502 01be
00000060: 14d7 17be d055 80be f0e7 a93d f812 61be
00000070: 8060 33bb e03f 6ebd b6fc 1a3e 326b 293e
00000080: c0c6 683c 9301 843e a8b7 443e 7acd 653e
00000090: 2e01 88bd f09d 383d be9c 0b3e 6748 90be
000000a0: 30e8 3f3d 2564 8a3e 2c89 453e a294 7d3e
000000b0: 4a83 e8bd b90c 38be 8052 653d a010 4f3c
000000c0: 5244 6e3e 2e85 7f3e 18b4 4d3d 9cda d33d
000000d0: f6ca 343e c66c d7bd 6820 cc3d 8c82 263e
000000e0: 2ed4 7b3e ae08 7abe bee9 3bbe 0459 d23d
000000f0: 32a8 513e 69e4 20be e295 49be 76e3 4d3e
00000100: ca13 6e3e db71 993e 4871 fe3d bedd 5a3e
00000110: 88d3 653d 84bd 90be 75a2 93be 420d 1a3e
00000120: 1ef4 c9bd 3473 9c3d 70da 51bd 1a3c 063e
00000130: ebf3 96be de40 473e b404 9b3d 5a00 763e
00000140: 1e49 5a3e cc6f b1bd b6f7 3bbe 92f7 5f3e
00000150: 4f72 89be 6eb5 ffbd 1beb 61be 4304 31be
00000160: 6041 3f3e 2089 91be c992 8ebe a004 d73c
00000170: 98be a03d fdc6 9a3e fc85 aa3d d061 5b3d
00000180: 0b5e 09be ad88 31be a8e3 f13d 12b0 473e
00000190: a067 1dbd beea 4ebe 9e73 463e 6433 af3d
000001a0: ee8f 5fbe 1000 e2bc cbd8 1abe 8094 48bd
000001b0: 14d5 3f3e 6aeb 3d3e 3020 f53c 5441 9fbd
000001c0: 4ce6 2c3e 66db 693e c456 a43d 0da1 07be
000001d0: 1a37 4fbe 1d11 9b3e 4021 d73d 78a8 83be
000001e0: 8212 313e 998e 18be 7080 923d a8bd da3d
000001f0: 98f3 2e3e 02e1 5dbe 118c 36be c0d4 9a3d
00000200: 26f1 273e 304a 063e 10b9 e63d 350a 0ebe
00000210: 8ae2 623e da2b 81be c69c d2bd 049e 1f3e
00000220: 2861 46be 7dc7 27be 04d6 a53d a0e9 513c
00000230: c9f7 7ebe 9b4a 963e e658 f1bd c082 77bd
00000240: 98ed 333e 7c26 353e 1473 d03d c080 26bc
00000250: 3219 403e 0e65 1e3e 6200 85be 740d a7bd
00000260: 80f7 52be e9e3 813e 4589 95be 6052 253e
00000270: 690b 8a3e 38da 853d c222 f3bd 702b 53be
00000280: 636b 81be 1f28 30be 7622 1b3e 5b32 963e
00000290: 6fa2 81be de48 8cbd 8f9f 903e d808 d33d
000002a0: 60fe 743d d042 963c c442 78bd 5cad cd3d
000002b0: ae36 2a3e 4cd3 d63d 98d3 dbbd 001d 5f3c
000002c0: d0df 813d 94c9 c7bd 5777 1dbe 2c63 d2bd
000002d0: 07d0 913e a8c8 8a3d ca53 483e 3058 193e
000002e0: 5a99 7c3e 54fa ff3d cf93 933e 8f4a 8abe
000002f0: c457 2f3e 43b9 8abe 5403 8c3d 5410 8ebe
00000300: 80fc 9d3b e42f c03d 9039 e13c 4ffc 973e
00000310: a7ad 92be 5869 273e d37d 8c3e c099 853c
00000320: 3bbd 0cbe e7a1 823e c60e f4bd 2845 eebd
00000330: e946 72be a13e 883e 1a55 573e acb1 1d3e
00000340: 38fb dcbd 00bb 393d ca50 30be bbc5 47be
00000350: fdcf 13be e13c 90be b453 dbbd 6e11 08be
00000360: 8c1c 903d 60ab 5d3d 6dc2 833e 838c 993e
00000370: 96d1 64be 323f 8abe 208b 99bc ca91 98be
00000380: 42f6 793e 30b3 46bd 307a e6bc 805b 393b
00000390: 24ad 9abe f0ba 763d 2c06 bf3d f220 acbd
000003a0: df75 91be 8313 95be 1028 b13d 7c59 c4bd
000003b0: 3035 353e 60a4 97bc 003e 4f3c 50ae 61bd
000003c0: ce4c 46be 24c4 843d 0082 ea3c 1b5e 92be
000003d0: d00e 98bd 8259 a2bd f8e7 4bbe 3f7d 8b3e
000003e0: 3c59 57be 2361 8b3e 9cc3 1b3e c01d a03c
000003f0: dccf 0a3e 7006 76be c0f0 2abc 89f8 8abe
-0.1261133 -0.0026685 -0.14089338 0.15942642 -0.3036122 0.054617614 -0.13792558 0.026455969
-0.2197699 -0.0020972192 -0.1312521 0.076897055 0.04726839 0.27516404 -0.20078546 -0.050970227
-0.24205826 -0.10389306 0.17333782 -0.1601788 0.09616652 -0.14258966 0.23658863 -0.12598617
-0.1482814 -0.2506547 0.08296192 -0.21979892 -0.002737075 -0.058166385 0.15135464 0.16544798
0.014207542 0.2578245 0.19210684 0.22441664 -0.0664085 0.045072496 0.13634011 -0.2818024
0.04685229 0.2702953 0.19290608 0.2476373 -0.113531664 -0.17973603 0.05598688 0.012638241
0.2326825 0.24953148 0.05022058 0.10344431 0.17655548 -0.10518794 0.099671185 0.16260737
0.24592659 -0.24417374 -0.18350884 0.10270885 0.20474318 -0.15712132 -0.19686082 0.201063
0.23249736 0.29969677 0.124239504 0.2137365 0.056109935 -0.2826959 -0.28834882 0.1504412
-0.09861015 0.07639161 -0.05123371 0.13108864 -0.2948297 0.19458339 0.075692564 0.24023572
0.21316954 -0.08663902 -0.18356213 0.21871784 -0.26845023 -0.12485777 -0.22062342 -0.17286782
0.18677282 -0.2842493 -0.27846363 0.026247323 0.07848853 0.3022994 0.08326337 0.05356008
-0.13414781 -0.17337294 0.11811 0.19500759 -0.038428903 -0.20206735 0.19380042 0.08554724
-0.21832249 -0.02758792 -0.15121762 -0.048969746 0.18733627 0.18546835 0.029922575 -0.07776132
0.16884726 0.228376 0.08024362 -0.1324503 -0.20235863 0.30286494 0.10504389 -0.2571447
0.17292216 -0.14898147 0.07153404 0.10680705 0.17085111 -0.21667865 -0.17826869 0.0756011
0.16400585 0.13114238 0.112657666 -0.13871081 0.2215673 -0.2522877 -0.102838084 0.15587622
-0.19373 -0.16384692 0.08097461 0.012812048 -0.2489921 0.29353794 -0.11784534 -0.060427427
0.17571104 0.17690462 0.101781994 -0.010162532 0.18759611 0.15468237 -0.25976855 -0.08156863
-0.20602226 0.25369194 -0.2920629 0.16144705 0.2696183 0.065357625 -0.11871864 -0.20622039
-0.25277242 -0.17202805 0.15149865 0.29335293 -0.2531924 -0.06849836 0.28246734 0.10304421
0.059812903 0.018342406 -0.060610548 0.10042831 0.16622421 0.104895204 -0.10733718 0.013617754
0.06341517 -0.09755245 -0.15377556 -0.10272822 0.28479025 0.067765534 0.19563213 0.14975047
0.24667874 0.12498918 0.28823707 -0.2701001 0.17123324 -0.27094468 0.06836572 -0.27746832
0.00482136 0.093841344 0.027493268 0.29684684 -0.2864811 0.16348779 0.27439746 0.016308665
-0.1374406 0.25514147 -0.1191688 -0.11634284 -0.23659863 0.26610282 0.21028557 0.15399808
-0.10790104 0.045344353 -0.17218319 -0.19509022 -0.1443481 -0.28171447 -0.107093245 -0.13287899
0.07036695 0.054118514 0.25734273 0.29990014 -0.22345576 -0.2700134 -0.018743098 -0.29798728
0.24410346 -0.04851073 -0.028134435 0.0028283298 -0.3021022 0.06023687 0.09327349 -0.08404721
-0.2841024 -0.2911645 0.086502194 -0.0958738 0.1769607 -0.018510997 0.012649059 -0.055097878
-0.19365236 0.06482723 0.028626442 -0.28587422 -0.074247 -0.079272285 -0.19912708 0.27243993
-0.21030134 0.27222547 0.15211338 0.019545436 0.13555855 -0.24025893 -0.010433376 -0.27142742

bias f4 [32]
00000000: 0000 0000 0000 0000 0000 0000 0000 0000
00000010: 0000 0000 0000 0000 0000 0000 0000 0000
00000020: 0000 0000 0000 0000 0000 0000 0000 0000
00000030: 0000 0000 0000 0000 0000 0000 0000 0000
00000040: 0000 0000 0000 0000 0000 0000 0000 0000
00000050: 0000 0000 0000 0000 0000 0000 0000 0000
00000060: 0000 0000 0000 0000 0000 0000 0000 0000
00000070: 0000 0000 0000 0000 0000 0000 0000 0000
0.0 0.0 0.0 0.0 0.0 0.0 0.0 0.0
0.0 0.0 0.0 0.0 0.0 0.0 0.0 0.0
0.0 0.0 0.0 0.0 0.0 0.0 0.0 0.0
0.0 0.0 0.0 0.0 0.0 0.0 0.0 0.0

in_proj_weight f4 [96, 32]
00000000: 3211 dd3d 1d12 073e 3cbb 2ebe 2993 43be
00000010: 04a7 afbd fc4e 0abd 8cbb 27be 7d0a 4d3e
00000020: 90f7 65bd 92b8 923d cb6b 4abe 7ea3 ce3d
00000030: 81fc cdbd 807a 54bb 49b4 3f3e 809a ec3a
00000040: 6e11 14be 38d5 85bc e88b eabc a6b4 f43d
00000050: b4dc 303d 6fd6 39be 8aeb aa3d 2666 bfbd
00000060: ab03 143e 00f1 b5bb 24a9 323d 9743 193e
00000070: 115b 2e3e 57c7 23be 1028 79bc 91a4 243e
00000080: 5b31 edbd 3e1d cabd 7e06 833d 0ef0 e93d
00000090: 38af a23c 2234 a5bd a89e a33c 27c8 31be
000000a0: 6ce0 1e3d 841c 373d d33b 303e 9d0b f4bd
000000b0: 3e48 bf3d 80ab 6f3c 68c1 63bd c466 1f3d
000000c0: dc40 50be a73f 013e 61d4 1ebe 7e6b fa3d
000000d0: 969a 0cbe 1837 e9bc 339e 1f3e cbc2 293e
000000e0: a4a0 a5bd a65c 9e3d 323f 863d 187c 4cbd
000000f0: 389f 13be fe8e d93d 0d26 e4bd 1981 213e
00000100: 5021 51be 2c25 07bd c59b 0d3e ab21 4ebe
00000110: a39a 4bbe 347e 2fbe 5d90 073e 747e a9bd
00000120: 8042 79bb bd09 d9bd e407 59be f0d6 10be
00000130: 12d7 a23d c001 f6bb 024a f9bd f0d7 9b3c
00000140: c12d 213e d08d bbbd 086d 3bbd 9b34 0cbe
00000150: 197f 45be 5609 cc3d 1c37 80bd c087 14be
00000160: 8a4b fc3d 8fe8 0e3e 1cbd c6bd 171f e3bd
00000170: 9a6b d93d 6e45 fbbd 5287 b53d e818 b6bc
00000180: 0da3 48be 92eb f23d 3e68 85bd b0fd 683c
00000190: 3821 d5bc 9130 21be 3c6f 60bd e276 ec3d
000001a0: 99e3 223e 3c45 1fbe bdbf 0c3e 9b33 323e
000001b0: a628 19be 2827 55be dcb7 06be 3955 45be
000001c0: e71f 373e a8ee e6bd f867 2cbe 811e 293e
000001d0: 93c9 3e3e 6046 a2bd e90c 293e 3441 563d
000001e0: c49c 79bd 04fb bebd 926b ee3d a0bd 82bd
000001f0: 0af9 b23d c5bc 40be d110 173e c2e9 e33d
00000200: 1037 433c 7ee4 90bd 8120 4c3e 6876 ddbd
00000210: fd89 0f3e 3412 2fbe 88f1 55be 286c d6bc
00000220: d0a4 b23c 0478 143d b8c8 51be b8e9 d8bc
00000230: 5247 fabd 8aab 983d b064 05bc 165c 59be
00000240: 796a edbd 3c3f 163d fc6a 163d 6e6e 0fbe
00000250: d099 a33c 0def 223e 4e1e 26be acbe 163d
00000260: 2cf9 2b3d 9f39 58be ca3b ec3d 6596 313e
00000270: 2f17 563e a445 26bd 00ff e2bb 7888 28bd
00000280: d1b2 473e 90e6 0a3c 84ba 303d 8970 3ebe
00000290: 4478 343d 2256 e13d ed62 463e 3d30 4cbe
000002a0: 644f 0c3d 4051 77bc 7cd2 56bd b61f 88bd
000002b0: 48a3 cfbc d0bf 00bd 343c bdbd 9824 28be
000002c0: 8125 5b3e 163b b73d 65d6 083e 68ab 84bd
000002d0: 1ce3 783d 8355 3abe f63c b43d 803d e8bc
000002e0: f03f 823c 0446 44be 9e05 8abd ead9 9e3d
000002f0: f889 37be 7114 563e 00af adbb 408d 5a3b
00000300: e82e 18bd ba1b b8bd 7e72 d23d f632 883d
00000310: 5bec 4f3e 4451 7ebd 7238 d3bd f723 073e
00000320: 7ec6 0fbe 5905 ecbd 1b50 153e a32a 5cbe
00000330: 14b7 b2bd 46e5 33be 0899 f4bc 75b3 febd
00000340: 66ff ca3d a70e 553e 2389 553e 8a46 fc3d
00000350: ac8d 273d b754 d6bd fe09 b2bd 6856 7fbd
00000360: 3be0 033e 9330 0e3e 4059 62bb 8977 0a3e
00000370: 5dab 16be 91d6 043e 8ccf 4d3d 8fb2 14be
00000380: c095 64bc 8947 093e c249 ae3d 003b ea3c
00000390: 8a97 803d d77e 033e 9066 8abc f41c 21bd
000003a0: df22 5d3e 6c7f 0b3d 26d7 36be c0f2 f4bb
000003b0: ec27 2ebe 28bc 9a3c 501d 2bbc eea9 a8bd
000003c0: 5629 ce3d b62e da3d aac6 d13d 5ca8 00be
000003d0: 00d3 ef3a e85a 833c b0c2 9b3c 0a20 803d
000003e0: 9cba 04bd 62ce 1abe c08a 19bb cbb7 023e
000003f0: a1f4 1e3e 6049 56be ea16 dd3d 3842 2ebe
0.10794295 0.13190503 -0.17063612 -0.19099106 -0.085767776 -0.03376673 -0.16380137 0.20023532
-0.056144297 0.0716411 -0.19767682 0.100897774 -0.10057927 -0.0032421649 0.18721117 0.0018051416
-0.14459774 -0.016337022 -0.028631166 0.119485185 0.04317923 -0.18148206 0.08345707 -0.09345655
0.14454524 -0.005552411 0.043618336 0.1496719 0.17026927 -0.15994011 -0.015207306 0.16078402
-0.115816794 -0.09868859 0.06397723 0.1142274 0.019858941 -0.08066584 0.019973114 -0.17361508
0.038788244 0.04470493 0.17210321 -0.119162776 0.09339951 0.014628291 -0.05560437 0.038916364
-0.20337242 0.12621938 -0.15510704 0.12227534 -0.13730845 -0.028468654 0.15587692 0.16578214
-0.080872804 0.07732515 0.06555022 -0.049923033 -0.14416206 0.10622977 -0.1114007 0.15771903
-0.20422864 -0.032994434 0.13828953 -0.20130031 -0.19883208 -0.17137986 0.13238664 -0.08276072
-0.0038034022 -0.105975606 -0.21194416 -0.14144492 0.07951178 -0.007507533 -0.12172319 0.019023865
0.1574011 -0.09157908 -0.045758277 -0.13691942 -0.19286765 0.09962718 -0.06260511 -0.1450491
0.123190954 0.13955902 -0.097040385 -0.11089914 0.106162265 -0.12269102 0.08863701 -0.022228673
-0.19593449 0.11861338 -0.06514023 0.01422064 -0.026016816 -0.15741183 -0.05479358 0.115461126
0.15907134 -0.15553755 0.13745017 0.17402498 -0.14956912 -0.20815718 -0.13156074 -0.19270791
0.17883264 -0.11275989 -0.16836536 0.16515543 0.18631582 -0.07923579 0.16508831 0.052308276
-0.06094052 -0.09325221 0.11641611 -0.06383824 0.08738907 -0.1882201 0.14752509 0.1112857
0.011914983 -0.070748314 0.19934274 -0.108136 0.14017482 -0.17096788 -0.20892918 -0.02617462
0.021807104 0.03624727 -0.20486724 -0.026478633 -0.122206345 0.074545935 -0.008141682 -0.21226534
-0.11592574 0.0366814 0.036723122 -0.1400697 0.019970804 0.15911503 -0.16222498 0.036802933
0.041985676 -0.2111573 0.11534841 0.17342527 0.20907281 -0.04059376 -0.006927371 -0.04114577
0.19501807 0.008477822 0.043146625 -0.18597616 0.044060007 0.11002757 0.19373675 -0.19940276
0.0342554 -0.015095055 -0.052446827 -0.066466734 -0.025346413 -0.031432927 -0.092399985 -0.1642021
0.21401025 0.089468166 0.13363035 -0.06478006 0.060763463 -0.18196683 0.0880069 -0.028349638
0.015899628 -0.19167334 -0.06739353 0.077564076 -0.17923725 0.20906235 -0.0053004026 0.0033348352
-0.03715411 -0.089896634 0.10275744 0.06650345 0.20305006 -0.06208922 -0.103135005 0.13197313
-0.14040563 -0.115244575 0.14581339 -0.2150064 -0.08726326 -0.1756793 -0.029858127 -0.124365725
0.09911995 0.2080637 0.20853095 0.12318142 0.040906593 -0.10465377 -0.08693312 -0.062338263
0.12878506 0.13885717 -0.003453806 0.13522162 -0.14713807 0.12972476 0.05024676 -0.1452124
-0.013951719 0.13406195 0.08510162 0.028592587 0.06278904 0.12841354 -0.016894609 -0.039334252
0.21595334 0.034057066 -0.1785551 -0.007475227 -0.17007416 0.018888548 -0.010444 -0.082355365
0.10066478 0.10653441 0.1024297 -0.12564224 0.0018297136 0.016034558 0.019013733 0.06256111
-0.032404527 -0.15117791 -0.0023428649 0.12765424 0.15523006 -0.20926428 0.10795386 -0.17017448

in_proj_bias f4 [96]
00000000: 0000 0000 0000 0000 0000 0000 0000 0000
00000010: 0000 0000 0000 0000 0000 0000 0000 0000
00000020: 0000 0000 0000 0000 0000 0000 0000 0000
00000030: 0000 0000 0000 0000 0000 0000 0000 0000
00000040: 0000 0000 0000 0000 0000 0000 0000 0000
00000050: 0000 0000 0000 0000 0000 0000 0000 0000
00000060: 0000 0000 0000 0000 0000 0000 0000 0000
00000070: 0000 0000 0000 0000 0000 0000 0000 0000
00000080: 0000 0000 0000 0000 0000 0000 0000 0000
00000090: 0000 0000 0000 0000 0000 0000 0000 0000
000000a0: 0000 0000 0000 0000 0000 0000 0000 0000
000000b0: 0000 0000 0000 0000 0000 0000 0000 0000
000000c0: 0000 0000 0000 0000 0000 0000 0000 0000
000000d0: 0000 0000 0000 0000 0000 0000 0000 0000
000000e0: 0000 0000 0000 0000 0000 0000 0000 0000
000000f0: 0000 0000 0000 0000 0000 0000 0000 0000
00000100: 0000 0000 0000 0000 0000 0000 0000 0000
00000110: 0000 0000 0000 0000 0000 0000 0000 0000
00000120: 0000 0000 0000 0000 0000 0000 0000 0000
00000130: 0000 0000 0000 0000 0000 0000 0000 0000
00000140: 0000 0000 0000 0000 0000 0000 0000 0000
00000150: 0000 0000 0000 0000 0000 0000 0000 0000
00000160: 0000 0000 0000 0000 0000 0000 0000 0000
00000170: 0000 0000 0000 0000 0000 0000 0000 0000
0.0 0.0 0.0 0.0 0.0 0.0 0.0 0.0
0.0 0.0 0.0 0.0 0.0 0.0 0.0 0.0
0.0 0.0 0.0 0.0 0.0 0.0 0.0 0.0
0.0 0.0 0.0 0.0 0.0 0.0 0.0 0.0
0.0 0.0 0.0 0.0 0.0 0.0 0.0 0.0
0.0 0.0 0.0 0.0 0.0 0.0 0.0 0.0
0.0 0.0 0.0 0.0 0.0 0.0 0.0 0.0
0.0 0.0 0.0 0.0 0.0 0.0 0.0 0.0
0.0 0.0 0.0 0.0 0.0 0.0 0.0 0.0
0.0 0.0 0.0 0.0 0.0 0.0 0.0 0.0
0.0 0.0 0.0 0.0 0.0 0.0 0.0 0.0
0.0 0.0 0.0 0.0 0.0 0.0 0.0 0.0
