pre_trained_models/mosi_aligned_L_GENERATOR_V.pt (torch, 169017 bytes, 35 tensors)

multi f4 [1, 32]
000000 35 2f be bd b1 ac 52 3e 6e ec 9a 3e eb 4b ec 3d
       -0.09286348 0.20573689 0.30258507 0.11537918
000010 1e a4 9d bc d0 e3 03 3e 22 43 c8 bd 64 f6 8d 3e
       -0.019243296 0.12879872 -0.097784296 0.27727044
000020 79 a7 ca 3e b2 cb c8 be d8 8a 37 be 17 f2 d6 3d
       0.39580896 -0.39217907 -0.17924058 0.10495394
000030 ce d2 80 3b 4c b9 77 3e 4d c3 02 bd 97 81 78 3e
       0.00393138 0.24191779 -0.031924535 0.24268185
000040 92 98 95 be 27 5f 10 3d a6 ee 32 be b9 89 83 3d
       -0.29217964 0.035246994 -0.1747385 0.06422753
000050 47 e0 ea bd 28 cd ad bb af 53 3e be e3 d4 a3 3e
       -0.11468559 -0.0053039975 -0.1858661 0.31998357
000060 87 72 e6 bd 6d 36 70 be 30 85 8d be d1 3b 2a be
       -0.11252313 -0.23458262 -0.27640676 -0.1662438
000070 72 a6 10 be b0 94 84 be 44 cc ad be 58 f6 8e be
       -0.14125994 -0.2589469 -0.33944905 -0.2792232

weight f4 [50, 32]
000000 a2 8f fb 3f e3 1a 14 3e b5 e6 b9 bf fc 9b 9c bd
       1.9653208 0.14463381 -1.4523531 -0.07646939
000010 a1 e5 3c 3e 62 67 90 3f f5 af 79 bf a6 79 81 3f
       0.18446971 1.128155 -0.97534114 1.0115249
000020 3c 26 f6 bf f1 f3 84 3e 58 65 7b bf 72 62 99 be
       -1.9230418 0.25967363 -0.98201513 -0.2995792
000030 ec cf 0b bf b4 be 58 3e 25 78 ff bf 1f 10 83 3f
       -0.5461414 0.21166497 -1.995854 1.0239295
000040 c4 5b 3d bf e2 51 61 3f a1 5c 8c 3e cf c4 66 3f
       -0.7396815 0.8801557 0.2741442 0.90144056
000050 e6 7f 81 3e 0d a9 31 40 a9 75 3d 40 d0 f8 8e bf
       0.2529289 2.775943 2.9603064 -1.1169682
000060 7d af 2a bf 4e a2 9a bf 2f 3e f4 3e 1f 1a 4c 3f
       -0.66674024 -1.2080781 0.47703692 0.7972736
000070 0f 09 41 3f 8a 4a 76 bb 75 cd 5a 3f ce e4 98 3e
       0.7540445 -0.003758105 0.8546975 0.29862064
000080 8d 99 b9 3e 43 43 51 3f a6 9d 84 bf f8 df b6 3f
       0.36249962 0.8174326 -1.036061 1.42871
000090 44 a7 c7 3f 73 cd 51 3f 43 5b 20 40 1e e7 d6 3f
       1.559792 0.81954116 2.5055702 1.6789281
0000a0 44 61 20 bf a7 c2 a2 bf 5d 0c 4d 3e fb 8b 13 bf
       -0.62648416 -1.2715653 0.20024247 -0.5763547
0000b0 b4 8a af 3f 4b f2 cb 3f 28 46 e8 be b3 e7 45 3f
       1.3714204 1.5933317 -0.45366025 0.7730667
0000c0 6c 7e d1 3f 6b db 0c bf bc 82 b8 3f 08 d6 bb be
       1.6366706 -0.55022305 1.4414897 -0.3668673
0000d0 d7 66 f5 3d af aa 70 bf 79 24 77 3e 23 99 4a 3f
       0.11982506 -0.9401044 0.24135007 0.7913992
0000e0 3c 38 94 bf 0b 3b fb bd 23 77 90 bf 44 a9 f6 bf
       -1.1579661 -0.12267121 -1.1286358 -1.9270406
0000f0 bb fb 43 bf 04 49 da be 96 5e 5d bf 37 b2 84 3e
       -0.76555985 -0.42633832 -0.8647245 0.25917217
000100 17 7e 13 bf c9 9b 30 bf 9c 92 2b 3f b7 21 57 bd
       -0.5761427 -0.6898771 0.67020583 -0.052522387
000110 e8 5c 27 c0 02 a4 04 bf e7 06 fe bf 94 e2 8a 3e
       -2.6150455 -0.51812756 -1.9845856 0.2712599
000120 05 39 34 3f 17 56 24 bf 63 e7 c1 bf 51 0d c2 3f
       0.70399505 -0.6419386 -1.5148739 1.5160314
000130 7e 95 3e 3f b0 54 80 be 09 77 a7 bf 98 7f e6 3d
       0.74446857 -0.2506461 -1.3083202 0.11254805
000140 0a 04 cf bf e3 08 f7 bd b3 39 e1 bf b0 15 78 bf
       -1.6173108 -0.12062242 -1.7595733 -0.9690809
000150 13 e8 76 3f 45 4d 9b bf 7a a5 12 3f 33 d1 66 bd
       0.9644787 -1.2132956 0.5728375 -0.05635185
000160 3a 37 c0 bc fe 8f ad bf 80 ee 83 3d 63 c3 3b bf
       -0.023463834 -1.3559568 0.06441975 -0.7334501
000170 0b 5d 56 3e e3 b1 aa 3f a2 2e 42 3e 50 ec 55 bf
       0.2093393 1.3335537 0.18963102 -0.8356371
000180 bc 63 a6 3e af f4 d5 be cd b3 ec 3d 6b 3b c8 3d
       0.32497966 -0.4178824 0.11557732 0.09776958
000190 93 44 d4 3d 02 b5 71 3e 9d eb 65 bf 8e 4f 80 3f
       0.10364642 0.23604205 -0.8981264 1.0024278
0001a0 78 4c 3a 3f ac 57 b6 bd 97 ed 9b be f6 2f 3f bf
       0.7277293 -0.08903441 -0.30454704 -0.7468256
0001b0 dd 54 5e 3f 92 54 a0 be 20 69 d5 3e 6d 05 ff bd
       0.8684824 -0.31314522 0.41681767 -0.12452207
0001c0 e2 17 8c be 5b ce 35 3f 06 91 25 bf 65 2b 88 3f
       -0.2736197 0.71018 -0.64674413 1.0638243
0001d0 5e e6 40 bf f8 8e 44 3f 02 e9 19 3e 3e 71 97 3f
       -0.7535151 0.76780653 0.15030292 1.1831434
0001e0 fa ef bc be dc a8 9f 3e e5 10 10 be f3 af e2 bf
       -0.36901838 0.31183517 -0.14068945 -1.7709945
0001f0 55 e2 13 3f cc 11 16 be 28 ef 3b 3e 0d c4 db bf
       0.5776723 -0.14655226 0.1835295 -1.7169205
000200 60 f8 00 bd 42 ad a5 bf 7e df f3 3e cd 8b 92 bf
       -0.03148687 -1.2943499 0.47631449 -1.1448914
000210 35 d5 8b 3e 37 fc 34 3f d5 80 af bf 58 f8 86 3f
       0.27311102 0.7069735 -1.3711191 1.0544538
000220 e5 42 96 bf d7 8a b5 be a3 b7 f5 be 1b 50 11 c0
       -1.1739165 -0.3545749 -0.47991666 -2.2705142
000230 d3 b6 37 3f 8f d4 d7 bf 8c c9 82 3f c5 99 25 bf
       0.7176334 -1.6861743 1.0217757 -0.6468776
000240 0e 24 f3 3e 83 ec 5d 3f 9f db 97 3f 66 c5 b4 bf
       0.47488445 0.86689013 1.1863898 -1.4122741
000250 9c d3 8e 3f fb fb ee 3d 7b 44 0c be 0b 2a 64 3f
       1.1158328 0.11669155 -0.13697998 0.8912665
000260 f6 76 08 40 f2 37 6a bf fd 54 02 3f f6 43 52 bf
       2.1322608 -0.91491616 0.5091093 -0.8213495
000270 5e b4 f2 be 11 f8 20 bf eb d3 4c 3f 1b 38 26 3f
       -0.47403234 -0.6287852 0.8001086 0.6492936
000280 6f 8c a4 3f 1a 1c 11 3f d6 17 c9 3c a4 b2 bd 3f
       1.2855357 0.56683505 0.024547499 1.4820142
000290 9e a4 a0 bf b3 cd 60 3e 89 06 77 bd c6 ad 2e bf
       -1.2550237 0.21953468 -0.060308967 -0.6823391
0002a0 a5 eb c4 3f 5e c1 68 bf fc ac d8 bc 7b 5e 3d 3d
       1.5384413 -0.90920055 -0.026449673 0.04623268
0002b0 bb ec 1a bf 40 df c7 bf 74 d3 11 3f 06 5c 92 3e
       -0.6051747 -1.5615005 0.56963277 0.28585833
0002c0 c5 d0 00 c0 49 1c d7 3e d2 95 9e be ad b0 20 40
       -2.0127423 0.42013767 -0.3097368 2.5107834
0002d0 0b 9a f3 be 0a f6 64 3f be 46 a6 bf 96 79 cc bf
       -0.47578463 0.89437926 -1.2990339 -1.5974605
0002e0 f5 24 89 3d 3e 8a 9d 3f 26 5a 1e 3f 39 8b 0d 3f
       0.06696502 1.2307813 0.61856306 0.5529056
0002f0 15 4c fb bf cd d4 01 3d 8e ae a7 bf a5 af 32 be
       -1.9632593 0.031697083 -1.3100145 -0.17449816
000300 80 ba c2 bf 28 1b 9a bd 89 b1 26 3e 97 52 ac 3f
       -1.5213165 -0.07524711 0.16278662 1.3462704
000310 2b 3a be 3f d9 9b 46 3f a4 90 5a be 64 4e 90 bf
       1.4861501 0.77581555 -0.21344239 -1.1273923
000320 47 2f 08 3f de 56 85 3f ad fd 22 3e e7 74 bf bc
       0.5319714 1.0417135 0.15917082 -0.023371173
000330 4e 1b 16 bf 00 67 22 3e 4d 00 93 be c5 f9 40 bf
       -0.58635414 0.15859604 -0.28711167 -0.7538112
000340 44 21 95 3f 4d 80 16 3f 90 73 4c 3f da 0a 9c bf
       1.1650777 0.5878952 0.79863834 -1.2190812
000350 04 bc ca 3f 79 aa 09 3f ae 1d 51 bd 29 c9 2e 3e
       1.5838628 0.53775746 -0.051053695 0.17068924
000360 22 ac 12 3e 44 0d 28 40 a4 8d 5a 3d 37 94 ca 3d
       0.14323476 2.6258097 0.053357735 0.09891551
000370 0f 0b 27 3d 75 cb 5b bf c0 83 a5 3f 6e 46 31 bf
       0.04078203 -0.85857326 1.2930832 -0.6924809
000380 32 b8 85 bf 16 46 c5 be 33 c3 1d bf 8b b2 53 be
       -1.0446837 -0.38530034 -0.61625975 -0.20673577
000390 92 1b 85 3f 74 35 1f bf 1e d0 18 3e 9f 35 58 3f
       1.0399039 -0.6219094 0.1492314 0.8445682
0003a0 59 67 b7 bf f3 60 f3 be 3b 0a a4 bd b2 ec b5 3d
       -1.4328414 -0.47534904 -0.08009764 0.08883037
0003b0 62 87 d1 be 51 26 ee 3f fd 6d 29 3f e8 40 11 bf
       -0.409236 1.8605443 0.66183454 -0.56739664
0003c0 7c 03 34 3e ed 41 43 3e d1 f8 79 3e 2b 7c b9 3d
       0.17579454 0.19068117 0.24411322 0.09056886
0003d0 c5 c6 31 bf 9f c0 29 bf 29 11 3e 3e 06 2c e0 be
       -0.69443923 -0.6630954 0.18561234 -0.43783587
0003e0 52 55 2e 3f 28 1b 9d bf ce 8b 50 3e 8f b0 87 be
       0.6809894 -1.2273912 0.20365831 -0.2650189
0003f0 21 a7 08 bf 18 5b 7b be 6b bd 0a 3f 51 b8 37 bf
       -0.5338002 -0.24546468 0.5419528 -0.7176562

weight f4 [4, 32]
000000 5e 4d 0c c0 fb ae 70 bf 05 06 54 bf 78 1f 1d c0
       -2.192222 -0.94017 -0.82821685 -2.4550457
000010 53 52 86 3e a2 17 9b be 5d de cc bd 60 e2 9f 3e
       0.26234683 -0.30291468 -0.1000335 0.31227398
000020 03 54 d2 3f 66 e2 7c 3e cb 2a cb 3e 65 0a 53 bf
       1.6431888 0.24695739 0.39681086 -0.82437736
000030 8b 30 84 bf 54 aa 26 3f a4 4c 8b bf 75 a6 83 bf
       -1.0327314 0.6510365 -1.0882764 -1.0285174
000040 38 37 65 bf 29 05 16 3f e0 33 ac be f3 ef 95 bf
       -0.8953738 0.58601624 -0.33633327 -1.1713852
000050 ec 05 b0 3d d2 cb 53 3d 24 f5 34 3f dc 9d 23 c0
       0.085948795 0.05170805 0.70686555 -2.55651
000060 21 56 6b 3f 79 d1 0d bf cf 67 2d bf 2c 22 91 3e
       0.919283 -0.55397755 -0.67736524 0.28346384
000070 43 3d a3 3f cc 91 81 bf 6b 4b 2e 3f 27 32 e7 be
       1.275307 -1.0122619 0.6808383 -0.4515545
000080 8d 36 2c 3e f5 85 e8 3e 7d d4 19 bf 53 08 4c be
       0.16817684 0.454147 -0.60089856 -0.1992505
000090 8e c5 00 c0 cd df 1f bd 72 06 1c be 87 3d 2a 3f
       -2.0120578 -0.039031792 -0.15236834 0.66500133
0000a0 e2 55 ff bf 1b 5a a8 bf e7 9d 90 bf 39 c9 7b bf
       -1.9948084 -1.3152498 -1.1298188 -0.98353916
0000b0 d2 a4 50 3f 10 ec 9d bf b6 29 7c be 57 d4 c4 3e
       0.81501496 -1.2337666 -0.24625286 0.38443252
0000c0 bd 32 e5 bf 91 7b b9 3f 12 ab 91 bf 41 ed 9b 3f
       -1.7906109 1.4490834 -1.1380332 1.2181779
0000d0 ef 50 33 3f 31 17 fc 3f 94 a1 04 3f a1 66 03 be
       0.7004537 1.9694577 0.5180905 -0.12832119
0000e0 6a d3 54 3e 8d d6 d7 3e eb eb 42 bf 41 b6 1e bf
       0.20783773 0.42155877 -0.7614123 -0.6199685
0000f0 7d 13 f0 3f af 95 ea be 9d e9 00 3f 3a 4d bc 3e
       1.8755947 -0.45817325 0.50356466 0.3677767
000100 47 fc bf bf 6d 2e c9 bf 68 ba 47 3f b2 9a 7e bd
       -1.4998864 -1.5717293 0.7801881 -0.062159248
000110 a9 b2 db bf ac 77 16 3f 60 a1 5b bf 8f dc 5d 3c
       -1.7163898 0.58776355 -0.85793114 0.013541355
000120 e0 9f 9c 3f 1d 6b 46 3f 0e fd 1c c0 5d 86 c1 bf
       1.223629 0.7750719 -2.4529452 -1.511913
000130 c4 54 5c 3f 71 bf e4 3f 04 89 f1 bf 10 ec b5 bd
       0.8606684 1.7870923 -1.8869939 -0.08882916
000140 15 f8 f4 3e 3a 43 6d 3e 4a 87 ff bc 16 b3 3b 3e
       0.47845522 0.23170176 -0.03119244 0.18330035
000150 33 0b 59 3f a7 d0 a2 bf 20 c1 80 be a5 c2 70 bf
       0.84782714 -1.2719926 -0.25147343 -0.94047004
000160 7a 66 4e 3e 8f 23 90 3e 6f 73 bc 3e ec 34 1b 3f
       0.20156279 0.2815213 0.3680682 0.6062763
000170 ac 07 db bf 24 3f e0 3e 9a b1 bf 3f 75 45 15 c0
       -1.7111716 0.43798172 1.4976075 -2.3323643
000180 c0 48 9f be b6 3c c6 bf f1 65 20 bf 00 3b ad 3f
       -0.3111019 -1.5487278 -0.6265555 1.353363
000190 da ce c5 3d 0f 18 9b bd b7 ef 7a bf e5 e9 4b bf
       0.096585944 -0.07572948 -0.98022026 -0.7965377
0001a0 52 d3 36 3f ee cf bb 3f 50 48 6b be 21 c7 0d bf
       0.714162 1.467283 -0.22976804 -0.5538197
0001b0 f9 4a 62 3e 7a d5 c0 bf 7f 8b 4f bf be 7e e3 3e
       0.22098912 -1.5065148 -0.8107223 0.44432634
0001c0 33 36 db 3f fb 04 cc 3e d6 26 fe bf 55 a9 77 bf
       1.7125915 0.3984755 -1.9855602 -0.96742755
0001d0 bc 2e 94 3f cf ae dd 3d 16 af bf bf 50 15 c0 be
       1.1576762 0.10824358 -1.4975307 -0.3751626
0001e0 5b 46 88 3e 6c 3e 25 3f b6 bb da bf 38 c4 00 3f
       0.26616177 0.64548373 -1.7088535 0.50299406
0001f0 0a 3a 76 3f a8 f1 be 3e 84 10 ae bf be 4d 04 bf
       0.9618231 0.37293744 -1.359879 -0.51681125

in_proj_weight f4 [96, 32]
000000 cd ed a7 3d 64 a9 0e 3e 60 f8 f6 bc 51 ad e1 bd
       0.08199654 0.13931805 -0.030147731 -0.110193856
000010 c9 00 f4 bc 29 9a 5a bd ea 32 d6 bd 56 28 aa 3d
       -0.02978553 -0.053369675 -0.1045893 0.08308475
000020 8e 06 0e bd 5d cb 1a be 5e ae d5 3d e6 2e ad 3d
       -0.03467422 -0.1511664 0.104336485 0.08456211
000030 06 80 f6 bd 85 29 46 3e 5f 22 d9 3d b5 13 dc bd
       -0.12036137 0.19351776 0.10602259 -0.10745946
000040 53 68 e7 3d 9e 96 e4 3d 76 21 34 3e b4 fe 03 be
       0.11299195 0.111615404 0.1759089 -0.1289013
000050 87 9a c1 bd 80 e8 44 be 13 6f ec 3d 8a b0 53 3e
       -0.09453302 -0.19229317 0.11544623 0.20672813
000060 06 13 3d be 20 ec 32 3e 4b 2f 2d 3e 66 7c 9d bd
       -0.18464288 0.17472887 0.16912572 -0.07689743
000070 69 b4 18 be 04 9b 49 3e b5 1d 0b be f9 8b 7d bd
       -0.14912571 0.1968804 -0.13585551 -0.061901066
000080 08 bd c2 3d cf 08 90 3d ca 20 2b 3e b8 05 06 3e
       0.09508711 0.0703293 0.16711727 0.13088119
000090 94 76 e4 3b 5e 19 0a be 99 2d 33 bd b1 6f c5 3c
       0.0069721434 -0.1348624 -0.043744657 0.02410111
0000a0 93 27 8f 3d 6b 23 94 bc cd 68 57 be 08 ee fd bd
       0.0698997 -0.018083295 -0.21036072 -0.123989165
0000b0 7f fc d1 3d 7c a7 ac bd 59 f9 f3 3d 84 4c 80 bd
       0.10253238 -0.084303826 0.11912794 -0.06264594
0000c0 a7 39 18 be 70 1e 08 be bc d4 37 3e 2e 70 20 3e
       -0.14865743 -0.13292861 0.17952245 0.15667793
0000d0 75 84 57 bd a8 ec 54 3b ea 00 f0 3c 91 18 6b bd
       -0.052616555 0.003248969 0.02929731 -0.057396475
0000e0 89 c3 52 3e 16 9d 09 be 9c 7f e3 3d 9f 52 85 3c
       0.20582403 -0.1343883 0.11108324 0.016274748
0000f0 22 d7 48 bc a9 1d c2 bd 2c 67 70 3d 2f da 2a 3d
       -0.012258323 -0.094783135 0.058692142 0.041711982
000100 7a d5 e2 bc b0 90 87 3d 7a 1a 19 3e 1d 86 10 bd
       -0.027689684 0.06619394 0.14951506 -0.03528415
000110 86 7e 3d be 45 a8 57 3e 99 82 52 3e f3 fd 81 3c
       -0.18505296 0.21060283 0.20557632 0.015868163
000120 a9 d3 ba 3c c9 ab aa 3d 7a de 1e be 10 72 0d be
       0.022806006 0.08333547 -0.15514556 -0.13813043
000130 d7 7e 09 be e4 11 1c 3e 65 86 07 3e 46 86 0f be
       -0.13427292 0.152412 0.13234861 -0.14016065
000140 c5 d3 26 3e 6d b3 bc 3d 26 c1 db 3d 43 6a 28 3e
       0.16291721 0.0921391 0.107301995 0.16446786
000150 69 65 b3 bd 3b 63 2d 3e 90 e7 64 3d 4d f2 d5 bd
       -0.08759577 0.16932385 0.055884898 -0.10446606
000160 db 6a b9 bd 73 ca 6b bd b7 7d 4c be 24 06 98 3d
       -0.09053584 -0.057566117 -0.19969831 0.07423046
000170 cb 0c ee bd 97 a5 6b bd fa f9 84 3c df 76 47 3d
       -0.11623534 -0.057530966 0.01623248 0.04869735
000180 bb d6 10 be f1 0d 23 be 9c 48 9b 3d 92 70 f6 bc
       -0.14144413 -0.15923287 0.075822085 -0.030082975
000190 73 f6 0e 3e 74 42 5b be 4a e0 26 3d a4 d5 ec bd
       0.139612 -0.21412069 0.040741242 -0.11564186
0001a0 79 eb 09 3d eb 9b d3 3d 1c 74 91 bd 64 4a 0f be
       0.03367183 0.10332473 -0.07102224 -0.13993222
0001b0 2e 3b a8 3d d8 b1 f5 3d c5 37 5a 3e d3 78 f6 bb
       0.08214413 0.11996812 0.21310337 -0.0075217276
0001c0 47 4e 99 bd 2f 4e fb bd 47 6e cf 3c 65 a8 82 bd
       -0.07485633 -0.12270772 0.025321139 -0.06379775
0001d0 1a 54 10 3d 37 db 20 bd 82 11 64 bc 19 35 fd bd
       0.035236456 -0.03927156 -0.01392019 -0.12363643
0001e0 35 b8 bb 3d 05 7b d7 3d 9c 8c b2 bd be ec 4e 3e
       0.09165994 0.10521511 -0.08718225 0.20207497
0001f0 a9 dd bb 3b 46 f4 0a 3e 63 03 d5 3d 96 b9 51 be
       0.005733211 0.13569745 0.104010366 -0.20480952
000200 67 5f 8a 3c 50 0a 3b be 51 ab 2b 3e 76 55 d2 3d
       0.016891195 -0.18265653 0.16764571 0.10270207
000210 a4 bd 94 bd f5 ed 07 3e 52 0c e8 3d 91 be 8c bb
       -0.072627336 0.13274367 0.11330475 -0.004295178
000220 42 39 0c 3d cd 03 2e be b6 aa e5 bd 51 c5 37 be
       0.034234293 -0.16993637 -0.11214201 -0.17946364
000230 18 d6 91 3c 7e d3 f1 bb 7b 73 c2 bb d3 8b 57 be
       0.017802283 -0.007379948 -0.0059341765 -0.21049432
000240 8f 71 41 3e eb c6 59 be ca 64 13 3c 23 6d 15 3e
       0.18890975 -0.21267287 0.008996198 0.14592414
000250 43 d1 12 3e a4 c1 53 3e 2a 4f 13 3e fb 41 e1 bd
       0.1433764 0.20679337 0.14385667 -0.10998913
000260 e7 8a 35 be 06 b2 45 be c6 e3 4d 3e 11 c5 31 3d
       -0.17728768 -0.19306192 0.2010642 0.043400828
000270 d7 8a 40 be 9c f8 81 3d 0e 45 50 3e e6 c8 aa bd
       -0.18802963 0.063462466 0.20338842 -0.083390996
000280 71 d0 07 bb 8c 05 42 be fd 2a 3a bd 72 8f 51 3e
       -0.0020723606 -0.18947428 -0.045451153 0.20464876
000290 5a 44 c9 bc dc 41 46 3d 1b 58 ab bb 7f 1d 89 3d
       -0.024568725 0.048402652 -0.005229009 0.06695079
0002a0 ce ed f5 bc 42 02 82 3d 9e 70 55 3e 30 69 17 bd
       -0.03002062 0.06348087 0.20843741 -0.03696555
0002b0 79 b6 95 3d a0 22 34 be 6e 55 ff 3d 69 5e 29 3c
       0.073101945 -0.17591333 0.12467466 0.010337451
0002c0 bc 39 53 3e b9 db a8 3d 74 b5 49 3e 30 54 4f bd
       0.20627493 0.08245034 0.19698125 -0.050617397
0002d0 18 f6 3a 3e 70 e1 c8 3d b8 85 5c be b0 67 2d bc
       0.1825794 0.09808624 -0.21535385 -0.010583803
0002e0 c1 da 2f 3e 5f 94 7b bd b2 64 01 be 12 1a 99 bd
       0.17173292 -0.061420795 -0.12636068 -0.07475676
0002f0 c6 65 3c 3e 2b 0d f5 bd 06 94 5e 3e 81 c8 02 3e
       0.18398198 -0.11965402 0.21736154 0.12771799
000300 5f 79 34 be 45 98 bd bd a1 3c 44 3e 5a 20 93 bc
       -0.17624424 -0.09257559 0.19163753 -0.017959762
000310 71 17 2a 3e 4c 97 d4 3d a4 c4 a9 bd b0 d9 62 3c
       0.16610505 0.1038042 -0.08289459 0.013845846
000320 99 d0 13 3e 34 f0 62 bd dd 23 5c 3e 59 24 e2 3c
       0.14435042 -0.055404857 0.21498056 0.027605223
000330 df 7a 09 3e 53 7c 45 3e cd 18 a9 bc ae 8a 53 be
       0.13425778 0.19285707 -0.020641709 -0.20658371
000340 30 be 52 be 4f b6 93 bb 57 aa 13 3c 18 03 6a 3d
       -0.20580363 -0.004507817 0.00901278 0.057131857
000350 c8 c3 37 3e 8c 7f 09 be 20 bd f1 3d 06 9f d0 bd
       0.17945778 -0.13427562 0.11803651 -0.10186581
000360 12 12 b5 bd 76 62 59 3d c3 71 52 be 7e 10 dc 3d
       -0.08841337 0.053072415 -0.20551209 0.10745333
000370 ba 09 1f be 35 fb a6 3c d3 8b 01 be 55 e7 e3 b9
       -0.15531054 0.020383457 -0.12650995 -0.0004346917
000380 a1 38 c3 3c c6 0b df bd 58 01 dd bd 33 ad 03 3e
       0.023830714 -0.108909175 -0.10791272 0.12859039
000390 67 84 2e be be 17 cf bd d2 ab 40 3d 6e fc 08 be
       -0.17042695 -0.1011195 0.04703886 -0.13377544
0003a0 92 8f 3d 3e a7 5b fe bc d7 33 ac 3d 75 4b f6 3d
       0.18511799 -0.031049563 0.08408325 0.12026111
0003b0 ef 4e 0b 3e 9f 9f 85 3d fd 8e f2 bc 9d 8d b3 3c
       0.1360433 0.06524586 -0.029609198 0.021918112
0003c0 a3 29 c3 3d b7 bb d9 3d 1d 93 92 3c 78 f5 72 3c
       0.09529426 0.10631507 0.017892415 0.014829032
0003d0 f7 87 42 3e a2 25 dc bd 5e fb ec bd 78 e7 6e bd
       0.18997179 -0.107493654 -0.11571382 -0.058326215
0003e0 47 e2 af 3d 35 9c d9 bd 25 88 ee bd ed a6 e9 3d
       0.08588081 -0.10625497 -0.11647061 0.11408792
0003f0 c1 b5 c5 3d f0 7f 9c 3c 2d d9 e8 bd 15 28 fa 3d
       0.096538074 0.019103974 -0.11369548 0.12214676

in_proj_bias f4 [96]
000000 6f e2 85 ba cf 41 89 3a d0 dc 7e 3a 2a c8 85 ba
       -0.0010214577 0.0010471883 0.00097222347 -0.0010206748
000010 ee aa 84 3a 64 cb 83 3a 41 0b 6a ba 8d a5 26 ba
       0.0010121742 0.0010055122 -0.00089280686 -0.00063570664
000020 3f 93 89 3a cc a0 89 3a cb 4c 87 ba 4c 9a 82 3a
       0.0010496153 0.0010500192 -0.0010322569 0.0009964197
000030 a1 0e 11 ba e4 a0 1f 3a 18 31 b8 38 08 44 83 ba
       -0.0005533491 0.0006089343 8.782948e-05 -0.0010014782
000040 4d 97 5e 3a 52 72 84 ba 52 24 8b ba c9 02 82 3a
       0.00084911735 -0.0010104871 -0.0010615683 0.0009919043
000050 f2 5a 67 3a dc ed be b9 b2 5b a7 b9 b7 d5 fe b9
       0.00088255026 -0.00036416843 -0.0003192104 -0.00048605885
000060 10 24 38 ba 09 96 52 3a b1 50 54 3a ed db c6 39
       -0.00070244167 0.0008033221 0.0008099182 0.0003792936
000070 1d d9 17 39 87 ec a5 39 ff 91 6e 3a c0 25 75 ba
       0.00014481363 0.0003164748 0.00091007346 -0.00093516335
000080 73 6c 7f b1 b9 39 92 b1 81 4e e1 31 35 88 f9 b0
       -3.716903e-09 -4.2557216e-09 6.5572867e-09 -1.8155847e-09
000090 4a 52 d7 32 09 7d 20 b2 af ef 91 b2 c9 0c 65 b1
       2.5066715e-08 -9.3416554e-09 -1.6989217e-08 -3.3331153e-09
0000a0 cc c6 3e 32 81 71 b4 32 f3 40 53 b2 ea 4e 4e b1
       1.1104657e-08 2.1006374e-08 -1.2296584e-08 -3.0021803e-09
0000b0 9b 6c 19 b2 93 aa b3 31 d1 d0 69 b2 03 d7 53 b2
       -8.930466e-09 5.2289777e-09 -1.3609864e-08 -1.23307045e-08
0000c0 f2 ea 63 b1 15 8a 1c 32 2f d9 a5 b1 a6 61 95 b0
       -3.3166399e-09 9.111791e-09 -4.826823e-09 -1.086893e-09
0000d0 09 4b 94 32 ef 21 85 b2 bb 7c b2 31 e5 60 a0 30
       1.726359e-08 -1.5498669e-08 5.194662e-09 1.1669071e-09
0000e0 b3 69 68 32 4b eb 1f 31 72 df ad b1 a1 65 20 31
       1.35282106e-08 2.3271294e-09 -5.0603655e-09 2.3340834e-09
0000f0 ca 7d 1a b0 54 76 58 31 ff 68 44 b0 ba c7 87 b1
       -5.620363e-10 3.1499399e-09 -7.1453593e-10 -3.9517234e-09
000100 57 ca 69 ba b0 cd 82 ba 76 ba 8a 3a d0 06 88 3a
       -0.00089183956 -0.0009979513 0.0010584134 0.0010378007
000110 ed 01 84 3a b4 8e 63 3a 31 ce 2f ba ed ba 7c 3a
       0.0010071375 0.0008680627 -0.0006706445 0.0009640891
000120 3b 2c 65 ba f1 c2 85 3a d6 19 89 3a 7f d8 7c ba
       -0.00087422476 0.0010205192 0.001045997 -0.00096452975
000130 7c f0 62 3a 37 d1 80 3a 50 89 d4 b9 5d 67 13 ba
       0.0008657051 0.0009827976 -0.00040538097 -0.00056230073
000140 c5 d6 87 ba 49 d5 27 3a 29 d1 8d 3a 9d f4 85 3a
       -0.0010363689 0.00064023264 0.0010819781 0.0010219995
000150 2b 23 61 39 51 29 65 ba 17 ef 7b ba 4c c8 08 ba
       0.00021470773 -0.00087418134 -0.00096105173 -0.0005217835
000160 81 cc 52 3a 02 f2 53 3a 4b 0a 71 ba 62 78 7e 3a
       0.0008041338 0.0008085073 -0.0009194954 0.00097072695
000170 19 06 7a ba 9c 0c d2 b8 a0 48 62 3a ae 68 c8 b9
       -0.0009537652 -0.00010015929 0.0008632038 -0.00038224965

weight f4 [32, 32]
000000 22 5b 7b 3c 49 da 88 3d 69 d1 1f be d2 d9 06 be
       0.015341552 0.066822596 -0.15607227 -0.1316903
000010 f2 f8 8c 3e 73 a5 3d 3e f3 ce b1 bd 9d 59 62 3d
       0.2753368 0.18520145 -0.086820506 0.055261243
000020 3a c1 8b be 41 e9 8e 3e 17 3e 52 be 0a dd 76 be
       -0.27295858 0.27912334 -0.20531498 -0.24107757
000030 ef 45 40 3e 66 34 41 be cb 57 23 3e 5e 10 22 be
       0.18776678 -0.18867645 0.15951459 -0.15826556
000040 de f6 5d 3e a5 89 03 be 7e 50 65 be d9 7e 84 3e
       0.21676204 -0.12845476 -0.22393987 0.25878027
000050 cf df 93 3e 12 f6 1e be b9 ea 6d bd a8 f6 2d 3e
       0.2888169 -0.15523556 -0.058085177 0.16988623
000060 7d 5c 94 bb 11 0a ec bd f3 f2 8e 3e b0 88 b2 bd
       -0.004527627 -0.115253575 0.2791973 -0.08717477
000070 78 e3 bd bc d3 35 88 3e ea 75 5e bd 74 44 02 be
       -0.023179755 0.26603565 -0.05431167 -0.12721425
000080 cf 86 2f 3d 9e 54 79 3d be 50 3e 3d b5 e3 09 3e
       0.042853173 0.060871713 0.04646372 0.1346577
000090 da f7 4f 3e fe b5 34 3e a3 09 cb bd 21 c9 60 3e
       0.20309392 0.1764755 -0.099139474 0.21951725
0000a0 75 50 0f be 89 84 bd 3d 39 ab 84 be 89 5e 02 3e
       -0.13995536 0.09253795 -0.25911883 0.12731375
0000b0 67 1d 0e 3e a6 62 14 3d 47 8e 6b 3d 0e d7 fc 3d
       0.13878404 0.03622689 0.057508733 0.12345706
0000c0 50 1a c0 3d 5f 1b 00 bc 6d 84 fa bd eb 8b 38 be
       0.09380019 -0.007819026 -0.122322895 -0.18022124
0000d0 b8 7b fd bc c7 5e 92 be 47 ae 9e bd d8 2f 94 be
       -0.030942783 -0.28587934 -0.077480845 -0.28942752
0000e0 95 ea 86 3e 60 64 10 be 7f 0c d8 bd f5 7a ec 3d
       0.26350847 -0.1410079 -0.105492584 0.1154689
0000f0 49 79 b5 bd bd 68 6e be 3e 78 a0 3d 21 73 23 3e
       -0.08861024 -0.23282142 0.078354344 0.15961887
000100 3d 31 80 bd e6 93 0f 3e 29 db b7 bd 1b 36 66 be
       -0.062593915 0.14021263 -0.08977348 -0.22481577
000110 00 d4 7b 3d c4 02 1d 3e 8a 8b 6c be d7 99 2f be
       0.061481476 0.15333086 -0.23100105 -0.17148529
000120 62 89 63 be ad 93 90 3e 12 3b 9c be fc 3b 78 bd
       -0.22220376 0.28237668 -0.30513817 -0.06060408
000130 7f 10 87 3c ca c4 c2 3d 3b 00 fe b9 e5 a8 64 3d
       0.016487358 0.09510191 -0.00048446827 0.055825133
000140 36 ce 92 3e c2 c4 b7 bd d7 5e 93 3e 15 3e 46 be
       0.2867295 -0.089730754 0.28783295 -0.1935962
000150 7a 15 f5 3b 5b 4f 8b bc 41 19 1f be e8 8d ae 3d
       0.007479367 -0.017005613 -0.15536977 0.0852316
000160 20 9d 50 3e d5 e5 d9 bd e4 56 7a 3e 2a 0c 52 3e
       0.20372438 -0.1063954 0.24447209 0.20512453
000170 6a db 4c be d7 d8 04 3e 2d 3a 58 3e f4 30 93 3c
       -0.20005575 0.12973343 0.21115942 0.017967679
000180 63 2c 62 be bb a5 98 be c2 54 d7 bd 7e 0c 57 be
       -0.22087245 -0.29813942 -0.10514213 -0.21000859
000190 b0 fa 99 3e f2 77 57 be 7c 04 4b 3e 70 80 52 bd
       0.30074072 -0.2104185 0.1982593 -0.05139202
0001a0 08 b6 2e 3e 82 03 39 3e c9 35 72 3e 9d a8 36 3e
       0.17061627 0.18067744 0.2365333 0.17837758
0001b0 6f 42 27 be 5f 79 63 bc 8d 48 8a 3e 61 98 ba 3d
       -0.16333936 -0.013883918 0.27008477 0.09111095
0001c0 13 ac 1c be 57 00 21 3e 6b d9 07 bd c3 61 2e be
       -0.15300016 0.15722786 -0.03316633 -0.1702948
0001d0 eb a8 87 be c9 cc 8e be e1 d8 8f be 4a 7f d4 bc
       -0.26496062 -0.27890614 -0.28095153 -0.025939602
0001e0 63 40 79 be ac 7d 75 bc 78 ce 95 3e 70 02 86 bc
       -0.24340968 -0.014983576 0.29259086 -0.016358584
0001f0 1a cd 12 be f2 43 37 bd 16 a9 84 3e a3 22 d2 bd
       -0.14336053 -0.044742532 0.25910252 -0.10260513
000200 e7 c6 9e 3c 87 27 46 3e 86 c1 db 3d 9f 74 ac 3d
       0.019381953 0.19351016 0.10730271 0.08420681
000210 7b 51 60 3e 75 bf 48 3e 3f 57 68 bd 47 2b 32 be
       0.21906082 0.19604285 -0.05672383 -0.17399321
000220 fd 8d e2 bc 0e 8a 44 3e a9 f3 44 bd 58 e1 05 3e
       -0.027655596 0.19193289 -0.048083935 0.13074243
000230 f3 20 af 3d 5a dd ac 3d ae 6c 8d bd fb 99 24 be
       0.085512064 0.08440657 -0.06905495 -0.16074364
000240 78 ed fa bd e5 47 ac bd fa 71 21 3e 9d 3d 82 be
       -0.12252325 -0.0841215 0.15766135 -0.25437632
000250 b0 88 85 3d cc a2 92 be 6a 91 89 be 27 1a 95 3e
       0.06520212 -0.2863983 -0.26868755 0.29121515
000260 b9 d8 f2 3d f3 3f c6 3d 41 9c 5f 3e 34 0b ac 3d
       0.11857743 0.09680166 0.2183695 0.08400574
000270 29 58 e1 bd 93 04 d4 3d 08 b2 c5 3d e9 b8 2d 3e
       -0.11003143 0.10352435 0.096530974 0.16965069
000280 1a 10 4b 3e 29 e5 aa bd 63 8d 88 bb 11 aa fd 3c
       0.19830361 -0.0834449 -0.0041672452 0.030964883
000290 13 3b df bd 3e 22 2c 3e 06 87 2c be ea fa 98 be
       -0.108999394 0.16809937 -0.16848382 -0.29878932
0002a0 11 2e 33 3e ba 18 8e 3e 9a 18 70 3e b5 06 9a be
       0.17498042 0.2775324 0.23446885 -0.30083242
0002b0 d8 a6 0b 3e a1 b4 19 3e 30 db 6e 3e 9d 68 99 be
       0.13637865 0.1501031 0.23325801 -0.29962626
0002c0 53 cc a2 bd 95 3f 6c 3e 28 82 4d 3e 27 6a 93 3d
       -0.07949128 0.2307113 0.20069182 0.07197981
0002d0 80 f2 1e 3d 70 86 81 be 7c dd 11 3e a6 b5 78 3e
       0.038805485 -0.2529788 0.14244646 0.24288043
0002e0 ce 75 eb 3d b5 26 33 3e 96 6c 07 bc 65 ae 06 bd
       0.11497079 0.17495234 -0.008265635 -0.03288116
0002f0 44 8b ff bd d4 0b 7c 3e f0 9a e7 bb 72 4a 8d 3e
       -0.12477735 0.24613887 -0.0070680305 0.2759586
000300 3d 04 13 3e 86 b6 f8 3d 28 4e 11 be 11 5c f9 bd
       0.14357086 0.121441886 -0.1418997 -0.121757634
000310 e0 42 86 3e ce 25 dc bd 6c 24 e4 3d 46 35 17 3e
       0.26222897 -0.10749398 0.111397594 0.14766416
000320 83 4e 9b 3d da 0d 51 bc 08 f8 2b 3e ff 42 95 3e
       0.07583334 -0.01275965 0.16793835 0.29152676
000330 f4 98 03 be 4b 9a ac bd cf b8 ef bd 76 90 6e 3e
       -0.12851316 -0.084278665 -0.11705171 0.23297295
000340 69 8c 8c 3e ea ea eb 3d 3f 4d 44 be d8 7c f0 bc
       0.27450874 0.11519416 -0.19170092 -0.029356405
000350 d8 ea 61 be 67 bf 72 be 8b 6e 54 be 9a 75 7b be
       -0.22062242 -0.23705827 -0.20745294 -0.2455658
000360 43 eb 4a 3d 89 79 62 be e2 d3 99 3d c8 74 9b bd
       0.04954077 -0.22116674 0.075111166 -0.07590634
000370 f1 24 9c 3d c9 f8 57 be cf 02 8b be 1c df b2 3d
       0.076242335 -0.21090998 -0.2715058 0.08733961
000380 5c 38 5c be f6 f7 2f 3e 69 66 60 3e 0e dd b2 bd
       -0.21505874 0.17184433 0.21914066 -0.08733569
000390 73 59 8c be a7 59 32 3e 46 fa 48 be 2a f8 0a 3b
       -0.27411994 0.17417012 -0.19626722 0.0021205046
0003a0 5c a8 8b 3c 53 10 99 be 43 3f 03 3c 98 66 4f 3e
       0.017048053 -0.29895267 0.008010688 0.2025398
0003b0 32 15 8e be 1e b9 0c be 1a 67 8b 3d 3b 1b d6 bd
       -0.27750546 -0.13742492 0.068067744 -0.104544125
0003c0 a3 ce 85 be 49 49 97 be a0 b0 15 bd f9 e0 8d 3d
       -0.26134214 -0.295481 -0.036545396 0.06927676
0003d0 55 d8 20 3e 64 68 bd 3c 5f 80 65 bd 19 db 17 be
       0.15707524 0.023121066 -0.056030627 -0.14829673
0003e0 7e d0 2b be a8 65 35 3e 2b af 6a 3d 91 e2 1d 3e
       -0.16778752 0.1771456 0.05729596 0.1541846
0003f0 70 b5 21 3e 03 4c 80 be 4c 28 92 be 1d f4 78 be
       0.15791869 -0.25057992 -0.2854637 -0.24311872

bias f4 [32]
000000 b7 db a0 b9 7c 34 87 ba f7 6a 24 ba e3 93 76 ba
       -0.00030681278 -0.0010315324 -0.00062720425 -0.0009406192
000010 97 f4 89 3a d6 ce 82 3a fc 7f 8a 3a 5c 47 87 ba
       0.0010525164 0.0009979855 0.0010566707 -0.0010320949
000020 fc 7f 8b ba 92 4e 09 3a 18 cf dc 39 74 69 88 ba
       -0.0010643001 0.0005237843 0.00042115967 -0.0010407404
000030 7e 12 46 3a f9 5e 1b 3a f0 1a 52 3a f3 c9 45 3a
       0.0007555856 0.0005926933 0.0008014878 0.00075450464
000040 68 78 6e 3a a3 93 77 3a 52 4f 68 ba 8a df 35 ba
       0.00090969214 0.0009444302 -0.00088619173 -0.0006937912
000050 ab 90 83 3a 8e cd 88 3a 37 0c e0 39 2e 2a 03 ba
       0.0010037621 0.0010437237 0.0004273371 -0.00050035387
000060 ba 18 85 3a b2 2b 80 ba e4 9e 68 ba a8 42 8d 3a
       0.0010154464 -0.0009778647 -0.0008873774 0.0010777311
000070 32 00 88 ba 52 d8 86 ba 38 d5 82 ba 32 05 35 3a
       -0.0010376035 -0.0010287857 -0.0009981757 0.0006905376

in_proj_weight f4 [96, 32]
000000 0f 98 13 3e ab 3e 59 be f0 91 63 bc 60 b1 6e bc
       0.14413475 -0.21215312 -0.013889775 -0.014568657
000010 46 d2 3d be 24 03 39 be 3c d9 11 be b0 be 40 bc
       -0.18537244 -0.18067604 -0.14243025 -0.011764213
000020 c3 6f 1b 3e 99 8a 49 3e 9d 47 38 3e 6a be a5 bd
       0.15179352 0.19681777 0.17996068 -0.08092959
000030 ef a2 0f 3e 9a 56 f2 3d 55 a0 04 3e 76 a9 0d be
       0.14026998 0.11832924 0.12951787 -0.13834175
000040 20 64 d3 bc 34 73 22 3d 9a 92 3e be 58 69 ae bd
       -0.02580458 0.039660648 -0.18610612 -0.085161865
000050 e0 c9 e5 bb c8 07 1a be d4 ec 7a 3d 79 6c 5d be
       -0.0070125908 -0.15042031 0.061261013 -0.2162341
000060 22 05 82 bd a4 d8 2c be 2e 9a 90 3d 74 58 5d bd
       -0.06348635 -0.16879517 0.070606574 -0.054039434
000070 1a 1a 10 be 8c 20 4d be b3 93 3e 3e a8 b0 a0 bd
       -0.14072457 -0.20031947 0.1861103 -0.078461945
000080 a6 59 aa 3d 39 e5 cc bd 43 4b 5b be f0 d5 5c bc
       0.0831788 -0.10004658 -0.21415429 -0.013478741
000090 34 96 55 3d f0 30 40 be e6 7f 1d be 84 3d 6f 3d
       0.052145198 -0.18768668 -0.1538082 0.058408275
0000a0 e4 18 3c 3d 20 84 ea bc 6f 71 30 be 9a 23 cd 3d
       0.045922175 -0.028627455 -0.17230771 0.10016556
0000b0 d2 45 14 be 18 9e a9 bd 38 0b b3 bd 98 52 b5 bd
       -0.1447976 -0.08282107 -0.08742374 -0.08853644
0000c0 32 6e 99 3d 9a b0 e7 3d d0 ab ee bc 38 19 2a bd
       0.07491721 0.11312981 -0.029134661 -0.041527957
0000d0 50 8c 7a 3c d2 03 83 bd a0 e7 55 bd 00 70 42 bd
       0.015292242 -0.06397213 -0.052222848 -0.047470093
0000e0 c3 f0 17 3e c4 43 8f bd 69 7e 49 3e d6 fd 0a be
       0.14837937 -0.06995347 0.19677128 -0.13573393
0000f0 b3 74 5b be 2e 1a ed 3d a9 7f 43 be 90 c2 47 bc
       -0.21431236 0.11577259 -0.19091667 -0.012192383
000100 08 d8 1e bd b3 ef 58 3e 98 eb 04 3d 78 b7 04 3d
       -0.038780242 0.21185188 0.032451242 0.032401532
000110 b0 2d 0c be ed f3 32 3e ac 56 a3 bd 61 af 16 3e
       -0.13689303 0.17475863 -0.07975516 0.14715339
000120 df fe 1c be b0 97 61 bc 34 fe 1f 3d d7 f7 1b 3e
       -0.153316 -0.013769075 0.039060786 0.15231262
000130 66 b5 8a bd 2f ac 20 3e 09 c6 54 be 79 16 3e 3e
       -0.0677288 0.15690683 -0.2077867 0.1856326
000140 04 e5 9c bd 7d b7 e4 bd e8 70 f8 3c 58 be 60 bd
       -0.07660869 -0.1116781 0.030327275 -0.054869026
000150 58 e3 a0 bc da cf ea bd 44 97 33 be dc e5 76 3d
       -0.019639656 -0.11465426 -0.17538172 0.060277805
000160 e2 92 9d 3d 9f 3d 11 3e 96 cf ab bd 68 3d e8 bc
       0.07694031 0.14183663 -0.08389203 -0.028349593
000170 00 9a 47 bb 8e 22 9e 3d f0 27 04 be 74 12 5d 3d
       -0.0030456781 0.077214345 -0.1290586 0.053972676
000180 bc ea 40 be 98 58 3f bd 13 c9 40 3e 8a 58 45 be
       -0.18839544 -0.04671535 0.18826704 -0.19272056
000190 21 d1 c2 bd 04 d6 49 3d 6a 3c e0 3d b8 ea b5 3c
       -0.095125444 0.049276367 0.10949023 0.02220665
0001a0 47 0e 0b 3e 4a 50 e8 3d 6f 8b 15 3e 9e d5 b3 3d
       0.13579665 0.11343439 0.14603971 0.087809786
0001b0 b2 aa 10 be a1 b7 09 be e9 24 54 3e e2 4a aa bd
       -0.14127615 -0.13448955 0.20717205 -0.08315064
0001c0 e0 49 82 bd ec 7b 02 3d d4 d4 75 3d 22 94 b1 bd
       -0.06361747 0.031856462 0.06001742 -0.08670832
0001d0 1d 0d 3d 3e 5a e3 1d be 0b 74 0e 3e 2a 1e c0 3d
       0.18462034 -0.15418759 0.13911454 0.09380753
0001e0 10 35 be bd 78 2d 5d bd a5 47 05 3e 98 c2 53 bd
       -0.092874646 -0.05399844 0.13015611 -0.05169925
0001f0 42 8c f8 3d 34 a0 92 bd 76 2f bb bd d4 87 27 3d
       0.12136127 -0.071594626 -0.09139912 0.04090102
000200 cb 62 34 be 22 c0 d4 bd ce 3c 11 be 7d ab 36 3e
       -0.17615812 -0.10388209 -0.14183351 0.17838855
000210 2e 61 c4 bd 70 2b 68 bc 3c d6 94 bd 50 14 1d be
       -0.09588848 -0.014170513 -0.072674245 -0.1533978
000220 d6 34 ae 3d 02 ab bd 3d b7 49 42 3e 4b d9 24 3e
       0.085061714 0.09261133 0.18973432 0.16098516
000230 78 cd 67 bd 45 ab 31 3e 00 b2 1a 3a 5e c4 d8 3d
       -0.056592435 0.1735049 0.0005901158 0.10584329
000240 c4 cb 4c bd 02 00 38 be 08 ac 04 bd 23 1b c6 bd
       -0.049999014 -0.17968753 -0.032390624 -0.09673145
000250 bf a5 cc bd 96 ae d1 3d 9d a9 07 3e f2 34 38 be
       -0.09992551 0.10238378 0.13248296 -0.17988947
000260 bc 48 a1 bd 27 cb 0a 3e d2 d5 92 3d 66 2b a6 3d
       -0.07875201 0.13554059 0.07169689 0.08113746
000270 01 7a 0d 3e 4a 33 86 3d e0 3f 8b 3c 70 6f 14 bc
       0.13816072 0.06552751 0.016998231 -0.009059772
000280 21 ea 58 3e 66 5c c0 3d 2c b6 3c be 11 53 52 3e
       0.21183063 0.093926236 -0.18428868 0.205395
000290 40 21 ab bb 52 95 e1 3d 9d 53 38 3e 25 90 43 be
       -0.0052224696 0.11014809 0.18000646 -0.19097956
0002a0 aa a0 22 be 00 c5 93 3a 41 af 27 be 7c e0 11 3d
       -0.15881601 0.001127392 -0.16375448 0.035614476
0002b0 e4 5e 3b 3d 41 0f 33 3e 5f 84 39 3e cd 3a e5 bd
       0.04574479 0.17486288 0.18116902 -0.11192856
0002c0 e4 ff 7f 3d 90 6c 9b 3c 00 fc 4b bd 88 b6 f7 3c
       0.062499896 0.018972665 -0.049800873 0.030238405
0002d0 7e 0b ee 3d 58 d9 e6 3c 88 02 ac 3c 04 14 9a bd
       0.11623286 0.02817981 0.0209973 -0.07523349
0002e0 99 62 25 3e 04 1e 3a be 1a 1a 17 be e3 5f 2b 3e
       0.16150893 -0.18175513 -0.1475605 0.16735797
0002f0 61 11 0f 3e ce e0 f7 bd 36 38 a0 bd 37 33 46 3e
       0.13971473 -0.12103425 -0.078232214 0.19355474
000300 97 4b 54 3e 4a 2d 80 3d f2 bb 20 be b6 dc c7 bd
       0.2073196 0.06258638 -0.15696695 -0.09758894
000310 92 82 17 be 45 5f 1c 3e 28 33 d6 3c e2 99 0b be
       -0.14795902 0.15270717 0.02614744 -0.1363292
000320 a8 08 a4 bc 07 fe eb bd 00 ed 9b ba 98 53 97 3c
       -0.020023659 -0.11523061 -0.0011896193 0.018472478
000330 7c 37 7a 3d bc 91 3f 3d 62 89 b9 3d eb 2e ef bd
       0.06108807 0.046769843 0.09059407 -0.11678871
000340 e2 30 52 be 00 7f 4f 3b 49 93 2e 3e 80 8a d8 3c
       -0.2052646 0.0031661391 0.17048372 0.02643323
000350 00 73 73 3b 01 4d c4 bd d7 e9 13 3e f0 dd 46 bc
       0.0037147403 -0.09585 0.14444672 -0.012137875
000360 70 79 47 bd cc 4c 5e 3d da 21 02 be a4 2b a9 bd
       -0.048699796 0.054272458 -0.12708226 -0.08260277
000370 20 e2 08 be 3a 2e bb bd 68 5b 9c bd 88 94 f5 bc
       -0.1336751 -0.091396764 -0.07634622 -0.029978052
000380 9a b0 f9 3d a5 38 10 3e 3e 5f f2 3d 1a d4 a6 3d
       0.12191887 0.14084108 0.11834572 0.08145924
000390 90 86 97 bc 9a 8c c0 3d d3 d9 01 3e b0 b3 66 bd
       -0.018496782 0.094018176 0.1268075 -0.056323707
0003a0 1e 87 9d 3d 8b 07 48 3e 08 76 e3 bc da b8 a4 3d
       0.07691787 0.19534127 -0.027766243 0.0804307
0003b0 e8 b6 ba 3c ab 97 1f be 66 7b d8 bd a4 77 78 3d
       0.022792295 -0.155852 -0.105704114 0.060660973
0003c0 0c 3b 4a 3d 89 33 06 3e f5 f5 3f 3e 8a 59 e5 3d
       0.049372718 0.13105597 0.18746169 0.11198719
0003d0 78 dc 3a be ab 66 59 3e c4 ff b8 bd b7 64 13 3e
       -0.18248165 0.21230571 -0.090331584 0.14393888
0003e0 ec c5 5e 3d 6a 83 91 3d 14 ca 1c bd 8f 3e c0 bd
       0.05438797 0.07105143 -0.038278654 -0.09386932
0003f0 99 6c ce bd 6f eb 17 be 8a 88 cf 3d 94 aa 15 be
       -0.10079307 -0.14835905 0.10133465 -0.14615852

in_proj_bias f4 [96]
000000 00 00 00 00 00 00 00 00 00 00 00 00 00 00 00 00
       0.0 0.0 0.0 0.0
000010 00 00 00 00 00 00 00 00 00 00 00 00 00 00 00 00
       0.0 0.0 0.0 0.0
000020 00 00 00 00 00 00 00 00 00 00 00 00 00 00 00 00
       0.0 0.0 0.0 0.0
000030 00 00 00 00 00 00 00 00 00 00 00 00 00 00 00 00
       0.0 0.0 0.0 0.0
000040 00 00 00 00 00 00 00 00 00 00 00 00 00 00 00 00
       0.0 0.0 0.0 0.0
000050 00 00 00 00 00 00 00 00 00 00 00 00 00 00 00 00
       0.0 0.0 0.0 0.0
000060 00 00 00 00 00 00 00 00 00 00 00 00 00 00 00 00
       0.0 0.0 0.0 0.0
000070 00 00 00 00 00 00 00 00 00 00 00 00 00 00 00 00
       0.0 0.0 0.0 0.0
000080 00 00 00 00 00 00 00 00 00 00 00 00 00 00 00 00
       0.0 0.0 0.0 0.0
000090 00 00 00 00 00 00 00 00 00 00 00 00 00 00 00 00
       0.0 0.0 0.0 0.0
0000a0 00 00 00 00 00 00 00 00 00 00 00 00 00 00 00 00
       0.0 0.0 0.0 0.0
0000b0 00 00 00 00 00 00 00 00 00 00 00 00 00 00 00 00
       0.0 0.0 0.0 0.0
0000c0 00 00 00 00 00 00 00 00 00 00 00 00 00 00 00 00
       0.0 0.0 0.0 0.0
0000d0 00 00 00 00 00 00 00 00 00 00 00 00 00 00 00 00
       0.0 0.0 0.0 0.0
0000e0 00 00 00 00 00 00 00 00 00 00 00 00 00 00 00 00
       0.0 0.0 0.0 0.0
0000f0 00 00 00 00 00 00 00 00 00 00 00 00 00 00 00 00
       0.0 0.0 0.0 0.0
000100 00 00 00 00 00 00 00 00 00 00 00 00 00 00 00 00
       0.0 0.0 0.0 0.0
000110 00 00 00 00 00 00 00 00 00 00 00 00 00 00 00 00
       0.0 0.0 0.0 0.0
000120 00 00 00 00 00 00 00 00 00 00 00 00 00 00 00 00
       0.0 0.0 0.0 0.0
000130 00 00 00 00 00 00 00 00 00 00 00 00 00 00 00 00
       0.0 0.0 0.0 0.0
000140 00 00 00 00 00 00 00 00 00 00 00 00 00 00 00 00
       0.0 0.0 0.0 0.0
000150 00 00 00 00 00 00 00 00 00 00 00 00 00 00 00 00
       0.0 0.0 0.0 0.0
000160 00 00 00 00 00 00 00 00 00 00 00 00 00 00 00 00
       0.0 0.0 0.0 0.0
000170 00 00 00 00 00 00 00 00 00 00 00 00 00 00 00 00
       0.0 0.0 0.0 0.0

weight f4 [32, 32]
000000 06 b5 56 be 20 23 80 3d 41 0e 6a be 64 ec 37 3e
       -0.20967492 0.062566996 -0.22857 0.1796127
000010 50 22 f6 bc 5c 04 4e be 96 16 ce bd 58 b4 1b bd
       -0.030045658 -0.2011885 -0.10062902 -0.038013786
000020 e7 5c 9b be de 10 7b 3e 48 d8 42 be 5c cb bb 3d
       -0.30344316 0.24518153 -0.19027817 0.09169647
000030 a0 53 30 bc b0 a9 42 3d 3c e8 cb bd 84 8b 22 3e
       -0.010762125 0.047525108 -0.099564046 0.15873533
000040 4f 09 28 be e8 df 03 3d 90 a6 b0 3c b8 10 35 3e
       -0.16409801 0.032195956 0.021563798 0.17682159
000050 d0 57 f2 3d 1e 80 9c be 9e 48 8a bd 70 33 0e 3d
       0.11833155 -0.30566496 -0.06752132 0.034717023
000060 80 32 6a 3c 8e 2e 0d 3e 48 ff 6b be 7b dd 90 be
       0.014294267 0.1378729 -0.23046601 -0.28293976
000070 10 25 2d 3e 10 1c ec bc aa 62 9f bd c0 d9 39 3e
       0.1690867 -0.028821975 -0.077824906 0.18149471
000080 08 d8 75 3d ea 21 48 3e 50 f1 29 3d 38 2d 29 be
       0.060020477 0.19544187 0.0414899 -0.16521156
000090 40 41 ec 3c 30 97 9f bc 92 4c 36 be 34 ac c3 3d
       0.028839707 -0.019481272 -0.17802647 0.095543295
0000a0 2b b9 01 be 96 45 d8 bd 19 4b 8a be 32 f8 da bd
       -0.12668292 -0.105601475 -0.2701042 -0.10691871
0000b0 26 1d 96 bd 3c a7 e1 bd 28 dc 05 3d e8 50 d3 3d
       -0.073297784 -0.110182256 0.03268066 0.10318166
0000c0 8e d4 17 3e 0a a6 01 3e 2a 16 eb bd 57 fc 08 be
       0.14827177 0.12660995 -0.11478837 -0.1337751
0000d0 80 eb b6 3c c0 62 ca bb 79 9c 9b 3e c0 df 55 bd
       0.022329092 -0.0061763227 0.30392817 -0.052215338
0000e0 fe 35 b9 bd b3 2a 84 3e 93 d0 34 be 1e 7e 92 be
       -0.09043501 0.25813827 -0.1765769 -0.28611845
0000f0 00 49 91 3a 00 02 5a 3a 78 0e 8b be 19 b7 23 be
       0.0011084378 0.0008316338 -0.27159476 -0.15987815
000100 00 f8 49 3d 7e 96 14 be c7 83 94 be 6d 14 8d 3e
       0.049308777 -0.14510533 -0.29006788 0.27554646
000110 f5 09 80 3e 48 ca 58 3d e6 be bd bd 30 61 12 3e
       0.25007597 0.052927285 -0.092649266 0.14294887
000120 8e 4a 30 3e 6c fc 1a 3e 3d e0 04 be 20 65 98 bc
       0.1721594 0.15135354 -0.12976165 -0.018602908
000130 47 59 8a be 89 fb 98 be be 11 17 3e 78 f2 b7 3d
       -0.27021238 -0.29879406 0.14752862 0.08981794
000140 8c d1 87 be 57 8d 81 3e 7d 2e 69 be 74 35 db 3d
       -0.2652706 0.25303146 -0.2277164 0.10703555
000150 fe e0 fc bd e5 fd 8b 3e 76 a6 14 3e 11 d9 82 be
       -0.12347601 0.27342144 0.14516625 -0.25556234
000160 0e e3 0c 3e 64 63 3b 3e 16 c3 36 3e 96 94 61 3e
       0.1375849 0.18299633 0.17847857 0.22029337
000170 9c 9c 02 be 36 e9 5e 3e 4a 0d 47 3e 3f 7d 99 3e
       -0.12755054 0.2176865 0.19438663 0.29978368
000180 e6 d3 70 be 10 84 72 be 42 99 76 be 90 b6 b7 3d
       -0.23518333 -0.2368319 -0.240819 0.08970368
000190 c8 7b 57 be 04 85 86 3d f1 88 99 3e 16 73 7c 3e
       -0.21043313 0.065683395 0.2998729 0.24653277
0001a0 a0 d0 f5 3d a8 f5 46 bd f5 1a 8b 3e ee b5 4b 3e
       0.12002683 -0.04857412 0.27169004 0.1989362
0001b0 1e 0f 0c 3e 7c 38 92 3d e8 c4 f9 3d 24 ac 84 3d
       0.13677642 0.0713968 0.1219576 0.06478146
0001c0 0e dc 9c bd 45 6a 92 3e bf be 60 be f6 27 19 3e
       -0.076591596 0.28596702 -0.21947764 0.1495665
0001d0 12 6b 57 3e 34 ff ea bd 4e 48 47 3e 88 64 23 bd
       0.21036938 -0.114744574 0.19461176 -0.039890796
0001e0 86 60 0d be 64 5f 8c 3d 01 7c 93 be 30 f2 e8 3c
       -0.13806352 0.06854132 -0.28805545 0.028435796
0001f0 02 4b b2 bd a0 7b 15 3d f0 a8 f2 bd aa c9 4a 3e
       -0.08705713 0.03649485 -0.118486285 0.19803491
000200 1c 89 9f bd d8 3f 8f 3d 98 a8 2c 3e 35 ed 40 be
       -0.077898234 0.06994599 0.16861188 -0.18840487
000210 b6 37 6c 3e fe 68 99 bd 92 d4 56 3e af 20 6e be
       0.23068127 -0.07490729 0.20979527 -0.23254655
000220 d5 29 8e be a8 22 e2 3d 4c f9 45 3e cb 6f 9b 3e
       -0.2776629 0.110417664 0.1933338 0.3035873
000230 23 29 1c be 4e 67 6c 3e a6 ae 7e 3e be 6e 49 3e
       -0.15250067 0.23086283 0.2487131 0.19671151
000240 30 ad 98 bc 08 2a 35 3e c2 c2 71 3e 12 56 14 3e
       -0.01863727 0.17691815 0.2360945 0.14485958
000250 08 a6 06 3e 30 fc 27 3d 40 a8 84 bc 50 f3 ff bc
       0.13149273 0.04101199 -0.01619351 -0.03124395
000260 96 a9 6b be b0 9e ce bc 98 58 3d 3e 78 26 67 bd
       -0.2301391 -0.025222152 0.18490827 -0.05643317
000270 b8 20 c7 3d 0d 53 99 be 5d 1f 99 3e 46 10 f3 bd
       0.097230375 -0.29946175 0.2990674 -0.11868338
000280 78 d6 23 3e df aa 81 3e d2 fc 23 be ea 6e 2c 3e
       0.15999782 0.25325677 -0.16014412 0.16839185
000290 2c 3d 7f bd c0 91 a3 bb 14 a9 a2 3d 94 ba 84 be
       -0.062314197 -0.00499174 0.07942405 -0.25923598
0002a0 b4 c9 f2 bd f0 7f 08 bd 22 fa 0d be 2b fa 98 3e
       -0.11854878 -0.033325136 -0.1386495 0.29878363
0002b0 96 6b 21 3e 80 29 84 be e2 be 4b be 16 eb f3 bd
       0.15763697 -0.25812912 -0.19897035 -0.119100735
0002c0 4c 12 e3 3d c4 75 41 be 5f 9a 8d 3e 7e 63 55 3e
       0.11087474 -0.1889258 0.27656838 0.20838735
0002d0 e6 1e 21 3e 82 5a 2d 3e 90 76 a3 3d a8 50 e8 bd
       0.15734443 0.16929057 0.079815984 -0.11343509
0002e0 a0 3b 82 bd d0 64 f0 3c f0 d7 11 be 40 31 f7 3d
       -0.06359029 0.029344946 -0.1424253 0.120699406
0002f0 a4 6d a2 bd a6 e7 0f be f2 0a 5a 3e 45 a3 0a be
       -0.079310685 -0.1405321 0.21293238 -0.13538845
000300 ea e3 4a 3e 4e 69 60 3e ea a8 97 bd e4 92 98 3d
       0.19813505 0.2191517 -0.07405265 0.07449892
000310 90 22 66 be d0 78 4f 3d 71 21 9a be ec d6 b9 3d
       -0.22474122 0.050652325 -0.3010364 0.09074196
000320 0e 51 b8 bd 20 56 56 3c 1b 8a 9a 3e e8 88 af bd
       -0.08999835 0.013082057 0.3018349 -0.08571035
000330 28 da 2e 3e 64 cf eb 3d fc 9c 96 be 36 e6 37 be
       0.17075408 0.11514166 -0.29416645 -0.17958912
000340 02 d2 4f 3e 30 79 18 bd 04 85 3f 3e 3c 42 a3 3d
       0.20294955 -0.03722495 0.18703085 0.079716176
000350 2f 31 04 be 00 1e 16 3d 04 0e 83 be b2 2a 31 be
       -0.12909387 0.036649704 -0.2559663 -0.17301443
000360 00 ef f7 bc 40 f8 8d be c0 e3 70 3c aa 8a 16 3e
       -0.030265331 -0.27728462 0.014702737 0.14701334
000370 38 4e 0b 3e 80 a8 d9 3b f0 3c 6b be e1 ab 35 be
       0.13604057 0.006642401 -0.22972465 -0.17741348
000380 e8 04 c5 bd 8e f5 15 be 96 e6 99 be 65 38 0f be
       -0.096200764 -0.14644453 -0.30058736 -0.13986357
000390 df 0f 52 be e0 ba 9e bd f0 f8 87 bc ce 86 7c 3e
       -0.20513867 -0.07750487 -0.016598195 0.24660799
0003a0 40 54 5e 3c 24 e8 e0 bd b1 39 89 3e 40 53 8e 3d
       0.013569891 -0.10981777 0.26801828 0.069494724
0003b0 a0 c9 9d 3c 58 52 1f 3e f0 3b 85 bd 00 ee 57 3b
       0.019261181 0.15558755 -0.06505573 0.0032948256
0003c0 88 35 85 be 33 a3 77 be 8c 0b 1d 3e a8 fe 60 bd
       -0.26017404 -0.2418335 0.15336436 -0.05493036
0003d0 5f e8 82 be 6e 1e fc bd 06 fe 51 3e 88 6f 4f be
       -0.2556791 -0.123104915 0.20507059 -0.2025739
0003e0 c8 43 31 3e 04 ca c5 3d de 58 6d 3e e0 74 3d 3e
       0.17311013 0.09657672 0.23178431 0.18501616
0003f0 79 1f 85 3e 36 1f 7f 3e f2 5a 6a 3e 74 1f 91 3d
       0.26000574 0.2491425 0.22886255 0.07086077

bias f4 [32]
000000 00 00 00 00 00 00 00 00 00 00 00 00 00 00 00 00
       0.0 0.0 0.0 0.0
000010 00 00 00 00 00 00 00 00 00 00 00 00 00 00 00 00
       0.0 0.0 0.0 0.0
000020 00 00 00 00 00 00 00 00 00 00 00 00 00 00 00 00
       0.0 0.0 0.0 0.0
000030 00 00 00 00 00 00 00 00 00 00 00 00 00 00 00 00
       0.0 0.0 0.0 0.0
000040 00 00 00 00 00 00 00 00 00 00 00 00 00 00 00 00
       0.0 0.0 0.0 0.0
000050 00 00 00 00 00 00 00 00 00 00 00 00 00 00 00 00
       0.0 0.0 0.0 0.0
000060 00 00 00 00 00 00 00 00 00 00 00 00 00 00 00 00
       0.0 0.0 0.0 0.0
000070 00 00 00 00 00 00 00 00 00 00 00 00 00 00 00 00
       0.0 0.0 0.0 0.0
