pre_trained_models/mosi_aligned_L_GENERATOR_A.pt (torch, 165113 bytes, 35 tensors)

multi f4 [1, 32]
0	0xbed28091	-0.41113713
1	0x3e03c1a7	0.12866841
2	0x3e88eedc	0.26744735
3	0xbe9a27c2	-0.30108458
4	0x3c1c7760	0.009549946
5	0xbea2c45f	-0.31790444
6	0xbe18b43d	-0.14912505
7	0x3e3f028a	0.18653312
8	0x3df373a0	0.11887288
9	0xbce2d46c	-0.027689181
10	0xbec1452f	-0.37748095
11	0xbea1f443	-0.3163167
12	0x3dbac33b	0.091192685
13	0xbd95b438	-0.073097646
14	0x3ed7e427	0.42166254
15	0xbdb70832	-0.0893711
16	0x3ba5ef30	0.0050639138
17	0xbe64ff26	-0.22362956
18	0x3e741117	0.23834644
19	0x3cd892e1	0.026437225
20	0x3eb1a9e9	0.34699944
21	0x3d63d204	0.05562021
22	0x3e5bd14f	0.21466564
23	0x3e593ede	0.21215388
24	0xbde5f8bb	-0.11229082
25	0x3e8bb638	0.2728746
26	0xbea5e5db	-0.32401928
27	0x3e93da5f	0.2887754
28	0xbe12f14e	-0.14349863
29	0x3eb7a63d	0.35869017
30	0xbe35bcfd	-0.17747875
31	0xbd5069a3	-0.050881993

weight f4 [50, 32]
0	0xbf8dc0ec	-1.10745
1	0x3e249d3a	0.16075602
2	0xbf2f14d0	-0.6839113
3	0x3f7e6442	0.9937173
4	0x3fe0af1b	1.7553438
5	0xbe870484	-0.26370633
6	0xbf673567	-0.9031586
7	0xc00189b1	-2.024029
8	0xbdd0e3fb	-0.10199734
9	0xbec7cf5d	-0.39025393
10	0x3fd4bec1	1.6620713
11	0xbe1c54ec	-0.1526677
12	0xbfe19f92	-1.7626822
13	0xbfa95b0b	-1.3230909
14	0x3f3484e3	0.7051527
15	0x3fa6b19e	1.3022954
16	0xbf639478	-0.8889842
17	0xbca703f4	-0.020387627
18	0xbf00943d	-0.50226194
19	0xbd986104	-0.07440379
20	0xbf4d3439	-0.8015781
21	0xbd786bc9	-0.060649667
22	0xbf1e7f81	-0.61913306
23	0x3d360b3f	0.04444432
24	0x3fd90432	1.6954405
25	0xbfd4db6d	-1.6629463
26	0xbfe1500e	-1.7602556
27	0xbf5b40af	-0.85645574
28	0x3f13532c	0.57548785
29	0x3d92cad5	0.071675934
30	0x3f14a5cd	0.5806549
31	0x3f1a907c	0.60376716
32	0xbf110bb1	-0.56658465
33	0x3fb1973b	1.3874277
34	0x3f321100	0.6955719
35	0xbc57e8ef	-0.013178094
36	0xbf99e52d	-1.2023064
37	0x3f01b43e	0.5066565
38	0x3d6fd766	0.05855503
39	0x3ea0554a	0.3131507
40	0xbf0a3325	-0.5398429
41	0x3f279f58	0.65477514
42	0x3f9cd7a3	1.2253307
43	0xbf3c9b4d	-0.7367447
44	0x3f89b83e	1.0759351
45	0xbefd6e54	-0.49498236
46	0x3d0a7bd8	0.033809513
47	0x3db6dd06	0.089288756
48	0x3d9cd9f1	0.076587565
49	0x3f149af1	0.5804892
50	0x3fbc8a29	1.4729663
51	0x3da7a2b2	0.081853285
52	0xbfc43771	-1.5329419
53	0x3f776bf0	0.96649075
54	0x3dd2c0d4	0.10290685
55	0x3e8c2e19	0.2737892
56	0x3e54ec52	0.20793274
57	0x3ff016f9	1.8757011
58	0x400fb2d1	2.245289
59	0x4032e88b	2.7954433
60	0xbfa2f44e	-1.2730806
61	0xbe1b277a	-0.15151778
62	0x3f3c5365	0.7356475
63	0xbf0312a7	-0.51200336
64	0xbd494c4b	-0.049145024
65	0x3f516029	0.81787354
66	0x3f0250b8	0.5090442
67	0x3f9de5b2	1.2335722
68	0xbf53c7f9	-0.8272701
69	0xbe96d566	-0.29459685
70	0x3d4db1e7	0.05021849
71	0xc0201b1a	-2.5016541
72	0xbeb6305e	-0.35583776
73	0x3fd63aa5	1.6736647
74	0xbfcf88af	-1.6213588
75	0x3ec85701	0.3912888
76	0x3f0b4020	0.5439472
77	0xbf2a759e	-0.6658572
78	0xbe8a53ef	-0.2701716
79	0xbecae52b	-0.39627966
80	0xbf7c3c70	-0.9852972
81	0xbf8ea07a	-1.1142724
82	0x3c7ce5c2	0.015435638
83	0xbcd08091	-0.02545193
84	0xbedf5452	-0.4361902
85	0x3e5af39b	0.2138199
86	0xc000e8c1	-2.0142062
87	0x3face398	1.3506956
88	0xbcc67d88	-0.02422978
89	0xbecfbbbb	-0.40572914
90	0x3f5c598c	0.8607414
91	0xbf5cf1a9	-0.86306244
92	0xbf8bf620	-1.0934486
93	0x3e6b2f21	0.22967197
94	0xbee883e5	-0.45413128
95	0xbf55670e	-0.83360374
96	0xbf5a3479	-0.85236317
97	0xc002c2fb	-2.0431507
98	0x3f0d3050	0.55151844
99	0x3f13146b	0.5745303
100	0xbf0830a5	-0.53199226
101	0x3f9083f4	1.1290269
102	0x3f910e15	1.1332422
103	0x3f53728c	0.8259666
104	0xbea0f934	-0.31440127
105	0xbff48275	-1.9102312
106	0xbe76696a	-0.2406365
107	0xbee2e2f6	-0.44313782
108	0xbf3f0cf8	-0.74629164
109	0x3e3642cc	0.17798918
110	0xbfb0b726	-1.3805892
111	0xbef30624	-0.47465622
112	0xbed76409	-0.42068508
113	0x3f3fc641	0.74911886
114	0xbf99ba01	-1.2009889
115	0xbecad6ab	-0.39616904
116	0x3e56b3e5	0.20967062
117	0x3e959d1d	0.2922143
118	0x3ea0cbe9	0.3140557
119	0xbec87e91	-0.39159063
120	0xbfa3fbe9	-1.2811252
121	0xbf951f82	-1.165024
122	0x3e91c97a	0.28474027
123	0xbe33004f	-0.17480586
124	0xbf64f9e8	-0.89443827
125	0x3fa7a766	1.3097961
126	0xbf49af23	-0.7878286
127	0xbf95c7b3	-1.1701568
128	0xbe662136	-0.22473606
129	0xbf04da63	-0.5189573
130	0x3f660f5a	0.89867175
131	0xbfc2f2a6	-1.52303
132	0x3fb4943a	1.4107735
133	0xbfdabcdf	-1.7088889
134	0xbeb9714e	-0.36219257
135	0xbd68afdd	-0.05680834
136	0xbfd407e3	-1.6564907
137	0xbed6a29d	-0.4192094
138	0xbfaa3bf2	-1.3299544
139	0xbf1f4e98	-0.622293
140	0xbf83df0d	-1.0302445
141	0x3f899441	1.0748369
142	0xc043bb4c	-3.0583067
143	0x3eeb64d9	0.45975378
144	0xbfc4e15b	-1.5381273
145	0xbfe0931d	-1.7544895
146	0xbf45fd5d	-0.77339727
147	0x3efeca9e	0.4976396
148	0x3f8e4262	1.1114008
149	0x3cf93961	0.030422868
150	0xbf987f75	-1.1913897
151	0x3e9b148f	0.30289122
152	0xbd5fea40	-0.054666758
153	0xbf70499e	-0.9386233
154	0xbf43cdbf	-0.7648582
155	0xbe08d83d	-0.13363738
156	0x3fab8146	1.3398826
157	0xbfa538ab	-1.2907919
158	0x4011358c	2.2688932
159	0x3f205ec5	0.62644607
160	0x3f20efb4	0.6286576
161	0xbfca4f67	-1.5805482
162	0xbef088c3	-0.4697934
163	0x3f17898b	0.5919425
164	0xbf6f2a99	-0.93424374
165	0xbfb42de0	-1.40765
166	0x3f8ab8c1	1.0837632
167	0x3f3d3dd8	0.7392249
168	0x3fc2a54e	1.5206697
169	0xbea85316	-0.3287589
170	0xbf7343a2	-0.95025074
171	0x3eaa066c	0.33208025
172	0x3fd59e72	1.6688979
173	0x3e403281	0.18769266
174	0xbf612664	-0.87949204
175	0xbf2d5e4c	-0.6772201
176	0xc00dab11	-2.213566
177	0x3dc755ae	0.09733139
178	0xbf858134	-1.0430055
179	0xbd1a8066	-0.037720107
180	0x3fe2380c	1.7673354
181	0x3e21a558	0.1578573
182	0xbe60f254	-0.21967441
183	0x3e5c6a46	0.21524915
184	0x3f8cd08d	1.1001145
185	0xbf7b65e4	-0.9820235
186	0x3f99db55	1.202006
187	0x3ee31153	0.44349155
188	0xbf7225f3	-0.94589156
189	0xc007d77d	-2.1225274
190	0x3f278383	0.65435046
191	0xbd294da0	-0.041333795
192	0x3f950f8b	1.1645368
193	0xbf5fdd54	-0.87447095
194	0xbe086f7b	-0.13323776
195	0xbfa46f9c	-1.284656
196	0x3ea7cda9	0.32774094
197	0x3fd05049	1.6274501
198	0x3f26f712	0.6522075
199	0xbf058f5d	-0.5217188
200	0xbf781687	-0.96909374
201	0xbee4213c	-0.44556606
202	0xbfefd818	-1.8737822
203	0xbfb4555c	-1.408855
204	0x3f616ebb	0.88059586
205	0xbf635f9b	-0.8881776
206	0xbdb623df	-0.088935606
207	0x3fc7a541	1.5597306
208	0x3f4bbf20	0.7958851
209	0x3e703707	0.23458491
210	0x3f2beb89	0.67156273
211	0xbc468c59	-0.012118422
212	0xc01a99d5	-2.4156392
213	0xbf1571a7	-0.58376545
214	0xbe6cee58	-0.23137796
215	0xbec00ca1	-0.37509635
216	0xc02311a9	-2.547953
217	0xbd1f8cef	-0.038952764
218	0x3f14efc8	0.5817838
219	0xbda20f4e	-0.079130754
220	0xbee94876	-0.45563096
221	0xbee435a6	-0.4457218
222	0xbf8bbc65	-1.0916868
223	0xbeba6943	-0.36408433
224	0xbc269dc0	-0.0101694465
225	0x3efd3d36	0.49460763
226	0xbf16c5bd	-0.58895475
227	0xbfc540bb	-1.5410379
228	0xbe201717	-0.15633808
229	0xbee04052	-0.43799073
230	0xbf4425a5	-0.7661994
231	0x3d23b955	0.03997167
232	0xbeb57425	-0.35440174
233	0x3f5850a3	0.8449804
234	0x3fc7bd43	1.5604633
235	0xbf0774bf	-0.52912515
236	0x3ed8b969	0.42328957
237	0x3ed76b70	0.42074156
238	0xbfc56dca	-1.542413
239	0x3f6d194a	0.92616713
240	0xbedeb860	-0.43500042
241	0x3fa44349	1.2833034
242	0x3ec22989	0.37922314
243	0xbebe3c44	-0.37155354
244	0x3ec56b06	0.38558215
245	0x3fabb42b	1.3414358
246	0x3f366996	0.7125486
247	0x3f5ab462	0.8543149
248	0xbf05bf6b	-0.52245206
249	0x3fd113f6	1.6334217
250	0xbfeafef3	-1.8359054
251	0x3d8d5e54	0.06902757
252	0xbfa1b4a0	-1.2633247
253	0xbf17c48c	-0.5928428
254	0x3e3b907a	0.18316832
255	0xbf09b28c	-0.53788066

weight f4 [4, 32]
0	0x3da641ce	0.0811802
1	0xbf6808e8	-0.9063859
2	0x3e29db5d	0.16587587
3	0x3f6ac339	0.91704136
4	0xbf736b8c	-0.9508598
5	0x3f7403fa	0.9531857
6	0x3e829c29	0.25509766
7	0xbf4b416e	-0.7939671
8	0x3f9d1a36	1.2273624
9	0x40185d62	2.3806996
10	0xbf652eb1	-0.8952437
11	0x3e2f2046	0.17102155
12	0xbe904ef2	-0.2818523
13	0xbbb4e9e8	-0.005521048
14	0x3e496cbe	0.19670388
15	0xbfa9b6b7	-1.3258885
16	0x3f537ce4	0.8261244
17	0x3feaef1f	1.8354224
18	0xbf1b470e	-0.60655296
19	0xbeaec19b	-0.34132084
20	0xbf8fcd56	-1.1234539
21	0xbef5a96d	-0.47980824
22	0xbecc197a	-0.39863187
23	0xbf765560	-0.9622402
24	0x3f4be23d	0.7964209
25	0x3f9c8d2a	1.223058
26	0xbf87cee9	-1.0610019
27	0xc01fe31c	-2.4982367
28	0xbf2442b0	-0.6416426
29	0x3eff542f	0.49868914
30	0xbf3929f4	-0.7232964
31	0x3dd079d9	0.101794906
32	0x3eefe24f	0.46852347
33	0xbec1ee01	-0.37876895
34	0xbf05986b	-0.52185696
35	0x3ec634d5	0.38712183
36	0x3efe5b6d	0.49679127
37	0xbf85ecf9	-1.0462943
38	0xbf94aa53	-1.1614479
39	0xbfe31c00	-1.774292
40	0xbe0c1962	-0.13681558
41	0xbfc5b9c0	-1.5447311
42	0xbf18ab8e	-0.5963677
43	0x3f12c3ac	0.5732982
44	0xbf7ffae0	-0.9999218
45	0xbfc6005c	-1.546886
46	0xbfa71ee2	-1.30563
47	0x3fade7b8	1.358634
48	0xbf9a599e	-1.2058599
49	0xbeeaef6a	-0.45885783
50	0xbebe5807	-0.37176535
51	0x3f362ce2	0.71162236
52	0xbf6ccf2d	-0.92503625
53	0xc006685c	-2.1001196
54	0x3fad1853	1.3523048
55	0xbeb77816	-0.35833806
56	0xbea709db	-0.32624707
57	0xbfc4d1fe	-1.5376585
58	0xbf834301	-1.0254823
59	0xbdf73c72	-0.12072076
60	0x3fbef2d3	1.4917854
61	0x3fc97003	1.5737308
62	0x3dc1c922	0.09462191
63	0xbffc5b9d	-1.9715458
64	0x3de5c1cf	0.11218607
65	0x3f2b3763	0.6688139
66	0x3eee173b	0.46502098
67	0xc0051279	-2.0792525
68	0x3f97be3f	1.1854934
69	0x3f96a794	1.1769891
70	0xbf6afc4c	-0.91791224
71	0xbf90ada2	-1.1302989
72	0x3e86a864	0.26300347
73	0x3eded3ca	0.43520957
74	0xbf938803	-1.1525882
75	0xbf810182	-1.0078585
76	0x3f7f0dd9	0.99630505
77	0xbe1b9fdc	-0.151977
78	0x3fa915e6	1.3209808
79	0x3daaf19d	0.08346865
80	0x3ec2d6e3	0.3805457
81	0xbee12a2c	-0.43977487
82	0xbff89e1c	-1.9423251
83	0x3e531940	0.20615101
84	0x3f2cc68a	0.67490447
85	0xbf461477	-0.77374977
86	0x3fcb476e	1.5881174
87	0x3f1295c5	0.5725978
88	0xbf26494c	-0.6495559
89	0xbf2e0d72	-0.67989266
90	0xbe50c1e8	-0.2038647
91	0xbd0adcb2	-0.033901878
92	0x3e903bc4	0.28170598
93	0x3ea4b962	0.32172686
94	0xbeab7341	-0.3348637
95	0xc0173aaa	-2.3629556
96	0x3fc63f9d	1.5488163
97	0xbd64f744	-0.055899873
98	0x3f51596c	0.8177707
99	0x3ff57ff6	1.9179676
100	0xbf295088	-0.66138506
101	0xbe0f660e	-0.14003775
102	0x3fa7a048	1.3095789
103	0xbf027c37	-0.50970787
104	0xbf18359f	-0.5945682
105	0x3e77584c	0.24154776
106	0xbc686547	-0.014184303
107	0x3faaca98	1.3343077
108	0xbf45a68a	-0.77207243
109	0xbed939a1	-0.4242678
110	0xbfcdf2d2	-1.6089728
111	0x3ed2c50b	0.41165957
112	0xc01d0c5a	-2.4538789
113	0x3eb7761c	0.35832298
114	0xbf9e62d5	-1.2373911
115	0xbe9579e9	-0.29194573
116	0xbf960f43	-1.1723408
117	0x3f076c8f	0.5290002
118	0x3f203b08	0.62590075
119	0xbfa6826b	-1.300855
120	0x3e08f9e2	0.13376573
121	0x3ee76d7e	0.45200723
122	0x3fa301a3	1.2734874
123	0x3de3a27d	0.111149766
124	0x3f838134	1.0273805
125	0x3d353a70	0.044245183
126	0x3e3a5a41	0.18198492
127	0xbe7cf788	-0.247038

in_proj_weight f4 [96, 32]
0	0x3de2588c	0.11052045
1	0xbe01e1e4	-0.12683827
2	0x3e0e2ebe	0.13885018
3	0x3deb249a	0.114815906
4	0x3e08ed51	0.13371779
5	0x3e446c20	0.19181871
6	0x3c45d82b	0.012075464
7	0x3e32b5a4	0.17452103
8	0x3db0f31a	0.08640118
9	0x3e52769d	0.2055306
10	0x3d83a5e1	0.06428123
11	0xbb15d5fb	-0.0022863138
12	0xbe0cb790	-0.13741899
13	0xbde9a88e	-0.114091024
14	0x3dd3dca1	0.10344816
15	0x3e3fc21d	0.18726392
16	0x3dda32ca	0.106542185
17	0xbe158838	-0.14602745
18	0xbcb653d9	-0.022256779
19	0xbe4d7125	-0.20062692
20	0x3e4ce0fa	0.20007697
21	0x3d1ae2f4	0.037814096
22	0x3e49f62b	0.19722812
23	0xbda4d6ae	-0.080487594
24	0xbe57699c	-0.2103638
25	0x3d948bb4	0.07253209
26	0x3ccf5e1a	0.025313426
27	0x3dd11eb7	0.102109365
28	0xbd6e6a4d	-0.058206845
29	0x3db68ca0	0.08913541
30	0x3e3918d6	0.1807588
31	0xbe2fb6f7	-0.1715964
32	0x3d784179	0.060609315
33	0xbdd00243	-0.101566814
34	0xbe190400	-0.14942932
35	0xbe453b45	-0.19260891
36	0x3e3ec1c9	0.1862861
37	0xbcc3a438	-0.023882017
38	0xbcdc92de	-0.0269255
39	0xbe3dac39	-0.18522729
40	0x3da74e6c	0.08169255
41	0xbe352416	-0.17689547
42	0xbe05ec70	-0.13078475
43	0x3e2ac5df	0.16677044
44	0xbe18f42b	-0.14936893
45	0x3d26e08e	0.040741496
46	0xbe10c29f	-0.14136742
47	0xbc871795	-0.016490737
48	0xbe034230	-0.12818217
49	0x3e0956b0	0.13411975
50	0x3de5e07d	0.11224458
51	0xbca644fe	-0.02029657
52	0xbb8e191c	-0.0043364894
53	0x3d8eb6b9	0.06968445
54	0x3e17111b	0.14752619
55	0xbe4239ab	-0.18967311
56	0xbd7bc8f0	-0.061470926
57	0x3daf66bc	0.08564517
58	0x3c985548	0.018595353
59	0xbda19a7f	-0.07890796
60	0xbd39de6d	-0.045378137
61	0x3d6f26be	0.058386557
62	0xbded46a8	-0.11585742
63	0xbd48141c	-0.048847303
64	0x3e4d75ef	0.2006452
65	0xbdc3a52a	-0.09552987
66	0x3d120f00	0.035658836
67	0x3bfb3544	0.007666262
68	0xbdaff27f	-0.08591174
69	0xbd376401	-0.044773106
70	0xbdbe9491	-0.093056805
71	0xbcaad262	-0.020852271
72	0xbc87695d	-0.016529733
73	0xbe01f19d	-0.12689824
74	0x3db156dd	0.08659146
75	0xbd09f47d	-0.033680428
76	0x3e4dfe95	0.20116647
77	0xbd4fcb89	-0.050731216
78	0xbde69d7c	-0.112605065
79	0x3cc55be8	0.024091676
80	0xbd8653cc	-0.06558952
81	0x3df25a37	0.11833613
82	0x3e36c07e	0.17846867
83	0x3ce461ec	0.027878724
84	0xbdd7acad	-0.10530982
85	0xbe101fa4	-0.1407457
86	0xbd49aa25	-0.049234528
87	0x3e280661	0.16408683
88	0xbceea945	-0.029133448
89	0xbd97620e	-0.07391749
90	0xbdd13202	-0.10214616
91	0xbdcc6043	-0.09979298
92	0x3e48544f	0.19563411
93	0x3df10ae8	0.11769658
94	0xbe0ceb8e	-0.13761732
95	0xbe54b8a5	-0.20773561
96	0x3cfa8370	0.030580252
97	0xbdd379b9	-0.10325951
98	0xbe1b1d0d	-0.151478
99	0x3b556c14	0.003256564
100	0xbe022853	-0.12710695
101	0xbe1a34d4	-0.15059215
102	0xbc8c51b9	-0.017128812
103	0x3e5108ee	0.20413563
104	0x3ceadc4c	0.028669499
105	0xbe21b801	-0.15792848
106	0x3d888547	0.06666046
107	0x3e278e25	0.16362818
108	0xbdd87e80	-0.10571003
109	0x3b06a7f8	0.0020546895
110	0xbe5bf26f	-0.214792
111	0x3e16b1c1	0.14716245
112	0xbe05328c	-0.13007563
113	0x3dab579b	0.08366319
114	0x3cb38efe	0.02191877
115	0xbb26ae0c	-0.002543333
116	0x3c216a08	0.00985194
117	0x3e054a02	0.13016513
118	0x3e05f9a8	0.13083518
119	0xbdca9f3d	-0.098936535
120	0xbd35ef20	-0.0444175
121	0xbe3f80ba	-0.18701449
122	0x3db5ceec	0.08877358
123	0x3d3dc22d	0.04632776
124	0xbd80a892	-0.06282152
125	0x3e27bf5b	0.1638159
126	0xbe182251	-0.1485684
127	0x3e04bb5a	0.12962094
128	0x3d567233	0.052355003
129	0x3cfe1841	0.031017425
130	0xbd9979ae	-0.07493912
131	0xbe0bf4e5	-0.13667639
132	0x3e0fe98e	0.14053938
133	0xbd3edf35	-0.046599586
134	0x3ccab9a3	0.024746722
135	0x3e0b96e5	0.1363178
136	0xbdbff8e2	-0.093736425
137	0xbe4ec5d2	-0.2019265
138	0x3e3b7ecd	0.1831009
139	0xbda54a46	-0.08070807
140	0x3e3109c4	0.17288882
141	0xbd1ecaf0	-0.038767755
142	0xbe533dd1	-0.2062905
143	0xbdfc38b4	-0.12315503
144	0x3e1692e0	0.14704466
145	0xbc80a275	-0.015702466
146	0x3df1d9eb	0.11809143
147	0xbe37ce6c	-0.17949837
148	0xbd9da8e2	-0.076982275
149	0xbd8400d2	-0.06445469
150	0x3de8bad2	0.11363758
151	0x3e24fbbd	0.16111656
152	0xbcb4a8ce	-0.022053149
153	0xbd671bbb	-0.05642293
154	0x3da90146	0.08252196
155	0x3e35e2a4	0.17762238
156	0xbe2bdcd4	-0.16783458
157	0xbde07e12	-0.10961546
158	0x3cbb8111	0.022888692
159	0xbe26de73	-0.16295795
160	0xbcf2fdd3	-0.029662048
161	0xbdb71eb1	-0.08941401
162	0xbe3f67a6	-0.18691882
163	0xbe3d4742	-0.18484214
164	0x3d7eda54	0.062219933
165	0xbe0a0099	-0.1347679
166	0xbc3e40b3	-0.011612105
167	0xbd22a27b	-0.039705735
168	0xbe280bcf	-0.16410755
169	0xbcf6ff82	-0.030151132
170	0xbd0ae4a8	-0.03390947
171	0xbdb46929	-0.0880912
172	0x3da94f95	0.08267132
173	0xbca6a84c	-0.020343922
174	0xbe52f8ab	-0.20602672
175	0xbd3899e4	-0.045068637
176	0xbbb907a6	-0.0056466637
177	0xbe5236bc	-0.20528692
178	0xbdbd7f6f	-0.09252822
179	0x3d0afd44	0.03393294
180	0x3e3a5d11	0.18199565
181	0x3dcb19fd	0.09917066
182	0xbd33646e	-0.04379695
183	0xbdbd72a2	-0.0925038
184	0x3e5ac07c	0.2136249
185	0xbd6d99e2	-0.058008082
186	0xb953102f	-0.00020128557
187	0xbe00f244	-0.12592417
188	0xbe0ced27	-0.13762341
189	0xbd8222d0	-0.06354296
190	0x3e255917	0.16147266
191	0x3e5045c8	0.2033912
192	0xbe40a822	-0.18814138
193	0xbe35bd78	-0.17748058
194	0x3deaf339	0.11472172
195	0xbda46907	-0.08027845
196	0x3e3cc937	0.18436132
197	0xbca45dc7	-0.020064248
198	0x3e44886b	0.19192664
199	0xbe05d46b	-0.13069312
200	0xbcaff7ba	-0.02148043
201	0x3e5b3546	0.21407041
202	0xbd7d16e4	-0.06178941
203	0x3d737fa9	0.059447918
204	0x3e13037e	0.14356801
205	0xbe05f8b1	-0.1308315
206	0xbdf7074c	-0.12061939
207	0xbe1b9586	-0.15193757
208	0x3da1bcb5	0.07897321
209	0x3e4fdb44	0.20298487
210	0xbe3fda94	-0.18735725
211	0x3c5f918a	0.013645539
212	0xbdb6a91d	-0.089189745
213	0xbc1c6396	-0.0095452275
214	0x3e4d5245	0.20050915
215	0xbdb00acb	-0.085958086
216	0xbd64a5e5	-0.05582227
217	0xbe0544f5	-0.13014586
218	0x3e444a77	0.19169031
219	0xbe3cb4bf	-0.18428324
220	0xbc9a52fd	-0.0188384
221	0x3e462ad2	0.19352272
222	0xbe42f631	-0.19039227
223	0x3e0aa265	0.13538511
224	0xbcfafacf	-0.030637173
225	0xbdd10156	-0.10205333
226	0x3e09eb3f	0.13468646
227	0x3e5500e9	0.20801128
228	0x3d0a5b8d	0.033778716
229	0x3ba00ab6	0.0048840893
230	0x3d74f7f7	0.05980679
231	0x3e3966a0	0.18105555
232	0xbdbe0ee4	-0.09280184
233	0xbe06cf78	-0.1316508
234	0xbda6ceca	-0.08144911
235	0x3bb5de73	0.0055501997
236	0xbe095c83	-0.13414197
237	0xbdb3e238	-0.08783382
238	0x3df62441	0.12018634
239	0xbe429dc5	-0.19005497
240	0xbe1d3e4c	-0.15355796
241	0xbdd42623	-0.103588365
242	0x3e06296c	0.13101739
243	0xbdf9d0aa	-0.12198003
244	0xbd4093b2	-0.047015853
245	0x3c9d911f	0.019234238
246	0x3e364c8e	0.17802641
247	0xbe51e027	-0.20495664
248	0x3e18dfbc	0.14929098
249	0xbe1c8a88	-0.1528722
250	0x3e42ee24	0.19036156
251	0xbe4e707d	-0.20160098
252	0xbccc2099	-0.024917888
253	0x3e13ecf2	0.14445856
254	0x3e17a68c	0.14809626
255	0x3c9b0e27	0.018927647

in_proj_bias f4 [96]
0	0x3a1b339e	0.00059204723
1	0x398c97a8	0.00026815874
2	0xb96e046d	-0.00022699097
3	0x3a5268e7	0.0008026496
4	0x38b4a645	8.614039e-05
5	0xba08562e	-0.000520083
6	0x3a2fb78d	0.00067030714
7	0x3a82f0a4	0.0009989929
8	0xba4c1b43	-0.0007786045
9	0xba7dc6ed	-0.00096808263
10	0x3a2a8a14	0.00065055606
11	0x3a820de0	0.0009922348
12	0xba6e328d	-0.0009086512
13	0xb9132b7b	-0.0001403521
14	0xba8289d4	-0.0009959289
15	0x39c02113	0.00036645736
16	0x391f32c3	0.00015182332
17	0xba6b9cf0	-0.0008987924
18	0x36fb516c	7.4898617e-06
19	0x3a5d45b2	0.00084408664
20	0x3a3a992b	0.0007118161
21	0xb97abccc	-0.0002391219
22	0x3a26f233	0.0006368488
23	0x3a390caf	0.000705908
24	0xba1ab331	-0.00059013354
25	0xba2ded19	-0.00066347566
26	0x3a70d143	0.0009186456
27	0x3a714469	0.00092036143
28	0x3a82b3e6	0.0009971827
29	0x3a6d8f9a	0.0009062231
30	0x3a4387ee	0.0007458915
31	0x3a735d9b	0.00092836627
32	0xb1c3b2fa	-5.695594e-09
33	0x31c925e5	5.854178e-09
34	0x325ffbe4	1.3037582e-08
35	0x327f78ca	1.4870418e-08
36	0xb19d67a2	-4.581083e-09
37	0xb1d4667f	-6.1816645e-09
38	0x31785c47	3.6141203e-09
39	0xb1557b34	-3.1065612e-09
40	0xb104c057	-1.931786e-09
41	0x3204069f	7.684917e-09
42	0xb0fef32b	-1.8550045e-09
43	0x31dbda19	6.3985337e-09
44	0xb2ae7cfa	-2.0313099e-08
45	0x3283f11d	1.5360053e-08
46	0x3174fab5	3.5649184e-09
47	0xb17ac793	-3.6493233e-09
48	0xb24cf136	-1.1929208e-08
49	0xb15a7e54	-3.1794984e-09
50	0xb1ba94ef	-5.4302443e-09
51	0xb2f5562d	-2.8560942e-08
52	0xb10261b4	-1.8973028e-09
53	0x32194855	8.9222185e-09
54	0xb246914f	-1.1558156e-08
55	0xb1b0730b	-5.135353e-09
56	0xb2308413	-1.02745785e-08
57	0x31bbbbc1	5.4637614e-09
58	0xb2c011e2	-2.2359874e-08
59	0xb303fc38	-3.0730206e-08
60	0xb19f20ba	-4.6312296e-09
61	0x32c8be95	2.3369731e-08
62	0x3129f95e	2.4734486e-09
63	0x321f725d	9.281021e-09
64	0xb9f6a2a6	-0.0004704196
65	0x3a876206	0.0010328896
66	0xba8b4839	-0.0010626382
67	0xba873a3c	-0.0010317038
68	0xba2c0942	-0.0006562659
69	0x3a89ee6f	0.0010523329
70	0xb9e0c2d2	-0.00042869762
71	0xba8b9ff0	-0.0010652523
72	0x3a808b0b	0.0009807063
73	0x3a86bce1	0.0010279679
74	0xba53f9e3	-0.0008086247
75	0x3a81c333	0.0009900093
76	0x3a42b7c6	0.0007427897
77	0x3a69405b	0.00088978343
78	0x3a6bee9f	0.0009000096
79	0x395b2de6	0.00020902566
80	0x3a4e95a1	0.0007880573
81	0x3a6d68e1	0.00090564607
82	0x3a8277c8	0.000995391
83	0x3a57392c	0.00082101184
84	0x3a21a614	0.000616641
85	0xb89a1d59	-7.348759e-05
86	0x3a2bdab6	0.0006555723
87	0x399d7f36	0.00030040153
88	0x3a7f4b4a	0.0009738697
89	0x38464425	4.7270343e-05
90	0xba52f16f	-0.00080468407
91	0xba85eef2	-0.0010218306
92	0x3a6b276a	0.0008970412
93	0x3a15a014	0.00057077524
94	0x3a4dcdd8	0.00078508025
95	0xba871e33	-0.0010308683

weight f4 [32, 32]
0	0x3e62a23b	0.22132199
1	0x3e840cbf	0.25790974
2	0xbe32eda0	-0.17473459
3	0x3e61a2a1	0.22034694
4	0x3e531575	0.20613654
5	0xbdc1efeb	-0.09469589
6	0xbd795cf6	-0.06087967
7	0xbc20ae25	-0.009807144
8	0xbe92a2a1	-0.286397
9	0xbe3f5661	-0.18685295
10	0xbe55b456	-0.20869574
11	0x3e7b8e64	0.24566036
12	0xbd897fd3	-0.06713834
13	0x3e6037e9	0.21896328
14	0x3d0fcdc3	0.03510834
15	0xbd8be0fc	-0.06830022
16	0xbe4b8f50	-0.19878888
17	0x3e99b404	0.30020154
18	0xbc5c6a5d	-0.013453093
19	0x3e030162	0.12793496
20	0xbe3715ed	-0.17879458
21	0x3e7522cd	0.23939057
22	0x3db87150	0.09005988
23	0xbe26359d	-0.1623139
24	0x3e054c53	0.13017397
25	0xbe8820f4	-0.2658764
26	0x3e383229	0.17987885
27	0x3e04f35f	0.12983464
28	0xbe945460	-0.28970623
29	0xbe007699	-0.12545241
30	0xbc43f14e	-0.011959387
31	0x3e8b01a2	0.27149683
32	0xbe474b76	-0.1946238
33	0xbe9055c7	-0.28190443
34	0xbe29dcf9	-0.165882
35	0x3e893844	0.2680074
36	0x3dae0717	0.08497446
37	0x3e59440b	0.21217363
38	0xbe285009	-0.16436781
39	0x3e0abf0b	0.1354944
40	0x3ca6fede	0.020385202
41	0xbe21f566	-0.15816268
42	0x3e63855e	0.22218844
43	0x3e61b4be	0.22041604
44	0xbe205df3	-0.15660839
45	0x3d295a68	0.041345984
46	0xbdbce612	-0.0922357
47	0xbe83deec	-0.25756013
48	0xbe6b79a2	-0.22995618
49	0xbdad185e	-0.08451913
50	0xbe81b2e8	-0.25331807
51	0x3e98e89c	0.29864967
52	0xbe1b545c	-0.151689
53	0xbc8553fa	-0.016275395
54	0x3e3cdfea	0.18444791
55	0xbdeebf24	-0.11657551
56	0x3e19322a	0.14960542
57	0x3dc0a6d1	0.09406818
58	0x3e325d99	0.17418517
59	0xbe22cac1	-0.15897657
60	0x3e1c8b49	0.15287508
61	0xbe4b3ff4	-0.19848615
62	0xbdbc4301	-0.091924675
63	0x3cc3a529	0.023882465
64	0xbd59971d	-0.05312263
65	0xbe8e928c	-0.2784618
66	0x3e3fab33	0.18717651
67	0xbe6822e8	-0.22669566
68	0x3e622be3	0.22087054
69	0xbde929e5	-0.11384944
70	0xbe031866	-0.12802276
71	0xbe8af076	-0.27136582
72	0xbe8dc603	-0.27690133
73	0xbe1ed9d3	-0.15512781
74	0xbdbdcc4a	-0.09267481
75	0x3e8cfe1c	0.2753762
76	0x3e8342f6	0.25637025
77	0x3e19f934	0.1503647
78	0x3e82c10f	0.25537917
79	0x3e74882d	0.23880072
80	0x3e1331df	0.14374493
81	0xbe54c37f	-0.20777701
82	0x3e4dd2af	0.200999
83	0x3dd3291c	0.10310575
84	0x3d997bef	0.074943416
85	0x3e3c471d	0.18386503
86	0xbc3c7e5b	-0.011504735
87	0x3e911683	0.28337488
88	0x3e49a1fb	0.19690697
89	0x3e8e0ad1	0.27742627
90	0x3e80cd4f	0.25156638
91	0xbe311dfa	-0.17296591
92	0xbe7badda	-0.24578038
93	0x3e0a90e6	0.13531837
94	0xbd5e39e0	-0.054254413
95	0xbe5b6c25	-0.21427973
96	0x3db3951c	0.08768675
97	0xbe405a4d	-0.18784447
98	0x3e98fd94	0.29880965
99	0xbd7f77ee	-0.062370233
100	0xbe5e76ab	-0.21724956
101	0xbd1dc500	-0.038517952
102	0x3e70fcb7	0.23533903
103	0xbe342b3a	-0.17594615
104	0xbdb76bec	-0.08956131
105	0xbe56de65	-0.20983274
106	0x3d33b900	0.0438776
107	0xbcd04efd	-0.02542829
108	0xbe97f2a2	-0.29677302
109	0xbb59b89b	-0.0033221606
110	0xbe180594	-0.14845878
111	0x3dbd7e18	0.09252566
112	0x3dab19ca	0.08354528
113	0x3dcca7e1	0.09992958
114	0xbd7e5091	-0.062088553
115	0x3d9a2a29	0.07527573
116	0x3e7e0ee2	0.24810365
117	0xbe85522d	-0.26039258
118	0xbda5940b	-0.080848776
119	0xbe30c975	-0.1726435
120	0x3e22ade6	0.1588665
121	0x3e83c969	0.257396
122	0x3e5c783e	0.21530244
123	0xbd342ae8	-0.04398623
124	0xbb8b1eec	-0.0042456295
125	0xbd84f012	-0.06491102
126	0xbd9eba84	-0.07750419
127	0x3e80fe5e	0.25194067
128	0xbe8c8cc2	-0.2745114
129	0xbe97537f	-0.2955589
130	0x3e2e32a4	0.17011505
131	0xbd736371	-0.059421007
132	0x3e993f31	0.29931024
133	0x3df9afb7	0.12191718
134	0x3d69f842	0.057121523
135	0xbe685971	-0.22690369
136	0xbe87803e	-0.2646503
137	0x3dd54def	0.10415255
138	0xbd5be78e	-0.053687625
139	0x3dc712b3	0.097203635
140	0x3e66619b	0.22498171
141	0xbdab0d9d	-0.08352206
142	0xbe2712bf	-0.16315745
143	0xbe2706c4	-0.16311175
144	0xbda8f9a6	-0.08250742
145	0x3dbc9bd5	0.0920941
146	0x3e3cb9ad	0.18430205
147	0x3e8d3adf	0.27583978
148	0x3e6d229e	0.23157737
149	0x3e1ce0a2	0.15320066
150	0xbddbe7a0	-0.10737538
151	0xbe0436d6	-0.12911543
152	0x3e671947	0.22568236
153	0x3c8ba4a7	0.017046286
154	0xbc9bd797	-0.0190237
155	0x3dde4c54	0.10854402
156	0x3e791748	0.24325287
157	0x3ddc9434	0.10770455
158	0x3e703d3d	0.2346086
159	0x3b488d0a	0.0030601644
160	0x3d1f9687	0.038961913
161	0x3e0340e2	0.1281772
162	0x3cd03315	0.025414983
163	0xbe95a572	-0.29227787
164	0xbe9ba1b3	-0.30396804
165	0x3e05da91	0.13071658
166	0x3ccd85ac	0.025088154
167	0xbddaa32b	-0.10675653
168	0x3d2ecc68	0.042675406
169	0x3e15b368	0.1461922
170	0xbcd6273e	-0.026141759
171	0x3d634855	0.055488903
172	0xbe0efe23	-0.13964133
173	0x3de1cd49	0.11025483
174	0xbe1976a0	-0.14986658
175	0xbe8e55fe	-0.27799982
176	0xbe97dd4d	-0.29661027
177	0x3d0b56dd	0.034018386
178	0x3e131e69	0.1436707
179	0xbe1c85d1	-0.15285422
180	0x3dc754d3	0.09732976
181	0xbe34d584	-0.17659575
182	0xbe092c52	-0.13395813
183	0xbe74851c	-0.23878902
184	0x3cc5c5d4	0.024142183
185	0xbe95ee17	-0.2928321
186	0xbe5b70ab	-0.21429698
187	0x3d9536d9	0.07285852
188	0x3e93c393	0.2886015
189	0xbe2ffd32	-0.1718643
190	0x3e8de823	0.2771617
191	0xbe9c50ef	-0.30530497
192	0x3d9a67ce	0.075393304
193	0xbe52ffb0	-0.2060535
194	0x3d35c58c	0.04437785
195	0xbd24453b	-0.040105086
196	0x3e6c90fb	0.2310218
197	0xbc868c5a	-0.016424347
198	0x3e802a3f	0.2503223
199	0xbd3840e2	-0.044983752
200	0xbe22da1e	-0.15903518
201	0xbe72ad59	-0.2369894
202	0x3d8f0ed0	0.06985247
203	0x3e841ea8	0.2580464
204	0xbe827457	-0.25479385
205	0xbd5cd91b	-0.053917985
206	0xbd10ae43	-0.03532244
207	0xbe24decd	-0.16100617
208	0x3da4d7ad	0.080489494
209	0xbce3c2ab	-0.027802786
210	0xbe788c1e	-0.242722
211	0xbe9ccdd5	-0.30625787
212	0x3e0e10eb	0.13873641
213	0x3e9a8fc5	0.30187812
214	0x3e8ee622	0.27909952
215	0xbe97587e	-0.29559702
216	0x3e391131	0.18072964
217	0xbe8bb05c	-0.2728299
218	0x3d8591f9	0.06521983
219	0xbd89623c	-0.0670819
220	0xbdbaa8d6	-0.09114234
221	0xbe0510f8	-0.12994754
222	0xbce7e94a	-0.028309483
223	0x3e0e947c	0.1392383
224	0xbc3869a1	-0.011255653
225	0x3e63701a	0.22210732
226	0x3d065d85	0.03280403
227	0x3c9ea7d9	0.019367145
228	0xbe94e4e0	-0.29080868
229	0x3e195a1a	0.14975777
230	0xbe39a4c7	-0.18129264
231	0x3e925e4b	0.28587565
232	0x3e37064b	0.17873494
233	0xbb3fb6f0	-0.0029253326
234	0xbe3e1761	-0.18563606
235	0x3dc0378a	0.09385593
236	0xbda646b8	-0.08118957
237	0x3e031146	0.12799558
238	0x3e69ab50	0.22819257
239	0xbd9a427e	-0.07532214
240	0x3e061f02	0.13097766
241	0xbc223200	-0.009899616
242	0xbdf76d76	-0.12081425
243	0xbe2dcb10	-0.16971993
244	0x3e7e15d0	0.24813008
245	0xbe6aa73b	-0.22915356
246	0xbe29a3b2	-0.16566351
247	0x3e2615b3	0.16219215
248	0x3e2a333a	0.16621104
249	0x3da8b78f	0.08238136
250	0xbe940a94	-0.2891432
251	0xbdd05ae6	-0.101735875
252	0x3e2a8bc5	0.1665488
253	0x3e0ebd9a	0.13939515
254	0x3d9cb711	0.07652105
255	0xbe93ec97	-0.2889144

bias f4 [32]
0	0xba4b1076	-0.00077462883
1	0xba1ea3c1	-0.0006051623
2	0x3a857dda	0.0010184601
3	0xb9bca823	-0.00035983426
4	0xba2b0309	-0.00065235846
5	0x3a8639f0	0.0010240655
6	0x3a21f6dc	0.00061784475
7	0x3a865f10	0.001025172
8	0xb9613b0c	-0.00021479669
9	0xba653ae2	-0.0008744431
10	0xba8bf886	-0.0010678924
11	0xb9acd593	-0.00032965522
12	0xb9e25aff	-0.00043173876
13	0x3a88c82f	0.0010435636
14	0xba7c7da8	-0.00096317613
15	0x3a8a1a11	0.0010536333
16	0x3a8d099e	0.0010760312
17	0xba856aa8	-0.0010178881
18	0xba3c6050	-0.00071859825
19	0x3a1500ee	0.00056840375
20	0x3a56ccda	0.00081939774
21	0xba843ae1	-0.0010088348
22	0xba6cdfaa	-0.0009036014
23	0x3a8696c3	0.0010268319
24	0x3a4c543f	0.0007794536
25	0x3a0bde15	0.0005335522
26	0x3a7f7c23	0.0009745976
27	0xba4e8fc8	-0.00078797014
28	0xba8a8692	-0.001056867
29	0x39c14fcd	0.00036871285
30	0xb999c529	-0.0002932933
31	0xba8a8339	-0.0010567672

in_proj_weight f4 [96, 32]
0	0x3e463417	0.19355808
1	0x3ddbb102	0.10727121
2	0xbd834a8a	-0.064107016
3	0xbe1e5621	-0.15462543
4	0x3e219a2d	0.1578147
5	0xbd294388	-0.04132417
6	0xbd9fe4a0	-0.07807279
7	0xbe2e43b4	-0.17018014
8	0x3e503287	0.20331775
9	0x3d68d6a4	0.056845322
10	0x3e3ae039	0.18249597
11	0x3e58aa6b	0.2115876
12	0x3d3ef5ec	0.046621248
13	0xbe05040d	-0.12989827
14	0x3e4ad3ff	0.19807433
15	0xbe17eefc	-0.14837259
16	0x3e07e5fd	0.13271327
17	0x3e0f6c77	0.1400622
18	0x3d93fb42	0.07225658
19	0x3d7f8334	0.062380984
20	0x3e0739e3	0.13205676
21	0xbd62b180	-0.05534506
22	0xbddbf583	-0.10740187
23	0xbc9ab9a0	-0.018887341
24	0x3de54dfa	0.111965135
25	0xbd45159c	-0.04811631
26	0xbe096c60	-0.13420248
27	0xbe196bca	-0.14982525
28	0x3d32136c	0.043475553
29	0xbd933f9c	-0.07189867
30	0xbe22abb8	-0.15885818
31	0xbcaebd48	-0.02133049
32	0xbe16c5c7	-0.14723884
33	0x3dbd5d52	0.09246315
34	0xbe132952	-0.14371231
35	0x3de9a90a	0.11409195
36	0xbe009dba	-0.12560168
37	0x3e1816f3	0.14852504
38	0xbe454690	-0.19265199
39	0xbc545dd0	-0.01296182
40	0x3d37940c	0.044818923
41	0xbe2be2a2	-0.16785672
42	0x3d8f4176	0.069949076
43	0xbd12f1f4	-0.035875276
44	0x3df50592	0.11963953
45	0xbdf37064	-0.11886671
46	0x3dd181ca	0.102298334
47	0xbd8ad666	-0.067791745
48	0xbe247b63	-0.16062693
49	0xbe202900	-0.1564064
50	0x3dd7867a	0.10523696
51	0x3d52762c	0.05138223
52	0x3dbc9e62	0.092098966
53	0x3ca91908	0.020641819
54	0xbe2565b8	-0.16152084
55	0xbb83b720	-0.004019633
56	0xbd928648	-0.07154518
57	0x3e09f825	0.13473566
58	0x3d94c006	0.07263188
59	0x3dea3cb6	0.11437361
60	0xbe0a8dfa	-0.13530722
61	0xbdee6bcb	-0.116416536
62	0xbe1115c9	-0.14168467
63	0x3db97f02	0.09057428
64	0x3e00b241	0.12567998
65	0x3ccb33c0	0.02480495
66	0x3e2dcc29	0.16972412
67	0x3e0b0f85	0.13580139
68	0x3d0fc3ac	0.035098717
69	0xbc2881d0	-0.010284856
70	0x3da154c6	0.078774974
71	0xbe45ed02	-0.19328693
72	0xbdee48f3	-0.11635008
73	0x3df8d44e	0.12149869
74	0xbe39a632	-0.18129805
75	0xbd73b28c	-0.059496447
76	0x3e5047ff	0.20339964
77	0x3e428d55	0.18999226
78	0x3e4d99c1	0.20078184
79	0xbe3eb481	-0.18623544
80	0xbdf63dec	-0.120235294
81	0xbe03a0f2	-0.12854365
82	0x3d13f3ac	0.036121055
83	0x3ddd1b42	0.10796215
84	0x3dd3f0d2	0.10348667
85	0x3e18e4f5	0.1493109
86	0x3e4e175b	0.20126097
87	0xbe4b8688	-0.19875538
88	0x3e004627	0.12526761
89	0x3e3f25fd	0.18666835
90	0xbd5e4510	-0.054265082
91	0x3e478503	0.19484334
92	0x3e3f6711	0.1869166
93	0x3a450200	0.00075152516
94	0xbd4feaa8	-0.050760895
95	0xbe4bee11	-0.19915034
96	0x3cf63ba8	0.030057743
97	0x3e4bb80d	0.19894429
98	0xbc0a5cc0	-0.008444965
99	0x3e44b1d5	0.19208463
100	0xbd8d93b8	-0.06912941
101	0xbe19d3bd	-0.15022178
102	0xbde642c0	-0.112432
103	0xbcae3d20	-0.021269381
104	0xbd3f09ec	-0.04664032
105	0xbe3a6e9e	-0.1820626
106	0xbdc28f38	-0.09499973
107	0xbcfa4230	-0.030549139
108	0xbdb3350c	-0.08750352
109	0xbe2ca73b	-0.16860668
110	0xbc7261c0	-0.014793813
111	0x3d268f6c	0.04066412
112	0x3e2ec94d	0.17068978
113	0x3cb65c80	0.022260904
114	0x3cd69ad0	0.026196867
115	0x3c66bef0	0.014083609
116	0x3e25090f	0.16116737
117	0x3ca14ee8	0.019690946
118	0xbe3f4dd5	-0.18682034
119	0xbd690ae4	-0.05689515
120	0x3e50669b	0.20351641
121	0x3e5ab713	0.213589
122	0x3e1f4853	0.15554933
123	0xbe2f5a11	-0.17124201
124	0xbd620230	-0.055177867
125	0x3e125d11	0.14293315
126	0xbd9bf902	-0.07615854
127	0x3cc6b9f8	0.024258599
128	0x3e1d76a9	0.15377297
129	0xbc894f18	-0.016761348
130	0xbc95ba90	-0.018277436
131	0xbd9c2278	-0.07623762
132	0x3d0170b4	0.031601623
133	0x3d19cf24	0.03755106
134	0xbe4227ec	-0.18960541
135	0xbe27cb4e	-0.16386148
136	0x3e0cf2bd	0.13764472
137	0x3e166653	0.14687471
138	0xbdbf6402	-0.09345247
139	0x3e426d53	0.18987016
140	0x3e1091b7	0.14118086
141	0x3dc40442	0.095711246
142	0xbe240016	-0.16015658
143	0x3e2c187f	0.1680622
144	0xbc56f2f0	-0.013119444
145	0x3c978380	0.018495321
146	0xbe42f3f8	-0.19038379
147	0xbe17e2c8	-0.14832604
148	0xbe3e294a	-0.18570438
149	0x3e15348d	0.14570828
150	0xbe02be0a	-0.12767807
151	0x3e04ca6d	0.12967844
152	0x3cb74d88	0.022375837
153	0x3e4972cb	0.19672696
154	0xbdfcdce8	-0.12346822
155	0x3e25a393	0.1617568
156	0x3e1aaee9	0.15105785
157	0xbda8e636	-0.08247034
158	0x3b275cc0	0.002553746
159	0x3d30b5b4	0.043142036
160	0xbe1f9968	-0.15585864
161	0xbe06fe45	-0.13182934
162	0xbdf1dc3a	-0.11809583
163	0xbdb00f52	-0.08596672
164	0xbd945b70	-0.07244003
165	0x3c7332e0	0.0148436725
166	0xbd26d594	-0.040731028
167	0x3e27b9eb	0.16379516
168	0x3df6d872	0.120530024
169	0xbce523d8	-0.027971193
170	0xbd213b50	-0.039363205
171	0x3d072928	0.032998234
172	0xbe57f032	-0.21087721
173	0xbda8b1b6	-0.08237021
174	0xbc6dfce0	-0.014525622
175	0x3d27e69c	0.04099141
176	0xbe0f6497	-0.14003216
177	0xbc64b930	-0.013960168
178	0x3c53d820	0.012929946
179	0xbcdb7cd0	-0.026792914
180	0xbe4b4898	-0.19851911
181	0xbdca1b78	-0.098685205
182	0xbd4413c0	-0.047870398
183	0x3cc2f550	0.023798615
184	0x3d63a3e4	0.05557622
185	0x3cf8c0d8	0.030365393
186	0xbd4d23ac	-0.050082847
187	0xbc821fa8	-0.015884236
188	0x3b181e40	0.002321139
189	0x3d237034	0.039901927
190	0xbda49360	-0.08035922
191	0x3e2f611b	0.17126887
192	0x3e3f4207	0.18677531
193	0x3e58d20f	0.21173881
194	0x3da7bc9e	0.08190273
195	0x3e0e797b	0.13913529
196	0xbc916ee8	-0.01775308
197	0x3e039927	0.12851392
198	0xbe47151a	-0.19441643
199	0x3b147a40	0.0022655874
200	0xbdc31b79	-0.09526724
201	0xbe2940a3	-0.16528563
202	0xbe22315d	-0.15839143
203	0x3cf5e658	0.030017063
204	0xbdd76661	-0.10517574
205	0xbdc66112	-0.096864834
206	0xbdb591b2	-0.0886568
207	0x3cc2e3f0	0.02379033
208	0xbd36911c	-0.04457198
209	0xbe41a6f8	-0.1891135
210	0x3e3f5c0d	0.18687458
211	0x3e25f519	0.16206779
212	0xbc995000	-0.018714905
213	0x3cda4160	0.026642501
214	0x3cb61cf8	0.02223061
215	0x3b66e840	0.0035233647
216	0xbe3e2d22	-0.18571904
217	0x3da1c616	0.0789911
218	0x3e2f1269	0.17096867
219	0xbcf14d48	-0.029455796
220	0xbe3ad55c	-0.18245453
221	0xbd7311e8	-0.05934325
222	0x3e5148d3	0.20437936
223	0xbe4ecc56	-0.20195135
224	0xbe39ffbc	-0.18163961
225	0x3d9348b2	0.071916
226	0x3d9d50e2	0.07681443
227	0x3c9a2d00	0.018820286
228	0x3d0fce0c	0.03510861
229	0xbd908664	-0.07056883
230	0x3e3fa1d3	0.18714075
231	0xbe5a4715	-0.21316178
232	0x3cccfc48	0.02502264
233	0x3d8580a2	0.065186754
234	0xbddf802c	-0.10913119
235	0x3d225694	0.03963335
236	0x3e3de079	0.18542661
237	0xbc583170	-0.013195381
238	0x3c51a310	0.012795225
239	0x3dc27cce	0.09496461
240	0x3dc02df6	0.09383766
241	0xbdf83d75	-0.12121097
242	0x3db5176e	0.088423595
243	0xbe01e448	-0.12684739
244	0x3e5d93df	0.2163844
245	0xbe5af48f	-0.21382354
246	0x3e49fadb	0.197246
247	0x3db1bd06	0.086786315
248	0xbdc234ec	-0.0948275
249	0xbdcf2dca	-0.101161554
250	0xbc06a710	-0.008218542
251	0x3c4a2a90	0.012339249
252	0x3e58737f	0.21137808
253	0x3ddc4a12	0.10756315
254	0xbc31c530	-0.010850236
255	0x3da1310a	0.078706816

in_proj_bias f4 [96]
0	0x00000000	0.0
1	0x00000000	0.0
2	0x00000000	0.0
3	0x00000000	0.0
4	0x00000000	0.0
5	0x00000000	0.0
6	0x00000000	0.0
7	0x00000000	0.0
8	0x00000000	0.0
9	0x00000000	0.0
10	0x00000000	0.0
11	0x00000000	0.0
12	0x00000000	0.0
13	0x00000000	0.0
14	0x00000000	0.0
15	0x00000000	0.0
16	0x00000000	0.0
17	0x00000000	0.0
18	0x00000000	0.0
19	0x00000000	0.0
20	0x00000000	0.0
21	0x00000000	0.0
22	0x00000000	0.0
23	0x00000000	0.0
24	0x00000000	0.0
25	0x00000000	0.0
26	0x00000000	0.0
27	0x00000000	0.0
28	0x00000000	0.0
29	0x00000000	0.0
30	0x00000000	0.0
31	0x00000000	0.0
32	0x00000000	0.0
33	0x00000000	0.0
34	0x00000000	0.0
35	0x00000000	0.0
36	0x00000000	0.0
37	0x00000000	0.0
38	0x00000000	0.0
39	0x00000000	0.0
40	0x00000000	0.0
41	0x00000000	0.0
42	0x00000000	0.0
43	0x00000000	0.0
44	0x00000000	0.0
45	0x00000000	0.0
46	0x00000000	0.0
47	0x00000000	0.0
48	0x00000000	0.0
49	0x00000000	0.0
50	0x00000000	0.0
51	0x00000000	0.0
52	0x00000000	0.0
53	0x00000000	0.0
54	0x00000000	0.0
55	0x00000000	0.0
56	0x00000000	0.0
57	0x00000000	0.0
58	0x00000000	0.0
59	0x00000000	0.0
60	0x00000000	0.0
61	0x00000000	0.0
62	0x00000000	0.0
63	0x00000000	0.0
64	0x00000000	0.0
65	0x00000000	0.0
66	0x00000000	0.0
67	0x00000000	0.0
68	0x00000000	0.0
69	0x00000000	0.0
70	0x00000000	0.0
71	0x00000000	0.0
72	0x00000000	0.0
73	0x00000000	0.0
74	0x00000000	0.0
75	0x00000000	0.0
76	0x00000000	0.0
77	0x00000000	0.0
78	0x00000000	0.0
79	0x00000000	0.0
80	0x00000000	0.0
81	0x00000000	0.0
82	0x00000000	0.0
83	0x00000000	0.0
84	0x00000000	0.0
85	0x00000000	0.0
86	0x00000000	0.0
87	0x00000000	0.0
88	0x00000000	0.0
89	0x00000000	0.0
90	0x00000000	0.0
91	0x00000000	0.0
92	0x00000000	0.0
93	0x00000000	0.0
94	0x00000000	0.0
95	0x00000000	0.0

weight f4 [32, 32]
0	0xbdf0085c	-0.117203444
1	0xbe5387cd	-0.20657273
2	0x3e03ac78	0.1285876
3	0x3e75d14e	0.24005625
4	0xbe41c716	-0.18923602
5	0x3de6f684	0.11277488
6	0xbe1ada89	-0.15122427
7	0x3e82b5b5	0.25529256
8	0x3e00bbc2	0.12571624
9	0x3e5a6c32	0.21330336
10	0x3e9b37f5	0.3031613
11	0x3d412f00	0.047163963
12	0x3d541240	0.051775217
13	0xbe84c524	-0.25931656
14	0x3e9bd65f	0.3043699
15	0x3e88f853	0.26751956
16	0x3e10a634	0.14125901
17	0xbdfd3726	-0.12364034
18	0x3e67ca52	0.22635773
19	0xbd84cc6e	-0.06484304
20	0xbe2f6207	-0.17127238
21	0xbd96463c	-0.07337615
22	0xbe2560c3	-0.16150193
23	0x3e3ba9ca	0.18326488
24	0xbbc08540	-0.0058752596
25	0xbe7914e8	-0.24324381
26	0xbe5011fc	-0.2031936
27	0x3e57c056	0.21069464
28	0x3c5f69e0	0.013636082
29	0x3e9b7cc7	0.30368635
30	0x3e19e81a	0.15029946
31	0x3e8b644f	0.27224967
32	0xbe813edf	-0.2524328
33	0xbe7a6058	-0.24450815
34	0xbd0031a8	-0.031297356
35	0x3d4441c0	0.047914267
36	0xbe4eaa77	-0.20182215
37	0x3e875cd7	0.2643802
38	0x3d8dbfec	0.06921372
39	0xbda5f640	-0.08103609
40	0xbd724240	-0.059145212
41	0x3dd79fc0	0.10528517
42	0xbe8cf8b2	-0.2753349
43	0x3e79343e	0.24336335
44	0xbdfcf908	-0.123521864
45	0x3d5ae498	0.05344066
46	0xbddae5c4	-0.106883556
47	0x3e094972	0.13406923
48	0xbe1cd00a	-0.15313736
49	0xbcea18a0	-0.028576195
50	0xbdf6f4aa	-0.12058385
51	0x3e4d15d6	0.20027861
52	0x3cb863f0	0.022508591
53	0x3e3768ca	0.17911068
54	0xbcba6790	-0.02275446
55	0x3df50f1c	0.119657725
56	0xbe993d56	-0.29929608
57	0xbd0e2290	-0.03470093
58	0x3e8d3521	0.27579597
59	0xbe59e076	-0.21277031
60	0xbe11220b	-0.14173143
61	0xbe95f1f7	-0.29286167
62	0xbe1505cd	-0.14552994
63	0x3e450312	0.19239452
64	0x3bd86940	0.0066043437
65	0xbe3009c3	-0.17191224
66	0x3dc89fe4	0.09796122
67	0x3e126ae8	0.14298594
68	0x3e8f33b9	0.2796915
69	0x3e375924	0.17905098
70	0xbddcb73a	-0.10777135
71	0x3dc840d0	0.09777987
72	0xbe1eb72c	-0.15499562
73	0xbe785bf2	-0.24253824
74	0x3e473c22	0.19456533
75	0xbe72a642	-0.23696235
76	0x3e02b9da	0.12766209
77	0xbe11a453	-0.14222841
78	0x3e04f506	0.12984094
79	0xbe287a61	-0.16452934
80	0x3db1716c	0.08664212
81	0x3dfdfc38	0.124016225
82	0xbe972e0b	-0.29527315
83	0xbc95e4e0	-0.018297613
84	0x3d8f8568	0.07007867
85	0xbc2eea00	-0.010675907
86	0xbe5867f8	-0.21133411
87	0x3e28a242	0.16468146
88	0xbe952a50	-0.29133844
89	0x3c2fcc20	0.01072982
90	0x3d734060	0.059387565
91	0xbddfd718	-0.10929698
92	0x3e1ff812	0.15621975
93	0x3e23a7f4	0.15982038
94	0xbd27b9e0	-0.04094875
95	0x3e0ccbba	0.1374959
96	0xbd607b78	-0.05480525
97	0xbe8cd8fd	-0.275093
98	0xbe584464	-0.21119839
99	0x3e19eb6a	0.1503121
100	0xbe680ec0	-0.22661877
101	0xbd8e8450	-0.0695883
102	0x3d2e1410	0.0424996
103	0x3c278da0	0.010226637
104	0xbe8524f5	-0.26004758
105	0xbe90c5a2	-0.28275782
106	0x3dad7e04	0.08471301
107	0x3e8a8761	0.2705641
108	0xbe6110f5	-0.21979125
109	0xbe0cdbfc	-0.13755792
110	0x3dbf6564	0.093455106
111	0xbe839d5b	-0.2570599
112	0x3e82653b	0.25467858
113	0xbe6aeb85	-0.22941406
114	0xbdeb607a	-0.11493011
115	0xbe00c433	-0.12574844
116	0x3e729caa	0.23692575
117	0xbd1edf30	-0.038787067
118	0x3d2739c8	0.04082659
119	0xbd2e85c8	-0.042608052
120	0xbe2f89a4	-0.1714235
121	0x3e46b56e	0.19405147
122	0x3dfacdc8	0.12246281
123	0xbd227b28	-0.039668232
124	0x3e3d13b6	0.1846455
125	0x3e5a6f52	0.21331528
126	0xbdb4c6b6	-0.088269636
127	0xbd86a8dc	-0.06575176
128	0xbe68c088	-0.22729695
129	0x3e330e5e	0.1748595
130	0xbe8f0a46	-0.27937526
131	0x3d8dd78c	0.06925878
132	0x3e18b468	0.1491257
133	0x3d5991d8	0.053117603
134	0x3df0290c	0.11726579
135	0x3c22dea0	0.009940773
136	0x3e4e2bae	0.2013385
137	0xbd5205e0	-0.051275134
138	0x3cf35b50	0.029706627
139	0xbdad33c4	-0.08457139
140	0x3e86e5ff	0.26347348
141	0x3caa4f30	0.020789713
142	0x3e3087ac	0.17239255
143	0x3d426c98	0.047466844
144	0xbe29e64f	-0.16591762
145	0x3dd31284	0.10306266
146	0x3d9428a4	0.07234314
147	0xbe8d41a5	-0.27589145
148	0x3dfebfa0	0.12438893
149	0xbd03f060	-0.03221166
150	0xbe2c1413	-0.16804533
151	0xbdc58c48	-0.09645897
152	0x3e6c4d26	0.23076305
153	0x3e0d2d0a	0.13786712
154	0xbe907de6	-0.28221053
155	0x3e83eba5	0.2576572
156	0xbe81b033	-0.25329742
157	0xbe50bd1d	-0.20384641
158	0xbd48bba0	-0.04900706
159	0xbe81995c	-0.25312316
160	0xbdc3b262	-0.09555508
161	0x3e6abdb6	0.22923931
162	0xbe4306bf	-0.19045542
163	0xbc8acb60	-0.01694268
164	0x3e3e270a	0.1856958
165	0xbe348b76	-0.17631325
166	0xbe8ecbca	-0.27889854
167	0x3e835c6d	0.25656453
168	0xbd0f63e0	-0.035007358
169	0xbdbf13f8	-0.093299806
170	0xbe1902f8	-0.14942539
171	0x3e7c18ca	0.24618831
172	0x3e3d2d9e	0.18474433
173	0xbe915522	-0.28385264
174	0xbd5d20a0	-0.05398619
175	0x3e861fdf	0.2619619
176	0x3c3c8580	0.011506438
177	0x3d53bd68	0.051694304
178	0x3d0111b8	0.03151104
179	0xbe9aa1a9	-0.30201462
180	0x3e1906c2	0.14943984
181	0x3daccac4	0.08437112
182	0xbd49ee00	-0.04929924
183	0xbb9f3780	-0.004858911
184	0x3e1feae6	0.1561695
185	0xbca9ba80	-0.020718813
186	0xbdd94a22	-0.10609843
187	0x3deac008	0.11462408
188	0x3e880145	0.2656347
189	0xbc9f9470	-0.01947996
190	0xbcaf2a10	-0.021382362
191	0x3e43b8ac	0.19113415
192	0x3d75b308	0.05998519
193	0x3d80f2e0	0.06296325
194	0x3da57234	0.08078423
195	0x3c172640	0.009225428
196	0xbd84c2ce	-0.064824685
197	0x3e856ab7	0.2605798
198	0xbda22702	-0.079175964
199	0x3e21e3a6	0.15809497
200	0xbcbec380	-0.023286581
201	0xbe876706	-0.26445788
202	0xbc77d2c0	-0.01512593
203	0xbd9e03a0	-0.07715535
204	0xbda535a4	-0.08066872
205	0x3e8c2871	0.27374604
206	0xbe0e8fbe	-0.13922021
207	0x3e0e61d4	0.13904506
208	0x3da0097c	0.07814309
209	0x3e4923ea	0.19642606
210	0xbdb4f2d6	-0.0883538
211	0xbe2057f0	-0.15658545
212	0x3d018b38	0.03162691
213	0x3d8fd44c	0.07022914
214	0xbe979c4c	-0.29611433
215	0x3e1fff22	0.15624669
216	0xbe998118	-0.29981303
217	0x3c925590	0.017863065
218	0xbd09f3b8	-0.033679694
219	0xbe05a527	-0.13051282
220	0x3e978521	0.29593757
221	0x3d133cd0	0.035946667
222	0x3e9bff75	0.30468336
223	0x3d6448b8	0.055733413
224	0x3e42fd5e	0.19041964
225	0xbd6e4e50	-0.058180153
226	0x3e8bc509	0.27298763
227	0x3e420dd8	0.18950593
228	0xbe4005ce	-0.18752214
229	0x3e93b8e9	0.28852013
230	0xbe7f98fc	-0.24960703
231	0xbe37b015	-0.17938264
232	0x3e70f08a	0.23529258
233	0xbe4f9e9a	-0.20275345
234	0xbe818cf5	-0.25302854
235	0x3d096e88	0.033552676
236	0xbd41b250	-0.047289193
237	0x3da42a90	0.08015931
238	0x3e8660f7	0.26245853
239	0xbe5ef96e	-0.21774837
240	0x3cbb8060	0.022888362
241	0x3e0a8240	0.13526249
242	0xbe0f500a	-0.13995376
243	0xbe633388	-0.22187626
244	0xbe7fcf9c	-0.2498154
245	0xbe90dd64	-0.28293908
246	0x3d8bf964	0.06834677
247	0x3dd471ec	0.103732914
248	0xbdcc0198	-0.099612415
249	0xbdc06e92	-0.093960896
250	0x3e44d790	0.19222856
251	0xbe2b8a43	-0.16751961
252	0x3e27f8a4	0.16403443
253	0xbdecdeb0	-0.11565912
254	0xbe29c4dc	-0.16579002
255	0xbe73b282	-0.23798564

bias f4 [32]
0	0x00000000	0.0
1	0x00000000	0.0
2	0x00000000	0.0
3	0x00000000	0.0
4	0x00000000	0.0
5	0x00000000	0.0
6	0x00000000	0.0
7	0x00000000	0.0
8	0x00000000	0.0
9	0x00000000	0.0
10	0x00000000	0.0
11	0x00000000	0.0
12	0x00000000	0.0
13	0x00000000	0.0
14	0x00000000	0.0
15	0x00000000	0.0
16	0x00000000	0.0
17	0x00000000	0.0
18	0x00000000	0.0
19	0x00000000	0.0
20	0x00000000	0.0
21	0x00000000	0.0
22	0x00000000	0.0
23	0x00000000	0.0
24	0x00000000	0.0
25	0x00000000	0.0
26	0x00000000	0.0
27	0x00000000	0.0
28	0x00000000	0.0
29	0x00000000	0.0
30	0x00000000	0.0
31	0x00000000	0.0

in_proj_weight f4 [96, 32]
0	0x3e15e0b5	0.146365
1	0xbd4915b8	-0.04909298
2	0xbe4553ca	-0.19270244
3	0x3d3dd4bc	0.046345457
4	0x3d3f807c	0.04675339
5	0x3e01ae2b	0.12664096
6	0x3ce19bf0	0.027540177
7	0xbc37c0e0	-0.011215419
8	0x3e598175	0.2124079
9	0xbe5d24b2	-0.2159603
10	0xbe372f8f	-0.17889236
11	0xbd4d9a80	-0.05019617
12	0xbe5c86ff	-0.21535872
13	0x3e124ae1	0.14286377
14	0x3e216c27	0.15763913
15	0xbe125bd3	-0.1429284
16	0xbdc26fbe	-0.094939694
17	0x3df73a42	0.12071659
18	0xbe075fb6	-0.13220105
19	0x3dc6c862	0.09706189
20	0xbdba0294	-0.09082523
21	0x3ded9b26	0.11601858
22	0xbe5b01e0	-0.21387434
23	0xbe24c008	-0.16088879
24	0x3d1dbb54	0.03850873
25	0x3e262991	0.16226794
26	0xbe093436	-0.13398823
27	0xbdb0ccb4	-0.08632794
28	0x3e362089	0.17785849
29	0x3d0c3afc	0.03423594
30	0xbe3de918	-0.1854595
31	0x3d452ebc	0.048140272
32	0x3e2b8dab	0.16753261
33	0x3c1efe40	0.009704173
34	0x3da8ed82	0.08248426
35	0x3e276ba9	0.16349663
36	0x3e013477	0.1261767
37	0x3db862e2	0.090032354
38	0x3d85cf0e	0.06533633
39	0xbdd14555	-0.10218302
40	0xbdebb506	-0.11509137
41	0x3dc7b332	0.09750976
42	0x3c4042f0	0.011734709
43	0xbe1ac17a	-0.15112868
44	0x3c9c34a8	0.019068077
45	0xbdc0bbee	-0.09410845
46	0xbe539436	-0.20662007
47	0xbe3197b7	-0.17343031
48	0x3e0e0d43	0.13872246
49	0x3c19fe90	0.009399071
50	0x3e067581	0.13130762
51	0xbe20e87a	-0.15713683
52	0xbe519df5	-0.20470412
53	0x3dc608ce	0.09669648
54	0x3e5c09e9	0.21488155
55	0xbe2b2ff0	-0.16717505
56	0xbc89bc60	-0.016813457
57	0xbe0ca5d0	-0.13735127
58	0xbd91249a	-0.07087059
59	0xbd91869c	-0.07105753
60	0x3da1fb02	0.07909204
61	0x3d7aec6c	0.061260626
62	0x3e34455f	0.17604588
63	0xbe5470fe	-0.20746228
64	0x3c24efb0	0.010066912
65	0xbe1a2796	-0.15054163
66	0x3dd854b6	0.10563032
67	0x3e460817	0.19339024
68	0xbe1e7818	-0.154755
69	0xbc2802d0	-0.010254577
70	0xbde8c241	-0.11365176
71	0xbe42f310	-0.19038033
72	0xbc9ff750	-0.019527107
73	0x3e39df75	0.18151648
74	0xbc965378	-0.018350348
75	0xbe15aa40	-0.14615726
76	0x3d1add14	0.037808493
77	0x3cd7b790	0.026332647
78	0xbc47ffe0	-0.012207001
79	0xbe158d07	-0.14604579
80	0x3e0900ff	0.13379286
81	0x3e07c8f9	0.13260259
82	0x3db42f6e	0.08798109
83	0xbde0122e	-0.109409675
84	0xbd6a624c	-0.05722265
85	0xbd44cdd8	-0.04804787
86	0xbe2089a6	-0.15677509
87	0x3ce37d98	0.027769849
88	0x3dcd5dfe	0.10027693
89	0x3dca381a	0.09873982
90	0x3dc876e6	0.09788303
91	0x3cc0db30	0.023542017
92	0x3c6ccba0	0.014452845
93	0xbdb2acac	-0.08724341
94	0x3e353931	0.17697598
95	0xbdf41669	-0.11918337
96	0xbe006bec	-0.12541169
97	0xbdf26184	-0.11835006
98	0xbddfbf8e	-0.10925208
99	0x3dbcf506	0.09226422
100	0x3e0637af	0.13107179
101	0x3e26ee5f	0.16301869
102	0x3de82cb6	0.11336653
103	0xbe32e8f2	-0.17471674
104	0xbe129a31	-0.14316632
105	0xbe1b337a	-0.15156356
106	0xbda76466	-0.08173446
107	0x3daedc82	0.08538152
108	0x3c893a38	0.016751394
109	0xbccf0fb0	-0.025276035
110	0xbda09440	-0.078407764
111	0xbdf5fd78	-0.12011236
112	0x3cc1aa28	0.023640707
113	0x3e08f763	0.1337562
114	0xbe2d8a10	-0.16947198
115	0xbdc27c8b	-0.09496411
116	0x3db84302	0.08997156
117	0xbdc12cda	-0.09432383
118	0xbd46f9ac	-0.04857795
119	0x3e59e0f9	0.21277227
120	0x3d886b1e	0.06661056
121	0xbe2f3753	-0.17110948
122	0x3e09744d	0.13423271
123	0xbe10f640	-0.14156437
124	0x3e0654ed	0.13118334
125	0xbdfbd943	-0.12297299
126	0x3dfc87da	0.12330599
127	0x3e25febb	0.16210453
128	0xbe59e54a	-0.21278873
129	0xbdc3d2d7	-0.09561699
130	0xbe47f22b	-0.19525973
131	0x3e59f25b	0.21283858
132	0x3e08962d	0.13338538
133	0x3e4d6bcd	0.20060654
134	0xbda140f0	-0.07873714
135	0xbe35960f	-0.17733024
136	0xbe29a65b	-0.16567366
137	0x3e176e07	0.14788066
138	0xbe41e9d2	-0.18936852
139	0x3df4591a	0.11931057
140	0xbd0e7a2c	-0.03478448
141	0xbe4ddac5	-0.20102985
142	0x3e054dab	0.13017909
143	0x3e0bae65	0.13640745
144	0x3e317749	0.1733066
145	0x3e4cb393	0.19990377
146	0x3e172d79	0.1476344
147	0x3cb85170	0.02249977
148	0xbe078e99	-0.1323799
149	0xbe4af3fa	-0.19819632
150	0xbd162824	-0.036659375
151	0xbda29a56	-0.079395935
152	0x3e531a09	0.206154
153	0xbccd1e60	-0.025038898
154	0xbe1ed91f	-0.15512513
155	0xbc9933a0	-0.018701375
156	0xbda001b4	-0.07812825
157	0xbe403e64	-0.187738
158	0xbd4e1800	-0.050315857
159	0x3e13ddb3	0.1444004
160	0xbe1394ca	-0.14412227
161	0xbcfbd490	-0.030741006
162	0x3e375cbb	0.17906468
163	0xbdc260f4	-0.094911486
164	0xbd7cdeac	-0.061735794
165	0x3e54a607	0.2076646
166	0xbdb7f4f6	-0.089822695
167	0x3e1d0e21	0.15337421
168	0xbe40d05e	-0.18829486
169	0xbe3bdc3d	-0.18345733
170	0x3d6799cc	0.056543157
171	0xbc9c47b8	-0.019077167
172	0x3d9dcf36	0.07705538
173	0x3de2d70e	0.11076175
174	0x3d0c5934	0.03426476
175	0x3e271a57	0.16318642
176	0xbe3d44f2	-0.18483332
177	0xbdf8f4f2	-0.121560946
178	0x3e2d8e7d	0.16948886
179	0x3cc17e28	0.023619726
180	0xbd09e9dc	-0.03367029
181	0x3e2d5e9d	0.16930623
182	0x3ba8f7a0	0.0051564723
183	0x3d1135c4	0.035451666
184	0x3d342554	0.04398091
185	0xbd3c6638	-0.04599592
186	0x3e226813	0.15860014
187	0x3df83ac2	0.12120582
188	0x3d2412bc	0.04005693
189	0xbe21ede7	-0.15813409
190	0xbd5b07d8	-0.053474277
191	0xbe576157	-0.21033226
192	0x3d3318a4	0.04372467
193	0x3d3226e4	0.04349412
194	0x3e4a0537	0.19728552
195	0xbe3fdcd0	-0.18736577
196	0x3e36d75b	0.17855589
197	0xbd8a39a2	-0.06749274
198	0x3e2b20b9	0.16711701
199	0x3e4d7a0d	0.2006609
200	0xbe5c39e7	-0.21506463
201	0xbc959388	-0.018258825
202	0xbdc03b1f	-0.093862765
203	0x3db09ec6	0.08624034
204	0x3e307c23	0.17234854
205	0xbcbad1f8	-0.022805199
206	0x3d0e4dfc	0.03474234
207	0xbcc64798	-0.02420406
208	0xbda0118c	-0.07815847
209	0x3e54c02b	0.20776431
210	0xbd67aca4	-0.056561127
211	0xbe532592	-0.206198
212	0x3e3332b1	0.17499806
213	0x3e58fd63	0.2119041
214	0xbe22ed6a	-0.15910879
215	0xbd8b4104	-0.0679951
216	0xbdf755dd	-0.12076924
217	0x3e219f13	0.15783338
218	0x3dca364e	0.09873639
219	0x3dcae57e	0.099070534
220	0x3e4f35b5	0.20235331
221	0x3d062d1c	0.032757863
222	0x3dfc8936	0.123308584
223	0xbe48f456	-0.19624457
224	0x3e183a2d	0.14865942
225	0xbe2f88ec	-0.17142075
226	0x3ce7d1f8	0.028298363
227	0xbe185be7	-0.14878808
228	0x3da35ec2	0.07977058
229	0x3e1b58c7	0.15170585
230	0x3c3237d0	0.010877565
231	0x3d0c8784	0.034308925
232	0xbe48ce06	-0.19609842
233	0x3db42b6e	0.08797346
234	0xbd677d9c	-0.056516275
235	0xbe2d36f1	-0.1691549
236	0xbe201e76	-0.1563662
237	0x3e0d203f	0.13781832
238	0x3d02ba6c	0.031916067
239	0x3e36ae4f	0.17839931
240	0x3e1645c9	0.14675058
241	0x3e19b55b	0.15010588
242	0x3e367417	0.17817722
243	0xbdd5545c	-0.10416481
244	0xbd9fbfc0	-0.07800245
245	0x3e11f2ab	0.14252727
246	0x3e1a4507	0.15065394
247	0xbe30fe02	-0.17284396
248	0x3d1da224	0.038484707
249	0x3daa8842	0.0832677
250	0x3d6f594c	0.05843477
251	0xbdcf45f9	-0.10120768
252	0x3d9deca6	0.07711153
253	0xbe328b79	-0.17436017
254	0x3e3ed15f	0.18634556
255	0xbd500f54	-0.050795868
