pre_trained_models/mosi_aligned_LA_TRANSLATOR.pt (torch, 114711 bytes, 25 tensors)

multi f4 [1, 32]
00000000: 504c d2be 247c c73c 46a7 613e f1ec 8dbe
00000010: 6f36 4ebd 4a5e 98be 82bf 2fbe c8c5 523e
00000020: 2025 b13d 5831 bbbd 29ef dcbe f3fe 90be
00000030: 60e1 303e f86f 0dbc 8ece c63e fdc6 ebbd
00000040: 7492 933d 87f1 06be f40e 593e f2d2 bd3d
00000050: 7ace bd3e a837 ce3d dc3e a13e e4a4 7c3e
00000060: c4e1 2abe 5652 9c3e 74fd cbbe ee32 b23e
00000070: 1d6d 16be 870b c73e 3584 1fbe 38bb cabd
-0.41073847 0.024351187 0.22036466 -0.27719834 -0.05034488 -0.29759437 -0.17162898 0.2058326
0.08649659 -0.09140271 -0.43151215 -0.2831951 0.17273474 -0.008632652 0.38829464 -0.115125634
0.07205668 -0.13178073 0.2119711 0.0926875 0.37071592 0.10069209 0.3149327 0.24672276
-0.16687685 0.30531567 -0.39841807 0.3480448 -0.14690061 0.38875982 -0.15577777 -0.098989904

weight f4 [50, 32]
00000000: ebae 8dbf 4e94 633d 0128 3bbf 3c40 823f
00000010: 710e d93f 0758 79be 5e1b 6dbf ac4f 00c0
00000020: 598e 0bbe c170 e8be 57d2 cd3f 1e69 f5bd
00000030: 6f27 d7bf 0212 a1bf d12c 2c3f 316c a33f
00000040: 455d 52bf ce5e 923d 3060 07bf 2752 09bc
00000050: 4dd9 46bf 0348 7fbc dee6 04bf 680e a23d
00000060: 0a06 d23f 06b9 d0bf c331 ebbf 3d05 4cbf
00000070: 8e97 123f daa7 d03d 6420 1a3f ba1c 0e3f
00000080: 9d0a 12bf c79e a93f 28a7 293f 8c12 81bd
00000090: db16 97bf 4e14 043f 7023 fabb 971f 943e
000000a0: d041 00bf b368 2d3f 6ecd 963f d0c8 34bf
000000b0: 5303 913f 5502 d8be 1c1a b93d a940 143e
000000c0: eed4 e33d 65da 0b3f 7f8d b63f 72b5 013e
000000d0: b31f bfbf cfe2 793f 1e6b 263e 3e73 9b3e
000000e0: 649a 183e 9898 ea3f d3eb 0a40 b3a4 2f40
000000f0: 6fa3 96bf efd6 d7bd a198 423f d7ab 0bbf
00000100: 940f acbd b59e 463f edaf ee3e b1ba 973f
00000110: d8c7 47bf af87 a6be f2a3 3cbd 0b53 1ac0
00000120: 4b07 ccbe 6675 cf3f 9e4d d2bf 374f cc3e
00000130: d53d 0a3f 5267 37bf 7b7f 99be 0b68 d9be
00000140: cc14 70bf 1cc3 8cbf 21a6 96bc 7dbd f93c
00000150: dba6 cfbe 760f 893e c241 f9bf 53fe af3f
00000160: 5dbe 0a3c 7965 d4be bd83 413f f29a 4dbf
00000170: 86e3 83bf d584 aa3e e99f debe b430 6abf
00000180: a487 43bf d463 fdbf c9d3 013f 3927 013f
00000190: ce02 ffbe b0e7 8a3f 27b1 853f 6437 463f
000001a0: 216d 93be 915b f0bf e324 92be 2d91 d4be
000001b0: 0bd0 31bf 9d8d 123e 2a10 b2bf db94 dcbe
000001c0: 1d0b c3be aaea 493f 140b 9bbf 4247 c7be
000001d0: 6ab7 353e 3b4f b13e 5a1a b43e 8d8d b8be
000001e0: abc2 9ebf ea05 94bf 3d06 683e 4011 efbd
000001f0: c312 56bf 67f6 a03f 4622 42bf 8b18 98bf
00000200: 9a41 85be 8f29 19bf 10d8 523f fd37 bcbf
00000210: 9f55 a93f c98d dcbf eaab c0be da20 dabd
00000220: 7a3f cfbf 37ef 0cbf e616 b4bf 7b14 19bf
00000230: 2c3b 76bf f50b 913f 62ff 3cc0 9d6b e73e
00000240: 99cc b9bf d812 d2bf 421e 1dbf 38cf 163f
00000250: 8b39 913f 5ac9 ad3c 3c07 8cbf 9bc9 a73e
00000260: 3dbc 05be 7f8f 7dbf ac2e 6cbf 1a3b 81bd
00000270: cf90 a43f eea4 9dbf 1b34 0e40 04d9 143f
00000280: 1605 1e3f 0857 c9bf e81c 04bf ce60 0f3f
00000290: 2730 62bf e1b4 afbf 7b80 753f e8da 2f3f
000002a0: 532b ba3f 7336 c3be 50bb 81bf 5028 ba3e
000002b0: 2eee ce3f 321d 863e 1479 5dbf 5c54 32bf
000002c0: 994b 0ac0 4d4a 993d 7142 84bf a64e 4b3c
000002d0: af47 da3f d45f 933e bd1a 0fbe b423 4c3e
000002e0: d5bd 8e3f 66cd 7bbf ed4f 913f a4f6 d93e
000002f0: 2a4c 60bf 6edd 03c0 6614 293f e644 dabd
00000300: 9428 8e3f 1745 51bf d41d 2fbe 0d98 adbf
00000310: 416a b03e 03da c93f 7178 293f 9d1c 0abf
00000320: ff85 73bf f7a9 fbbe c528 e9bf 39af afbf
00000330: cbb2 423f 0346 63bf 2742 a2bc fd88 bd3f
00000340: c052 533f 43cd 403e f121 213f 2ae0 26bd
00000350: f8f1 14c0 9cd6 05bf 6e28 38be 860b afbe
00000360: 8c82 1fc0 139d a83b f34c 003f 6bbf 28bd
00000370: ef2d cdbe 0857 a2be e315 87bf 4fd7 d3be
00000380: 9c60 1ebd abdf e43e 0779 12bf 68bd bfbf
00000390: 765c b1bd 1792 c6be 3409 4fbf 2083 08bb
000003a0: b27b c4be 275a 403f 32cf bf3f a2f9 01bf
000003b0: a9f9 ca3e 6339 bf3e 883b babf fd56 663f
000003c0: 11fb f3be d230 9d3f 00cd b13e 64ff 9ebe
000003d0: 303b d73e 24f9 a93f 154c 3e3f 7166 633f
000003e0: b704 10bf d927 c93f e2a8 e3bf 007f ec3d
000003f0: 96ae 97bf 40a8 0dbf 82fc e93d 5d30 fcbe
-1.1069006 0.055561356 -0.73107916 1.0175853 1.6957532 -0.24349986 -0.92619884 -2.0048628
-0.1362852 -0.45398524 1.6079816 -0.1198294 -1.6808909 -1.258362 0.67255884 1.2767392
-0.8217357 0.07146989 -0.52881145 -0.008381403 -0.77675325 -0.015581134 -0.51914775 0.07912904
1.6408093 -1.6306465 -1.8374561 -0.79695493 0.57262504 0.10188265 0.60205674 0.55512583
-0.57047445 1.325158 0.66270685 -0.06302366 -1.180385 0.5159348 -0.007633619 0.2893035
-0.5010042 0.67737883 1.1781442 -0.70618916 1.132914 -0.4218928 0.09038183 0.14477791
0.111245975 0.5463012 1.4261931 0.12666872 -1.4931549 0.9761171 0.162518 0.3036136
0.14902645 1.8327818 2.1706436 2.7444274 -1.1768626 -0.10539042 0.76014143 -0.5455908
-0.08401409 0.7758592 0.46618596 1.1853849 -0.7803931 -0.32525393 -0.046054788 -2.4113185
-0.39849314 1.6207702 -1.6429937 0.39904186 0.540006 -0.7164203 -0.29980072 -0.4246219
-0.93781734 -1.0997043 -0.018389763 0.030485863 -0.40556988 0.26769608 -1.9473193 1.3749489
0.008468238 -0.41483667 0.7559164 -0.8031455 -1.030381 0.33304468 -0.43481377 -0.91480565
-0.76378846 -1.979609 0.50713784 0.50450474 -0.49806827 1.0851955 1.0444688 0.7742827
-0.28794196 -1.8777944 -0.28543767 -0.4151701 -0.69458073 0.14311834 -1.3911183 -0.43082318
-0.38094416 0.78873694 -1.2112756 -0.38921553 0.17745748 0.3463076 0.35176355 -0.36045495
-1.2403158 -1.1564305 0.2265863 -0.11673212 -0.8362238 1.2575196 -0.7583355 -1.188249
-0.26026613 -0.5982904 0.82360935 -1.4704586 1.3229254 -1.7230769 -0.3763116 -0.10650797
-1.6191247 -0.5505251 -1.4069488 -0.59796876 -0.9618404 1.1331774 -2.9530873 0.4519929
-1.4515563 -1.6412001 -0.61374295 0.5890994 1.1345686 0.021214176 -1.0939708 0.32771
-0.13060088 -0.9904708 -0.92258716 -0.06310101 1.2856692 -1.2315958 2.2219303 0.5814364
0.6172651 -1.5729685 -0.5160661 0.5600709 -0.88354725 -1.3727075 0.9589917 0.686934
1.4544472 -0.3812748 -1.0135288 0.3635888 1.6166437 0.2619415 -0.86512876 -0.6965997
-2.160864 0.07484875 -1.0332776 0.012408888 1.7053126 0.2878405 -0.13975044 0.19935495
1.1151682 -0.9836029 1.1352516 0.42570984 -0.8761622 -2.06039 0.6604675 -0.106576726
1.1106133 -0.8174605 -0.17101222 -1.3562027 0.34456065 1.5769657 0.66199404 -0.5394991
-0.95126337 -0.4915311 -1.8215567 -1.3725349 0.76054066 -0.88778704 -0.019806935 1.480743
0.8254814 0.18828301 0.62942415 -0.040741123 -2.3272686 -0.5228059 -0.17984173 -0.3418848
-2.492343 0.005145678 0.50117415 -0.041198175 -0.40074107 -0.31707025 -1.0553554 -0.41375205
-0.038666353 0.44701895 -0.57215923 -1.4979677 -0.08660214 -0.38783333 -0.8087342 -0.002083011
-0.38375622 0.7513756 1.4985106 -0.50771534 0.396436 0.3734847 -1.4549417 0.89976484
-0.47652486 1.2280524 0.34726715 -0.31054223 0.42037344 1.3279157 0.7433484 0.8882819
-0.56257194 1.5715286 -1.7785914 0.11547661 -1.1850154 -0.55334854 0.11425115 -0.49255648

weight f4 [4, 32]
00000000: 671a 0b3e 5213 6fbf 8fe9 9c3d e149 6f3f
00000010: bf70 68bf 2686 713f 1396 403e baea 50bf
00000020: 0b01 973f c38e 1440 d7d1 77bf a055 4e3e
00000030: c701 63be 4f0b 843d 317e 843e 1dba a6bf
00000040: c1c1 5d3f b205 eb3f bf2b 37bf a977 e2be
00000050: 5b0a 8bbf 2d45 dabe b8cb aebe 5b5b 78bf
00000060: a2f7 503f f536 973f f6e8 8fbf caab 21c0
00000070: 8ccd 00bf fbd6 113f 7dc7 3abf 24fd 343d
00000080: 8ae3 df3e bf61 dfbe 36bb 0bbf dd25 cf3e
00000090: 11cc 003f 5ed7 89bf 4d04 a4bf 62e2 e7bf
000000a0: ebc8 3fbe f878 c7bf a80d 2dbf c0d9 033f
000000b0: a61c 6bbf 2640 bfbf 7d3e 9abf ea37 b13f
000000c0: de07 8ebf 286e dcbe 41ee dcbe 42fc 433f
000000d0: 6691 5fbf bed5 04c0 a6a5 b73f 7864 8ebe
000000e0: bd87 d4be 282f ccbf 7dfc 8cbf 6578 423d
000000f0: 89ae c93f b26e cd3f 68bf 1f3e 81e9 ffbf
00000100: 326e 8c3d 7428 2e3f 80ba db3e 4b25 07c0
00000110: f892 9b3f b611 933f abb8 65bf 015b 95bf
00000120: 5b3c a73e efa2 ef3e 68e2 98bf c4fb 7bbf
00000130: 566d 873f adb3 34be ba96 a83f d930 5d3d
00000140: 4911 d63e bc60 f2be f3dc fcbf 6e1b 3b3e
00000150: c721 343f b208 42bf 947c d13f d1e9 1d3f
00000160: 002f 32bf cc9b 2cbf 3fae 83be 6e0f 893b
00000170: b7ad 9c3e a31e ba3e 5f96 a5be 6437 18c0
00000180: 9d3f c63f 44f7 64bd 6c59 513f f67f f53f
00000190: 8850 29bf 0e66 0fbe 48a0 a73f 377c 02bf
000001a0: 9f35 18bf 4c58 773e 4765 68bc 98ca aa3f
000001b0: 8aa6 45bf a139 d9be d2f2 cdbf 0bc5 d23e
000001c0: 5a0c 1dc0 1c76 b73e d562 9ebf e979 95be
000001d0: 430f 96bf 8f6c 073f 083b 203f 6b82 a6bf
000001e0: e2f9 083e 7e6d e73e a301 a33f 7da2 e33d
000001f0: 3481 833f 703a 353d 415a 3a3e 88f7 7cbe
0.1358429 -0.93388855 0.07661735 0.93472105 -0.90797037 0.9434532 0.18807249 -0.81608164
1.1797193 2.3212135 -0.96804565 0.20149851 -0.22168647 0.064474694 0.25877526 -1.3025547
0.8662377 1.8361113 -0.71551126 -0.44231918 -1.0862535 -0.42630902 -0.341398 -0.970144
0.8162786 1.1813647 -1.1242969 -2.5261102 -0.5031364 0.5696866 -0.72960645 0.044186726
0.43728286 -0.43629262 -0.54582536 0.40458575 0.5031138 -1.076885 -1.2813812 -1.8115962
-0.18728988 -1.5583792 -0.6759896 0.51504135 -0.9184059 -1.4941452 -1.205032 1.3845189
-1.1096151 -0.43052793 -0.43150523 0.7655679 -0.87331235 -2.0755458 1.4347427 -0.27811027
-0.4150981 -1.5951891 -1.1014553 0.0474781 1.5756389 1.6049407 0.1560036 -1.9993135
0.068569556 0.68030477 0.42915726 -2.1116512 1.2154226 1.148978 -0.89734906 -1.1668397
0.32663235 0.46803996 -1.1944094 -0.9843104 1.0580242 -0.17646666 1.3170998 0.054001663
0.41810063 -0.47339427 -1.9754928 0.18272182 0.7036404 -0.7579452 1.6366143 0.616849
-0.69602966 -0.6742523 -0.25718877 0.0041827476 0.30601284 0.363515 -0.32341287 -2.3783808
1.5488163 -0.055899873 0.8177707 1.9179676 -0.66138506 -0.14003775 1.3095789 -0.50970787
-0.5945682 0.24154776 -0.014184303 1.3343077 -0.77207243 -0.4242678 -1.6089728 0.41165957
-2.4538789 0.35832298 -1.2373911 -0.29194573 -1.1723408 0.5290002 0.62590075 -1.300855
0.13376573 0.45200723 1.2734874 0.111149766 1.0273805 0.044245183 0.18198492 -0.247038

in_proj_weight f4 [96, 32]
00000000: 4132 033d b8e1 09bb 83fa 3dbe a316 4e3e
00000010: f415 093d 9ba9 693d 3b27 1b3d f1be 983c
00000020: 33f4 a93a 260a 5b3d e4be da3d 04dc 203e
00000030: 94d9 1abe a10c 7ebd fdcb a73d c322 3a3e
00000040: a046 28be 22fa 8e3d 6840 01be a50c 20bc
00000050: 4627 f43a 639e 183d 23fa a53d 175c b33d
00000060: 8e16 20be e634 efbd 9c34 25be 200b dbbd
00000070: c69a 26be 8c24 f3bd 4460 4e3e fcce 24be
00000080: 5863 113d e288 f43d e642 393e cb93 a13d
00000090: 150a 3ebe 164f 08be 0267 23be 392f 68be
000000a0: 4563 1ebe cf11 b8bd df46 6d3d fd80 02bc
000000b0: 72fc 0abd 1972 8ebd 4b75 9d3d de0c b53d
000000c0: abed 753e 5684 a13d f8a3 2d3d 344d 67bd
000000d0: c1e0 fdbd 3d6d ce3c 2b78 4bbd 7d98 0abe
000000e0: 5b0d 32be 7f9d a6bb 3b13 283d cf76 003d
000000f0: 15c5 dcbd 3940 013e 0063 2a3e 558a 12be
00000100: 5eba 8e3d e38d babc f1e8 dd3d 3387 c53d
00000110: 3a04 1e3e c24e 6f3d 66a3 48be d3b9 5b3e
00000120: 30ca 153e a48c f73d 32c4 d4bc 4455 853d
00000130: 57ba 28be 6655 bf3b 177e 27be 2f22 85bd
00000140: 07d7 1c3e 5032 c63d 0044 243e f9a4 e23d
00000150: e1af 7b3d 6289 b63d 4094 b1bd cd55 c83d
00000160: 851d 7d3b ab57 26be 5268 ce3c 1369 04be
00000170: 2656 2cbe 336a 1f3e cb84 28be 84c1 1b3e
00000180: fa80 123e 9186 4539 34d6 74be be1a 803d
00000190: b678 673e db8a 59be 40a3 ac3d f680 de3c
000001a0: 5424 c1bd 1e42 e43d 1239 b43d 9be8 01be
000001b0: 4538 54be 494f 83bd 0156 7dbd a1ba 6bbe
000001c0: de30 643d 636e d63d 3760 a03d c2a7 ba3c
000001d0: bdfa 4d3c f053 ca3d 94fa 153e 0134 53be
000001e0: 9994 953d 15c2 7b3e 6ed8 91bd 3f49 1c3e
000001f0: 2600 323e b24e 9ebd b542 80bc c544 13bd
00000200: 918b c13d 282c 5f3e f386 af3b 270c 233a
00000210: 133a 96bd 0e27 b03d 4d1f 61bd 3e48 27be
00000220: c4f2 783e bf9f 863c f916 c63d 98fe ab3d
00000230: febe a4bd 5e59 763e 7390 febd 79c7 f83d
00000240: beb3 8bbd dab0 fabd f0e5 1abe a494 eabd
00000250: 8aed 02be b92f 48be a881 2d3e 45c6 fa3d
00000260: 3cb1 3dbd cfe6 2bbd 4880 243e 8dac c1bd
00000270: 9f94 d83d a5a8 40be e3a6 2a3e 76cf 9cbd
00000280: f491 25bd 9cad 9fbd 29b8 d8bd 7442 413d
00000290: 3957 76be 3215 86be 0b4d 5c3d d208 173e
000002a0: 6215 16be 801d 67bd 8f99 383e 15e6 753e
000002b0: b46a 14be a529 30be 9dc3 17be ff9f 1cbe
000002c0: 673c 263e 4ea2 773d 5e8b 783e cfa2 35b8
000002d0: efce 623b fa85 bdbd 3929 ef3c bcfd 4fbd
000002e0: a3b9 7a3e be52 0c3e 00be 093e 2b6a c53c
000002f0: c1ac 383e 206d da3d f09a eb3d 3ed1 b33d
00000300: 26be 0bbc 0b6e 90bc c0fa 83bd e5f6 603e
00000310: cc8a 08bc 304a cebd 2c7c 00be 54b5 203e
00000320: be58 dfbd a683 893d e499 613e 48fc 0cbe
00000330: e7d3 c3bd 313b c73d 9c58 c13d 0b3d 8a3d
00000340: a17b 6f3d 4346 1d3c 2340 583d f08c 343e
00000350: d18e b0bd ac01 343e 94e7 e9bd 8ffb 65be
00000360: df25 18be 471c 083d f701 943d 9cdf 443d
00000370: 9d3e 78be 2cf6 4cbe 30e7 6d3e 7024 073d
00000380: f2ec c03d 5e94 25be 3e9b b43d 32d3 363e
00000390: 5637 a1bd 001c 033e 0082 823e 9b88 823d
000003a0: 4024 b8bd 8e72 3cbe 6f35 f73c 0f85 4b3e
000003b0: e7a8 033e 1a67 43be cec3 783d 0379 3d3d
000003c0: 9b90 56bd f260 74bd 7bfa 4d3e 2abc 733e
000003d0: 2e79 3cbd 4366 df3d 007e ef3c 0948 febc
000003e0: 1601 d4bd 1dfc 7d3e 89d7 403e 395f 073e
000003f0: 90e1 53be 0674 94bd 9694 9e3d 9926 303e
0.032030348 -0.002103908 -0.18552594 0.20125823 0.0334682 0.057046514 0.03787921 0.018645735
0.0012966454 0.053476475 0.10680941 0.1570893 -0.15122062 -0.062023763 0.081932046 0.18177323
-0.16433191 0.06981303 -0.12622225 -0.00976864 0.0018627427 0.037260424 0.081043504 0.08757799
-0.15633604 -0.116800115 -0.1613335 -0.10695481 -0.16269979 -0.11872205 0.2015391 -0.16094583
0.035495132 0.11940171 0.18091926 0.078895174 -0.18558533 -0.13311419 -0.15957263 -0.22674264
-0.15467556 -0.08987772 0.057928916 -0.0079653235 -0.033932157 -0.06955356 0.076883875 0.08840345
0.24016444 0.07886569 0.0423927 -0.05647011 -0.12396384 0.025198573 -0.049675148 -0.13534732
-0.17387907 -0.005084693 0.041033965 0.031363305 -0.10779778 0.12622155 0.16639328 -0.14310582
0.069691405 -0.022772735 0.10835446 0.09644928 0.154313 0.05842472 -0.19593582 0.21457605
0.1462791 0.12087372 -0.02597246 0.06510404 -0.16477333 0.0058390377 -0.16356693 -0.06500661
0.15316401 0.09677565 0.16041565 0.11066622 0.061447028 0.089129224 -0.086708546 0.0978199
0.0038622331 -0.1624438 0.025196228 -0.12930708 -0.16829738 0.15567856 -0.16456906 0.15210539
0.14307013 0.00018837514 -0.23909837 0.06255101 0.22604641 -0.21244375 0.08429575 0.027161103
-0.09430757 0.11145423 0.08799948 -0.12686388 -0.2072459 -0.06411607 -0.061849598 -0.23020412
0.055710666 0.10470273 0.078308515 0.022785071 0.012571988 0.09879291 0.14646369 -0.20625307
0.073037334 0.24585755 -0.07121359 0.15262316 0.17382869 -0.07729854 -0.015656808 -0.035954256
0.09450448 0.21794188 0.0053566634 0.00062197674 -0.073352955 0.08601199 -0.05496149 -0.16336152
0.24311358 0.016433595 0.096723504 0.08398169 -0.08044241 0.24057528 -0.12429895 0.121474214
-0.068213925 -0.12240763 -0.15126777 -0.11454132 -0.12785926 -0.19549455 0.16943991 0.12244848
-0.046311602 -0.041968163 0.1606456 -0.094567396 0.10575222 -0.18814333 0.16665225 -0.076567575
-0.040422395 -0.07796785 -0.10582001 0.047182515 -0.2405671 -0.26188046 0.05378441 0.14749458
-0.14656594 -0.056424618 0.18027328 0.2401355 -0.14493829 -0.17203386 -0.14820714 -0.15295409
0.16233979 0.06045752 0.24271914 -4.330539e-05 0.0034608205 -0.092540696 0.029194461 -0.05077909
0.24484877 0.13703439 0.13451385 0.024098476 0.1803465 0.10665345 0.11504161 0.08780144
-0.008529222 -0.017630598 -0.06444311 0.21969183 -0.008333873 -0.10072744 -0.12547368 0.15694171
-0.10905598 0.06714563 0.22031361 -0.13768113 -0.095619015 0.09728087 0.09440729 0.06749924
0.05846751 0.009599271 0.05279554 0.17631888 -0.0862099 0.17578763 -0.11421123 -0.22459243
-0.14858197 0.033230092 0.07226937 0.048064813 -0.24242635 -0.20015782 0.23232722 0.032993734
0.09420194 -0.16169879 0.088186726 0.17854002 -0.078718826 0.1280365 0.25489807 0.06373712
-0.08991289 -0.18403074 0.030176846 0.19874977 0.128574 -0.19082299 0.06073361 0.046257984
-0.052384 -0.059662767 0.20115082 0.23802248 -0.046014003 0.10908177 0.029234886 -0.031040208
-0.103517696 0.24803205 0.1883222 0.13219918 -0.20691514 -0.07248692 0.07743184 0.17202224

in_proj_bias f4 [96]
00000000: 495f 8abc b8fa ee3c 77f6 5abd aeea 3abd
00000010: a7f5 433d 6259 6cbd 079d 09bd afba 2fbd
00000020: 497f 7e3d 9ddb 55bd 49c9 ad3c dba1 69bd
00000030: b59f fbbb 61a0 713d 4556 29bd 0065 08bd
00000040: 3c72 3a3d 58f2 533d 2e5b e6bc 8e17 013d
00000050: bf08 493d 18bc f2bc 1f3b febc de2b dcbb
00000060: 0349 1ebd 74eb c03c 82f7 163c d90b e73c
00000070: 1bfb d23c 14d1 003d b540 e9bc a3a0 3dbd
00000080: b360 75b5 3dbe bb35 fc6e 3837 2480 6ab5
00000090: cd74 c6b6 39a7 b9b5 7b4d 7fb6 7217 7036
000000a0: 5d76 49b7 8245 e236 45a5 c936 30fe 0837
000000b0: d84c 5fb6 ccc8 9ab6 9cc0 2f37 e294 e6b6
000000c0: 2b24 86b7 51a7 8735 e546 fbb4 f52b e634
000000d0: b19f ff36 7c57 8036 a4c4 0237 1006 81b4
000000e0: b1a8 e834 9e55 d535 7a62 c3b5 b32e ad36
000000f0: 48e3 2436 0879 3b36 bbb6 85b5 a67b 3036
00000100: 4a34 133d e3ae 9abc ba5b 0bbd 9266 1f3d
00000110: f57f 393d 61ed 273c 25ec 533d 2185 f53c
00000120: 8d77 05bd ffbd 2b3d c3d2 43bd fc35 47bc
00000130: cfe3 9ebc 294e e63c 36a2 d8bc a0c0 33bd
00000140: b672 52bd 430a 073d 1b21 eebc e7da 183d
00000150: 6af0 d43c 7e2f 063d 5961 063d 5960 40bd
00000160: f57f f03c 8d45 193d e511 033c 1385 dfbc
00000170: a3eb f23b 752e d4bc 4561 19bd 5c29 113d
-0.016891139 0.029172286 -0.053457703 -0.045633964 0.047841694 -0.05770243 -0.03359702 -0.042902645
0.062133107 -0.052211393 0.021214144 -0.057039123 -0.0076789507 0.05899084 -0.04134204 -0.033299446
0.0455191 0.05174479 -0.02811965 0.031516604 0.049080607 -0.029630706 -0.03103405 -0.0067190966
-0.03864385 0.023549773 0.009214284 0.028203892 0.025754502 0.031449392 -0.028473238 -0.046295773
-9.141033e-07 1.3987952e-06 1.0993095e-05 -8.735826e-07 -5.9144572e-06 -1.3832242e-06 -3.804306e-06 3.5776434e-06
-1.2008092e-05 6.7434166e-06 6.0095067e-06 8.165414e-06 -3.3274318e-06 -4.6129335e-06 1.0475658e-05 -6.8718664e-06
-1.5990887e-05 1.0106979e-06 -4.6803976e-07 4.287282e-07 7.6181827e-06 3.824882e-06 7.794388e-06 -2.4032533e-07
4.3336107e-07 1.5894655e-06 -1.4557293e-06 5.1612383e-06 2.45702e-06 2.793562e-06 -9.962454e-07 2.6298017e-06
0.03593854 -0.01888222 -0.034023024 0.038916178 0.045288045 0.010249467 0.051738877 0.029970707
-0.032584716 0.04192924 -0.04780842 -0.012158867 -0.019395737 0.028113442 -0.026444536 -0.043884873
-0.051378928 0.03296877 -0.02906852 0.037318137 0.025993545 0.032760136 0.03280768 -0.046966884
0.02935789 0.037419844 0.007999872 -0.027285134 0.007413344 -0.025901059 -0.03744628 0.035439834

weight f4 [32, 32]
00000000: 6d53 acbe 54a7 193e d621 843c 4d4a 62bd
00000010: 2845 93be c464 283e d180 8fbe e1ec 5ebe
00000020: 9cb0 ac3d eb5c 08bb 978c 243d 012f 763e
00000030: 447b aa3d 6c50 1a3e e5e6 e9bd 0e74 94bd
00000040: 17df 393e 76e7 ab3d 5d47 4dbc 63ea 893d
00000050: 4d47 023e a959 f0bd b8bd 073e c7f1 a73d
00000060: 4437 7bbb c824 56be eda9 833e 8ab0 01bd
00000070: 4de1 103e ab1e 2ebd e7e9 1fbd b2ac 6c3e
00000080: d8c0 9dbe 332e f73d d424 82be d078 273e
00000090: cca8 55be 38cd 44bd 11d5 93bd b4a0 5a3e
000000a0: cf1a fcbd eb91 bcbd f82f 92be 7b91 2e3e
000000b0: aa38 743e 26e8 653e 0399 fcbd bcc4 48be
000000c0: 237d dcbd 73c9 753e f754 883e 21a3 89be
000000d0: 1b91 713e 26c4 13be cd0d 403e e3d4 613d
000000e0: ae54 be3d b568 81bd 9626 763e b8b8 4e3e
000000f0: 7bdb 8dbe 270b db3c 2370 bcbd 9790 27be
00000100: 41d7 9ebe 59b6 9f3e 499e 083e bd41 96be
00000110: bf11 82be 12eb da3d df0c b23b 0203 c83d
00000120: 7b2b 283e 844e 06be 4e51 8d3e b96a b83c
00000130: afb5 143e 1122 563e 2d19 983e 5693 c7bc
00000140: aa59 a43e cf4d 0ebe 0a42 963e 01a7 66bd
00000150: 789b 073d 7aed 653e 323b 7dbd e992 fcbc
00000160: 79af 3f3e e3db e13d a5df febd bf25 6fbe
00000170: ac14 823b 036e 9abe eb3d e9bd b19e 78be
00000180: 70f3 22be ab23 07bd dae6 b23e b3e3 89be
00000190: c804 d6bd 942c 4c3d 4022 1fbe 26dd 13be
000001a0: 48d3 ef3c a797 a7be 9a65 e93d 6ab9 6cbe
000001b0: ac8b 3abe 9dfa 863e d396 89bd f412 8a3d
000001c0: 0775 a7bd 2731 b2be 4103 6a3e 2e97 85be
000001d0: 5f4b 38be 3169 7fbe bb3c 47be fa2b e7bd
000001e0: 8386 58be e4fc aebe 43f5 8bbe 3d1b 72bb
000001f0: 8791 1fbe 86e4 ee3d c1f8 00be c592 a8be
00000200: fe73 6ebd 8321 9ebe df9b adbe a07b 333e
00000210: fd4b 463e 6f63 1cbd e665 ffbd d165 69be
00000220: 4247 30be f963 9f3e b175 2a3e d9c2 823e
00000230: 2eb0 25be 9c4e 8f3e 8e76 b8bd 3e64 2e3d
00000240: eb74 643e d037 a93e de44 b33c c6bc bfbd
00000250: 69ec 8c3e e5e8 b93d 6540 853e 843e 81be
00000260: b2ed a73d 2594 6dbd bfcc 93bc 4e6b 0b3e
00000270: 4f63 2f3e f437 573e d0ed 62be fa04 66bc
00000280: aaf3 2dbd 3a86 923e 9c68 823e 8a26 543d
00000290: ca04 103e 9757 87bd 7e76 203e 04e0 953e
000002a0: 8fd6 b7bd 062a 09be b257 9bbe 47a3 f8bd
000002b0: 9019 92be a1ac 703e e175 87bd 4f76 af3d
000002c0: 1def 5ebe e4b4 3f3e 4b96 4bbe aa32 68be
000002d0: ed5a 0cbe f242 bebd d699 85be 02b5 063e
000002e0: 85a7 033d 67e3 ed3b e7e2 3ebd 099d 10be
000002f0: 0aa5 1c3e 0e00 fabd 2917 43be 5a1b 3d3e
00000300: b269 fe3d 92a4 403d a443 153e 2086 3b3e
00000310: fd71 81be 3ee4 8a3e 1769 39be a054 033e
00000320: 6a83 23be 4d24 e53d 99e6 973e d0bd 84be
00000330: ac94 523d 0df1 1bbe 0a80 81be 655c d6bd
00000340: a360 a5bd 02a5 66be 2e69 2dbe 0fd7 a2bd
00000350: 508a 443d 3914 ccbd 84e1 32be 1c07 67be
00000360: 3768 233d 8d14 823d f52c 923e 7952 fcbd
00000370: c1f3 3f3e 22af 1fbe 6e56 913e d300 35be
00000380: 59d7 06be c205 c0bd 727e 533e 0dcb c33c
00000390: 3b4d ebbd 0d1f 54be b1f1 f0bd 3bfc 36be
000003a0: f743 e5bd 2d81 283e de6c ae3e a878 873e
000003b0: 46f4 913e 4942 04be 4308 573e 26f8 b53e
000003c0: 28cc 7f3c 5a24 663e a3d0 67be 31e4 5abe
000003d0: 0b37 d13d bd43 13be 6488 bf3c ebbe aa3d
000003e0: a420 c83d ba79 6b3b 6a27 b0bc 2784 993e
000003f0: fc2b 38be b8fa 403e 3fb8 1abe 31d2 3b3e
-0.336574 0.15005237 0.016129415 -0.05524664 -0.287637 0.16444689 -0.28027967 -0.2177005
0.08432123 -0.0020807337 0.04017314 0.24041368 0.08324292 0.15069741 -0.11420993 -0.07248698
0.18151508 0.08393757 -0.012529221 0.06734159 0.12722512 -0.11735851 0.13255966 0.08200412
-0.0038332501 -0.20912468 0.2571558 -0.0316625 0.14148445 -0.042509716 -0.039041426 0.23112753
-0.3081119 0.12069359 -0.25418723 0.1635468 -0.20865172 -0.048047274 -0.072183736 0.21350366
-0.12309801 -0.09207519 -0.28552222 0.17047684 0.2384974 0.22451839 -0.12333872 -0.19606298
-0.107660554 0.24002628 0.26627323 -0.2688227 0.2359051 -0.14430293 0.18755265 0.055134665
0.09293495 -0.063187994 0.24038157 0.20187652 -0.27706513 0.026738716 -0.09201076 -0.1636375
-0.310236 0.31193808 0.13341631 -0.2934703 -0.25404164 0.10689367 0.0054336633 0.09766199
0.16422836 -0.13115889 0.27601093 0.022511827 0.14522432 0.20911433 0.29706708 -0.024362247
0.32099658 -0.13896869 0.2934726 -0.05631161 0.03310725 0.22453871 -0.06182403 -0.030831771
0.18719281 0.11028268 -0.124450006 -0.23354243 0.0039697494 -0.30162057 -0.11388763 -0.24279286
-0.15913177 -0.032993 0.3494175 -0.26931533 -0.10450131 0.0498472 -0.15540409 -0.1443983
0.029275551 -0.3273289 0.11396332 -0.23117605 -0.18217343 0.26363078 -0.067182206 0.06741896
-0.08176618 -0.34803125 0.22852804 -0.26091903 -0.17997502 -0.24942471 -0.1945676 -0.11287685
-0.21145062 -0.34177315 -0.27335557 -0.0036942505 -0.15582858 0.11664681 -0.12594892 -0.32924476
-0.058216088 -0.30884942 -0.33907983 0.17527628 0.19364925 -0.038180765 -0.124706075 -0.22792746
-0.17214683 0.3113096 0.16646458 0.25539282 -0.16180488 0.27989662 -0.090069875 0.042576067
0.22310226 0.33050394 0.021883424 -0.093621776 0.27524117 0.09077624 0.26025692 -0.25243008
0.08199634 -0.05800261 -0.018041966 0.13615152 0.17127727 0.21017438 -0.22161031 -0.014039272
-0.042468704 0.28618032 0.25470436 0.051794566 0.14064327 -0.06608503 0.15670201 0.29272473
-0.08976471 -0.13394937 -0.30340344 -0.12140518 -0.28535128 0.23503353 -0.066142805 0.085674874
-0.21770902 0.18721348 -0.19881551 -0.22675577 -0.1370656 -0.092901126 -0.2609393 0.13154987
0.03214218 0.0072597745 -0.04660311 -0.14122404 0.15297332 -0.12207042 -0.19051804 0.18467465
0.124225035 0.047031946 0.14576584 0.18312883 -0.2528228 0.2712726 -0.18106495 0.1282525
-0.15968099 0.111885644 0.2966812 -0.25926065 0.051411316 -0.15228672 -0.25293 -0.104668416
-0.080750726 -0.22523883 -0.16934654 -0.079511754 0.047983468 -0.09964795 -0.1746884 -0.22561306
0.03989431 0.06351576 0.28549924 -0.12320418 0.18745328 -0.15594152 0.28386253 -0.17676096
-0.13168086 -0.09376098 0.20653704 0.023900533 -0.1148934 -0.2071497 -0.11764849 -0.17869656
-0.11194604 0.16455527 0.34067434 0.2645924 0.28506678 -0.12915911 0.20999245 0.35540885
0.0156126395 0.22474805 -0.22638182 -0.2137611 0.10215577 -0.14381309 0.023380466 0.08337196
0.09771851 0.003593071 -0.02150317 0.29983637 -0.17985529 0.18845642 -0.15109347 0.183419

bias f4 [32]
00000000: 4acb 023c a7c8 af3c dc74 eabc 5d9a 13bd
00000010: 8df4 0b3d 64b1 663c f7cf 933b 23b7 03bd
00000020: 97f4 853d 4161 0b3d b653 22bd df9e b93c
00000030: c106 433d 8b67 b8bc e385 373c 955c c33b
00000040: 6c74 5c3c 5ec6 fbbc 8a07 36bd 4b75 ebbc
00000050: 1a1f bd3c d208 abbc 4620 3e3d 4c2e 283d
00000060: c122 1ebd aa5a 463c 52f7 a2bc 6c45 f23c
00000070: 5662 9b3c 4c59 063c 0f1f 67bd 2673 33bd
0.007983038 0.021457983 -0.028620176 -0.036035884 0.03416877 0.014080379 0.0045108753 -0.032157075
0.065407924 0.034028295 -0.039630614 0.022658763 0.047613863 -0.02251031 0.011201355 0.0059619644
0.0134554915 -0.030734237 -0.044440784 -0.028742453 0.02308612 -0.02087823 0.046417497 0.041059777
-0.038607363 0.012106577 -0.019893322 0.029574119 0.018967789 0.008200001 -0.056426104 -0.043810986

weight f4 [128, 32]
00000000: d0d1 1abd fd59 9ebc 1cdf 1abc 013d c03d
00000010: a873 a83d b053 953d c066 543d ed65 503a
00000020: 6323 dabd c647 523d 2ad8 f2bd 95a9 5bbe
00000030: ce45 03be c747 48be afad ef3d bac8 bbbd
00000040: 7ca3 34bd eacf 213e dfaf 3dbe c9e1 0a3e
00000050: 51c3 9d3d a2d8 823d 8137 143e 7b97 28be
00000060: 5d88 25be ce5f 5fbe 249d aebd 11b0 b83d
00000070: 0651 eebd 2388 12bd cee2 a2bd c1db eabd
00000080: 73ec 1fbe a6b6 71bd b643 8a3d 3455 753d
00000090: 0f5a 0fbd d96a db3c 20d9 bcbb e8a1 3f3d
000000a0: 6f96 233e 3dd3 b83d 123b 34bd cf6b 2cbe
000000b0: 4d37 373e 7cdb 3ebe aec4 42be 48f0 f8bd
000000c0: 4589 1abe cd5b 48bd f1c2 c5bd b990 b63d
000000d0: 7a8e 4dbe 1459 fb3d 153e ed3d 7195 1c3e
000000e0: 90db 87bd 91db 98bb 68d5 883d 0eac ebbc
000000f0: e0b5 b3bc 37b9 6ebe a1e9 3a3e 9a03 18be
00000100: a17c 1b3e 450b 923c ac45 933d 3db4 d6bd
00000110: 27a1 593e a715 0c3d d407 abba 4109 723d
00000120: f2f8 f63d 328d 6dbc 4fa5 0dbe 6b56 e93d
00000130: 9ba7 dfbb 5fb5 313d b982 f2bd eaf5 dbbc
00000140: 2d20 00be 60e1 2c3e 2672 4dbe be13 7a3d
00000150: f278 1fbe 6641 80bd db13 aebd b84b bd3d
00000160: 89cf 2a3e dcdd 8e3d c772 76bd 39f6 e9bd
00000170: bcf4 06be f795 60be db02 f1bd 5198 e1bd
00000180: 0dec 58be 8f9b a8bd 540a 013e 0acf 29be
00000190: 03ed cebd 670c 393e 7cb2 633d 17d8 23be
000001a0: 000f 023e 7609 10bd a9ce 65bc ecc3 8f3d
000001b0: ef7c 163c efa9 51bd d030 383e 5376 62be
000001c0: ca27 29bd d536 0c3e 777a 96bd 66d0 2f3d
000001d0: 4f37 043d ed47 1cbe cd77 1f3d 240e f5bd
000001e0: 301d debd e642 1fbd 883b 2abe 5423 573e
000001f0: 944d 063e 702a db3d 6cae 2abc 2f19 f1bd
00000200: 1730 58be 209c 84bc dbee 4abe 68bb dc3d
00000210: 98d6 713e e305 183e 0bb0 c23d b7bb 123e
00000220: f168 d2bc 4ef7 bebd 3be0 a33d 8906 303d
00000230: 5f78 bf3d c8a3 5cbe 31e1 0cbb 0470 e8bd
00000240: 16ae 53be f53a 2ebd 9ff7 493c 47b8 443e
00000250: 7730 4f3d 5b9e 8d3d 322e 28bb bf34 aabc
00000260: 7013 ad3d 099e 7dbc 866d 393e c194 b5bd
00000270: f777 c3bd 3ac8 143e 855f 91bd ccf2 20be
00000280: cf0f 133e 5304 713c d445 be3a 25a1 163d
00000290: f84c 533d 63de 38bd 71de e0bd fb5e 063d
000002a0: 0fae 55be d670 c5bd cfe1 92bd d928 363e
000002b0: 633b ab3c fe1a 003e 8806 d63d 1d77 103e
000002c0: c472 0cbe 843c 9e3d 7515 143e 803c d43d
000002d0: 5f97 913d 68fd b9bd c0d8 d2bc a4cf 0abd
000002e0: 8b92 b13d 523a 453d ec8c 82bc 41d1 18bc
000002f0: fb0f 9a3d 6b1f 13be 47fe 4f3d ce72 303e
00000300: a544 a13c 10d9 ddbd 04e6 c5bd cd53 4d3b
00000310: ab1e 1e3e 81ec ad3d d754 30bc 0b5a fe3c
00000320: 4933 0dbe 336b 063e c10f 573e c168 1cbe
00000330: 70fe 813c f1e6 953d 7acf d3bd 9020 7cbd
00000340: 7f41 74bc 3bce b3bd 12b7 c1bd 65e3 0c3e
00000350: 875c c93d 347f a63d 987e f93d 8f69 0e3e
00000360: 1547 af3d e275 26be cc8e dabd 9fe6 8dbd
00000370: 68ef 253e 7247 2ebe 13a4 ebbd 7949 353d
00000380: 85db b73d 9428 043e a2df f93a feab a13c
00000390: 0bc9 01be d65e 5c3d 00fc 92bd 156a 22be
000003a0: 703c 15be c00d d9bd 3591 bf3d d9bf 273e
000003b0: 4042 363c 4071 bebc 4987 3b3d ecbb fdbd
000003c0: 608e 563e 3d9f 57be 3569 adbd f206 17be
000003d0: 0f5c 403e 589d b9bc 5bce b8bd 06d8 d2bd
000003e0: 9ed0 a3bc bcdc 04be 4998 a13d fea3 373e
000003f0: 765e 7f3e 0453 3e3e 103b 73bd 8b20 293d
-0.03779775 -0.01933002 -0.0094526075 0.093866356 0.08225185 0.07291353 0.051855803 0.00079497584
-0.10651281 0.05133798 -0.11857636 -0.21451409 -0.12819597 -0.19558631 0.117030494 -0.09169145
-0.044101223 0.15801969 -0.18524121 0.13562693 0.07703269 0.06388976 0.14474298 -0.16464035
-0.161653 -0.2181389 -0.08526066 0.09017957 -0.11636548 -0.03577436 -0.07953416 -0.11467696
-0.15617542 -0.059012078 0.06751196 0.05989571 -0.034997996 0.026784347 -0.005763188 0.046785265
0.15975355 0.090246655 -0.044001646 -0.16838 0.1789219 -0.18638414 -0.1902034 -0.12155205
-0.15091427 -0.048915673 -0.09656323 0.089143224 -0.20073882 0.1227285 0.11584107 0.15291382
-0.06633675 -0.004664846 0.06681329 -0.028768566 -0.02193731 -0.23312841 0.18253185 -0.14845124
0.15184261 0.01782764 0.07191023 -0.104835965 0.21252881 0.034200337 -0.0013048598 0.059090856
0.12059201 -0.014498996 -0.13832591 0.11393436 -0.0068254 0.04338586 -0.118413396 -0.02685066
-0.12512274 0.16882849 -0.20063075 0.061053984 -0.1557348 -0.06262474 -0.08499881 0.09242958
0.16680731 0.0697591 -0.060168054 -0.11423916 -0.13179296 -0.21932207 -0.11768123 -0.1101538
-0.21183796 -0.082327954 0.12601596 -0.16582885 -0.101038 0.18071137 0.055590138 -0.160004
0.12701035 -0.035165273 -0.014026322 0.07019791 0.00918506 -0.051187452 0.1798737 -0.2211545
-0.04129771 0.13692792 -0.07347577 0.042923354 0.03227931 -0.15261813 0.03893261 -0.11965588
-0.10845411 -0.03888216 -0.16624272 0.2100957 0.13115531 0.10701454 -0.010417562 -0.117723815
-0.21112095 -0.016187727 -0.19817679 0.107779324 0.23617017 0.14845996 0.09506234 0.1432942
-0.025684806 -0.093245134 0.08001753 0.042974982 0.09349131 -0.21546853 -0.002149653 -0.1134949
-0.20671877 -0.042536695 0.012327104 0.19210921 0.05058333 0.069149695 -0.00256623 -0.020777104
0.08450973 -0.015479573 0.18108186 -0.08866263 -0.09544366 0.14529505 -0.07098297 -0.1571762
0.14361499 0.014710504 0.001451666 0.036774773 0.051587075 -0.04513396 -0.10979927 0.032805424
-0.2086718 -0.09640662 -0.07171976 0.1778902 0.020902341 0.12510297 0.104504645 0.14107938
-0.13715655 0.07726386 0.1446131 0.10363102 0.0710895 -0.090815365 -0.02573812 -0.033889428
0.08670529 0.04815132 -0.015936337 -0.009327234 0.07522579 -0.14367454 0.050779607 0.17231295
0.019686053 -0.10832417 -0.096630126 0.0031330467 0.15441386 0.08492375 -0.010762415 0.031048795
-0.13789095 0.13126831 0.21002103 -0.15274335 0.015868396 0.07319439 -0.103423074 -0.06155449
-0.014908194 -0.0877957 -0.09458746 0.13758619 0.09832101 0.08129731 0.12182349 0.13907455
0.0855848 -0.16255906 -0.106717676 -0.06928753 0.16204607 -0.17019442 -0.11505904 0.044259522
0.08977417 0.12906104 0.001906384 0.019735333 -0.12674348 0.05380138 -0.071769714 -0.1586078
-0.14573836 -0.10598326 0.09353868 0.16381778 0.011124194 -0.023247361 0.045783315 -0.12389359
0.20952749 -0.21056838 -0.08467332 -0.14748743 0.18785118 -0.022658035 -0.09023734 -0.102951095
-0.019996937 -0.12974828 0.07890374 0.17933652 0.24938378 0.18586355 -0.0593825 0.0412908

bias f4 [128]
00000000: 1caa 1d3c bca9 aa3c d649 a23c 9044 de3c
00000010: a0c7 393d 804e aebc b678 cbbc 8354 133c
00000020: 47ff 1b3d 1662 c8bb d43b a13c 578d 1f3c
00000030: 8eaa 0dbd af27 31bc 8afc e43c c1bf 8bbc
00000040: e930 be39 5b4f 083d e200 fdbc 6f7d 7a3c
00000050: b6f0 1c3d 8da5 103d af4e 3f3d 5474 b53c
00000060: 9533 9ebb 53de 173d ed7b b43c 1b03 3f3d
00000070: 636a e23c 661d ab3c 7d2b 983d e2d7 a03c
00000080: 4068 a6bc ec4c 01bd 1740 bd3c 167c 92bc
00000090: 1d2c 273d 7ac0 83bc 8e6c c73c dde8 db3c
000000a0: 5a26 b5bc f376 9e3c e435 3f3d 2a9a 593d
000000b0: 6c5d 113d 1072 4d3d a5eb e33c 9cc3 b6bb
000000c0: 31ab 863b 839e 123d 7d54 223c de36 23bc
000000d0: d536 d63b 3d53 2d3d 7473 533c 4d94 8b3c
000000e0: 9f29 ac3c a7ef df3c ace9 223d ef05 103d
000000f0: 60ae 87bc ef76 bf3b a673 bcbc aacd fd3c
00000100: 8cda b2bc 670d 013d 14ab b23b e4d9 9c3c
00000110: 553e aebc e2f5 bd3b a487 de3b 5bd5 013d
00000120: 8f57 343b ba9c 67bc 7d22 d93c 3ae9 123d
00000130: 2f22 e3bc 79c6 533d 585c 6d3d 39c3 873c
00000140: 6a08 69bc dbf8 4a3d f6b8 f23c 6d8b 2a3d
00000150: 5aa4 2c3d 3483 9a3d 3518 91bc b78d 443d
00000160: 5174 03bd af7a 7f3d 006b 7e3c 54f9 6d3d
00000170: 947a df3b e2aa e73c 1a62 153d d5b6 4b3d
00000180: 2169 163c 3ee5 223c 3e42 ef3b 4447 69bc
00000190: c27e 403d e3ea 4c3d 9e70 a0bc 5ed4 e0bc
000001a0: c1f0 09bc 2603 253d c5c7 e73c 33c2 983c
000001b0: db47 b83b c818 a3bc de4f a8bb 0349 5dbc
000001c0: 2139 143d 99cf 0e3d c9d6 813b 71df cf3c
000001d0: 4e29 583d d009 e53c 085c 7bbc fa0d beba
000001e0: 8e50 013d 474c 1c3d 7ca9 57b9 7a45 223d
000001f0: 669a 963c 117e 8e3d 32e1 cc3c e1fd e83c
0.009623077 0.020832889 0.019810598 0.027132303 0.045356393 -0.021277666 -0.024837833 0.008992317
0.03808525 -0.0061152084 0.019681849 0.009738288 -0.03458648 -0.010812684 0.027952451 -0.017059209
0.00036276065 0.033278804 -0.03088421 0.015288695 0.038315497 0.03531413 0.046705898 0.022150196
-0.0048279264 0.03707726 0.022031749 0.04663382 0.02763862 0.020888042 0.0743017 0.019634191
-0.020313382 -0.0315675 0.02310185 -0.017881434 0.040813554 -0.01608299 0.024343755 0.026844436
-0.022113014 0.019343829 0.046682253 0.053125538 0.035489485 0.050157607 0.027822325 -0.0055775177
0.004109763 0.0357957 0.009907839 -0.009961812 0.006537298 0.04231571 0.012905944 0.017038489
0.02101594 0.027335955 0.039773628 0.03516191 -0.01656264 0.0058430354 -0.023004364 0.030981857
-0.021832727 0.031506922 0.005452523 0.019146867 -0.021269957 0.005797134 0.006791072 0.031697612
0.002751801 -0.014136488 0.026505703 0.035866953 -0.027726261 0.05170295 0.057949394 0.016572582
-0.0142231975 0.049553733 0.029629212 0.041636873 0.042148925 0.07544556 -0.017711738 0.047986712
-0.03209335 0.06237286 0.0155284405 0.058099106 0.0068200324 0.028279725 0.03647051 0.04973491
0.009180338 0.009942351 0.007301598 -0.014238182 0.046995886 0.050028693 -0.01958495 -0.027445015
-0.008419217 0.040286206 0.0282935 0.018647289 0.0056238 -0.019909278 -0.005136474 -0.013506177
0.036187295 0.03486595 0.003962372 0.0253751 0.052773766 0.02795878 -0.015341766 -0.0014500015
0.031570964 0.03815868 -0.00020567136 0.03961704 0.01838417 0.06957639 0.025009725 0.028441371

weight f4 [32, 128]
00000000: b4d5 b4bd b048 66be 2e29 263d 4232 ec3d
00000010: 8b9a e3bd d05e fe3a 1344 b63c f81c 87ba
00000020: 5e11 273d fda4 a43c d79c 033e e6e1 293e
00000030: 7727 19be d99a 163e ce4e 50be c3ea a5bd
00000040: 3cfb 393e 3ed9 063c af35 4bbe 9c06 95bd
00000050: a010 023e 689e 71bd 450b 20be 17f8 bfbd
00000060: 1c1d 283e 7643 01bd 3df9 58bd 7fb6 3dbe
00000070: 19bb bebd 6746 f6bd 906c 183e 8bba 94bd
00000080: 87be 1abe 6380 3e3b b806 3f3e c6ea 013e
00000090: 8af6 3b3e 13cf 553e 84e7 fb3d f836 30be
000000a0: ec6f f1bd 6210 443e cce2 44be 3851 72bd
000000b0: 6a57 09bc 3f8e 23be c5d8 5dbd 482b 463e
000000c0: 9e59 35be ae23 783d 3940 483e 7281 36bd
000000d0: 194b 253e b222 a5bd c359 b4bd cb8e 393e
000000e0: 9669 99bd 88df 543e df35 c8bd 5ee0 0bbe
000000f0: ee3c 40be 5665 953c 6e01 6ebd b2cb 14be
00000100: 632a af39 c604 113e cd73 82bc ac49 413b
00000110: fc91 113e a776 f33d e159 66bd 378f 933e
00000120: a12d eabb 6b3e 23be 3b51 ccbd 61d1 c0bd
00000130: d774 27be dddb 3f3d 7dd0 833d feeb 003e
00000140: c451 a1bc e5c2 693d 965c fdbd 0116 663e
00000150: ded2 1dbe 1582 143e 81fb c6bc ab3b cd3d
00000160: 070a f1bc b5fb 07be 1265 6abd d2a7 993d
00000170: ce06 88bc 6020 ffbd 639e 27bc 62bd 273e
00000180: 0100 46be e49e 20bc b1b3 06bd 6e5a 633e
00000190: 79ad e5bd 1f9f f13c e4de b13d 9558 f0bd
000001a0: 8897 82bd 6b13 2b3d b8c3 e3bd 52fd ebbc
000001b0: 248c 56be d2b1 0dbe b73f 42bd 37c6 0dbd
000001c0: 9fee 32be a8df d33d 03f9 13be 586b b1bc
000001d0: a404 ef3d b99d 0abe bc7e efbc c2e0 32be
000001e0: 52b6 8b3b f487 d03c 309a 31be 0bed eebc
000001f0: 75ce 0a38 72dd 8cba 0047 93bc 658f 50bd
00000200: eac4 923d 2ccf 2cbe c14a e2bd 1ad1 11bd
00000210: b281 0e3e de57 e93c 5334 a0bd caf4 f43d
00000220: 69da c73b 0cc1 443e 2b5f ff37 467d 2dbe
00000230: eee8 25be 08a3 54be d513 7b3d 626f ccbd
00000240: 45e2 6fbd ae81 893d aa62 f13d b0e7 24be
00000250: 46fd 9e3d ef0f a13d d78d a93d 174d 1a3e
00000260: 7125 b2bd 0f8f 6d3c 3fd5 3e3d b65d 34bc
00000270: 171c 09be b291 393e 0c1f c03d b31a 403b
00000280: 4735 9bbd 34e3 b33b e178 8d3d f360 12bc
00000290: 7a37 f4bd 98e7 27be eb26 c53d 76e3 773e
000002a0: c3d2 bebd 3eb1 27be 85e9 a13d f349 b33c
000002b0: e833 f7bd 2cc6 eb3d b53b 32bd e137 49bd
000002c0: 135e 803c 8c0f 053d 8e9d 3c3d a95a 1fbe
000002d0: f1aa 543e c53a 4d3e f44d 9e3d 2aa2 0dbe
000002e0: 587b 433d d459 413e e579 45be ff31 b93b
000002f0: 185b 223e a7bc 8c3d cdf3 0d3e 7e69 bfbd
00000300: bbaa 233e 6d17 1ebd 002e be3c 9790 eebd
00000310: 4ab0 3bbe 5dbe 9bbd 71c9 873d f5a5 5e3d
00000320: f936 ec3d 8fff 06be 9954 f53d aaad 64be
00000330: db77 323e df44 313e b207 4a3e 1815 0e3d
00000340: 2827 d5bd 12c4 e53d be6d cf3d 3b47 a33d
00000350: 8fa2 4f3c 637c d93d 8462 3fbd 618b fa3d
00000360: 0a94 463c 1b50 553d 68e8 09be 4536 de3c
00000370: 9353 4abe a882 d93d 4943 4bbe 95f9 093b
00000380: c51a 8ebd f1d1 a6bc 9037 2e3e 5ed0 b43d
00000390: 2c85 1bbe 56be a93d 6356 d53d dc1e c03c
000003a0: b8cd e43d 2fcd 5b3d 1f0d 443e 4285 73bd
000003b0: 7720 253e 5de8 9abc 93e5 e2bc 59cd 3b3e
000003c0: bd62 7dbb 38ee 8ebd c49b f8bd 5448 00be
000003d0: e33e 0ebe 6f3f 0bbe 012c 05be 70e1 223e
000003e0: 0c8e 0bbe 012d 1b3e 0bd5 1ebe a458 013e
000003f0: cc83 a23d 7fb8 44be ecac abbc e67d ec3d
-0.08829823 -0.22488666 0.040566616 0.115330234 -0.11113461 0.0019406918 0.022249257 -0.0010308316
0.040788047 0.020098204 0.12852798 0.1659008 -0.14956461 0.14707507 -0.20342562 -0.08101418
0.18162245 0.0082305055 -0.19844697 -0.07276651 0.12701654 -0.05898896 -0.15629299 -0.09373491
0.16417354 -0.031558476 -0.052972067 -0.18526648 -0.0931303 -0.12025147 0.14885163 -0.07262143
-0.15111743 0.0029068224 0.18654907 0.12687215 0.18355766 0.20879774 0.123000175 -0.17208469
-0.117889255 0.19146875 -0.19227141 -0.059159487 -0.008382658 -0.15972231 -0.054161806 0.19352448
-0.17709967 0.0605809 0.19555749 -0.044557042 0.16141929 -0.08063258 -0.08806183 0.18120877
-0.07490842 0.20788395 -0.097759 -0.13659808 -0.18773243 0.018236797 -0.058106832 -0.14530829
0.00033410182 0.14161977 -0.015924359 0.0029493375 0.14215845 0.118878655 -0.05623806 0.28820202
-0.0071465527 -0.1594178 -0.09976431 -0.09414936 -0.16353165 0.046840537 0.0643625 0.12590024
-0.01969231 0.05707063 -0.12371175 0.22469331 -0.1541247 0.14502747 -0.024289848 0.100211464
-0.029423727 -0.13279612 -0.057225294 0.07502712 -0.016604807 -0.12457347 -0.010230633 0.16380838
-0.19335939 -0.0098035075 -0.03288621 0.22202465 -0.11214728 0.02949482 0.08685091 -0.11735646
-0.063765585 0.041766565 -0.11121315 -0.028807316 -0.20951897 -0.13837364 -0.047424044 -0.03461286
-0.17473839 0.103453934 -0.14450459 -0.02165763 0.11670807 -0.13536729 -0.029235236 -0.17468551
0.0042636776 0.025455453 -0.17343974 -0.029165765 3.3094042e-05 -0.0010747148 -0.017978191 -0.050918
0.071664646 -0.16875905 -0.110494144 -0.035599805 0.13916662 0.028484281 -0.0782248 0.11960752
0.0060990346 0.19214267 3.0442685e-05 -0.1694232 -0.16202137 -0.20765316 0.06129821 -0.09982182
-0.058565397 0.067141876 0.11786397 -0.16104007 0.07763152 0.07864367 0.08279007 0.1506847
-0.08698548 0.01449944 0.046590086 -0.011008671 -0.13389622 0.18121985 0.09380922 0.002931279
-0.07578521 0.005489731 0.069078214 -0.008934247 -0.11924644 -0.1639694 0.09626564 0.24207863
-0.09317543 -0.16376206 0.079058684 0.021885848 -0.12070447 0.11512408 -0.043513972 -0.049125556
0.015669858 0.03248553 0.046048693 -0.15561928 0.20768334 0.2004195 0.07729712 -0.13831392
0.04772505 0.18881923 -0.1928478 0.005651712 0.15855062 0.0687192 0.13862534 -0.09346293
0.15983097 -0.03859656 0.023215294 -0.11648672 -0.18328968 -0.07604668 0.06630219 0.054357488
0.11533923 -0.13183425 0.11979026 -0.22331873 0.17428534 0.17311428 0.19729498 0.034688085
-0.10407859 0.11219038 0.101283535 0.079725705 0.012673034 0.10619428 -0.04672481 0.12233616
0.012120256 0.052078348 -0.13467562 0.027125487 -0.19758444 0.10620624 -0.19849886 0.0021053303
-0.069387 -0.02036378 0.17013383 0.088288054 -0.1518752 0.08288257 0.104168676 0.023452215
0.1117205 0.053662475 0.1914563 -0.059453256 0.16125666 -0.018909628 -0.02769736 0.18340053
-0.003866359 -0.0697903 -0.12139085 -0.12527591 -0.13891177 -0.13598417 -0.13005067 0.1590631
-0.13628405 0.15153886 -0.15510957 0.1263147 0.079352945 -0.19211005 -0.020956479 0.11547451

bias f4 [32]
00000000: 6805 6abc bbf8 b13c 0115 b2bc 53cd 05bd
00000010: f37d e33c 8eb3 a83c 79cc 65bc 0745 fdbb
00000020: cec4 eb3c 9df2 993c 5bd0 08bd 89e3 a03c
00000030: d97f bf3c f53d 5bbc 23f2 863c 4325 113c
00000040: 8e15 b53c 218b e6bc bac6 00bd 4085 93bc
00000050: 7ca1 a33c 573b da3a 6031 253d 0942 f33c
00000060: 6569 eabc 0eba 5d3c 89d8 7dbc b898 cd3c
00000070: 11a0 90bb bb1e bd3c 7764 f5bc b235 01bd
-0.0142835155 0.02172505 -0.021738531 -0.032666516 0.027770018 0.02059343 -0.014025801 -0.007729176
0.028780367 0.018792445 -0.03340183 0.019639747 0.023376392 -0.013381471 0.016472882 0.008858982
0.022105005 -0.028142514 -0.03143952 -0.018007874 0.019974463 0.0016649765 0.04033029 0.029694574
-0.02861471 0.013533128 -0.015493521 0.025097236 -0.0044136127 0.023085942 -0.029955132 -0.03154535

weight f4 [32]
00000000: 4f4f 7d3f 00aa 873f 7615 7b3f d25e 793f
00000010: 4e9d 863f 2679 7a3f 6bd7 823f 9a30 853f
00000020: 8cd8 8f3f 7ec2 7a3f cc33 863f dfa8 853f
00000030: 3d02 883f f650 8e3f 0030 883f b7e4 803f
00000040: ad33 873f 336d 7d3f 1e07 853f 731d 883f
00000050: ecb8 873f e6e4 793f 7579 863f e289 863f
00000060: 215b 793f 8950 893f eaf1 8c3f 9c75 803f
00000070: 277a 8c3f 39db 863f 1f30 7d3f 5214 873f
0.9894914 1.0598755 0.9807962 0.9741031 1.0516756 0.9784111 1.022199 1.0405457
1.123796 0.9795302 1.0484557 1.044216 1.0625683 1.1118457 1.0639648 1.0069798
1.0562645 0.9899475 1.0392797 1.0633987 1.0603309 0.97614896 1.0505816 1.0510828
0.97404677 1.0727702 1.1011326 1.0035892 1.0974778 1.0535651 0.9890155 1.0553076

bias f4 [32]
00000000: 1cdd b4bc baff 353d c043 afbc 9675 e33c
00000010: 21e3 683d bd80 d6bc eec3 dbbc ca93 21bd
00000020: 2876 3b3d 399e d7bc f839 3dbd a6f8 39bd
00000030: c550 7d3d a5b9 883d c8e6 823d b7bc 6aba
00000040: b154 523d debd e53c a337 15bd 599a 553d
00000050: ae44 653d 1f3f a93c fbee 503d 38e8 483d
00000060: bc94 f03c e7b2 72bd ebd0 8fbd d7de 2ebb
00000070: 743b ed3d 52c3 343d 61fc 0e3d 5ab5 5cbd
-0.02207809 0.044433333 -0.02139461 0.02776603 0.056857232 -0.026184434 -0.026826825 -0.039447583
0.04576698 -0.026320564 -0.04619786 -0.045403145 0.061844606 0.06676034 0.06391674 -0.00089545123
0.0513503 0.028044637 -0.036430012 0.05214915 0.0559737 0.020659981 0.05100916 0.049049586
0.029367797 -0.059252646 -0.0702227 -0.0026683116 0.115836054 0.044131584 0.034908656 -0.053883888

weight f4 [32]
00000000: 6d9b 883f 8150 853f 3d5a 8a3f e8ef 853f
00000010: 1121 873f 2b13 823f 0ab5 883f c3be 863f
00000020: e079 883f 0851 863f 5e0b 7d3f ba0a 8e3f
00000030: e89a 873f 403b 8a3f 2feb 873f 6a97 853f
00000040: a6e3 863f 5388 863f 083c 873f 3176 863f
00000050: a4d0 853f 8e6b 873f c5bd 813f fc93 8a3f
00000060: 25a8 813f 1548 923f 0041 813f 0d9d 8b3f
00000070: ca54 8a3f 15fc 8b3f 7394 7a3f b5af 863f
1.0672432 1.0415193 1.0808789 1.0463839 1.0556966 1.01621 1.0680249 1.0526966
1.0662193 1.0493479 0.9884547 1.1097023 1.0594149 1.0799332 1.0618647 1.0436833
1.0538223 1.0510353 1.0565195 1.0504819 1.0454297 1.0579698 1.0136038 1.0826411
1.0129439 1.1428248 1.0097961 1.0907303 1.0807126 1.0936304 0.97882766 1.0522372

bias f4 [32]
00000000: 3d67 b53c 25f3 88bc 3492 babc 231f e7bc
00000010: 3288 ab3c d536 d53a 928d 733c 3add e9bc
00000020: 8c89 403c 57ef 7dbc d11b b9ba be01 e53c
00000030: ca1c e13c 02ed 0ebc a21f 6fbc 08c1 25bd
00000040: 2145 1dbd bce3 d1bc f66e adbc 5be0 ddbc
00000050: be0c 29bb c2b8 b93b 2eed 96bb 66f7 9cbc
00000060: ea71 693c 7702 debb e4f4 e93c bbcf 243d
00000070: ece5 2a3d 5be1 9bbc aaab 063d fde0 d1bc
0.022143954 -0.016717503 -0.022774793 -0.02821309 0.020938966 0.0016266952 0.014865296 -0.028547872
0.011751544 -0.015498958 -0.001412267 0.027954932 0.027479548 -0.008723499 -0.014594944 -0.040467292
-0.038396005 -0.025621288 -0.021171074 -0.02708452 -0.0025794948 0.005667777 -0.0046059107 -0.019160938
0.014248351 -0.006775196 0.028559156 0.04023717 0.041723177 -0.019028356 0.032878555 -0.025619978

weight f4 [32]
00000000: de0d 743f 5dfc 723f c327 6c3f 7552 6d3f
00000010: b661 6d3f d57a 723f 9525 763f 07a4 723f
00000020: cedd 6c3f a718 6d3f cabf 6d3f 9b8e 713f
00000030: 1737 713f fedf 713f 94fa 723f 1116 723f
00000040: 514d 743f 7f59 623f d066 6f3f a117 713f
00000050: 44cb 6c3f 1bca 743f 4f58 6c3f 2da2 663f
00000060: 4a60 623f 9d6a 753f 0aca 703f 097e 6b3f
00000070: f0ed 743f 2f79 723f 3c9e 6d3f 3aa4 733f
0.9533366 0.94916326 0.9224817 0.92703944 0.9272722 0.94718677 0.96151096 0.94781536
0.9252595 0.9261574 0.9287077 0.94358224 0.94224685 0.9448241 0.949136 0.9456492
0.95430475 0.8841781 0.93516254 0.9417668 0.9249766 0.9562089 0.9232225 0.9009121
0.88428175 0.95865804 0.9405829 0.9198919 0.95675564 0.9471616 0.9281957 0.95172465

bias f4 [32]
00000000: c08e 323c 1435 933c 7561 06bc b589 e33c
00000010: 2182 78bb d7eb 66bc 0ae2 ac3c ff12 833c
00000020: 57b2 bbbc 0f30 6c3c b3d1 e33c 4671 9d3c
00000030: aa6a aabc e6ec b33a 3ad8 80bc bdfe 723c
00000040: 2c43 b83c 6b40 febb 7c44 be3c 5821 87bc
00000050: 7e79 093b 1f2c 483c 0924 b3bc e2f4 a13b
00000060: a3e8 80bb 1c07 843c 9306 523c dbd5 a43c
00000070: 30b0 27bb e1a4 40bc b107 ac3c 1d9a 943c
0.010898292 0.017969646 -0.0082019465 0.027775625 -0.003791936 -0.014094315 0.021103878 0.016000269
-0.022912188 0.014415755 0.027809953 0.019219052 -0.020802815 0.0013727217 -0.015728105 0.014831242
0.022492968 -0.007759144 0.023226015 -0.016495392 0.0020976956 0.012217551 -0.021867769 0.0049425224
-0.0039339825 0.016116671 0.01281895 0.020121505 -0.0025587194 -0.01175806 0.020999761 0.018139893
