pre_trained_models/mosi_aligned_A_TRANSLATOR_2.pt (torch, 75421 bytes, 23 tensors)

multi f4 [1, 32]
000000 3c 8c 82 be 9d 5f 2e 3e 12 22 b6 3e b5 90 38 3e
       -0.25497615 0.17028661 0.3557287 0.18023951
000010 87 74 6b 3b 81 ac c2 be 5e 26 c4 3e 0b 75 67 be
       0.003592761 -0.38022235 0.38310522 -0.22603242
000020 8b 14 da bc f1 4c 8e 3e d2 41 42 bd 4d db b9 3e
       -0.026621124 0.27793077 -0.047426052 0.36300126
000030 04 dc 85 be d8 de 85 3d 94 13 ad 3e 02 53 54 3e
       -0.2614442 0.06536645 0.33804 0.2073479
000040 8e 9d 92 be e0 e1 d3 3e 25 e4 4f 3e c7 5b d8 bc
       -0.2863583 0.41383266 0.20301874 -0.02641095
000050 ed 16 f1 bd 18 62 8c be 1b bb c0 3d 75 8f a0 bc
       -0.11771951 -0.2741859 0.094106875 -0.019599656
000060 bd 73 8c be 15 fa a7 3e 57 d0 26 3d ab 10 a4 be
       -0.2743205 0.32807985 0.040726032 -0.32043967
000070 c2 9c ba 3e 30 3f a9 be df ce 98 3e 37 05 b7 3d
       0.36447722 -0.3305602 0.2984533 0.089365415

weight f4 [50, 32]
000000 cd fc eb 3f 0b b2 54 3f 6f c4 9e 3b 4b 74 55 be
       1.8436524 0.8308417 0.004845194 -0.20845143
000010 c5 70 d9 bf 48 e4 a5 be ec f0 8c 3f cf 2e 10 bf
       -1.698754 -0.32400727 1.1011024 -0.56321424
000020 85 0e 1c 3e bd 37 25 3f 77 cc 17 bf f6 4a 28 3f
       0.15239914 0.64538175 -0.59296364 0.6573938
000030 77 1b 09 c0 5e 64 ba 3f 72 56 0d bf ec f1 2a 3f
       -2.1423013 1.456188 -0.5521003 0.66775393
000040 83 b5 b1 bb 04 5b 28 bf 46 9a 34 3f 3c ac 0f bf
       -0.005423249 -0.6576388 0.705479 -0.56122184
000050 cd 09 37 c0 69 58 92 bf 00 5e b0 bf 0d d5 6d 3e
       -2.8599732 -1.1433231 -1.3778687 0.23225804
000060 f3 13 66 3f fc 2d 52 3f fb 7b 10 bf 8f e5 77 bd
       0.8987419 0.82101417 -0.5643918 -0.06052166
000070 31 0a 72 bf 07 43 42 3d f1 84 e2 3e 42 03 52 bf
       -0.945468 0.047427204 0.4424205 -0.8203622
000080 f9 de d0 bf 0e 8f cb bf 96 b3 8d bf 63 dc 94 3d
       -1.6318046 -1.5903032 -1.107043 0.07268598
000090 ea c8 21 3f 09 75 4f 3f cf d5 4a bf 89 48 ca be
       0.63197196 0.81037956 -0.79232496 -0.39508465
0000a0 38 52 83 bf c7 a4 ca be 47 71 d1 be 3c 9d 74 bf
       -1.0259466 -0.3957884 -0.40906736 -0.9555242
0000b0 9e 4e c8 bf 14 7b e4 bb 71 29 0e 3f 3d 84 b6 3f
       -1.5648992 -0.00697268 0.55531985 1.4259106
0000c0 38 c9 fe 3e 59 80 d3 bd b7 fe 82 3f 23 7f 34 3f
       0.49762893 -0.10327215 1.0233983 0.70506495
0000d0 0a 9a 4d 3c a3 46 10 3e 70 c7 da 3e ce f8 9a ba
       0.012548933 0.14089446 0.42730284 -0.0011823417
0000e0 11 54 d7 3e 93 e8 9c be 10 ef d8 bf fd 64 0c c0
       0.42056325 -0.3064619 -1.6947956 -2.1936638
0000f0 21 09 7b 3e 0b ad 53 3f 35 5b 5f bf 46 4d c3 3f
       0.24515201 0.8268592 -0.87248546 1.5257957
000100 3b 73 e7 bf 24 fd 82 bd dd 38 76 bf 6c 8b 0f 3f
       -1.808204 -0.06395939 -0.96180516 0.56072116
000110 bb b6 15 3f 26 75 94 be 43 9a 4d 3f 13 0e 3e bf
       0.5848195 -0.28995627 0.8031351 -0.74240226
000120 d3 22 cc bf af c5 ce 3f c4 f7 91 bc df bb aa 3e
       -1.5948128 1.6154078 -0.01781834 0.3334646
000130 e4 6d 4d 3f 34 2a d8 bc 50 98 12 bf 88 6d 2a bf
       0.80245805 -0.026387312 -0.5726366 -0.6657338
000140 f9 74 75 be a2 79 4c 3f d8 89 c9 bf 1d ff 4f 3e
       -0.23970403 0.79873097 -1.5745192 0.20312162
000150 53 9d a2 3e b9 6d eb 3e a9 cf 4d bf e6 59 9f bf
       0.31760654 0.4598215 -0.8039499 -1.244931
000160 f1 64 1d bf ee c3 9b be 89 40 ba bf c0 41 9e 3f
       -0.6148215 -0.3042292 -1.4550945 1.2363815
000170 4c 30 a6 bf 30 42 a1 bb 4f 05 84 3f 95 f3 29 3f
       -1.2983489 -0.0049212202 1.031412 0.663873
000180 25 f9 b3 3f a4 c9 a1 3f da ce 49 bf e8 68 fd 3e
       1.4060408 1.2639661 -0.78831255 0.494941
000190 10 25 57 bd e6 37 2b 3f c3 b9 9e bf 46 52 d7 be
       -0.05252558 0.6688217 -1.240044 -0.42054957
0001a0 69 ed 8c bf 19 3e 20 bf f1 f6 95 bf 49 67 31 bc
       -1.1009952 -0.62594754 -1.1715986 -0.010827848
0001b0 22 41 90 3f ad 2a ef bf 9d 2c ca bf 58 42 0e 40
       1.1269877 -1.8684899 -1.5794865 2.2227993
0001c0 0c ef 8a 3e bf ba d1 bf c0 dc 75 bf 9d 69 91 bf
       0.27135503 -1.6385115 -0.9603996 -1.1360356
0001d0 56 52 9a bf ce 2c a8 3d d1 bd 02 bf c0 ab d2 3f
       -1.2056377 0.08211671 -0.51070887 1.6458664
0001e0 e4 ad 9a 3d 7f d2 39 bf c2 6c 2b bf 0c 9a 47 3e
       0.07552698 -0.72586817 -0.66962826 0.19492358
0001f0 6a c2 f3 bf 3b 1f 4e bf a1 33 c3 bf 5a b9 20 3f
       -1.9043705 -0.80516404 -1.5250131 0.62782824
000200 ee a7 93 bc 12 78 fa bd 81 0f bf be 95 ad 30 3d
       -0.018024411 -0.12229933 -0.37316516 0.04313429
000210 d2 50 4f bc 9e ac 23 3f 17 32 50 3f a7 e6 70 3f
       -0.012653546 0.6393527 0.8132643 0.9410195
000220 61 37 b5 be 94 59 f9 bd 87 27 f0 3e a8 ce a5 bf
       -0.35393813 -0.12175289 0.46905157 -1.2953691
000230 c4 6a 0a bf ab 5f 20 bf 98 4d c5 3f d6 cb 23 3f
       -0.5406916 -0.6264598 1.5414305 0.63982904
000240 02 2e fc bf 73 4a b4 bf a7 0d 19 c0 a5 be 91 3f
       -1.970154 -1.408522 -2.3914583 1.1386305
000250 ad 2a 15 40 11 dd 66 be e0 27 c5 bf d4 34 d4 3e
       2.3307297 -0.22545268 -1.5402794 0.41446555
000260 a8 e2 cd 3f e7 73 79 3f f5 9d c7 bf fc 34 ca bf
       1.6084795 0.9744248 -1.559508 -1.579742
000270 e1 09 51 3e 02 33 94 3f 95 7a c2 3f 17 66 c3 bf
       0.20413925 1.1578066 1.5193659 -1.526553
000280 25 2c 56 3e b3 0a 49 3e 5e 43 cf be 60 0e 80 3e
       0.20915277 0.19632988 -0.40481085 0.25010967
000290 8e be 5f 3d 77 2a 83 bf ef f5 76 bf 65 4c 2f bf
       0.054625086 -1.0247334 -0.96469015 -0.68475944
0002a0 b4 af 09 bf e4 87 2d 3f 8d 3e 6a 3f 30 ab 6d 3f
       -0.53783727 0.6778548 0.91501695 0.92839336
0002b0 d9 1b ca bf 2c cb bc 3f ff cd 4d bf fd 22 ba 3f
       -1.5789748 1.4749503 -0.8039245 1.4541928
0002c0 86 97 80 be 49 2d 61 3d 5e d9 41 3f 38 6c a7 bf
       -0.25115603 0.054974828 0.757223 -1.3079901
0002d0 05 25 bc be fb 72 d2 3e 6c 20 c7 be 6d 5c 43 3f
       -0.36746994 0.41103348 -0.38891923 0.76312906
0002e0 ff 2c ab be 5a dc d8 3f 4a 8f 16 3e b4 7d c3 ba
       -0.33432767 1.6942246 0.14703098 -0.0014914782
0002f0 af 5d 66 3f d9 75 11 3f b5 a9 07 3f 3e ea e4 be
       0.899867 0.56820446 0.5299333 -0.44709963
000300 19 25 9d 3f 57 6a ad 3e 91 fc 36 be 9e 55 a3 3f
       1.2276946 0.33870193 -0.17869784 1.2760503
000310 6a e9 2a 40 d4 a6 3c 3f 7d 97 23 bf a5 8a 5b 3f
       2.6704965 0.7369206 -0.6390303 0.8575843
000320 dc b2 a9 3f 10 a9 4f 3d b6 b2 3f bf 6f 5e ca 3f
       1.3257709 0.05069834 -0.74882066 1.5810069
000330 2e 12 4b be de 16 03 3f 54 91 fc bf 71 f0 76 bf
       -0.19831154 0.5120677 -1.9731851 -0.96460634
000340 87 fb 6e bf 5c e6 3c c0 fb d6 8c 3d 0a 2c a2 3f
       -0.9335255 -2.95156 0.06876942 1.266969
000350 43 6f 5e bf 5d 78 88 3e dc 52 7e be 75 6c 2a be
       -0.8688852 0.2665433 -0.24836296 -0.16642936
000360 30 80 97 3f a9 c4 69 bf 72 10 3a 3f eb a0 77 bf
       1.1835995 -0.91315705 0.72681344 -0.96729916
000370 66 21 85 3d 52 86 2d bf 6c 46 34 be 23 0b 4b be
       0.06500511 -0.6778308 -0.17604989 -0.19828467
000380 18 a0 09 40 96 fa 51 bf f5 d3 72 3e ee 6d 15 bf
       2.1503963 -0.8202299 0.23713668 -0.58370864
000390 24 7d a1 bf f8 e0 e5 3e 7b ec 68 bf c5 15 a7 3e
       -1.2616315 0.448982 -0.9098584 0.32633796
0003a0 7d 48 2d 3f b6 55 96 3d e0 90 11 40 36 47 17 bf
       0.67688733 0.07340567 2.2744675 -0.59093034
0003b0 3f 5a a4 3f 2c fa ae 3f bb d5 c6 3e b5 e5 58 3d
       1.2840041 1.3670096 0.38834938 0.05295344
0003c0 8a fe f5 bd d7 63 0e 3f a1 21 f1 bd 69 bc 14 be
       -0.1201144 0.55621094 -0.11773992 -0.14524998
0003d0 bd e9 1d 3f 2d f1 20 bf b9 a0 3a bf 07 6a 4a bf
       0.6168478 -0.62868005 -0.72901493 -0.79068035
0003e0 56 b1 25 3d 41 cc 9d bf 07 8c 31 bf cf c4 01 c0
       0.040452324 -1.2327958 -0.6935429 -2.0276372
0003f0 9f 46 f3 bf c4 96 e3 3e b4 3f 79 3e f4 b5 94 be
       -1.9005927 0.44450963 0.24340707 -0.2904507

weight f4 [4, 32]
000000 89 49 93 bf 7c bc 82 be 23 55 7b 3f ba 86 88 3f
       -1.1506816 -0.25534427 0.98176783 1.0666115
000010 47 ba 22 3e f7 48 ca 3f 4d 57 f5 3e 1d 67 cd 3f
       0.15891372 1.5803517 0.47918168 1.6047093
000020 21 f5 c8 3e af fd a0 3e 98 88 6f bf 41 6e b8 be
       0.3924952 0.31443545 -0.935678 -0.36021617
000030 7a f1 bc 3f 26 7f a9 be e9 a6 de 3e 71 fc a3 3f
       1.4761193 -0.3310482 0.43486717 1.2811414
000040 aa 4f 89 bf cd 0f 0a 40 f0 19 d7 3d d5 25 fd bf
       -1.0727437 2.1572144 0.10502994 -1.977717
000050 a7 1d 94 3f 61 73 d9 be 4d bb a6 bf f3 9d 1e 3f
       1.1571549 -0.4247084 -1.302591 0.6195976
000060 40 5a d7 bd 39 f0 fc bf 45 0e eb be b7 6b b3 bf
       -0.10515261 -1.976081 -0.45909324 -1.4017247
000070 45 f6 5b bf 4e 06 ca 3f 7d 43 59 be d3 4f 35 3f
       -0.8592265 1.5783174 -0.21217151 0.7082493
000080 e6 b3 24 c0 61 7c ee 3f 73 25 45 bd 89 98 db 3f
       -2.5734801 1.8631707 -0.048131417 1.7155925
000090 f2 c1 e0 bd 57 db c7 bd 89 ba 84 bf 92 dc 8e 3f
       -0.10974492 -0.09758633 -1.0369426 1.1161063
0000a0 85 d0 75 bd 47 84 f9 3d 45 82 d2 bf 94 38 5a bf
       -0.060013313 0.12183433 -1.6446005 -0.8524258
0000b0 52 dc e0 be 7b 7a a6 be 96 cb 5b be df 75 a9 bf
       -0.4391809 -0.3251532 -0.2146438 -1.3239096
0000c0 46 df 35 3f fd 6f ce 3e e4 d6 99 be f8 db 81 3f
       0.71043813 0.40319815 -0.3004676 1.0145254
0000d0 e2 01 ac bf 00 2a f2 3e e5 37 18 bf cf 96 9e be
       -1.3438075 0.47297668 -0.5946029 -0.30974433
0000e0 2b a3 36 3e 3f f5 65 bf 23 28 e9 be a8 cf f0 3f
       0.17835681 -0.8982734 -0.45538434 1.8813372
0000f0 c7 19 16 be 2f 2c a6 3f 22 00 09 bf 65 7d cb bf
       -0.14658271 1.2982234 -0.5351583 -1.5897642
000100 da 2b 12 3f 5b a5 26 40 1f 40 d2 3e 69 da 0f 3e
       0.5709816 2.6038425 0.41064546 0.1404816
000110 1a ce 81 3d 51 59 85 3f 5b c2 0f bf 0d c5 6b 3f
       0.06338139 1.0417882 -0.5615594 0.9209755
000120 34 4e 2a 3e 4e 2f 6b 3f 32 e2 bb bf 80 42 3f 3d
       0.16631395 0.91869056 -1.4678404 0.04669428
000130 5b 0e e6 be b0 35 00 40 3a 92 8b bf a9 67 dd bd
       -0.44932827 2.0032768 -1.0904 -0.10810787
000140 11 17 63 3d d4 14 07 bc f0 24 0a 3e ba 6e 0e 3f
       0.05544192 -0.008244712 0.13490653 0.55637705
000150 30 e7 f8 be 5e 7d e6 be 99 f5 ed 3e da 19 25 bf
       -0.48613882 -0.45017523 0.4647644 -0.6449257
000160 b0 d9 e0 3f 40 99 12 c0 3f fb d8 bf 7c 9f 1a 3f
       1.7566433 -2.2906036 -1.6951674 0.60399604
000170 42 d3 01 bf e0 36 4b bf f2 34 9b bf f8 8b 53 3f
       -0.5071298 -0.7938061 -1.2125533 0.8263545
000180 00 0e f9 3e fe 08 0f 3f 21 97 db be 63 cd fd bd
       0.48643494 0.55873096 -0.4288874 -0.1239269
000190 60 92 7b 3f b5 e8 8b bf bf 0d 37 bf d0 0c b8 3e
       0.98270226 -1.0930392 -0.7150535 0.35947275
0001a0 a2 f2 0d 3f 4e 2f 7f bf c7 d1 70 3f 31 52 12 bf
       0.55448353 -0.99681556 0.94070095 -0.57156664
0001b0 e0 33 07 40 17 8a 0f 40 4c a5 a2 3d 8f 0f 08 3f
       2.1125412 2.2428033 0.07941684 0.5314874
0001c0 77 61 29 bf ed 7a 5d 3f ea 29 04 3f 2d d0 b9 3f
       -0.66164345 0.86515695 0.51626456 1.4516655
0001d0 c3 20 8a bf 3e c2 19 bf 08 de 0a bf b7 5b 90 3e
       -1.0791248 -0.60062015 -0.5424504 0.28194973
0001e0 1a 31 f1 bf ea d6 57 be dc 0f 4d bf 9c 49 ee 3e
       -1.884311 -0.21078077 -0.80102324 0.46540534
0001f0 df b3 27 3f b6 74 98 bf cf be 13 c0 14 c3 66 bf
       0.65508837 -1.1910617 -2.308521 -0.90141416

in_proj_weight f4 [96, 32]
000000 cd 37 59 bd 53 37 bf 3c ed df c9 bd 13 49 05 be
       -0.05303173 0.02334181 -0.098571636 -0.13016157
000010 2d c7 5b be c8 3b 60 be 9f 09 d7 bd 30 9d bc 3d
       -0.21462698 -0.21897805 -0.10499882 0.09209669
000020 93 a2 b0 3d ed 5c b2 3d 7c 80 5c be 35 34 7d 3d
       0.086247586 0.087091304 -0.21533388 0.061817367
000030 b8 92 14 3e a3 cc cb bd 35 b1 83 bd e8 de fd 3d
       0.14509094 -0.09951141 -0.06430284 0.123960316
000040 e6 81 5c 3e 79 ce 06 be 4b 05 1a bd 98 9e c0 3d
       0.21533927 -0.131647 -0.037602704 0.09405249
000050 3f 8f c5 bd 77 66 0e be c7 59 1b be 90 8c 91 3d
       -0.09646463 -0.13906275 -0.15170966 0.07106888
000060 bb 97 a5 3d 9f 73 d0 3d 5d f8 16 be cd 6d 1e 3e
       0.08085581 0.10178303 -0.1474318 0.15471573
000070 2c 73 96 bd f3 b8 5b be 25 90 05 be 1c 15 1f 3c
       -0.07346186 -0.21457271 -0.13043268 0.009709623
000080 37 72 92 3d 51 b2 2d 3d 14 9f d5 3c c8 4d fa bc
       0.07150691 0.042406384 0.02607683 -0.030554667
000090 dd 41 e9 3c b7 37 30 3e d7 fa a7 3d 01 fd 43 be
       0.028473789 0.17208754 0.08202141 -0.19139482
0000a0 2b ca 2b be 7b b6 31 3e 72 8c a3 bd 39 24 1a 3e
       -0.1677634 0.17354767 -0.07985772 0.1505288
0000b0 03 03 1d be 2f ed 0c bd fa ec e1 bd b7 60 40 be
       -0.1533318 -0.034405883 -0.11031528 -0.18786894
0000c0 e0 6a b0 3d 42 7c 58 be e0 4d 1c 3c de d0 34 3e
       0.08614135 -0.2114115 0.009540051 0.17657802
0000d0 88 be d4 bd 3a cd 14 3e 00 73 09 be 85 74 1d 3e
       -0.103879035 0.14531413 -0.13422775 0.1537648
0000e0 d3 80 36 3e 93 43 09 be 16 29 87 bd 8f eb 04 3d
       0.1782258 -0.13404684 -0.065996334 0.03245121
0000f0 68 90 4e 3e a2 91 21 3e e4 a3 fc 3c 40 ad 6a 3d
       0.20172274 0.15778211 0.030839868 0.05729413
000100 97 b3 00 bd 35 1b 55 3e cf 3b 08 be 08 6a ca 3d
       -0.03142127 0.2081116 -0.13304065 0.09883505
000110 f4 81 3a be 8a cd 19 3d 3a 8c 40 be de d2 06 bd
       -0.18213636 0.037549533 -0.18803492 -0.032915942
000120 a6 f3 d9 bd de 61 c1 bd 2b 0b 7f 3d ed fc fa 3d
       -0.106421754 -0.09442495 0.06226651 0.12255273
000130 15 c0 4a 3e 1b c6 fc bd 2c 5d 1e 3e 62 b0 8b 3c
       0.19799836 -0.12342473 0.1546523 0.01705188
000140 07 dd 89 3d 4a 94 2b be a7 91 f2 3d 00 da 0a 3e
       0.06731611 -0.16755787 0.11844187 0.13559723
000150 26 ba 42 be 7c 29 72 bd f4 00 61 3d 54 fc 81 bd
       -0.19016322 -0.059121594 0.05493255 -0.06346956
000160 e2 50 4e be c8 73 00 be cb 35 ed bd e3 20 55 3e
       -0.20148042 -0.12544167 -0.11582526 0.20813327
000170 ed dd 4e 3e b5 c4 13 3e 77 35 dc bc 6d f9 9d bd
       0.20201845 0.14430507 -0.026880963 -0.0771359
000180 72 4e 86 bd 08 82 a3 bc 4e a0 b8 bd 69 e6 7f bb
       -0.06557931 -0.019959465 -0.09014951 -0.0039047247
000190 c1 b5 22 3e 97 97 ba 3d 30 6e fa bd 8f a5 67 bd
       0.15889646 0.09110945 -0.12228048 -0.056554373
0001a0 fe 16 51 3d 46 6f 2d 3e 97 c4 1e be b2 5d e8 bd
       0.051047318 0.16936979 -0.1550468 -0.11345996
0001b0 2f 06 2c be 6d a3 d5 b7 8d d9 21 3e e1 11 28 be
       -0.16799234 -2.546768e-05 0.15805645 -0.1641307
0001c0 ca 62 ba bd 31 c9 54 be 45 44 19 be a4 dc 34 3e
       -0.09100874 -0.20779873 -0.14967449 0.17662293
0001d0 f9 49 f3 3c e2 b7 6f 3d 52 f0 40 be 9f c2 c5 3d
       0.029698359 0.058524974 -0.18841675 0.09656262
0001e0 a5 72 ee 3d a2 57 24 be da ec 3d be 44 09 23 3e
       0.116429605 -0.16049054 -0.18547383 0.15921503
0001f0 2a ec 00 be 70 ef a4 3d b1 02 44 be e1 04 28 be
       -0.1259009 0.080534816 -0.19141652 -0.16408111
000200 0a 7c 4d 3d bd 34 81 3d 56 9b 9d 3d 44 58 0a be
       0.05016712 0.06308887 0.076956436 -0.13510233
000210 8e 77 e3 3d 80 12 1d be 88 e3 b7 3c 14 a5 ec bd
       0.111067876 -0.15339088 0.022447363 -0.11554924
000220 be 05 53 bd 2a 27 b3 3d 36 74 88 bd b2 12 ad 3d
       -0.051519148 0.08747704 -0.066627905 0.084508315
000230 5b 90 0e 3d 3b 4a f7 3d 3e 19 16 3c 5a 92 07 3c
       0.034805637 0.12074705 0.009161292 0.008274639
000240 03 09 33 3e 35 a6 3c 3e b3 fc 96 3d e8 39 89 3d
       0.17483906 0.18422778 0.07372417 0.06700498
000250 52 7b 3e 3d be ef 64 3d 6b 1a 55 bc 73 fb a8 bc
       0.046504326 0.0558927 -0.013006787 -0.020627713
000260 48 bf 58 bd 55 75 d0 bc 1b 59 4b 3d f5 59 ee bd
       -0.052916795 -0.025446573 0.049645524 -0.11638252
000270 0d ac 00 bd c0 48 9a 3d 7d db a2 3d 97 90 c7 3d
       -0.03141408 0.07533407 0.0795202 0.09744375
000280 fa dc d1 bd 84 ce 17 3e 48 0d 86 3d a9 46 84 bd
       -0.10247226 0.14824873 0.06545502 -0.0645879
000290 ea 89 4d be d1 65 16 be 4a de c8 3c 4b e6 22 3d
       -0.20072141 -0.14687277 0.024520058 0.039770406
0002a0 b0 e0 da bd 31 69 27 be cb 0a 6a bc c6 c4 96 bd
       -0.10687387 -0.16348721 -0.0142848 -0.0736175
0002b0 64 6e e4 bd 8c aa bc 3d 11 81 64 3d 38 be d2 bd
       -0.11153868 0.09212217 0.05578715 -0.102901876
0002c0 dc 46 57 bd 7f b5 8b 3d 1f 42 66 3e 23 1e 8f 3d
       -0.05255781 0.06821727 0.2248616 0.0698817
0002d0 55 64 a5 3d cc 7b 34 be a9 3e 07 3d bf e6 a5 3d
       0.080757774 -0.1762535 0.03301874 0.08100652
0002e0 9c 47 e3 3d 42 45 09 3e fb 87 ed 3d bc 79 d0 3d
       0.11097643 0.13405326 0.11598202 0.10179469
0002f0 29 8a 60 3b 8a a7 4f bd 12 c4 6c be 5d 49 38 3e
       0.0034262037 -0.050696887 -0.2312167 0.17996736
000300 31 8d 02 3e 80 bf 37 be 04 0e 45 3d ed d2 1f be
       0.12749173 -0.17944145 0.04810907 -0.15607806
000310 0f df 3c 3d e7 6e 4e be ae 0c 56 3e 81 b4 0c 3e
       0.046111163 -0.20159493 0.20903274 0.13740732
000320 36 ca 3b 3e d5 a1 e6 3d 81 63 2c 3e 55 c2 14 3e
       0.18338856 0.11261336 0.16834833 0.14527257
000330 50 28 10 3d 94 ce 97 3c c5 ba d7 bd e6 dc 4c 3e
       0.035194695 0.018531121 -0.1053367 0.20006141
000340 d1 e1 6c bd 0b 54 4d 3d fd 64 3c 3a 5c da ae 3d
       -0.057832543 0.050128978 0.0007186679 0.085377425
000350 ce 3a b1 bd 5e 9f bb 3d 38 96 e8 bd 2e 82 53 bc
       -0.08653794 0.09161256 -0.11356777 -0.012909455
000360 96 c7 50 3d 6f be 63 3d d3 c7 e6 3d 41 3f 21 be
       0.05097159 0.055601534 0.11268582 -0.15746786
000370 44 fe 60 3e 07 80 27 be 71 fe 3f 3e 40 e3 8b 3d
       0.21971995 -0.16357432 0.18749405 0.06830454
000380 88 56 9c bd 26 c7 30 3e a0 9d 90 bd b7 46 f5 3c
       -0.07633692 0.17263469 -0.070613146 0.029940946
000390 d4 52 4c be 4b c6 31 3e 67 20 0f 3e 97 a2 e9 bd
       -0.19953471 0.17360799 0.13977204 -0.11407965
0003a0 4c 91 ec 3d 57 38 a4 3c ff e5 45 3e 1b be 8b 3d
       0.11551151 0.020046396 0.19326018 0.06823369
0003b0 d3 24 2a be 28 97 0a be 46 82 f5 3c 77 d9 5d bd
       -0.1661561 -0.13534224 0.029969346 -0.05416247
0003c0 87 a3 17 3e 2f 4e 08 be 39 34 47 be b7 34 2b bd
       0.14808474 -0.13311075 -0.19453515 -0.04179832
0003d0 86 2d 4c 3e 43 32 03 bd 22 f1 9d 3d c4 a5 0c 3e
       0.19939241 -0.032030355 0.07712008 0.1373511
0003e0 47 92 40 bd b2 54 b6 bc 4f e8 05 bc 1d 86 07 be
       -0.0470145 -0.022257183 -0.0081730625 -0.13234754
0003f0 4d e8 ae 3d b4 a7 86 3d 6f 3c c9 3d 68 9c fc bd
       0.085404016 0.065749556 0.0982598 -0.123345196

in_proj_bias f4 [96]
000000 3f cc 17 3c 59 ba a3 3b d2 f2 be 3b 4e ad 09 3c
       0.009265005 0.0049965796 0.0058272863 0.008403135
000010 11 bc a3 3c 89 38 a3 3c 38 dc a7 bc 1a e9 aa bc
       0.019987138 0.019924419 -0.02049075 -0.020863105
000020 f1 b3 6b 3c 97 ff 77 bc be 90 79 bc 14 0b 49 bc
       0.014386163 -0.015136621 -0.015232263 -0.012270708
000030 09 36 45 3c c7 8c 64 3c 14 03 83 3c dd a7 60 3c
       0.012036809 0.01394958 0.015992679 0.013711897
000040 15 34 8d 3c e5 2f 81 3c 37 3c 93 3c 2b ca a0 3c
       0.017236749 0.015769908 0.017973049 0.019627651
000050 72 36 e2 bb 99 93 61 ba a7 56 73 3c 3c fa bb 3b
       -0.006903463 -0.00086050626 0.0148522025 0.0057366174
000060 c0 03 8a bc 8e 5a a6 3c 3e ea a1 bc 7d 13 96 bc
       -0.016847491 0.020306852 -0.019765016 -0.01831984
000070 d0 32 a3 3c c6 74 26 bc 16 82 09 bb cb 28 a4 3c
       0.01992169 -0.010159677 -0.0020982078 0.020038983
000080 33 c4 86 b6 a5 e7 07 36 3a 92 21 b4 63 eb 80 b6
       -4.016352e-06 2.0251402e-06 -1.504749e-07 -3.8421e-06
000090 b0 15 5b b5 a8 16 1c 36 6f 46 91 35 70 1e 4a b6
       -8.1615417e-07 2.3259e-06 1.0823841e-06 -3.0118063e-06
0000a0 13 44 69 35 2b 8e 31 b5 87 10 f0 b4 37 a9 fc b6
       8.6898325e-07 -6.614452e-07 -4.471551e-07 -7.5298844e-06
0000b0 92 f9 9b 36 da 81 3b 35 93 ad 88 b5 a2 42 1c b6
       4.648414e-06 6.985189e-07 -1.0183306e-06 -2.3284597e-06
0000c0 30 37 3b b6 76 0d 81 b5 ac be 10 35 d3 d0 6f b6
       -2.7897295e-06 -9.615167e-07 5.3921644e-07 -3.5735327e-06
0000d0 07 2b de 36 07 fc e1 b5 5d 46 24 b6 bd 30 2c 36
       6.6211246e-06 -1.6837156e-06 -2.4478861e-06 2.5658367e-06
0000e0 7d 2b 02 36 f9 e6 66 36 63 46 14 37 57 76 d8 35
       1.9396823e-06 3.4407115e-06 8.837876e-06 1.6127696e-06
0000f0 55 c2 78 36 21 83 3f b6 c0 93 a2 36 0c 22 12 b6
       3.7067996e-06 -2.8537545e-06 4.8451766e-06 -2.1775513e-06
000100 bb a8 1f bc e1 ba 37 3c 6a db 66 bb a4 2e 86 bc
       -0.009744818 0.011213989 -0.0035225996 -0.016379662
000110 bf 88 fe bb 0e b1 da 3b 9f 61 9e bc 18 ca 9b bc
       -0.0077677662 0.0066739386 -0.019333659 -0.019017264
000120 8c 38 85 3c a4 78 88 bc 6e b3 e0 bb 67 2c 6d 3c
       0.016262315 -0.016659088 -0.006857327 0.014475918
000130 d8 10 28 bc 8b 36 72 bc bb 50 1f 3c 1f 05 5c bb
       -0.010257922 -0.014783512 0.0097238375 -0.0033572388
000140 05 96 a6 3c 75 3c a8 bc 68 7c 03 3c 28 e4 c2 bb
       0.020335207 -0.02053664 0.008025266 -0.0059476085
000150 81 fe 50 3c 44 c1 86 3b d3 61 70 bc 3c a6 a8 bc
       0.012755991 0.0041123945 -0.014671761 -0.02058708
000160 49 f4 8c bc 05 15 0a 3b ab a2 78 3c 41 cc 87 3c
       -0.017206328 0.0021069658 0.015175502 0.016576888
000170 32 87 6c 3c d2 54 92 3c 53 a5 a5 bc 4f f9 89 bb
       0.01443653 0.017862711 -0.020220434 -0.004210628

weight f4 [32, 32]
000000 c5 42 1a be 2e 58 58 be a8 90 4b 3e 09 5c 6e 3e
       -0.15064533 -0.21127388 0.198794 0.23277296
000010 a7 b9 96 be 03 ea 5c 3d 55 7b 32 3e a1 a9 0a be
       -0.29438516 0.05393411 0.1742986 -0.13541271
000020 e4 be e4 bc 62 8c 6f 3e 12 7a 0a 3d 61 c7 3c be
       -0.027923055 0.23393396 0.03380782 -0.18435432
000030 0f 73 94 3e 6b c7 6e 3e 5b ae c0 bd 32 af 4f 3e
       0.28994033 0.2331826 -0.09408256 0.20281675
000040 0c b2 17 3e ac af 2e 39 be 7b 33 be 49 b0 f4 bd
       0.14814013 0.00016659376 -0.17527673 -0.11947686
000050 c7 0e 8d be 3b 65 0f 3e fd f3 96 be ba 18 ad 3d
       -0.27550337 0.1400346 -0.29483023 0.08451982
000060 cf 87 92 3c 50 7d 05 3e c2 bd 68 bd f6 28 98 be
       0.017887024 0.13036084 -0.056821592 -0.2971875
000070 8e 3a 4d 3d 3d e0 02 3e 08 45 08 be 4a 0c 85 be
       0.05010467 0.12780853 -0.13307583 -0.25985938
000080 1f 04 8d 3d f6 aa c2 bc 67 ee 1d be 75 43 68 be
       0.06885552 -0.023763161 -0.15422975 -0.22681983
000090 85 cf 9f 3e 8b 7d 8e 3e f3 15 90 be d5 b5 c6 3d
       0.31213012 0.27830157 -0.28141746 0.097026505
0000a0 77 40 87 3d 18 70 98 3b 5e 8a 90 3e 9f 51 13 be
       0.066040926 0.0046520345 0.28230566 -0.14386605
0000b0 b4 85 bd 3c 37 37 0d 3e 7a 5c 54 bd e8 4b 49 3d
       0.023135044 0.13790594 -0.051846005 0.049144655
0000c0 7f 57 23 be c5 11 95 be 26 51 2a be 0f 83 9f be
       -0.15951346 -0.2911512 -0.16632518 -0.31154677
0000d0 db 07 54 37 56 a9 97 be 75 e2 59 3e fe 8d 12 be
       1.2638014e-05 -0.2962138 0.21277793 -0.14311978
0000e0 53 b3 3a 3e 17 ba 2f 3e 3e 00 55 be 80 11 51 be
       0.1823247 0.17160831 -0.20800874 -0.20416832
0000f0 44 8d 98 be 2e fd e0 bc 9d 2a 64 3e 07 94 31 be
       -0.29795277 -0.027464475 0.2228188 -0.17341624
000100 d5 04 38 bd 52 bb d3 3d 8f 90 97 3d 0a f6 d6 3c
       -0.044926483 0.10338463 0.07400619 0.026240367
000110 f6 0f d9 bc 34 78 90 3e 1d d5 db bd ee b6 24 be
       -0.026496869 0.28216708 -0.107340075 -0.16085407
000120 2e cc 86 3e a0 a8 22 be 8f 96 31 3c 38 9b 94 be
       0.26327652 -0.15884638 0.010839119 -0.29024673
000130 96 46 88 be 98 61 c8 bd 20 d4 20 be bf 01 4d be
       -0.26616353 -0.097842395 -0.1570592 -0.20020197
000140 2a 72 e2 bd 0b 90 2a be 55 06 3a 3e 91 90 76 be
       -0.11056931 -0.1665651 0.18166478 -0.24078585
000150 35 ff 4a 3e c0 b4 9f 3d 0e aa 45 3d 45 f5 30 be
       0.19823916 0.07798147 0.04825788 -0.17281063
000160 c7 af e7 3d c4 03 18 be 93 b3 53 be 7f bd 86 be
       0.11312824 -0.14845186 -0.20673971 -0.2631645
000170 74 71 e3 3c 3c 50 9d be 83 22 84 3d 4e e1 5d bd
       0.02776406 -0.30725276 0.06451895 -0.054169945
000180 94 86 90 3e 6a 90 a2 bd 1e 2b 01 be b2 a8 5f be
       0.28227675 -0.07937701 -0.12614104 -0.21841696
000190 5c b3 33 3e 50 fc 3f be 99 15 b0 bb 94 a1 1b be
       0.17548889 -0.18748593 -0.0053736684 -0.15198356
0001a0 ba 31 40 3e 4c 98 1d 3e 44 13 1f 3d c2 af f0 3d
       0.18768969 0.15390128 0.038836733 0.11752273
0001b0 6f 0e 4c be 01 2a 9d be 68 b2 7f 3e 81 a4 8c be
       -0.19927381 -0.3069611 0.249704 -0.27469257
0001c0 26 bd 3c 3e 00 d9 b7 bd 86 09 f6 bd 13 0b 8a be
       0.1843153 -0.08976936 -0.12013535 -0.26961574
0001d0 c6 0c 1e 3e da 2e 20 3e b5 bb 87 be 77 0d 0d be
       0.1543456 0.15642872 -0.26510397 -0.13774668
0001e0 8e 05 4b 3e 7e 11 12 3e 8c 45 8a 3e 71 37 9c 3e
       0.19826338 0.14264485 0.27006185 0.30511048
0001f0 64 5c 85 3e aa c5 5d be 97 1e 40 bc 2a 65 95 be
       0.2604705 -0.21657434 -0.011726043 -0.29178745
000200 52 f0 7e 3d 00 d1 8b 3e 6b 76 12 be 45 15 42 3c
       0.062240906 0.27307892 -0.14302985 0.011845891
000210 09 9a 3a 3d b1 ea c9 3c f3 2d 3f be 62 c9 8b be
       0.045557056 0.024648042 -0.18669872 -0.2730208
000220 f3 f7 24 be bb f1 95 be 59 73 17 be 2c 33 9f 3e
       -0.1611021 -0.29285988 -0.14790095 0.3109373
000230 31 a7 93 3e 62 a9 ac bd 24 27 4f bd 11 e7 46 be
       0.28838494 -0.08430745 -0.050574437 -0.19424082
000240 8a e4 e5 3d 2b 43 92 3e 25 10 1c bd e5 61 c6 3d
       0.11225231 0.2856687 -0.038101334 0.09686641
000250 f6 d9 81 3e a6 b4 42 be f2 be f3 bc 00 0d f9 3d
       0.25361603 -0.19014224 -0.029754136 0.12160683
000260 48 09 98 be ec e5 bf 3d e1 b3 14 be 79 57 05 3d
       -0.2969458 0.09370026 -0.14521743 0.032554124
000270 28 27 8b 3d c8 d4 3c 3e 89 fd df bd 06 2c 00 3e
       0.06794578 0.18440545 -0.1093703 0.12516794
000280 22 0f 01 bd 41 ee 10 3e 26 0b ce 3c f2 a7 40 be
       -0.031508572 0.14153387 0.0251518 -0.18814066
000290 d7 28 33 3d 7e b5 84 3c 77 f3 28 be d3 4c 4a be
       0.04374012 0.016199823 -0.16499124 -0.19755869
0002a0 e9 30 67 3e b0 2b 60 3e 20 07 1a 3e c9 e1 11 be
       0.22577251 0.21891665 0.1504178 -0.14246286
0002b0 e8 d3 75 ba f8 e8 4f 3e 80 be 02 be 67 b7 12 be
       -0.0009377585 0.20303714 -0.12767982 -0.14327775
0002c0 8f 35 55 3e c0 ae 5c be b3 ec cd 3c 50 46 1d be
       0.20821212 -0.21551037 0.025137281 -0.15358853
0002d0 1f 91 c7 3a b1 e7 80 be a9 27 57 be 83 d7 5d be
       0.0015225745 -0.25176767 -0.21011223 -0.21664242
0002e0 5d 25 83 be 24 3d 4f 3e a6 c7 11 3e 51 53 12 3e
       -0.25614443 0.20238167 0.14236316 0.14289595
0002f0 43 1d e8 bc 70 11 89 3e 3e db 7d 3e cc 6e ba 3d
       -0.028334266 0.26771116 0.24790666 0.09103164
000300 71 f5 61 be d5 74 5f be 37 06 07 be 07 ef 3b 3d
       -0.22066285 -0.21821912 -0.13185965 0.04588225
000310 41 16 75 be 3a d8 66 3e 6f 4a 6e 3d 79 24 d4 3c
       -0.2393427 0.22543421 0.058176454 0.025896298
000320 12 bc 6d 3d c4 7b 4c be a1 a5 24 bd 10 60 22 bd
       0.058040686 -0.19969088 -0.04019702 -0.039642394
000330 9d ce 25 3d 38 6c bd 3d 8b 9e 24 3e 94 35 b2 bd
       0.040480245 0.09249157 0.16076104 -0.087016255
000340 3a 31 80 3e 20 6e 4e 3e f2 b4 63 3e 49 d1 60 be
       0.25037557 0.20159197 0.22236994 -0.21954836
000350 c3 9e 92 be a4 f9 43 be 5e e7 97 3e a0 5f a3 3e
       -0.2863675 -0.19138199 0.29668707 0.31908894
000360 83 37 d1 bd de 6b c6 bd be 73 c1 3d 23 fc 13 be
       -0.10215666 -0.09688543 0.09445904 -0.14451651
000370 aa 5b 45 be 25 d9 97 bd 9b 0b 39 3c 44 85 76 3e
       -0.19273248 -0.07414464 0.011294271 0.24074274
000380 c8 b8 52 3e 6b fc 50 be ef 3c 84 3e 02 90 89 3d
       0.20578301 -0.2040879 0.2582774 0.067169204
000390 59 a8 7e be a8 79 4d be e2 c5 93 bd 6e 24 ee 3d
       -0.24868907 -0.2006594 -0.072154775 0.11628042
0003a0 87 4c 10 3e ce 9b f9 bd c4 ca 30 be e6 42 00 3e
       0.14091693 -0.121879205 -0.17264849 0.1252552
0003b0 d0 bc d3 3c 05 f1 67 3d 8c 83 49 3e 8e 8d de 3d
       0.025846869 0.05662634 0.19679087 0.10866843
0003c0 77 b6 6d 3e d5 db 91 be b7 4d 63 3d d5 b4 62 3e
       0.23214136 -0.2848803 0.055494037 0.22139294
0003d0 c7 ad 26 3e 92 8f 83 3e 31 b4 2e bb 65 25 27 be
       0.16277228 0.25695473 -0.0026657695 -0.16322859
0003e0 43 b6 10 be 88 22 8a 3e 3d c4 07 3e 66 70 90 be
       -0.14132027 0.2697947 0.13258453 -0.28210753
0003f0 2a 99 42 be d5 2a 04 3e c8 ad 65 3d 9a 00 8e 3e
       -0.1900374 0.12906964 0.056073934 0.27734834

bias f4 [32]
000000 59 9b 15 bc d9 94 f3 bb d3 69 58 bc fd 45 84 3c
       -0.009131276 -0.0074335155 -0.013208824 0.016146654
000010 e8 08 3e 3c fc f4 6c bb 08 60 80 bc 1d 46 7a 3c
       0.011598803 -0.0036156764 -0.015670791 0.015275505
000020 9b b0 de 3b 80 84 87 3c 28 b6 aa bb 83 4f 42 bc
       0.0067959554 0.016542673 -0.005209703 -0.011859777
000030 8e 21 27 3b 55 67 ac 3c bc 1a 9e bc 88 07 a4 ba
       0.0025502178 0.021045366 -0.019299857 -0.0012514452
000040 b6 a9 7d 3c fd c0 3a bc 0e 2a 5c bc 67 ee 8f 3c
       0.015482357 -0.011398551 -0.013437761 0.017569734
000050 ac 88 9e bc 5e 61 90 3c 88 87 27 bc 3c 59 d4 3b
       -0.01935228 0.017624553 -0.010225184 0.006480364
000060 cc 1f 93 3c 26 b9 7d bb 1c 67 ae bc d2 41 e3 bb
       0.017959498 -0.0038715093 -0.0212894 -0.0069353366
000070 87 b5 3a bb cd b4 18 3c 82 f8 80 bc e9 f0 28 bc
       -0.0028489546 0.00932045 -0.015743498 -0.010311344

weight f4 [128, 32]
000000 9a 77 0f be 52 e8 c1 3d fa ea f2 bc d9 f2 2a 3e
       -0.14010468 0.0946814 -0.029653061 0.16694202
000010 dc cb 95 3d 23 d0 db 3c 79 5d b4 3d c7 74 08 be
       0.07314274 0.026832646 0.08806891 -0.13325797
000020 4c 6b b3 bc 27 e9 18 3e af 8a 26 be e5 e2 13 be
       -0.02190175 0.1493269 -0.16263841 -0.14442022
000030 00 09 22 3e 11 34 cd 3d 2a c7 e6 3c bb 6b 11 3e
       0.15823746 0.100196965 0.02817114 0.14201252
000040 3d 2d f0 3d e2 40 97 3b a8 49 b1 3d 98 92 24 be
       0.117273785 0.004615889 0.08656627 -0.16071546
000050 d1 f1 d8 3d 47 08 38 3e b7 e4 fa 3d 8b 19 28 3e
       0.10592998 0.17971908 0.12250655 0.16415994
000060 0d 33 b8 3d e3 9b df bd 4a bd 2d 3c f6 bf 03 be
       0.08994112 -0.10918405 0.010604212 -0.12866196
000070 f8 d1 17 be aa 92 13 3e df ac 88 3b 89 73 33 3e
       -0.1482619 0.14411417 0.0041709985 0.17524542
000080 b2 b9 42 3e 1c 3e 99 bd 52 43 2f be e8 e2 4a 3e
       0.1901615 -0.074825495 -0.17115524 0.1981312
000090 12 18 52 bc c6 e2 3d 3e 6d 51 2d 3e 4f bf f9 3d
       -0.012823122 0.18543538 0.16925593 0.12194692
0000a0 73 a2 10 bd b5 da 50 3e 8b 11 e0 bb 65 4a ba bc
       -0.035311174 0.2039593 -0.006838029 -0.022740552
0000b0 7f 2c f2 bd d1 d1 d1 bc 00 fd 29 3e df cf e5 bd
       -0.11824893 -0.025612744 0.16600418 -0.11221289
0000c0 31 40 12 3e 02 b5 0c be 8c a8 41 bd 3b 23 65 3d
       0.142823 -0.13740924 -0.04727988 0.0559418
0000d0 74 cc 1d bc 8b 0b 36 be bb 1d e2 bd ca 30 07 3e
       -0.009631265 -0.17777841 -0.11040827 0.13202205
0000e0 ac 22 1a be 51 47 e4 bc d4 75 2d be fb 59 24 bd
       -0.15052289 -0.027866038 -0.16939479 -0.040124875
0000f0 63 ba 3e bd 5c b3 58 bc 80 29 38 be 4c 15 39 be
       -0.04656447 -0.013226356 -0.17984581 -0.1807453
000100 d8 ab f4 bd 1f 25 86 3d bb 45 14 be f8 39 9c 3a
       -0.11946839 0.06550049 -0.14479725 0.0011919132
000110 fe 2b 3b 3e 4b a7 17 3e 28 c3 12 be 83 28 b5 bd
       0.182785 0.14809911 -0.14332259 -0.088456176
000120 55 63 24 be 2e b5 e1 3d 6f 22 1c bd bc 07 52 3e
       -0.16053517 0.110208854 -0.038118776 0.20510763
000130 60 0b d4 3d f9 03 f7 bd 1e 33 4d 3d a7 57 dc bd
       0.10353732 -0.120613046 0.050097577 -0.10758906
000140 c8 51 e3 bd 0d c8 dd bd 85 bf b8 3c db 27 bb bd
       -0.11099583 -0.10829172 0.022552261 -0.09138461
000150 f9 8f 08 3e 8b ae 78 3d 2b ac 14 3d 78 1e 2e be
       0.13336171 0.060713332 0.036297005 -0.1700381
000160 4a b2 dc 3a 8b 5a 2b 3e 01 27 ab 3d 54 da 20 3e
       0.0016837802 0.16733758 0.08357049 0.15708286
000170 34 f3 b8 bd 64 33 7e 3d 30 f3 95 3d 99 ea 24 be
       -0.09030762 0.06206073 0.07321775 -0.16105117
000180 ba 6c da bd 6f a9 43 3e cf af ad bd 8e 67 30 be
       -0.10665269 0.19107603 -0.084807985 -0.17227003
000190 e1 4a fd bd ca 49 cc 3c b9 18 cb bc 70 93 2e be
       -0.12367798 0.02493753 -0.024792062 -0.1704843
0001a0 b9 53 8d 3c c4 a1 fb 3d d5 4d 7c bd 55 47 4d 3c
       0.017251836 0.12286714 -0.061597664 0.012529214
0001b0 89 04 de bc 96 c4 ce bc 3a ba 81 3d c9 0c eb bd
       -0.027101772 -0.025240224 0.06334348 -0.11477048
0001c0 43 ec 29 be 0c 13 d7 bd 6e 28 21 3e 39 5a 19 3e
       -0.16594033 -0.1050168 0.15738079 0.14975823
0001d0 e9 71 1f be c7 75 47 3e 5d 86 6a bd 0d a5 90 3d
       -0.15570797 0.19478522 -0.057257045 0.07062731
0001e0 03 a8 dc bc a1 3b 1e be fd 76 34 be 33 9a f8 bd
       -0.026935583 -0.15452434 -0.17623515 -0.12138786
0001f0 e6 cc a4 3d 5b ba da 3d e4 54 a0 3d f7 4f 48 bd
       0.08046894 0.10680076 0.078286916 -0.048904385
000200 33 5e e2 3d 97 65 a6 3d 53 26 ec bd 48 d1 59 bd
       0.11053123 0.081248455 -0.11530747 -0.0531781
000210 54 3c e5 3b 8a f9 0b 3e 41 3f 87 3d b4 81 35 3e
       0.006995717 0.1366941 0.066038616 0.17725259
000220 df 66 d3 3d e3 da 2e be 81 98 33 be 14 60 ed 3d
       0.103223555 -0.17075686 -0.17538644 0.11590591
000230 50 c9 33 be 1a ca 26 be a1 d2 1d bc 24 28 0c bd
       -0.17557263 -0.16288033 -0.009632737 -0.03421797
000240 60 92 f0 bd c6 b1 63 bd 8d 3a 2f bc 1e 21 98 bc
       -0.11746669 -0.05558946 -0.010695112 -0.018570479
000250 f2 bb a0 bc 9f 72 a7 bc a7 0b 0a bd 3a 54 14 be
       -0.01962087 -0.020440398 -0.03370252 -0.14485255
000260 0c ce 10 3e 63 ba 61 3d 5b e0 28 3e c5 11 f2 3d
       0.141411 0.055109393 0.16491835 0.118197955
000270 30 df e9 3d 55 5c f7 3d ac 2d 16 be 0a ac 0e 3e
       0.11419523 0.12078158 -0.1466586 0.13932815
000280 50 c6 97 bd 5a 06 df 3d b7 37 2a be 93 be 3e be
       -0.07410872 0.10889883 -0.16622816 -0.18627386
000290 20 2f 9c 3b 64 0d 22 3e bb e3 cf 3d 1b 7d 5d 3d
       0.00476636 0.1582542 0.10150858 0.054074388
0002a0 a2 c7 8e 3d 96 0e 89 bd d9 7a af 3a 34 e6 ef 3d
       0.06971671 -0.06692235 0.0013388052 0.1171383
0002b0 e1 f4 18 3e 8e 8c f2 3d d5 a7 26 be 48 fe b8 3d
       0.14937164 0.11843215 -0.1627496 0.09032875
0002c0 f6 07 59 bc 12 8c 23 3c 23 f3 2b 3e 33 fa 2c 3e
       -0.013246527 0.009982126 0.16791968 0.16892318
0002d0 c1 45 40 3b fa 74 20 be 4d 46 d0 bd 40 ab 1b 3e
       0.0029338452 -0.15669623 -0.10169659 0.15202045
0002e0 fc 16 50 3d 30 11 81 3c 39 40 45 bc d4 8a a6 3d
       0.05080317 0.015755266 -0.012039238 0.08131948
0002f0 e8 21 0c 3c bd db 4f 3d 4b 1d 28 3e c2 a9 0a 3e
       0.008553006 0.050746668 0.16417424 0.1354132
000300 80 f7 b7 3d a1 df ee bc a7 d0 64 3c 76 41 35 3e
       0.08982754 -0.029159369 0.013965762 0.17700753
000310 55 dc c2 bd ef 06 99 3d fc 88 1d 3d 3c bd b5 3d
       -0.09514681 0.074720256 0.038460717 0.08873984
000320 5e 92 1d be 40 ec 2f 3e 00 ad 05 3d d7 45 fe bd
       -0.15387866 0.17179966 0.03263569 -0.12415665
000330 a6 23 02 3c 4a 3f af bc 1a 96 48 3e a5 2c f1 bd
       0.00794307 -0.021392483 0.19588509 -0.117760934
000340 a2 97 4f be b5 0a cf 3c 21 0a c4 bd cb e8 b8 3d
       -0.20272687 0.02527366 -0.095722444 0.09028777
000350 11 12 c0 3c f8 a9 39 be 37 51 08 3d c6 bb d4 bd
       0.023446115 -0.18131244 0.033280578 -0.103873774
000360 6e 21 f7 3d 04 14 74 3d ec 46 3f 3c 50 48 2b 3e
       0.12066923 0.0595894 0.011674624 0.16726804
000370 12 70 07 be 9b 84 26 3e 72 a3 03 3e 42 5d 21 3e
       -0.13226345 0.16261522 0.12855318 0.15758231
000380 3d a1 d1 3c df f1 31 be 76 ba 01 3d 4f 20 20 3e
       0.02558958 -0.17377423 0.031671964 0.15637325
000390 1d d2 e6 bd b2 95 b8 bb a0 b8 22 3d 63 24 35 3d
       -0.11270545 -0.0056330794 0.039726853 0.044224154
0003a0 8a 0c e9 bd 35 15 04 be cd ec 16 3d 21 46 cd 3c
       -0.11379345 -0.12898715 0.036846925 0.025057854
0003b0 b6 af bb bd 6c 19 3c 3e b5 7b 3c be cd 03 31 3e
       -0.091643736 0.18369073 -0.18406565 0.17286606
0003c0 67 57 55 3d 03 e9 ef bd 89 33 65 bd f3 b3 7f bd
       0.052085306 -0.11714365 -0.05595735 -0.062427472
0003d0 80 a4 40 be 4a 0f 1f 3e 39 c5 01 3e ff c3 e9 bc
       -0.18812752 0.15533176 0.1267289 -0.028535841
0003e0 04 62 0d be 7e 44 6b 3c 4c d8 99 3a 73 07 20 be
       -0.13806921 0.0143595915 0.0011737435 -0.15627842
0003f0 4a fc 1d be 88 3d c4 3d 13 a8 18 3e 1a d2 1c 3e
       -0.15428272 0.09582049 0.14907865 0.15314522

bias f4 [128]
000000 73 96 23 3b 3a 75 17 3c 3d 48 3e 3c 94 d2 17 3c
       0.00249615 0.009244258 0.011613903 0.009266514
000010 89 19 33 3c 1f e2 4f 3c 5a d3 99 bc 8d 05 27 3c
       0.010931381 0.012688189 -0.018777538 0.0101941945
000020 16 5f 13 3c 10 e6 1a 3b 9c 54 15 bb 94 ca 67 bc
       0.008994838 0.0023635663 -0.0022786027 -0.0141474195
000030 c9 69 34 3c b9 92 9c 3c ac 75 40 bc 8d c7 55 3c
       0.011011549 0.019112932 -0.011746805 0.013048065
000040 de db 11 3c 1e 0a 94 3c 8d 97 71 3c e8 0f 82 3c
       0.008902518 0.01807123 0.014745605 0.015876725
000050 f5 e4 6d 3c 87 f6 46 3c c4 dc a8 3b e3 a9 6e 3c
       0.01451992 0.012143738 0.0051532704 0.014566871
000060 c2 0a bf 3b c2 84 44 bc d5 a9 72 bc 55 88 8c 3c
       0.00583014 -0.011994543 -0.014810999 0.017154852
000070 05 de 8f 3c 82 e9 d9 3a 3f 47 5a 3c f6 51 af 3c
       0.017561922 0.0016625377 0.01332265 0.021401387
000080 02 21 8c 3c 37 82 71 3c 7c e2 e8 3b 93 bc bf 3b
       0.017105583 0.014740518 0.007107077 0.005851337
000090 59 9c aa 3c b0 78 18 3b 5e eb 11 3b 86 a2 a9 3c
       0.020826505 0.0023265295 0.0022265534 0.02070738
0000a0 52 36 61 bc 91 cb 3d 3c 12 ce 74 bc be d7 94 3c
       -0.013745861 0.011584179 -0.014941709 0.01816928
0000b0 e0 c8 87 3c ea 42 8c 3c b6 62 25 3c cc f4 31 3b
       0.016575277 0.01712175 0.010094335 0.0027153967
0000c0 86 ae a6 3c 48 3d 66 bb 03 d0 a5 bc 9d e6 a6 3c
       0.020346891 -0.0035131741 -0.02024079 0.020373637
0000d0 92 5f cd 3b a3 39 41 bc be 5a b8 3b 64 c6 79 bc
       0.0062674964 -0.011793527 0.0056260517 -0.015245054
0000e0 36 60 e7 3b 2b a4 88 bc 7d 59 89 bc 87 77 92 bc
       0.00706103 -0.016679844 -0.016766304 -0.01787926
0000f0 3e cd b2 3c e5 9f 4a bc 71 3e 7c bc 05 2f 53 b9
       0.021826383 -0.012367223 -0.015395747 -0.00020140044
000100 c7 9d a8 3b 6c 4b 0d bc 69 26 9e bc ff fd 6b bc
       0.0051457617 -0.008623939 -0.019305425 -0.014403819
000110 38 f9 62 bc 9b 91 df 3b d5 ed 03 bc 20 a3 1a 3a
       -0.013853364 0.0068227774 -0.008052309 0.00058989413
000120 19 c0 5b bc 6f 1d ec 3a ea 29 1f bc 29 14 97 bc
       -0.013412499 0.0018014143 -0.009714583 -0.01844223
000130 bd ea 82 bc c2 13 54 3c a6 71 2b bc 10 26 f5 3b
       -0.015981073 0.012944164 -0.010464108 0.007481344
000140 eb 31 b1 3c b8 9a 93 3c 38 c9 a6 3c 35 fc 22 bc
       0.021630248 0.018018112 0.02035962 -0.009947826
000150 80 73 28 bc fe 8b d6 bb 21 06 6a 3c 68 b0 78 bc
       -0.010281444 -0.00654745 0.014283688 -0.015178777
000160 fe 7d c5 bb 4f eb 34 bc de 7c 9a bc 0a 51 ab 3c
       -0.0060269823 -0.01104243 -0.01885837 0.020912666
000170 72 ba c0 bb bd c1 56 bc 79 43 74 3c 5b 31 65 3c
       -0.005881601 -0.013107714 0.014908665 0.013988818
000180 9a c0 79 bc ca ad 7e 3c c5 8a 10 ba 67 98 35 bc
       -0.015243674 0.015544364 -0.00055138423 -0.011083699
000190 7d a9 4c 3c 37 ea 50 bc 73 08 af bb 9f 0b 76 bb
       0.012491581 -0.012751154 -0.0053415834 -0.0037543548
0001a0 40 58 9f bc 3f 79 8d bc eb 9c 8e bc 15 bf 4d ba
       -0.01945126 -0.017269729 -0.017408809 -0.0007848603
0001b0 4e 62 58 bc a2 a9 59 3c 52 2b 42 ba 13 7a af 3c
       -0.013207031 0.0132850725 -0.0007406968 0.021420514
0001c0 20 03 70 3a 78 4a 89 bb 32 4e 94 3c 5e 4b 86 3c
       0.0009155739 -0.0041897856 0.018103693 0.01639336
0001d0 81 fa 10 3c 37 c5 92 3c 47 6e 65 3c e0 cf 59 bc
       0.008848787 0.017916305 0.014003343 -0.01329419
0001e0 c0 47 7c bc 2e 74 a1 3c 13 01 d0 b9 d1 d1 7b 3c
       -0.015397966 0.01970872 -0.00039673652 0.015369848
0001f0 81 1e 36 3c 2d d9 02 bc 52 26 78 3b 4a a2 8c 3a
       0.011115671 -0.007986349 0.0037864638 0.0010729518

weight f4 [32, 128]
000000 3d bf d8 3c d9 49 29 3d 58 f7 e9 bd 7a 51 95 3d
       0.026458377 0.041330192 -0.1142413 0.07290931
000010 43 18 03 be 86 9e c1 bd d2 df 42 be 95 ef 2a be
       -0.12802224 -0.09454064 -0.19030693 -0.16692956
000020 bd 38 c7 bd b3 49 ec 3d 01 8d 79 3d 91 38 25 3e
       -0.09727619 0.115374945 0.060925487 0.1613486
000030 4d f0 2d bd 64 3c 94 3c 53 7b b4 bd ed 38 4c bd
       -0.042465497 0.018095203 -0.08812585 -0.049858976
000040 10 05 8d 3d fc ac 26 3e 5a 85 33 be 3a 9e 90 bd
       0.06885731 0.16276926 -0.17531338 -0.07061429
000050 cd 41 25 be c7 13 b0 3d ff 78 29 3e 89 a3 74 bd
       -0.16138382 0.08597522 0.16550063 -0.05972627
000060 78 0a 19 be 29 64 3d 3d 48 46 b9 bd 1f fb 4b be
       -0.149454 0.0462381 -0.09046608 -0.19920014
000070 37 f5 75 bd ff aa 4a bd fa 80 af 3d 48 31 4e be
       -0.06004831 -0.04947948 0.08569522 -0.20135987
000080 ba 5c 25 3e ad dc 0d bd bc db e9 bc 4c 1b 7a 3d
       0.16148654 -0.03463428 -0.02854716 0.06106119
000090 d4 e7 2e be ea be 08 be 15 fe fc 3d 03 3a 3a 3e
       -0.17080623 -0.13354078 0.1235315 0.18186192
0000a0 98 bb 18 3e 59 63 3a 3e d5 62 2a 3e 2e b2 2c be
       0.14915311 0.1820196 0.16639264 -0.16864845
0000b0 97 37 f8 bd d0 ba 0f be 3e 53 21 be 13 42 2e bd
       -0.12119978 -0.14036107 -0.1575441 -0.042543482
0000c0 a3 e7 b5 3d 20 f0 b5 3c c7 e9 2d be 6b f2 07 3d
       0.08882072 0.022209227 -0.1698371 0.033190172
0000d0 c0 cf 32 bd b9 ed 39 3d 11 f6 33 bd 1e 88 08 3e
       -0.043655157 0.045392726 -0.04393584 0.13333175
0000e0 5d 0c af bd af b4 2a be 36 d7 0b 3e 96 bd 3c 3e
       -0.0854728 -0.16670488 0.13656315 0.18431696
0000f0 cf 1f c9 bd c0 49 7c bd 27 b7 9e bd 54 06 bc bd
       -0.0982052 -0.06159377 -0.07749777 -0.091808945
000100 fa 87 31 be 66 51 3b bd 68 76 f9 bd b2 a3 67 bd
       -0.17337027 -0.045731924 -0.12180787 -0.056552596
000110 b9 83 9b 3d ab 6c 2a 3e 6b 59 25 bd 47 97 32 3d
       0.075934835 0.16643016 -0.04036848 0.0436013
000120 69 72 3b 3c 65 06 32 bd a6 4d b8 3d 3c 32 c9 3d
       0.011440852 -0.04346313 0.08999185 0.098240346
000130 c9 dc b7 bd c1 14 f2 bd 6a fa 03 3e af 8a e1 ba
       -0.08977658 -0.11820365 0.12888494 -0.0017207469
000140 a5 1b 91 3d 08 59 ae bd 0f ae 06 3e 68 ef 4b be
       0.07085351 -0.08513075 0.13152336 -0.19915545
000150 36 63 1d 3e 12 da 30 be 5d 67 ca bd d6 81 09 3e
       0.15369877 -0.17270687 -0.09882996 0.13428435
000160 d0 be 67 3c a8 4c a2 bc 7d bd f8 3d 9a c8 da 3d
       0.014144614 -0.019811943 0.12145517 0.10682793
000170 41 f9 7d bd b9 c6 6f bd 0c fd 23 bd 6c 18 1a be
       -0.062005285 -0.058539126 -0.040036246 -0.15048379
000180 a7 65 07 3c 97 1a 27 be a0 5a d6 3d 40 97 0b bd
       0.008263982 -0.16318737 0.10466504 -0.03407979
000190 4c 00 4a be 21 59 4e bc 2b 4c 25 3d 9e 89 38 3e
       -0.19726676 -0.012594492 0.040355843 0.18021247
0001a0 ed db d3 ba 2f 10 ef bd 8f 3b 0e 3e 92 43 9b bc
       -0.0016163565 -0.11673009 0.13889907 -0.018953118
0001b0 0b 5b 2f be a4 48 33 3d ce b7 96 3d e1 6a 35 be
       -0.17124574 0.043770447 0.07359277 -0.17716552
0001c0 f4 3a 3d be 6e cf 06 be fc 92 04 be 7d b4 1d 3e
       -0.1847952 -0.13165066 -0.12946695 0.15400882
0001d0 07 85 de 3d 13 2f d9 bc e8 00 90 3d d2 2e 51 3c
       0.10865217 -0.026511705 0.07031423 0.0127675105
0001e0 fa 6f 25 3e 93 a8 84 bd 5c 0f fa bd 6c 44 53 bd
       0.16155997 -0.064774655 -0.12209961 -0.051578924
0001f0 73 f9 20 be bd 79 17 be 1d 2e e6 3c 31 88 08 be
       -0.15720157 -0.14792533 0.02809816 -0.13333203
000200 91 c1 a9 3d 4f c9 1a bd ea f7 b7 bd 5d da f4 bd
       0.08288873 -0.03778964 -0.08982833 -0.11955712
000210 85 7b 87 bd 07 77 7e 3d 08 94 b7 bd a7 7d 7b bd
       -0.06615356 0.062125232 -0.089637816 -0.06139913
000220 a1 4d 12 be f6 00 d2 3d 17 3d 83 3d fe 49 7a 3d
       -0.14287426 0.102540895 0.06408136 0.06110572
000230 69 f0 bc 3d 7f 7f 0f be d0 19 0d 3e bb 13 3b be
       0.09225542 -0.1401348 0.13779378 -0.18269245
000240 d8 c5 c5 bb 8c 25 25 3e b0 17 26 3e 20 a0 49 3d
       -0.0060355477 0.16127604 0.16219974 0.049224973
000250 88 5f cd bd 1d 48 15 be 58 a5 08 be 13 58 06 be
       -0.10027987 -0.1457829 -0.13344324 -0.13119535
000260 46 2f f0 3d c7 5a 13 be fb 30 31 be 29 82 31 3e
       0.11727767 -0.14390098 -0.17303841 0.17334808
000270 68 1a a1 bd cb 5a a5 3d 36 4a 3b be 7b 81 05 3e
       -0.07866365 0.08073958 -0.18290028 0.13037674
000280 57 f8 84 bd d5 2c 94 3d 64 9e 21 be 3f a0 e7 bc
       -0.064926796 0.072351135 -0.15783077 -0.028274653
000290 1f 5d ee bd 60 b8 99 3d b4 68 40 be db 20 09 3e
       -0.11638855 0.0750587 -0.18789941 0.1339144
0002a0 c9 40 00 be 7e f5 fe bd 01 2c 29 be ed 81 22 be
       -0.12524714 -0.12449168 -0.16520692 -0.15869875
0002b0 03 88 b5 3d ec bf ea bc c0 b2 3b be 1f da dd bd
       0.08863833 -0.028655969 -0.18329906 -0.10832619
0002c0 41 17 58 bc 32 22 2e be f7 ce 05 bd d5 ca 74 bc
       -0.013189138 -0.17005232 -0.03266808 -0.014940937
0002d0 a2 04 9b bd 7c 45 19 3c a7 6e b1 bd ce 13 09 be
       -0.07569243 0.009354945 -0.086636834 -0.13386461
0002e0 75 fe b6 bd ce f1 d0 bb 40 4b dd bd cf 30 c8 bd
       -0.089352526 -0.0063764816 -0.108053684 -0.097749345
0002f0 87 f6 ed bc ce 49 1e 3d 27 e1 29 3e 9c 86 60 bd
       -0.029048217 0.038644604 0.16589795 -0.054815874
000300 33 19 12 3e 5b cf 34 3d 17 76 f7 bd ae 44 91 3d
       0.14267425 0.044143062 -0.12083071 0.07093178
000310 37 51 2b be d8 45 08 3b d2 6f 27 be 37 eb 76 bd
       -0.167302 0.0020793583 -0.1635125 -0.060282912
000320 0e 24 42 be 80 68 c6 bc d5 8f c8 3d eb 04 2e be
       -0.18959066 -0.024219751 0.09793059 -0.16994064
000330 ea 56 20 3e 6b 60 bb bd 6f 0c 25 3e 04 4a 1c be
       0.15658155 -0.0914925 0.16118024 -0.1526261
000340 b2 0c 1d be 7e 32 93 3d 73 a4 97 3c 9e 96 bf 3d
       -0.15336874 0.07187365 0.018511033 0.093549
000350 f0 89 01 3e 44 bf 04 3d 33 d8 3f 3e 57 1d 6c bd
       0.12650275 0.032408968 0.18734817 -0.05764517
000360 60 3c 40 3e 8d 86 e3 3c 47 f0 ea 3d 26 e3 ef bd
       0.18773031 0.02777412 0.114716105 -0.11713247
000370 ba 9e 1e 3e 6a cf 12 3e 50 27 c9 3d d0 55 e8 bd
       0.15490237 0.14336935 0.098219514 -0.113444924
000380 6a ae c8 3d 5c c1 47 be 34 a8 dd bd 2e 29 15 be
       0.09798892 -0.19507354 -0.10823098 -0.1456649
000390 fd cc 15 3e 9a fb 42 3e 13 25 20 3e c1 72 5d bd
       0.14628978 0.19041291 0.15639143 -0.054064516
0003a0 55 49 5a bd 59 76 3c be a8 f1 a6 3c 09 d2 75 bd
       -0.05329259 -0.18404521 0.020378903 -0.06001476
0003b0 b3 f0 07 be 2b 44 b9 bc 46 63 e3 3d 06 f1 78 bd
       -0.13275413 -0.022615513 0.11102919 -0.060776733
0003c0 3d 82 f7 3c d4 3d 00 bc 45 e8 a5 bd 80 c7 c4 bd
       0.03021347 -0.007827241 -0.081009425 -0.09608364
0003d0 f0 0f 3e bd 6d 46 28 bd e0 e2 92 bd 99 74 14 3e
       -0.046401918 -0.04108279 -0.07172179 0.14497603
0003e0 64 bf 2a 3e 1a 78 01 ba 67 80 12 3d ff 0e 08 3e
       0.16674572 -0.0004938856 0.035766985 0.1328697
0003f0 df 83 0e be e1 85 0a be b5 e9 11 bd b7 ae d4 bd
       -0.13917492 -0.13527633 -0.03562327 -0.10384887

bias f4 [32]
000000 1c e4 30 bc fb d8 e8 bb 99 b5 fd 3b e5 ff 89 3c
       -0.010796573 -0.007105944 0.0077425954 0.016845653
000010 75 93 35 3c 72 53 bb bb 50 2c 7c bc 94 be 75 3c
       0.01108252 -0.0057167346 -0.015391424 0.014999051
000020 19 85 b0 3b 88 e2 87 3c 24 b6 2f b9 80 0a 0a bc
       0.00538696 0.01658751 -0.00016757153 -0.008425355
000030 b1 10 04 3a f1 0b 5d 3c 95 9c 9a bc 4c 8a c6 3a
       0.00050378876 0.013491617 -0.018873492 0.0015147417
000040 98 09 70 3c d6 dd 3b bc 70 f8 58 bc fe 0f 84 3c
       0.014650725 -0.011466464 -0.013242826 0.016120907
000050 3e 07 a6 bc a3 d3 8c 3c 45 f0 3f bc 46 a8 00 3c
       -0.020267125 0.01719076 -0.011715 0.0078526195
000060 83 ee a2 3c 10 f2 84 ba e1 09 15 bc 12 64 09 3c
       0.019889122 -0.0010142941 -0.009096594 0.008385675
000070 84 1f e2 bb 3a 45 4f 3b 63 b1 7d bc 90 53 07 bc
       -0.0069007296 0.0031626956 -0.015484187 -0.008259669

weight f4 [32]
000000 f0 15 7f 3f 2b 6e 82 3f 13 f1 7b 3f 56 ce 81 3f
       0.9964285 1.018987 0.98414725 1.0141094
000010 12 3e 82 3f 4b 7f 82 3f f9 6a 82 3f 3f 30 82 3f
       1.0175192 1.0195097 1.0188895 1.0170974
000020 29 76 7e 3f f4 9f 7d 3f 39 52 82 3f 3d 67 82 3f
       0.9939905 0.99072194 1.0181342 1.0187756
000030 fb 7a 82 3f f1 75 82 3f 22 b5 7d 3f 94 83 81 3f
       1.0193781 1.0192243 0.9910451 1.011828
000040 dc bd 7f 3f ef 00 80 3f ec 39 81 3f b1 31 80 3f
       0.9989908 1.0000285 1.0095801 1.0015165
000050 85 75 82 3f da 9f 82 3f 50 f3 7a 3f 33 fe 7d 3f
       1.0192114 1.0205033 0.98027515 0.99216
000060 87 71 80 3f ab bc 81 3f f9 83 81 3f 16 49 7c 3f
       1.0034646 1.0135702 1.01184 0.9854902
000070 0c 2f 82 3f 2a 0f 7d 3f 85 ae 81 3f 63 ce 7d 3f
       1.0170608 0.98851264 1.0131384 0.99143046

bias f4 [32]
000000 0e 81 e1 bb 5b 5d 9a 3c 72 e8 79 bc ce fb 19 3c
       -0.0068818396 0.018843343 -0.015253173 0.009398414
000010 a3 48 16 3b af 6d 9e 3c 32 35 96 bc 11 99 91 3c
       0.0022931478 0.01933941 -0.018335912 0.017773183
000020 75 12 69 bc 97 4a 1b bc 37 1b 97 bc 5d 2c 8f 3c
       -0.014225592 -0.009478233 -0.018445594 0.017477209
000030 40 15 9b bc b2 e9 9d 3c b0 fc 03 3c 45 f6 a0 ba
       -0.018931031 0.019276474 0.008055851 -0.0012280425
000040 bb 63 99 bc d7 f0 05 bb e5 df 28 3b 4a 08 24 bb
       -0.018724313 -0.0020437741 0.0025768217 -0.0025029355
000050 1e 14 9b bc 1b 88 b1 bc 3a 07 9b bc 84 45 69 3c
       -0.018930491 -0.021671345 -0.018924344 0.014237765
000060 8b 16 1a 3c b0 24 0b bc 79 62 22 bc 53 01 52 bc
       0.009404789 -0.008492634 -0.009911173 -0.0128176985
000070 4f f9 9f bc c1 fc 44 3c 9c f3 78 bc 59 50 15 bc
       -0.01952806 0.012023152 -0.0151948 -0.009113395

weight f4 [32]
000000 dd 00 82 3f 11 9f 80 3f 8d 6a 81 3f 9d 83 80 3f
       1.0156513 1.0048543 1.0110642 1.0040165
000010 36 36 82 3f cf ef 81 3f 83 f2 7f 3f c9 6b 81 3f
       1.0172794 1.0151309 0.9997942 1.0111018
000020 8a 79 81 3f 85 bd 7b 3f 68 56 82 3f a1 8b 82 3f
       1.0115216 0.9833606 1.0182619 1.0198861
000030 1d 34 81 3f 62 a9 81 3f dd 5d 81 3f 63 b5 80 3f
       1.0094029 1.0129817 1.010677 1.0055355
000040 9b b2 82 3f 6e 98 7e 3f a6 5a 7c 3f 35 7c 7c 3f
       1.0210756 0.9945134 0.9857582 0.98627025
000050 1c 14 80 3f b7 ab 82 3f ab 3a 82 3f 18 e4 81 3f
       1.0006137 1.0208653 1.0174154 1.0147734
000060 4f a3 81 3f cb 59 82 3f 51 f5 81 3f 36 39 7d 3f
       1.0127963 1.0183653 1.015299 0.9891542
000070 86 ca 7f 3f a8 f8 7b 3f 14 ce 81 3f 98 06 81 3f
       0.999184 0.98426294 1.0141015 1.0080137
