pre_trained_models/mosi_aligned_L_DISCRIMINATOR_2.pt (torch, 47511 bytes, 5 tensors)

weight f4 [128, 20]
0.15248664 -0.083938345 -0.11170045 0.035786677 0.011973957 0.17765701 0.09255194 0.16554774
-0.16447343 0.11295136 0.21306771 0.16828875 0.21829014 0.046502795 -0.027035765 -0.16685316
-0.014705542 -0.07267599 0.011401968 -0.047134094 0.16959384 -0.0012789768 0.18440697 -0.16730136
-0.1911712 -0.14146106 0.14463909 0.09258117 0.08416286 0.03518678 -0.21635988 0.17802936
-0.03795683 0.10300626 0.18337442 0.1241097 -0.2043969 0.15218605 -0.22112921 -0.015138951
-0.16966549 -0.19510534 -0.20830326 0.14142065 -0.051788807 0.033448055 0.04738275 0.08212317
-0.09102043 -0.11317168 -0.11991451 0.068993986 0.14549062 -0.085237265 0.1397718 0.085428685
0.0015870499 0.021807013 0.07021816 0.03320209 0.21828067 -0.012437817 0.15837477 0.1686174
0.22296305 -0.16087969 -0.037436176 -0.08455275 -0.038429704 0.16454837 0.10187015 -0.12224847
0.037493534 -0.10558079 0.14449981 -0.1488301 0.19786337 0.115796044 -0.061357062 -0.21651371
0.14924568 0.14019418 0.09363282 -0.18278423 -0.03656476 0.2098873 -0.09141568 0.067905724
0.1545294 0.13283761 0.00808765 -0.092622586 0.13740888 0.09121884 -0.100128755 -0.0638435
0.080328055 0.08781497 0.17830615 0.21859534 0.14659353 -0.0917804 0.005353098 -0.18320051
-0.20298935 -0.023114817 -0.18324177 0.104523785 -0.033764675 0.096091665 0.039034512 0.21483916
0.0045143566 -0.07115328 0.029214676 0.024017332 0.007990684 0.07619883 -0.19990414 0.13281947
-0.19649158 -0.026536586 0.08396993 -0.015518674 0.08256832 -0.10811263 0.10028269 -0.19953232
-0.11633177 -0.1578264 0.09363342 -0.031093445 -0.16263156 -0.17063047 0.026828714 0.066223316
-0.15465713 0.09533658 -0.221856 -0.0021255882 -0.16092522 -0.22077297 0.19944938 -0.05478376
0.18737248 -0.14877397 -0.06602934 0.14276797 0.13467869 -0.06749147 0.069083154 0.06537975
0.063276805 -0.13408853 -0.015412403 -0.20209338 -0.08944754 -0.22064784 -0.16759385 0.070443355
0.07383071 -0.04931634 -0.044745423 0.1607929 -0.062845975 0.14176668 0.09420901 -0.013324881
-0.13237038 -0.13227361 -0.08139834 0.10006813 0.15557918 0.10718282 -0.011959696 0.0068454263
-0.13569906 -0.1326486 0.046476696 0.1920988 -0.2146889 -0.029142238 -0.17639525 0.20371436
0.116450146 0.085303016 -0.031522237 0.0092555825 -0.1531161 0.07096987 -0.10954755 -0.14153855
-0.11740247 0.03291706 -0.0691926 -0.109548464 0.20386538 0.025420528 -0.030987808 0.16179447
0.095918454 0.149376 0.13784893 0.12835917 0.06674418 -0.0053979694 -0.16778587 -0.14181095
-0.19492091 -0.21497244 -0.18947627 -0.20364298 -0.2150928 0.0048133484 0.01680642 0.09935789
0.014844706 -0.16361694 0.046318408 -0.20297816 0.16957764 0.20667405 0.11767374 0.10810868
0.09188213 0.21650316 0.027231844 -0.033297013 0.15529773 0.16478777 0.17684539 0.112192236
0.006913356 0.10524496 -0.10982359 0.18011917 -0.1077155 -0.057160232 -0.010642131 -0.019308353
-0.09980084 0.09006876 -0.1253538 -0.20879419 -0.10555667 0.19011584 -0.10802504 -0.15404372
0.08328109 0.042048827 0.15427738 0.21476036 0.21019162 -0.16803049 0.06132732 0.100503035
00000000: 7525 1c3e dee7 abbd 35c3 e4bd 0d95 123d
00000010: 6a2e 443c b8eb 353e df8b bd3d 5985 293e
00000020: b96b 28be 0b53 e73d 6c2e 5a3e e353 2c3e
00000030: 7387 5f3e b779 3e3d 1c7a ddbc 8edb 2abe
00000040: 83ef 70bc 26d7 94bd 52cf 3a3c ae0f 41bd
00000050: 02aa 2d3e 57a3 a7ba 2ed5 3c3e 0c51 2bbe
00000060: 62c2 43be 2bdb 10be 451c 143e 329b bd3d
00000070: 945d ac3d 0320 103d 728d 5dbe 544d 363e
00000080: 9f78 1bbd f2f4 d23d 81c6 3b3e 3a2d fe3d
00000090: 6c4d 51be a9d6 1b3e b26f 62be 5d09 78bc
000000a0: cabc 2dbe b2c9 47be 734d 55be 93d0 103e
000000b0: 8020 54bd d400 093d 6a14 423d 3130 a83d
000000c0: eb68 babd 8ec6 e7bd bd95 f5bd b84c 8d3d
000000d0: 7efb 143e e090 aebd 5720 0f3e 3cf5 ae3d
000000e0: 8f04 d03a 9fa4 b23c 8ace 8f3d eafe 073d
000000f0: f884 5f3e fcc7 4bbc ff2c 223e 0aaa 2c3e
00000100: 6d50 643e a5bd 24be ad56 19bd fe29 adbd
00000110: 7768 1dbd 5e7f 283e 4ca1 d03d 685d fabd
00000120: d292 193d be3a d8bd c2f7 133e eb66 18be
00000130: b29c 4a3e 7a26 ed3d 8b51 7bbd c5b5 5dbe
00000140: dcd3 183e 108f 0f3e 90c2 bf3d ca2b 3bbe
00000150: eec4 15bd b2ec 563e 2538 bbbd 2812 8b3d
00000160: f43c 1e3e 9506 083e 1082 043c e9b0 bdbd
00000170: eab4 0c3e f1d0 ba3d 4e10 cdbd 62c0 82bd
00000180: 0983 a43d 56d8 b33d e395 363e 75d7 5f3e
00000190: 9d1c 163e 5df7 bbbd 0a69 af3b ea98 3bbe
000001a0: 71dc 4fbe 495b bdbc bba3 3bbe 9110 d63d
000001b0: d44c 0abd b5cb c43d a7e2 1f3d ccfe 5b3e
000001c0: 2bed 933b d0b8 91bd 9e53 ef3c ffbf c43c
000001d0: 5ceb 023c 220e 9c3d acb3 4cbe d401 083e
000001e0: 1735 49be 4163 d9bc 6df8 ab3d 0942 7ebc
000001f0: 9419 a93d 286a ddbd 0361 cd3d 3352 4cbe
00000200: 5a3f eebd 3e9d 21be e1c2 bf3d aeb7 febc
00000210: e388 26be c1b9 2ebe e4c7 db3c 17a0 873d
00000220: 705e 1ebe d33f c33d 382e 63be 744d 0bbb
00000230: 95c9 24be 4f12 62be 753c 4c3e f064 60bd
00000240: 92de 3f3e 3458 18be 643a 87bd c431 123e
00000250: 36e9 093e f838 8abd 787b 8d3d d2e5 853d
00000260: 4597 813d 814e 09be 4e84 7cbc 91f1 4ebe
00000270: 4630 b7bd 82f1 61be b99d 2bbe 9b44 903d
00000280: 8e34 973d eeff 49bd fa46 37bd e5a6 243e
00000290: 64b5 80bd 492b 113e a7f0 c03d 9a50 5abc
000002a0: 1a8c 07be bc72 07be 2cb4 a6bd 85f0 cc3d
000002b0: 2650 1f3e ab82 db3d 9af2 43bc 994f e03b
000002c0: b2f4 0abe 09d5 07be 595e 3e3d 8cb5 443e
000002d0: 68d7 5bbe b4bb eebc f5a0 34be 7f9a 503e
000002e0: 6a7d ee3d 59b3 ae3d 761d 01bd baa4 173c
000002f0: 78ca 1cbe a758 913d 775a e0bd 7bef 10be
00000300: b570 f0bd 0ad4 063d dab4 8dbd f25a e0bd
00000310: 16c2 503e b63e d03c 25da fdbc 73ad 253e
00000320: e570 c43d 06f6 183e 4528 0d3e 9670 033e
00000330: 2cb1 883d 73e1 b0bb 0fd0 2bbe e436 11be
00000340: 5999 47be bc21 5cbe 1106 42be c987 50be
00000350: 4941 5cbe 4bb9 9d3b 9ead 893c 267c cb3d
00000360: 3637 733c 338b 27be 5fb8 3d3d 82d9 4fbe
00000370: c3a5 2d3e 5da2 533e eefe f03d 1568 dd3d
00000380: b32c bc3d 01b3 5d3e 5115 df3c 7362 08bd
00000390: 5e06 1f3e 20be 283e f516 353e 0bc5 e53d
000003a0: 6f89 e23b ab8a d73d 31eb e0bd 2971 383e
000003b0: f299 dcbd d920 6abd 555c 2ebc 8d2c 9ebc
000003c0: 6264 ccbd f875 b83d bf5c 00be 25ce 55be
000003d0: 182e d8bd baad 423e 3b3c ddbd a3bd 1dbe
000003e0: 478f aa3d 643b 2c3d e4fa 1d3e 24ea 5b3e
000003f0: 793c 573e 2f10 2cbe 5b32 7b3d 89d4 cd3d

bias f4 [128]
-0.12320043 -0.12690748 -0.082149126 0.09432434 -0.0024984702 0.13030444 0.022923259 -0.027989449
0.054363437 -0.08231874 0.08019332 0.19641471 -0.20758885 -0.063996956 -0.04013699 0.09468799
0.098867886 0.2104087 0.007339267 0.22352223 -0.084955804 0.027010104 -0.16262177 0.0006566394
-0.018967986 0.16884746 -0.05420617 -0.2130772 -0.060431227 -0.00019898741 0.21186191 0.20056629
-0.03987762 0.19903345 -0.14636867 0.07634684 -0.07031541 0.022063334 0.13245231 0.18785916
0.2100129 0.064169146 0.1101148 -0.11177949 0.008674048 0.08253624 -0.04216126 -0.102897435
-0.050445214 -0.09876883 -0.20987462 0.11998287 -0.11075147 -0.063206784 0.09256441 -0.041266996
0.10698039 -0.030436687 -0.00986058 0.13955715 0.12831825 0.01836067 0.06181163 -0.18350144
0.16069661 -0.19271791 0.21605225 0.05550123 -0.22072038 -0.1660485 0.19231297 0.15471058
-0.11197856 -0.012861989 0.20191218 -0.034952257 0.21093057 -0.036752295 -0.09051374 0.014538658
0.038717434 -0.19820978 0.15084513 0.049928878 -0.077269115 -0.21080495 0.048763346 -0.10278491
-0.020761384 0.019205535 0.08281873 -0.112099245 -0.053653155 -0.10304357 0.2075911 -0.065486975
0.060264137 -0.16023888 -0.08778287 0.18427746 -0.17902483 0.21136357 0.09424035 -0.19032629
0.13014308 0.063096985 -0.15585294 -0.07116769 0.15984248 0.17362994 0.019956576 0.018156016
-0.014267564 -0.21955837 0.14986752 -0.16517319 0.21387233 -0.18538277 0.1814469 0.005563469
-0.082062185 0.18841642 -0.2194464 -0.09260551 0.0526885 -0.20049408 -0.15101826 -0.056928482
00000000: 8250 fcbd 09f4 01be cd3d a8bd 1f2d c13d
00000010: 60bd 23bb 876e 053e 8fc9 bb3c 214a e5bc
00000020: 32ac 5e3d ba96 a8bd 653c a43d f020 493e
00000030: 2c92 54be d610 83bd af66 24bd c7eb c13d
00000040: 3f7b ca3d 6175 573e 3c7e f03b 03e3 643e
00000050: 4ffd adbd 4b44 dd3c 5286 26be 5322 2c3a
00000060: c062 9bbc 59e6 2c3e 4a07 5ebd e930 5abe
00000070: bc86 77bd 47a7 50b9 54f2 583e 4061 4d3e
00000080: b756 23bd 6dcf 4b3e abe1 15be bb5b 9c3d
00000090: 8701 90bd 2abe b43c 94a1 073e 275e 403e
000000a0: 9f0d 573e 1d6b 833d de83 e13d a5ec e4bd
000000b0: 981d 0e3c c308 a93d 49b1 2cbd e4bb d2bd
000000c0: a49f 4ebd 5047 cabd 5fe9 56be 94b9 f53d
000000d0: abd1 e2bd 8f72 81bd 6992 bd3d 9507 29bd
000000e0: 8918 db3d 5c56 f9bc 458e 21bc 12e8 0e3e
000000f0: dc65 033e 1e69 963c 312e 7d3d cde7 3bbe
00000100: a78d 243e d857 45be cd3c 5d3e 4255 633d
00000110: 8604 62be 9e08 2abe b1ed 443e 736c 1e3e
00000120: 0455 e5bd 18bb 52bc 11c2 4e3e 192a 0fbd
00000130: 2ffe 573e 9389 16bd 455f b9bd 8d33 6e3c
00000140: 2c96 1e3d 81f7 4abe 2577 1a3e 3982 4c3d
00000150: 453f 9ebd 41dd 57be 13bc 473d e580 d2bd
00000160: c713 aabc ed54 9d3c de9c a93d 4a94 e5bd
00000170: 69c3 5bbd 8208 d3bd c392 543e 091e 86bd
00000180: 87d7 763d a915 24be 81c7 b3bd 3bb3 3c3e
00000190: 4952 37be b16f 583e 1601 c13d e5e4 42be
000001a0: 3a44 053e fe38 813d ea97 1fbe 5ec0 91bd
000001b0: bfad 233e 0ccc 313e f97b a33c edbb 943c
000001c0: 80c2 69bc e9d3 60be df76 193e 2923 29be
000001d0: 5901 5b3e fbd4 3dbe 37cd 393e c34d b63b
000001e0: 3810 a8bd 3cf0 403e 8fb6 60be f5a7 bdbd
000001f0: e6cf 573d 524e 4dbe 88a4 1abe d72d 69bd

weight f4 [64, 128]
0.08058843 -0.079424635 -0.04015965 -0.05790357 -0.021431794 -0.079652414 -0.045142975 0.0642299
-0.036031004 0.0558238 -0.02747026 -0.0060942136 -0.06333108 0.053287026 -0.047178786 0.015912289
0.019996572 0.07678239 0.063692495 -0.0851147 -0.031053334 -0.04674587 0.06756746 -0.043697555
0.037090793 0.07025803 -0.012873312 0.016799819 -0.0643619 -0.054309014 -0.03066622 -0.033293024
-0.0072840755 0.057884682 0.042270605 0.015834229 -0.043760885 -0.0046786917 -0.032693114 -0.016486933
-0.021982232 -0.014512698 0.010742774 0.041481405 -0.030446775 0.05964882 -0.06341173 0.06313652
-0.033354722 -0.022873808 0.07697691 -0.06841448 -0.04348319 -0.052009657 -0.029864632 -0.059892084
-0.0020279412 -0.054868285 -0.048857447 0.039547715 -0.08188352 -0.015550755 0.04536906 -0.04797127
0.017166428 -0.026717234 0.016751435 0.027882643 -0.005963916 -0.020611025 -0.018641153 -0.084452994
0.054415654 0.07024196 0.01858606 0.019440958 0.011106535 0.0472768 -0.027375089 0.037219312
0.0070326533 0.0431725 0.08519608 0.035259888 0.058098163 0.052412275 0.0075601162 -0.028050048
-0.07231757 0.00091236475 0.032356463 -0.014725813 -0.08918101 -0.062130485 0.019720301 -0.07724062
0.01409226 0.07401681 -0.009919999 0.060193248 0.08421351 -0.03493835 0.083099194 -0.07150228
-0.080896325 0.041900184 -0.028617647 0.07501048 -0.03265058 0.028365849 -0.0077545294 -0.06718958
-0.081879094 0.06605255 -0.03384199 0.029591685 0.041189767 0.0669855 0.07546934 0.08501263
-0.082670644 0.06630288 -0.07133521 0.03559034 0.021753415 -0.04700306 -0.058362786 -0.073561646
-0.07391685 -0.03533479 -0.022316111 -0.07165025 0.08083288 -0.012636941 0.048528265 -0.012756051
0.011986635 0.03572683 0.08409326 0.058262058 -0.082418084 -0.016150178 -0.07215658 -0.0296776
-0.08385848 -0.042375896 0.02742579 0.042247467 -0.0773102 -0.06053685 -0.069814675 -0.03031016
-0.08643845 -0.01918857 0.083641686 -0.046087243 0.004369631 0.043219604 -0.0098923035 -0.020373546
0.066990785 0.062607646 -0.038267944 -0.010047234 0.004844392 -0.030188117 0.023785975 0.07100768
-0.052031383 0.054431524 -0.012513391 0.061127327 0.018286895 0.05387223 0.06951937 -0.06916844
-0.06314532 -0.04491541 0.061836857 0.016641878 -0.008116814 0.02351965 -0.00909603 0.03586866
-0.041046523 0.06641494 -0.010971381 0.018196326 -0.025299577 0.06356849 -0.039582763 0.03595287
-0.07994985 0.07389192 0.016700635 -0.04340042 -0.012376069 0.057676964 0.045486182 -0.03960802
-0.004354299 -0.032262117 -0.082897894 0.027251761 0.07363436 0.07395681 -0.05028172 -0.05744399
-0.028651014 0.08888459 -0.053380635 -0.03197588 -0.085885674 -0.05185976 -0.01868852 0.08445745
0.02119926 -0.08259662 0.07576094 -0.052445292 0.026097143 -0.010569662 -0.07513405 -0.086777106
-0.06850283 0.06972771 -0.064960614 -0.029037723 -0.03320948 -0.021013351 0.016301146 -0.03286475
0.0040951585 -0.042409774 -0.019171946 0.06610366 -0.05481093 -0.07175043 -0.021889603 -0.047170043
0.011935586 -0.0029211394 -0.0678683 -0.0011722924 -0.021128852 -0.055399634 0.033080176 -0.026648661
-0.055855 -0.07659239 -0.018003244 0.024768382 -0.035963286 0.0020002718 -0.038977098 -0.05604604
00000000: 8c0b a53d 62a9 a2bd 727e 24bd 4b2c 6dbd
00000010: bb91 afbc ce20 a3bd d7e7 38bd f78a 833d
00000020: 3f95 13bd 7fa7 643d 5009 e1bc f8b1 c7bb
00000030: bab3 81bd 7f43 5a3d 8b3e 41bd 7d5a 823c
00000040: dacf a33c 1640 9d3d 3671 823d 9e50 aebd
00000050: 9063 febc 9978 3fbd cf60 8a3d 35fc 32bd
00000060: 84ec 173d 71e3 8f3d 96ea 52bc c69f 893c
00000070: 2cd0 83bd 2173 5ebd b937 fbbc 445e 08bd
00000080: 41af eebb 7d18 6d3d f123 2d3d c9b6 813c
00000090: 9d3e 33bd b64f 99bb 37e9 05bd 9b0f 87bc
000000a0: 1514 b4bc abc6 6dbc 7602 303c 68e8 293d
000000b0: 846b f9bc 5252 743d 02de 81bd b84d 813d
000000c0: f69e 08bd da61 bbbc 12a6 9d3d e41c 8cbd
000000d0: 6e1b 32bd 1408 55bd aca6 f4bc 6751 75bd
000000e0: 35e7 04bb 91bd 60bd bf1e 48bd c9fc 213d
000000f0: 8cb2 a7bd 98c8 7ebc e8d4 393d 867d 44bd
00000100: 9ca0 8c3c 1ade dabc 4e3a 893c 246a e43c
00000110: f46c c3bb 74d8 a8bc 55b5 98bc b1f5 acbd
00000120: f3e2 5e3d 04db 8f3d cb41 983c a542 9f3c
00000130: 2ff8 353c 51a5 413d b941 e0bc 4773 183d
00000140: 2c72 e63b a6d5 303d 487b ae3d ac6c 103d
00000150: 57f8 6d3d 41ae 563d daba f73b 37c9 e5bc
00000160: 3c1b 94bd c32b 6f3a 3688 043d 8944 71bc
00000170: 89a4 b6bd 897c 7ebd 788c a13c 5530 9ebd
00000180: 39e3 663c 2096 973d 7e87 22bc 328d 763d
00000190: 2278 ac3d 841b 0fbd e92f aa3d ca6f 92bd
000001a0: f9ac a5bd 879f 2b3d 8e6f eabc 189f 993d
000001b0: 9dbc 05bd 7f5f e83c b519 febb b19a 89bd
000001c0: 3ab0 a7bd 8f46 873d e69d 0abd 436a f23c
000001d0: 9ab6 283d b22f 893d ab8f 9a3d 1a1b ae3d
000001e0: 3a4f a9bd cec9 873d 3218 92bd 2dc7 113d
000001f0: 3834 b23c 4886 40bd d10d 6fbd 7da7 96bd
00000200: b861 97bd 36bb 10bd 47d0 b6bc 5ebd 92bd
00000210: b68b a53d 2c0b 4fbc 93c5 463d c1fe 50bc
00000220: 9763 443c 4c56 123d 1639 ac3d 32a4 6e3d
00000230: d0ca a8bd 614d 84bc d4c6 93bd 701e f3bc
00000240: ffbd abbd 5992 2dbd 0dac e03c ae0b 2d3d
00000250: cf54 9ebd 7df5 77bd fffa 8ebd 034d f8bc
00000260: a406 b1bd 5931 9dbc 554c ab3d fac5 3cbd
00000270: 1f2f 8f3b 0a07 313d 5413 22bc 6ce6 a6bc
00000280: 7732 893d 7038 803d d9be 1cbd 279d 24bc
00000290: b5bd 9e3b 124d f7bc ceda c23c 796c 913d
000002a0: dc1e 55bd 97f3 5e3d f704 4dbc a660 7a3d
000002b0: 66ce 953c 21a9 5c3d 2c60 8e3d 2fa8 8dbd
000002c0: 5552 81bd 39f9 37bd a548 7d3d 8c54 883c
000002d0: 63fc 04bc 48ac c03c 8407 15bc 04eb 123d
000002e0: 6620 28bd 8e04 883d 4fc1 33bc 7610 953c
000002f0: 0f41 cfbc 3230 823d 8921 22bd 5143 133d
00000300: bfbc a3bd a654 973d c5cf 883c a4c4 31bd
00000310: ffc4 4abc ae3e 6c3d b84f 3a3d 053c 22bd
00000320: 82ae 8ebb 4825 04bd 5fc6 a9bd 163f df3c
00000330: 9dcd 963d ab76 973d 34f4 4dbd 644a 6bbd
00000340: 88b5 eabc 2009 b63d a7a5 5abd 24f9 02bd
00000350: d4e4 afbd e66a 54bd ab18 99bc 07f8 ac3d
00000360: 12aa ad3c 6b28 a9bd 8d28 9b3d e0d0 56bd
00000370: adc9 d53c 602c 2dbc e1df 99bd 32b8 b1bd
00000380: 364b 8cbd 67cd 8e3d 120a 85bd 85e0 edbc
00000390: aa06 08bd 3124 acbc fb89 853c 309d 06bd
000003a0: ae30 863b dfb5 2dbd 7c0e 9dbc 5b61 873d
000003b0: 6d81 60bd e4f1 92bd d351 b3bc 6035 41bd
000003c0: 7a8d 433c 9670 3fbb 89fe 8abd 9ba7 99ba
000003d0: 6a16 adbc baea 62bd 147f 073d 4b4e dabc
000003e0: 36c8 64bd 79dc 9cbd 8a7b 93bc 10e7 ca3c
000003f0: 3d4e 13bd fe16 033b 73a6 1fbd 8890 65bd

bias f4 [64]
-0.028281657 0.020413589 -0.040619146 -0.027559703 0.06410659 0.02240853 -0.06964164 -0.012862885
-0.045858517 -0.03490807 -0.07028376 -0.0653838 0.0061111073 -0.072378844 -0.06211796 0.010979956
0.076326855 -0.08431155 0.08355034 0.057046853 0.056704592 0.05455944 0.066034585 -0.058895256
0.031098016 -0.013597447 -0.0045643845 0.06128517 0.043125525 -0.059827767 -0.072032034 0.031647876
-0.031214625 0.037213534 -0.06260822 -0.067167215 0.019331578 -0.06821343 -0.056338195 -0.07028829
-0.083574265 -0.0034084162 -0.08182914 0.037546493 0.07335042 -0.042311553 0.04159941 0.0073502073
0.04995599 -0.063334554 -0.08513681 -0.00051862805 0.05205883 0.037821777 0.008216096 0.08322567
0.053220093 -0.033275858 0.0352133 0.07033584 -0.06049432 0.015357621 -0.043845616 -0.013165492
00000000: efae e7bc 663a a73c 4360 26bd e3c4 e1bc
00000010: 514a 833d 1892 b73c 47a0 8ebd dabe 52bc
00000020: 24d6 3bbd c4fb 0ebd eff0 8fbd f1e7 85bd
00000030: af3f c83b 5c3b 94bd 676f 7ebd 46e5 333c
00000040: 4151 9c3d 89ab acbd 711c ab3d f6a9 693d
00000050: 1343 683d b879 5f3d 243d 873d 273c 71bd
00000060: 44c1 fe3c d4c7 5ebc d590 95bb 2906 7b3d
00000070: 64a4 303d f60d 75bd 8885 93bd 34a1 013d
00000080: d0b5 ffbc 386d 183d bd38 80bd f78e 89bd
00000090: 425d 9e3c 7cb3 8bbd e1c2 66bd 4ff3 8fbd
000000a0: fc28 abbd bc5f 5fbb 0996 a7bd 5aca 193d
000000b0: bf38 963d e14e 2dbd 2564 2a3d 02da f03b
000000c0: a79e 4c3d 8cb5 81bd 355c aebd 8af4 07ba
000000d0: a43b 553d 02eb 1a3d ce9c 063c 3872 aa3d
000000e0: 50fd 593d 444c 08bd d23b 103d 3d0c 903d
000000f0: e4c8 77bd 889e 7b3c 7697 33bd 13b4 57bc

weight f4 [1, 64]
0.023643522 0.0123887025 0.1009393 -0.06151632 0.0059148455 0.11434027 -0.06445921 -0.038871203
-0.11628999 -0.045806747 0.070244096 -0.08548532 0.01854526 0.009251533 0.08916261 0.06744861
-0.118657924 -0.057826165 0.029602796 -0.11236885 -0.07176047 0.05242026 -0.073989786 0.1213685
-0.04315522 -0.07713478 -0.08821341 0.00053867383 -0.108652286 0.00056761544 0.039303817 -0.108133405
-0.08476014 -0.056363706 0.044712782 -0.059255693 -0.004608744 0.0071965256 0.019643197 -0.012049892
-0.0037078476 0.008129096 0.07372237 -0.12385903 0.061243992 -0.120940164 -0.08116248 0.060686458
0.049540162 0.0067325654 -0.0065535693 0.11866044 0.089474 0.09390558 0.00507564 0.059233293
-0.10144471 0.041184 -0.031165222 0.09676429 0.032937024 -0.029052056 -0.050928604 0.03118363
00000000: 0fb0 c13c fcf9 4a3c 44b9 ce3d 89f8 7bbd
00000010: 52d1 c13b 3b2b ea3d 3103 84bd 6937 1fbd
00000020: 7229 eebd db9f 3bbd 23dc 8f3d ed12 afbd
00000030: 3bec 973c be93 173c e39a b63d 7f22 8a3d
00000040: ed02 f3bd 21db 6cbd 9081 f23c a421 e6bd
00000050: 27f7 92bd a0b6 563d f587 97bd 0c90 f83d
00000060: 87c3 30bd d7f8 9dbd 3ba9 b4bd ca35 0d3a
00000070: 1785 debd 07cc 143a 0afd 203d 0c75 ddbd
00000080: b996 adbd a1dd 66bd c024 373d 19b6 72bd
00000090: f204 97bb d5d0 eb3b c5ea a03c e96c 45bc
000000a0: 5cff 72bb e62f 053c c1fb 963d cea9 fdbd
000000b0: fbda 7a3d 7aaf f7bd 8438 a6bd 5d92 783d
000000c0: a0ea 4a3d da9c dc3b 53bf d6bb 3f04 f33d
000000d0: 253e b73d 9251 c03d 8e51 a63b 9c9e 723d
000000e0: 3ec2 cfbd 8eb0 283d 354e ffbc 5b2c c63d
000000f0: f9e8 063d 94fe edbc 839a 50bd d074 ff3c
