pre_trained_models/urfunny_aligned_LA_UniMF.pt (torch, 464982 bytes, 76 tensors)

cls f4 [1, 32]
00000000: 317e c93e b38a b5be 42ef bfbe 1cc2 74be
00000010: 0345 843e c9be 8dbd 472d 1dbe 5884 f23d
00000020: 9107 1ebe 8281 2d3e c71e e8bd f384 653e
00000030: b3b2 a03e eb2a 4c3e f6bf b63e 3176 233e
00000040: de3d 9bbd c406 25be e385 91be c90c 5c3e
00000050: 5a2e f1bd 5906 c9bd 0b18 c7be a0f2 96be
00000060: 67b7 abbe 6387 a8be b9be 2ebe 601a 793d
00000070: 9313 a9be fc43 a1be 4362 553d 7d3b 69be
0.3935409 -0.35457382 -0.37487227 -0.23902172 0.25833902 -0.06921155 -0.15349303 0.11841649
-0.15432574 0.16943935 -0.11333995 0.22413997 0.31386337 0.19938247 0.3569333 0.15963055
-0.075801596 -0.16115862 -0.2842246 0.21489252 -0.11776419 -0.09815664 -0.3888553 -0.29481983
-0.33538362 -0.32915792 -0.17064942 0.06081617 -0.33022746 -0.3149718 0.052095663 -0.22776599

weight f4 [32, 300, 1]
00000000: 1bbc 263d 568f 64ba 37c2 84bb a814 5cbd
00000010: bc06 debc e137 993c 37f3 a2bd 4abd 043e
00000020: d47a dc3c 6407 e13c 26f5 6d3d 8df4 a63c
00000030: 5c8d 563b 1572 cd3d 0eff a63d e53c a5bc
00000040: 8955 773d 7f54 74bc 18d4 c03c e50f 8d3c
00000050: 733a 463d beeb 1cbd bded a4bd b316 1c3d
00000060: e90d 2d3c 5ae0 733d 1ddd 023c 46e0 a33d
00000070: 2d46 54bc 8b60 0c3b f16b f0bc b008 19bd
00000080: 217d f93c 7806 59bd b37f 9c3d 3cd3 c3bc
00000090: 6c0d 85ba 4529 a6bb e213 2bba 19b0 c2bc
000000a0: 4b6b 0d3d cc24 ecbc 65d1 3dbd de52 ed3c
000000b0: d7b0 d23b 4bf8 3bba 8e3c 6b3d bfe5 4d3d
000000c0: 5917 ffbc bcad c6bd 73bf 5e3c 0284 cfbb
000000d0: 7198 3ebb 5ba1 32bd 532e a33c 5a42 82bc
000000e0: 398d da3b b730 333c 57b1 fa3c d68a a83c
000000f0: 2e42 f93d 777d 303d 8099 7dbb 6a7f 52bb
00000100: 1599 35bd aaab 6f3d a0c4 e1bc f209 28bd
00000110: d812 be3b 6a7e 58bc cc75 413d a5e7 023d
00000120: 2667 693c 03dd 08bc d38d 8f3d c96d b0bd
00000130: e085 8cbc 03ab 70bc 06a6 853d f477 cc3c
00000140: 7641 103c 504d 1fbc fcd5 c4bc 3bb0 07bc
00000150: e1df 883d ff8a ed3c 3462 a2bd 0c45 033d
00000160: dd08 893c 369a ae3d 4ac7 d33b 5f1b 0f3c
00000170: 3b0f 99bd ece2 0e3d 5012 b6bb 73d1 173d
00000180: afbd d93a 12de a1bb cfc6 6d3d 610c 313c
00000190: cdc9 b03d 657a 023c 0135 b4bc ba07 29bd
000001a0: eb77 de3c f3bb 87bd c6a2 e7bc 2a16 d43c
000001b0: 0ee9 7e3d 0a01 093d 9905 733d 603f cabc
000001c0: ce18 25bd c4d9 b2bc 5790 ffbc a7ad 00bc
000001d0: 2f8d e13c 0865 9e3d 3e8c 7e3d ff16 383b
000001e0: 7ec1 51ba e059 833b 6a5f 0e3d 24a6 f7bc
000001f0: 75b8 23bd 91b6 0e3c 6706 6a3d e2a2 073d
00000200: 02d8 11bd aaf0 aabd 19e9 a03c 7797 6b3d
00000210: 1942 18bd 7d2a d03a 056b d23b 5710 2a3c
00000220: dc85 473d 8570 163d 82cc c03d 729e c93c
00000230: 58b4 303d ca1f b8bc ab60 07bd 7152 b03c
00000240: 6583 d7bb b24a 16bd 24e8 3d3d 34bf 353d
00000250: 6ff5 703d abed 2f3d cf69 08bd 686d 8bbc
00000260: d673 af3d f17a 0b3d a3be acbd 069d df3b
00000270: ebac 78bd 418c 0d3d 7f4e b7bd c4a5 f83c
00000280: d9b3 49bc 88aa 803d b47a cbbc ee7e 98bd
00000290: 9e8f 2cbc 68ac cdbb 2b1e a53d 7ac3 47bd
000002a0: 1fce 633d 8bb4 0b3d d83a 8b3d cc46 6d3d
000002b0: 0f1f cfbc fa35 8cbc 1db0 78bd fd60 8a3c
000002c0: 400d 20bd e2d8 65bd ff46 803d abb3 8abc
000002d0: 7076 883d 3313 913c 9f95 a6bc a4ac 01bd
000002e0: 2de7 85bd 4c39 b2bc 5540 973c 2f2e 92bd
000002f0: 7537 1b3d 846a 96bc f87c afba bbf3 80bd
00000300: 2ae5 13bd 6a45 953d b312 923c 0049 7e3d
00000310: d7af 2ebc 5971 80ba 04e9 9ebd fd16 a43d
00000320: 3861 2bbd ff56 e039 788d 323d 07ca d83c
00000330: c931 a8bc 2447 73bd 4ac5 10bd 0383 833d
00000340: 6135 a1bc f008 89bd bf72 a13b 11e9 b3bd
00000350: 3bc0 57bc 2043 90bd 6d51 c63c 68c4 62bd
00000360: f6a6 a9bc 1b46 8e3d 89de 28bd a627 01bd
00000370: 5b3b 5b3d d373 3ebd fe3d 4fbd 7fc2 d73c
00000380: e5a4 0abc fd02 553d 5824 03bc 11e5 0cbd
00000390: 897e f53b e075 b73d 1798 ffbb bcda d93c
000003a0: ff71 fdbb 86e3 2c3d 0061 633c 68c9 043d
000003b0: ee4e adbd 30f3 693d f2c5 71bc 4236 b7bd
000003c0: ed43 59bd ccac da3b e53b 4a3d d2b5 a6bc
000003d0: 3391 06bd 52e5 4c3d c01f 21bd 2013 35bd
000003e0: 977f 0d3c 4780 a1bd be47 cc3d bddc e8b8
000003f0: 2096 603d f7d9 5c3d f9c9 9bbd c499 293d
0.040706735 -0.00087188685 -0.0040514725 -0.053730637 -0.02710282 0.018703403 -0.07956546 0.12962833
0.026914038 0.027469344 0.05809512 0.020380283 0.0032738065 0.10031525 0.081541166 -0.020170638
0.060384307 -0.014912724 0.023538634 0.017219493 0.048395585 -0.03831076 -0.080531575 0.038107585
0.0105623985 0.05954013 0.007987288 0.08001761 -0.012956184 0.0021419849 -0.029348345 -0.0373618
0.030455174 -0.052984685 0.07641544 -0.023904435 -0.0010151095 -0.0050708377 -0.0006526095 -0.02376561
0.03452615 -0.02882614 -0.046342272 0.028970178 0.0064297724 -0.00071704824 0.057430796 0.05026793
-0.031139063 -0.09701106 0.01359545 -0.006332875 -0.0029082561 -0.04361091 0.01991955 -0.01590078
0.006669667 0.0109369075 0.03060214 0.020574015 0.12170826 0.043088403 -0.003869623 -0.0032119402
-0.044335444 0.05851332 -0.027559578 -0.04102511 0.005800586 -0.013213733 0.04723148 0.031959195
0.014245784 -0.008353475 0.07009473 -0.0861469 -0.01715368 -0.01468921 0.06525807 0.024959542
0.00880467 -0.009723023 -0.024027817 -0.008281763 0.066833265 0.028996943 -0.07928887 0.03204827
0.01672786 0.08525507 0.006462966 0.008734553 -0.07473608 0.03488438 -0.0055563822 0.03706498
0.0016612316 -0.004939803 0.058050927 0.010806174 0.086322404 0.007963751 -0.02199793 -0.041267134
0.02715679 -0.06627645 -0.028275859 0.025889475 0.062233977 0.033448257 0.05933151 -0.024688423
-0.04030686 -0.021832354 -0.031196756 -0.007853902 0.027533142 0.07734114 0.062145464 0.0028089879
-0.000800155 0.0040085167 0.034758963 -0.03023059 -0.039970834 0.008710519 0.057135012 0.03311432
-0.03560639 -0.08346684 0.0196424 0.057517495 -0.03717241 0.0015881803 0.006421449 0.010379872
0.048711643 0.0367284 0.09414007 0.024611685 0.04314074 -0.022476096 -0.033051174 0.021523686
-0.0065769427 -0.03669233 0.046363965 0.0443718 0.058827814 0.042951267 -0.033304032 -0.017019942
0.08567016 0.034052793 -0.084347986 0.0068241386 -0.060711782 0.034557585 -0.08950519 0.03035248
-0.012310945 0.06282526 -0.024838783 -0.07446085 -0.010532288 -0.006276656 0.08062395 -0.048770405
0.055616494 0.034107726 0.06798333 0.057928845 -0.025283365 -0.017115582 -0.06071483 0.01689195
-0.039075136 -0.05611504 0.062635414 -0.016931375 0.06663215 0.01770935 -0.020335017 -0.031658784
-0.06538234 -0.021755837 0.018463293 -0.07137715 0.037894685 -0.018361337 -0.0013388684 -0.06296488
-0.03610722 0.0728863 0.017831182 0.062081337 -0.010662041 -0.0009799405 -0.07759288 0.08012197
-0.041840762 0.00042789427 0.043591946 0.026463522 -0.020531552 -0.059394017 -0.0353444 0.06421473
-0.019678773 -0.06691158 0.004927009 -0.08784688 -0.01316839 -0.07044053 0.024208749 -0.05536309
-0.020709496 0.06946965 -0.04122785 -0.031531952 0.053523403 -0.046497177 -0.05059623 0.02633786
-0.0084621655 0.052004803 -0.0080042705 -0.034398142 0.007491891 0.0895803 -0.007800113 0.026593558
-0.0077345367 0.04220917 0.013878107 0.03241864 -0.0846232 0.057116687 -0.0147566665 -0.08945896
-0.053043295 0.006673431 0.049373526 -0.02035037 -0.032853317 0.050023384 -0.03933692 -0.044207692
0.008636377 -0.07885795 0.09974621 -0.00011103738 0.05483067 0.053918805 -0.076068826 0.041406408

bias f4 [32]
00000000: 15cd d2ba 947b 0abd 7364 79bc 53de d23c
00000010: 5f42 a7ba 3776 2c3d 73a7 253d 54c2 93bb
00000020: 50a8 67bb 8e1c 183d aaad dc3b bb25 433d
00000030: a12b 553d 20e5 133d 478a 16bd ca41 f33c
00000040: 9a5f 9c3a 8657 2e3d 9522 f93c 01f1 593d
00000050: 16f1 13bd 79b2 673c b88d fbbc e01d 4ebc
00000060: dd81 debc a9cf 4c3d e657 033d 4d7a d6bb
00000070: 6bfb 093d f52f c3bb 1819 8dbb 7923 1a3d
-0.0016082848 -0.03380926 -0.015221703 0.025740778 -0.0012760869 0.042104926 0.040442895 -0.0045092497
-0.0035348125 0.037136607 0.0067345696 0.047643404 0.05204356 0.036107183 -0.036752965 0.029694457
0.0011930347 0.042563938 0.030411998 0.053208355 -0.03611859 0.014141672 -0.030707225 -0.012580365
-0.027161533 0.050002728 0.03206625 -0.006545341 0.033687036 -0.0059566447 -0.00430597 0.037631486

weight f4 [32, 81, 5]
00000000: e58f b83b 1538 22ba 0f93 d43c 253f a5bc
00000010: fd7c ab3b 29cd 533b 8481 a83c 6872 7b3b
00000020: 5379 16bd 354e cfbc 960b 3cbd cd57 853c
00000030: d56c 96bc d3b6 07bd 7366 f13c 47d1 29bd
00000040: 4a64 d93c 90fd 9bbb a0cc 333d 0a61 1d3d
00000050: 3e67 51bd e7ce d2bc cfb8 083d 4036 38bd
00000060: b9c3 9e3c 818b 8b3c c31f 1f3d de40 afbc
00000070: a147 c23c 4834 0fbd 3fc0 463b b2d4 e43c
00000080: 9471 96bc b28f a5bc 6296 183d 0a06 963c
00000090: b115 cd3c 7db3 d9ba 461f d8bb 9600 6a3c
000000a0: 4756 393d 6bdc 0fbd be04 a2bc 2c9f 913c
000000b0: 3683 913c 3a3c 1d3d f52b 363d 83f5 2bbd
000000c0: 2816 0d3c 8a07 62ba c279 51bd 3255 da3c
000000d0: 7548 74bc d940 f0bc 29bf f13c e467 16bc
000000e0: 05c4 383d 6cae 353d 65fd 0fba 7d33 29bd
000000f0: ae10 1d3d 0101 acbc 5b80 8f3c 0a33 05bd
00000100: 5b82 d0bc 545f 07bd 475e 4bbd 3b17 883c
00000110: 114c 0e3d a9f7 2e3c 3565 caba 8b2f 013b
00000120: bcd9 773c 73f4 4bbd f3ce 05bb 22b4 f63c
00000130: 8383 b8bc 1b90 16bd e386 ab3b ebd0 203d
00000140: 618f b33c dd82 ccbb 22e0 12bd 2e6f e83a
00000150: fd08 3c3c d1e0 a13c 4719 813c 9648 2bbc
00000160: 96dd 183c 05ad 133d 7748 813c e66e ac3c
00000170: 206c 013d 4f57 23bd 04de 17bd d348 13bd
00000180: 2d4a 8c39 cb87 a8bc 9ad5 b93b c66e febc
00000190: c6d9 12bd 0fbe 58bc 78da 3d3d ff1e aabc
000001a0: bed6 35bd c62d e1bb 0134 41bc 18e5 253d
000001b0: ba0a 7b3c 3e5e f83b 6e6c 2dbd d97c c23c
000001c0: 567e d2bc 32b8 b6bb eb0a 193c ce42 2a3d
000001d0: c263 933b 5164 013c 219c 24bd 83aa d2bc
000001e0: 6d19 8eba 8b08 4fbc d8db a53a b504 07bd
000001f0: ba5e 373c acb6 e238 ea8e 043d 9a75 dd3c
00000200: ad41 49bd ad75 4dbd 2f8b e53c 5791 973c
00000210: 4387 bebc 704d 34bd 292e 32bd c47b 093d
00000220: 2e3d ef3c 2291 2ebd bf26 803c c5af 98bc
00000230: d19a 48bd d8fb 0c3d 9427 8c3c 8a08 c93c
00000240: 35e5 c4bc 12d9 0d3c 5e29 2cbc ae66 373d
00000250: 88ea 36bc 329a 113c 3398 0f3d 8ca8 67bc
00000260: b3d4 6ebb 51e3 3cbc d9c0 eebc 0e3f 17bc
00000270: bae8 53bd a1b5 9abc a440 123d 5ad2 95bb
00000280: 04f0 b73c 9c2a a0bc ada3 53bd 1765 0b3d
00000290: f63d 183d aff5 873b 349a 523b d1a3 503b
000002a0: 55c8 1b3d df2b 1dbd 0f1a 2d3d 6e0d 703c
000002b0: 592e 053d 716a 86bb 5ece 85bc ee00 1cbc
000002c0: 8531 173d 4c8d b63c 6a6f e43c 11f9 08bd
000002d0: c87c 51bc 3db6 91bb ad9c 833c 8517 f1bc
000002e0: 3026 4fbd ff25 0abc 2e66 3a3d 1c01 0f3d
000002f0: 7ee3 dabc b3c7 4dbd 3141 5cbc 92a0 89bc
00000300: e703 d73c 7417 963c 5009 fdbc 33e4 9d3c
00000310: ae4a b03c 0346 913c 9c68 f7bc 967d 4ebd
00000320: cf97 323d fe93 373d 7657 06bd 851d 2ebd
00000330: 2d43 f8bc 7f66 043d d971 43bd a302 98bc
00000340: af98 0c3d e24c e0ba 7c8d 00bd 14ad cbbb
00000350: 785e cabc b236 5bbd 09c6 ddbc 21a5 0f3d
00000360: 0794 bbbb 1804 9a3c 6860 0e3d ecf0 fa3a
00000370: 560c fd3c 6308 b73c f71c 33bd 16c7 29bd
00000380: 93ba 3d3d 1b7f 4e3c 668e 1a3d d3b1 1abd
00000390: 9e0f 093c e85a b43c 7eeb d03c 0940 e7bc
000003a0: 1e4e b73c e51e 073c 038a 41bd 93ed 153d
000003b0: c546 b5bb 583b 9fbc a7bd 75bc c4b6 2b3d
000003c0: 89f0 213d a551 d83a 7e3a 113d b343 5ebc
000003d0: 4440 21bd ce2f 20bd 7fb9 adbc f4b6 15bd
000003e0: 6096 51bd e8d5 85bc a4c1 17bd a0dc 4d3c
000003f0: 1ec4 bf3c 3754 923c 5a62 b7bb 7ecb b43c
0.005632388 -0.00061881664 0.02594903 -0.020171711 0.0052334056 0.003231833 0.02056957 0.0038367752
-0.036736798 -0.025305847 -0.045909487 0.016277218 -0.018362442 -0.03313334 0.029467797 -0.041459348
0.02653708 -0.0047604516 0.043896317 0.03842262 -0.05112385 -0.025733424 0.033379372 -0.04497361
0.019380437 0.017034294 0.03884865 -0.021393236 0.023715796 -0.03496197 0.003032699 0.027933452
-0.018364705 -0.02021012 0.03725279 0.018313427 0.025034757 -0.0016609278 -0.006595525 0.014282366
0.045248296 -0.035122316 -0.019777652 0.017776094 0.017762762 0.038387515 0.044475514 -0.041982185
0.0086112395 -0.0008622339 -0.051141508 0.026651952 -0.014909853 -0.029327797 0.029510098 -0.009180043
0.045108814 0.044355795 -0.0005492776 -0.04130887 0.038345985 -0.020996572 0.01751726 -0.032519378
-0.025452783 -0.033049896 -0.049650457 0.01661264 0.03474051 0.010679164 -0.0015441539 0.0019712176
0.0151275955 -0.04979367 -0.002041754 0.03011519 -0.022523647 -0.036758523 0.0052345856 0.03926174
0.021918954 -0.006241186 -0.03585828 0.001773333 0.011476752 0.019760521 0.015759123 -0.010454318
0.009330174 0.036053676 0.015781624 0.021048974 0.031597257 -0.039878186 -0.037076965 -0.035958122
0.00026758146 -0.020572564 0.0056712152 -0.03105868 -0.035852216 -0.013228907 0.046350926 -0.020766733
-0.044394247 -0.0068719117 -0.011792184 0.040501684 0.015322382 0.007579594 -0.042339735 0.023741173
-0.025695007 -0.005576157 0.009340982 0.041567616 0.004497976 0.007897452 -0.04018796 -0.025716072
-0.0010841318 -0.012636314 0.001265402 -0.032963473 0.011192018 0.00010810545 0.032362856 0.027033616
-0.0491349 -0.050161052 0.02802047 0.01850192 -0.023257857 -0.044019163 -0.043501053 0.033565298
0.029203977 -0.04261888 0.015643476 -0.018638501 -0.04897577 0.034419864 0.017108716 0.024540205
-0.024035076 0.008657711 -0.01050791 0.044775657 -0.011164315 0.008886861 0.035057258 -0.014139306
-0.0036442697 -0.011528806 -0.029144691 -0.009231342 -0.051735617 -0.018885436 0.035706177 -0.004572195
0.022453316 -0.019551568 -0.051669765 0.034031954 0.037168466 0.004149161 0.003213537 0.0031835923
0.03803285 -0.038371917 0.04226118 0.014651639 0.032514904 -0.0041020443 -0.016333755 -0.009521706
0.03691246 0.022284172 0.027885158 -0.033440653 -0.012786098 -0.0044467733 0.01606592 -0.02943016
-0.050573528 -0.008431911 0.045507602 0.034913167 -0.026719805 -0.050239276 -0.013443277 -0.016800199
0.026246978 0.01832173 -0.03088823 0.019273853 0.021519985 0.01773358 -0.030201249 -0.050412737
0.043601807 0.04481887 -0.032798253 -0.04250862 -0.03030547 0.03232431 -0.047715995 -0.018555945
0.034325298 -0.0017112757 -0.03138493 -0.006215701 -0.02470325 -0.05351896 -0.02707197 0.03506959
-0.0057244333 0.01880078 0.03475991 0.0019145287 0.030889671 0.022342866 -0.043728795 -0.04144963
0.04632051 0.0126035465 0.037733458 -0.037767243 0.00836554 0.022016004 0.025502916 -0.028228777
0.022376116 0.008247112 -0.04725076 0.03660352 -0.005532118 -0.019437477 -0.01499883 0.041922346
0.039536033 0.0016503824 0.035456173 -0.013565945 -0.03936793 -0.03910809 -0.021206615 -0.03655143
-0.0511688 -0.01633735 -0.037049904 0.012564808 0.023408946 0.017862422 -0.005596441 0.022069689

bias f4 [32]
00000000: 57ee 25bc 7f4c f9bc 75fd d1bc 1c6f 873c
00000010: cdcc 31bd 5416 43bc fc03 5b3b 0e4e e8bc
00000020: f4d8 5f3b 6b3c be3b e565 a03c 4e26 61bc
00000030: 8298 6c3c ef11 febc 2771 ec3c 87a5 a5bb
00000040: 158c dc3c e1cf 22bd d03e 4f3d 571a 4c3b
00000050: 5ec9 12bd 4240 86bc 3ae9 f6bb ac66 bbbc
00000060: 47e7 5ebd 9964 383d f4df 113d 0f85 b2bc
00000070: 7031 853c 99d8 8c3c ffa8 a03c fa65 a93c
-0.010127625 -0.030431984 -0.025633553 0.016532473 -0.043408204 -0.011907179 0.0033419123 -0.028357532
0.0034156414 0.005805542 0.019579837 -0.013742043 0.014440658 -0.03101441 0.028862549 -0.005055133
0.026922265 -0.03974903 0.050597012 0.003114363 -0.03583657 -0.016388062 -0.007535127 -0.022876106
-0.054419782 0.045017812 0.03561397 -0.021791963 0.016258925 0.017193126 0.019611834 0.020678509

weight f4 [32, 371, 1]
00000000: 871a be3c 2d88 b1ba 8c01 49bd b53a 44bd
00000010: 5876 1e3c 97c1 243d 815d a33c d3c2 333d
00000020: ac2a 123d e960 253c 5b86 a83c 7e94 3fbd
00000030: d03d 00bd b11f a7bc fbb9 c8bc 87a1 3b3d
00000040: ee19 903c 75a9 6f3c f8e1 443d fbbd 8ebc
00000050: f25b dbbc 3c25 3b3d c925 2a3d 9412 1f3d
00000060: 2b5d 32bd 5701 15bd 8783 08bc 9f69 c73c
00000070: 1ee7 2fbc f14a 593c 4dec 42bd fcd3 643c
00000080: 5bb7 81bc f45d edbc 45d1 95bc d2f4 533d
00000090: 4417 083d 5936 a03c 2783 3ebc b14d 6e3c
000000a0: 3bc9 fbbc d248 9cbc 09b2 22bd 0498 a939
000000b0: 5a13 31bc a56c 443a 007a 453d 12ea 45bd
000000c0: e737 19bc 0376 d8ba ea20 0ebd 9c44 1fbd
000000d0: 7f74 d43b 9627 babc 0d59 2e3d 65f0 27bd
000000e0: 72e5 b13c a0b6 0d3c d420 e03b 6c74 273d
000000f0: 9463 a9bc d3f3 1b3c acb9 523b d043 843c
00000100: ee28 39bc eafd 2dbb 2609 4dbc a500 acbc
00000110: 60ed 2a3d cfb5 323d d01c e43c 50b4 febb
00000120: 2866 393d 796c 213d 2966 efbc 8af4 1b3d
00000130: e346 16bd 7667 003c d8d6 9a3c 2fa5 de3c
00000140: 6441 3e3d 3c01 d93c 74c4 e3bc 4c17 74bc
00000150: e07b 9b3b 792a 3a3d 77ea da3c 4945 043c
00000160: bc77 1c3d 43ad c7bb 2eef 01bd 4b8e 69bc
00000170: b360 a7bc 648a 83bc cf62 d43c ed81 48bd
00000180: 51c6 5739 0405 30bd cede 193d 7b8e 203c
00000190: 91ce b93c 1dc2 a93c 3cd1 1dbc 8d24 46bd
000001a0: 977d 5cbc 60ab 4d3d ea8e 60bc e89f dabb
000001b0: 91d2 e2bc ed8b 32bd 2f00 22bc f743 f33c
000001c0: da38 523d eb70 e3bb dbde 15bd 809e b73c
000001d0: 9120 9a3c 15e3 30bd a791 23bc 3106 b33c
000001e0: c251 583c b0e9 b93a 96ba 5bba 6767 e33c
000001f0: 9b93 20bc 26fb eb3c 073d 263d af2d 26bd
00000200: 25b4 2cbd 730d a4bc 2a43 4bbd 1d99 44bd
00000210: 0d05 2d3d 6bf1 e53c cc1e 833c fe49 703c
00000220: 7a0c 6e39 b17b da3b a173 073d 9aed e6bc
00000230: 9f3a 433c 8367 00bd 7bbe 7fbc 3226 0abd
00000240: a235 243d 1164 a23c 2efe 54bc 0dd6 4b3d
00000250: ddae dabc 00d9 33bd 3e16 e7bc 42d3 2b3c
00000260: bf85 a9bc 2426 893c 7d01 46bb f01f 4f3d
00000270: 03cf 3fbc 7281 19bd 5e82 da3c c188 763c
00000280: bdc5 1bbd e247 c3bc 674f 37bd 70a8 053d
00000290: 681b 0fbd e723 123d ae56 1e3d 2de5 e539
000002a0: 582e 533d 2166 f7bc a6e6 a73c 2a2d 82bb
000002b0: 0679 0cbc 24d5 93bc 33bf 113b 80e7 a63b
000002c0: 5e84 ea3c 35f1 9b3c e629 b23c c0b6 a13c
000002d0: 4458 1fbc a121 10bd 9f8a c9bc 2255 8abc
000002e0: 53b6 7cbc 3645 b23c 175d bcbb 53a7 79b9
000002f0: 3d77 9c3c 07d0 a9bc 67ac 5c3c e2c2 643c
00000300: 33d4 e4bc b5ab cc3b 4485 5abb ac64 8a3c
00000310: 96c0 a5bb c65c ce3c e78c 3a3d 203c d93a
00000320: b865 14bd 7e96 053d a142 6d3d cb3a cebc
00000330: 42e1 413d f51d e03c 2520 21bd 1845 f03c
00000340: fa48 3dbd 336f 0a3d bde9 21bd ce76 d63c
00000350: 7427 3b3d bd41 483d 73b9 283d 774c ed3c
00000360: 15e6 08bd e02a 1a3d 17dc 973c 01fc 403c
00000370: 82c4 a63c 1437 c93c 52a6 04bd 9dff 0c3d
00000380: 64f2 593d 4a69 2cbd d360 ca3c 65df 74bc
00000390: c2be dfbc f8e8 ec3c b817 d93c f120 b039
000003a0: ec99 97bb ea29 cbbc 4fed 3e3d e5bd 113d
000003b0: adfc 963c 7c56 0e3d 47b3 d8bc 80fd 2e3d
000003c0: 2452 503d 8285 c53c 51bd 56bc 894d a43c
000003d0: d6a1 efba 075b 153c 1c81 bb3c bf57 0b3d
000003e0: 83f4 debc f607 4bbd 059c 033d 3237 033c
000003f0: 7959 39bd 8f7e 1c3d 94a0 4b3c 1dfa 35bd
0.023206009 -0.0013544612 -0.04907374 -0.04790755 0.00967177 0.040223684 0.019942047 0.04388697
0.035685226 0.010093906 0.020571878 -0.046772473 -0.03130895 -0.020400854 -0.024502745 0.04580834
0.01759049 0.014627804 0.048067063 -0.017424574 -0.026777241 0.045689806 0.04153994 0.038836077
-0.043545883 -0.03637823 -0.00833214 0.024342356 -0.010736255 0.013262496 -0.047588635 0.013966557
-0.015834501 -0.028975464 -0.018288264 0.05174715 0.033225313 0.019557165 -0.011627949 0.01454489
-0.030735603 -0.019077692 -0.03972057 0.00032347452 -0.010807836 0.0007492996 0.04821205 -0.04831893
-0.009351707 -0.0016514662 -0.034699358 -0.03888379 0.006483614 -0.022723954 0.042565394 -0.041000742
0.021715853 0.008649498 0.006839851 0.040882513 -0.020677365 0.009518581 0.0032154126 0.016145617
-0.011301262 -0.002654905 -0.012514388 -0.020996401 0.041730285 0.043630417 0.02784577 -0.00777296
0.04526344 0.03941009 -0.029223518 0.038075007 -0.036688697 0.007837167 0.018901274 0.027178375
0.04644908 0.026489846 -0.027803637 -0.0148981325 0.0047449917 0.04545066 0.02672313 0.0080731595
0.038200125 -0.0060936525 -0.03172224 -0.014255117 -0.020431852 -0.0160572 0.025926022 -0.048952032
0.00020577876 -0.042973533 0.037566 0.009799595 0.022681506 0.020722443 -0.009632405 -0.0483747
-0.013457677 0.050212264 -0.013705948 -0.0066718943 -0.027688297 -0.043590475 -0.009887739 0.029695494
0.05132375 -0.006940951 -0.036589485 0.022414446 0.018814357 -0.043185312 -0.009983457 0.021853538
0.013203086 0.0014184024 -0.00083819905 0.027759267 -0.009800817 0.02880628 0.040585544 -0.04057091
-0.042163987 -0.020025944 -0.0496246 -0.047997583 0.042241145 0.028069219 0.016005896 0.014666079
0.00022702097 0.006667577 0.033069257 -0.02818947 0.011915832 -0.031348716 -0.015609379 -0.033727832
0.04009021 0.019823106 -0.013000054 0.04976468 -0.02669471 -0.04390812 -0.028208848 0.0104873795
-0.020693658 0.01674182 -0.003021329 0.050567567 -0.01170707 -0.037476964 0.026673492 0.015047253
-0.038030375 -0.023837987 -0.04475346 0.032631338 -0.034938246 0.03567877 0.038656883 0.00043849033
0.05155787 -0.030200066 0.020495724 -0.003972669 -0.008573776 -0.01804597 0.0022239208 0.005093515
0.02862757 0.019035915 0.021748494 0.019740462 -0.009725634 -0.03518832 -0.024602233 -0.016886298
-0.015424329 0.021761518 -0.005748402 -0.00023808824 0.019099826 -0.020729078 0.013468838 0.013962479
-0.027933216 0.006246055 -0.0033343593 0.016893707 -0.0050583584 0.025190722 0.04554453 0.0016573705
-0.03622982 0.032614224 0.05792487 -0.025174519 0.047333963 0.027358035 -0.039337296 0.029329821
-0.046212174 0.033797454 -0.03952955 0.026179697 0.045691922 0.048890818 0.041192483 0.028967125
-0.03342255 0.037638545 0.018537564 0.011778832 0.020357374 0.024562396 -0.032385178 0.03442346
0.053209677 -0.0420926 0.024704373 -0.0149458395 -0.02731264 0.028919682 0.026500568 0.0003359388
-0.004626503 -0.02480026 0.046613034 0.03558149 0.018431032 0.034750447 -0.026452674 0.042722225
0.050859585 0.024111513 -0.01310666 0.020056503 -0.0018282484 0.009115941 0.022888713 0.034019228
-0.027216202 -0.04956814 0.032131214 0.008008765 -0.045251343 0.038206633 0.0124284215 -0.04442798

bias f4 [32]
00000000: 267f 923a 093b cbbc 7d27 49bd 63f9 1cbd
00000010: 7251 cfbc 70e4 97bc 4d6e c33c 3141 3a3c
00000020: ca28 88bc 8b63 033c 4666 90bc fafd e03c
00000030: 23fa dfbc 5ba7 3b3c 92e6 a4bc 1771 463b
00000040: 9aae 1cbd 5c77 403c 06c4 c9bc db22 113c
00000050: cacb a7bc 1cf6 b33c 5f0a 3ebd 9253 173d
00000060: d039 0cbd fc97 ccbc 85bf 84bc c84d 84bc
00000070: 4619 1bbd 74b5 aebc 9618 903a 9c0b f33c
0.0011176809 -0.024808424 -0.049109925 -0.03832377 -0.02530739 -0.018541545 0.023856306 0.011368082
-0.016621012 0.008019338 -0.017626893 0.027464855 -0.027340954 0.011453475 -0.020129476 0.003027981
-0.03825245 0.0117472075 -0.024629604 0.008858408 -0.020482916 0.02196794 -0.04639661 0.036944933
-0.03423482 -0.024974816 -0.016204605 -0.01615037 -0.0378659 -0.021326758 0.0010993655 0.029668622

weight_ih_l0 f4 [96, 32]
00000000: 3316 dbbd 109e a93d 4f6a fa3d 3d6c 5bbd
00000010: 7840 153c e5b4 683c e511 923d b016 03be
00000020: 4274 b0bd 4426 1b3b 8932 7339 1359 fc3d
00000030: df4c f13c bd7b c2bd 1974 de3d 81a3 103e
00000040: 4d64 663e 6992 253d eeb0 8a3d 3d66 1f3d
00000050: dfd5 3e3e 41d5 01be b4aa 313b 3d36 58bd
00000060: e785 473e 4f32 65bc 8aa7 703d 53f6 4ebd
00000070: d194 ab3d 1c13 0cbe 2fd6 b3bd 8d97 843d
00000080: a447 033c 3a86 23be 49f8 6cbd b392 01be
00000090: b0d4 873d 6dde 003d 1a77 71bd 4f7f 65bd
000000a0: b0f5 003e 2b45 e6bd 431c f4bd e231 353e
000000b0: fc20 283e 6f64 ab3d 4941 ab3d 939e c23d
000000c0: 2149 2fbe 7d18 563e 05ba 3abe 5fbf 35be
000000d0: 96d8 80bd 14f9 0b3d e903 653e d269 b33d
000000e0: 5ee9 283d bea7 f0bc a18e 0abe 0591 f1bc
000000f0: 799d e7bc f34c 483e 648d babd 3056 2c3e
00000100: 04a9 583d 017b c4bd 642d 443d 5513 43bd
00000110: a1f1 41be 89c3 0dbd 0a56 5c3d 603c 2a3e
00000120: 1e83 8bbd bbca c5bc e611 f33d 3999 02bd
00000130: b8d9 583d ad58 7a3d 7fe0 6a3d 70f7 b13d
00000140: fbbd 6ebc 9963 063e 02ca b5bc 59f1 b6bd
00000150: eb95 393e e02b 603d eda6 313e 71b0 083d
00000160: 44f2 7bbb 3dc9 433e 91f4 80bd b5ee 07bd
00000170: 9fcf ca3d 4798 b63d 61ed 3b3d d85d c5bd
00000180: 77bc 3dbe e42b fcbd c9c4 4e3e 0781 673d
00000190: d351 353e fbc1 d3bd cbf9 d0bd 1b50 32be
000001a0: 3d84 76bd a589 5b3d 0809 1abe c6d2 1fbe
000001b0: ab67 e9bd 3dce abbd 42eb 023e fc18 01be
000001c0: 3ddc 2fbe abcb 7e3d 1158 573e 1ec8 013e
000001d0: 02ef 4f3d 90fc 3e3e ff42 cfbc f76c 27be
000001e0: b9d9 26be b9db e13d bc8a be3d 9a67 4dbe
000001f0: 8185 4c3d 5ba6 3a3d 6b14 b13d 7037 c23c
00000200: d502 973c 25b1 23bb e32b 58bd 31c9 00be
00000210: bf1d fbbd d6e3 fbbd 0cfb 123d 5da9 e2bd
00000220: 40d6 073e a5b4 cdbd 00ce 693e 5561 823b
00000230: 46a4 753d 9548 0abe 9f6d 91ba eef2 553c
00000240: f109 4a3d 8277 0e3d 71aa e4bd a9f6 543d
00000250: 7add aebd aabc b3bd c2bd e63c d646 6ebc
00000260: 49c7 c2bd 4111 203d 729f dd3c 9c23 a23c
00000270: f0bb 78bc f42b d6bc bed2 3bbe 7647 13bd
00000280: ef2e 343d 62b4 83bd 90f9 c63d bb44 1e3b
00000290: 6010 cbbd a003 183e 61fa 153c 7549 3e3e
000002a0: 2fe7 f23d ad0d 163d 41a8 1b3e 8e57 ea3b
000002b0: 7503 c5bd 3f7c 64be 4866 6e3d 84bb 00bd
000002c0: 70cc 2ebd bc27 243e 0643 0abe 9cba 7fbd
000002d0: 606f 9ebd 6942 07bd 6b7c 363d f39a 63bd
000002e0: 2a54 5c3d bfc5 a8bd 5ff4 853a 05e5 34be
000002f0: ba41 82be c5e3 7a3d b2f0 1dbd 78c8 683d
00000300: 1bd5 183e 072a cb3d 725d 5a3e 6679 753e
00000310: 0624 51bd 5868 31bc 5d96 c03d 5bee e2bc
00000320: aa98 6ebc 13b4 23bd 824a 753d a5c4 e5bc
00000330: c216 813e aed8 55be 31b8 e3b8 721f 9fbd
00000340: ae7e a33b c89d 283e 7e98 ddbd c226 7dbe
00000350: 613f 03bd 0474 29be 2eda a23c 2c52 8cbc
00000360: 20ea 11be df8d a53d 79e1 9a3d 2c05 cfbd
00000370: 14a2 7fbe 2a3b 8cbd 8e77 783d 8f03 8f3d
00000380: d28f 703e 5690 fcbd b1d2 543e 1019 aabd
00000390: cb5c 45be c11b f7bd 22a1 adbc f191 3e3d
000003a0: 5eaa 1a3e a3e5 9b3c e6ea 2abe 5abc 703e
000003b0: 1965 823e ca3c d6bd c922 8f3d 1eda f53b
000003c0: 891a 92bd 4157 9f3d a053 debd 3dbd 7f3d
000003d0: 7781 633d 8849 4ebd 2b5b 1f39 43c2 d93d
000003e0: 85ea 86be e449 353d 006b 433e 39b5 673d
000003f0: 4c96 e5bd 596b cfbd 19d2 133e 6799 013e
-0.106975935 0.08282101 0.12227308 -0.05357002 0.009109609 0.014203285 0.07132319 -0.12801623
-0.086159244 0.002367393 0.00023193112 0.12321677 0.0294556 -0.094962575 0.108619876 0.14124872
0.22499199 0.04042283 0.06772028 0.03891586 0.18636273 -0.12679006 0.0027109804 -0.0527861
0.19484673 -0.013989045 0.058753528 -0.05052788 0.08377994 -0.13679165 -0.08781087 0.064742185
0.008012686 -0.15969172 -0.05785397 -0.12653618 0.06632364 0.03146212 -0.058951475 -0.056029614
0.12593722 -0.112436615 -0.11919453 0.1769481 0.16418833 0.083687656 0.083620615 0.09502902
-0.1711774 0.20907779 -0.18235023 -0.17748784 -0.062913105 0.034173086 0.22364773 0.08760418
0.04123818 -0.02937686 -0.13530971 -0.029488096 -0.028273331 0.19560604 -0.09108999 0.16829753
0.05289556 -0.09593774 0.04789485 -0.04762586 -0.1893983 -0.034610305 0.05379299 0.16624594
-0.06812118 -0.024144521 0.11868648 -0.031884406 0.052942008 0.061119724 0.057343002 0.08689773
-0.014571662 0.13123931 -0.022191051 -0.08932752 0.18123595 0.054729342 0.17348833 0.033371393
-0.0038443962 0.19119735 -0.06296647 -0.033186633 0.09902882 0.08915763 0.04588068 -0.0963704
-0.18528925 -0.12313059 0.20192255 0.056519534 0.17706995 -0.10339733 -0.10203894 -0.1741337
-0.060184706 0.053598065 -0.15042508 -0.15607747 -0.11396726 -0.08388946 0.12785056 -0.12607187
-0.17173858 0.06220595 0.21029688 0.12673995 0.050765045 0.18651032 -0.0253005 -0.1635016
-0.16293992 0.11028237 0.09303805 -0.20059052 0.049932007 0.045568805 0.086464725 0.023708075
0.018433968 -0.0024977413 -0.05277623 -0.12576748 -0.12261533 -0.12299316 0.03588395 -0.1106746
0.13265324 -0.10044221 0.22832489 0.003978888 0.059971116 -0.1350425 -0.0011095292 0.013058407
0.049325887 0.03478194 -0.111653216 0.051993046 -0.08538337 -0.08776219 0.028166655 -0.014543256
-0.09510667 0.039078955 0.027053569 0.01979237 -0.015181527 -0.026144005 -0.1834211 -0.035956822
0.043990072 -0.0643089 0.09715569 0.0024149853 -0.09915233 0.14845133 0.009153933 0.18582709
0.11860501 0.036634136 0.15200903 0.0071515506 -0.096198 -0.22313021 0.05820301 -0.03142883
-0.042675436 0.16030782 -0.1350213 -0.062433824 -0.07736087 -0.033022318 0.044552248 -0.055567693
0.053791203 -0.08240842 0.0010219923 -0.17665489 -0.2544077 0.061252374 -0.038559623 0.056831807
0.14925043 0.099201255 0.21324709 0.23972091 -0.051059745 -0.0108281 0.094036795 -0.027701547
-0.014562765 -0.039966654 0.05988551 -0.028047869 0.25212675 -0.20883438 -0.00010858512 -0.077696696
0.0049894666 0.16466439 -0.10820101 -0.24721816 -0.032042865 -0.16548163 0.019879427 -0.017129026
-0.14249468 0.080837004 0.07562537 -0.10108408 -0.24964172 -0.06847222 0.06066089 0.069831006
0.23492363 -0.123322174 0.20783497 -0.083055615 -0.19273679 -0.120658405 -0.021194998 0.0465259
0.15104052 0.019030398 -0.16691169 0.2350935 0.25467756 -0.10460813 0.069890566 0.0075028082
-0.071339674 0.07780314 -0.10855794 0.06243633 0.05554339 -0.050363094 0.00015197384 0.106327556
-0.263508 0.04425992 0.19083786 0.05656931 -0.112103075 -0.10127897 0.14435615 0.12656175

weight_hh_l0 f4 [96, 32]
00000000: cc55 f73d d0f4 053e b223 14bd 4964 1bbe
00000010: b7ba 913c be09 9fbd 7aa4 a3bd 36a8 e93c
00000020: c101 b53d 87c7 06be 332c 0ebe a41e 8dbd
00000030: 52c9 c13d a1be 8dbd 9470 db3d f490 783d
00000040: f775 0d3e daf5 dabc 024a 93bb e591 1bbe
00000050: 1183 f73d 0298 e7bd b7e3 1e3e 71b5 913d
00000060: b230 843d 85a4 443a 422f 9cbd 6395 413b
00000070: c38b e3bd 201b 233e a093 90bb 0788 573b
00000080: 7d6f 093d bab0 12be 9706 0bbe 221b c63c
00000090: a7ca 1e3c 3da3 d43c 8386 053d 5bdb debd
000000a0: e15d 12bd 22d8 513e ab06 163e 9544 3d3e
000000b0: e324 76bd 378d d6bd d1fb 043c 8164 efbb
000000c0: 3743 cebd b2bf 68bc b58b fcbd c0af 113e
000000d0: e16d 083e 034d 04be 41fa a6bd 4a9f e63d
000000e0: 820c 2fbe 5cdb 94bd 74f9 8ebd 3578 42bd
000000f0: d63e 813d 1122 1a3d 7826 e2ba 8db3 dd3d
00000100: cb29 333d 0711 59be 6e25 9d3d 67c6 be3d
00000110: f66a 2dbe a06d 893b 8c57 e73c a2db c33d
00000120: 762e 563d 0e71 d3bd 728e 143e 1e56 5a3e
00000130: 5aef 253c 7f44 26be ee19 e8bc b228 863d
00000140: 5d52 e0bd f1b4 cb3d 3470 c83d f17d 20be
00000150: e9fc bb3d fce3 403e c127 76be 88d1 b9bb
00000160: 2faf 34bc d3cc 7cbe 2e78 5dbc 8b80 2b3e
00000170: 3cd0 df3d 74d6 fb3d 10c0 01be 2730 acbd
00000180: 465c e63d 47d1 1f3e 3f87 33be b7ac 053d
00000190: 7d0b 8d3b 0a9c e83d f6a8 10be 314b c7bb
000001a0: 7c6b 4f3e e378 b53d 2cae 4ebb 51c0 4bbe
000001b0: 1297 d2bd 35cb d1bd 6a73 f13c 8b40 e03d
000001c0: 1242 05be 66cc 60be 8a16 01bd eaaa 453e
000001d0: 518e 89bd ffd8 033e 0245 b1bd f6b6 b53d
000001e0: 5fc4 75bc 5f71 de3c 656c b63d 2ab2 8bbe
000001f0: 55c9 9dbd 5ac1 d5bd 9470 3c3d 8045 a7bc
00000200: b981 dcbd c63e 0d3d 91ce 633c 56a3 9ebd
00000210: 0e82 69bc 1ac3 6fbd 2ec0 493d abc1 03be
00000220: 62d2 edbd f81d 42bd 9322 35be c9e7 8ebc
00000230: 2e9e fd3d 1f13 7ebd 9a75 23be 79fd cbbd
00000240: ec8b 21bd 2bb9 e3bd 67dc 1a3e 3f6e d8bd
00000250: 6e06 1fbe 4486 5f3c fda4 5e3d bdaf 02be
00000260: b5f0 e2bd 6e8e 383d e1e7 b33d 892b eb3d
00000270: 9cda 5dbc d7fe cdbc 6ff9 263e c7bc 00be
00000280: 5a17 28bd 30c2 5a3c d112 453e 2a41 733d
00000290: cce8 1dbe 2af5 d7bd 3add 463e 9890 b4bd
000002a0: cbcb eabd 10f2 383e db91 b1bc f49d ea3d
000002b0: 6bc9 a03d d241 a13d e9e2 5b3d d34a 223e
000002c0: 5768 8d3d 72eb bebd 5a60 663c 46b1 42bd
000002d0: 7825 91bc 70a1 02be dc6e 8fbd 49f1 58be
000002e0: b9b7 94bd b1a4 043c e966 523d 0280 973d
000002f0: fe52 8a3d 78e6 cd3d 32a8 11be cf54 703d
00000300: 18cc 40be c408 0c3c c8cb 0b3e b51f e63d
00000310: cd4f 443a fc67 ac3d 9028 abbd a73c d6bd
00000320: 31ff 84bd e8ec 8dbd 2b8c 623e 3320 443e
00000330: 4e59 6ebd 60c7 e63d bb46 30bd a37e 783e
00000340: 676a 26be aa47 443c 016d 0b3e 4f9c 753d
00000350: 8e98 fd3d 4591 123c 8d30 833d fe69 073e
00000360: ea54 3bbd 4cca 303c 236b 51be 6ddc 12be
00000370: 6d00 243d 67b3 6a3d 88e3 64be a0d5 51bc
00000380: 1123 c0bd 950a 783b e098 9f3c ac86 7d3b
00000390: 4757 ddbd 12e8 e13d fd25 7e3a 10ad 273e
000003a0: 95df e13d 4fd9 a93c f335 a9bd cfdb 283e
000003b0: f2cd 92bd c97b 363e 2562 da3c dcab 143e
000003c0: 56cb dabd 1a12 123e 4e05 943b 5002 62be
000003d0: 9002 b0bb 793e bebc af7c 8a3b 8a12 853d
000003e0: c043 83bd 1d5d 4d3d 07b0 193e b4ef 413e
000003f0: 099c 14bb 3a31 b0bd bb59 cebd c0b2 633d
0.12076911 0.1308167 -0.036166854 -0.15174975 0.017789228 -0.0776553 -0.07990356 0.028522592
0.08838225 -0.13162051 -0.13884048 -0.0689061 0.09462227 -0.06921125 0.10714832 0.060685113
0.13814531 -0.02672856 -0.0044949064 -0.15192373 0.12085546 -0.1130829 0.15516554 0.07114685
0.064546004 0.0007501322 -0.07626201 0.0029538504 -0.11110642 0.15928316 -0.0044121295 0.0032887475
0.03355359 -0.14325228 -0.13576733 0.02418286 0.009691871 0.025956744 0.032598983 -0.108816825
-0.03573406 0.20492604 0.14650981 0.18483193 -0.06009377 -0.10476153 0.008116678 -0.007305682
-0.10071414 -0.01420586 -0.123313345 0.142272 0.13323165 -0.12920003 -0.08153201 0.11260851
-0.17094615 -0.07268402 -0.06981173 -0.04747792 0.06310813 0.037630145 -0.0017253896 0.10825262
0.04374103 -0.21197902 0.07673155 0.09315186 -0.16935334 0.0041939765 0.028239988 0.09563376
0.052290402 -0.10324298 0.14507464 0.21321914 0.010127867 -0.16237067 -0.028332677 0.06550731
-0.109532095 0.09946621 0.09787026 -0.15673043 0.09179098 0.18836969 -0.24038602 -0.00567073
-0.011028095 -0.24687509 -0.013517423 0.16748254 0.109283894 0.12296763 -0.12670922 -0.08407622
0.112480685 0.15607177 -0.17532061 0.032635417 0.004304348 0.11357887 -0.14126953 -0.0060819616
0.20255846 0.08860948 -0.003153692 -0.19897582 -0.102827206 -0.10243837 0.029473979 0.109498106
-0.13013485 -0.21952972 -0.031515636 0.1930348 -0.06716598 0.12875746 -0.0865574 0.08872788
-0.015000432 0.027153669 0.08907393 -0.27284366 -0.07704417 -0.104372695 0.0460058 -0.020418882
-0.1076693 0.034483694 0.01390423 -0.077459976 -0.014252199 -0.058535673 0.049255542 -0.12866847
-0.11612393 -0.04739186 -0.1768897 -0.017444508 0.12383686 -0.062029954 -0.1596283 -0.099604554
-0.03944008 -0.11119302 0.1512314 -0.10567903 -0.15529796 0.013642851 0.054356564 -0.12762351
-0.110810675 0.045057707 0.08784462 0.11482913 -0.01354089 -0.025145931 0.16306089 -0.12572013
-0.041037895 0.013351962 0.19245459 0.059388317 -0.15420836 -0.10544808 0.19420329 -0.088166416
-0.11464652 0.1806109 -0.021675995 0.114559084 0.078509174 0.07873882 0.053683195 0.15848856
0.06904667 -0.093222514 0.014061058 -0.047532342 -0.017718062 -0.12756896 -0.070035666 -0.21185793
-0.07261605 0.008095906 0.051367674 0.073974624 0.06754111 0.10053724 -0.14224318 0.05867463
-0.18827856 0.008547012 0.13651955 0.112365164 0.0007488698 0.08418271 -0.08357346 -0.10460787
-0.064939864 -0.06929952 0.22123782 0.19152908 -0.058190636 0.112684965 -0.043036204 0.24267058
-0.16251527 0.011979977 0.136158 0.05996352 0.12382613 0.008945768 0.06405745 0.13224027
-0.045735277 0.010790419 -0.20451026 -0.14341898 0.04003947 0.057299998 -0.22352421 -0.01280728
-0.093816884 0.0037848104 0.019482076 0.0038685007 -0.108076625 0.11030592 0.0009694992 0.16374612
0.11028973 0.020733504 -0.08262243 0.164901 -0.07168187 0.17820658 0.026658127 0.14518684
-0.106833145 0.14264718 0.004517234 -0.22071195 -0.005371399 -0.023223149 0.004226289 0.06497677
-0.06409407 0.050137628 0.15008555 0.18939096 -0.0022676012 -0.08603139 -0.100757085 0.05559039

bias_ih_l0 f4 [96]
00000000: a41e 243e 7302 ca3d b788 84ba c5a3 afbd
00000010: 0f4e 3f3d e386 b0bd 351d a7bd 4176 a5bd
00000020: 05a8 12be 23d8 963d 11fe 313e 65b1 ebbd
00000030: 7101 103d 11be 0c3e ef20 113e 8ae0 8ab8
00000040: 39b6 0bbc 1a47 383e 24ff bb3d 68eb 8cbd
00000050: 5b4e 393d 98b9 203d b8aa 463d 2779 c4bc
00000060: 4e6e b7bb 07f0 f73d 2588 163d 6038 b9bd
00000070: 8e48 cb3d c78b a8bd f0b1 053e 2fc5 303e
00000080: 669b 543d 3951 07be d2c7 4abe 5b86 dbbc
00000090: ec27 2ebe 3d0b febd bc93 3cbe 1e40 59be
000000a0: 22fc 6dbd 8096 ec3d 0096 313d 148c febd
000000b0: f2f5 aa3c 322b 19be f540 d6bd af2a 73bb
000000c0: d51b 3c3e 2bfa 4c3c 5d7a b63d 7d97 ba3d
000000d0: 24a1 4e3d 5a73 31be 297c e4bc ea83 39be
000000e0: ddb1 18bc a597 b83d e026 22bd d48e 373e
000000f0: e998 243e 21be ebbc b933 27be c460 aebc
00000100: d8d6 d3bd 206e 533c 40d3 07be 728d f03c
00000110: 6628 863d 7861 683c c288 1b3d 623b 2d3e
00000120: 27c9 51bd b8b1 e33d 07f2 adbb d7fe a1bd
00000130: 4a4c 12bd 1994 8c3b b99d ec3d 107a 833d
00000140: 7b29 d8bd 81ab 5fbd e873 f4bd 37fe 6d3d
00000150: c572 303e 5923 203e 2986 973d baf0 b13d
00000160: b90b b4bd 184c 5a3d 2ad8 1fbe 8c46 67bd
00000170: 12ac 18bd 9988 e33d 8db0 d4bd 9d30 023e
0.16027313 0.098637484 -0.0010111545 -0.085761584 0.0467053 -0.086194776 -0.08159868 -0.08079196
-0.14321907 0.073654436 0.17382075 -0.11508445 0.035157625 0.1374438 0.1417272 -6.6221764e-05
-0.008527332 0.17995873 0.091795236 -0.06880838 0.04524074 0.039239496 0.048502654 -0.023983551
-0.005597866 0.121063285 0.03675093 -0.09043956 0.09925948 -0.082297854 0.13056159 0.1726272
0.051906012 -0.13214578 -0.19802788 -0.026797464 -0.17007416 -0.12404487 -0.18415731 -0.21215865
-0.05810178 0.11552143 0.04335594 -0.124290615 0.020869229 -0.14957884 -0.10461608 -0.0037104299
0.18369992 0.012510817 0.08910058 0.09110925 0.050446644 -0.1732916 -0.027891235 -0.18116727
-0.00931975 0.09013299 -0.039587855 0.17925578 0.16073956 -0.028777184 -0.16328324 -0.021286376
-0.103437126 0.012904674 -0.13264179 0.029364321 0.06550674 0.014183395 0.03797222 0.16917184
-0.051217224 0.111178815 -0.005308393 -0.07909935 -0.035717286 0.0042901156 0.11553521 0.06419766
-0.10554787 -0.05460692 -0.1193617 0.058103766 0.17231281 0.15638484 0.07398636 0.08688493
-0.087912984 0.053295225 -0.15609804 -0.056463763 -0.037273474 0.11110038 -0.10385237 0.12713857

bias_hh_l0 f4 [96]
00000000: 88f0 81bd 7f53 ab3d fcf8 9d3d 3591 f8bd
00000010: dbca 22be b2a7 71bd 2e32 17bd af6d a53d
00000020: 3f45 b83d d1f4 eabd 28a0 07be 397b a2bd
00000030: e8ea b43d 4c79 0a3e 827c 82bd ec53 02be
00000040: e070 a7bd beac 313e 8dcb d6bd 6655 a63d
00000050: 6915 bfbd d89b 133e 46b4 073d 4718 80bd
00000060: da18 a93d 873a 3a3e c886 fcbd cea5 c03b
00000070: 15da 2c3e 13a6 5f3b 344a db3d 5ff4 94bd
00000080: 2a94 183d 7984 a8bd eed0 893d 1000 c8bd
00000090: 546a 1b3e 9bf4 7abd 2b05 01be 50d7 6dbd
000000a0: 14af 203d f33e 1fbe cb88 c4bd 91ea 76be
000000b0: 72b5 52be f1a1 c4bd af57 79bd 117e 10bd
000000c0: fb24 9c3d 311f df3c e6b1 2a3d db27 67bd
000000d0: ae06 bcbc e3b4 05bc 3e40 81bb 9d4b c6bd
000000e0: 1b32 13be 7fa3 84be c585 ce3d 4dd7 803c
000000f0: 0b14 37be 0942 0dbb 2edc 8c3c b4f2 16bd
00000100: ba72 20be 6311 263e 52ba 97bc ec58 113e
00000110: 8382 04be a718 88bd 03d2 85bd cb24 3bbd
00000120: 6377 d63c 40e0 0c3e 526e f93d 69e8 8fbc
00000130: eccd 0c3e d3bc 00be 22c9 713c f8a3 0cbd
00000140: a56b e83d 05e4 ac3c fb62 e2bc 5c9f 14bd
00000150: 1540 703d 7a64 0e3e 17c4 10be 38b8 f7ba
00000160: aa10 af3d 18b7 c5bd eaf9 3f3e fc9f da3d
00000170: 3ebf 793d 9722 1abd eeca a9bd 5a86 20be
-0.06344706 0.08365535 0.077135056 -0.12137071 -0.15897696 -0.058997817 -0.03691309 0.08077561
0.08997583 -0.11472476 -0.13244689 -0.07933659 0.08833867 0.13522834 -0.06371404 -0.12727326
-0.08175826 0.17351052 -0.10488043 0.08121757 -0.093302555 0.14414918 0.033130907 -0.062546305
0.08256693 0.18186389 -0.12330395 0.0058791405 0.16880067 0.0034126088 0.107075125 -0.072731726
0.037250675 -0.08228392 0.06729303 -0.09765637 0.1517728 -0.06126843 -0.12599628 -0.058066666
0.039229468 -0.15551357 -0.09596404 -0.24112917 -0.20577028 -0.096012 -0.060874637 -0.035276476
0.07624241 0.027236553 0.041673563 -0.056434494 -0.022952404 -0.008160803 -0.003944426 -0.09682391
-0.14374582 -0.25905988 0.10084108 0.015727663 -0.1787874 -0.0021554253 0.017194834 -0.036852553
-0.15668765 0.1621757 -0.018521462 0.14194077 -0.12940411 -0.06645327 -0.06534197 -0.045689385
0.026179975 0.1375742 0.12179245 -0.017566876 0.13750428 -0.1257203 0.014757426 -0.03433606
0.113486566 0.021104822 -0.027635088 -0.03628479 0.058654863 0.13905516 -0.14137302 -0.0018899506
0.085481 -0.09654063 0.18747678 0.10675046 0.0609734 -0.037630644 -0.08290659 -0.15676251

weight_ih_l0 f4 [96, 32]
00000000: 273c 793d 8bbd a63d 1a34 073b 8611 2bbd
00000010: 5068 4c3d 0b48 3a3c ddee 87bb df09 61bd
00000020: eaaa 823c 4a7e 133e 4ea1 fbbc 4484 963d
00000030: f169 80bd e1db b2bd d69f 0c3e da3b 1abe
00000040: 00b5 10be 854c c73d 0da7 06bd b7f6 4d3d
00000050: 34ea 273e b247 bf3d 7e96 99bd 0350 2f3e
00000060: d3cb 06bd af22 f33d b797 d83d ff6e 113e
00000070: 6106 ab3d 4afc f1bb 334b 7abc 806f 033e
00000080: 697a 9e3c dd51 ed3d b893 7ebd 43fb 0f3d
00000090: 88ae 23bd c5d6 18be 2400 3bbd 5feb 2fbe
000000a0: b21c ad3d f5ac acbd 24ca 8e3d b6fc 7b3c
000000b0: 02ec 683c 8d57 a53c 7962 f53d 1c12 bcbd
000000c0: 77bf e4bd 4ae5 5c3c 7b2e 0ebe b33a 493d
000000d0: 7eb2 f5bd 35af 703d 0bc4 833d 9109 c43d
000000e0: 64fb 28be e266 1fbe 84f8 c1bb 89c2 793d
000000f0: 73c5 d33d 716c aabd e60e 7dbd 90a6 85bc
00000100: 6d67 b63c 94be 3d3d 9ba0 21be 2ebe 1f3e
00000110: e045 803d 0e5a 1abe 161c 7dbd 5f12 8bbd
00000120: 5e54 2ebe 5f77 2ebe 8571 91bc 696a fb3d
00000130: 7ba8 d93d 073a 41bd b81a 163d a8ca b4bd
00000140: 5461 8bbd c648 5f3c 2fcf 13bd 7209 df3d
00000150: 4c32 1c3e 6b86 163b 7950 dabd 563e 133e
00000160: 74f6 72bd 2982 203b ab6a 403d 124c a0bc
00000170: 4447 3abd 9685 98bc b043 00be bad4 8fbd
00000180: 024d 4138 ddff 04be 09e7 1b3e 14a7 14be
00000190: 4e17 c13d 2a53 db3d 2188 0e3d c502 b7bd
000001a0: c85a f4bd 0bf1 9a3d b648 f53d ccc7 823d
000001b0: 0791 d5ba 930a 82bd 92d6 fbbd 129a 143d
000001c0: 54ce 92bb 0801 bb3d 5365 343e 348c ba3d
000001d0: 65a1 c6bd 4679 d7bd 5f25 1ebd df4c 123e
000001e0: 3a0e ebbd e457 d23c b66f de3d c0e1 e93d
000001f0: 51dd 223d 215e 263e 59ad 88bd e571 c7bd
00000200: 8651 f1bd bb90 883b 3aeb 79bd e96a 03be
00000210: 9f19 8c3d a221 f23c 6180 5c3d ee65 03be
00000220: 641b cebd 98bb 183d 2f2d 42bd 4936 d2bd
00000230: 0ea5 01be 14c8 14be 45ee ccbd 9fb6 f63c
00000240: e4d8 8ebd f333 12be 8d36 263e 4070 74bd
00000250: 131c 653d ce5c 8a3d 7375 9b3c 33e7 dabb
00000260: 7a1f 243e 6371 8dbd 4009 25be 8ccb ccbd
00000270: e59d e03d ea8c 2a3e f812 3b3d b148 0d3e
00000280: 927d b43c b567 483d 20e2 ea3d 0f43 d2bd
00000290: 0aa2 d63a 8156 7bbd e641 3abe 73a2 e1bd
000002a0: 1b8b 2e3e d4df 1c3e de64 27bd 2704 643d
000002b0: 2299 06be 9acd 01be e225 f43d 369e dd3d
000002c0: 9e46 6a3d 30f7 ad3c 4645 213e a82e bfbd
000002d0: 89ab 913c d2d5 fcbd 5e67 06be 2382 08bc
000002e0: f6c1 113a ea58 bc3c 7764 913d 2022 18bd
000002f0: c777 19be a1d0 5abc 455f 4e3c e07c 0e3e
00000300: a608 2fbc bf1d bb3d 3111 a23d fb47 b7bd
00000310: 0cd6 003e 70a7 00be b5f2 1d3e 8ef5 0a3d
00000320: 582c c93c 640f 4fba 92f6 043c 2149 c4bd
00000330: 7124 73bd 39d1 5f3d 2d1d cebd 4b90 2a3d
00000340: 9f80 0a3d 2cd8 133d 5134 313c e1aa c23d
00000350: 30b0 8dbd a791 39be 68eb 833d f490 7ebd
00000360: df55 b5bd 2117 b2bd ff87 aa3c 1af5 8c3d
00000370: 9a0e 4ebd 3f5e e83d 60cd b9ba 6ff4 47bd
00000380: 19ee 4e3d 920e 0a3d a92d 0d3e 35d8 99bd
00000390: 8554 0c3e 0f78 993d 9cda bd3d e984 96bc
000003a0: dda7 9bbd 56c3 183e 46c4 2cbe 19fe a03d
000003b0: f869 a53d 2873 7a3d d9dd 29bc 871d c43d
000003c0: a4c2 073e f85c 0b3e fca7 e13d 1129 cebd
000003d0: e0f9 ac3c 8d2b 63bc 78cf ad3d 59f2 dcbc
000003e0: 640d 06bc cb09 c13c b96b ce3d eeaf f9bd
000003f0: e63d e0bd aff7 0b3e 6316 63bd b245 ba3b
0.06084838 0.08141621 0.002063042 -0.04176476 0.049904168 0.011369715 -0.004148348 -0.054941054
0.015950639 0.14403644 -0.030716565 0.073494464 -0.06270207 -0.08733345 0.13732848 -0.15061894
-0.14131546 0.09731392 -0.032874156 0.050284114 0.16397935 0.09339847 -0.07499407 0.17120366
-0.032909226 0.1187185 0.10575812 0.14202498 0.08350826 -0.0073848115 -0.015276718 0.12835503
0.01934548 0.1158788 -0.062152594 0.03515173 -0.039961368 -0.14925678 -0.04565443 -0.1717963
0.08452739 -0.084314264 0.06972149 0.015380075 0.014216425 0.020183349 0.11981673 -0.091831416
-0.111693315 0.013482401 -0.13884918 0.049128246 -0.11996935 0.05876084 0.064338766 0.09572137
-0.16502148 -0.1556659 -0.005919518 0.06097654 0.10340395 -0.08321465 -0.061781786 -0.016314775
0.022266114 0.046324328 -0.15783922 0.15599892 0.062633276 -0.15073416 -0.061794363 -0.067906134
-0.17024371 -0.17037724 -0.017754326 0.122761555 0.10627838 -0.04717448 0.036646575 -0.08827716
-0.06805673 0.01362819 -0.036086258 0.108904734 0.15253562 0.0022968303 -0.1065988 0.14379248
-0.059317067 0.0024491644 0.046976727 -0.019567523 -0.04547812 -0.018618386 -0.1252582 -0.07022996
4.6086505e-05 -0.12988229 0.15224852 -0.1451686 0.09428273 0.10709222 0.03479779 -0.08936075
-0.11931378 0.075655065 0.11976759 0.063857645 -0.0016293832 -0.06349673 -0.122967854 0.036279745
-0.0044801626 0.09131056 0.17616777 0.09108773 -0.09698752 -0.10521178 -0.03860986 0.14287136
-0.11477323 0.025676675 0.10861151 0.114200115 0.039761845 0.16246845 -0.066736884 -0.097385205
-0.117831275 0.004167644 -0.061015345 -0.12833752 0.06840824 0.029557053 0.05383337 -0.12831852
-0.10063818 0.03728828 -0.04740637 -0.1026426 -0.1266062 -0.14529449 -0.10006384 0.030116377
-0.06974962 -0.1427763 0.16231747 -0.059677362 0.055934977 0.06755982 0.018976903 -0.006680393
0.16027632 -0.069063924 -0.1611681 -0.09999761 0.10967616 0.16655317 0.045672387 0.13797261
0.022032533 0.048927028 0.11468911 -0.10266697 0.0016375196 -0.061361793 -0.18189201 -0.11017313
0.17045252 0.15319759 -0.04086768 0.055668022 -0.13144353 -0.12676087 0.11921288 0.10821192
0.057196252 0.021236032 0.15749082 -0.09335071 0.01778199 -0.123454705 -0.13125369 -0.008331808
0.00055602135 0.022991616 0.0709924 -0.03714192 -0.14987098 -0.013355405 0.012595956 0.13914824
-0.010683214 0.09136533 0.07913435 -0.08949276 0.12581652 -0.12563872 0.15424617 0.033925585
0.024557278 -0.0007898717 0.008115428 -0.09584261 -0.059360925 0.05464289 -0.100641586 0.041641515
0.03381407 0.03609483 0.010815696 0.09505249 -0.06918371 -0.18121968 0.064413846 -0.062149957
-0.08854269 -0.08695818 0.020816801 0.06882687 -0.050306894 0.11346101 -0.0014175586 -0.048817094
0.050520036 0.0337053 0.13786949 -0.07511941 0.13704117 0.074936025 0.09270212 -0.018373923
-0.07600377 0.14918265 -0.16871747 0.07860965 0.080768526 0.061144978 -0.010367834 0.095759444
0.13257843 0.13609684 0.110183686 -0.100664265 0.021115243 -0.013865364 0.08486837 -0.02697103
-0.0081819035 0.02356424 0.1007914 -0.12191759 -0.10949306 0.13668703 -0.05544127 0.005684578
