pre_trained_models/urfunny_aligned_LA_TRANSLATOR.pt (torch, 225163 bytes, 28 tensors)

multi f4 [1, 32]
0	0xbe2058bd	-0.15658851
1	0x3e610a3a	0.21976557
2	0x3ec13359	0.37734488
3	0xbea2de56	-0.31810254
4	0x3eafc3da	0.3432911
5	0xbe9589b7	-0.2920663
6	0x3cd379e2	0.025814954
7	0x3e87296c	0.2639879
8	0x3ec4f34a	0.38466865
9	0xbedd5886	-0.432316
10	0x3ef420a4	0.47681153
11	0xbe351d02	-0.17686847
12	0xbe86366a	-0.2621339
13	0x3cc16468	0.023607448
14	0xbe9b9c1c	-0.3039254
15	0x3eab26d8	0.33428073
16	0xbd8a8cde	-0.067651495
17	0x3ea34831	0.31891015
18	0x3e1a9dd2	0.15099266
19	0x3e3cc655	0.18435033
20	0xbe35c96b	-0.17752616
21	0x3e85189d	0.2599534
22	0x3e15595a	0.14584866
23	0x3e8a98db	0.27069744
24	0xbe6c4acc	-0.23075408
25	0xbe5c58d9	-0.21518268
26	0xbcfbaaa2	-0.030721013
27	0x3ec8deaa	0.3923238
28	0x3ec1d164	0.37855065
29	0xbea5908b	-0.3233684
30	0x3e666158	0.22498071
31	0x3e8e97f1	0.27850297

weight f4 [32, 64]
0	0x3c2288ec	0.00992034
1	0xbdaa6f26	-0.08321981
2	0x3d7dd375	0.06196924
3	0xbc63a2fc	-0.013893839
4	0x3dfb0d4b	0.12258395
5	0x3ce0f9e0	0.0274629
6	0xbd189eb2	-0.03726072
7	0x3e06dd0a	0.13170257
8	0x3c6d9334	0.014500428
9	0x3dc0fbca	0.09423025
10	0xbd032897	-0.03202113
11	0x3e031477	0.12800775
12	0x3de43c72	0.111443415
13	0x3d6bd6fd	0.057578076
14	0xbc51c9ab	-0.012804429
15	0xbbcd3982	-0.006262959
16	0x3dd11710	0.10209477
17	0x3d936a38	0.07197994
18	0x3d9caa54	0.07649675
19	0xbcfe2e42	-0.031027917
20	0xbcaf844a	-0.021425385
21	0xbe1474a6	-0.14497623
22	0xbd39d17e	-0.045365803
23	0xbda5fa4c	-0.08104381
24	0xbce2a787	-0.027667774
25	0x3d87f62d	0.06638751
26	0x3d6c8396	0.057742678
27	0x3d9de907	0.07710462
28	0xbdb52521	-0.088449724
29	0xbcc8e414	-0.024522819
30	0xbc8cf0a7	-0.017204596
31	0xbd442331	-0.047885124
32	0xbdbc7c14	-0.092033535
33	0x3d762633	0.060095023
34	0x3cd5ff1f	0.026122628
35	0xbd91a514	-0.07111564
36	0x3d977445	0.073952235
37	0xbdd43a6b	-0.10362705
38	0xbdfba0f9	-0.122865625
39	0xbdd63b86	-0.10460572
40	0x3ccbf546	0.024897229
41	0xbe0407d5	-0.12893613
42	0xbd8a6b96	-0.06758802
43	0x3d83609c	0.06414911
44	0xbd9ab209	-0.07553489
45	0x3d91e4e7	0.07123738
46	0xbdb49e45	-0.0881925
47	0xbe06cb3b	-0.13163464
48	0xbde34cb1	-0.11098612
49	0x3dcd4162	0.100222364
50	0x3e0e747a	0.1391162
51	0x3d99012e	0.07470928
52	0x3dcbd550	0.099527955
53	0xbc9f7c55	-0.019468466
54	0xbdcafb20	-0.099111795
55	0xbd898090	-0.067139745
56	0xbdfed6ec	-0.12443337
57	0xbd70cf4b	-0.05879144
58	0xbd9824e1	-0.07428909
59	0xbd4a7f43	-0.049437772
60	0x3d49f492	0.049305506
61	0x3e03f46c	0.12886208
62	0xbdf77715	-0.1208326
63	0x3d85a847	0.06526237
64	0xbe047813	-0.1293643
65	0x3d779ccf	0.06045228
66	0x3d9e4be6	0.0772932
67	0x3ba7af60	0.005117342
68	0xbd186b11	-0.03721148
69	0xbd8f2f39	-0.06991429
70	0xbdae027f	-0.0849657
71	0x3dc123c8	0.09430653
72	0x3d3db4e7	0.0463151
73	0xbdc60676	-0.09669201
74	0x3d7200e2	0.059082873
75	0xbdfb271c	-0.12263319
76	0xbd28d8a7	-0.04122224
77	0x3d2fc394	0.042911127
78	0x3d65f9d3	0.056146454
79	0xbc28ce9f	-0.010303169
80	0xbd3b787d	-0.045769203
81	0xbc0fae21	-0.008769543
82	0xbd41b116	-0.047288023
83	0xbd8480ff	-0.064699166
84	0xbbefc62d	-0.0073173256
85	0xbdc0306c	-0.09384236
86	0x3dba0813	0.09083571
87	0x3d502e4d	0.050825406
88	0xbc757cc4	-0.01498336
89	0x3c1c815f	0.009552329
90	0xbd8f0356	-0.06983058
91	0x3d311fec	0.043243334
92	0x3ddeeded	0.108852245
93	0xbdd280e8	-0.10278493
94	0xbb984571	-0.00464695
95	0x3daf329f	0.08554577
96	0xbbfd1f1d	-0.0077246563
97	0x3ddd2479	0.10797972
98	0xbd9f8301	-0.07788659
99	0xbd7cc7d3	-0.061714005
100	0xbd66c5a8	-0.056340843
101	0x3ce38465	0.027773092
102	0x3d94f9bc	0.072741956
103	0xbd29c21b	-0.04144488
104	0x3c9f2e43	0.019431239
105	0x3d4e7a22	0.050409444
106	0x3dbed5e1	0.09318138
107	0x3dc520a9	0.0962537
108	0x3dacdf83	0.08441069
109	0xbdc5535a	-0.09635039
110	0x3d9801d5	0.074222244
111	0x3df9e671	0.12202156
112	0x3c8675b5	0.016413549
113	0x3c8e89f6	0.01739977
114	0xbc50e9ce	-0.012751056
115	0xbd6b25fd	-0.057409275
116	0xbd44873e	-0.04798054
117	0x3c4f61b9	0.012657576
118	0xbc83edf7	-0.016104681
119	0xbc35d3f4	-0.011097897
120	0x3dc88c1d	0.097923495
121	0x3d8e68f5	0.06953613
122	0xbcac2f4d	-0.021018649
123	0x3b0fc632	0.0021938202
124	0x3d4c324c	0.049852654
125	0xbda67bf7	-0.08129113
126	0x3e0575e9	0.1303326
127	0x3d871399	0.06595535
128	0x3da9c006	0.08288579
129	0xbd5ff378	-0.05467555
130	0x3d2fdb18	0.042933553
131	0x3d942f3f	0.07235574
132	0x3da369d4	0.079791695
133	0x3dc38615	0.095470585
134	0x3db821d5	0.08990828
135	0xbda1c85b	-0.07899543
136	0x3d8bcbc5	0.06825975
137	0x3d31294c	0.043252274
138	0x3dcf0db1	0.10110033
139	0x3cc99ae0	0.024609983
140	0x3df129aa	0.11775525
141	0xbc9d81e8	-0.019226983
142	0x3d92ab5f	0.07161593
143	0xbd28071b	-0.0410224
144	0x3d86e9e8	0.06587583
145	0x3dcd31d9	0.10019273
146	0xbc734fde	-0.014850585
147	0xbd9de69d	-0.077100016
148	0x3d9e9f46	0.07745223
149	0xbb9b7bf2	-0.004745
150	0x3df554b9	0.1197905
151	0xbd8da9da	-0.06917162
152	0x3c8c08b0	0.017093986
153	0x3cc52492	0.02406529
154	0x3d196c42	0.03745676
155	0x3e07cb7c	0.13261217
156	0xbe1e1149	-0.15436281
157	0x3d97b9b4	0.07408467
158	0xbcf8d4d0	-0.030374914
159	0xbd808864	-0.062760144
160	0x3cdd01c7	0.026978387
161	0x3d8d597c	0.069018334
162	0xbcc35cf7	-0.02384804
163	0xbda209ad	-0.07912002
164	0x3dd1213b	0.10211416
165	0xbaaf189d	-0.0013358776
166	0x3d029f0f	0.03188997
167	0xbc9a1716	-0.018809836
168	0xbdab05c5	-0.0835071
169	0xbc6b6aba	-0.014368707
170	0x3d741d82	0.059598453
171	0xbdd1f17f	-0.1025114
172	0xbdb61125	-0.08889989
173	0xbcec3b50	-0.028836876
174	0x3de8e97b	0.11372658
175	0x3d9e7926	0.07737951
176	0x3df86ffd	0.12130735
177	0xbc890211	-0.016724618
178	0x3d9a5414	0.07535568
179	0xbe16319a	-0.14667359
180	0x3dcdc1f1	0.10046757
181	0x3de01c23	0.10942867
182	0xbddc0806	-0.10743718
183	0xbdcc728f	-0.09982788
184	0xbd87d977	-0.06633275
185	0x3da8aabe	0.082356915
186	0xbcb986f4	-0.022647358
187	0xbd37586b	-0.044762056
188	0x3e02458a	0.1272184
189	0x3d9ae36c	0.075629085
190	0xbdd1f452	-0.102516785
191	0x3dcdc6d7	0.10047691
192	0x3ccf9186	0.025337946
193	0xbd4d2309	-0.05008224
194	0x3db6c6b9	0.08924622
195	0x3d93f576	0.07224552
196	0xbd382980	-0.044961452
197	0x3d99bd81	0.07506848
198	0xbd52b643	-0.05144335
199	0x3d21d60f	0.039510783
200	0x3db08ef1	0.08621014
201	0x3b2171ba	0.0024634437
202	0x3d2eecfe	0.042706482
203	0x3cabff23	0.020995682
204	0xbdc3ad8e	-0.09554587
205	0x3dd06453	0.10175385
206	0x3dd8adf2	0.105800524
207	0xbd87dee3	-0.06634309
208	0x3dce40ff	0.10070991
209	0xbe0441fe	-0.12915799
210	0xbd3d27b9	-0.04618046
211	0xbe123f02	-0.14281848
212	0x3dd79f93	0.10528483
213	0xbd57ff7d	-0.052733887
214	0xbc758504	-0.014985327
215	0xbdcbdaec	-0.099538654
216	0x3d6b629e	0.057467096
217	0x3de8bbe3	0.113639615
218	0xbdd64792	-0.1046287
219	0x3d171bca	0.036891736
220	0x3d8355e4	0.06412867
221	0x3c78d7b4	0.015188146
222	0x3d20793c	0.039178118
223	0x3c56d8a5	0.0131131755
224	0xbda3db17	-0.080007724
225	0xbd2badee	-0.04191392
226	0x3d824ae8	0.063619435
227	0x3d83a589	0.06428058
228	0xbdf1d223	-0.118076585
229	0xbd49906e	-0.049210005
230	0x3d85fe7e	0.06542681
231	0xbd42cf4b	-0.04756097
232	0x3d88c493	0.066781186
233	0xbd7c673c	-0.06162189
234	0xbd83fca7	-0.06444674
235	0x3be5e87f	0.007016241
236	0xbb747227	-0.0037299485
237	0xbbfbbfed	-0.0076827914
238	0x3ce7e73b	0.028308501
239	0xbd41e407	-0.047336604
240	0xbda6b99f	-0.08140873
241	0x3da9afde	0.08285497
242	0x3d78090a	0.060555495
243	0xbd83dc0a	-0.064384535
244	0x3c360fa7	0.01111213
245	0x3cde65e8	0.027148202
246	0xbd026010	-0.031829894
247	0xbd3785e1	-0.04480541
248	0x3da52aab	0.08064779
249	0xbdd6ee26	-0.10494642
250	0x3d6a9a6e	0.057276182
251	0xbcb2ff54	-0.021850266
252	0x3d561d2f	0.052273925
253	0x3dc94b88	0.098288596
254	0xbd842027	-0.06451445
255	0x3df57dac	0.11986861

bias f4 [32]
0	0x3d10349f	0.035206433
1	0xbdc3c9e4	-0.09559992
2	0xbc09ad36	-0.008403113
3	0xbc983761	-0.018581094
4	0x3cd78152	0.026306782
5	0xbd3ed602	-0.046590813
6	0x3cd80808	0.026371017
7	0xbbabb241	-0.0052397554
8	0xbd97aaf3	-0.07405653
9	0x3db924d6	0.09040229
10	0xbc21c22b	-0.009872953
11	0x3d8ef629	0.06980545
12	0xbdc2385a	-0.094834045
13	0x3cca5b52	0.024701748
14	0xbcc69afb	-0.024243822
15	0x3d1b7a90	0.03795868
16	0xbdcb87fc	-0.09938046
17	0xbe01192a	-0.12607256
18	0x3d03bad9	0.032160614
19	0x3dce6547	0.10077911
20	0x3d488366	0.048953436
21	0xbd16bce9	-0.036801253
22	0xbde446ee	-0.11146341
23	0xbc980c34	-0.018560506
24	0xbc97c6a6	-0.01852734
25	0xbdb9f1eb	-0.09079345
26	0x3d7dc175	0.061952073
27	0xbd23c1de	-0.039979808
28	0xbd8a702a	-0.06759675
29	0x3e042cf0	0.12907767
30	0x3da75614	0.08170715
31	0x3dcdbb55	0.100454964

weight f4 [1, 32]
0	0x3e1d043d	0.15333648
1	0xbe0313aa	-0.1280047
2	0x3e2f2325	0.1710325
3	0xbe0d126a	-0.13776556
4	0xbc446e93	-0.011989254
5	0xbdd228c1	-0.102616794
6	0x3e25f604	0.16207129
7	0x3dc5dd50	0.09661353
8	0xbd896513	-0.067087315
9	0xbde807e0	-0.11329627
10	0xbe1b5bda	-0.15171757
11	0x3e01dd3a	0.12682047
12	0xbe179fdf	-0.1480708
13	0xbd940525	-0.07227544
14	0xbb8e2a8e	-0.004338569
15	0xbe3f9334	-0.18708497
16	0x3da38c87	0.07985788
17	0xbd9128aa	-0.07087834
18	0x3e02a8c2	0.12759688
19	0x3c66be36	0.014083436
20	0xbe15de68	-0.14635623
21	0xbcdae5cf	-0.02672091
22	0xbe063db5	-0.13109477
23	0xbe36ce6e	-0.17852184
24	0x3c0c4cd3	0.008563238
25	0x3e0bdd65	0.13658674
26	0x3de58938	0.11207813
27	0x3e1a8fee	0.15093967
28	0xbe188649	-0.14894976
29	0x3d4fc34a	0.05072335
30	0x3e043ac5	0.12913044
31	0xbe212c69	-0.15739597

weight f4 [40, 32]
0	0x3e89128a	0.26771957
1	0xbf1e67c9	-0.61877114
2	0xbf4fb3bd	-0.81133634
3	0xbf32ce14	-0.698457
4	0xbfb0401a	-1.3769562
5	0xbf27cbf4	-0.6554558
6	0xbd97ac44	-0.07405904
7	0x3e4f134b	0.20222203
8	0xbf67bc91	-0.90522105
9	0x3f368a27	0.71304554
10	0xbf48c3b2	-0.7842361
11	0x3f0a46c7	0.5401425
12	0x3d2f2e85	0.042768974
13	0xbf27a0e0	-0.6547985
14	0x3e3a2a11	0.1818011
15	0x3fc1034a	1.5079129
16	0xbfa78448	-1.3087244
17	0xbec06c70	-0.3758273
18	0x3dfd1e29	0.12359268
19	0xbf3e6f53	-0.7438862
20	0xbfd143e3	-1.6348842
21	0x3fe3a2c8	1.7784052
22	0xbf906b20	-1.1282692
23	0xbed06c95	-0.40707842
24	0xbf128cac	-0.572459
25	0xbf0d07bb	-0.5508992
26	0x3c078e91	0.008273737
27	0xbe964fde	-0.2935781
28	0x3f89f853	1.0778908
29	0x3f93937b	1.1529382
30	0xbfed485c	-1.8537707
31	0x3c8fa16f	0.017533032
32	0xbce62db6	-0.028097969
33	0xbf0c1383	-0.5471727
34	0xbfdd6d13	-1.7298912
35	0xbe67930c	-0.22614688
36	0xbf18c92c	-0.59681964
37	0xbfad759b	-1.3551515
38	0x3fd20cf6	1.6410205
39	0xbea7da25	-0.3278362
40	0xbf3ab9ec	-0.72939944
41	0xbfdfc3ec	-1.7481666
42	0x3fd9bb72	1.7010329
43	0x403e5fee	2.974605
44	0xbf5c1997	-0.85976547
45	0x3f9c44ce	1.2208498
46	0xbfdd84e4	-1.730618
47	0xbeca25df	-0.39482018
48	0x3f96e4cd	1.1788574
49	0x3fa5d38b	1.2955183
50	0x3eff6612	0.4988256
51	0x3f4a31e8	0.789824
52	0xbd3a502b	-0.04548661
53	0xbef56766	-0.4793045
54	0x3fb0665b	1.3781236
55	0xbf70f546	-0.9412426
56	0xbfb2a3e7	-1.3956269
57	0x3b914117	0.004432808
58	0x3fa1c911	1.2639486
59	0x3d37e333	0.04489441
60	0xbeeb7d74	-0.4599415
61	0x3f27c2ec	0.655318
62	0x3f938c05	1.1527106
63	0xbf81c004	-1.0136724
64	0x3bb06dc1	0.0053841774
65	0xbee58c70	-0.44833708
66	0xbcf5f5da	-0.030024458
67	0xbee4f638	-0.447191
68	0x3fcbb108	1.5913401
69	0x3d2f4d41	0.042798284
70	0xbec1d15e	-0.37855047
71	0xbfaf0f30	-1.367651
72	0xbdf0d6c7	-0.117597155
73	0xbf82b8b3	-1.0212616
74	0xbf3171df	-0.6931438
75	0x3f7d616e	0.9897679
76	0x3f099d60	0.5375576
77	0x3ea423eb	0.32058653
78	0xbf732f2f	-0.9499387
79	0xbf8ff94b	-1.1247953
80	0xbf46aa76	-0.7760385
81	0xbf9a4c5a	-1.2054551
82	0xbfcdfa8a	-1.6092083
83	0xbe9567fb	-0.29180893
84	0x3f3f8c3c	0.74823356
85	0xbf57e7b2	-0.84337914
86	0x3f74a876	0.9556955
87	0x3f20a288	0.62748003
88	0xbd332da7	-0.04374471
89	0x3fda3b0c	1.704927
90	0x3db99012	0.09060682
91	0x3f8853ad	1.0650536
92	0x3ec21ade	0.37911123
93	0x3e09a1df	0.13440655
94	0xbe711d43	-0.23546319
95	0xbfef782e	-1.8708551
96	0xbf177939	-0.59169346
97	0xbec237bd	-0.3793315
98	0x3fa175c6	1.2614067
99	0x3fb4981b	1.4108919
100	0xbf57d54a	-0.8430983
101	0xbec40aa3	-0.38289365
102	0x3d873c9f	0.066033594
103	0xbef305e7	-0.4746544
104	0xbf59a5b4	-0.8501847
105	0xbf23ab01	-0.63932806
106	0x3e643b36	0.22288212
107	0x3e4d1cb6	0.20030484
108	0xbeeee011	-0.46655324
109	0x3f80c818	1.0061064
110	0x3fc14882	1.5100253
111	0xbfc9d988	-1.576951
112	0xbf55dc3f	-0.83539194
113	0xbe969c39	-0.29416063
114	0xbe109540	-0.14119434
115	0x3ebd273c	0.36943996
116	0xbfac821b	-1.3477205
117	0x3f913116	1.1343105
118	0x3eb54ae8	0.3540871
119	0xbf9107d9	-1.133052
120	0xc010dfca	-2.263659
121	0xbeb1fad3	-0.34761676
122	0x3f2ee71e	0.68321407
123	0x3ecb4d67	0.3970749
124	0x3f8faf72	1.1225417
125	0xbf44ad9e	-0.7682742
126	0xbe93f780	-0.28899765
127	0x3f4c702b	0.79858655
128	0x401905ff	2.390991
129	0xbf436261	-0.7632199
130	0xbf200b50	-0.6251726
131	0x3f24251c	0.64119124
132	0xbf79ba9e	-0.9755038
133	0x3f8c7cc5	1.0975577
134	0x3f23a57a	0.6392437
135	0xbf219c6e	-0.6312932
136	0x3f1a92f1	0.60380465
137	0xbfe5e825	-1.796147
138	0x3e91be63	0.28465566
139	0xbcc15ab8	-0.023602828
140	0xbfa998c6	-1.3249748
141	0x3fb9088d	1.4455734
142	0x3f36443b	0.7119786
143	0x3f900669	1.1251956
144	0x3e1439b7	0.14475141
145	0xbf9a915c	-1.207561
146	0x3f6ac356	0.9170431
147	0xbfae7d30	-1.3631954
148	0xbfb2c3ec	-1.3966041
149	0xbe64825c	-0.22315353
150	0xbfe346a9	-1.7755939
151	0xbf8fe6f3	-1.1242355
152	0xbed55c8d	-0.41672173
153	0xbf46d346	-0.7766613
154	0xbf8ca99a	-1.0989258
155	0xc00105bd	-2.0159752
156	0x3f6da393	0.9282772
157	0xbf041e70	-0.51608944
158	0x3f9c3138	1.220252
159	0x3f971103	1.1802067
160	0xc0001599	-2.0013182
161	0xbea65a25	-0.3249065
162	0x4007c21a	2.121222
163	0xbf5d52b8	-0.86454344
164	0xbeeb5153	-0.45960483
165	0x3f710afb	0.9415738
166	0xbedf2772	-0.43584782
167	0xbf17ea5a	-0.5934197
168	0xbee9692d	-0.45588055
169	0xbf117bdb	-0.56829613
170	0x3f51adcb	0.8190581
171	0xbf815f17	-1.0107144
172	0xbf008f35	-0.50218517
173	0x3efe32e5	0.49648204
174	0xbec738ad	-0.38910428
175	0xbe85255f	-0.26005074
176	0x3f2641e8	0.64944315
177	0x3f93db12	1.155123
178	0xbece1f18	-0.40258098
179	0xbf684d5b	-0.90743035
180	0xbfa517e0	-1.2897911
181	0x3f71b225	0.9441245
182	0x4023923e	2.555801
183	0xbd490837	-0.0490801
184	0x3e1d7251	0.1537564
185	0x3f1c9d04	0.61177087
186	0xbe34a4f2	-0.17641047
187	0x3f0b90da	0.545179
188	0xbf73a7b8	-0.95177794
189	0xbead9827	-0.33905146
190	0xbfb46e7f	-1.4096221
191	0xbf8bfe6a	-1.0937016
192	0xbfe9ebc3	-1.8275074
193	0x40013ab7	2.0192087
194	0xbfd885ab	-1.6915792
195	0xbbaceeed	-0.0052775056
196	0x3ec83283	0.39101037
197	0x3f1702db	0.5898873
198	0x3f82fd5f	1.0233573
199	0x3f6faa8a	0.93619597
200	0xbf94cdde	-1.1625326
201	0xbfc656b5	-1.5495211
202	0x3ed9a38d	0.42507592
203	0xbf0c0b03	-0.547043
204	0x3e12893d	0.14310165
205	0xbfd4e186	-1.6631324
206	0xbef0e42c	-0.4704908
207	0xbe7df890	-0.2480185
208	0x3f51dc65	0.8197692
209	0x3d0e8d28	0.034802586
210	0x3f7755c9	0.9661527
211	0x3fcbb14f	1.5913485
212	0x3fa69a83	1.3015903
213	0x3f318917	0.6934981
214	0xbe260eb8	-0.16216552
215	0xbf29c31b	-0.6631333
216	0xbe4fbc5d	-0.20286699
217	0xc0286005	-2.6308606
218	0x401d4d5e	2.457847
219	0x3f51d823	0.81970423
220	0x3e951820	0.29119968
221	0xbf5fabb7	-0.8737139
222	0x3fa1d737	1.2643803
223	0xbe0feb92	-0.14054707
224	0x3f2f7630	0.68539715
225	0xbf71563a	-0.94272196
226	0x3e32378d	0.17404003
227	0xbeb0c32d	-0.34523907
228	0xbf39d4b5	-0.7259019
229	0xbf340e1b	-0.70334023
230	0xbf466c67	-0.7750916
231	0xbf4a2331	-0.7895995
232	0x3fb721d5	1.43072
233	0xc00185b5	-2.0237858
234	0x3f1560b7	0.583507
235	0x3dbfa2a1	0.09357191
236	0xbf2169ef	-0.63052267
237	0xbf57512c	-0.84108233
238	0x3d454d38	0.048169345
239	0x3f71e5f1	0.9449149
240	0x3f0e1261	0.55496794
241	0xbf4516eb	-0.76988095
242	0x3fcf2cca	1.6185544
243	0xbe393457	-0.18086372
244	0xbf8b6f8a	-1.0893414
245	0xbe86e460	-0.2634611
246	0xbb1c7137	-0.0023871192
247	0xbfb8a372	-1.442488
248	0x400dd431	2.2160761
249	0x3f000645	0.50009567
250	0x3f396d3f	0.7243232
251	0x3eab95b2	0.33512646
252	0xbfcb6ce3	-1.5892605
253	0xbffce595	-1.9757563
254	0xbf061b0e	-0.5238503
255	0xbf8008c9	-1.0002681

weight f4 [4, 32]
0	0xbd45a13e	-0.048249476
1	0xc00febfc	-2.2487783
2	0xbf7b1e1d	-0.98092824
3	0x3e22dfb4	0.15905648
4	0x3f1be35d	0.60893804
5	0x3ebd986b	0.37030348
6	0xbde24394	-0.11048046
7	0x3f38324c	0.71951747
8	0xbee40aa2	-0.44539362
9	0xbf0a761c	-0.5408647
10	0x3f01fcf5	0.50776607
11	0xc012a32a	-2.2912087
12	0x3f084af5	0.53239375
13	0x3df10a81	0.117695816
14	0x3e855b16	0.26046056
15	0xbec859b4	-0.39130938
16	0x3ede191f	0.4337854
17	0xbd1c7ad6	-0.038203083
18	0x3d1bf291	0.038073126
19	0xbf3d1515	-0.73860294
20	0x3f07f75c	0.53111815
21	0xbf6fac9d	-0.9362276
22	0xbf8aef64	-1.0854306
23	0xbe6a7907	-0.22897731
24	0xbb53e85d	-0.0032334544
25	0xbf08c3da	-0.53423846
26	0xbfde8170	-1.7383251
27	0x3e1e17a8	0.15438712
28	0x3fd27aee	1.6443765
29	0x3fc2c30f	1.5215777
30	0x3e8a9156	0.27064008
31	0xbf79454f	-0.9737138
32	0xbff67139	-1.9253303
33	0x3fb91554	1.4459634
34	0xbfb0ef3e	-1.3823011
35	0xbf0b6a6c	-0.5445926
36	0xbfb9ede3	-1.4525722
37	0xbf0c3d13	-0.5478069
38	0x3f05df23	0.52293605
39	0xbef71bf6	-0.4826352
40	0x3f8da7e1	1.1066858
41	0xbef65e95	-0.48119035
42	0xbf13a3cb	-0.57671803
43	0xbd1dbd27	-0.038510468
44	0xbea55082	-0.32287985
45	0x3f870580	1.0548553
46	0xbffe799f	-1.9880866
47	0x3ee73b46	0.4516241
48	0xbdb40806	-0.08790593
49	0xbfa2489d	-1.267841
50	0x3f1b3c6f	0.6063909
51	0x3f573f72	0.84081185
52	0x3f58aa67	0.84635013
53	0x3f239a1e	0.6390704
54	0xbf22692a	-0.6344172
55	0xbbbcacc1	-0.0057578986
56	0xbfad5f0b	-1.354463
57	0x3f7fc3f9	0.99908406
58	0x3ea742b7	0.32668087
59	0xbc5c92f7	-0.0134627735
60	0xbeea7aaf	-0.45796725
61	0xbf8c3d34	-1.0956178
62	0xbfeb1cda	-1.836818
63	0xbeb26177	-0.34839985
64	0xbe156382	-0.1458874
65	0x3ea2f0a8	0.3182423
66	0x3faab7a3	1.3337291
67	0x3ec4a6bd	0.3840846
68	0xbedbe863	-0.42950734
69	0xbf0325af	-0.51229376
70	0x3f4d2980	0.8014145
71	0xbf5f1100	-0.87135315
72	0xbf8e9be4	-1.1141324
73	0xbed07e6c	-0.40721452
74	0x3f8b816c	1.0898871
75	0x3fcd750c	1.6051345
76	0x3f28acd3	0.6588871
77	0x3eb439fd	0.35200492
78	0xbed733c9	-0.42031696
79	0xbd72b856	-0.059257828
80	0xbfa1f9aa	-1.2654316
81	0x3f0485aa	0.51766455
82	0x3feb5e11	1.8388082
83	0x3ebb7093	0.36609325
84	0xbf2e0eaa	-0.67991126
85	0x3f5866f9	0.84532124
86	0x3f4098a7	0.7523293
87	0x3e15f477	0.14644037
88	0x3fa749a9	1.3069354
89	0xbf990fd7	-1.1957959
90	0xbeb98e97	-0.362416
91	0xbf8a5d61	-1.0809747
92	0x3f579eb1	0.8422652
93	0xbe8c6c58	-0.2742641
94	0x3fe1a4cf	1.762842
95	0xbf98a849	-1.1926357
96	0x3f748172	0.9551002
97	0x3eee24e0	0.46512508
98	0xbedbe9e7	-0.4295189
99	0x3f1a60ee	0.6030415
100	0xbfa2b89a	-1.2712586
101	0x3e271cd4	0.16319591
102	0xbfa94eb2	-1.3227141
103	0xbf261088	-0.64868975
104	0xbfdc41d0	-1.7207584
105	0xbfbc89fb	-1.4729608
106	0x3f4ca26e	0.7993535
107	0xbf25ca79	-0.64762074
108	0x3f772235	0.9653657
109	0xbe1a1c23	-0.15049796
110	0xbde980e5	-0.11401538
111	0x3e020a56	0.12699255
112	0xbf10f2f8	-0.5662074
113	0xbe4a9e94	-0.19787055
114	0xbf6ff92a	-0.9373957
115	0x3f2ae5fb	0.6675717
116	0xbfb71513	-1.4303306
117	0x3f870a44	1.0550008
118	0x4021c6b5	2.527753
119	0x3f330dd6	0.69942987
120	0x3e4b5b9e	0.19859168
121	0x3f86d335	1.0533205
122	0x3f4c2a5c	0.79752135
123	0xbe4d121c	-0.2002644
124	0xbdb70c9f	-0.08937954
125	0x3fb20311	1.3907186
126	0x3fc78f4e	1.5590608
127	0xbf454881	-0.7706376

in_proj_weight f4 [96, 32]
0	0xbe0b25e7	-0.13588677
1	0x3c54bd91	0.012984649
2	0x3e44cac8	0.1921798
3	0x3c989918	0.018627688
4	0xbdf72d51	-0.1206919
5	0x3e8ceee9	0.27526024
6	0xbdecdec8	-0.1156593
7	0x3d4bad24	0.049725667
8	0x3d22fc87	0.03979161
9	0x3d947a6d	0.07249913
10	0xbe1ddc2b	-0.15416019
11	0x3c9e0236	0.019288164
12	0xbd592126	-0.05301013
13	0x3e392f7d	0.18084522
14	0xbe45cbf6	-0.19316086
15	0x3e1756be	0.14779183
16	0x3e096274	0.13416463
17	0x3e50c312	0.20386913
18	0xbd076b50	-0.033061326
19	0x3d9ec817	0.07753008
20	0x3dfd0065	0.12353591
21	0x3e032a10	0.12809014
22	0xbe4d795e	-0.20065829
23	0xbde9febc	-0.1142554
24	0xbe515dbf	-0.20445918
25	0xbe467110	-0.19379067
26	0xbda35534	-0.079752356
27	0xbdbfc70f	-0.09364139
28	0xbd4694af	-0.04848164
29	0xbdd4314a	-0.10360964
30	0x3d0e04ce	0.03467255
31	0xbcfb93db	-0.030710151
32	0xbe41ed6c	-0.18938226
33	0xbe110a89	-0.14164175
34	0xbe30d9ea	-0.17270628
35	0xbdef551e	-0.11686157
36	0xbce933b8	-0.028467044
37	0xbe06de37	-0.13170706
38	0xbe0831e5	-0.13300283
39	0xbdd4f4ec	-0.10398278
40	0x3daf2425	0.08551816
41	0xbdda8dd2	-0.10671581
42	0xbe39cd49	-0.18144716
43	0xbe8297c0	-0.255064
44	0xbd55bdb3	-0.052182864
45	0x3b6cefc2	0.003615365
46	0x3e28ca1b	0.16483347
47	0xbd894c4f	-0.06704008
48	0x3ceca16a	0.028885562
49	0xbd865ddd	-0.06560872
50	0x3e195dfe	0.14977261
51	0xbe814383	-0.2524682
52	0x3e548d4b	0.20757024
53	0xbe27dfce	-0.16393968
54	0x3d8d74b8	0.06907028
55	0x3dab5fc9	0.08367879
56	0xbda9489a	-0.08265801
57	0x3e26f4ef	0.16304372
58	0xbe0dee25	-0.13860376
59	0xbe05c031	-0.13061596
60	0xbdb03204	-0.0860329
61	0x3d881634	0.0664486
62	0x3df5f363	0.12009313
63	0xbe2cf0e7	-0.16888772
64	0x3ca3bbc0	0.019986987
65	0x3e35ea98	0.17765272
66	0x3e2c795d	0.16843171
67	0xbe0d71f6	-0.13813004
68	0xbd8c7376	-0.0685796
69	0x3cbb9794	0.022899427
70	0xbe0d3280	-0.13788795
71	0x3db25459	0.08707494
72	0xbe0c10ac	-0.13678235
73	0xbe1fd01f	-0.15606736
74	0xbde9a4a3	-0.11408355
75	0x3e33a71e	0.17544219
76	0x3e43a59d	0.19106145
77	0x3db0c926	0.08632116
78	0xbe1ff241	-0.15619756
79	0xbd8c13c9	-0.06839711
80	0x3db9c6e0	0.090711355
81	0x3dd45585	0.10367874
82	0xbda44ed2	-0.08022846
83	0x3cf5c8c9	0.030002968
84	0xbe44106f	-0.19146894
85	0xbe2d96eb	-0.16952102
86	0xbdb70c5f	-0.089379065
87	0xbd4e9e2e	-0.05044382
88	0xbd70ca65	-0.05878677
89	0x3ca57eae	0.020202007
90	0xbe1be650	-0.15224576
91	0xbe51dee2	-0.2049518
92	0x3da240a8	0.079224885
93	0xbc5fceaa	-0.013660112
94	0x3ddd8a2f	0.10817372
95	0xbd71789f	-0.058952924
96	0x3d1e12fa	0.038592316
97	0x3d6d6a9a	0.05796299
98	0xbcd8cf11	-0.026465924
99	0xbe306300	-0.17225266
100	0x3e2019d3	0.15634851
101	0x3e11e68d	0.14248104
102	0xbe2b2a64	-0.1671539
103	0xbe63d12a	-0.22247759
104	0x3e2e12fc	0.1699943
105	0xbbc02715	-0.005864034
106	0x3e63e324	0.22254616
107	0x3d8d4ee7	0.06899815
108	0x3e64c4db	0.2234072
109	0x3e66726e	0.22504589
110	0xbde05e92	-0.10955538
111	0xbdcd5fd0	-0.100280404
112	0xbdc0b452	-0.09409393
113	0xbc86eff1	-0.016471835
114	0x3cc73ea9	0.02432187
115	0x3e5a51ad	0.2132022
116	0xbccaaa13	-0.0247393
117	0x3e64adce	0.22331926
118	0x3dc39e98	0.09551734
119	0x3e86b51c	0.2631005
120	0xbde09857	-0.109665565
121	0xbe6b534b	-0.22980992
122	0xbe325967	-0.17416917
123	0x3d96607a	0.0734262
124	0xbd2844f8	-0.0410814
125	0xbe7c203e	-0.24621674
126	0xbd9e4532	-0.07728042
127	0xbcb449ed	-0.022007907
128	0xbd851c97	-0.06499594
129	0xbe37d1d5	-0.17951138
130	0x3d6a9305	0.057269115
131	0xbd6a593e	-0.057214014
132	0x3c8aa3f9	0.016923891
133	0x3c9a6fe7	0.018852187
134	0x3c311360	0.010807842
135	0xbe082eeb	-0.13299148
136	0x3e56bf61	0.20971443
137	0x3dde892d	0.10866008
138	0xbe14074d	-0.1445591
139	0xbe33415a	-0.17505398
140	0xbd5d61db	-0.0540484
141	0xbe40a16e	-0.1881158
142	0x3d08add7	0.03336891
143	0xbe1442ed	-0.14478655
144	0x3d4bb508	0.04973319
145	0xbe0589aa	-0.13040796
146	0xbdd3cd4a	-0.1034189
147	0xbda6e7c1	-0.08149672
148	0x3dc5dc22	0.096611276
149	0x3da6295c	0.081133574
150	0x3e1be07c	0.15222353
151	0xbe254e8c	-0.16143245
152	0xbe0b41b1	-0.13599278
153	0xbdb1ccfd	-0.086816765
154	0x3d09b97b	0.033624154
155	0x3dc69127	0.09695654
156	0xbe44c384	-0.19215208
157	0x3e46d13e	0.19415757
158	0x3d613508	0.054982215
159	0x3d14daa3	0.03634132
160	0xbe0b5db3	-0.13609962
161	0x3e065fba	0.13122454
162	0x3e06f6a4	0.13180023
163	0x3df0c130	0.117555976
164	0xbe1041ee	-0.1408765
165	0x3d357974	0.04430528
166	0x3e103596	0.14082941
167	0xbd1599a2	-0.03652347
168	0xbe5fc5ca	-0.21852794
169	0x389c5e39	7.45621e-05
170	0xbd1c4674	-0.038153127
171	0x3d6752b6	0.056475364
172	0x3e1300bb	0.14355747
173	0x3e8c780f	0.27435347
174	0xbe2c3af5	-0.16819365
175	0xbcd6ccd9	-0.026220726
176	0xbd9fcdd1	-0.07802928
177	0x3bb0a2b7	0.005390491
178	0xbdf650c3	-0.12027123
179	0x3e4ff7e1	0.20309402
180	0xbe8297d2	-0.25506455
181	0x3e0ce614	0.13759643
182	0xbd815a16	-0.06316011
183	0x3e4016d3	0.18758707
184	0x3e8daf95	0.2767302
185	0xbe018ffe	-0.12652585
186	0xbe0f2d06	-0.13982019
187	0x3d91f8de	0.07127546
188	0x3dfe25b4	0.12409535
189	0x3d10863b	0.035284262
190	0x3d15c949	0.036568914
191	0xbd2b8038	-0.041870326
192	0x3d5890c2	0.052872427
193	0x3c8adab6	0.016949993
194	0xbd367dd7	-0.044553604
195	0xbd7b936c	-0.06141989
196	0xbd07cdc7	-0.03315523
197	0x3d92c4e8	0.07166463
198	0x3db26a93	0.08711734
199	0x3e345996	0.176123
200	0xbde3a656	-0.111157104
201	0x3e030449	0.12794603
202	0x3d74cf0f	0.05976778
203	0xbdb1ad0f	-0.086755864
204	0x3a2cc77c	0.0006591005
205	0xbe35bfd4	-0.17748958
206	0xbdf8c2c0	-0.121465206
207	0xbe387bb8	-0.18015945
208	0x3bd242c0	0.0064166486
209	0xbe083249	-0.13300432
210	0xbe54ca21	-0.20780231
211	0xbd628cb6	-0.055309974
212	0x3e6558e4	0.2239719
213	0x3ce1a6c0	0.027545333
214	0x3d5a2544	0.053258196
215	0xbe5714c2	-0.21004012
216	0xbaacce6f	-0.0013184081
217	0xbbd01457	-0.006350081
218	0x3de773ac	0.113013595
219	0x3dc3a351	0.095526345
220	0x3dd54ea9	0.10415394
221	0xbdbdf5f9	-0.09275431
222	0x3dce9787	0.10087495
223	0x3e027c12	0.12742642
224	0xbe559c28	-0.2086035
225	0x3e390667	0.18068849
226	0xbe1ffd1f	-0.15623902
227	0x3d395cc9	0.045254502
228	0x3e105a78	0.14097011
229	0x3d1566dd	0.03647505
230	0x3e211729	0.15731491
231	0xbe34a6c3	-0.1764174
232	0xbe1a208b	-0.15051477
233	0xbdecfa0d	-0.11571131
234	0x3d8c6841	0.06855822
235	0x3c1ebc7b	0.009688492
236	0xbd4f7aae	-0.050654106
237	0xbe2ddd26	-0.16978893
238	0xbdaf17a2	-0.085494295
239	0xbc715cbe	-0.014731584
240	0xbe2cdd57	-0.1688131
241	0xbe44549e	-0.19172904
242	0x3cc30be9	0.02380939
243	0x3e244569	0.16042103
244	0xbcacd0e3	-0.021095699
245	0x3d5412c9	0.051775727
246	0xbdc83e7d	-0.09777544
247	0x3dcca058	0.09991521
248	0x3e512950	0.20425916
249	0x3e2f207d	0.17102237
250	0xbde14e2a	-0.11001237
251	0x3dcd42b8	0.10022491
252	0xbe23cf14	-0.15996963
253	0x3e0c7398	0.1371597
254	0x3d875fbe	0.06610058
255	0x3c9b1d3a	0.018934835

in_proj_bias f4 [96]
0	0xbd10f4be	-0.035389654
1	0xbcd50892	-0.026005063
2	0xbca76633	-0.020434475
3	0x3d18e89a	0.0373312
4	0xbd3330bc	-0.04374765
5	0x3d95da8b	0.073170744
6	0xbc29487f	-0.010332226
7	0xbc8c1d98	-0.017103955
8	0x3d35d821	0.04439557
9	0x3c89416c	0.016754828
10	0xbd642e96	-0.05570849
11	0xbd0700e5	-0.032959837
12	0x3d4e3dec	0.050352022
13	0xbd26231b	-0.040560823
14	0xbd22fc12	-0.039791174
15	0x3d651cb3	0.055935573
16	0x3d0d5479	0.034504388
17	0x3d26319c	0.040574655
18	0xbd3b48f3	-0.045723867
19	0xbcb32fd8	-0.0218734
20	0xbd36bd05	-0.044613857
21	0x3d13da23	0.036096703
22	0x3ce4ff4c	0.027953766
23	0xbd160847	-0.036628988
24	0x3d4e8e7a	0.050428845
25	0xbd71a9c7	-0.058999803
26	0x3ce1366c	0.02749177
27	0xbd295064	-0.041336432
28	0x3d564871	0.05231518
29	0xbd5bf9c2	-0.053704984
30	0xbd4764f4	-0.04868026
31	0xbd1a3380	-0.03764677
32	0xb60126f6	-1.9245176e-06
33	0xb5a64cf0	-1.2390356e-06
34	0xb5869fd0	-1.003029e-06
35	0x35bcdf26	1.4072036e-06
36	0xb6284b77	-2.5077877e-06
37	0xb65426e5	-3.1613101e-06
38	0x359f1af2	1.1854265e-06
39	0x35b625cf	1.357106e-06
40	0x34a1d8e1	3.0146387e-07
41	0x358c18b0	1.0437998e-06
42	0xb57c1898	-9.3913104e-07
43	0x3587da7f	1.0121875e-06
44	0x36047cd3	1.974219e-06
45	0xb6cf4d79	-6.1780997e-06
46	0x35c0082d	1.4307494e-06
47	0x366c38d1	3.5199812e-06
48	0x3522febe	6.07204e-07
49	0x3627b331	2.4989242e-06
50	0xb6717252	-3.5978342e-06
51	0x3476dbd1	2.2990504e-07
52	0xb50b890c	-5.1980965e-07
53	0xb5ab925f	-1.2783092e-06
54	0xb62a9130	-2.5416484e-06
55	0x36ae17c1	5.1883694e-06
56	0xb4ea4a53	-4.3639974e-07
57	0xb60c1afe	-2.0877337e-06
58	0xb59d55cb	-1.1722381e-06
59	0xb627dd0b	-2.5013603e-06
60	0xb33f7686	-4.457845e-08
61	0xb5b9dd20	-1.384793e-06
62	0xb4cc0f2a	-3.8008994e-07
63	0xb40cde50	-1.3119393e-07
64	0xbd0fe850	-0.03513366
65	0x3c042174	0.0080646165
66	0xbd2b7427	-0.04185882
67	0x3c633559	0.0138677
68	0xbd18e4ce	-0.03732758
69	0xbd1de94f	-0.03855258
70	0xbd459204	-0.048234954
71	0x3d596426	0.053074025
72	0xbd2d15c7	-0.042257097
73	0x3d102f7d	0.03520154
74	0x3d535322	0.051592954
75	0xbb21c533	-0.002468419
76	0x3d38d2bd	0.04512285
77	0xbc5c6b87	-0.013453371
78	0x3d3a1a38	0.04543516
79	0xbd3c6128	-0.045991093
80	0x3d975c1e	0.07390617
81	0xb955906f	-0.00020367069
82	0x3d394fcb	0.045242112
83	0xbc83130e	-0.016000297
84	0x3cb869e5	0.022511432
85	0xbd33eed2	-0.04392893
86	0x3d326273	0.04355092
87	0xbd000d41	-0.03126264
88	0x3cf3bf6e	0.029754367
89	0xbd4af2e5	-0.04954805
90	0xbd2ece4e	-0.042677216
91	0xbd3abbf2	-0.045589395
92	0xbd46fb9f	-0.04857981
93	0xbd317dea	-0.04333297
94	0xb9acf392	-0.0003298787
95	0xbd2f9a70	-0.042871892

weight f4 [32, 32]
0	0x3e491c15	0.19639619
1	0x3d8ced40	0.06881189
2	0xbd067fe2	-0.032836802
3	0xbe19efe2	-0.15032914
4	0xbe39ce7e	-0.18145177
5	0xbe84a3c7	-0.25906202
6	0x3aff35b9	0.0019470967
7	0xbe1882d6	-0.1489366
8	0x3e25c046	0.16186628
9	0xbdb8f4c2	-0.09031059
10	0xbdc01b3c	-0.093801945
11	0xbdc3cc08	-0.095604
12	0x3e0c5fb0	0.13708377
13	0xbe730cba	-0.23735324
14	0xbea323b8	-0.3186319
15	0x3d928b1a	0.07155438
16	0x3e1cf983	0.15329556
17	0x3dfed8fd	0.12443731
18	0xbe1797fc	-0.14804071
19	0xbe5bc66c	-0.2146241
20	0xbe4ef268	-0.20209658
21	0x3e48132d	0.19538565
22	0xbdc4db38	-0.09612125
23	0x3e629620	0.2212758
24	0xbe948a2d	-0.2901167
25	0xbe41c088	-0.18921101
26	0x3eade37d	0.33962622
27	0xbe0e4b0a	-0.13895813
28	0x3e957be4	0.29196084
29	0xbe32e089	-0.17468466
30	0xbe4ba8dd	-0.19888635
31	0x3de6ad61	0.11263538
32	0xbeb2593e	-0.3483371
33	0x3e2eb976	0.17062935
34	0x3c65a2de	0.014015881
35	0x3e546506	0.20741662
36	0xbe8d4c51	-0.27597287
37	0x3e447ace	0.19187471
38	0x3e7d5176	0.24738106
39	0xbda788e9	-0.081804104
40	0xbe399a43	-0.18125252
41	0x3e8de5ca	0.27714378
42	0xbe0b8be2	-0.1362758
43	0xbe76fe3d	-0.24120422
44	0xbe75d380	-0.24006462
45	0x3e74d51f	0.23909424
46	0x3ea60d82	0.3243218
47	0xbdc55a5c	-0.09636375
48	0x3ddafa30	0.10692251
49	0xbc1a74ac	-0.009427231
50	0x3d34deb4	0.0441577
51	0xbda5690b	-0.08076676
52	0xbdecac06	-0.11556248
53	0xbc66b0b4	-0.014080215
54	0x3eab0945	0.3340551
55	0xbe9d7356	-0.30752057
56	0x3e6b51ba	0.22980395
57	0x3e14a052	0.14514282
58	0xbd840f1e	-0.06448196
59	0xbe90adcf	-0.28257605
60	0xbe996747	-0.29961607
61	0x3ddb4ee7	0.10708409
62	0x3cc28646	0.023745667
63	0xbeaa0fdd	-0.33215228
64	0xbe85cbee	-0.26132149
65	0x3e762492	0.24037388
66	0xbe829176	-0.25501603
67	0x3e289934	0.16464692
68	0xbe9d5daa	-0.30735523
69	0xbd83df5b	-0.06439086
70	0x3e1d79e1	0.15378524
71	0x3daa61ef	0.083194606
72	0x3d6613f3	0.05617137
73	0x3e925d07	0.285866
74	0x3cabfeac	0.02099546
75	0xbe536681	-0.20644571
76	0x3e2a152c	0.16609639
77	0xbdaafefb	-0.08349415
78	0xbcd6a87f	-0.026203392
79	0xbe73d842	-0.23812965
80	0x3e9cc6a2	0.30620295
81	0x3e9351f8	0.28773475
82	0xbe153202	-0.14569858
83	0x3e414ca2	0.1887689
84	0xbe2a34a5	-0.16621645
85	0x3da4b56e	0.080424175
86	0x3e38e855	0.18057378
87	0xbd47f5c3	-0.04881836
88	0x3d3f6865	0.046730418
89	0x3cc2337c	0.02370619
90	0x3e3ee593	0.18642263
91	0xbea97bfa	-0.331024
92	0x3dfd34f5	0.123636164
93	0xbe328026	-0.17431697
94	0xbe9cd185	-0.306286
95	0xbe6ec519	-0.23317374
96	0xbbc83637	-0.0061099785
97	0x3d1fe8e7	0.039040472
98	0xbb99fdf6	-0.004699464
99	0xbe93aa9b	-0.288411
100	0x3dd0a181	0.101870544
101	0x3e1cda1d	0.15317579
102	0x3e0dd087	0.13849078
103	0xbd51fb7f	-0.051265236
104	0x3e3abea2	0.18236783
105	0xbea2d414	-0.31802428
106	0xbe890854	-0.26764166
107	0xbdd8550c	-0.105630964
108	0xbe779b08	-0.24180233
109	0x3e05bccf	0.13060306
110	0x3c15a11f	0.009132653
111	0x3cfc07e7	0.030765487
112	0x3cbff71a	0.023433257
113	0x3dc32fb7	0.09530585
114	0xbe13c14d	-0.14429207
115	0x3e9b4b85	0.30331054
116	0xbd1b22f9	-0.03787515
117	0x3e0f2a87	0.13981067
118	0x3e1490dd	0.14508386
119	0xbdb7897c	-0.0896177
120	0x3e4bbc50	0.19896054
121	0x3c943d6a	0.01809569
122	0xbbc64f16	-0.0060519082
123	0x3e6c8ea6	0.23101291
124	0x3dbeb23d	0.0931134
125	0xbe16ad1f	-0.14714478
126	0xbd882865	-0.0664833
127	0x3e7a8b36	0.24467167
128	0xbdc10fb0	-0.0942682
129	0x3d23a2dd	0.03995024
130	0x3e8d6c21	0.27621558
131	0xbca3e214	-0.020005263
132	0xbe458f79	-0.19293012
133	0xbe04063c	-0.12893003
134	0x3d1d9fe6	0.03848257
135	0xbcfba8a0	-0.030720055
136	0xbdeca9bf	-0.11555814
137	0x3e784013	0.24243192
138	0x3e960969	0.29304054
139	0x3e4b05b6	0.19826397
140	0xbe337133	-0.17523651
141	0xbdf7e29e	-0.12103771
142	0xbe735624	-0.23763329
143	0x3d3c7055	0.046005566
144	0xbdb89bb7	-0.09014075
145	0x3dc80ed9	0.09768457
146	0xbe331d1b	-0.17491572
147	0x3e2cd238	0.16877067
148	0xbe03164b	-0.12801473
149	0x3d0b3ca7	0.03399339
150	0x3e103f15	0.14086564
151	0x3cb0a304	0.021562107
152	0xbe73e54e	-0.23817942
153	0x3e9cc7b9	0.30621126
154	0xbc909ecd	-0.017653847
155	0x3d7bfe8d	0.061522055
156	0x3d2bb8a8	0.04192415
157	0xbd8bc090	-0.06823838
158	0x3dd268a7	0.10273867
159	0x3e59d02c	0.21270818
160	0x3eb10ef2	0.34581715
161	0x3e8190c6	0.25305766
162	0xbe630aee	-0.22172138
163	0xbd3cf904	-0.046135917
164	0xbe5ff34c	-0.21870154
165	0x3e889085	0.2667276
166	0x3e081c2f	0.13292001
167	0x3e4122cd	0.18860932
168	0x3e1a3520	0.15059328
169	0x3e6daf02	0.23211291
170	0x3e30260a	0.17202011
171	0xbe408423	-0.18800406
172	0x3e1caa1e	0.1529927
173	0xbdbab707	-0.09116941
174	0xbeb28271	-0.34865144
175	0x3daf4c5f	0.085594885
176	0xbeaa6079	-0.33276728
177	0x3e446fec	0.1918332
178	0xbe9c939d	-0.3058137
179	0xbe310afa	-0.17289343
180	0xbd114a8a	-0.035471477
181	0x3c33beb4	0.01097076
182	0x3e22b327	0.15888654
183	0x3d83f6a3	0.064435266
184	0xbeb11882	-0.3458901
185	0xbd724641	-0.05914903
186	0x3e7935ac	0.2433688
187	0xbe6e16b7	-0.23250853
188	0x3e97dfb9	0.29662874
189	0x3d18764c	0.03722219
190	0x3b6e8d0c	0.0036399988
191	0x3eb22a35	0.34797826
192	0x3e964412	0.2934881
193	0xbe8ece5b	-0.27891812
194	0x3e70693f	0.23477648
195	0x3dd6c396	0.10486524
196	0xbe31e29e	-0.17371604
197	0x3e6c3a47	0.23069106
198	0x3b9245a8	0.00446387
199	0xbe9b46ba	-0.30327398
200	0xbe0f6bba	-0.14005938
201	0x3ddffb87	0.10936647
202	0x3e43dccf	0.191272
203	0xbe80fbbc	-0.25192058
204	0xbe2e8755	-0.17043813
205	0x3cc3dc3a	0.023908723
206	0x3d2c2a2e	0.042032413
207	0x3d3ae7f9	0.045631383
208	0xbe778567	-0.24171983
209	0x3db5fff4	0.0888671
210	0xbe34d6e4	-0.176601
211	0x3e60e788	0.21963322
212	0x3e7b50c6	0.24542531
213	0x3e8aeec5	0.27135292
214	0xbd09afc4	-0.03361489
215	0x3e4435b4	0.19161111
216	0xbe8d381b	-0.27581868
217	0x3dd86874	0.10566798
218	0x3e8e48c7	0.277899
219	0x3d3ad805	0.04561617
220	0xbe04d743	-0.12972741
221	0x3e837345	0.2567388
222	0xbe4ef58e	-0.20210859
223	0xbe1450fd	-0.1448402
224	0xbcaf852e	-0.02142581
225	0xbe4bed8c	-0.19914836
226	0x3e98a0b0	0.29810095
227	0x3dd49ef7	0.10381883
228	0x3cbc1731	0.022960277
229	0x3c838786	0.016055834
230	0x3eacd507	0.33756277
231	0xbcd0a4ee	-0.02546927
232	0x3cdca505	0.026934156
233	0xbe3b9b0e	-0.18320867
234	0xbe1ab695	-0.15108712
235	0xbde2922d	-0.11063037
236	0x3cb2206f	0.021743981
237	0x3e883808	0.26605248
238	0x3d6db3ab	0.058032673
239	0xbd26a1c8	-0.04068163
240	0xbea5706a	-0.32312328
241	0x3d1adced	0.037808347
242	0xbe01f314	-0.12690383
243	0xbdd9216a	-0.10602076
244	0x3dbcc7b8	0.09217781
245	0x3ea88d95	0.3292052
246	0xbeb354f6	-0.35025758
247	0xbcfe3b6b	-0.031034192
248	0x3e2a6017	0.16638218
249	0x3df8c1ce	0.1214634
250	0xbe58cdbc	-0.21172231
251	0x3dba6af2	0.091024294
252	0x3e07466e	0.1321046
253	0x3e8b64f3	0.27225456
254	0x3ea955f3	0.33073387
255	0x3c9f2f46	0.019431721

bias f4 [32]
0	0xbd0a7ee1	-0.033812407
1	0x3d12eb5c	0.035868987
2	0x3d4fd151	0.05073673
3	0xbd035521	-0.032063607
4	0xbbc22aef	-0.0059255282
5	0xbd3e3d71	-0.046445314
6	0xbcc43ad7	-0.023953838
7	0xbd84034d	-0.06445942
8	0xbd605828	-0.054771572
9	0xbd25ae60	-0.0404495
10	0x3d41f829	0.047355805
11	0x3d44c8f7	0.048043218
12	0xbd0badd6	-0.03410133
13	0xbadeda6d	-0.0017002352
14	0xbd45a541	-0.0482533
15	0xbcfb0bf1	-0.030645343
16	0xbcbd2f5e	-0.023093875
17	0x3ca5bd09	0.02023174
18	0x3d3aecfc	0.045636162
19	0xbd22badc	-0.039728984
20	0x3b8b5999	0.004252624
21	0x3d22af63	0.039718043
22	0xbce0fc88	-0.027464166
23	0x3d06dacc	0.032923505
24	0xbbc31a36	-0.0059540523
25	0xbd1a6056	-0.03768953
26	0x3d2223ed	0.039585043
27	0x3c5c02b6	0.013428381
28	0x3d13ac7e	0.036053173
29	0x3cf3dc8a	0.029768247
30	0x3d4a8712	0.04944522
31	0xbd1cc182	-0.03827048

weight f4 [128, 32]
0	0x3d6a492b	0.057198685
1	0x3d072201	0.032991413
2	0x3d5ddbed	0.054164816
3	0xbd20a177	-0.039216485
4	0x3d8c42e7	0.06848698
5	0xbe0c2598	-0.13686216
6	0x3d696345	0.056979436
7	0x3a49843e	0.0007687247
8	0x3cab2176	0.020889979
9	0x3d2adddc	0.041715488
10	0x3e6d28b5	0.2316006
11	0xbcfbf9ef	-0.030758826
12	0xbcdaf426	-0.026727747
13	0xbca7de74	-0.020491816
14	0xbe217b1a	-0.15769616
15	0xbe772f5d	-0.24139161
16	0x3cef00e6	0.029175233
17	0x3dfb8632	0.12281455
18	0x3c87d5dd	0.01658147
19	0xbc47ed03	-0.012202504
20	0x3d3e3990	0.046441615
21	0x3e5e0a80	0.21683693
22	0x3dc7a041	0.09747363
23	0x3b3652d4	0.0027820366
24	0xbdfb87b8	-0.12281746
25	0xbc6998dd	-0.014257637
26	0x3d4cb884	0.049980655
27	0x3dc618bd	0.09672687
28	0xbcd6b6dc	-0.026210241
29	0x3e015cb7	0.12633024
30	0x3e548a0f	0.2075579
31	0x3e10c7a6	0.1413866
32	0x3dab8562	0.0837505
33	0x3c12257d	0.008920071
34	0x3e002ec5	0.12517841
35	0x3c73380d	0.0148449065
36	0x3de84eec	0.11343178
37	0x3e11b0fc	0.1422767
38	0x3e32504a	0.1741344
39	0xbe4999fe	-0.1968765
40	0x3d917120	0.07101655
41	0xbe3b22ec	-0.1827504
42	0x3e0e138a	0.13874641
43	0x3ce7b4ec	0.028284512
44	0x3d4954ec	0.049153253
45	0xbe433729	-0.1906401
46	0xbe1686bf	-0.14699839
47	0xbe03e4e7	-0.12880288
48	0xbda4c621	-0.080456026
49	0xbe05ad77	-0.13054453
50	0xbca27f04	-0.019835956
51	0x3e0c4387	0.13697635
52	0x3db52e9b	0.0884678
53	0xbdbba93f	-0.091631405
54	0x3db0abb1	0.086264975
55	0x3d50f329	0.051013146
56	0x3e148b5d	0.14506288
57	0x3e26f9b0	0.16306186
58	0xbdd06c60	-0.10176921
59	0x3e1471ca	0.14496532
60	0x3d7123ca	0.05887202
61	0xbc8ae6a0	-0.016955674
62	0xbe323cc9	-0.17406
63	0x3cd3ff70	0.025878638
64	0x3dc4527b	0.095860444
65	0xbe1f7ae3	-0.15574221
66	0xbe34de0e	-0.17662832
67	0xbd11c38e	-0.035586886
68	0xbdb95d60	-0.09051013
69	0x3b925d82	0.0044667134
70	0xbd5d8377	-0.054080453
71	0x3e57633a	0.21033946
72	0x3e37da40	0.1795435
73	0x3d33e05f	0.04391515
74	0xbd7d4c71	-0.06184048
75	0xbe05df31	-0.13073422
76	0x3c509c6f	0.012732609
77	0xbdc1e103	-0.09466746
78	0xbd97c5f4	-0.074108034
79	0x3d759452	0.059955902
80	0xbe0c5162	-0.1370292
81	0x3d5501c8	0.05200365
82	0xbd278950	-0.040902436
83	0xbe0262b9	-0.12732972
84	0xbe0a784a	-0.13522449
85	0xbd4d4cc4	-0.050122038
86	0x3d4ecaa9	0.05048624
87	0x3d37cf2c	0.04487531
88	0x3dde39ec	0.108508915
89	0xbdc4acb5	-0.09603254
90	0x3b85265b	0.00406341
91	0x3e37fc9d	0.17967458
92	0xbe1e6fc0	-0.15472317
93	0x3d86514c	0.06558475
94	0x3c81d113	0.015846765
95	0xbe1b64d5	-0.15175183
96	0x3dc5d4f9	0.09659762
97	0xbe283d88	-0.16429722
98	0xbccae1d8	-0.024765894
99	0xbdbb1a0a	-0.09135826
100	0x3cc6f873	0.024288392
101	0xba7e66b0	-0.00097046327
102	0xbe34490a	-0.17605987
103	0xbd99f62d	-0.075176574
104	0x3da7363c	0.08164641
105	0x3d2ed490	0.042683184
106	0x3e6b8525	0.2300001
107	0x3b917fd3	0.0044402867
108	0xbe1c06d6	-0.15236983
109	0xbdec30be	-0.11532734
110	0xbe00cee9	-0.1257893
111	0xbcbf7687	-0.023371948
112	0x3e0f4c0e	0.13993856
113	0x3e44a9ae	0.19205353
114	0xbd0a3514	-0.033742025
115	0x3ca9ab65	0.02071161
116	0xbe64b1f7	-0.22333513
117	0xbcd94894	-0.026523866
118	0x3df3d39f	0.11905598
119	0xbb81a27c	-0.003956137
120	0x3e5a1a8e	0.21299192
121	0xbd48b19f	-0.048997518
122	0x3dedb492	0.11606707
123	0x3deee968	0.116656125
124	0xbdb95a32	-0.090504065
125	0x3bea19f5	0.0071442076
126	0x3dbb3486	0.091408774
127	0x3d84eff5	0.06491081
128	0xbe81cf91	-0.25353673
129	0x3e5f6d3e	0.21819016
130	0x3da9d709	0.08292968
131	0x3da8b5ee	0.08237825
132	0xbdbb342e	-0.09140812
133	0xbd0d96f0	-0.034567773
134	0x3da6742c	0.08127627
135	0xbdef27d2	-0.11677517
136	0x3d791a00	0.06081581
137	0xbd3461d3	-0.044038605
138	0x3e54aef6	0.20769867
139	0x3d1abafa	0.03777597
140	0x3e1bd9b7	0.1521977
141	0xbd92b362	-0.07163121
142	0x3e18ec74	0.1493395
143	0x3df19c17	0.1179735
144	0x3d65eb51	0.05613262
145	0xbd0aedef	-0.033918317
146	0x3e6b6727	0.22988568
147	0x3ddff0c0	0.10934591
148	0x3e45284b	0.19253652
149	0xbdebf098	-0.11520499
150	0xbd1e8eb0	-0.038710296
151	0x3e5ec298	0.21753919
152	0xbd6ba939	-0.05753443
153	0xbd5eecbc	-0.054424986
154	0x3cddf0e6	0.027092408
155	0x3e0ded44	0.13860041
156	0xbd031932	-0.03200645
157	0x3dfd8d75	0.123804964
158	0xbda914e6	-0.08255939
159	0xbe5b8472	-0.21437243
160	0xbd0dc3f9	-0.034610722
161	0x3cbe537a	0.023233164
162	0xbd1ab93d	-0.037774313
163	0xbe648c88	-0.22319233
164	0xbde0e608	-0.10981375
165	0xbe7181ee	-0.2358472
166	0x3d869cf5	0.06572906
167	0xbe1e1a4f	-0.15439723
168	0xbe339323	-0.17536597
169	0xbe3e172f	-0.18563531
170	0x3e1273e9	0.14302029
171	0x3dbcf09d	0.09225581
172	0x3e2bc550	0.16774487
173	0x3d13fd28	0.0361301
174	0xbe23be46	-0.15990552
175	0xbe69c494	-0.22828895
176	0xbe698b09	-0.22806944
177	0x3c3be145	0.011467283
178	0xbd4d6a45	-0.050150175
179	0x3dc6298a	0.09675892
180	0xbe335e34	-0.17516404
181	0x3db42861	0.08796764
182	0x3d05e65c	0.03269039
183	0xbd81e778	-0.06342977
184	0x3d79171e	0.060813062
185	0xbe343d78	-0.17601573
186	0xbe0d2c80	-0.13786507
187	0xbc3791e7	-0.011204219
188	0xbe0a2d79	-0.13493909
189	0xbe0cfeb7	-0.13769041
190	0x3c6967e7	0.014245964
191	0x3d0ebad4	0.034846142
192	0x3e185242	0.14875129
193	0x3cdc5e56	0.026900452
194	0x3de38b7d	0.1111059
195	0x3cf65ab4	0.030072547
196	0xbd061e6c	-0.032743856
197	0x3b1dbdb4	0.002406937
198	0x3e0e4961	0.1389518
199	0x3d9c77f3	0.07640066
200	0xbdbaef25	-0.091276444
201	0x3d9eb244	0.07748845
202	0xbdb5d918	-0.08879298
203	0x3d032c17	0.03202447
204	0xbe1981dc	-0.14990944
205	0x3e40fd0a	0.18846527
206	0x3e408e05	0.18804176
207	0x3e6077a9	0.21920647
208	0xbe2b4bea	-0.16728178
209	0x3d07263d	0.03299545
210	0x3dcedb06	0.10100369
211	0x3d75c373	0.060000848
212	0x3d2cf727	0.04222789
213	0x3de83c3c	0.11339614
214	0xbddf85bd	-0.109141804
215	0x3d5f2f22	0.05448831
216	0x3c8e941c	0.017404608
217	0xbd8746e8	-0.06605321
218	0xbd9437ca	-0.072372034
219	0xbe5f8c05	-0.21830757
220	0x3c56ecb4	0.013117958
221	0x3d2e8b3a	0.042613246
222	0x3d8cd3a8	0.06876308
223	0x3cdb925c	0.026803188
224	0xbdafde17	-0.08587282
225	0xbe2db45e	-0.16963336
226	0x3d4afbb7	0.04955646
227	0xbda40559	-0.080088325
228	0x3e189f6f	0.14904569
229	0x3d2b49d8	0.04181847
230	0x3df708fb	0.1206226
231	0x3e3da4d8	0.18519914
232	0xbe27c17c	-0.16382402
233	0xbdda3320	-0.106542826
234	0x3e11dd55	0.14244588
235	0x3d9da622	0.07697703
236	0xbe1269ac	-0.14298123
237	0x3de84329	0.11340935
238	0xbd8c91df	-0.0686376
239	0x3e3e32df	0.18574093
240	0xbd664bc9	-0.056224618
241	0x3dd19828	0.102340996
242	0xbd4531c0	-0.04814315
243	0x3dfffdea	0.12499602
244	0xbb4859d9	-0.0030571132
245	0xbe14a485	-0.14515884
246	0x3d66503f	0.056228872
247	0xbd911f6a	-0.0708607
248	0xbdef5dcb	-0.116878115
249	0x3e0fcd34	0.14043123
250	0x3e193989	0.14963354
251	0xbe2c4400	-0.16822815
252	0xbd9d2d0e	-0.07674609
253	0xbe42e167	-0.19031297
254	0x3dd2413f	0.10266351
255	0x3e4bc14d	0.19897957

bias f4 [128]
0	0x3d297413	0.041370463
1	0xbad6d7d7	-0.001639123
2	0xbce469ed	-0.02788254
3	0x3d8b7cb9	0.06810898
4	0x3d674834	0.056465343
5	0x3d271b3c	0.040797457
6	0x3d21f89b	0.03954373
7	0xbcabcba9	-0.020971136
8	0x3c88b08d	0.016685748
9	0x3a933f70	0.0011234116
10	0xbbdb6cda	-0.0066963257
11	0x3d23fbc0	0.04003501
12	0x3cba5163	0.022743886
13	0x3d17d550	0.037068665
14	0x3d3ceb54	0.046122864
15	0xbc930060	-0.017944515
16	0xbc55fe4f	-0.01306112
17	0x3d10c25e	0.035341613
18	0x3d4ceeab	0.0500323
19	0x3cc18529	0.023623066
20	0x3cdf9bc4	0.027295955
21	0x3c5c9ad7	0.013464651
22	0x3d1dd17f	0.03852987
23	0x3c98a366	0.018632602
24	0x3cf4e706	0.029895317
25	0x3d4f053f	0.050542112
26	0x3d04a6b6	0.03238555
27	0xbca91a66	-0.02064247
28	0x3c6be92c	0.014398854
29	0xbca9635b	-0.02067726
30	0xbcc4ba59	-0.024014639
31	0x3c8808a3	0.01660568
32	0xbcc22cf3	-0.023703074
33	0x3d1b5107	0.03791907
34	0xbbaeb55c	-0.0053316783
35	0x3d8cb304	0.06870082
36	0x3bf7da6e	0.0075638806
37	0x3c98111e	0.01856285
38	0xbcadb0f6	-0.021202546
39	0xbb7aa822	-0.0038247188
40	0x3b0eccae	0.002178948
41	0x3befbf04	0.007316472
42	0x3bac2118	0.0052529685
43	0x3d3db33c	0.04631351
44	0x3d5fc170	0.054627836
45	0xbcb19e55	-0.021681944
46	0x3c847b37	0.016172035
47	0x3d18cd34	0.037305072
48	0x3cb2706a	0.021782119
49	0x3c7783c8	0.015107103
50	0x3d40aff6	0.04704281
51	0x3d220814	0.039558485
52	0x3d33f28e	0.04393249
53	0xbc6d0bf9	-0.014468187
54	0x3d4ac2b2	0.049502082
55	0x3c94f5ff	0.018183706
56	0x3d4211e2	0.047380336
57	0x3d3989c8	0.045297414
58	0xbcc61cde	-0.024183687
59	0x3d314e7e	0.043287747
60	0x3d2b9d1d	0.04189788
61	0x3d395fe1	0.045257453
62	0x3d3928fd	0.045205105
63	0x3d40e52b	0.04709355
64	0x3c98dab5	0.018658975
65	0x3d67848c	0.05652289
66	0x3d413bdc	0.047176227
67	0x3d1a0778	0.03760478
68	0x3c738be8	0.014864899
69	0x3d4e8018	0.05041513
70	0xbc4bba68	-0.012434579
71	0xbca270ee	-0.01982924
72	0x3d803ca3	0.062615655
73	0xbcb0e54a	-0.021593709
74	0x3d0a59c1	0.033777002
75	0x3d1ee2c0	0.038790464
76	0x3b80f6c1	0.0039356654
77	0x3d447ce6	0.047970675
78	0x3ce31457	0.02771966
79	0xbcb39648	-0.021922246
80	0x3d07676a	0.033057608
81	0x3c854f65	0.01627321
82	0xbb65e312	-0.0035077971
83	0xbccc5c0f	-0.02494624
84	0xbcb10110	-0.021606952
85	0x3d1fea24	0.039041653
86	0x3c6f2ad4	0.014597613
87	0x3cd033c5	0.02541531
88	0x3d1292f3	0.035784673
89	0x3d44832b	0.047976654
90	0x3d6156b8	0.055014342
91	0xbb3d7c4a	-0.0028913193
92	0xbc749727	-0.014928616
93	0x3d004b6c	0.031321928
94	0x3d137ba0	0.03600657
95	0xbc6722a6	-0.014107382
96	0xbc55fcfc	-0.013060804
97	0xbbfdf37d	-0.0077499733
98	0x3d0d120e	0.034441046
99	0xbcf6801d	-0.030090386
100	0xbc574dcd	-0.013141108
101	0x3d511b25	0.051051278
102	0x3d4ef7f5	0.05052944
103	0x3d0061b7	0.031343188
104	0xbcd63106	-0.026146423
105	0xbc8cc17d	-0.017182106
106	0x3d1c245d	0.038120616
107	0x3d358c08	0.044322997
108	0x3bb56e9f	0.0055368687
109	0x3d2069d0	0.03916341
110	0xbca00bd5	-0.019536892
111	0xbcbb2f58	-0.022849724
112	0xbd0d52da	-0.03450284
113	0x3cfb935d	0.030709917
114	0x3d15dff9	0.03659055
115	0x3d227990	0.039666712
116	0x3d3b687c	0.04575394
117	0x3d41d89e	0.047325723
118	0x3d0ccd4c	0.034375474
119	0x3d1bc239	0.038027022
120	0x3cfa3a5b	0.030545404
121	0x3abbcedf	0.001432862
122	0xbc3f189d	-0.011663583
123	0x3d1e32bd	0.038622607
124	0x3d3f3cda	0.046688892
125	0x3d43a642	0.047765978
126	0x3c83f6d5	0.01610891
127	0xbc8cc2de	-0.017182764
