pre_trained_models/urfunny_aligned_LAV_UniMF.pt (torch, 314163 bytes, 52 tensors)

cls f4 [1, 32]
00000000: a422 46bd 4f50 b6be 8720 7f3e d6ac c4bd
00000010: d639 c43e bef9 993d 1b06 b5bc 70a7 bc3e
00000020: b2f7 433d 95fc 853e 590b 24be 2bbb d13e
00000030: a183 a23e 6282 333e fe76 9dbd b377 bfbd
00000040: f032 963e 6865 4c3e ca73 8d3e 5a31 26be
00000050: d5c0 b9bd 6def dcbe 28a4 24be 1cb2 83be
00000060: 8f4c 1cbe cec1 793e c830 3c3e 04f2 493e
00000070: c36d 9cbd 3682 33be 44f6 c3bd 21e8 66be
-0.04837288 -0.35608146 0.24914752 -0.09603278 0.38325375 0.07518338 -0.022097638 0.36846495
0.047843643 0.26169267 -0.16019954 0.4096311 0.3174105 0.17530206 -0.076887116 -0.09349003
0.29335737 0.19960558 0.27627403 -0.16229764 -0.09069983 -0.43151417 -0.16078246 -0.25721824
-0.1526358 0.24390337 0.18377984 0.19721228 -0.07638123 -0.1753014 -0.09568456 -0.22549488

weight f4 [32, 300, 1]
00000000: ac6d 98bd 5e69 683c aabb bebc 8284 a1bd
00000010: 39e2 6e3c f790 9b3d 36f6 af3d de6d 4fbe
00000020: 2afc 92bc 1a9c 2abd fced afbd 58a2 613d
00000030: 26d3 7abd e218 51bd bbd6 cfbd f18c 07bd
00000040: 2b62 40bd e3f5 4d3c 0f21 9a3d 26a1 0e3e
00000050: 7f58 40bd 1afc 263d a352 8d3d f9e6 0dbe
00000060: 754a d2bd e063 6abc ac6e 10be 7095 33be
00000070: bc3d ee3d b399 133b 8c98 b1bc 7c0a 573d
00000080: 41b7 9bbd 9046 e83d c785 86bd 56b5 383d
00000090: 003e 86bd 468b 22bd 9940 1bbe a98d c13d
000000a0: be4b f4bc e6f6 53bd 7da3 debc 2fda f6bc
000000b0: 5059 213a 2065 943d d51b 96bb 842b 923c
000000c0: bd7b c03d fb2d 873d 9366 17be 9425 b9bd
000000d0: 9586 cf3d aff9 87bd 2017 143d 9b60 913d
000000e0: 90da b2bc 65a8 bebd 3713 5cbd a8c9 11bc
000000f0: 36e8 78bd 7391 afbd c85c 163c 15c6 2b3d
00000100: b6ec c13c 5045 553c 9d34 5cbd 7138 54bd
00000110: b4df 2cba f037 343d 45b0 4f3d 5b72 edbd
00000120: 1465 09bd a315 efbb 000e 17bd de6a c73d
00000130: 7257 5b3c 1c76 38bd 3bbb a9bb fa0b aa3d
00000140: e35d 9cbd 4894 e9bb b6c5 2cbc 78e0 1dbd
00000150: 5c65 28bd 0b68 8c3d 67cf 153e 5457 59bd
00000160: 3564 8a3d 60a1 3bbd 136b 7d3d a5e7 253d
00000170: 95bf 2c3e 996d 68bd 046f 83bc b030 57bd
00000180: d77f 473d de0e 6ebd 2645 99bc 4663 003e
00000190: 2ea6 0cbd 90a6 9d3c dcf7 2e3e c1d0 5ebd
000001a0: a590 913d 4100 3bbb 2a06 d23d d030 23bd
000001b0: 4b04 b33c 21ec 08bd b34f 813d 5768 26bd
000001c0: b112 783c 8d8f a23d c217 403d 9026 2a3c
000001d0: 2860 983d fd2e 90bd 781b 0cbc d909 43bd
000001e0: cd7a ba3b 1d0e c73c 66e0 2c3d 0019 c4bc
000001f0: 6aeb 4abd 6f2f b73d 3ef2 d53a e841 6ebd
00000200: a96d 2d3c 2445 e83d 2a8b 31be 5234 bdbd
00000210: 26e6 153d f764 32bd eaf8 0f3a 6bab 71bd
00000220: 735d 88bd 614e 4c3d 8d9b acbd 8e7f b3bd
00000230: e3c1 8bbd 13ce a73d c31a 993d 0c0a 3dbd
00000240: c4c5 d239 c64e 87bd e024 923d 8e0f e4bc
00000250: cf1e 07bd 3155 a63d 9800 21bd f9d0 41bd
00000260: b526 98bd 1a7b e43d 57f6 7f3d a2dc f03c
00000270: 3a04 aa3d d43c 40bc 110c e43c f7de f63c
00000280: 075d 88bb eae0 97bd d3d0 723c 5c1f a03d
00000290: 9634 53bd 4171 b4bc 5e5e a6bd 1eec d03d
000002a0: 8bb1 ff3b 1bc2 ad3b a517 f1bc 30a1 5fbd
000002b0: b1c1 81bd c126 00ba 8034 a23c 5917 cebb
000002c0: 8713 593d 0cfb dcbc 933b efbd 5a43 a73c
000002d0: 9c2c bfbc 8430 d2bd 5e62 83bd ca2a babd
000002e0: 794e 843d 50f6 1f3d 7c8f 4b3c 6ad9 b13c
000002f0: 8d65 153c 5f1d 84bd 3549 a03d 6dcf b93d
00000300: 69be 5abd d23f abbd 61d0 d53d d3f3 e1bb
00000310: 2ead 35bc b471 8ebd 9ff1 873d 7b42 7cbd
00000320: 55b9 21bd bd76 943d 6c59 45bd f9f8 15be
00000330: f74e de3c 16d5 4a3c 2c8d b13d 4fe8 b1bd
00000340: 36ed 023d 6073 d53d 6d57 823d d0df 763d
00000350: c95c 8d3d d73c a13b b184 05bc 7eba 183d
00000360: 6f0b 1d3b ace4 99bd 72b9 5dbc 54ac 71bc
00000370: 0bae 0a3d ea7f a63b 051d b7bc 4e99 9dbc
00000380: e8c4 913d 7303 f6bd 5e2e 9abd df6b 073e
00000390: 4669 62bd f6f5 28bd f389 253d be33 dcbb
000003a0: fadf febd 67fc 98bd b2fd 9ebd 79f9 103c
000003b0: 402a da3d d22c 5abd 7adb 22bd c3f6 5e3d
000003c0: cdb8 23bd c112 e23c 066a 2ebd a0b9 9ebd
000003d0: cf1b 95bd 7a36 9cbb 3551 073e 0873 e73d
000003e0: da59 363d e5b5 1c3e c556 8cbd 5f93 95bd
000003f0: 10d8 fdbc 7091 1abd a2ff c23b 062a 873d
-0.07442793 0.014185278 -0.023282845 -0.07886602 0.014580303 0.07596009 0.08591883 -0.20256755
-0.017942507 -0.041652776 -0.08590314 0.055086464 -0.061236523 -0.05104912 -0.101483785 -0.033093397
-0.04696862 0.012570831 0.07525837 0.13928661 -0.046959396 0.040767767 0.06900527 -0.1385764
-0.10268108 -0.014306039 -0.14104718 -0.17537475 0.11632869 0.0022522032 -0.021679185 0.052500233
-0.07603312 0.11341584 -0.06568485 0.04509481 -0.06554794 -0.039683603 -0.15161361 0.09450848
-0.029821273 -0.051749133 -0.027177567 -0.030133335 0.0006154971 0.072458506 -0.0045809546 0.017843015
0.09398601 0.06600567 -0.14785223 -0.090403706 0.10133091 -0.0663942 0.036154866 0.07098504
-0.021832734 -0.093094625 -0.053729262 -0.008898176 -0.06076833 -0.08572664 0.009177394 0.041936953
0.023672443 0.013017014 -0.053761113 -0.05181164 -0.00065946137 0.04399866 0.050705213 -0.11594077
-0.03354366 -0.0072962805 -0.036878586 0.0973718 0.013387548 -0.045034513 -0.0051797903 0.083030656
-0.07635095 -0.007128272 -0.010545185 -0.03854415 -0.04111229 0.06855782 0.14629899 -0.0530618
0.06757394 -0.045808196 0.061869692 0.040504117 0.16869958 -0.056745145 -0.016044147 -0.052536666
0.048705902 -0.058119647 -0.01870973 0.1253787 -0.03433817 0.019244462 0.17086738 -0.054398302
0.07107667 -0.0028534087 0.10255082 -0.039841473 0.021852633 -0.033428315 0.063140295 -0.04062685
0.015141175 0.079375364 0.046897657 0.010385171 0.07440215 -0.07040212 -0.008551471 -0.047616813
0.0056909085 0.024298722 0.04220619 -0.023937702 -0.049540915 0.08944594 0.0016322804 -0.05816832
0.010585227 0.113413125 -0.17338243 -0.09238495 0.03659644 -0.04355332 0.0005492108 -0.059001368
-0.06658449 0.049879435 -0.084281065 -0.087645635 -0.0682409 0.081936024 0.074758075 -0.04615216
0.00040201668 -0.06606822 0.071359396 -0.027839448 -0.032988366 0.08121718 -0.039307207 -0.047318432
-0.07429258 0.11156292 0.062490787 0.02940208 0.083015874 -0.011733253 0.027837785 0.030135615
-0.0041614803 -0.07415946 0.014820295 0.07818481 -0.05156382 -0.02202666 -0.08123468 0.10201286
0.007803147 0.00530268 -0.02943022 -0.05459708 -0.06335772 -0.0004888587 0.019800425 -0.0062894044
0.05299714 -0.026975177 -0.11681285 0.020417858 -0.023336701 -0.1026316 -0.064152464 -0.090901926
0.0646028 0.03905326 0.012424346 0.021710116 0.00911845 -0.064509146 0.07826463 0.090727665
-0.053404246 -0.08361782 0.10440136 -0.006895521 -0.011088653 -0.06955281 0.066378824 -0.06158684
-0.039483387 0.0724921 -0.048180982 -0.14645757 0.027137263 0.012379905 0.086695045 -0.086868875
0.031964503 0.10422397 0.063643314 0.060272038 0.06902463 0.0049205828 -0.008149312 0.037287228
0.0023963114 -0.07514319 -0.013532983 -0.014750559 0.033857387 0.0050811665 -0.022352705 -0.01923814
0.07117635 -0.12012377 -0.07528375 0.13224743 -0.055276178 -0.04125019 0.04041476 -0.0067200353
-0.12445064 -0.07470017 -0.07763232 0.008848541 0.1065259 -0.0532654 -0.03976009 0.05443455
-0.03997116 0.027596833 -0.04258158 -0.07750249 -0.07280695 -0.0047672363 0.13214572 0.11301237
0.044519283 0.15303762 -0.068524875 -0.073034994 -0.030986816 -0.037736356 0.005950884 0.06599812

bias f4 [32]
00000000: 6fe1 0abd df04 0a3d 3978 043d bf9c 26bd
00000010: 7e81 0b3d b536 84bc 7721 a1bc 4a74 0d3c
00000020: da00 b13c 75fa 743d 9336 5bbc a869 9abc
00000030: e26f 94bd 3dc4 9bba 6e0b 52bc 7d3a 22be
00000040: 67c1 413d ed33 093c d0e7 5b3c dd72 a2bc
00000050: 085b 1fbd 2637 b33c 8ed8 84bd fc95 843d
00000060: a629 783c e78f 0e3c d9f7 37bd 9062 cf3b
00000070: a5a9 663d 560c e83c 11e8 a33d b807 27bc
-0.033906396 0.03369605 0.032341216 -0.04067683 0.03405904 -0.016139368 -0.019669278 0.0086336825
0.021606851 0.059809167 -0.013379711 -0.018849209 -0.072479025 -0.0011884045 -0.012820108 -0.15842624
0.047303583 0.0083741965 0.013421968 -0.019830162 -0.038905174 0.021876883 -0.06486617 0.0647392
0.0151466485 0.008701301 -0.0449141 0.0063288882 0.05631413 0.028326195 0.080032475 -0.010194711

weight f4 [32, 81, 1]
00000000: c5ae dd3d 1358 da3b 9aca b4bd df70 94bb
00000010: 0460 943c 5752 22bd 3344 2dbd b70f af3d
00000020: 3038 16bd bd62 fe3c 046f 683d 88df 15bd
00000030: 508c 8e3d 1d14 bbbd d39d 453d 8318 25bd
00000040: 632c b73c a170 d7bd be5b 883d 5683 68bd
00000050: c399 a1bd 1eb5 d0bd 349f d7b8 b31a 90bd
00000060: b636 cdbd 7b02 e83c c772 7abc 0d12 633c
00000070: e9d1 3abb 560c 94bc 61ac c73d 9e94 e8bd
00000080: 4759 d6bd 4bb8 9bbd a357 dabb 4081 ca3c
00000090: 5271 adbd 108f d4bc 9368 983d 8502 963c
000000a0: e12d b83d 309e 6d3d 188c a6bd 85a7 74bd
000000b0: 6c61 f03c eedb 0dbd 80ab 993d bd6e 1bbd
000000c0: 2afe c0bb ae3c e83d d2af 47bd fbcf 3d3d
000000d0: f1a1 f3bd 6a70 a9bd 5489 1cbd 7207 8bbd
000000e0: 7904 a0bd 7518 ccbd dd79 9fbd 1ca3 993d
000000f0: 616f dc3d f8ba 2c3d 7c23 cd3d 569a f5bd
00000100: b225 e73b c083 37bd 9694 713d abb0 933c
00000110: 67af c13c f1aa 95bd a073 39bc 5941 d43d
00000120: e4c3 0dbb 4db9 c33d c26f 01bd 8bec d13c
00000130: 2639 8f3d 1f51 903d 8239 28bd e6d4 4ebd
00000140: 122a 77bd 739e 163e 9077 88bd 1e1e f63d
00000150: ec6e 6a3d 2607 d83d 82ff 17bd 0eba 143d
00000160: 11db 9fbd bf9f 8d3d 5fac a43b 5890 f33c
00000170: bd07 dd3d 5801 54bd d53b 943d 5d1b 753d
00000180: 1042 ab3d dde0 903c 1890 053e 9757 883d
00000190: 8367 0dbd 2739 da3d c0d8 253d 2f99 30bd
000001a0: b8b2 be3d 925d 6bbd 05d0 d63d 6c3a be3d
000001b0: 17e4 c73c 2c0b c93d 8a9f 91bc 12a6 bc3d
000001c0: ffd4 c8bc 725f ff3d c07f aabd 4f86 4a3d
000001d0: d05a cb3d 7334 093d 601a 4cbc 7dfb bb3b
000001e0: c98c 553d a489 1abc 3c21 a93d 2c96 c43d
000001f0: 11e9 6abc dfcf 333d 1306 48bc 91ca ad3d
00000200: 748f 363d 064c 5b3d f402 ed3c af51 a03d
00000210: 279b ecbb 46b5 c73d ceec cebd 4921 63bd
00000220: e74e c83c d22e d43b 1b09 b2bd bd63 85bd
00000230: 12ba 43bc 8d3c 7cbc cbfe 25bd f7ab 1c3c
00000240: 990f cf3c dfb5 68bd c3b3 95bd 10ee 7c3d
00000250: e5a7 243d b3f9 453d bd29 7bbd ecf6 6a3d
00000260: 57f6 0a3e 7f1a 57bd cee6 84bd 0025 12be
00000270: 77eb c83c 0b04 9d3c 73dc 6e3d 8b8e 81bb
00000280: e1ad 293d 443d 67bc 9095 d0bc fea9 95bd
00000290: 4e8a 96bc 2e61 afbd 5752 bc3c 59cf e5bd
000002a0: 678d 5cbd 648c e03a 9244 bd3d b3ec 7cbd
000002b0: 48c5 0dbd 65a1 13bd 6d6f 1bbc 0e3f e7bc
000002c0: 66b9 873d 6685 c0bd eed3 babd 37ff a83d
000002d0: cfed 2ebd fb10 c33b c11e f5bc 2cbc 07bd
000002e0: 801b f53c 26b7 c73d d995 bebd d9f6 c4bd
000002f0: 38ee 793d 4b1f aa3d d3f6 b4bd 5ca2 b1bc
00000300: 40fc 96bb fd11 09bd 3735 153d 9b13 18bb
00000310: 9336 923d 218a 7bbd 3c2c 37bd f38b ac3d
00000320: ac4f 353d 69d4 c4bd c609 c73d 6af8 a23d
00000330: 3391 cc3d 2fa7 d7bd e409 8bbd 61f8 253d
00000340: 2db4 88bd ff68 46bc a658 30bd 89e7 f83d
00000350: 8e33 9abc ee8d a53d fd72 ac3c 578b 53bd
00000360: 24fe 863d 4b9a a1bd a66d e039 f27d c63d
00000370: dad3 c7bd e2d4 d23d 80ca b9bc 3042 ecbc
00000380: c5b5 d73c 247a 673c 78ff 383d 6343 11be
00000390: 80ab b336 a92c 2cbc d6ae 1f3d 6ee3 aebd
000003a0: 08f6 e23d 483b bb3d 81c2 2ebd 2676 54bd
000003b0: 0058 d5bd 7ed1 193d fe01 ddbd 2ba3 5e3d
000003c0: a4e7 883d af8e 6c3c 7b0b 24be 8a00 8abd
000003d0: fadf 043c dba7 cdbd 1902 afbc 571f c63d
000003e0: 30c7 c0bd 331b ae3d efb6 4d3c 4b34 503c
000003f0: a808 383d ec63 933d a9c6 00be 121a e5bd
0.1082435 0.0066633313 -0.08827706 -0.004530057 0.01811219 -0.039629307 -0.042301368 0.08547919
-0.03667468 0.031052941 0.056746498 -0.03659013 0.06960356 -0.09134696 0.048246216 -0.04030658
0.022360032 -0.10519529 0.066581234 -0.056765877 -0.07890656 -0.10190795 -0.00010281653 -0.070363425
-0.10020201 0.028321495 -0.015286154 0.013859284 -0.0028506464 -0.018072288 0.097496755 -0.113564715
-0.10466247 -0.076035105 -0.006663279 0.024719834 -0.0846888 -0.025947124 0.07441821 0.018311748
0.08993126 0.058012187 -0.081321895 -0.05973007 0.02934333 -0.03463357 0.07503414 -0.037947405
-0.0058896737 0.11339699 -0.04875166 0.046340924 -0.11896122 -0.082733944 -0.038216904 -0.067885295
-0.07813353 -0.09965602 -0.077869155 0.07501814 0.10763431 0.042170495 0.10016534 -0.11992328
0.007054054 -0.04480338 0.058979593 0.018028578 0.023643209 -0.07307995 -0.011319071 0.103640266
-0.0021631652 0.09556828 -0.03160072 0.025625488 0.06993322 0.070467226 -0.04107047 -0.050496005
-0.060342856 0.14708881 -0.0666343 0.12017463 0.05723469 0.105482385 -0.037108906 0.036310248
-0.078054555 0.06915235 0.005025431 0.029731914 0.107924916 -0.051759094 0.072379746 0.05984055
0.0836221 0.017685348 0.13043249 0.066573314 -0.034522545 0.10655432 0.040489912 -0.043114837
0.09311432 -0.057462282 0.10488895 0.09288487 0.024400754 0.09816584 -0.01777627 0.09211363
-0.024515627 0.124693766 -0.08325148 0.049444493 0.099294305 0.033497285 -0.01245746 0.005736767
0.052136216 -0.00943223 0.08258292 0.095989555 -0.014337794 0.043899413 -0.012208479 0.08485902
0.0445704 0.0535393 0.028932072 0.0782808 -0.007220644 0.09751372 -0.10103761 -0.055451665
0.024451686 0.006475308 -0.08693143 -0.06513164 -0.011946218 -0.015395296 -0.040526193 0.009562484
0.025275992 -0.05681407 -0.073096775 0.06175047 0.04019918 0.048333835 -0.0613191 0.05736439
0.13570534 -0.052515503 -0.06489335 -0.14271927 0.02452634 0.019166967 0.058315706 -0.00395376
0.04142559 -0.014113728 -0.025461942 -0.07307814 -0.018376496 -0.085634574 0.022988481 -0.11221189
-0.05384579 0.0017131683 0.092415944 -0.06174917 -0.03461197 -0.03604259 -0.009487015 -0.028228309
0.06627159 -0.09400444 -0.09122454 0.08251803 -0.04270726 0.005952952 -0.029921891 -0.03313844
0.02992034 0.0975173 -0.09305925 -0.09617395 0.0610182 0.0830675 -0.088361405 -0.021683864
-0.0046077073 -0.03346442 0.036427703 -0.0023205045 0.071393155 -0.061411027 -0.04471992 0.08425131
0.044265434 -0.096108265 0.09718661 0.079575375 0.09988632 -0.105299346 -0.06788996 0.040520076
-0.06674991 -0.012109994 -0.04305329 0.12153537 -0.018823411 0.080837116 0.021050924 -0.051646557
0.06591442 -0.07890757 0.00042806304 0.09691991 -0.09757204 0.102945104 -0.022679567 -0.028840154
0.026331792 0.014128242 0.04516551 -0.14185862 5.354581e-06 -0.010508695 0.038985096 -0.085394725
0.11082083 0.091421664 -0.042665962 -0.051870488 -0.10417175 0.037553303 -0.107913956 0.054354828
0.06684807 0.014438315 -0.16020004 -0.06738384 0.008110041 -0.100417815 -0.021363305 0.09673946
-0.09412992 0.085012816 0.012555822 0.01270778 0.04493013 0.07196793 -0.12575783 -0.11186613

bias f4 [32]
00000000: c407 8abb 9dbd 973c 07a3 ba3d 36f7 d03d
00000010: 70b1 72bd 0e7d a0bd f290 4f3d e3d6 0cbd
00000020: c54b 0a3e 25c0 b7bd c611 a9bc 3421 493c
00000030: 5757 93bd 17da 0a3c 0caf a5bd 769c 433c
00000040: 3f54 6e3a 2e67 023e 49a8 63bd c758 0bbd
00000050: 60ab 55bd 2f3c 8fbd d93f d03c e99c 673d
00000060: 5b5b 073e 664c f93d 0059 cb3d a73d bdbc
00000070: 70c9 b0bc 71b5 a7bd cb5d 65bd 3fe8 a4bd
-0.0042123515 0.018523032 0.09113126 0.10203402 -0.05925125 -0.07836352 0.05067534 -0.03438462
0.13505466 -0.089721955 -0.020638358 0.012275983 -0.07194393 0.008474848 -0.08090028 0.011939159
0.0009091533 0.12734672 -0.05558041 -0.03402021 -0.05216539 -0.06993901 0.02542107 0.056546126
0.13218443 0.12172775 0.09929085 -0.023100687 -0.021580428 -0.08188904 -0.05599765 -0.0805211

weight f4 [32, 371, 1]
00000000: 6ef1 86bc 18bb 0a3d 18cc c6ba 58ca 90bd
00000010: 9039 0b3d 385a 5f3c 105e e03b 0573 433c
00000020: b6be 77bd 7c4c 873c 8c23 ceba d834 8e3c
00000030: 2980 7ebd dfa7 f4bc ea98 1cbd 0398 53bd
00000040: 0eb6 80bd 13b0 3e3c eb56 86bc 8709 c4bc
00000050: 0182 5bbd 744f b2b8 671a dfbc 5fa0 4abd
00000060: 8641 1abd fc3a c3bc afe0 88bd 3447 84bd
00000070: 19e2 353a 0897 563c d841 a8bc 0eb5 63bc
00000080: e99b 24bd dabf 7cbd 7fa5 c43c ff3f 19bc
00000090: f643 2bbd 4661 62bd 2144 7c3c 97f1 05bd
000000a0: 1efc 4c3c 8ef8 283c 5b2c e13c 6d47 27bd
000000b0: eff5 d7ba 953f 5f3c 14e7 a33c bad1 a8bb
000000c0: ff88 d3bc c6a9 10bd 0559 1abd 63f8 13bd
000000d0: c76e 9cbc deac 24bd d068 703c 5053 50bc
000000e0: fb4c f7bc 8fd2 cc3c 88f1 ed3c 6b69 683c
000000f0: a2bd ccbc d886 2bbd de66 90bd 2100 31bd
00000100: 90b5 24bd 8629 d5bc 8f13 c13c 662a f6bb
00000110: b4c3 8abd f5cf f9bc 8320 72bd 1938 d8bc
00000120: 2e1e 243c f067 d13c e246 a3bb e19a 86bd
00000130: 7961 853c 646b b0bc 9bda 39bd 4c6a b7ba
00000140: 4c48 a739 f169 5ebd 9fc8 50bd 88e4 09bd
00000150: 7458 acbb 197c 2c3c 0fb8 03bd f23f 55bd
00000160: ca9c 93bb fc89 39bd 363e cf3b 9faa 663b
00000170: 3a44 89bc da65 ce3b 7390 7a3c 053f 78bd
00000180: 93b3 8dbd d590 46bd 2c9c fbbc f07c d6bc
00000190: eaea 6ebc 76d0 3fbd 5675 71bd c284 02bd
000001a0: 26be 5a3c 2501 6b3c e13c 6bbd 6e6a eebc
000001b0: 7558 153c 7102 0fbc e2be acbb e2e4 45ba
000001c0: f664 89bd 202c b7bc eae0 c73c 38cb e8bc
000001d0: 77f1 0abc 0eee 8bbd b99d 4bbd 501f 8dbd
000001e0: bb47 32bd 5849 dabb 80a0 a8ba b76f 1ebd
000001f0: 0641 e23a e754 60bc 17b8 94bd 454c 943c
00000200: a117 4fbd 52b7 8f3c 8bde bcbb 9eb9 aebc
00000210: ea3a 803b 9ceb ffbc 3d49 2dbd fa41 e43c
00000220: 08f6 503b 2b3d 1bbd 0f71 b53c 4ba5 663c
00000230: 7cee c8bc 8f21 bd3c 73ce 28bd e24d 9bbb
00000240: 397a 9bb9 e08d 473c c350 89bd 6207 c23b
00000250: ddcc 6ebd 05e9 4bbd 07c9 3cbd 8a80 f9bc
00000260: 1dad 84bd 21ce 463c f6bb 6bbd 94a3 22bd
00000270: 8ac2 78bd b7cd 06bd 6067 8ebd 6209 07bc
00000280: c163 48bd c1e8 8bbc 6f28 01bd 0898 70bd
00000290: b263 8ebc 0ce4 03bd 7c39 dcbc 2684 7bbd
000002a0: 9b37 91bd cbfd 91bc a353 d1bc 296b 0ebc
000002b0: 3ae8 5cbd 635f ac3c 0576 6ebb 41d0 94bd
000002c0: af82 233c 87c0 5a3c a4b1 843c f987 1ebd
000002d0: a76c 4e3c b64c e4bc 20bd 993c 149c cf3c
000002e0: 514a 8ebc 288e 1d3c f6cd c43c 0abe d9bc
000002f0: 641e bebc bf9c 43bd 9690 3bbc a7b6 5fbd
00000300: f5e8 0fbc 5854 29bd 6e6b a7bc 62bf 84bd
00000310: b2d8 97bd 9eba d139 c0b0 56bd 6b77 45bd
00000320: 38b3 17bd 1c6b 64bd bcb5 673c 3198 1b3c
00000330: ca52 69bd b867 8cbc 92f2 8dbd 313c 77bd
00000340: f1d3 6d3c 1466 3a3c 514f 733c aca9 a3bc
00000350: 5818 e33c c680 d93c cedb 9bbc 8efd 0dbd
00000360: 241e f7bc 19d8 89bd b27a 10bd ca07 7cbd
00000370: 1588 0cbc 883a 033c 8068 85bc b0de 3cbd
00000380: 348e 29bd 2b37 8bbd 063e 9f39 c035 db3c
00000390: 2628 80bc 5816 64bd 1ea1 f2bc 7379 24bd
000003a0: 5980 d13c e5fb 87bd 2ec3 02bd 62d6 c0bb
000003b0: 147b 5f3c e977 88bd 66ff 3ebd 0e9c 923b
000003c0: 7eb8 8fbd 0cef 7f3c 0a72 e9bb 00a6 5fbd
000003d0: 8c79 963b 627e 21bd 6de9 9cbc 9738 04bd
000003e0: cb11 85bd bb64 0ebd eaf5 00bc 9b09 8dbd
000003f0: a4a7 4bbd 70c1 bebc 8dfa ddbc 6d09 fcbc
-0.016472545 0.033869833 -0.0015167026 -0.07069844 0.033990443 0.01363235 0.0068471506 0.011929278
-0.06048461 0.016515963 -0.0015727147 0.017359182 -0.06213394 -0.029865203 -0.038231768 -0.05165864
-0.06284724 0.011638659 -0.016398868 -0.023930324 -0.05359078 -8.502501e-05 -0.02723427 -0.049469348
-0.037660144 -0.023831837 -0.0668348 -0.064588934 0.0006938293 0.013097532 -0.02053921 -0.013898147
-0.04018775 -0.0617064 0.024004696 -0.009353637 -0.04181286 -0.05526855 0.015397103 -0.0327011
0.012511281 0.010313166 0.02748697 -0.0408396 -0.0016476492 0.013625999 0.020007648 -0.0051519545
-0.02582216 -0.03531816 -0.037682552 -0.036125552 -0.019095792 -0.04020392 0.014673427 -0.012715176
-0.030188074 0.025002746 0.029045835 0.01418529 -0.024992768 -0.041876644 -0.0705087 -0.043213014
-0.040212214 -0.026020776 0.023568897 -0.0075123785 -0.06775609 -0.03049467 -0.059113037 -0.026393937
0.010016961 0.025562257 -0.004982815 -0.065725096 0.01628183 -0.021535583 -0.045374494 -0.0013993471
0.00031906588 -0.054300252 -0.050972577 -0.03366521 -0.005259568 0.010527634 -0.032157954 -0.052062936
-0.0045047747 -0.045297608 0.006324555 0.0035196913 -0.016756166 0.0062987627 0.015293228 -0.060606975
-0.06919017 -0.048477966 -0.030714117 -0.026182622 -0.014582375 -0.046829663 -0.05894979 -0.03186489
0.013350999 0.014343535 -0.057431106 -0.029103484 0.009115328 -0.008728609 -0.0052717784 -0.000754906
-0.0670871 -0.022359908 0.02439924 -0.028417215 -0.008480421 -0.06832515 -0.049710963 -0.06890738
-0.04352544 -0.0066615753 -0.0012865216 -0.03868076 0.001726181 -0.013692117 -0.07261675 0.018102774
-0.050559644 0.017543469 -0.005763834 -0.021328744 0.003913273 -0.031240277 -0.042306174 0.027863491
0.0031884927 -0.03790013 0.022148637 0.014077495 -0.02452778 0.023087291 -0.04121251 -0.004739509
-0.00029654967 0.012179822 -0.06704857 0.0059212903 -0.05830084 -0.04978277 -0.046090152 -0.0304568
-0.06478331 0.012134106 -0.0575523 -0.03970678 -0.060732402 -0.03291103 -0.06953311 -0.008241983
-0.048923258 -0.01707876 -0.0315327 -0.05873874 -0.017381523 -0.032199904 -0.02688288 -0.061405323
-0.07090684 -0.017821213 -0.025552576 -0.008692541 -0.053932406 0.021041578 -0.0036386263 -0.07266284
0.009979888 0.013351566 0.016197987 -0.038703892 0.012599147 -0.02786861 0.01876694 0.025342979
-0.017369421 0.009616412 0.024023991 -0.026579875 -0.02320785 -0.047756907 -0.011448046 -0.05461755
-0.008783569 -0.041340202 -0.020436969 -0.06481816 -0.07414378 0.00040002627 -0.052414656 -0.04820959
-0.03703615 -0.05576621 0.01414245 0.0094967345 -0.05696372 -0.0171393 -0.06931032 -0.060360137
0.014515863 0.011376876 0.0148504535 -0.019978367 0.027721569 0.026550662 -0.01902571 -0.034665637
-0.03016574 -0.067306705 -0.03527326 -0.061530866 -0.008577366 0.00800956 -0.016285181 -0.04611081
-0.04139538 -0.06797632 0.00030373054 0.026759028 -0.015644144 -0.05568537 -0.029617842 -0.040154886
0.025573896 -0.06639842 -0.03192442 -0.0058849314 0.013640184 -0.06663496 -0.046630286 0.0044741696
-0.07017611 0.015620958 -0.00712419 -0.05460167 0.0045921262 -0.03942717 -0.019154275 -0.03228053
-0.06497534 -0.034764033 -0.0078711305 -0.06886598 -0.04972042 -0.023285598 -0.027097011 -0.030766213

bias f4 [32]
00000000: c101 c33d f909 55bd f6d9 8b3d f338 63bc
00000010: e5d2 0a3e d26c ad3d 19ab 81bc 21c5 613d
00000020: 0242 b2bd fe2b ebbc 1c3a 53bd c38a ae3d
00000030: 6d2f 83bd 0583 30bd ec6b b9bd 9d21 ae3d
00000040: 766a ecbd 0925 a53d 2fba c73d a1b5 0c3d
00000050: 2225 b1bd 363d 69bd bb44 823d 6d7e adbd
00000060: 64ee 2b3d bf76 813d 2e72 aa3d cc79 b4bd
00000070: 83a0 3e3d c330 d93d e8c1 9d3c da7c ca3d
0.09521819 -0.052011464 0.06828682 -0.013868558 0.13557012 0.084680215 -0.015828656 0.055119637
-0.08703996 -0.0287075 -0.05156909 0.085225604 -0.0640553 -0.0430937 -0.090537876 0.08502505
-0.11543743 0.080637045 0.097523086 0.034352902 -0.08649661 -0.05694314 0.063607655 -0.084713794
0.041975394 0.06321477 0.08322559 -0.088122934 0.046539795 0.10605004 0.0192575 0.09887095

weight_ih_l0 f4 [96, 32]
00000000: 6584 86be 9dd2 f5bc 36b1 393e 94c6 d5b9
00000010: 602d 72bd f5dd d83d f657 44be 75c6 c8bc
00000020: 6dde 47be 18a8 b4bc 67c5 5fbd a6b1 a23d
00000030: 4084 e8bd 9491 493e 56cf 6c3d 8487 2a3e
00000040: 6e9a c73d 9410 2dbd 8f98 1dbe a84e 3dbd
00000050: ff68 dabd 4272 ac3c 2279 01be 3b59 673e
00000060: 4bb2 4abc 83bc 03be 8399 bfbd 8fed ffbd
00000070: 2bcd 633d 4ace a63d 0125 833d 85e2 893e
00000080: ba57 16bd 7958 17be fc10 8b3e a471 3fbe
00000090: a6bd 14bd ad4c 19be 95bb 7fbe ed48 0bbe
000000a0: 9800 f23a c27a 643c f80e 6e3d c907 ec3d
000000b0: 1a2d 1ebe 4a9e 973d b1bf dbbd d5cc 423e
000000c0: 2ee8 e93c 58bf f3bd 6412 53be e052 c1bd
000000d0: ce6e 2bbd bbc3 f8bd 65e1 37bd a937 253e
000000e0: 8cd8 b53d a74b 31bd f729 0fbc c727 92bd
000000f0: 8bcd c63d fa6a 8a3e ac7b 2c3d 1425 803d
00000100: 3e2d 5bbe 721e a1bd 8737 893e 37db 6cbe
00000110: 1553 3c3e eb9d 25bd 9ff6 bfbc 0d6a dabd
00000120: e526 52be 55ca dfbd af61 b8bd 6b2a 443c
00000130: 8286 3f3c 4043 a73d 7c8f 143d 403c f53c
00000140: de91 373d 8472 af3d d458 02be 6c5a 1b3d
00000150: e942 92be a1d1 313c 4f3e 4abd c318 37bd
00000160: 2d38 613e 4f36 06be 869c 0e3e 3078 78bd
00000170: 21ff 4fbe 0830 cc3d 527a ce3d c1fa 293e
00000180: 5128 2d3c c99b 89bd 4168 1b3e 4c83 5bbe
00000190: 64c2 27be 2cce 9cbd ab8b f4bd fcbb 1abd
000001a0: 2ce3 8bbd 32d8 cabd 2aaf 0abe 592a 423e
000001b0: 611b 2abe ae69 393e f9aa 74bd f44f bc3d
000001c0: 741c 72bd 0a66 5fbe 12ac 55bd 8055 20bb
000001d0: 35e0 583e 5515 81bd 6568 b9bd 3403 c33a
000001e0: a8b4 15be d927 3d3e b60f 5e3d b34f 063e
000001f0: 6670 a8bd e446 c73d c675 8fbd 92ff d73d
00000200: 1088 d73a d131 4abe 9db8 f03b 8d5f 743d
00000210: df1d 613d 3d64 02bd f23a 7dbe a0af 64be
00000220: deac 17be c8a4 87bd a8e8 48bd acc8 023e
00000230: 8f65 eebd 3b60 893e c9bf 0d3e d3c4 373e
00000240: 9b0c 3a3c 4aa1 0abe c5b6 933d 9d07 d43c
00000250: 5755 03bd fd1e 89bd 403b ecbc 930c 5f3b
00000260: fb4e 01bd e6f1 443e 440a 483d bfc8 be3d
00000270: 9eaa 8abe 15d9 643e fb81 bdbd dedd f63d
00000280: e01d 773d 797b 85bd 556c 033e 9831 443e
00000290: e209 5abe a844 f43c 54fe bebc f4cb c33d
000002a0: a163 133d cd4a 6e3b 6c5c ec3d d581 b0bd
000002b0: 2507 703d 24df 2dbe 2e1c e6bd 9845 32be
000002c0: 2ff8 ce3b dcb0 f2bd 90e8 513e 170a 88bd
000002d0: 0867 c63d 50e4 f1bc e496 04bd cc27 cc3d
000002e0: 5570 3d3d ca5e b13d 5e11 f83d 7c09 a03d
000002f0: 36d1 1bbd da9e 073e 37bf 353e 219c e63c
00000300: 6297 a7bd 1efb 8d3d 7631 ad3c 8b40 8e3d
00000310: c54b 35bd dbfe e23d 0d8b 17be 6070 21ba
00000320: ab30 39be 731f 453e 87a5 ef3c e3b7 2d3e
00000330: 5c63 753e 72ac 163d 502a 9cbb c2da a93d
00000340: 1bae ebbd b439 aabd 22c9 303c 5505 483d
00000350: 340c 053e 7fcd a4bd b17f 093e ef9a adbd
00000360: c085 03be 2da0 323e dcdc c73d ea52 febd
00000370: cc96 fb3c e586 a33e 162d bf3d 0977 ebbc
00000380: 3a65 193e 4835 c2bc 5fde 163d 189e 15be
00000390: 5b68 54bb daa1 343e 9bf5 a53c bb73 033d
000003a0: 9df6 f7bc b859 4e3a f9c0 d4ba 8f0c cfbc
000003b0: 7328 ebbd 76a4 3fbd ccd8 a7bd 42e4 203d
000003c0: 2a1b 84be 243b 66be 3058 a8bd fec2 f1bd
000003d0: 053c 8a3e 686b 3dbe fdc0 c1bb aa3a 163d
000003e0: fb89 aa3c 7368 7c3e 38de 393d 298c 8f3d
000003f0: 2919 05be 8287 cd3d 6b5c 8e3d 0eba 09bd
-0.26272884 -0.030007655 0.18134007 -0.00040774478 -0.059125304 0.1058921 -0.1917418 -0.024508694
-0.19518442 -0.02205281 -0.054631617 0.0794404 -0.1135335 0.1968444 0.05781492 0.16653258
0.09746252 -0.04225214 -0.15390228 -0.04621759 -0.10664558 0.021050576 -0.12643865 0.22592632
-0.01237161 -0.1286488 -0.09355452 -0.124964826 0.055615585 0.08144815 0.06403542 0.26930633
-0.036704756 -0.14779843 0.27161396 -0.18695694 -0.036313675 -0.14970656 -0.249739 -0.13602038
0.0018463312 0.013945283 0.058119744 0.115249224 -0.15446892 0.07403238 -0.107299216 0.1902345
0.028553095 -0.1190173 -0.20612484 -0.09439635 -0.04185372 -0.121467076 -0.044892687 0.16134514
0.08879194 -0.04328504 -0.008738033 -0.07136493 0.09707173 0.27034742 0.04211013 0.06257072
-0.21403977 -0.07867135 0.26800177 -0.23130499 0.18391068 -0.040433805 -0.023433028 -0.10664759
-0.2052265 -0.10927264 -0.09003007 0.011973004 0.011689784 0.08167124 0.03626965 0.029935956
0.044816844 0.08566764 -0.12729198 0.03792803 -0.28566673 0.010853202 -0.04937583 -0.04470135
0.21994086 -0.13106655 0.13926896 -0.060661495 -0.20312168 0.09970099 0.100819245 0.16599561
0.010568694 -0.06719167 0.15176488 -0.21436805 -0.16382748 -0.07656512 -0.11940702 -0.037776932
-0.06830439 -0.09904517 -0.13543382 0.18961467 -0.16612007 0.1810672 -0.059733365 0.09194937
-0.059109166 -0.21816269 -0.052166052 -0.0024465024 0.21179278 -0.06302897 -0.09053115 0.0014878274
-0.14619696 0.18472232 0.054214202 0.1311634 -0.08224563 0.09730318 -0.070048854 0.10546793
0.0016443748 -0.19745566 0.0073462264 0.059661437 0.054960128 -0.031833876 -0.24729517 -0.2233262
-0.14812037 -0.066232264 -0.049050003 0.12771863 -0.116404645 0.2683123 0.13842691 0.17946176
0.011355544 -0.1353809 0.07212595 0.025882537 -0.03206381 -0.06695364 -0.028836846 0.0034034594
-0.031569462 0.19232902 0.048837915 0.09315633 -0.27083296 0.22348435 -0.092533074 0.120540366
0.060331225 -0.06517691 0.12834294 0.19159544 -0.21292832 0.029817894 -0.023314632 0.09560385
0.035983685 0.0036360503 0.115410656 -0.086185135 0.058600564 -0.16979653 -0.112358436 -0.1740936
0.006316207 -0.118501395 0.20498872 -0.066425495 0.096876204 -0.029527813 -0.032370463 0.09968528
0.046249706 0.08660658 0.121126875 0.07814309 -0.038041316 0.13244191 0.17748724 0.02815062
-0.08183171 0.069326624 0.021141749 0.06945904 -0.044261713 0.11083766 -0.14799137 -0.0006158408
-0.18084972 0.19250278 0.029253734 0.16964678 0.23963684 0.03678555 -0.004765786 0.08293678
-0.11507817 -0.08311787 0.010790141 0.04883321 0.12992936 -0.08047008 0.13427617 -0.08476817
-0.1284399 0.17443915 0.097589225 -0.12418158 0.030711554 0.31938854 0.09334771 -0.028743284
0.14980021 -0.023707047 0.036833163 -0.14611089 -0.0032410834 0.17639866 0.020258715 0.03209279
-0.030268962 0.00078716455 -0.0016231827 -0.025274543 -0.114823245 -0.0467877 -0.081956476 0.039280184
-0.25801975 -0.22483498 -0.082199454 -0.1180477 0.26998916 -0.18498003 -0.0059128986 0.03667704
0.020817747 0.24649219 0.04537794 0.07009155 -0.12997879 0.10035612 0.06951221 -0.0336247

weight_hh_l0 f4 [96, 32]
00000000: 221a 2c3b 007f fdbd 4d81 933d 1521 463e
00000010: cb90 613e 1f0d 8cbd c9c1 c63d d8da 9f3b
00000020: 01a4 33bd 2509 223c 4669 9f3d 39fe fd3d
00000030: 7149 92bd 7058 0d3d 27c0 123e 3cf6 ff3c
00000040: 7133 ad3d 1d0a debd 5363 4cbe ffc8 4b3e
00000050: 3abc 6ebc 756a a53d fce7 42be db87 d1bd
00000060: b09e de3d df34 f63d 7217 113e 0051 623e
00000070: 864f 85bc 6255 d73c 3e8a 43be 95bb cdbd
00000080: d24d ddbd f8a3 d8bd d47c 963d 43fe 0cbe
00000090: 8922 a5bd be41 98bd 4fd3 a13c 306b cc3d
000000a0: ca23 d33d 126d 83bc a5c4 ebbd c958 8cbc
000000b0: 56dc b6bd d1c0 16be e29c f83d 8e15 19be
000000c0: 989a 25bd a48d 123c c32a b93d 2a5c 07be
000000d0: 39a9 fabd 9b2b 0b3d da69 853c 6f89 f43b
000000e0: 5afa 24bd 5abe 1abd bb71 033e 1e7e 1dbe
000000f0: 019b 293e bec1 14be 3397 e83b 0687 b43d
00000100: 47c2 683e 1301 213e f0b5 0c3e 490e 5b3c
00000110: 6f1c bcbd 3681 a4bd 0f0f a43d e96e 393a
00000120: af93 66be 7825 923d d089 bbbd 11d2 303e
00000130: 7684 07bc 6286 37bd c67b 0fbe 6ccc aebd
00000140: e44d dd3b 6a96 503e 72fa df3b 7b9c a63d
00000150: 9d4a ef3d 5a95 c03d 9d42 8c3d 5abf 3cbc
00000160: 9239 5a3d 1e4d 31bd 2257 443e d850 67bc
00000170: 4c2b 913c 76a3 3dbe 995c 62bc b176 fabc
00000180: b9de 75be cb0c 95bd fa88 03be e6c7 91bd
00000190: 7bde 2b3e ff8e a6bd f946 773c c7b2 06be
000001a0: f7e4 f4bd 38fc 99bd dfd0 0cbe a46f 363d
000001b0: f288 90bc ba84 e0bd 9f6d f53d fa9e 23be
000001c0: 65de 30be 4457 62bd 8a22 173e af1b f2bd
000001d0: 2929 02be 8e33 df3d e5fa 9bbd ae69 c4bc
000001e0: a635 1cbe bedd 1c3e e930 88bd ea75 213e
000001f0: 6173 a7bd 2ec5 1bbe 9f30 edbd 8565 9bbc
00000200: cc9e 33be 58f7 18bd f4ac b93c 73e6 133e
00000210: 2e73 0abe bc3d e6ba 8359 073d b4f4 043e
00000220: 0873 6abd 102c 2abe 7f82 2a3c 864f 363e
00000230: 9f7f 493d 2ce8 2bbe 2488 e13c e945 0f3c
00000240: ff40 31be 3204 1fbd 8b3f 303d 92b9 b3bd
00000250: 6626 053c 2b44 6d3d bcdb ac3d 783c 2fbd
00000260: 9bc3 d1bd e7d7 7a3d 36d6 a1bd 17db a6bd
00000270: 16a8 89bd 4d7e c2bd 7b36 9fbd 90b6 16be
00000280: 82df 123e b290 78bd d018 2c3e bbb1 a83d
00000290: 2047 e6bd 8f55 933c 4fa1 913d 1164 5f3d
000002a0: af52 47bc ad83 bf3d f90c 3dbd 1222 b1bd
000002b0: 1884 083e 8a0f b03d 2583 82bd 474b 423d
000002c0: 6750 0ebe 15af 23be 722f cf3d 1b5f 793c
000002d0: 8d6c d53d 90bf 493e 3696 2b3e 910e 663e
000002e0: 8d29 8ebd 14e6 783c 33ae 013d 5d81 833c
000002f0: ff67 643e 6cbb 393e 4f9a a9b9 1b00 a8bd
00000300: 8508 313e 74b9 e7bd e160 9bbc 02df 743d
00000310: ab9b 1f3d 7af8 4f3e 6b7f be3b a605 0b3e
00000320: 24e7 143e e28b 963d 5087 04be 2592 f6bd
00000330: c112 6cbe 7218 643d fa07 f7bd 7777 383e
00000340: 474b a3bd cc93 083d 0b42 ee3d 85b7 23be
00000350: ef84 0dbe fb6c 233e 9acb 23be ad44 11bd
00000360: 8055 40bd 00e8 e73d d37e 25be c8b5 133e
00000370: aefd 3e3d 5ac5 843d 2fe0 243e 46e8 a0bd
00000380: 4f8a 08bd 115c 953c e734 6e3d dc77 7fbd
00000390: f10a 87bd b0ca aa3d 2cc1 4dbd 2d6a 9e3c
000003a0: 3e4b 353e 1267 84bb 3cca df3d 838e f43b
000003b0: 4f11 5dbe 1a5f b6bd c6c4 c3bd 8e01 1d3e
000003c0: 1ff7 a3bd 23ef 59bb bac0 a4bd 5a35 bbbd
000003d0: a4fa 04be bf5a 03be 9766 993d 8187 bd3d
000003e0: 4ceb 083e 6348 d5bd c389 fdbd 28ee 023e
000003f0: dc7b 573e 66ff 333e 5d9d ef3d de52 06be
0.0026260694 -0.12377739 0.072023965 0.19348557 0.2202789 -0.0683844 0.0970493 0.004878383
-0.04385758 0.009889876 0.07783751 0.12402005 -0.07142914 0.03450817 0.14331113 0.031245343
0.08457077 -0.10841773 -0.19959764 0.19900893 -0.014571244 0.08076946 -0.19033808 -0.102309905
0.10870111 0.12021803 0.141691 0.22101212 -0.016273271 0.02628583 -0.19095704 -0.10045544
-0.10805859 -0.105781496 0.07348028 -0.13768868 -0.08063228 -0.07434414 0.01975408 0.09981382
0.103095606 -0.01604322 -0.11512116 -0.01713218 -0.089287445 -0.14721991 0.12139298 -0.14949629
-0.040430635 0.008944903 0.09041359 -0.13218752 -0.12239308 0.033977132 0.016285826 0.0074626724
-0.040277816 -0.03777919 0.12836353 -0.15380141 0.16563036 -0.14527032 0.0070981025 0.08814816
0.22730361 0.15723066 0.13741279 0.013370105 -0.09185111 -0.080324575 0.08010685 0.0007073717
-0.22517274 0.07136053 -0.09157145 0.17267634 -0.008271327 -0.04480589 -0.1401206 -0.08535084
0.00675367 0.20369878 0.0068352753 0.08135315 0.11684153 0.094034865 0.06848643 -0.011520231
0.05327756 -0.043286435 0.19173864 -0.014118396 0.01772084 -0.18519387 -0.013816022 -0.030574175
-0.24010743 -0.07277831 -0.12845221 -0.07118206 0.16784088 -0.08132743 0.015092605 -0.13154136
-0.11957734 -0.0751881 -0.13751553 0.044540063 -0.017643426 -0.109628156 0.11983799 -0.15978613
-0.17272337 -0.055259004 0.1475927 -0.118216865 -0.12711014 0.10898505 -0.07616214 -0.023976173
-0.1525484 0.15318963 -0.06649954 0.15767637 -0.08176304 -0.15211937 -0.11581539 -0.018969307
-0.17541045 -0.03734526 0.022665478 0.14443378 -0.135205 -0.0017566006 0.03304435 0.12983972
-0.05723861 -0.16618371 0.010407089 0.17803773 0.049193975 -0.16787785 0.027530737 0.008744695
-0.1730995 -0.03882236 0.04302935 -0.08775629 0.008126831 0.05792634 0.084403485 -0.042782277
-0.10242387 0.061241057 -0.079021856 -0.08147257 -0.06721513 -0.09496746 -0.07774063 -0.1471808
0.14343074 -0.060684867 0.1680634 0.082370244 -0.11244035 0.017985133 0.07110845 0.05453879
-0.012165709 0.09351287 -0.04615495 -0.086490765 0.1333164 0.08596714 -0.0637267 0.04743507
-0.13897859 -0.15984757 0.10116471 0.015220429 0.10421095 0.19701982 0.1675652 0.22466494
-0.06941519 0.015191574 0.03166027 0.016052896 0.22305296 0.18137902 -0.0003234916 -0.08203145
0.17288406 -0.11314669 -0.018967094 0.05978299 0.038966816 0.2030963 0.0058135292 0.13576373
0.14541298 0.07350899 -0.12942243 -0.120395936 -0.23054029 0.055687375 -0.12062068 0.18014322
-0.079733424 0.033344075 0.116336904 -0.15987976 -0.13820241 0.15959541 -0.15995637 -0.035465885
-0.04695654 0.11323547 -0.16161661 0.14424813 0.046628647 0.06482954 0.16101144 -0.07856803
-0.033335026 0.018232377 0.05815592 -0.062370166 -0.06593884 0.08339441 -0.05023305 0.019337738
0.17704484 -0.0040406073 0.10927245 0.007463278 -0.21588634 -0.08904858 -0.09559016 0.15332624
-0.08006119 -0.003325411 -0.08044572 -0.091410354 -0.12986237 -0.12827586 0.074902706 0.09254361
0.13371009 -0.10414197 -0.123797916 0.12786162 0.21043342 0.17577896 0.116999365 -0.13117549

bias_ih_l0 f4 [96]
00000000: ad35 9eba cd59 dfbd 7016 dd3b 2db7 6e3e
00000010: f446 b13c f87e 98bd 7314 283e 96dd e23d
00000020: e50e 88be 31d8 f43d 39a9 443e 4568 373d
00000030: 1d5a f43d 1c9d 0abd 2a1f 073d 82fd 5c3e
00000040: 3b9e b0bc 0dbc 28bd dfbe 6abd a2d5 ca3d
00000050: eab2 0e3d c7ed 513e 21d5 fb3d 2374 483d
00000060: 2b29 8d3e d067 dfbc 32df 053c 514f 05be
00000070: 30b6 253a fb6f 11be 232a 9cbd 563f 333e
00000080: fca3 d93d f112 22be db14 c73d fd02 55bd
00000090: 8cba 2fbe fc2a 93bd e78c 8dbc b0fc 3abe
000000a0: 38d0 10bd 4339 45be a15c 123d c969 16bd
000000b0: 83fc 15be 6ccd b5bd 6ca2 92be 468f f8bd
000000c0: 2bf8 953d ab7d 883d 0764 c03d 5520 5bbd
000000d0: fed5 993d 43cb d5bc 3d7c 4bbe 73d6 1dbe
000000e0: 9d63 20be 5240 0ebe fdb9 c6bd cd4f 353e
000000f0: 3694 dabd f8ab 78be 2e6b 283b c1ce c8bd
00000100: 117d 59bd e489 bdbd 4726 f6bd 69ea 14be
00000110: eaf9 ccbc 303a cc3d 5914 45bd de1a 2d3e
00000120: 5f08 35bd f473 273d 7ef4 ae3d 22ba 153e
00000130: 6a08 03be 0e11 0abe 2b80 09be e53c 80bd
00000140: 8c40 c0bd 9397 343e f7b5 9d3d 0de9 893d
00000150: de94 cbbd d1ec 46be 2aeb a4bd 284d bbbd
00000160: d730 31bd fccf f2bd 8ced 06be 9270 e3bc
00000170: 04ef aabd 4edf 0b3e 930a f1bd d0ed f9bd
-0.001207044 -0.109058 0.0067470595 0.23312064 0.021640278 -0.07446092 0.16414051 0.110774204
-0.26573864 0.11955298 0.19205178 0.044777174 0.1193125 -0.033841237 0.032988705 0.2158108
-0.021559825 -0.041194964 -0.057310935 0.099040285 0.034838594 0.20500861 0.122965105 0.04893888
0.2757047 -0.027271181 0.00817089 -0.13018538 0.00063213985 -0.14202873 -0.076252244 0.1750463
0.10626981 -0.15827538 0.09720775 -0.052004803 -0.17161006 -0.07185933 -0.017279102 -0.18260455
-0.035354823 -0.19260125 0.03573287 -0.03672198 -0.14647107 -0.08877072 -0.28639543 -0.12136702
0.07322725 0.06664594 0.09394079 -0.05349763 0.07511519 -0.0260979 -0.19871612 -0.15413837
-0.15663 -0.13891724 -0.09703443 0.17706223 -0.106728 -0.24284351 0.002569865 -0.0980506
-0.05309779 -0.09254816 -0.120190196 -0.14542545 -0.025021512 0.09972036 -0.04811511 0.1690478
-0.044197436 0.040882066 0.08542727 0.14621785 -0.12796178 -0.13483068 -0.13427798 -0.06261615
-0.09387311 0.17635946 0.07700723 0.06733904 -0.099405035 -0.19426276 -0.080526665 -0.09145576
-0.043259468 -0.11856076 -0.13176554 -0.027763639 -0.0834637 0.13659403 -0.11769595 -0.12203562

bias_hh_l0 f4 [96]
00000000: f5b6 053e 0e23 dd3d 37b6 e2bd d1fc f03d
00000010: f194 953d cb5e 07bd 0e58 303e c491 2e3d
00000020: 66ae 81bd 3aa3 cfbc cab1 c83d 79ab a7bd
00000030: bcc5 bf3d 093f 003e 287e c93d 7dd5 503e
00000040: 2dfa 2cbb 0328 80bd 9791 3abd a100 4cbd
00000050: 1e31 0b3e aeac 27bd 669f 9abd 3fc1 a8bc
00000060: c44e 053e 3942 f7bc 2d13 ac3c 285a 04be
00000070: b853 013d e45b 07bd 9480 2d3d 5841 f43d
00000080: 5a79 7cbc 03c3 463c 82b9 c2bd 0729 15bd
00000090: 98b3 d3bb 2bbd f5bd 0f96 1dbd b671 96bd
000000a0: b6fc 2ebe de95 ba3c 1328 62be 71fa 42be
000000b0: aca3 933c 2deb b93d 3f3b bcbd 70bd 24be
000000c0: eb92 693d 49de babd 2510 94bd 459b 1bbe
000000d0: 4021 123d 5849 02be 7abb 01be 82e8 afbb
000000e0: 8bd7 353d 50d6 b0bd d6a9 9dbe 2844 a63c
000000f0: 0ffa cf3d 0e85 8dbe 88e3 60be 6b1d 06be
00000100: 7685 493d 02df fa3d b26f 2fbd f337 42be
00000110: fa4e 8f3d 4ea5 483d 498e 2e3d f552 1dbe
00000120: bd2d 0c3e d22c 0a3e f519 463d f45c 96bd
00000130: a260 663d d0e2 edbd 77aa 1abe 9306 92bc
00000140: 8357 d33d fe14 213c 533e d63d ea7e 50bc
00000150: 1173 bcbd 77c7 06be ebd3 863d aabe 13be
00000160: 2931 db3d b1ca 17be fcda c2bd 0724 38be
00000170: 372c 473c 47e6 2ebe 1b61 9e3d 185e c03d
0.13058074 0.10797702 -0.11069911 0.11766971 0.07303799 -0.033049386 0.1722109 0.04261948
-0.06332092 -0.025346387 0.097995356 -0.08187003 0.09363887 0.12524046 0.098385155 0.2039394
-0.0026394234 -0.06257632 -0.045549 -0.049805287 0.13592955 -0.040936165 -0.07549934 -0.02059996
0.13018328 -0.030182945 0.021005237 -0.12925017 0.03157398 -0.033046618 0.04235895 0.11926526
-0.015409792 0.012131455 -0.09508039 -0.03641608 -0.006460618 -0.119989716 -0.038473185 -0.073459074
-0.17088589 0.02277654 -0.220856 -0.19040848 0.01802238 0.09078059 -0.09190988 -0.1608789
0.057024878 -0.09124429 -0.07229642 -0.1519595 0.03567624 -0.12723291 -0.12669173 -0.0053682933
0.04439501 -0.08634627 -0.30793637 0.020296171 0.10155117 -0.27640575 -0.21961796 -0.1309716
0.049199544 0.122495666 -0.04283113 -0.18966655 0.069974855 0.04898577 0.042616162 -0.15363677
0.13689323 0.1349366 0.0483646 -0.07341948 0.0562445 -0.11615527 -0.1510409 -0.0178254
0.10319426 0.009831665 0.10461106 -0.012725571 -0.09201635 -0.13162027 0.06583389 -0.14428201
0.10702736 -0.14823414 -0.09514424 -0.17982493 0.012156538 -0.17080031 0.07733365 0.09392947

weight_ih_l0 f4 [96, 32]
00000000: 16b5 20bd 0b8c bc3d bf56 acbc d541 853b
00000010: a1c9 22be 1efd 84bd 3136 3dbd c0e3 643e
00000020: 1192 2cbe 52fc c6bd f653 adbd 1545 473e
00000030: 41ee f3bd bb52 f5bc c955 c0bd 75c0 2f3e
00000040: a52b 1b3e 63ac e83d 33e5 3b3e 0340 6fbd
00000050: caca 09bd dc20 12be 517c ddbd e98b 17be
00000060: 1bb1 1cbe 8dc8 a23d 3bd5 1a3e ff30 183e
00000070: 2fa8 ad3a bf10 9a3d 605f 24be 8c1e 1e3e
00000080: 5cc5 a03b b6cf 22bd 573f 98bd 3e1c d9bd
00000090: a38b bd3d 3b4c 23be c738 193e a99a d0bd
000000a0: 924d f33a 38c6 f1bd acb1 31bb 5c48 c63d
000000b0: 24f4 07bb bdfb 38be 2ad6 0abe 1e37 953d
000000c0: e335 42be 2c80 083e c50d 3c3e 9435 21bd
000000d0: 0915 143e c1d7 46bc 3f98 b73d 2e3f 9b3d
000000e0: 3200 b0bd 46d5 a83d 3945 5ebd 6466 aebc
000000f0: 0135 063e 4ba5 01be fad9 873d 9fea 823c
00000100: e996 e5bd e1f2 1cbe 2722 c13c 9ee2 d9bd
00000110: 92f6 afbd 0f51 2b3c 81c2 4e3d 8234 c63d
00000120: d8d2 433e b76e a3bc f3b4 4fbe c3d6 debc
00000130: 1d2f 12be d6dd efbd 1813 223e e3c7 c43d
00000140: 59d8 aa3d 91d2 01be 93ce 7dbd 1a91 a73d
00000150: c09a cc3d f089 013c e736 993c 5f8a fcbd
00000160: 0fff c23d 1273 dcbc 1fbf 67bd 94cc 15be
00000170: 08d2 3abe 9a60 5f3c 5785 cd3d 5f3f 34bd
00000180: fdce 2abe 666b d23d f6d1 833d 6572 803c
00000190: fa15 04be 048a 36be 22a0 afbd d321 a93d
000001a0: 1a08 623d 59c6 1bbd bdf4 ec3d 1965 2fbe
000001b0: c36e 443e b0db 45be 0ce3 f33c aee3 853d
000001c0: e96c 663d 6013 c9bd f33e 92bd 1520 88bd
000001d0: 7ae6 88bd 7f36 61bd ed18 17be be69 02be
000001e0: fea8 abbd 6daa 153e 51d7 3ebd 360b ea3d
000001f0: 47ee 83bd 1893 223e fc3c 073e c5ef 6fbd
00000200: 794b 2b3e 1fac 83bd fac3 493d 903d 40be
00000210: ae64 4d3e 7892 cc3d 8408 d5bd 5da8 f73c
00000220: 0857 19bd 7073 dfbc a1ce 6ebd ea9a 51bc
00000230: dc94 19be d6b3 243e 8d4f 033d 816f a03d
00000240: ddb1 42be 4339 3ebe a826 ca3d 0efc af3d
00000250: b6aa 943d 75cd a93d 2e21 1a3e cedf 6abd
00000260: 66dd 823d 671c 493d a54a 8c3c 0819 99bd
00000270: 6c4c 463d f636 81bd b16d 463e dd1d edbd
00000280: 76ed 8f3d 96f8 c1bd 3234 603e cf24 f43c
00000290: a5ce 94bd 5fe2 183d 421b d93d c5d8 f1bd
000002a0: ffa3 a33d e562 e13d ead9 adbd 14a2 c43d
000002b0: 7d46 b3bb 3dfd 8e3b 86c1 aebd c173 d8bd
000002c0: 71a1 ebbd 1426 193d 86c8 2d3e 4900 9e3d
000002d0: 41ce a9bd 30d1 1fbe 4c5f a0bd 04ad 70bd
000002e0: 2eb5 f53c 29f9 4bbd e7fb 4d3d d494 cb3b
000002f0: d5d1 22bd 477b 10bd a054 453c cbba 9abc
00000300: deec 043e 0981 cb3d c10d 2b3e e505 b43d
00000310: 2140 c83d 2f9b c23d cca7 fa3d 3f96 a63c
00000320: aaec a4bd ed3a 0a3e 26bd 9bbd acbf 393d
00000330: a87d ffbc dfe1 ccbd 3be9 d2bd f02d bbbb
00000340: 9359 223a 0d7a 113e f541 9f3d 98a7 123e
00000350: 457c fd3d 38fe 4dbb c063 e93d f3b9 8d3d
00000360: fcdf 63be c37b 38bd 3995 10bd 73da 05be
00000370: 270c 343d 698f b6bd a4e1 323e fe40 37bc
00000380: d273 35bd 6350 51bd e23a acbd 2001 503d
00000390: c173 1cbe 5eb4 633d 2815 9fbd 272f 863c
000003a0: b863 24be f908 b23d 139d 913d 83fd d63d
000003b0: ba30 04be 1e84 b03c 85ba 9ebd 5ab5 0e3e
000003c0: d533 273c c59f 383d 8be6 23be 7a10 013e
000003d0: fe17 e63c 806a e33b d647 b1bd 8ceb dbbd
000003e0: 072c 0f3e c4ed 433e 7d0c 25be fb2e 91bd
000003f0: 117c 473d c3d9 2e3e 9ab8 873a 2c0e ccbd
-0.039235197 0.092063986 -0.021037458 0.0040666857 -0.15897228 -0.06493591 -0.04619426 0.22352505
-0.16852595 -0.09716095 -0.0846328 0.19459946 -0.11910678 -0.029946676 -0.09391362 0.1716326
0.15153368 0.11361005 0.18349151 -0.058410656 -0.03364066 -0.14270347 -0.10814727 -0.14799465
-0.15301935 0.07948408 0.15120403 0.1486244 0.0013248975 0.07522725 -0.16052008 0.1544134
0.0049063396 -0.03974887 -0.07433956 -0.1060109 0.09255149 -0.15947048 0.14963065 -0.10185749
0.0018562546 -0.11805385 -0.0027113957 0.0968177 -0.0020744884 -0.1806478 -0.1355826 0.072859034
-0.18965869 0.13330144 0.18364628 -0.039357737 0.1446115 -0.012136401 0.089645855 0.0758041
-0.08593787 0.08243804 -0.054265235 -0.021289058 0.13106157 -0.1266071 0.066333726 0.015981017
-0.112104245 -0.15327026 0.023575855 -0.10638927 -0.085919514 0.010456338 0.050478462 0.09677984
0.191234 -0.019950254 -0.2028387 -0.027202016 -0.14275785 -0.11712234 0.15827596 0.09608438
0.08342046 -0.12677981 -0.061964583 0.08181973 0.09990454 0.007906422 0.018702937 -0.1233108
0.09521305 -0.026910339 -0.05657875 -0.14628822 -0.18244183 0.013633871 0.10035198 -0.044005748
-0.16680522 0.10274391 0.06436531 0.015679548 -0.12899008 -0.17826086 -0.08575465 0.082584046
0.055183508 -0.038030956 0.115701176 -0.1712841 0.19182877 -0.19322085 0.02977135 0.06537567
0.05625621 -0.098181486 -0.07140913 -0.06646744 -0.06684585 -0.054983612 -0.14755602 -0.1273565
-0.08381842 0.14615794 -0.04659206 0.114279196 -0.06441932 0.15876424 0.13206857 -0.05857827
0.1672801 -0.06429314 0.049259163 -0.18773484 0.20057938 0.09988874 -0.10402015 0.030231649
-0.037436515 -0.027276725 -0.058302525 -0.012793282 -0.14998192 0.16084227 0.032058287 0.07833768
-0.19013162 -0.18576531 0.09870654 0.085929975 0.07259123 0.08291141 0.1505172 -0.057342343
0.06389885 0.049099352 0.017125437 -0.074754775 0.048412725 -0.06309311 0.19377781 -0.115779616
0.07027714 -0.09471242 0.21894911 0.029802708 -0.07265977 0.03732526 0.10600902 -0.11808924
0.07990264 0.11005191 -0.084888294 0.096012264 -0.0054710493 0.0043636844 -0.085330054 -0.10568953
-0.11505402 0.03738983 0.16971025 0.07714898 -0.08291293 -0.15607142 -0.078306764 -0.05875875
0.02999362 -0.049798165 0.05028906 0.00621281 -0.039750893 -0.035273816 0.012044102 -0.018887898
0.12980983 0.09936721 0.16704465 0.08790187 0.097778566 0.09502255 0.12239036 0.020335315
-0.080529526 0.13499041 -0.076044366 0.04534881 -0.031187847 -0.10004019 -0.102983914 -0.0057122633
0.0006193157 0.14206715 0.07776252 0.14321744 0.12377218 -0.0031432044 0.11395979 0.069202326
-0.22253412 -0.045039903 -0.03529856 -0.13071613 0.043956902 -0.08914072 0.17468888 -0.011184929
-0.044299908 -0.051102053 -0.084096685 0.050782323 -0.15278532 0.055591933 -0.07767707 0.016379906
-0.16053665 0.08693118 0.07110038 0.10497572 -0.12909213 0.021547373 -0.077504195 0.13936368
0.010205229 0.045074243 -0.16005914 0.12603942 0.028087612 0.006940186 -0.0865628 -0.107382864
0.13981639 0.19133669 -0.16118045 -0.07089039 0.048702303 0.17075257 0.0010354698 -0.099636406
